saved_models/model-epoch-60.pth (torch, 249162 bytes, 52 tensors)

embeddings f4 [99, 32]
000000 b8 e9 8e 3d 44 28 10 be 7c 91 ff bd 23 72 b3 3d
       0.06978172 -0.1407786 -0.12478921 0.08762004
000010 17 c9 76 bd 6a ff 90 3d af 4f 6d 3d 6e 2e 10 be
       -0.060250368 0.07079966 0.05793732 -0.14080212
000020 ee 82 e4 bd 73 a2 16 bd 28 5f 1b bd 34 d3 1b be
       -0.11157785 -0.036776017 -0.037932545 -0.15217286
000030 37 7f 40 3e 12 0f 7f bd 1d ab 3f be 65 37 0a bc
       0.18798529 -0.06227023 -0.18717618 -0.008436059
000040 26 1a 56 bd 2f 03 b8 bd 6e 12 c0 bc 73 b8 1f 3d
       -0.05227103 -0.08984982 -0.023446288 0.038994264
000050 47 9b 1b 3e b0 fa 1e 3e 02 88 ec 3d 52 06 26 bc
       0.15195952 0.15525317 0.11549379 -0.010133343
000060 81 20 14 be 9b 73 39 3e 78 b1 37 3e 5e 57 c0 bd
       -0.14465524 0.18110506 0.17938793 -0.09391664
000070 89 ef 19 bd 4f c2 1a 3e 4c b8 0d be e2 59 42 3e
       -0.037581954 0.15113185 -0.13839835 0.189796
000080 c9 b1 a3 3d e7 3a e5 bd 48 f2 2a be 19 b3 a5 bd
       0.07992894 -0.11192875 -0.16693985 -0.08090801
000090 29 12 44 bd 0d d4 2b 3e f6 09 01 bd 41 1c 0e be
       -0.04786888 0.1678011 -0.03150364 -0.13877966
0000a0 ab 99 a8 bd 83 07 44 bd 58 7e c4 bc 8d 97 72 3c
       -0.08232435 -0.047858726 -0.023986027 0.01480664
0000b0 05 12 6f 3d 03 80 a8 bc c9 56 50 3e 70 bf ec 3d
       0.058366794 -0.020568853 0.20345606 0.11559951
0000c0 11 ca 39 3e da a5 0f 3e c3 77 21 3e cb 92 48 3e
       0.18143488 0.14028111 0.15768342 0.19587247
0000d0 7d 27 54 be 55 da 5a bd 09 a6 35 3e 76 e3 ca bd
       -0.20718189 -0.053430874 0.17739119 -0.09906666
0000e0 48 da 55 be b9 38 01 3d 2b fb 40 3e c8 6c a4 bd
       -0.20884049 0.031548236 0.18845813 -0.08028561
0000f0 9b cb 58 be 44 37 a3 3d 7c b0 ee bd de 4c 83 bc
       -0.2117142 0.079695255 -0.116547555 -0.016027864
000100 c3 be dd 3d 25 fa 92 bd fc b5 48 3d 8e cc 1f be
       0.108274005 -0.071766175 0.04900168 -0.15605375
000110 f1 56 1e 3e 1b 96 10 3e 56 61 15 3e 06 12 67 bd
       0.15462853 0.1411976 0.14587912 -0.056413673
000120 ff f6 57 be 2e 69 4d be 16 43 63 3d da e6 9a 3d
       -0.21090315 -0.20059654 0.0554839 0.07563563
000130 6a e8 06 3e 9f 82 28 3e 77 3a bb 3d 37 ac 31 3e
       0.13174596 0.16456078 0.09142011 0.17350851
000140 9e 2b 81 bd b5 75 52 3e 1a 48 8f 38 22 41 46 be
       -0.063071474 0.20552714 6.832201e-05 -0.19360784
000150 00 be 22 3e 58 15 00 bd 58 e4 4e be 25 5e ea 3d
       0.15892792 -0.031270355 -0.20204294 0.11443738
000160 ee dd 3e 3e 99 40 0f 3e 15 30 3f 3e 29 26 3e 3e
       0.18639347 0.13989486 0.18670686 0.18569244
000170 70 f6 11 bc 5a 3a 8d bd f5 fb 60 3d a7 19 1b bd
       -0.008908853 -0.06895895 0.054927785 -0.03786626
000180 f8 b4 2b 3c 58 0c 00 3e e7 02 79 bd 82 88 e1 3d
       0.010480158 0.12504709 -0.060793784 0.11012365
000190 c5 cc 5a 3e fd f0 3f be 6b 51 38 be 84 b9 48 bd
       0.21367176 -0.18744273 -0.17999808 -0.049005046
0001a0 5f 7e bc bd c3 bc 36 3e d5 48 38 be 43 30 34 3e
       -0.09203791 0.17845444 -0.17996533 0.17596535
0001b0 de 6a e5 3d 53 1a 52 be 30 19 32 3e 66 88 e9 bd
       0.11202024 -0.20517854 0.17392421 -0.11402969
0001c0 11 37 40 be 1c 8f 6f 3d 8b b7 ba bd d9 af 21 3e
       -0.18771006 0.05848609 -0.09117039 0.15789737
0001d0 2f 98 e1 3d 85 5a 0d be 94 a2 ff bb f4 b2 1e be
       0.11015355 -0.13804062 -0.0078013632 -0.15497953
0001e0 e1 8c 0d bc 61 9e 7d ba 72 96 a7 3d f9 44 89 bd
       -0.008639545 -0.00096747844 0.08182992 -0.067026086
0001f0 12 0e 9f bd 82 0f 30 3e 78 cc 46 be 51 9a 5a be
       -0.077663556 0.17193416 -0.19413936 -0.2134793
000200 8d f7 ed bd ad a0 28 3e a1 24 07 3e 23 c8 46 be
       -0.11619482 0.16467543 0.13197567 -0.19412284
000210 0c 39 81 bd 43 d8 52 3e e1 d1 57 be b4 4f fb bc
       -0.06309709 0.2059031 -0.21076156 -0.030677654
000220 1d bd 49 3e 1c da ea 3c 6d ab 50 3e b4 83 ec 3d
       0.19701047 0.028668456 0.20377894 0.11548558
000230 87 a2 3c be d3 7c 57 3e 78 5c 36 3e 9c 9d 11 be
       -0.18421374 0.2104371 0.17808712 -0.1422028
000240 3e 76 b8 3d bf 14 d4 bd fc 9c 2d be 9b 82 b2 bc
       0.09006928 -0.103555195 -0.16954416 -0.021790793
000250 10 5f 52 3b 26 de 11 be e0 d5 20 be 64 f5 40 bc
       0.0032100119 -0.14244899 -0.15706587 -0.011777256
000260 dc 69 6a 3c 6b 16 36 3e b9 7e 52 3e 88 7b 2d bc
       0.014307465 0.1778199 0.20556153 -0.010588534
000270 db 71 f6 bd dc 92 2d 3e 68 e6 c2 3d 1d d4 37 be
       -0.12033435 0.16950554 0.09516603 -0.17952009
000280 fa f3 d3 bc 29 b0 15 be dd f2 1d 3e 06 97 20 bd
       -0.025873173 -0.14617981 0.15424676 -0.039206527
000290 15 82 b5 bd bc fd c0 3c 32 0e 31 be 0b 25 ad 3d
       -0.08862702 0.02355849 -0.17290571 0.08454331
0002a0 09 6d 25 3e 38 d8 3e be 4d ff 7b bd ce fe be 3d
       0.16154875 -0.18637168 -0.06152277 0.09325944
0002b0 fb 32 90 3d 40 87 a5 3d 21 fc 03 3e 8a 33 2f bc
       0.07040974 0.080824375 0.12889148 -0.01069344
0002c0 89 97 b3 bd a1 20 46 bd 7e 5c 1c bd 5f 70 b3 3c
       -0.087691374 -0.04837096 -0.038174145 0.021904169
0002d0 11 bd b7 3d cf 37 2c be 0e f0 98 3c 53 72 53 be
       0.089716084 -0.16818164 0.018669154 -0.2064908
0002e0 55 bf ea 3d 72 f3 48 3e 6c 84 16 be e5 36 54 3e
       0.11462275 0.19624117 -0.14698952 0.20724066
0002f0 06 60 f9 3d 20 0b c0 bd 0c f5 34 be f3 3b f8 3d
       0.12176518 -0.09377122 -0.17671603 0.121208094
000300 b5 ac 38 3e b1 dc d0 bd d1 08 11 be a9 1a 50 bb
       0.18034633 -0.101983435 -0.1416352 -0.0031754172
000310 df 56 fd bd 3e 9d e3 bd 4a cc 1a 3e a6 3e 1f 3e
       -0.12370085 -0.11113976 0.15116993 0.15551242
000320 59 7d b5 bd f6 0c 38 3e 52 72 81 3d 7d 0f be bd
       -0.08861799 0.17973694 0.06320633 -0.09280298
000330 08 72 d4 bc e9 0f e5 bd 3d ff 32 be fc ff 80 bd
       -0.02593328 -0.11184675 -0.17480178 -0.06298825
000340 2e 2c 39 bd cd 00 40 be 3b 0a 9e bd b4 31 9d bc
       -0.04520815 -0.18750305 -0.07716795 -0.01918874
000350 fd 68 56 3e 94 ef 90 3d a9 c4 c5 3d 2b 9e 3b bd
       0.20938487 0.07076946 0.096566506 -0.045805138
000360 b4 af ba bd 8a cc 80 bc 22 1e 01 3d 53 95 25 3e
       -0.09115544 -0.015722532 0.031522878 0.16170244
000370 1a be 4d be c6 46 16 be 81 8c 31 be 74 20 4d 3e
       -0.20092049 -0.14675435 -0.17338754 0.20031911
000380 23 b2 3e 3e 91 e1 f8 3d 91 91 22 be a0 5a b1 bc
       0.18622641 0.121523984 -0.15875842 -0.021649659
000390 9c 5b 81 3d e9 23 23 3e 0b cb ba bb fc 84 30 3e
       0.06316301 0.15931667 -0.005700474 0.1723823
0003a0 a5 dc 3e 3d 96 40 a8 bd 94 17 bd bd af ea 2b 3e
       0.04659714 -0.08215444 -0.09233013 0.16788743
0003b0 3e be 3e be 59 d5 8f 3c 4a 74 3b 3e e3 df d1 bd
       -0.18627259 0.017557787 0.1830608 -0.10247781
0003c0 33 aa cd 3d 94 90 f5 bd a1 1d 34 3e 57 0d ef bd
       0.100422285 -0.11990467 0.17589428 -0.11672466
0003d0 57 fe 1b be ce fa 04 be 39 fa 18 be fe 9d fa 3d
       -0.15233742 -0.129863 -0.14939202 0.12237166
0003e0 0d e7 a3 bd d9 db 53 3d 59 a5 a3 3d 3e f4 99 3d
       -0.08003054 0.051723335 0.07990522 0.075172886
0003f0 30 3a 10 3e ee 67 39 be 07 23 c5 bc d8 c3 47 3e
       0.14084697 -0.18106052 -0.024064554 0.19508302

_pos_embeds f4 [64, 32]
000000 00 00 00 00 00 00 80 3f 00 00 00 00 00 00 80 3f
       0.0 1.0 0.0 1.0
000010 00 00 00 00 00 00 80 3f 00 00 00 00 00 00 80 3f
       0.0 1.0 0.0 1.0
000020 00 00 00 00 00 00 80 3f 00 00 00 00 00 00 80 3f
       0.0 1.0 0.0 1.0
000030 00 00 00 00 00 00 80 3f 00 00 00 00 00 00 80 3f
       0.0 1.0 0.0 1.0
000040 00 00 00 00 00 00 80 3f 00 00 00 00 00 00 80 3f
       0.0 1.0 0.0 1.0
000050 00 00 00 00 00 00 80 3f 00 00 00 00 00 00 80 3f
       0.0 1.0 0.0 1.0
000060 00 00 00 00 00 00 80 3f 00 00 00 00 00 00 80 3f
       0.0 1.0 0.0 1.0
000070 00 00 00 00 00 00 80 3f 00 00 00 00 00 00 80 3f
       0.0 1.0 0.0 1.0
000080 a4 6a 57 3f 40 51 0a 3f ba 7d 08 3f 0e 94 58 3f
       0.84147096 0.5403023 0.53316844 0.84600914
000090 3e 39 9f 3e 6a 4e 73 3f 3a 23 35 3e 83 f6 7b 3f
       0.3109836 0.95041525 0.17689219 0.9842302
0000a0 76 75 cc 3d 98 b8 7e 3f b0 36 66 3d 68 98 7f 3f
       0.099833414 0.9950042 0.056204498 0.9984193
0000b0 5c 81 01 3d 3c df 7f 3f 42 ab 91 3c a3 f5 7f 3f
       0.031617507 0.99950004 0.017781857 0.99984187
0000c0 57 d6 23 3c b9 fc 7f 3f 5c 44 b8 3b f7 fe 7f 3f
       0.009999833 0.99995 0.0056233834 0.9999842
0000d0 20 3e 4f 3b ac ff 7f 3f 20 15 e9 3a e5 ff 7f 3f
       0.0031622723 0.999995 0.0017782785 0.9999984
0000e0 6d 12 83 3a f8 ff 7f 3f 16 6a 13 3a fd ff 7f 3f
       0.0009999998 0.9999995 0.0005623413 0.9999998
0000f0 5f cb a5 39 ff ff 7f 3f 53 77 3a 39 00 00 80 3f
       0.00031622776 0.99999994 0.00017782794 1.0
000100 b7 c7 68 3f 33 11 d5 be 0a f2 66 3f b2 e8 dc 3e
       0.9092974 -0.41614684 0.9021307 0.43146282
000110 1b 54 17 3f ec 7b 4e 3f f6 47 b2 3e a5 fa 6f 3f
       0.5911271 0.8065784 0.34820527 0.9374183
000120 f9 6f 4b 3e a5 e5 7a 3f 88 d9 e5 3d f3 61 7e 3f
       0.19866933 0.9800666 0.112231314 0.9936821
000130 c8 70 81 3d f9 7c 7f 3f 5c a5 11 3d 8e d6 7f 3f
       0.063203394 0.9980007 0.03555809 0.9993676
000140 3e d4 a3 3c e5 f2 7f 3f 9d 43 38 3c db fb 7f 3f
       0.019998666 0.9998 0.011246589 0.99993676
000150 dd 3d cf 3b b0 fe 7f 3f 08 15 69 3b 96 ff 7f 3f
       0.0063245133 0.99998 0.0035565514 0.9999937
000160 69 12 03 3b de ff 7f 3f 14 6a 93 3a f5 ff 7f 3f
       0.0019999987 0.999998 0.0011246824 0.99999934
000170 5f cb 25 3a fd ff 7f 3f 53 77 ba 39 ff ff 7f 3f
       0.0006324555 0.9999998 0.00035565588 0.99999994
000180 c3 81 10 3e 26 70 7d bf d7 45 7e 3f a8 7f ed bd
       0.14112 -0.9899925 0.9932532 -0.11596614
000190 c2 09 50 3f 57 2f 15 3f 6d 2f 02 3f 29 6d 5c 3f
       0.8126489 0.5827536 0.50853616 0.86104065
0001a0 6d 4e 97 3e ef 90 74 3f d8 ee 2b 3e 9e 5d 7c 3f
       0.29552022 0.9553365 0.1679033 0.9858035
0001b0 c1 ff c1 3d 4f d9 7e 3f 4d 69 5a 3d c3 a2 7f 3f
       0.09472609 0.99550337 0.05332308 0.9985773
0001c0 20 b9 f5 3c 83 e2 7f 3f c7 31 8a 3c ad f6 7f 3f
       0.029995501 0.99955004 0.016869439 0.9998577
0001d0 11 6e 1b 3c 0d fd 7f 3f a8 cf ae 3b 11 ff 7f 3f
       0.009486691 0.999955 0.005334813 0.99998575
0001e0 93 9b 44 3b b5 ff 7f 3f 1b 1f dd 3a e8 ff 7f 3f
       0.0029999956 0.9999955 0.0016870232 0.99999857
0001f0 0d b1 78 3a f8 ff 7f 3f 7e d9 0b 3a fe ff 7f 3f
       0.0009486832 0.9999995 0.0005334838 0.9999999
000200 cf bd 41 bf 30 55 27 bf ed 49 47 3f 9d af 20 bf
       -0.7568025 -0.6536436 0.77847177 -0.62767965
000210 de 1d 74 3f b1 2e 9a 3e bc 1f 27 3f ed eb 41 3f
       0.95358074 0.30113748 0.652828 0.7575062
000220 d7 61 c7 3e a7 ca 6b 3f c6 65 64 3e 09 8d 79 3f
       0.38941833 0.921061 0.22304448 0.9748083
000230 88 2e 01 3e 69 f4 7d 3f c8 8d 91 3d 47 5a 7f 3f
       0.12615407 0.99201065 0.07107121 0.9974713
000240 db cb 23 3d 94 cb 7f 3f a2 40 b8 3c 6c ef 7f 3f
       0.039989334 0.9992001 0.022491757 0.99974704
000250 cd 3c 4f 3c c2 fa 7f 3f a7 14 e9 3b 58 fe 7f 3f
       0.012648773 0.99992 0.0071130577 0.9999747
000260 58 12 83 3b 7a ff 7f 3f 0e 6a 13 3b d6 ff 7f 3f
       0.0039999895 0.999992 0.0022493633 0.9999975
000270 5c cb a5 3a f3 ff 7f 3f 52 77 3a 3a fc ff 7f 3f
       0.0012649107 0.9999992 0.0007113117 0.99999976
000280 10 7c 75 bf 2c 3c 91 3e d6 da a5 3e 40 32 72 bf
       -0.9589243 0.2836622 0.3239352 -0.94607925
000290 7f fc 7f 3f d4 72 29 bc ab ca 46 3f f1 4c 21 3f
       0.99994653 -0.010342319 0.77652997 0.6300803
0002a0 44 77 f5 3e 40 a9 60 3f ee 11 8e 3e 7c f2 75 3f
       0.47942555 0.87758255 0.27748054 0.96073127
0002b0 1e 3c 21 3e 81 ce 7c 3f 21 db b5 3d 1e fd 7e 3f
       0.15745589 0.987526 0.08879686 0.99604976
0002c0 f5 b6 4c 3d 19 ae 7f 3f fe 4d e6 3c 19 e6 7f 3f
       0.04997917 0.99875027 0.028113361 0.99960476
0002d0 81 85 81 3c cf f7 7f 3f bb ac 11 3c 69 fd 7f 3f
       0.01581073 0.999875 0.00889128 0.9999605
0002e0 de d6 a3 3b 2e ff 7f 3f 8c 44 38 3b be ff 7f 3f
       0.0049999794 0.9999875 0.002811703 0.99999607
0002f0 31 3e cf 3a eb ff 7f 3f 26 15 69 3a f9 ff 7f 3f
       0.0015811381 0.99999875 0.0008891396 0.9999996
000300 8c 0f 8f be b8 cd 75 3f 74 e5 6b be 53 1d 79 bf
       -0.2794155 0.96017027 -0.23036748 -0.9731037
000310 4d 78 72 3f 6f 3f a4 be 89 30 60 3f 34 2f f7 3e
       0.94714814 -0.32079646 0.8757406 0.482782
000320 69 8c 10 3f 32 49 53 3f fd 7d a9 3e e2 90 71 3f
       0.5646425 0.8253356 0.33103934 0.943617
000330 6f 20 41 3e e3 67 7b 3f c1 19 da 3d 51 8b 7e 3f
       0.18860029 0.98205394 0.106494434 0.9943133
000340 d1 9c 75 3d 12 8a 7f 3f bf 2c 0a 3d b3 da 7f 3f
       0.059964005 0.99820054 0.03373408 0.99943084
000350 46 6c 9b 3c 34 f4 7f 3f 04 cf 2e 3c 45 fc 7f 3f
       0.018972527 0.99982 0.010669474 0.9999431
000360 59 9b c4 3b d2 fe 7f 3f 06 1f 5d 3b a1 ff 7f 3f
       0.005999964 0.999982 0.0033740415 0.99999434
000370 05 b1 f8 3a e2 ff 7f 3f 7d d9 8b 3a f6 ff 7f 3f
       0.0018973654 0.9999982 0.0010669675 0.9999994
000380 46 30 28 3f bd ff 40 3f 6e b6 36 bf 60 4f 33 bf
       0.6569866 0.75390226 -0.71372116 -0.7004299
000390 6f e8 4c 3f bb 74 19 bf 44 84 72 3f b9 f8 a3 3e
       0.80042166 -0.5994374 0.9473307 0.32025698
0003a0 73 eb 24 3f b3 cc 43 3f df 60 c4 3e c5 6b 6c 3f
       0.64421767 0.7648422 0.38355157 0.92351943
0003b0 50 d3 60 3e ea c0 79 3f ba 46 fe 3d e9 04 7e 3f
       0.2195561 0.9755999 0.12415834 0.9922624
0003c0 32 3e 8f 3d 81 5f 7f 3f 60 31 21 3d 3b cd 7f 3f
       0.06994285 0.997551 0.03935373 0.9992253
0003d0 a6 52 b5 3c f2 ef 7f 3f 2a f1 4b 3c ec fa 7f 3f
       0.022134136 0.999755 0.012447635 0.9999225
0003e0 c7 5f e5 3b 65 fe 7f 3f be fc 80 3b 7e ff 7f 3f
       0.006999943 0.9999755 0.003936379 0.99999225
0003f0 ec 11 11 3b d7 ff 7f 3f 66 28 a3 3a f3 ff 7f 3f
       0.0022135926 0.99999756 0.0012447953 0.9999992

W f4 [32, 32]
000000 95 0d 05 3e 69 55 98 3d bb 8d 38 bc 14 2d a7 3d
       0.12993462 0.07438166 -0.01126426 0.08162895
000010 d5 67 83 be f6 69 1f be d9 04 b3 bd ba 5f 2b 3e
       -0.25665155 -0.15567765 -0.08741159 0.16735736
000020 b1 65 2f be c9 23 cf bd b4 49 a4 3b aa d7 3e be
       -0.17128636 -0.10114247 0.005013669 -0.18636957
000030 58 50 53 3e ee 8d 28 3d eb 86 bc 3d 9f 43 8d bd
       0.20636117 0.04115098 0.09205421 -0.06897663
000040 e5 a7 68 bd 80 48 b3 3d 98 a9 82 3e 3b db 35 3e
       -0.05680074 0.08754063 0.25520015 0.17759411
000050 25 58 66 be c0 91 80 3d ca 21 b2 3d 26 8c 66 3e
       -0.22494562 0.062777996 0.08697851 0.225144
000060 e8 cf dd 3d 3e 6e 64 be f6 6c 99 3d ea bd 45 3e
       0.108306706 -0.22307679 0.07491486 0.19310728
000070 3b fc 38 3e 65 a5 0c be 0c 24 54 be 42 af 0f 3e
       0.18064968 -0.13734968 -0.20716876 0.140317
000080 0c e4 6e bb d0 0e 7b be ef 52 1d bd 66 b4 2f 3e
       -0.0036451844 -0.2451737 -0.03840917 0.1715866
000090 f9 79 ef bd 25 b3 95 3d c7 39 07 bd 66 6b 8b 3e
       -0.11693186 0.0730956 -0.033014085 0.27230376
0000a0 a0 c0 00 3e ce 67 38 3d 27 58 b0 bd 1c ff 4e be
       0.1257348 0.04502087 -0.08610564 -0.20214504
0000b0 67 d8 88 3e e7 8e 76 be 42 ec 83 3e ba 5a 39 3d
       0.26727602 -0.2407795 0.25766188 0.04525254
0000c0 76 a7 0b be a8 91 91 3e fd 1d 83 be 00 e3 f9 3d
       -0.136381 0.2843144 -0.25608817 0.122015
0000d0 67 f9 4b 3e f0 f8 9e 3e 1c 5c 20 be a6 26 6f 3e
       0.19919358 0.310493 -0.15660137 0.23354587
0000e0 23 9b 36 3e 16 22 f2 3d b7 6a 21 3e f6 ae 4f bc
       0.17832617 0.118229076 0.15763365 -0.012675991
0000f0 fb cb 84 3e f3 7c 85 3e b0 3f 15 be 04 03 93 3e
       0.25936875 0.2607189 -0.14575076 0.28713238
000100 ce 68 14 3d 5e eb f7 3d 60 d1 06 be 6d ee d2 3d
       0.036232762 0.121054396 -0.13165808 0.10299382
000110 28 79 48 3e 0d 61 50 3e 6e c7 85 3e 6c 21 3a be
       0.19577467 0.20349522 0.26128715 -0.18176812
000120 75 13 5e 3e 4d 67 c7 bd d8 9d 73 be 52 7e 88 be
       0.2168711 -0.097365 -0.23790681 -0.26658875
000130 09 85 8b be 53 36 1a be 17 f8 57 be 59 c3 0e 3e
       -0.27249935 -0.15059786 -0.21090733 0.13941707
000140 61 86 32 be f1 b8 ce 3d e6 59 30 3e 5a d3 73 be
       -0.17434074 0.100938685 0.17221794 -0.23811093
000150 a1 77 03 3e b2 10 48 be 64 1e c2 bd c3 95 12 be
       0.12838604 -0.19537619 -0.09478453 -0.14314942
000160 32 6c c0 bd 89 53 73 be 54 64 13 be 48 29 d3 bb
       -0.093956366 -0.23762335 -0.14393741 -0.00644413
000170 61 18 a6 bc 21 b4 73 bd 2c a3 98 be 0b 0a 06 3e
       -0.020275297 -0.059497956 -0.2981199 0.13089769
000180 b4 5e 05 3e b9 43 32 3e 31 d2 72 be 0d 96 40 be
       0.13024408 0.17408647 -0.23712994 -0.1880724
000190 c3 6b 35 bd c5 05 db 3d c2 e7 d2 3d 45 71 6c 3d
       -0.044292223 0.1069446 0.102981105 0.05772521
0001a0 b5 94 44 bd 5d 43 04 3e f2 1a 88 bd 41 e3 d7 bc
       -0.04799338 0.12916322 -0.066457644 -0.02635348
0001b0 02 c8 84 3e fd 6b 92 3e 7b c8 75 be 76 1c db bc
       0.25933844 0.28598014 -0.24002258 -0.02674697
0001c0 67 e6 66 3e 46 1f 50 be bd cb 45 3e ee 34 49 bd
       0.22548829 -0.2032443 0.19316001 -0.049122743
0001d0 eb 5c 41 be e0 29 8b 3e 0a ca 9a 3e d4 a6 fe 3d
       -0.18883102 0.27180386 0.3023227 0.12434164
0001e0 41 97 2d 3e 24 4f 19 be 0e c2 37 3e c4 52 00 3e
       0.1695223 -0.14971596 0.1794512 0.12531573
0001f0 c4 70 42 bd 1f 08 dd bb bb 25 c6 3d 0d a6 9b be
       -0.047470823 -0.006745353 0.09675165 -0.30400124
000200 c8 15 22 be 45 7d 2b be 09 0e 78 be c8 7f 29 3d
       -0.15828621 -0.16747005 -0.24224104 0.041381627
000210 3b 4d 47 3d 75 cf 4e be be ba 24 bd 02 68 89 3d
       0.048657637 -0.20196326 -0.040217154 0.06709291
000220 9e e1 3e 3e db c8 6b 3e a6 10 9d be 36 f1 17 be
       0.18640754 0.23025839 -0.30676764 -0.14838108
000230 d2 58 6b be 9d 8b ec bd f9 b6 21 3e 95 23 7c be
       -0.22983101 -0.115500666 0.15792455 -0.24622948
000240 ed 9e 42 3c fe d9 95 3d c7 ca 26 3e 88 e0 98 be
       0.011878711 0.07316969 0.16288291 -0.29858804
000250 ed f2 78 be 77 be 7f 3e d2 c4 f6 3d 36 be 4c 3e
       -0.24311419 0.24975 0.12049259 0.19994435
000260 4e 3d 2b be 48 01 e9 3d aa 99 7f be 59 21 71 be
       -0.16722605 0.113771975 -0.24960962 -0.23547877
000270 17 d6 0b 3e f2 89 09 3e 6b 1c 77 be 37 bc 9a be
       0.13655888 0.13431528 -0.24131934 -0.30221722
000280 50 3b 87 3d 34 53 c4 3d 33 ff 2f bd 5c 44 c2 bd
       0.0660311 0.09586182 -0.042967986 -0.09485695
000290 be 00 3c 3d e4 66 80 be a4 c5 5b be 4f c7 0b be
       0.045899145 -0.250785 -0.21462113 -0.13650249
0002a0 ec 5a 3b be bb 6c 8f be ad e8 8e 3e 0c b1 74 3e
       -0.18296403 -0.28012642 0.27911893 0.23895663
0002b0 29 cf 04 be 5a 06 33 3e ea bb ad bd 84 86 0d 3e
       -0.1296965 0.17482892 -0.084831074 0.13820845
0002c0 b3 b0 82 3e 56 e0 03 3e 8d 87 88 be 3c 67 66 be
       0.25525436 0.12878546 -0.26665917 -0.22500318
0002d0 8d 60 ec 3d 40 67 31 3e f8 8a 2f 3e fd 8d 67 3e
       0.11541853 0.17324543 0.17142856 0.22612758
0002e0 75 3d 84 be a3 3f 15 3d d9 5c 08 3e d7 8f 56 3c
       -0.25828138 0.03643764 0.13316669 0.0130958175
0002f0 ac 8f 21 3e 3e 1d 21 be 5d 36 71 bd 53 fe 09 3e
       0.15777463 -0.15733811 -0.058889735 0.13475923
000300 05 05 09 bd d4 e5 32 3c 72 16 30 be 48 f4 2d 3d
       -0.033452053 0.010919053 -0.17196062 0.042469293
000310 77 1b 4e be 81 64 55 be 52 56 62 3c 99 bf 7b be
       -0.20127665 -0.2083912 0.013814526 -0.24584807
000320 ab 73 8f 3e 84 d2 38 be 41 c0 97 be 33 e4 66 3e
       0.28017935 -0.18049055 -0.29638866 0.22547989
000330 58 8f 31 3e 73 26 35 3d 30 f9 32 be 1f ad 6f 3e
       0.17339838 0.04422612 -0.1747787 0.23405884
000340 0e fa 86 be 05 d7 07 3e 84 b4 46 be 4c 9a 84 be
       -0.26362652 0.13265617 -0.19404799 -0.2589897
000350 f7 73 9e be 43 0c 1d bd 14 5c 20 3e 72 b2 03 be
       -0.3094785 -0.03834177 0.15660125 -0.1286104
000360 53 6b 93 3d af 83 9a 3d 6d 65 7c be 9f 3d 8a be
       0.07198205 0.07544648 -0.24648066 -0.27000138
000370 a1 e5 37 bd 4e 62 16 be 81 10 59 3d 17 1a 76 3d
       -0.044896726 -0.14685938 0.052994255 0.060083475
000380 47 ae 15 bb 8c 67 8d be 5a d4 60 3e 38 5b 89 be
       -0.0022839473 -0.27618062 0.21956006 -0.26827407
000390 9d 9c ab 3d 14 97 bb bd af 69 0a be fd cf 20 be
       0.08379481 -0.09159675 -0.13516878 -0.15704341
0003a0 22 3f c3 3d 22 6e 79 3e ea 6e 92 3a 78 8f 07 3e
       0.09533526 0.24358419 0.0011171971 0.13238323
0003b0 9f 93 84 3e a6 b3 67 be ee 3a 2f bd 64 67 21 3e
       0.25893876 -0.22627124 -0.04278081 0.15762097
0003c0 3b 0c 34 3e 20 a0 cc bd dc 2a 11 be a3 98 91 3e
       0.1758279 -0.09991479 -0.14176506 0.28436765
0003d0 9e d4 17 be 64 33 4d be 94 99 87 3e 1e 72 1f 3c
       -0.14827201 -0.20039135 0.26484358 0.0097317975
0003e0 1c 3d 72 be e1 0c 83 3e d4 6e 5f be 0d 49 04 be
       -0.23656124 0.25595763 -0.21819621 -0.12918492
0003f0 70 62 93 3d 0d 7b 42 bd 7c 8e 51 be 3e bb c6 3d
       0.0719651 -0.04748063 -0.2046451 0.09703682

b f4 [32]
000000 bd 51 b4 3b de ca 38 3c c0 6d 3d bc a0 37 a4 3b
       0.005502908 0.011278836 -0.011561811 0.005011514
000010 89 e4 04 39 db 4f ef bb a6 f0 ff bb 66 c7 9a 3c
       0.00012673637 -0.0073032207 -0.00781067 0.018893909
000020 3c ee 02 3c a7 a3 53 3c cc c8 a5 3b d5 3c 81 3b
       0.00799137 0.012917436 0.0050593372 0.0039440193
000030 c4 94 96 bb 88 bb 5f 3c 28 bd cc bb d0 79 80 3c
       -0.004595371 0.013655551 -0.006248135 0.015683085
000040 ed 90 bf 3c 53 ea 88 bb 1c ff f4 ba 62 8d 44 ba
       0.023384536 -0.0041783242 -0.0018691751 -0.00074978743
000050 8e 6e 86 bc e2 e7 7a bb 64 de a5 bc 71 33 16 3c
       -0.016410138 -0.0038285186 -0.020247646 0.009167538
000060 94 83 71 3c 25 fa 06 3c 80 91 20 ba de 4a de bb
       0.014740843 0.00823835 -0.0006125197 -0.006783827
000070 16 c6 59 bc 2d 9a 85 3c d8 a4 d0 bb b5 80 82 3c
       -0.013291856 0.016308868 -0.006367307 0.015930513

W f4 [32, 32]
000000 b4 63 6f be 6c 61 97 bd 12 7a 60 be 27 40 1b 3e
       -0.23377877 -0.073916286 -0.21921566 0.15161191
000010 35 f6 02 be 95 2d 97 3c 6d fd 1a bd 3b e4 9a 3c
       -0.12789233 0.018454352 -0.037839342 0.018907657
000020 47 d0 24 be 08 51 31 be 39 2b 7d bd 2e d3 95 3e
       -0.16095077 -0.17316067 -0.0618088 0.2926268
000030 2e f6 ae 3d c8 30 6d 3d 11 be cb 3c f9 3f 4a bd
       0.08543049 0.05790785 0.024870904 -0.049377415
000040 73 b7 d1 3d 46 8d 63 3e ec 2a a6 bd ed 26 92 be
       0.10240068 0.2222186 -0.081136554 -0.28545323
000050 de 8b 8f be 65 f8 0f 3e ce 74 dc bc 37 44 f5 bd
       -0.28036398 0.14059599 -0.026911166 -0.119759016
000060 6d 0a 00 be a1 f1 dc bd 5c f2 1a be f0 04 73 3e
       -0.12503977 -0.107882746 -0.15131515 0.23732352
000070 33 c6 6c be 80 99 5c 3d 0a 11 5a 3e 73 77 56 be
       -0.23122482 0.053857327 0.21295562 -0.20944004
000080 d2 f0 47 3e 81 3d 61 3e 1f 54 4d 3e 0f 20 82 be
       0.1952546 0.21996118 0.20051621 -0.25415084
000090 21 70 40 3e e7 22 4b bd 4a c6 75 3b 47 98 d0 3d
       0.18792774 -0.049593832 0.0037502223 0.101852946
0000a0 ab 66 95 3e b6 59 9d bd 76 8f 0a 3e dc 8c 9e 3e
       0.29179892 -0.07683127 0.13531289 0.30966842
0000b0 b9 91 5f 3e 37 75 d1 3d 0a 89 8b 3e ad 15 9b 3e
       0.21832933 0.10227435 0.2725299 0.30289975
0000c0 d2 b7 21 3e 31 fb a1 3d f0 e8 20 3e 3a f8 5d be
       0.15792778 0.07909239 0.15713859 -0.21676722
0000d0 41 2f 81 be 7f a4 79 3d e6 45 f8 3d 0d cf 63 3e
       -0.25231364 0.06094789 0.12122707 0.22246952
0000e0 14 ee 33 be 0f 37 93 3d c6 90 7e bc 6a 26 6c be
       -0.17571288 0.07188236 -0.015537446 -0.23061529
0000f0 bb f9 d6 3d fd 5b 86 bd 31 5f fc bd 34 38 1e be
       0.10496851 -0.06560514 -0.12322844 -0.15451127
000100 2d 95 46 3e 06 76 f7 bd 3e 9a 7a 3e 02 8d d1 3d
       0.19392844 -0.12083058 0.24472901 0.10231973
000110 07 ea 12 3d 4b 8d 14 3e 59 ff 09 3e 8b f3 20 be
       0.035867717 0.14507024 0.13476314 -0.15717904
000120 5f 26 85 be 9e 3b 84 bd b6 17 69 3e 5d 17 67 3e
       -0.26005837 -0.064566836 0.22762951 0.22567506
000130 b8 3d b8 3d 52 e7 96 3e 9b 37 7f be fd 5c 85 3e
       0.08996147 0.29473358 -0.24923556 0.26047507
000140 56 7c 4a 3e 23 2f 81 3e 81 1d 58 3c aa 2a 2d 3e
       0.19773993 0.25231275 0.013190628 0.16910806
000150 67 41 c7 3d ed 8e 77 be 01 8c 85 be 6e b9 8b 3e
       0.097292714 -0.24175616 -0.26083377 0.2728991
000160 89 14 83 3e f5 0f 0c be e2 57 43 3e 54 01 45 be
       0.25601605 -0.13677962 0.19076493 -0.19238788
000170 d2 fd 8c be cb 0a 3a bd d2 74 9c be 20 5c 71 3d
       -0.275374 -0.04542045 -0.30557877 0.058925748
000180 cf be b8 bd 7e 57 a3 bc 9e 53 7f bd 98 3b 44 3e
       -0.09020769 -0.01993918 -0.062335603 0.19163358
000190 e5 2a 55 3d 0a 9e 68 3e f4 52 31 bd 52 8b 49 be
       0.05204286 0.22716537 -0.043292 -0.19682053
0001a0 30 89 8d be eb 4c c8 3d f2 78 df bd b4 fb 91 3e
       -0.27643728 0.09780296 -0.1091174 0.28512347
0001b0 aa 35 06 3e f8 b4 58 be ad f3 fb 3d 2c fe 89 3c
       0.13106409 -0.21162784 0.12302337 0.016844831
0001c0 a4 43 6d be b5 30 98 bc e7 0f 89 be e1 1d b3 3d
       -0.23170334 -0.018577913 -0.26769945 0.08745933
0001d0 26 88 81 3e 4d ff 3f be fa a7 3f be bb 53 a6 3c
       0.25299186 -0.18749733 -0.18716422 0.020303598
0001e0 56 92 6c be 63 f9 2f 3e 24 19 e1 bb 22 f5 50 be
       -0.23102698 0.17184977 -0.006869452 -0.20406011
0001f0 fd 28 70 3e dc 2b 5c be 68 77 34 be 51 05 87 be
       0.23453136 -0.21501106 -0.17623675 -0.26371244
000200 90 e4 50 3e d2 2d 00 3d 8d f1 e6 bd ab 77 6c 3e
       0.2039969 0.031293698 -0.11276541 0.23092525
000210 ef 50 83 be ab b4 57 be 7b d9 09 3c dd 72 07 3e
       -0.25647685 -0.21065013 0.008413668 0.1322741
000220 77 c1 22 3e 14 22 39 be 24 e0 21 3e f2 60 63 3d
       0.15894113 -0.18079406 0.15808159 0.055512376
000230 81 b3 90 3e 21 22 76 3e e7 a8 27 bc 0a f6 7b 3d
       0.2826195 0.24036457 -0.010233141 0.061513938
000240 1e 45 8b 3c bf 9c 9d 3d a0 13 79 3e ec dd 73 be
       0.017000731 0.076959126 0.24323893 -0.23815125
000250 ee 0e 94 3e 6f be 07 3e b8 92 19 bd 36 09 6b be
       0.2891764 0.13256238 -0.037493438 -0.22952732
000260 20 80 33 be 83 8b 98 3d d2 2d 73 3e ec 7e 84 be
       -0.17529345 0.07448485 0.23747948 -0.25878084
000270 fe d3 72 be 4b 93 fc 3d 70 84 80 be 02 06 69 3e
       -0.23713681 0.123327814 -0.25101042 0.22756198
000280 6a d9 5c be b6 b9 e9 3d 03 61 90 3e 65 2e a3 bd
       -0.21567312 0.11412375 0.28199014 -0.079678334
000290 13 81 38 bb 9f 8c cd bd 81 cf 69 3e 43 68 53 3e
       -0.0028153106 -0.10036587 0.22833063 0.20645241
0002a0 66 e4 9a 3d c3 89 bd bd 1c 6b 36 3e a5 47 e9 ba
       0.07563095 -0.092547916 0.17814296 -0.0017797841
0002b0 c5 ac af 3d 0f 74 86 be 5f ce 4d be e4 a5 8b 3e
       0.08577875 -0.2626042 -0.20098256 0.27275002
0002c0 7b 20 b6 3d 31 36 51 3e 6c eb 4e bc 36 64 07 be
       0.08892914 0.20430829 -0.012629371 -0.13221821
0002d0 75 e3 34 3e cb 32 84 3e f5 63 14 3e 18 10 df 3d
       0.17664893 0.25820002 0.14491256 0.108917415
0002e0 19 c2 8a 3e fc a7 61 be 5f a5 01 bc c0 f3 66 be
       0.2710121 -0.22036737 -0.007912963 -0.22553921
0002f0 7b c1 86 3d 0a 48 36 3e 70 3c 7b bd 79 2a b8 3d
       0.06579872 0.17800918 -0.061336935 0.08992476
000300 b0 d1 64 3e 94 c2 8e 3e b9 39 ad bc 3f 77 1b 3e
       0.22345614 0.27882826 -0.021145688 0.15182208
000310 9c d2 51 3e 57 06 2f 3e 79 04 6c be 6f 54 d4 3b
       0.20490497 0.17092262 -0.23048581 0.006479792
000320 2a 2e a1 bc c8 d0 93 3e ef c7 96 3e be fd 6f 3e
       -0.019675333 0.28870225 0.29449412 0.23436639
000330 ae b8 ab bd 9b 8b 46 3e 79 0c cc bd a8 67 76 3e
       -0.08384834 0.19389193 -0.099633165 0.24062979
000340 1e 85 5b 3e 13 d4 2e 3e a3 4c 87 be da 9c 25 be
       0.21437499 0.17073087 -0.26425657 -0.16173115
000350 ac 5c 18 bb e5 7c 30 3e d8 44 8b 3d cb 6d 05 bd
       -0.0023248596 0.17235143 0.0680024 -0.03257541
000360 39 b2 8c bd 80 b0 8a be 7d 75 12 3e 14 36 87 3e
       -0.06869931 -0.27087784 0.1430263 0.26408446
000370 b5 76 59 3e 4b 6f 83 be 21 e3 2d be 43 53 30 be
       0.2123669 -0.25670847 -0.16981174 -0.17219262
000380 30 43 8d 3e bc 69 52 be 92 51 23 be 8d 07 21 3e
       0.27590322 -0.20548147 -0.15949085 0.15725537
000390 29 d5 6b 3e c2 2f 2b 3d ca 94 f7 bd b5 11 94 3d
       0.23030533 0.041793592 -0.12088926 0.0722994
0003a0 69 58 3e 3c 9e 55 da bc 76 e7 2e 3e 62 62 86 be
       0.011617758 -0.026652154 0.17080483 -0.26246935
0003b0 d9 cc 9e bd 9e ef 35 be ee f9 85 bd 03 27 9b be
       -0.07753915 -0.17767188 -0.06541811 -0.303032
0003c0 8e 19 8c 3d e7 41 9a 3e e4 8a 68 3e 01 26 b7 bd
       0.06840812 0.30128404 0.22709233 -0.089427955
0003d0 96 c9 16 3e 8c 27 61 be 33 c0 61 3d 96 7f c9 bd
       0.14725336 -0.21987742 0.055114936 -0.09838788
0003e0 7e 8b 0d bc 8a d4 9a be ba 88 11 3e 73 aa 80 3e
       -0.008639215 -0.3024028 0.14212313 0.25130042
0003f0 3a d2 71 3d 50 4e fc 3d 32 3c 96 be 4e 7e 96 3e
       0.05903838 0.123196244 -0.293428 0.29393238

b f4 [32]
000000 1e bc ef ba fc 2b 95 bb 18 86 fc 3a c3 91 d2 3b
       -0.0018290316 -0.0045523625 0.0019266037 0.0064260676
000010 a0 95 76 bc d5 33 0e 3c f2 58 d0 3b 1b d2 dd 3b
       -0.015050322 0.00867935 0.0063582594 0.0067694313
000020 77 ff 4a 3b a4 a1 21 3b f5 39 61 bc 12 4a da 3a
       0.0030975023 0.0024662996 -0.013746728 0.0016654155
000030 76 af d6 bb 4b 04 2b bc 8d 60 b8 ba 9b 7b 76 3b
       -0.0065516783 -0.010438035 -0.001406686 0.0037610296
000040 59 d9 df ba 31 e8 57 3b 7d 8c 33 3b e6 46 0b 3a
       -0.0017078324 0.0032944793 0.002739697 0.0005312994
000050 bb 15 74 3b 52 29 57 bb d2 56 89 3b 0b 31 4f 3b
       0.0037244398 -0.0032831025 0.004191258 0.0031614925
000060 0a 9e 00 bc 07 9f e6 ba 93 7d 85 3b d2 df 44 bb
       -0.007850179 -0.0017595001 0.0040738075 -0.0030040634
000070 ac cd 5b ba e3 bd 82 3b 20 d8 f7 3b dc c3 aa bb
       -0.00083848345 0.0039899214 0.007563606 -0.0052113365

W f4 [32, 32]
000000 94 a9 bc 3d c3 ae 3d 3d 60 fe 01 3e 3f b8 76 3d
       0.09212032 0.046309244 0.12694693 0.060234305
000010 21 8e 89 bd a2 f3 a8 3d 15 02 68 3c e7 cc 74 be
       -0.06716562 0.08249594 0.014160653 -0.23906289
000020 5e 11 38 3e e8 86 a0 3e ed a2 2b 3e ae 4d 59 3c
       0.17975375 0.31352925 0.1676137 0.013263149
000030 73 c9 0c be 03 a3 54 be 8a 73 9c 3d 11 84 82 be
       -0.13748722 -0.20765309 0.07639225 -0.25491384
000040 00 39 d3 bd e6 65 80 be 80 ce 98 bd 58 df 50 3e
       -0.10313606 -0.25077742 -0.07461262 0.20397699
000050 38 fb 2d be 5e 15 bc bd c0 a1 63 3e 92 8a 1b 3e
       -0.16990364 -0.09183763 0.22229671 0.15189579
000060 63 c3 56 3e 7e c6 f0 3c e5 19 3b 3e 61 35 a3 bd
       0.20972972 0.029391523 0.18271597 -0.079691656
000070 43 03 60 be d0 db 98 be 7e 93 18 3e d7 85 8e bc
       -0.21876244 -0.29855204 0.14900014 -0.017397804
000080 16 17 08 3e a9 05 15 3c 19 b9 cd bd c7 64 1a 3e
       0.13290057 0.009095588 -0.1004507 0.15077506
000090 e5 ef 92 3e dd 17 40 3e 56 d9 5f 3d 1b 59 5f 3e
       0.2869865 0.18759103 0.054650627 0.21811335
0000a0 63 fe 88 be ce 02 e3 bd 81 1c 17 bd 31 20 80 be
       -0.26756582 -0.11084519 -0.036892418 -0.2502456
0000b0 62 45 07 3e 5e ab 27 be b4 ca 9f bb bd ae 52 3e
       0.13210061 -0.16373965 -0.004876459 0.2057447
0000c0 2b b5 8e 3e c4 77 e8 3d 9a 9a 40 3d b4 08 c9 3d
       0.27872595 0.113509685 0.04702244 0.09816113
0000d0 50 06 44 be 76 8c 84 3e 74 a6 4e be 08 50 a0 bc
       -0.19143033 0.25888413 -0.20180684 -0.019569412
0000e0 14 03 90 bd 83 70 9a 3e 55 04 32 3e ec 5a a1 3c
       -0.07031837 0.30163965 0.17384465 0.019696675
0000f0 f6 52 53 bd ec 7c 75 3d bc 89 82 bd 9c 15 5c 3e
       -0.05159279 0.059933588 -0.06373927 0.21492618
000100 30 fd 95 3e 80 b9 63 3d 27 57 48 3e a5 b2 85 3e
       0.2929473 0.05559683 0.19564496 0.26112857
000110 40 85 3f 3e a4 91 55 be 08 e9 cd 3d 0f a2 42 be
       0.18703175 -0.20856339 0.10054213 -0.19007133
000120 21 c5 0c be 99 ed 34 be 7d 61 3f 3e de 37 9e be
       -0.13747074 -0.17668761 0.18689533 -0.30901998
000130 52 4e 32 3e c2 3b fe 3c 81 72 9b be c5 02 94 bd
       0.1741269 0.031034354 -0.30360797 -0.07227091
000140 26 b5 95 be 39 b8 92 3d c2 4b 9a be 82 a1 b1 3d
       -0.29239768 0.07164044 -0.30135924 0.08673383
000150 31 be f1 3d 93 18 f7 3c 21 f0 d7 3d 5a dd aa bd
       0.11803854 0.030163085 0.10543848 -0.08343001
000160 eb e8 86 3e 4e a5 b3 3d b7 c6 43 3d 29 5a 90 3e
       0.26349577 0.08771764 0.04779693 0.28193787
000170 44 c6 b4 3c 42 dd c7 bd 0d b8 42 be 0f 77 28 3e
       0.022067197 -0.097589985 -0.19015522 0.16451667
000180 26 81 79 3e bf 03 91 be 9e c6 44 3e f8 6d d3 bd
       0.24365672 -0.2832317 0.19216391 -0.10323709
000190 49 56 ee bd ac 40 8c be 1d ea e0 bd 02 bd 86 bd
       -0.11637551 -0.2739309 -0.109821536 -0.06579019
0001a0 53 32 4e be 18 c8 24 be 44 56 2d be f2 12 56 be
       -0.20136385 -0.16091955 -0.16927439 -0.20905665
0001b0 e7 52 6f bc 31 b9 fa 3b 4e 00 37 be 45 6d 4a be
       -0.014607168 0.007651471 -0.1787121 -0.19768246
0001c0 69 0f 57 be 10 35 00 bd bb 86 f1 bd c6 5c 95 be
       -0.21001972 -0.031300604 -0.11793276 -0.29172343
0001d0 33 61 29 3e db 5b 42 be 03 06 0f bd 45 fa 88 be
       0.16540985 -0.18980353 -0.034917843 -0.2675344
0001e0 e8 87 18 3e ef 33 28 bd 0c 7c d0 3d 6f 09 0e 3e
       0.14895594 -0.041065153 0.1017991 0.13870786
0001f0 31 53 9d be bc 99 2d be c2 0b fe 3d 96 29 8b be
       -0.30727533 -0.16953176 0.124045864 -0.27180165
000200 3d f1 28 3e 12 0e 6a 3c b6 ee 25 3e 32 8e 3a 3e
       0.16498275 0.014285581 0.16204342 0.18218306
000210 8d 9f ce 3d ca 7b c7 bc 12 25 d4 bc 71 7f 9c bd
       0.10089026 -0.02435102 -0.025896583 -0.07641495
000220 eb 2e 1b be 7f 8b c9 3d bd 4c 8d be 31 70 b2 3d
       -0.15154617 0.0984106 -0.2759761 0.08712805
000230 6f ea 9c bd 70 df 21 bc c5 77 ca bc 68 5a 4d be
       -0.07661902 -0.009879932 -0.024715314 -0.20054018
000240 40 99 42 3e d7 de 6e bd b2 83 06 3d dc e0 89 be
       0.19003773 -0.058317985 0.03284044 -0.26929367
000250 57 b5 21 3d c8 f0 91 3e a6 df 9e 3e b9 ce be 3d
       0.03947958 0.28504014 0.31030005 0.09316773
000260 f5 5a d4 bd 37 01 84 3d eb f2 b1 3d 8a 40 6a be
       -0.10368911 0.06445544 0.08688911 -0.22876182
000270 a5 64 af 3d 24 65 49 be c9 2f 55 be 45 1d 9b 3e
       0.08564118 -0.19667488 -0.2081901 0.30295768
000280 bb b8 db bd 27 81 c6 bd 52 2a c7 3d 62 ba 24 3e
       -0.10728594 -0.096926026 0.09724869 0.16086724
000290 30 bc 2b 3e b8 94 30 be 1d 49 40 be 06 1d 44 3e
       0.16771007 -0.17244232 -0.1877789 0.19151697
0002a0 a0 94 4d 3e 2d 32 8c bd b6 93 8c 3d 01 2b 90 3e
       0.20076227 -0.06845508 0.06864111 0.2815781
0002b0 42 6e 48 3e fd 03 3f be 60 1e 2b be 4e b2 8e 3e
       0.1957331 -0.18653865 -0.16710806 0.2787041
0002c0 46 eb da bd 12 e8 8e 3e 69 d0 6f 3e c0 85 7a 3e
       -0.10689406 0.2791143 0.23419346 0.24465084
0002d0 af 9c 42 3e a9 50 82 be ff e8 9a 3e 64 dd ca bd
       0.19005083 -0.25452164 0.30255887 -0.09905508
0002e0 ef 56 ac 3c fe e8 99 3e c9 7a 21 bd 49 13 0a be
       0.021037547 0.3006057 -0.039423738 -0.13483919
0002f0 f2 ea 01 3e 39 1e 53 be 9e 45 d5 bd ec 03 f3 bd
       0.12687281 -0.20616998 -0.10413669 -0.118659824
000300 3c e4 57 be 27 b6 72 3e a7 76 8d 3d 23 23 97 3d
       -0.21083158 0.23702298 0.06907397 0.07379749
000310 97 b6 90 3e 8c df 7b be 65 c0 1b be 52 3a ae 3c
       0.28264305 -0.24596995 -0.15210111 0.021268044
000320 61 2b 91 3e a9 e9 98 3e d9 07 92 3d 16 6c 17 3e
       0.28353408 0.2986577 0.07130403 0.14787325
000330 15 b7 71 be 81 e5 94 3e b8 e3 94 be 74 d5 6e bc
       -0.23604997 0.29081348 -0.29079986 -0.014577258
000340 41 48 3f 3d 1c b1 82 bd 5e 2a 6b 3e 9e 96 5f be
       0.046699766 -0.06381437 0.2296538 -0.218348
000350 9f a3 e4 3b 2a 62 3a be ac 4a 85 3e d1 61 61 3e
       0.006977513 -0.18201509 0.26033533 0.2200997
000360 61 1b 10 bc 69 67 82 3e d7 66 e9 bd 02 fe 8d 3e
       -0.00879559 0.2546952 -0.11396568 0.27732855
000370 78 85 30 be 49 c1 29 3e fa 81 8e be 1c 3c 86 bd
       -0.17238414 0.16577639 -0.2783354 -0.06554434
000380 f7 db a2 bd ab 51 05 3e aa 3d 2e 3c 1a d0 ce bd
       -0.07952111 0.13019435 0.010634819 -0.10098286
000390 a9 1a 8e 3e d3 ab 5f be b6 94 65 3e 25 5b 5e 3e
       0.27754715 -0.2184289 0.2242001 0.21714456
0003a0 37 c3 29 3d c9 41 e0 3d fa 02 06 3d 2d de e3 bd
       0.041445937 0.109500475 0.032717682 -0.11126361
0003b0 1c 76 36 bd 94 05 9c 3e 53 70 96 3e 23 77 da bc
       -0.04454623 0.30473006 0.29382572 -0.026668137
0003c0 28 c8 25 3d 15 e1 30 be 1e ae f9 bd 2c 9c c0 bd
       0.040474087 -0.17273362 -0.12191413 -0.094047874
0003d0 59 ab 56 be 9e 51 9b bc aa d8 5c be 93 ae 36 3d
       -0.20963801 -0.018959817 -0.21567026 0.04460008
0003e0 45 fb 9c bc 5c bb 79 3e ef 21 0f 3e 0f f4 4c be
       -0.019162783 0.24387878 0.13977788 -0.20014976
0003f0 14 e0 9e bd 78 1e 6f be c0 04 6a be 8c df 7a 3d
       -0.07757583 -0.23351467 -0.22853374 0.061248347

b f4 [32]
000000 ff 7d e9 3b eb c8 3f 3b 8e 88 83 bb 3b ab 41 bb
       0.0071256156 0.0029264044 -0.0040140813 -0.0029551524
000010 d1 2b 24 3b d2 bb dd 3b 3d 4c f3 3a 1e 1d 1d 3c
       0.002505053 0.0067667747 0.001856215 0.009589462
000020 7d 8a 64 3b 7a aa 3a bc 5f bf 0f bb 5c d5 4b 3c
       0.0034872585 -0.011393184 -0.0021934134 0.012441006
000030 56 21 20 bb f0 a0 ac 3b b6 f1 e0 bb ec f7 d8 bb
       -0.0024433932 0.0052682087 -0.0068647517 -0.0066213515
000040 e1 32 86 3b 89 ea 09 bb d7 10 51 39 33 12 b3 bb
       0.0040954207 -0.0021044335 0.00019938067 -0.005464816
000050 9f e5 df bc bb 1a f4 bb 76 77 17 3c 8f 2e 9b bb
       -0.027331172 -0.0074494756 0.00924479 -0.004735775
000060 6d d2 24 3c 35 e2 21 3b d0 ed 5a 3c a8 08 13 b9
       0.010059935 0.002470148 0.013362363 -0.00014022237
000070 87 60 99 3b eb 5e e6 bb 8c 51 43 3c ad d4 33 bb
       0.0046806964 -0.007030358 0.011921298 -0.0027439997

W f4 [32, 32]
000000 ad e9 0d be ae 9d 68 be a1 e5 55 be 97 f0 15 be
       -0.13858671 -0.227164 -0.20888378 -0.14642559
000010 33 7a 19 bd 00 df 33 bb 9e 9d c6 bd 01 c7 82 3e
       -0.037470054 -0.002744615 -0.09698032 0.25542453
000020 a4 1b 26 be 42 ac 81 bd d7 d9 8e be b3 82 87 bc
       -0.16221482 -0.06331684 -0.27900574 -0.016541814
000030 c6 e8 8d 3e f4 9f 46 3e 7e f6 24 be e8 78 fa 3d
       0.27716655 0.19396955 -0.16109654 0.12230092
000040 5f 75 80 3d 20 81 90 3e 64 c0 9d be 08 8e 71 be
       0.06272387 0.28223515 -0.30810845 -0.23589337
000050 2c 3a 94 3e 6c 47 40 be 16 23 4a bd ab 17 8f 3e
       0.28950632 -0.18777245 -0.049349867 0.27947745
000060 20 7b 3f 3e 8b df 35 be 2d fa 58 be 62 b6 8c 3d
       0.18699312 -0.17761056 -0.21189184 0.06870724
000070 f5 c5 34 be 5f db 36 be 0a b0 b5 bd 10 56 bf bd
       -0.1765364 -0.17857121 -0.088714674 -0.09342587
000080 86 c7 22 be 17 a1 20 be 4a bf 53 3d 1b a2 87 be
       -0.15896425 -0.15686451 0.0516961 -0.26490864
000090 2c 0b 1e be 6f 23 6d be 46 3f 22 3e bc 38 95 bd
       -0.15433949 -0.23158048 0.1584445 -0.07286212
0000a0 b2 4c 65 bd 29 34 0c 3c b8 d6 03 be a9 ea 91 bd
       -0.055981345 0.008557358 -0.12874877 -0.07124836
0000b0 3e 03 7c 3e 2c 05 c7 bd 2b 42 32 bd 31 81 89 be
       0.24610612 -0.09717783 -0.043520134 -0.26856378
0000c0 a6 02 65 3e 5c f1 07 be 09 44 03 be a8 0c 9b be
       0.22364292 -0.13275665 -0.12818922 -0.30283093
0000d0 4e 0b 07 3e da 2a 15 3e 05 15 87 be 64 5c d3 bd
       0.13187906 0.14567128 -0.26383224 -0.103203565
0000e0 42 f2 9d 3e 96 3d 81 3e 59 1a 32 be 2f c5 0f 3e
       0.3084889 0.252423 -0.17392863 0.14040063
0000f0 f0 cb 98 be 47 ef d7 bd 8d a8 fa bd 24 91 90 be
       -0.29843092 -0.105436854 -0.1223918 -0.28235734
000100 62 c7 b3 bd 25 66 cf 3d 8f da e0 bd c7 df 72 3e
       -0.08778264 0.101269044 -0.10979187 0.23718177
000110 92 cc 40 be 20 f9 92 bc 0c 7c 19 3e e7 05 65 3d
       -0.18828037 -0.017941058 0.14988726 0.055913832
000120 1c f5 37 3e 44 64 85 be f3 65 9d be 16 81 c5 bd
       0.17964596 -0.2605306 -0.30741844 -0.09643762
000130 61 66 15 3d 18 6c 37 3e 7c d8 bb bd ec 2c 65 3e
       0.03647459 0.17912328 -0.091721505 0.22380418
000140 85 38 83 be 5a 30 0a bb fa 6a 3c 3d c4 6f 03 be
       -0.25629058 -0.0021085949 0.04600046 -0.12835604
000150 6c 94 5e 3e 69 bf 8c 3e 71 dd 73 bd 20 43 6c 3e
       0.21736306 0.27489784 -0.059537355 0.23072481
000160 15 04 bd 3d 0b c3 39 3d 79 80 91 3e e7 8a 5f bd
       0.09229294 0.045352023 0.2841833 -0.054575827
000170 44 9c 50 be d5 68 cd bd 29 54 50 bc e0 99 16 be
       -0.2037211 -0.10029761 -0.012715378 -0.14707136
000180 c7 4b ec bd cb cc 91 be 93 b4 b5 bd 68 90 8b 3e
       -0.11537891 -0.28476557 -0.088723324 0.2725861
000190 9f 7a a0 3e 5b 11 79 be 11 cf 13 3d c4 b8 5e be
       0.31343552 -0.24323027 0.036086146 -0.2175017
0001a0 d8 42 13 be 66 b8 11 bb 4f 1f 9a bd 93 9d bc bd
       -0.14380968 -0.0022235154 -0.07525503 -0.092097424
0001b0 0c de d3 bd 82 57 85 be 59 d3 8b be ec de 83 3e
       -0.103450865 -0.26043326 -0.27309683 0.25756013
0001c0 19 7e 60 3c ee 0c 61 3e f2 7c 20 3e 22 69 61 be
       0.013701939 0.21977589 0.15672663 -0.22012761
0001d0 36 9f 89 be 6f 49 27 ba 65 b4 13 3e 38 0e 76 3c
       -0.2687928 -0.0006381487 0.14424284 0.015018038
0001e0 fe 46 3a be c0 d6 d8 3d 33 33 6a be b5 a2 f1 ba
       -0.18191144 0.10587835 -0.22871093 -0.0018435331
0001f0 59 ec 9b 3d 9e 7d c8 bd 71 5c fe 3d 77 db f3 bc
       0.07613439 -0.097895846 0.124199755 -0.029767735
000200 43 2b 46 3e 7c e3 90 3e 61 1f 23 3e 32 3c be 3d
       0.1935244 0.28298557 0.15929939 0.09288825
000210 03 68 c3 3c be 3e f8 3c 57 ea 1a 3e 23 ff c8 bc
       0.023853308 0.030303355 0.15128456 -0.024535721
000220 c6 8a a7 bd 70 8f 39 3d dc f6 07 3e 14 63 3c 3e
       -0.08180766 0.04530281 0.13277763 0.1839717
000230 0c 97 8f be d8 fb 94 bb 97 6c 3b 3e 03 2b a0 be
       -0.28044927 -0.0045466237 0.18303142 -0.31282815
000240 60 15 ab bd 2c e2 78 be e0 ad 7f be 29 48 17 be
       -0.08353686 -0.24305028 -0.24968672 -0.1477362
000250 af 57 9a be e0 f7 9f bd 07 43 0a be 2f d8 82 3e
       -0.30145022 -0.0781095 -0.13502131 0.2555556
000260 53 48 3d 3e 48 de 84 3e 17 03 55 be 8d 14 5c be
       0.18484621 0.25950837 -0.2080196 -0.21492215
000270 3e 76 a4 3d 4e 5f 5e 3e 0b 9a 65 be 64 92 98 3d
       0.080303654 0.21716043 -0.22422044 0.07449797
000280 03 fe 61 be af c6 c9 3d d3 1a 2c 3e e3 22 d0 bd
       -0.22069554 0.09852349 0.16807108 -0.10162904
000290 79 c6 8a 3e b0 07 63 be 27 e5 f3 bc 0a 82 2f 3e
       0.27104548 -0.22170901 -0.029772354 0.1713945
0002a0 6f 63 0f be 36 fd 5d be b5 3c c5 bd 7c de 9d be
       -0.14002775 -0.21678624 -0.096307196 -0.30833805
0002b0 54 d7 94 3e 52 d4 1b be a0 1a a8 3d 93 7f 92 be
       0.29070532 -0.15217713 0.08208203 -0.28612956
0002c0 8e 4a fa bd d1 d7 63 be 49 17 a6 bd 2e 45 64 3e
       -0.122212514 -0.22250296 -0.0810991 0.22292015
0002d0 e7 43 6b be 31 55 65 3e 34 67 59 bc 68 a8 79 be
       -0.22975121 0.22395779 -0.013269234 -0.24380648
0002e0 f8 10 f1 3d 73 94 2c be 02 27 ce bc f7 6a 0e 3e
       0.11770815 -0.16853504 -0.025165085 0.13907991
0002f0 fa c8 7c 3e 31 43 b5 3d 4f ac 8c be 2b 84 35 be
       0.24686041 0.08850706 -0.2747521 -0.177262
000300 0c 23 80 3d 99 4f d9 bc 59 47 8a 3e 50 63 66 be
       0.06256685 -0.026527213 0.2700756 -0.22498822
000310 cf 82 36 be e4 f4 0b bd 9a df a9 3c c1 37 49 bd
       -0.17823337 -0.034169093 0.020736504 -0.049125437
000320 10 e1 43 bd aa 75 2b 3e 10 60 ef 3d 66 bb 28 bd
       -0.04782206 0.16744104 0.11688244 -0.041194342
000330 ef 59 6e 3c 66 6c 9b 3e a5 f1 14 3d e5 2d 89 3c
       0.014547809 0.3035614 0.036363263 0.016745517
000340 a5 15 8d 3e 53 43 4d 3e 0a 01 33 3e f0 f2 34 be
       0.27555576 0.20045213 0.17480865 -0.17670798
000350 8e 3d 70 3e 77 98 9a 3e be 31 91 3e 78 6e 62 be
       0.23460981 0.30194446 0.28358263 -0.22112453
000360 8e be 5c 3d 8d ee 91 3e ba 04 36 be 7f cf 81 be
       0.053892665 0.28502312 -0.1777524 -0.2535362
000370 cf 48 93 3e 3e c5 4f be d5 c5 82 be c7 1c 6b bc
       0.28766486 -0.20290086 -0.2554156 -0.014350123
000380 01 87 41 3e 4e ee 02 be fb 6b 66 3e db f4 25 bc
       0.18899156 -0.12786219 0.22502129 -0.010129179
000390 ba 76 9d 3e 6b a0 0f bc f4 e0 99 3e 42 67 9d bd
       0.30754644 -0.008766274 0.30054438 -0.076857105
0003a0 78 89 c5 bd 66 ff 89 3e b0 d1 43 3e eb d5 81 3d
       -0.09645361 0.26952666 0.19122958 0.0633963
0003b0 de 22 21 be 15 0b 80 be b5 37 12 be 62 2d cc bd
       -0.15735957 -0.25008455 -0.14279063 -0.099695936
0003c0 8e 59 80 bd ef 59 a5 37 c8 14 90 3d ab de 87 3d
       -0.06267081 1.9711411e-05 0.07035214 0.066342674
0003d0 23 ce 8d be d3 9d 96 3e e5 7b 84 be c6 81 42 3e
       -0.27696332 0.29417285 -0.25875774 0.18994817
0003e0 38 bf ca 3d 41 36 6c 3e 02 10 e2 bd 94 8b 08 be
       0.09899753 0.23067571 -0.110382095 -0.13334495
0003f0 b8 35 28 be 26 9e 43 be 44 4a 57 3d 2e 10 4a 3e
       -0.16426742 -0.19103298 0.05256106 0.19732735

b f4 [32]
000000 58 ec 59 bb 79 cb 3f 39 40 52 80 38 3e 95 36 bc
       -0.0033252444 0.00018290979 6.118836e-05 -0.011143981
000010 a8 fc 07 3c 49 dc 00 ba ca 1b 51 3c 74 a0 34 bb
       0.008299984 -0.00049156375 0.012762973 -0.0027561458
000020 87 3b d6 3a 1d 21 e8 3b 3d 36 ee bb 41 13 44 bc
       0.0016344645 0.0070840255 -0.0072696493 -0.011967481
000030 7c 93 5e 3c a8 29 00 3c 74 e1 c1 3a 12 55 a0 bc
       0.013584968 0.007822432 0.0014791922 -0.019571815
000040 72 af 29 bc 1c 01 66 bc c4 d9 92 39 fd 75 be bb
       -0.010356771 -0.01403835 0.00028009538 -0.005812405
000050 3c 8e 3a 3c df 92 f5 ba 74 be b9 bb 2f 7b 84 3c
       0.01138645 -0.0018735788 -0.0056684557 0.01617202
000060 55 5e ab bc f4 66 ff ba 63 a2 14 3c 9a 46 45 bc
       -0.020919004 -0.0019485638 0.009071919 -0.0120407585
000070 cd 86 d2 3b e3 40 7e 3b 6c 75 c4 3a 0c 5d 5c 3b
       0.006424761 0.0038796 0.0014988608 0.0033624796
