saved_models/model-epoch-22.pth (torch, 21314 bytes, 19 tensors)

embeddings f4 [99, 8]
1.9838427 0.97065073 1.7143087 0.56910706 -0.29455805 1.3548558 0.3862423 1.6632001
1.089833 -1.240828 1.4450238 1.0841733 0.63465995 0.8218121 1.1881174 3.3676493
1.4960734 1.4814287 2.1569078 -0.044217054 0.1665216 -0.083025396 0.71215683 -1.731363
-1.4002703 -2.577465 1.1099873 1.7564404 3.0717063 0.42549872 -1.4661037 3.586279
0.92079526 1.3081355 1.5792562 -0.5462689 -1.3069774 1.3066683 -0.7690975 1.1453435
1.4114699 0.4062733 1.0401244 2.2390707 -2.9687297 1.5225444 -1.8941407 -0.6759668
1.2864199 -0.44834074 -0.1959194 4.119287 -0.9784007 2.138607 -3.0553954 -0.7011674
-0.43408582 -3.0396907 1.3352048 3.408862 0.67211443 1.4929085 -4.05944 1.9737158
1.9088942 1.0635895 0.48474592 -1.5533676 -1.5750148 0.6287563 0.113953225 1.447682
0.46266508 -2.2193167 0.00056728395 0.06915013 0.21761599 1.3316277 -2.4486332 -0.15575185
-0.06501645 -2.1790338 -0.8422927 3.24405 -1.4918418 2.7849128 -1.7895657 1.4034111
-3.0828807 0.72637904 -1.9082949 -2.841373 2.1826117 -3.1500516 1.6549116 -0.3712982
0.63685656 -2.9888148 -1.4768537 2.947825 -2.6535745 2.260344 -0.062186945 1.7320797
0.8161709 -2.8560243 0.8134931 4.3473325 1.0988166 0.2625932 0.48123696 0.81077003
-1.5672367 0.1444061 -1.1310648 0.15449405 2.164361 -2.2572591 1.9809946 -1.927919
1.8303412 -0.53466946 0.58423 4.300725 -2.4332914 2.8730857 -2.3730667 0.00027542788
-0.5412569 -0.3799164 0.4726697 -1.9165502 1.232771 -2.727029 2.6395042 1.1100858
0.9990011 0.059763152 1.5090675 0.03310316 1.6577556 1.9881669 -1.7572516 1.5418739
3.5419626 -1.7517356 2.3795722 0.6165719 0.12605554 1.7689683 0.44272292 3.3068304
1.5103619 2.7224116 0.72026455 -0.0009870045 -3.2219594 1.5560334 -2.47158 0.10219549
-0.5863474 -1.3779961 -0.78839844 -1.729677 4.6460648 -1.7539321 1.4224197 -1.0505577
2.5199475 1.8973771 1.6050509 0.46808857 -2.9599848 1.6218947 -1.9156059 1.9063958
1.7902504 0.5365317 2.567365 1.7535481 -1.600587 1.9504391 -1.6567118 0.59656155
-1.3596355 -1.9182295 -1.1732002 2.5225112 0.6615178 0.158939 -3.1503735 0.63940084
-1.8509606 -2.8216424 -0.72001356 3.4854674 4.248522 -3.5678413 2.2754436 -2.676762
-2.6648426 3.2211242 -1.2874883 -1.9455183 1.4359453 -2.5030785 1.2898933 -2.0206447
0.5084687 0.7747513 1.6071314 -0.23832524 0.9533982 -0.8778884 0.864058 -0.49061593
0.98676354 0.38614497 1.8209242 4.390532 0.24198693 0.43634194 -1.4103044 3.1606247
0.5923013 -0.9329202 2.744555 2.1903377 0.44140962 0.4131746 -1.7241772 1.7794458
-0.42646614 -1.0899976 1.0491709 1.7261863 0.8551646 0.75338566 -1.5598658 0.13668033
1.6023078 1.0856389 0.719509 0.5516574 -1.7340438 1.0186204 -0.7705169 1.3148059
0.72734094 0.06146646 1.0312803 2.5497298 -1.2727921 2.198279 -2.081639 2.0624151
00000000: 8fee fd3f 917c 783f 786e db3f 00b1 113f
00000010: 50d0 96be ea6b ad3f 8dc1 c53e bee3 d43f
00000020: a67f 8b3f 74d3 9ebf 8af6 b83f 31c6 8a3f
00000030: 1379 223f 4762 523f 3b14 983f 9187 5740
00000040: 557f bf3f 759f bd3f c70a 0a40 f11c 35bd
00000050: a384 2a3e 3809 aabd e94f 363f 4e9d ddbf
00000060: 0f3c b3bf 30f5 24c0 1014 8e3f 0ad3 e03f
00000070: d696 4440 f8da d93e 49a9 bbbf 9885 6540
00000080: 3db9 6b3f fc70 a73f 1125 ca3f 47d8 0bbf
00000090: 094b a7bf e840 a73f 93e3 44bf 9e9a 923f
000000a0: 0cab b43f 0e03 d03e cc22 853f ef4c 0f40
000000b0: abff 3dc0 bce2 c23f 3473 f2bf 290c 2dbf
000000c0: 68a9 a43f eb8c e5be 189f 48be 33d1 8340
000000d0: 7878 7abf f0de 0840 998b 43c0 b57f 33bf
000000e0: 7f40 debe 4b8a 42c0 fee7 aa3f cc2a 5a40
000000f0: b10f 2c3f a017 bf3f efe6 81c0 b8a2 fc3f
00000100: a556 f43f b323 883f 9e30 f83e c0d4 c6bf
00000110: 169a c9bf 2cf6 203f 4f60 e93d a54d b93f
00000120: 70e2 ec3e 4909 0ec0 c8b5 143a 959e 8d3d
00000130: bad6 5e3e c772 aa3f 68b6 1cc0 6a7d 1fbe
00000140: 5827 85bd 4a75 0bc0 7fa0 57bf 849e 4f40
00000150: acf4 bebf 033c 3240 7d10 e5bf faa2 b33f
00000160: eb4d 45c0 faf3 393f 0243 f4bf 0ed9 35c0
00000170: e9af 0b40 729a 49c0 25d4 d33f cc1a bebe
00000180: 0809 233f be48 3fc0 8b09 bdbf 2aa9 3c40
00000190: 2ad4 29c0 7aa9 1040 bdb7 7ebd cab4 dd3f
000001a0: 93f0 503f 1ac9 36c0 1541 503f 591d 8b40
000001b0: 06a6 8c3f 9e72 863e b164 f63e a08e 4f3f
000001c0: 369b c8bf 31df 133e bbc6 90bf b033 1e3e
000001d0: e484 0a40 ef76 10c0 3b91 fd3f 0dc6 f6bf
000001e0: 9f48 ea3f 19e0 08bf 1990 153f 8a9f 8940
000001f0: 0cbb 1bc0 a3e0 3740 53e0 17c0 4e67 9039
00000200: d08f 0abf 6784 c2be c301 f23e 8451 f5bf
00000210: 71cb 9d3f a587 2ec0 a3ed 2840 4b17 8e3f
00000220: 89be 7f3f 35ca 743d 2029 c13f 2e97 073d
00000230: 5631 d43f 417c fe3f 9fed e0bf 205c c53f
00000240: 84af 6240 df38 e0bf e94a 1840 a8d7 1d3f
00000250: b414 013e 8e6d e23f 94ac e23e 1ca3 5340
00000260: 8a53 c13f fe3b 2e40 4263 383f 605e 81ba
00000270: 9534 4ec0 1a2c c73f 5e2e 1ec0 de4b d13d
00000280: dd1a 16bf 2d62 b0bf 7bd4 49bf 0e66 ddbf
00000290: 90ac 9440 d980 e0bf d911 b63f ad78 86bf
000002a0: d246 2140 41dd f23f 4f72 cd3f 4ea9 ef3e
000002b0: 6470 3dc0 3f9a cf3f 9332 f5bf c704 f43f
000002c0: ed26 e53f 245a 093f b54f 2440 4474 e03f
000002d0: 09e0 ccbf fda7 f93f 220f d4bf 42b8 183f
000002e0: 8908 aebf 8b88 f5bf 6d2b 96bf d370 2140
000002f0: 3b59 293f e8c0 223e b89f 49c0 c6af 233f
00000300: 47ec ecbf ca95 34c0 cf52 38bf e611 5f40
00000310: e4f3 8740 8357 64c0 dea0 1140 1250 2bc0
00000320: c88c 2ac0 e626 4e40 6bcc a4bf be06 f9bf
00000330: 0ecd b73f 7032 20c0 391b a53f 3e52 01c0
00000340: 012b 023f 1a56 463f 7bb6 cd3f 880b 74be
00000350: e811 743f 4bbd 60bf e832 5d3f 0332 fbbe
00000360: 899c 7c3f cbb4 c53e 0b14 e93f 3d7f 8c40
00000370: 6ccb 773e 3668 df3e db84 b4bf ad47 4a40
00000380: 0fa1 173f dcd3 6ebf caa6 2f40 7e2e 0c40
00000390: 7100 e23e 9f8b d33e d7b1 dcbf e1c4 e33f
000003a0: c559 dabe 0b85 8bbf 3b4b 863f acf3 dc3f
000003b0: 11ec 5a3f e2dd 403f afa9 c7bf eef5 0b3e
000003c0: 6c18 cd3f 37f6 8a3f be31 383f 6b39 0d3f
000003d0: 26f5 ddbf 2762 823f 9840 45bf 8f4b a83f
000003e0: 0433 3a3f 41c4 7b3d fe00 843f c62e 2340
000003f0: daea a2bf 9ab0 0c40 9339 05c0 9cfe 0340

_pos_embeds f4 [64, 8]
0.0 1.0 0.0 1.0 0.0 1.0 0.0 1.0
0.84147096 0.5403023 0.099833414 0.9950042 0.009999833 0.99995 0.0009999998 0.9999995
0.9092974 -0.41614684 0.19866933 0.9800666 0.019998666 0.9998 0.0019999987 0.999998
0.14112 -0.9899925 0.29552022 0.9553365 0.029995501 0.99955004 0.0029999956 0.9999955
-0.7568025 -0.6536436 0.38941833 0.921061 0.039989334 0.9992001 0.0039999895 0.999992
-0.9589243 0.2836622 0.47942555 0.87758255 0.04997917 0.99875027 0.0049999794 0.9999875
-0.2794155 0.96017027 0.5646425 0.8253356 0.059964005 0.99820054 0.005999964 0.999982
0.6569866 0.75390226 0.64421767 0.7648422 0.06994285 0.997551 0.006999943 0.9999755
0.98935825 -0.14550003 0.7173561 0.6967067 0.0799147 0.99680173 0.007999915 0.999968
0.4121185 -0.91113025 0.7833269 0.62161 0.08987855 0.9959527 0.008999879 0.9999595
-0.5440211 -0.8390715 0.84147096 0.5403023 0.099833414 0.9950042 0.009999833 0.99995
-0.9999902 0.004425698 0.89120734 0.45359612 0.1097783 0.9939561 0.010999778 0.9999395
-0.53657293 0.84385395 0.9320391 0.36235777 0.119712204 0.99280864 0.011999712 0.999928
0.42016703 0.9074468 0.9635582 0.26749882 0.12963414 0.9915619 0.012999634 0.9999155
0.9906074 0.13673721 0.98544973 0.16996714 0.13954312 0.990216 0.013999542 0.999902
0.65028787 -0.7596879 0.997495 0.0707372 0.14943813 0.9887711 0.014999437 0.9998875
-0.2879033 -0.9576595 0.9995736 -0.029199522 0.15931821 0.98722726 0.015999317 0.999872
-0.96139747 -0.27516335 0.9916648 -0.1288445 0.16918235 0.9855848 0.016999181 0.9998555
-0.75098723 0.6603167 0.9738476 -0.22720209 0.17902957 0.9838437 0.017999029 0.999838
0.1498772 0.9887046 0.9463001 -0.32328957 0.1888589 0.9820042 0.018998858 0.9998195
0.9129453 0.40808207 0.9092974 -0.41614684 0.19866933 0.9800666 0.019998666 0.9998
0.8366556 -0.54772925 0.86320937 -0.5048461 0.2084599 0.9780309 0.020998457 0.9997795
-0.008851309 -0.99996084 0.8084964 -0.5885011 0.21822962 0.97589743 0.021998225 0.999758
-0.84622043 -0.53283304 0.7457052 -0.66627604 0.22797753 0.97366637 0.022997972 0.99973553
-0.9055784 0.42417902 0.6754632 -0.73739374 0.23770262 0.971338 0.023997696 0.999712
-0.13235176 0.99120283 0.5984721 -0.8011436 0.24740396 0.9689124 0.024997396 0.9996875
0.76255846 0.6469193 0.5155014 -0.8568888 0.25708055 0.96638995 0.02599707 0.99966204
0.95637596 -0.29213881 0.42737988 -0.90407217 0.26673144 0.9637709 0.026996719 0.9996355
0.2709058 -0.9626059 0.33498815 -0.94222236 0.27635565 0.96105546 0.02799634 0.99960804
-0.6636339 -0.74805754 0.23924933 -0.9709582 0.2859522 0.95824385 0.028995935 0.99957955
-0.9880316 0.15425146 0.14112 -0.9899925 0.29552022 0.9553365 0.029995501 0.99955004
-0.40403765 0.91474235 0.041580662 -0.99913514 0.30505863 0.95233357 0.030995036 0.9995195
00000000: 0000 0000 0000 803f 0000 0000 0000 803f
00000010: 0000 0000 0000 803f 0000 0000 0000 803f
00000020: a46a 573f 4051 0a3f 7675 cc3d 98b8 7e3f
00000030: 57d6 233c b9fc 7f3f 6d12 833a f8ff 7f3f
00000040: b7c7 683f 3311 d5be f96f 4b3e a5e5 7a3f
00000050: 3ed4 a33c e5f2 7f3f 6912 033b deff 7f3f
00000060: c381 103e 2670 7dbf 6d4e 973e ef90 743f
00000070: 20b9 f53c 83e2 7f3f 939b 443b b5ff 7f3f
00000080: cfbd 41bf 3055 27bf d761 c73e a7ca 6b3f
00000090: dbcb 233d 94cb 7f3f 5812 833b 7aff 7f3f
000000a0: 107c 75bf 2c3c 913e 4477 f53e 40a9 603f
000000b0: f5b6 4c3d 19ae 7f3f ded6 a33b 2eff 7f3f
000000c0: 8c0f 8fbe b8cd 753f 698c 103f 3249 533f
000000d0: d19c 753d 128a 7f3f 599b c43b d2fe 7f3f
000000e0: 4630 283f bdff 403f 73eb 243f b3cc 433f
000000f0: 323e 8f3d 815f 7f3f c75f e53b 65fe 7f3f
00000100: 9546 7d3f f6fd 14be a6a4 373f 5f5b 323f
00000110: 51aa a33d 662e 7f3f 1312 033c e7fd 7f3f
00000120: 3201 d33e d53f 69bf 1d88 483f d521 1f3f
00000130: 3f12 b83d c2f6 7e3f 3a74 133c 59fd 7f3f
00000140: f844 0bbf 64cd 56bf a46a 573f 4051 0a3f
00000150: 7675 cc3d 98b8 7e3f 57d6 233c b9fc 7f3f
00000160: 5cff 7fbf 7205 913b 2a26 643f c03d e83e
00000170: 72d3 e03d e873 7e3f 6a38 343c 09fc 7f3f
00000180: d85c 09bf d006 583f 1d9a 6e3f f586 b93e
00000190: ac2b f53d b528 7e3f 719a 443c 48fb 7f3f
000001a0: 2220 d73e 6f4e 683f c0ab 763f 9bf5 883e
000001b0: d0be 043e 00d7 7d3f 6bfc 543c 76fa 7f3f
000001c0: 7298 7d3f d704 0c3e 6f46 7c3f de0b 2e3e
000001d0: 64e4 0e3e cc7e 7d3f 565e 653c 94f9 7f3f
000001e0: 4479 263f e87a 42bf d55b 7f3f aade 903d
000001f0: 4f06 193e 1a20 7d3f 33c0 753c a1f8 7f3f
00000200: 1068 93be 2c29 75bf 0ee4 7f3f d633 efbc
00000210: 5024 233e edba 7c3f 0011 833c 9df7 7f3f
00000220: 251e 76bf 36e2 8cbe bfdd 7d3f d0ef 03be
00000230: 233e 2d3e 494f 7c3f de41 8b3c 88f6 7f3f
00000240: b340 40bf 840a 293f 144e 793f aaa7 68be
00000250: 8753 373e 2edd 7b3f b372 933c 62f5 7f3f
00000260: 6979 193e bf1b 7d3f b940 723f 3686 a5be
00000270: 3a64 413e a164 7b3f 7ea3 9b3c 2cf4 7f3f
00000280: c8b6 693f 22f0 d03e b7c7 683f 3311 d5be
00000290: f96f 4b3e a5e5 7a3f 3ed4 a33c e5f2 7f3f
000002a0: 102f 563f fc37 0cbf 4afb 5c3f 983d 01bf
000002b0: 8376 553e 3c60 7a3f f504 ac3c 8df1 7f3f
000002c0: 1505 11bc 6ffd 7fbf 9ff9 4e3f 02a8 16bf
000002d0: 9677 5f3e 6ad4 793f 9f35 b43c 24f0 7f3f
000002e0: e7a1 58bf bf67 08bf 89e6 3e3f 1191 2abf
000002f0: f172 693e 3342 793f 3e66 bc3c abee 7f3f
00000300: fcd3 67bf fe2d d93e 28eb 2c3f d6c5 3cbf
00000310: 5168 733e 9ba9 783f d196 c43c 20ed 7f3f
00000320: 3887 07be 78bf 7d3f 7835 193f bf17 4dbf
00000330: 7757 7d3e a50a 783f 57c7 cc3c 85eb 7f3f
00000340: 0837 433f 819c 253f e6f7 033f 105d 5bbf
00000350: 10a0 833e 5565 773f cff7 d43c dae9 7f3f
00000360: 0ed5 743f 3893 95be 89d1 da3e 4671 67bf
00000370: 0691 883e b1b9 763f 3928 dd3c 1de8 7f3f
00000380: 2ab4 8a3e 576d 76bf 9183 ab3e 7c35 71bf
00000390: 7d7e 8d3e bb07 763f 9558 e53c 50e6 7f3f
000003a0: e9e3 29bf b380 3fbf c7fd 743e b790 78bf
000003b0: 5468 923e 784f 753f e288 ed3c 72e4 7f3f
000003c0: a4ef 7cbf 18f4 1d3e c381 103e 2670 7dbf
000003d0: 6d4e 973e ef90 743f 20b9 f53c 83e2 7f3f
000003e0: 06de cebe 8e2c 6a3f 7c50 2a3d 52c7 7fbf
000003f0: a530 9c3e 22cc 733f 4de9 fd3c 83e0 7f3f

W f4 [8, 8]
0.29110643 1.0625249 2.7152796 -0.73251027 -1.8172168 1.7513425 0.84543514 -1.3679138
2.6348932 0.17718148 0.95527184 -2.1870558 -0.076074876 -1.5022922 1.198437 0.04790123
4.9895144 4.379831 1.2973099 -3.3172884 -3.0771048 0.7215423 2.828829 -3.6632617
2.5034478 0.7967172 1.3511194 -0.65614593 -0.88743323 0.003069636 -0.15568888 -0.589576
-4.511383 -2.9073699 -2.7692683 4.4033813 3.2099395 -0.7520473 -3.4530618 3.0148544
-2.1332746 -3.764825 -0.66392887 3.1024926 2.87838 -1.8776586 -2.0240085 3.393042
5.6615634 5.2657847 2.9752846 -5.0693345 -3.4036617 1.0915036 4.533492 -4.7849884
-1.5765934 -0.41423705 -1.3778908 0.5883752 1.0684963 0.44654152 -0.25273272 0.6096084
00000000: e70b 953e d100 883f 24c7 2d40 cb85 3bbf
00000010: 8f9a e8bf fe2b e03f 706e 583f cd17 afbf
00000020: 17a2 2840 106f 353e b28c 743f b9f8 0bc0
00000030: 25cd 9bbd 1c4b c0bf 6266 993f 1534 443d
00000040: 1aaa 9f40 9327 8c40 400e a63f 744e 54c0
00000050: 49ef 44c0 ffb6 383f 890b 3540 e172 6ac0
00000060: 7d38 2040 a9f5 4b3f 7bf1 ac3f 2ef9 27bf
00000070: d32e 63bf f22b 493b e86c 1fbe 74ee 16bf
00000080: 405d 90c0 5912 3ac0 b13b 31c0 80e8 8c40
00000090: a66f 4d40 2c86 40bf f7fe 5cc0 60f3 4040
000000a0: 9287 08c0 e5f2 70c0 3ef7 29bf 3d8f 4640
000000b0: 6137 3840 1e57 f0bf 5b89 01c0 9a27 5940
000000c0: 872b b540 4f81 a840 106b 3e40 fd37 a2c0
000000d0: 98d5 59c0 64b6 8b3f 5e12 9140 a01e 99c0
000000e0: d0cd c9bf e116 d4be ba5e b0bf c29f 163f
000000f0: 7dc4 883f 17a1 e43e 2f66 81be 4c0f 1c3f

b f4 [8]
-0.6603596 -0.50346607 -3.4042082 -0.47498524 2.9299257 2.5545201 -4.587247 0.732511
00000000: 540d 29bf 27e3 00bf 8cde 59c0 4431 f3be
00000010: e783 3b40 427d 2340 baca 92c0 d785 3b3f

W f4 [8, 8]
-2.424078 4.072972 -0.30527958 -2.041628 2.00111 -4.147538 2.5636265 -2.1132805
-0.04879048 0.31559432 -5.5666666 -1.5715855 -2.945255 -1.1651956 -1.5054893 -0.77533823
-0.5260866 3.481009 0.81442976 -1.8950917 1.1099446 -3.2601557 1.3059051 -2.6310074
-0.9357891 2.17463 -5.6762757 -3.5282369 -0.8976754 -2.7689054 1.6548008 -3.2130184
0.026954502 -1.9673922 -3.487952 -0.38003445 -2.8627543 0.11665827 -2.072167 -0.1216855
0.21151827 -0.8683586 1.138087 3.1887817 0.30988002 2.4796605 -0.6221906 1.2939879
-0.14261857 -0.023710025 0.26011568 0.3300034 0.8118898 0.057998437 -1.511137 -0.31616044
0.59023684 -1.1696117 0.3534852 2.0827835 -0.5365248 1.9398749 -0.6938484 1.734287
00000000: 1824 1bc0 c955 8240 9b4d 9cbe 08aa 02c0
00000010: 3012 0040 a2b8 84c0 7512 2440 fd3f 07c0
00000020: 87d8 47bd 9495 a13e 2222 b2c0 b729 c9bf
00000030: 0f7f 3cc0 2125 95bf e0b3 c0bf 917c 46bf
00000040: 9dad 06bf dac8 5e40 787e 503f 5d92 f2bf
00000050: aa12 8e3f 64a6 50c0 e627 a73f 6d62 28c0
00000060: e08f 6fbf 232d 0b40 0da4 b5c0 a2ce 61c0
00000070: 0ece 65bf bf35 31c0 83d0 d33f 18a2 4dc0
00000080: b0cf dc3c 82d3 fbbf 9b3a 5fc0 e093 c2be
00000090: 5e37 37c0 88ea ee3d 629e 04c0 3f36 f9bd
000000a0: 3f98 583e c04c 5ebf d6ac 913f 0015 4c40
000000b0: 98a8 9e3e c2b2 1e40 e247 1fbf 65a1 a53f
000000c0: 9a0a 12be 873b c2bc e22d 853e 35f6 a83e
000000d0: 03d8 4f3f c58f 6d3d f06c c1bf c8df a1be
000000e0: c319 173f d6b5 95bf 03fc b43e 534c 0540
000000f0: b059 09bf d24d f83f 0ca0 31bf 1efd dd3f

b f4 [8]
-0.06211394 -2.126153 -0.16208556 -3.06228 -1.5272589 0.50653136 -0.47612736 0.015264152
00000000: 306b 7ebd e412 08c0 c2f9 25be 65fc 43c0
00000010: 387d c3bf 0aac 013f f7c6 f3be 7e16 7a3c

W f4 [8, 8]
6.11579 -0.9905134 0.3384735 -4.981314 -3.4224498 3.4672823 -2.693487 2.0296009
1.4140279 3.0752215 0.78625935 -2.550472 -3.934169 3.1062179 -1.5487497 0.21540141
3.9403305 -1.0411613 -0.91200894 -3.9567218 -1.7860038 2.424083 -1.691187 1.8522846
3.3444793 2.8720481 0.6335159 -5.0723248 -4.488148 3.3059974 -2.5763934 2.2263892
-1.297202 4.303663 -1.1205624 -0.64538896 -0.6944201 0.026250495 0.18139909 -1.2960211
-1.4763633 -0.4184145 0.26762187 3.009297 2.8698776 -2.6328948 1.7082915 -1.6951858
0.17748284 0.23189263 -0.6014531 0.47193217 1.2692617 -1.0650827 1.3075529 -0.32429042
-1.5621572 0.2270631 0.52530223 3.1460574 2.045533 -2.0456836 1.2712588 -1.6508343
00000000: 8db4 c340 4992 7dbf 664c ad3e ed66 9fc0
00000010: 6b09 5bc0 f4e7 5d40 1762 2cc0 fbe4 0140
00000020: defe b43f 6ed0 4440 4b48 493f ef3a 23c0
00000030: 6dc9 7bc0 46cc 4640 6e3d c6bf 3092 5c3e
00000040: 602e 7c40 c644 85bf 6b79 69bf ee3a 7dc0
00000050: c69b e4bf 2d24 1b40 d178 d8bf a917 ed3f
00000060: f30b 5640 a3cf 3740 192e 223f 7c50 a2c0
00000070: e99e 8fc0 7695 5340 a1e3 24c0 297d 0e40
00000080: b70a a6bf 9bb7 8940 976e 8fbf 3638 25bf
00000090: 84c5 31bf 470b d73c afc0 393e 05e4 a5bf
000000a0: 79f9 bcbf 6d3a d6be bc05 893e 5298 4040
000000b0: 13ac 3740 5981 28c0 4ca9 da3f d9fb d8bf
000000c0: 10be 353e 4375 6d3e d5f8 19bf 18a1 f13e
000000d0: 2b77 a23f a154 88bf e55d a73f 6509 a6be
000000e0: c4f4 c7bf 3b83 683e 357a 063f 0159 4940
000000f0: 03ea 0240 7bec 02c0 9cb8 a23f 8a4e d3bf

b f4 [8]
-0.0022149428 -0.007374464 0.006919709 0.007665197 0.009463619 -0.0070649246 0.0047539105 0.0043488336
00000000: 9328 11bb 7da5 f1bb babe e23b 552c fb3b
00000010: 4c0d 1b3c e280 e7bb b1c6 9b3b a980 8e3b

W f4 [8, 8]
-3.6735294 5.544518 4.99844 -1.7753414 -4.2473035 -4.2808957 4.657675 0.25103557
2.1610358 -1.4428823 -0.7829254 -0.41195914 0.68711525 -1.700953 -0.27503267 0.17733628
-1.4451876 4.7353077 3.8850927 -3.1327765 -4.0492043 -4.048923 4.080245 2.7002904
1.7523274 -2.710983 -4.8075776 -0.9285331 3.9126275 3.5747387 -3.969931 0.6086035
-4.3503213 2.6451569 1.2192404 -0.9287321 -2.0442078 -0.7225537 2.3440123 -0.22402525
1.8748271 1.9266446 1.0379536 0.36791867 -0.66274923 -2.0764198 1.3924882 0.7369364
-1.004154 -2.454119 -0.46332452 0.0076196333 0.5899951 0.15086778 -1.1970109 0.011716261
-1.4075049 3.9742663 3.3542557 -0.1491989 -3.9381962 -1.8730772 2.5304525 0.66331154
00000000: 1b1b 6bc0 b16c b140 38f3 9f40 633e e3bf
00000010: e9e9 87c0 19fd 88c0 ac0b 9540 bc87 803e
00000020: 694e 0a40 5eb0 b8bf cd6d 48bf 4fec d2be
00000030: c9e6 2f3f d4b8 d9bf 15d1 8cbe a497 353e
00000040: e8fb b8bf a487 9740 5ca5 7840 697f 48c0
00000050: 1593 81c0 c790 81c0 5e91 8240 8fd1 2c40
00000060: 444c e03f bf80 2dc0 add7 99c0 58b4 6dbf
00000070: 7d68 7a40 85c8 6440 5913 7ec0 70cd 1b3f
00000080: d535 8bc0 404a 2940 1210 9c3f 63c1 6dbf
00000090: 4dd4 02c0 47f9 38bf 4c04 1640 e066 65be
000000a0: 56fa ef3f 4a9c f63f aadb 843f d65f bc3e
000000b0: efa9 29bf 10e4 04c0 0e3d b23f dda7 3c3f
000000c0: 1e88 80bf 4910 1dc0 df38 edbe 1eae f93b
000000d0: eb09 173f 157d 1a3e a737 99bf 8ff5 3f3c
000000e0: 1f29 b4bf 615a 7e40 20ac 5640 99c7 18be
000000f0: 680b 7cc0 fec0 efbf eff2 2140 c9ce 293f

b f4 [8]
-3.809299 -0.42994088 -2.6660054 2.869399 -0.3657758 -0.11140296 0.028489843 -2.0389178
00000000: 8ecb 73c0 3621 dcbe d59f 2ac0 3ca4 3740
00000010: f746 bbbe 3c27 e4bd 8863 e93c a17d 02c0

weight f4 [8]
2.99168 -1.6193413 1.7369726 8.086107 -0.30814487 -0.17193756 0.5739914 -3.818986
00000000: af77 3f40 9346 cfbf 1e55 de3f b260 0141
00000010: 2ac5 9dbe 6610 30be 1af1 123f 446a 74c0

bias f4 [8]
-4.6683383 -1.6801201 -1.739016 6.038595 0.579083 1.027645 0.7050593 7.2942305
00000000: 0763 95c0 2d0e d7bf 1498 debf 2c3c c140
00000010: c93e 143f df89 833f c47e 343f 566a e940

W1 f4 [8, 32]
0.5774554 0.19452187 -1.0301077 -0.040253144 0.64711237 0.529943 -5.854866 -0.93070376
-0.2529249 1.4396904 1.2937409 1.1028932 -0.55215734 -0.2815828 0.58880126 -9.421097
2.083771 1.0424361 11.355166 -0.30377597 -1.3785331 1.1413258 0.01595605 1.8113351
0.13478875 1.5976968 1.0398055 -0.18085054 3.6121747 -0.69908917 1.0963461 0.6663989
1.8499424 1.2161579 -3.7221544 -0.6149741 1.6074299 0.22022866 -1.8597006 1.227487
-0.33572337 2.2593906 2.4834952 0.11998606 -0.29724786 1.2942243 0.07724031 -8.0048
4.40754 0.27129653 1.363848 -0.966784 -3.4051654 1.8149029 0.46433812 3.0934374
0.26877308 -1.1412275 0.14585714 -0.5555218 1.0526432 -0.7946273 2.5758178 -0.039377138
0.1550571 1.5029336 -0.3481826 0.7394519 -0.07372589 1.5057217 -5.638747 -0.15030618
0.78374237 1.2153357 1.6279889 0.19605745 -0.29886526 0.4274008 1.5015383 -8.190308
0.24558601 1.0763066 11.009597 0.35902166 -0.5803218 1.0862781 0.761004 1.2029943
1.1322204 1.5570775 2.178853 -0.4107661 4.5953813 0.6410738 1.0924046 1.0238044
-0.9353642 -1.9950696 2.2757359 -1.3548784 -0.229501 -1.4212577 7.38109 -0.090018325
-0.3103433 -1.1116271 -1.7377126 -0.6137602 -1.4193873 -0.92125624 -0.87982327 11.818625
-5.0959706 -0.9786868 -8.297781 -0.034302898 0.37078092 -0.40382206 0.036030367 -0.7971286
-0.51182985 -1.2211004 -0.7137617 -1.757742 -2.4543104 -0.6971481 -0.67788917 -1.8321218
-0.4975568 -0.87441725 3.5455892 1.1301638 -0.54107535 -0.42529854 3.218611 1.6270789
0.43253532 -2.2396684 -0.0381885 -0.7174231 -0.7599349 -0.22538312 2.851658 8.212894
-2.1322372 -1.1492115 -0.0062788185 -0.44161722 2.6466105 -0.9160885 1.3587325 -3.1659641
0.41647002 -2.4584851 0.45612934 1.5398916 0.7400145 -0.0819889 -1.254801 -1.1153607
-0.91721964 -3.8292496 -0.44444996 -2.317677 -0.33552644 1.0470626 5.7078176 3.771816
1.6448514 -1.2235373 -1.6680949 -1.5349474 -0.09484138 -1.6235809 -2.030879 7.730625
-2.0813885 -2.1418889 -2.518799 -0.978721 2.4845388 -1.8039137 -0.30466372 -1.4915944
0.91326123 0.06034136 1.6366231 1.4774883 -0.85572755 -0.2441303 -0.229327 -0.5714478
-0.13779633 0.06266003 1.831835 0.7464846 -0.7096868 -3.1132693 0.8963992 -1.101208
-2.1044638 -3.1554763 -1.3122911 -0.93519086 1.010354 -1.8379418 1.5749016 5.2995586
-1.3836588 0.31332663 -7.7127194 0.7270427 1.7984153 -1.422411 0.915475 -3.0442994
-2.247574 -0.84445745 -3.399223 1.3932534 -5.170703 -0.14561073 -2.2298875 -1.515243
-0.6326382 -3.3653476 2.541916 -0.89395386 -0.58172643 -1.8663181 4.340073 -0.9930624
0.0066302037 -2.8178415 -1.7890494 -0.98806727 0.29747686 -1.256958 -1.6773599 10.197242
-4.2449117 -0.23159973 -3.9272902 -0.36735857 0.6551555 -1.4363976 -0.224691 -1.7580168
-0.6447404 0.6652319 -0.61665225 0.118657194 -1.7426345 -0.30332926 -2.9481394 -1.4885775
00000000: 1ed4 133f be30 473e 92da 83bf 7be0 24bd
00000010: 28a9 253f 58aa 073f 105b bbc0 9a42 6ebf
00000020: 5f7f 81be c647 b83f 4d99 a53f 9b2b 8d3f
00000030: 2f5a 0dbf 9f2b 90be aebb 163f d0bc 16c1
00000040: 815c 0540 8c6e 853f c3ae 3541 8688 9bbe
00000050: c673 b0bf f716 923f 43b6 823c d4d9 e73f
00000060: 1006 0a3e 5481 cc3f 5918 853f e230 39be
00000070: df2d 6740 82f7 32bf 1255 8c3f 1e99 2a3f
00000080: eaca ec3f 10ab 9b3f c737 6ec0 f16e 1dbf
00000090: 43c0 cd3f 9f83 613e ab0a eebf 4b1e 9d3f
000000a0: efe3 abbe db99 1040 96f1 1e40 40bb f53d
000000b0: df30 98be 24a9 a53f 2b30 9e3d a913 00c1
000000c0: 910a 8d40 61e7 8a3e 9292 ae3f 287f 77bf
000000d0: 3bee 59c0 bd4e e83f babd ed3e e1fa 4540
000000e0: a09c 893e be13 92bf 935b 153e ad36 0ebf
000000f0: 03bd 863f b26c 4bbf 33da 2440 ec49 21bd
00000100: 4ac7 1e3e 2160 c03f fd44 b2be b84c 3d3f
00000110: 99fd 96bd 7dbb c03f 9e70 b4c0 dde9 19be
00000120: 57a3 483f 1f90 9b3f f161 d03f 49c3 483e
00000130: de04 99be 47d4 da3e 6832 c03f 800b 03c1
00000140: e67a 7b3e 6ac4 893f 4f27 3041 b0d1 b73e
00000150: f88f 14bf 290b 8b3f 28d1 423f b8fb 993f
00000160: 99ec 903f 514e c73f 5472 0b40 ef4f d2be
00000170: 5d0d 9340 6a1d 243f ead3 8b3f 060c 833f
00000180: 0774 6fbf 715e ffbf a8a5 1140 a86c adbf
00000190: 4f02 6bbe c6eb b5bf e431 ec40 875b b8bd
000001a0: 51e5 9ebe cc49 8ebf 5e6d debf 631f 1dbf
000001b0: 7cae b5bf 73d7 6bbf 193c 61bf 1719 3d41
000001c0: 3112 a3c0 388b 7abf b6c3 04c1 3281 0cbd
000001d0: ffd6 bd3e c4c1 cebe 9494 133d 9f10 4cbf
000001e0: 4807 03bf 054d 9cbf 16b9 36bf b1fd e0bf
000001f0: 6c13 1dc0 4c78 32bf 258a 2dbf f882 eabf
00000200: c4bf febe cfd9 5fbf efea 6240 35a9 903f
00000210: ea83 0abf bbc0 d9be b9fd 4d40 1f44 d03f
00000220: 4575 dd3e ba56 0fc0 8b6b 1cbd 0aa9 37bf
00000230: 188b 42bf d5ca 66be 9181 3640 0468 0341
00000240: 9376 08c0 5d19 93bf 8cbe cdbb a71b e2be
00000250: 1162 2940 c784 6abf f2ea ad3f 289f 4ac0
00000260: 8f3b d53e d257 1dc0 c989 e93e 2b1b c53f
00000270: 9771 3d3f cce9 a7bd 529d a0bf 24c4 8ebf
00000280: e8ce 6abf 6d12 75c0 f28e e3be d254 14c0
00000290: 1fca abbe 2606 863f 71a6 b640 6f65 7140
000002a0: 7e8a d23f df9c 9cbf 2284 d5bf 2879 c4bf
000002b0: 333c c2bd 80d1 cfbf ecf9 01c0 4861 f740
000002c0: 7835 05c0 b514 09c0 0134 21c0 768d 7abf
000002d0: af02 1f40 a5e6 e6bf e2fc 9bbe 91ec bebf
000002e0: 7dcb 693f 8028 773d de7c d13f 561e bd3f
000002f0: f610 5bbf 4bfd 79be b2d4 6abe 674a 12bf
00000300: 7b1a 0dbe e753 803d 9279 ea3f 9d19 3f3f
00000310: 09ae 35bf ce3f 47c0 6b7a 653f 62f4 8cbf
00000320: 89af 06c0 53f3 49c0 28f9 a7bf ab68 6fbf
00000330: 4853 813f ad41 ebbf 6096 c93f fc95 a940
00000340: bb1b b1bf 596c a03e 99ce f6c0 781f 3a3f
00000350: 7932 e63f 9011 b6bf 925c 6a3f cdd5 42c0
00000360: 41d8 0fc0 5d2e 58bf df8c 59c0 2156 b23f
00000370: 6676 a5c0 fb1a 15be 7ab6 0ec0 7cf3 c1bf
00000380: 94f4 21bf db61 57c0 c0ae 2240 29da 64bf
00000390: 06ec 14bf 83e3 eebf e1e1 8a40 5639 7ebf
000003a0: 2e42 d93b 8457 34c0 92ff e4bf faf1 7cbf
000003b0: e34e 983e 00e4 a0bf bbb3 d6bf e727 2341
000003c0: 51d6 87c0 7b28 6dbe b958 7bc0 6c16 bcbe
000003d0: 45b8 273f e0db b7bf 6615 66be b206 e1bf
000003e0: b50d 25bf a34c 2a3f ecdc 1dbf 8b02 f33d
000003f0: a60e dfbf f94d 9bbe 51ae 3cc0 b589 bebf

b1 f4 [32]
-1.0181264 -1.4944454 2.07764 -0.49102306 -0.6212855 -4.1442437 3.9194212 -2.0598278
-0.8274062 -2.7163959 -2.087736 -1.3826867 -0.87011856 -2.0862298 0.34310392 9.781909
-2.6867347 -2.5435143 -1.1717482 -0.03792426 0.13714883 -1.3373119 -0.5843744 -1.8605628
-0.45494354 -2.4280117 -1.3504114 0.7649578 -1.5892359 -1.642984 -1.8215798 -2.6245954
00000000: f751 82bf fd49 bfbf 0ef8 0440 6067 fbbe
00000010: 910c 1fbf a59d 84c0 ccd7 7a40 38d4 03c0
00000020: e5d0 53bf 6ed9 2dc0 779d 05c0 e1fb b0bf
00000030: 17c0 5ebf ca84 05c0 51ab af3e b382 1c41
00000040: 76f3 2bc0 f0c8 22c0 d8fb 95bf 7856 1bbd
00000050: be70 0c3e 092d abbf 9099 15bf ec26 eebf
00000060: 5cee e8be 8b64 1bc0 48da acbf 46d4 433f
00000070: 156c cbbf 4d4d d2bf 8729 e9bf 5ff9 27c0

W2 f4 [32, 8]
0.062608905 1.974847 -0.07739058 -0.2833569 0.48900178 -0.56458646 -1.8709054 0.19103399
1.3234568 -0.7871668 -0.36515847 -1.0072849 -1.3948432 1.4130685 -2.8838603 -0.73807365
-2.8205323 -1.6343732 -2.3630161 -10.788557 -1.0821792 -1.7787513 12.743997 -1.3218552
-2.9047692 2.2473073 0.5676869 -4.683472 1.8564076 -0.62283707 3.8002636 4.5154185
0.18389285 1.0717844 -0.12594266 -1.3938946 0.15744855 -0.12336853 -2.6027815 -0.14248623
3.8386075 2.4041965 2.2854004 4.0899916 -0.453272 1.9261751 -6.698826 0.19858813
-1.6658425 -2.6439147 -1.902579 -14.142903 -1.3519402 -1.4831067 16.874067 -1.6500988
-0.984701 0.07728705 -0.7751386 4.618477 -0.35294887 -1.1526059 -2.4268742 0.92228407
-1.1971797 0.20372973 -0.74601936 -6.5034075 -0.6388636 2.148137 -2.4291768 -0.50195265
3.4758744 0.85746616 1.5957706 2.3739905 0.168545 2.529971 -2.2740173 2.4815867
0.456339 0.6809794 -0.24235699 -2.5284173 -0.63241917 1.8173156 -0.1976196 0.4588249
0.310727 0.20293085 0.37235883 1.5628475 0.46870384 -0.3672171 -3.4344707 1.4080284
2.1389616 -1.066713 1.3924934 2.3039727 0.6433803 -1.2360059 -3.037757 0.7758503
-2.1089518 0.92523605 -0.9071682 1.7076778 0.5996217 -2.3956637 -0.7895102 0.57334006
-0.9820203 0.21893258 -0.9156452 -9.484882 -1.7806119 1.345494 2.7283688 -0.21453522
-2.0949287 -2.24049 -2.1390991 -17.527529 -2.2642639 -1.3830397 16.533619 -2.2140245
2.6788564 0.6777093 0.7756663 7.775255 -0.70690423 1.1289 -12.799868 2.312632
0.7902693 1.3982977 -0.64396226 -1.5262859 0.18008684 1.2621053 -6.0879545 0.20661424
0.7378266 1.5612807 0.019801911 8.211436 -0.4415465 1.4191614 -19.046339 0.289863
-0.21575357 -0.053629227 -2.7208774 -0.88737184 -0.41557437 -0.28711346 5.8994246 0.399346
3.6240907 1.4989846 1.018516 -8.18454 3.4554024 0.16675223 -5.5666323 2.165238
0.9502726 0.33095172 0.26822078 2.4164555 1.5498593 0.86036915 -9.379489 -0.24794948
-0.7488315 0.3120633 -0.08361662 -4.4412847 0.2839985 0.8339253 -4.3380494 -0.39023277
1.5266719 -0.04729576 2.661463 0.52981883 -0.27984843 -1.2797747 -8.110316 2.2488425
-0.16127206 0.19532642 1.1264111 0.41474065 0.271493 -0.76789075 -4.0779886 0.08495981
1.5275671 -1.0573775 0.43974987 -1.7807373 0.17753719 2.2627902 -2.013056 -0.9097972
-0.032356136 0.45742837 0.71050006 -0.7934141 -1.6039165 2.3222997 -3.7356174 -0.050364625
1.0591403 1.5704811 0.38364407 -0.03822787 -1.3286837 2.0423365 -8.27754 0.30584034
0.8294672 1.443479 0.57382226 4.1359315 -1.0668222 0.411049 -13.149323 -0.08009047
1.1925424 0.27993095 0.123702504 1.5299618 0.83376694 0.20295839 -2.4985368 0.8821265
2.3825023 0.8608852 0.26690027 2.1050828 0.9702799 1.6214418 -8.625057 0.25436014
0.7148824 0.5168389 2.2322087 -4.353445 -0.62985075 0.9803258 -0.54385144 2.9052389
00000000: 1939 803d c9c7 fc3f f47e 9ebd 2814 91be
00000010: 715e fa3e bd88 10bf d479 efbf 6a9e 433e
00000020: 0867 a93f c383 49bf 0df6 babe b6ee 80bf
00000030: 398a b2bf 6edf b43f 2b91 38c0 65f2 3cbf
00000040: 9a83 34c0 2433 d1bf a83b 17c0 ee9d 2cc1
00000050: d984 8abf 1fae e3bf 69e7 4b41 8d32 a9bf
00000060: bde7 39c0 e2d3 0f40 ee53 113f 01df 95c0
00000070: c49e ed3f 4072 1fbf 8537 7340 4f7e 9040
00000080: 684e 3c3e 3b30 893f 1df7 00be 236b b2bf
00000090: 313a 213e a4a8 fcbd f993 26c0 e9e7 11be
000000a0: bfab 7540 5bde 1940 0044 1240 36e1 8240
000000b0: 4513 e8be e88c f63f c85c d6c0 b05a 4b3e
000000c0: 543a d5bf e635 29c0 b587 f3bf 5549 62c1
000000d0: 600c adbf 71d6 bdbf 17fe 8641 7036 d3bf
000000e0: 5d15 7cbf ac48 9e3d 7c6f 46bf 90ca 9340
000000f0: b7b5 b4be 9788 93bf e851 1bc0 cf1a 6c3f
00000100: 2f3d 99bf 879e 503e 20fb 3ebf ea1b d0c0
00000110: 918c 23bf 147b 0940 a277 1bc0 f87f 00bf
00000120: ba74 5e40 e782 5b3f 3642 cc3f 76ef 1740
00000130: 0f97 2c3e 0beb 2140 8089 11c0 51d2 1e40
00000140: 44a5 e93e aa54 2e3f 6e2c 78be 97d1 21c0
00000150: 39e6 21bf cc9d e83f cb5c 4abe 19eb ea3e
00000160: 9c17 9f3e 1bcd 4f3e d1a5 be3e 630b c83f
00000170: f3f9 ef3e e103 bcbe 5ece 5bc0 463a b43f
00000180: bfe4 0840 0d8a 88bf 393d b23f 4a74 1340
00000190: 92b4 243f 7135 9ebf 9c6a 42c0 209e 463f
000001a0: 11f9 06c0 45dc 6c3f 2d3c 68bf 3095 da3f
000001b0: cf80 193f 8e52 19c0 571d 4abf 6ac6 123f
000001c0: af65 7bbf dd2f 603e b967 6abf 14c2 17c1
000001d0: 17eb e3bf 2639 ac3f 989d 2e40 1faf 5bbe
000001e0: 5013 06c0 3064 0fc0 00e7 08c0 6138 8cc1
000001f0: b3e9 10c0 7207 b1bf da44 8441 94b2 0dc0
00000200: 6272 2b40 5b7e 2d3f 1192 463f e4ce f840
00000210: adf7 34bf cc7f 903f 42cc 4cc1 2a02 1440
00000220: 174f 4a3f 6bfb b23f b6da 24bf 565d c3bf
00000230: af68 383e ab8c a13f 86d0 c2c0 af92 533e
00000240: 34e2 3c3f 0cd8 c73f 9e37 a23c 0b62 0341
00000250: 6212 e2be 15a7 b53f e75e 98c1 ec68 943e
00000260: 81ee 5cbe 52aa 5bbd db22 2ec0 cd2a 63bf
00000270: 2ac6 d4be 8900 93be 16c8 bc40 1477 cc3e
00000280: 1af1 6740 bade bf3f bb5e 823f e0f3 02c1
00000290: 5025 5d40 19c1 2a3e da21 b2c0 4293 0a40
000002a0: 1145 733f 8172 a93e 3c54 893e 35a7 1a40
000002b0: ca61 c63f 2741 5c3f 6312 16c1 78e6 7dbe
000002c0: 6cb3 3fbf c3c6 9f3e 313f abbd 011f 8ec0
000002d0: 4068 913e 217c 553f 4dd1 8ac0 97cc c7be
000002e0: fc69 c33f 33b9 41bd 6955 2a40 35a2 073f
000002f0: 4b48 8fbe a8cf a3bf dbc3 01c1 09ed 0f40
00000300: 8124 25be a603 483e 3d2e 903f e358 d43e
00000310: 2101 8b3e 7d94 44bf e27e 82c0 69ff ad3d
00000320: 5287 c33f 2558 87bf e526 e13e 33ef e3bf
00000330: 4fcc 353e 8ed1 1040 e9d5 00c0 78e8 68bf
00000340: de87 04bd 0d34 ea3e 55e3 353f 301d 4bbf
00000350: 234d cdbf 8fa0 1440 5b14 6fc0 234b 4ebd
00000360: e991 873f 8605 c93f ff6c c43e d494 1cbd
00000370: 4f12 aabf a4b5 0240 ce70 04c1 1b97 9c3e
00000380: f657 543f ebc3 b83f 04e6 123f 8d59 8440
00000390: a18d 88bf 0475 d23e a163 52c1 7906 a4bd
000003a0: 3ba5 983f 1c53 8f3e bd57 fd3d cad5 c33f
000003b0: c071 553f 53d4 4f3e 07e8 1fc0 0bd3 613f
000003c0: eb7a 1840 f962 5c3f 27a7 883e adb9 0640
000003d0: 4364 783f 688b cf3f 3c00 0ac1 7e3b 823e
000003e0: 8802 373f 8e4f 043f 82dc 0e40 6c4f 8bc0
000003f0: e63d 21bf a2f6 7a3f d939 0bbf 6fef 3940

b2 f4 [8]
-0.87001395 -0.7846299 -1.154648 -4.4281473 -1.5811262 0.752996 4.103231 -1.9335763
00000000: 3cb9 5ebf 81dd 48bf 81cb 93bf 62b3 8dc0
00000010: 5862 cabf 59c4 403f ab4d 8340 6e7f f7bf

weight f4 [8]
0.056547277 0.113822535 0.2041307 0.017245872 0.022161743 -0.0269484 0.029674651 -0.10349748
00000000: 1e9e 673d ca1b e93d a307 513e 3747 8d3c
00000010: 8b8c b53c e4c2 dcbc 4118 f33c 7df6 d3bd

bias f4 [8]
0.0011624561 0.020371284 0.011602624 0.04391057 0.00074668636 0.00023125882 0.035896033 -0.0053193574
00000000: 8e5d 983a aee1 a63c ef18 3e3c 92db 333d
00000010: 46bd 433a 117e 7239 b807 133d 014e aebb

weight f4 [1, 8]
0.0027510163 -0.0075675407 0.005681217 -0.0045045237 -3.2706848e-06 -0.00072270393 -0.0342664 0.00048573373
00000000: 654a 343b 22f9 f7bb 8129 ba3b af9a 93bb
00000010: f07d 5bb6 d773 3dba ed5a 0cbd 14aa fe39
