saved_models/model-epoch-34.pth (torch, 249162 bytes, 52 tensors)

embeddings f4 [99, 32]
000000 76 fa 59 3e d4 a6 4d be d2 be f0 3d c7 7e 13 3d
       0.2128695 -0.20083171 0.11755146 0.036009576
000010 b0 a0 69 bd a2 82 cf bd f7 79 ae 3d 2d 0c 2f be
       -0.05703801 -0.10132338 0.08519357 -0.17094488
000020 98 6b f8 bd 81 07 bb 3d 5c 7f a3 3c c1 33 35 be
       -0.12129897 0.09132291 0.01995819 -0.17695524
000030 5f 3a 1f 3e 64 09 58 be d4 a9 60 bc e4 9e 17 be
       0.1554961 -0.21097332 -0.013712365 -0.14806706
000040 4d db 4b 3e 76 0b a2 bd 6b 53 29 3e 2f 9b 3c bd
       0.19907875 -0.07912342 0.16535728 -0.046046432
000050 9a 6b 09 3d 3f 6e 31 3e e4 94 ad bd 4f 4a ab bd
       0.033549882 0.17327212 -0.08475664 -0.083637826
000060 4a d8 54 be e1 eb 7b bd 45 85 28 be ab 7b 01 3e
       -0.20785633 -0.06150425 -0.16457088 0.12644832
000070 2b 1d 25 3e 96 92 36 3e 12 dc bf bd 2e 68 1f 3e
       0.16124408 0.17829356 -0.09368147 0.15567085
000080 41 c2 5a bc d9 de c5 3d 0e 16 da 3d 30 0c 4e bc
       -0.013351978 0.096616454 0.10648738 -0.012576148
000090 f8 18 a2 3d 38 c5 2c 3e a2 c5 e9 bd 51 05 4a be
       0.07914919 0.16872108 -0.114146486 -0.1972859
0000a0 e6 af a8 3d ff cf b2 bd 86 23 04 3c 8e cc 3b be
       0.08236675 -0.08731078 0.00806511 -0.1833975
0000b0 dd 3f a4 bc 6d b5 06 be ad a8 2c be 20 00 69 3d
       -0.020049984 -0.13155146 -0.1686122 0.056884885
0000c0 59 03 32 3e 07 f4 f4 bd 0a 2d cc bd b7 bd 0e 3e
       0.1738409 -0.11960607 -0.09969528 0.13939558
0000d0 14 57 15 be 63 70 cb bd 4d ed 34 3e 2c dd eb 3d
       -0.14583999 -0.099335454 0.17668648 0.115167946
0000e0 bc c2 fb 3c da 05 ca 3d 39 11 a3 bd 1c 33 53 3e
       0.030732505 0.09864397 -0.07962269 0.20624965
0000f0 76 d7 0e be 33 02 09 bd 8c 79 73 bd dd 37 46 3e
       -0.1394938 -0.033449363 -0.059442088 0.19357248
000100 9c 69 2b be 00 78 46 bd e7 2e 24 be 95 68 21 3e
       -0.16739506 -0.048454285 -0.16033517 0.15762551
000110 93 56 e8 bd 7d 05 ae bd 2b 90 12 be 8e a6 ba bc
       -0.11344638 -0.084971406 -0.14312808 -0.022784498
000120 39 9a 53 be f4 33 f2 bd bf 97 58 3d ad 46 57 be
       -0.206643 -0.118263155 0.05287909 -0.21023054
000130 ee 82 60 bd b5 3d ef 3d e3 8f 0e 3d 9e ef 6e 3d
       -0.054812364 0.116816916 0.03480519 0.058333986
000140 12 85 c1 bd df 58 d1 3d 5a f9 72 3c 5b e6 d9 bd
       -0.09449209 0.10222029 0.014829958 -0.1063964
000150 64 d1 49 3e 4d 25 60 bd b7 c4 3d 3d 35 93 2b 3d
       0.19708782 -0.054723073 0.04633018 0.041888434
000160 bd 3b b0 3c af 87 17 be f8 94 b3 bb 38 a6 20 bc
       0.02151286 -0.14797853 -0.005480405 -0.009805255
000170 90 35 e8 bd b6 a0 18 bd 2d b4 8f 3c 4f 6a 3a bc
       -0.11338341 -0.03726264 0.01754197 -0.011377885
000180 8b c8 58 be 00 b9 1c 3d e4 41 13 be 5b 87 4d 3e
       -0.21170251 0.038262367 -0.14380604 0.20071165
000190 a9 f9 19 3e 5d 5a 9d 3b 58 80 ed 3d 2a 78 84 3d
       0.15036644 0.004802032 0.11596745 0.06468232
0001a0 13 c2 50 3d d8 cc c3 bd 91 ef 2c 3b 9b 75 4b 3b
       0.050966334 -0.09560555 0.002638791 0.003104544
0001b0 69 12 2a 3e 29 dc 67 bd 66 fa cb 3c ff 5d cc bd
       0.16608585 -0.056606445 0.024899673 -0.09978866
0001c0 c5 f7 a3 bd ba 91 5a bd f2 5c c1 3d c7 e1 c8 3d
       -0.08006243 -0.053361632 0.09441556 0.098086886
0001d0 c1 df 4f be 97 99 81 bd 04 ac 15 bb 9e 23 dc 3d
       -0.20300199 -0.06328123 -0.0022838125 0.10748981
0001e0 d3 51 12 be 5f 5c db bd 4c ac 50 3e d3 ce 41 be
       -0.14289026 -0.10710978 0.20378226 -0.18926553
0001f0 06 48 26 3c 6d 62 89 bd 20 17 02 be 69 cd 3f be
       0.010149008 -0.06708226 -0.12704134 -0.18730702
000200 13 c6 4c be c0 93 18 3e 1b 66 0a 3d 0d 2f 44 3d
       -0.19997434 0.14900112 0.03378878 0.047896434
000210 6f 5b 42 3d aa a2 17 be 30 f4 1b be 3f 21 e1 3c
       0.04745048 -0.14808145 -0.15229869 0.027481673
000220 58 ea 57 bd 0c e1 1e 3e bf d4 ab 3c 04 6e 1d 3e
       -0.052713722 0.15515536 0.020975469 0.15373999
000230 d1 dd 46 3c e8 f4 3f be 68 23 14 3d 29 bd 19 be
       0.012137846 -0.18745768 0.03616658 -0.15013565
000240 8f 06 0e 3e a8 20 0f be 11 4f 32 be 51 7b 2e be
       0.1386969 -0.13977301 -0.17412974 -0.17039229
000250 3d 5f 12 be 34 1a 1c 3e 72 13 59 3b 68 3b 2e be
       -0.14294143 0.1524437 0.0033123163 -0.17014849
000260 ef 23 ac bd 0f 4d 71 3d f4 ee 06 3e c8 eb 2d 3d
       -0.08405291 0.05891138 0.13177091 0.042461187
000270 8b 86 08 3e e6 e0 9d bd e2 29 50 3e ad ec 8f 3d
       0.13332574 -0.077089116 0.20328477 0.07027564
000280 91 66 99 bd 9e f0 37 bd 81 d7 e3 3b 0b a8 16 be
       -0.07490266 -0.044907205 0.0069531803 -0.14712541
000290 57 0d 2b be 1e 73 2d 3e d5 fd bb bd e8 ee 17 3e
       -0.16704307 0.16938445 -0.09179274 0.14837229
0002a0 67 b9 38 3e 5f e9 6b bc 22 7b 27 3d bb a6 36 3e
       0.18039475 -0.014398902 0.040888913 0.1783704
0002b0 7c b7 02 3c a8 0b 2d 3e f2 3e 3d 3e 51 23 e8 3c
       0.007978316 0.16898978 0.18481043 0.028337153
0002c0 50 8f 51 3d 3c b9 e8 3d 28 62 2c 3e 4f b8 31 3e
       0.051162064 0.11363456 0.16834319 0.17355464
0002d0 4f 4b b4 3c 6e be f9 bd eb b6 30 3e 5a 62 da 3d
       0.022008566 -0.12194525 0.17257278 0.1066329
0002e0 4e e7 9c bd 70 78 4f be b1 da 03 be 27 a9 17 bd
       -0.07661305 -0.20260787 -0.12876393 -0.03702655
0002f0 61 b5 4c 3e b4 84 75 bd 42 c4 42 be 27 f6 20 3e
       0.19991066 -0.05994101 -0.19020179 0.157189
000300 fd 14 32 3e f8 4a 5c 3c ed b6 1e be b5 ab 96 bd
       0.17390819 0.013445608 -0.15499468 -0.07356969
000310 dd 37 0d be 0f b7 3f 3e 9f 8f 30 be b8 56 6f bd
       -0.13790841 0.18722175 -0.17242287 -0.05843231
000320 20 5d 50 be 70 61 05 3d b3 67 9e bc 62 9a 97 3d
       -0.20348024 0.032563627 -0.019336557 0.07402493
000330 eb bf 4e be e1 e8 28 3d 51 f5 4a be 28 4a 35 3e
       -0.20190398 0.041237716 -0.19820143 0.1770407
000340 50 ca 12 bc da 65 44 be 94 0d 52 bd 2b f9 4f 3e
       -0.008959368 -0.19179478 -0.05128248 0.20309894
000350 48 46 49 bd 10 6e 46 be 1b 3f 37 be 5b 47 25 be
       -0.04913929 -0.19377923 -0.17895167 -0.16140501
000360 1b 11 9c bd dc ae ff bd a4 85 31 be 8c 73 ac 3c
       -0.0762045 -0.12484524 -0.17336136 0.02105119
000370 48 b7 2d be 4f cb 3d 3e ab a5 c2 3d 27 c9 06 be
       -0.16964447 0.18534587 0.09504255 -0.13162671
000380 16 ed d4 3c e3 2e 0e bc 92 cd 22 be 68 3e 29 3e
       0.025991958 -0.008678171 -0.15898731 0.16527712
000390 5b b7 d5 bd 45 47 f0 3c 72 96 0a be 6a b3 31 be
       -0.10435363 0.029330859 -0.13533953 -0.17353597
0003a0 4f 2d ad bc fb c0 23 3e a8 88 fd bd 68 02 57 3e
       -0.021139769 0.15991585 -0.12379581 0.20997012
0003b0 4f a4 f4 bb b0 cb d7 3d 15 f0 f7 3d 01 2e ce 3d
       -0.007465876 0.10536897 0.12106339 0.10067368
0003c0 07 cf 02 3b bd 25 0e 3d 11 33 84 bd 73 bd 27 3e
       0.0019959824 0.03470396 -0.06455053 0.16380863
0003d0 bc b6 49 3e 6e eb 55 be 6a 7b a2 bd b1 41 2d be
       0.19698614 -0.2089059 -0.079336956 -0.1691959
0003e0 5b cc 34 3c 26 ea 48 be 84 58 fe bd 2d 8b 52 3e
       0.01103505 -0.1962057 -0.12419227 0.20560904
0003f0 0c 32 e1 bc 39 9b bf bc 7e 4a 14 3e ea 89 de 3c
       -0.027489685 -0.023389446 0.14481542 0.027165372

_pos_embeds f4 [64, 32]
000000 00 00 00 00 00 00 80 3f 00 00 00 00 00 00 80 3f
       0.0 1.0 0.0 1.0
000010 00 00 00 00 00 00 80 3f 00 00 00 00 00 00 80 3f
       0.0 1.0 0.0 1.0
000020 00 00 00 00 00 00 80 3f 00 00 00 00 00 00 80 3f
       0.0 1.0 0.0 1.0
000030 00 00 00 00 00 00 80 3f 00 00 00 00 00 00 80 3f
       0.0 1.0 0.0 1.0
000040 00 00 00 00 00 00 80 3f 00 00 00 00 00 00 80 3f
       0.0 1.0 0.0 1.0
000050 00 00 00 00 00 00 80 3f 00 00 00 00 00 00 80 3f
       0.0 1.0 0.0 1.0
000060 00 00 00 00 00 00 80 3f 00 00 00 00 00 00 80 3f
       0.0 1.0 0.0 1.0
000070 00 00 00 00 00 00 80 3f 00 00 00 00 00 00 80 3f
       0.0 1.0 0.0 1.0
000080 a4 6a 57 3f 40 51 0a 3f ba 7d 08 3f 0e 94 58 3f
       0.84147096 0.5403023 0.53316844 0.84600914
000090 3e 39 9f 3e 6a 4e 73 3f 3a 23 35 3e 83 f6 7b 3f
       0.3109836 0.95041525 0.17689219 0.9842302
0000a0 76 75 cc 3d 98 b8 7e 3f b0 36 66 3d 68 98 7f 3f
       0.099833414 0.9950042 0.056204498 0.9984193
0000b0 5c 81 01 3d 3c df 7f 3f 42 ab 91 3c a3 f5 7f 3f
       0.031617507 0.99950004 0.017781857 0.99984187
0000c0 57 d6 23 3c b9 fc 7f 3f 5c 44 b8 3b f7 fe 7f 3f
       0.009999833 0.99995 0.0056233834 0.9999842
0000d0 20 3e 4f 3b ac ff 7f 3f 20 15 e9 3a e5 ff 7f 3f
       0.0031622723 0.999995 0.0017782785 0.9999984
0000e0 6d 12 83 3a f8 ff 7f 3f 16 6a 13 3a fd ff 7f 3f
       0.0009999998 0.9999995 0.0005623413 0.9999998
0000f0 5f cb a5 39 ff ff 7f 3f 53 77 3a 39 00 00 80 3f
       0.00031622776 0.99999994 0.00017782794 1.0
000100 b7 c7 68 3f 33 11 d5 be 0a f2 66 3f b2 e8 dc 3e
       0.9092974 -0.41614684 0.9021307 0.43146282
000110 1b 54 17 3f ec 7b 4e 3f f6 47 b2 3e a5 fa 6f 3f
       0.5911271 0.8065784 0.34820527 0.9374183
000120 f9 6f 4b 3e a5 e5 7a 3f 88 d9 e5 3d f3 61 7e 3f
       0.19866933 0.9800666 0.112231314 0.9936821
000130 c8 70 81 3d f9 7c 7f 3f 5c a5 11 3d 8e d6 7f 3f
       0.063203394 0.9980007 0.03555809 0.9993676
000140 3e d4 a3 3c e5 f2 7f 3f 9d 43 38 3c db fb 7f 3f
       0.019998666 0.9998 0.011246589 0.99993676
000150 dd 3d cf 3b b0 fe 7f 3f 08 15 69 3b 96 ff 7f 3f
       0.0063245133 0.99998 0.0035565514 0.9999937
000160 69 12 03 3b de ff 7f 3f 14 6a 93 3a f5 ff 7f 3f
       0.0019999987 0.999998 0.0011246824 0.99999934
000170 5f cb 25 3a fd ff 7f 3f 53 77 ba 39 ff ff 7f 3f
       0.0006324555 0.9999998 0.00035565588 0.99999994
000180 c3 81 10 3e 26 70 7d bf d7 45 7e 3f a8 7f ed bd
       0.14112 -0.9899925 0.9932532 -0.11596614
000190 c2 09 50 3f 57 2f 15 3f 6d 2f 02 3f 29 6d 5c 3f
       0.8126489 0.5827536 0.50853616 0.86104065
0001a0 6d 4e 97 3e ef 90 74 3f d8 ee 2b 3e 9e 5d 7c 3f
       0.29552022 0.9553365 0.1679033 0.9858035
0001b0 c1 ff c1 3d 4f d9 7e 3f 4d 69 5a 3d c3 a2 7f 3f
       0.09472609 0.99550337 0.05332308 0.9985773
0001c0 20 b9 f5 3c 83 e2 7f 3f c7 31 8a 3c ad f6 7f 3f
       0.029995501 0.99955004 0.016869439 0.9998577
0001d0 11 6e 1b 3c 0d fd 7f 3f a8 cf ae 3b 11 ff 7f 3f
       0.009486691 0.999955 0.005334813 0.99998575
0001e0 93 9b 44 3b b5 ff 7f 3f 1b 1f dd 3a e8 ff 7f 3f
       0.0029999956 0.9999955 0.0016870232 0.99999857
0001f0 0d b1 78 3a f8 ff 7f 3f 7e d9 0b 3a fe ff 7f 3f
       0.0009486832 0.9999995 0.0005334838 0.9999999
000200 cf bd 41 bf 30 55 27 bf ed 49 47 3f 9d af 20 bf
       -0.7568025 -0.6536436 0.77847177 -0.62767965
000210 de 1d 74 3f b1 2e 9a 3e bc 1f 27 3f ed eb 41 3f
       0.95358074 0.30113748 0.652828 0.7575062
000220 d7 61 c7 3e a7 ca 6b 3f c6 65 64 3e 09 8d 79 3f
       0.38941833 0.921061 0.22304448 0.9748083
000230 88 2e 01 3e 69 f4 7d 3f c8 8d 91 3d 47 5a 7f 3f
       0.12615407 0.99201065 0.07107121 0.9974713
000240 db cb 23 3d 94 cb 7f 3f a2 40 b8 3c 6c ef 7f 3f
       0.039989334 0.9992001 0.022491757 0.99974704
000250 cd 3c 4f 3c c2 fa 7f 3f a7 14 e9 3b 58 fe 7f 3f
       0.012648773 0.99992 0.0071130577 0.9999747
000260 58 12 83 3b 7a ff 7f 3f 0e 6a 13 3b d6 ff 7f 3f
       0.0039999895 0.999992 0.0022493633 0.9999975
000270 5c cb a5 3a f3 ff 7f 3f 52 77 3a 3a fc ff 7f 3f
       0.0012649107 0.9999992 0.0007113117 0.99999976
000280 10 7c 75 bf 2c 3c 91 3e d6 da a5 3e 40 32 72 bf
       -0.9589243 0.2836622 0.3239352 -0.94607925
000290 7f fc 7f 3f d4 72 29 bc ab ca 46 3f f1 4c 21 3f
       0.99994653 -0.010342319 0.77652997 0.6300803
0002a0 44 77 f5 3e 40 a9 60 3f ee 11 8e 3e 7c f2 75 3f
       0.47942555 0.87758255 0.27748054 0.96073127
0002b0 1e 3c 21 3e 81 ce 7c 3f 21 db b5 3d 1e fd 7e 3f
       0.15745589 0.987526 0.08879686 0.99604976
0002c0 f5 b6 4c 3d 19 ae 7f 3f fe 4d e6 3c 19 e6 7f 3f
       0.04997917 0.99875027 0.028113361 0.99960476
0002d0 81 85 81 3c cf f7 7f 3f bb ac 11 3c 69 fd 7f 3f
       0.01581073 0.999875 0.00889128 0.9999605
0002e0 de d6 a3 3b 2e ff 7f 3f 8c 44 38 3b be ff 7f 3f
       0.0049999794 0.9999875 0.002811703 0.99999607
0002f0 31 3e cf 3a eb ff 7f 3f 26 15 69 3a f9 ff 7f 3f
       0.0015811381 0.99999875 0.0008891396 0.9999996
000300 8c 0f 8f be b8 cd 75 3f 74 e5 6b be 53 1d 79 bf
       -0.2794155 0.96017027 -0.23036748 -0.9731037
000310 4d 78 72 3f 6f 3f a4 be 89 30 60 3f 34 2f f7 3e
       0.94714814 -0.32079646 0.8757406 0.482782
000320 69 8c 10 3f 32 49 53 3f fd 7d a9 3e e2 90 71 3f
       0.5646425 0.8253356 0.33103934 0.943617
000330 6f 20 41 3e e3 67 7b 3f c1 19 da 3d 51 8b 7e 3f
       0.18860029 0.98205394 0.106494434 0.9943133
000340 d1 9c 75 3d 12 8a 7f 3f bf 2c 0a 3d b3 da 7f 3f
       0.059964005 0.99820054 0.03373408 0.99943084
000350 46 6c 9b 3c 34 f4 7f 3f 04 cf 2e 3c 45 fc 7f 3f
       0.018972527 0.99982 0.010669474 0.9999431
000360 59 9b c4 3b d2 fe 7f 3f 06 1f 5d 3b a1 ff 7f 3f
       0.005999964 0.999982 0.0033740415 0.99999434
000370 05 b1 f8 3a e2 ff 7f 3f 7d d9 8b 3a f6 ff 7f 3f
       0.0018973654 0.9999982 0.0010669675 0.9999994
000380 46 30 28 3f bd ff 40 3f 6e b6 36 bf 60 4f 33 bf
       0.6569866 0.75390226 -0.71372116 -0.7004299
000390 6f e8 4c 3f bb 74 19 bf 44 84 72 3f b9 f8 a3 3e
       0.80042166 -0.5994374 0.9473307 0.32025698
0003a0 73 eb 24 3f b3 cc 43 3f df 60 c4 3e c5 6b 6c 3f
       0.64421767 0.7648422 0.38355157 0.92351943
0003b0 50 d3 60 3e ea c0 79 3f ba 46 fe 3d e9 04 7e 3f
       0.2195561 0.9755999 0.12415834 0.9922624
0003c0 32 3e 8f 3d 81 5f 7f 3f 60 31 21 3d 3b cd 7f 3f
       0.06994285 0.997551 0.03935373 0.9992253
0003d0 a6 52 b5 3c f2 ef 7f 3f 2a f1 4b 3c ec fa 7f 3f
       0.022134136 0.999755 0.012447635 0.9999225
0003e0 c7 5f e5 3b 65 fe 7f 3f be fc 80 3b 7e ff 7f 3f
       0.006999943 0.9999755 0.003936379 0.99999225
0003f0 ec 11 11 3b d7 ff 7f 3f 66 28 a3 3a f3 ff 7f 3f
       0.0022135926 0.99999756 0.0012447953 0.9999992

W f4 [32, 32]
000000 1e c2 25 3e c6 fc 20 bf 16 33 6a 3e 19 c5 fe 3c
       0.16187331 -0.628857 0.2287105 0.031099843
000010 78 c3 73 be ae cb 1f be 06 25 d5 3e 4d e7 80 be
       -0.23805034 -0.15605041 0.4162981 -0.25176468
000020 e5 6b e4 be d9 1d 9a be 29 f1 a8 3e 3d 03 dd bd
       -0.44613567 -0.30100897 0.3299649 -0.10791633
000030 f2 b7 f4 3e e9 a4 98 3e 7a 79 b6 3e 78 38 04 3f
       0.4779659 0.29813316 0.35639554 0.51648664
000040 36 24 47 3e 12 50 04 3f ed cd 0f 3f 2c 0f f7 3e
       0.19447407 0.5168468 0.5617359 0.48253763
000050 67 9a 7d 3e fe 44 45 3f 0a 95 05 3f d0 1e a4 3e
       0.24765931 0.770584 0.5218054 0.32054758
000060 b6 41 d6 3e 67 d2 39 3f 5e 0b d2 3e e9 2b 0a 3f
       0.41847008 0.72586673 0.41024297 0.5397325
000070 7f 2c 8e 3e 24 3e ed 3e 7d 52 d9 3e 75 5a 40 3f
       0.27768323 0.46336472 0.42445746 0.75138026
000080 dc e1 80 3e 82 7a c5 bd 51 39 b7 be 82 14 86 3e
       0.25172317 -0.09642507 -0.35785916 0.2618752
000090 07 f6 17 bf 5d 78 b5 bd 64 9d 00 3f 7c ef 1e 3f
       -0.5935978 -0.08860848 0.5024016 0.62084174
0000a0 81 0c 13 3f 1f 2d 33 bf c2 fa cc be d0 63 b2 3e
       0.57440954 -0.69990724 -0.40035063 0.34841776
0000b0 ef 42 83 be 0a ae 8b 3d 5e e5 30 bf 3a 3b 2c bf
       -0.25637004 0.06820305 -0.69099987 -0.6727787
0000c0 2d 89 a5 be b4 b2 11 bf 74 69 7d be 1a 14 90 be
       -0.3233122 -0.56913304 -0.24747258 -0.28140336
0000d0 f3 fa 29 bf 0e 50 34 bf fa 2c 15 bf 06 07 12 bf
       -0.66398543 -0.70434654 -0.58271754 -0.57041967
0000e0 c7 0e 06 bf 57 f7 27 bf 83 f7 b6 be b7 c4 1f bf
       -0.523663 -0.65611786 -0.3573571 -0.6240954
0000f0 cf bb e1 be 06 6a 1b bf 2f dc 4a bf 08 20 30 bf
       -0.440886 -0.60708654 -0.79242224 -0.68798876
000100 46 bb 96 bc d9 bf 20 3f 50 9f 03 bf 0f cd b1 be
       -0.018399846 0.62792736 -0.51414967 -0.3472676
000110 4b 6f 3e 3f 12 1b 33 3f 8d f8 11 bf c9 6a 9c be
       0.7438857 0.6996318 -0.57019883 -0.3055022
000120 12 63 a8 3d 6a fb 01 3e 07 ad 8c 3d 3b d2 12 bf
       0.08222021 0.12693563 0.0686894 -0.57352036
000130 d4 82 e4 3e 31 26 cc be cb 39 fb 3e 1b 97 6b 3e
       0.44631064 -0.39872888 0.4906753 0.23006861
000140 62 38 61 3e 30 0e 33 3e d7 74 18 3e 26 32 d5 3e
       0.21994165 0.17485881 0.14888321 0.41639823
000150 7d 67 31 3f 71 80 1f 3f ee 87 ec 3e 52 d7 87 3e
       0.69298536 0.6230536 0.46197456 0.26531464
000160 12 b6 10 3e b7 21 c3 3e 04 71 8d 3e a1 66 8f 3e
       0.14131954 0.3811166 0.27625287 0.28007987
000170 93 22 05 3e 97 0f 37 3f a7 9e 46 3e e9 34 cc 3e
       0.1300147 0.71508163 0.19396459 0.39884117
000180 a3 a3 32 3e ba 2b c9 3e 04 12 02 3f a0 c7 6f 3e
       0.17445235 0.39291173 0.5080874 0.23415995
000190 c4 e5 a6 3e 16 51 75 3c 91 3a bf 3e 8e 7b e7 be
       0.32597172 0.014972946 0.3734937 -0.45211452
0001a0 ed 6a 82 3e 64 f3 b7 bd ce d1 42 bf 41 73 8a 3e
       0.25472203 -0.0898197 -0.76101387 0.27041057
0001b0 ef 7b 1e be 18 cb 84 bc 18 bd 87 bd bf b2 85 be
       -0.15476964 -0.016210124 -0.06627864 -0.26112935
0001c0 9c 57 b9 3d 6c 00 b2 3d 89 3c c7 be c1 7c 0c be
       0.09049913 0.08691487 -0.38913372 -0.13719465
0001d0 bb c1 00 3e e3 16 f0 be 1e a6 cf be 0b c3 06 be
       0.12573902 -0.4689246 -0.40556425 -0.1316034
0001e0 dd bc 2b be 92 7d 53 be d6 90 d6 be 2d b6 74 be
       -0.16771264 -0.2065337 -0.41907376 -0.2389762
0001f0 14 37 ef 3d e8 c8 7a be 7f 74 42 3c e5 61 2e be
       0.11680427 -0.24490702 0.011868595 -0.17029531
000200 5f 96 8a be ca 5d a7 3d a6 37 ae be 41 20 f6 bc
       -0.2706785 0.08172186 -0.3402683 -0.030044677
000210 91 6c 07 be 33 36 d9 3e ed 17 1a bf 12 71 48 be
       -0.13225009 0.42424163 -0.6019276 -0.19574383
000220 25 af 97 3b 2e 2c ee 3e 28 a2 1f bf f1 79 7c be
       0.004629033 0.4651808 -0.62356806 -0.24655892
000230 fc 31 c3 3e 80 52 ff be de 5e 42 3e 6c ff 51 bb
       0.38124073 -0.4986763 0.18981501 -0.0032043112
000240 b2 d8 a3 3d 48 50 cc bd b5 02 a4 3e ac 9e 45 3e
       0.08000316 -0.0997625 0.32033315 0.1929881
000250 0b 62 b9 3e b5 21 13 3d 21 fb 61 3e 45 4c 91 3e
       0.36207613 0.035920817 0.22068454 0.28378502
000260 62 ba 97 3c a0 1b a3 3e ae e4 07 be 8d 4f 1a 3e
       0.018521491 0.31857014 -0.13270828 0.15069409
000270 43 1a 99 bc 1e 93 b3 bd d5 61 a2 3e 04 d4 c4 3e
       -0.01868928 -0.08768295 0.31715265 0.38443005
000280 48 4c 85 be a5 3e 10 be d1 19 e4 be e5 18 37 3c
       -0.2603476 -0.14086397 -0.44550946 0.011175369
000290 42 b8 13 bf fe 7f 83 3e 48 8a fa be 70 14 ba 3e
       -0.5770303 0.25683588 -0.48933625 0.36343718
0002a0 11 2f 8c 3d 61 6b b6 3e 8a 0e c4 be 77 71 72 3e
       0.06844915 0.356288 -0.38292342 0.23676096
0002b0 9b 23 16 bf 13 c1 16 bf 69 48 68 be a2 06 fd be
       -0.5864808 -0.5888836 -0.22683872 -0.49419123
0002c0 27 15 46 bf 6a 53 01 bf d3 f0 1e bf 80 16 50 be
       -0.77376026 -0.50517905 -0.6208622 -0.20321083
0002d0 c8 c7 d1 be 9f 1d 1f bf 7e 8c 22 bf 89 9c 08 bf
       -0.40972733 -0.62154573 -0.63495624 -0.53363854
0002e0 af a6 2f bf c1 a1 da be ac 5c 02 bf 23 71 88 be
       -0.68613714 -0.42701533 -0.50922656 -0.26648816
0002f0 b4 d6 48 bf 46 d5 ec be 27 a5 19 bf 46 ec 03 bf
       -0.7845261 -0.46256465 -0.6001763 -0.515324
000300 b9 0b d4 3e 36 b1 1d be 48 1d 01 3d eb a5 25 3f
       0.41415194 -0.15399632 0.031522065 0.64706296
000310 1f 64 62 3e d4 94 55 3e e7 b0 3f 3e f0 2e a9 3e
       0.22108506 0.20857555 0.18719827 0.33043623
000320 a9 7d cc be 35 d2 7b be 21 0a 27 3e af ce 24 3e
       -0.3993962 -0.24591906 0.16312458 0.16094469
000330 87 3e 0d 3d db 34 3c 3e e4 a5 94 3d 6f 16 d3 3d
       0.03448346 0.18379538 0.072582036 0.10307013
000340 77 2d fa 3d d0 e5 a3 3d ef 92 8c be 5b 60 39 bb
       0.12215703 0.08002818 -0.2745585 -0.0028286192
000350 fe 19 d7 be 23 05 5c be 12 b9 48 be 8e 4b f7 3d
       -0.42012018 -0.21486335 -0.19601849 0.12074958
000360 07 3c 97 be 33 f4 f0 be 3f 80 6a be c6 94 be be
       -0.29537985 -0.4706131 -0.22900485 -0.3722288
000370 e0 44 02 3e 80 21 96 3d da 5b 15 be 61 e5 53 be
       0.12721586 0.07330608 -0.1458582 -0.2069297
000380 a2 79 86 be d5 ed 93 be 1b 44 d2 3d 71 1b 8f be
       -0.26264673 -0.2889239 0.10266896 -0.27950624
000390 bb 91 be be c2 34 38 be 76 d2 5c be 86 d3 03 bf
       -0.3722056 -0.17988876 -0.2156466 -0.51494634
0003a0 bf 93 9c 3e 96 ad 79 3e f4 8e 45 be f4 24 68 be
       0.3058147 0.24382624 -0.19292814 -0.22670346
0003b0 b3 00 29 be 09 c8 b8 3e 7d d7 97 bd 39 9b a3 3e
       -0.16504173 0.36090115 -0.07414148 0.31954363
0003c0 b6 eb 6b 3e 00 86 f9 bb e5 e2 39 be 12 01 2d bd
       0.23039135 -0.007614851 -0.1815296 -0.04223735
0003d0 ba df 3d 3a 7e 0e 01 3e 5c 36 50 3e 28 4e 4d be
       0.00072431157 0.12603185 0.20333236 -0.20049345
0003e0 e2 b8 42 3e aa 1a e1 3d ff 04 d3 bd 2c 72 0b 3e
       0.1901584 0.10991414 -0.10303687 0.13617772
0003f0 e1 36 d3 bb bf 0f c1 3e 1c 42 13 be 9d 99 1f 3e
       -0.006445751 0.37707326 -0.14380687 0.15585943

b f4 [32]
000000 08 13 03 3f 9d 45 01 bf 03 2f e4 3e 6e d3 24 be
       0.51200914 -0.50496846 0.44567117 -0.16096279
000010 b6 53 d0 3d e6 8d d0 be 80 06 30 be 80 ce df 3d
       0.101722166 -0.4073326 -0.1718998 0.109280586
000020 28 fb 52 be 0e 1c d3 3d e4 0e 55 be 58 44 bc 3e
       -0.20603621 0.103080854 -0.20806462 0.36770892
000030 e8 96 be be 18 b8 6c be a2 ec 38 be aa 9e b9 be
       -0.37224507 -0.23117101 -0.18059018 -0.36253864
000040 c3 33 ab be 8d 34 7c 3e 41 31 57 be 22 7d 7c bc
       -0.3343793 0.24629422 -0.21014883 -0.015410693
000050 a7 38 b8 be f5 9e af be e9 81 56 be a9 69 b9 be
       -0.35980722 -0.34300962 -0.20947994 -0.36213425
000060 6f 9f 63 3e dd 63 af bd a6 4c 84 3e 48 30 a5 3e
       0.22228788 -0.08563969 0.25839728 0.32263398
000070 b7 2a cb be f3 63 44 3e 7e 18 38 be 39 40 41 3e
       -0.39681026 0.19178753 -0.17978093 0.18872155

W f4 [32, 32]
000000 a3 bd 14 3d 48 d9 14 bf a8 ae 87 3d 77 c7 eb 3d
       0.036313664 -0.58144045 0.0662511 0.11512654
000010 fb b4 8a 3e 3f 78 43 3f b5 0c c5 be 07 e3 c0 be
       0.27091202 0.76355356 -0.38486257 -0.37673208
000020 b8 db ad be d3 b2 62 3e fe cd 96 3d ab 18 96 be
       -0.33956695 0.22138529 0.07363509 -0.29315695
000030 0f 84 81 3e 8c 00 0a bd c6 64 e4 3e f1 38 88 3e
       0.25296065 -0.033691928 0.44608134 0.26605943
000040 2d e6 82 3d 24 ee 97 bc 41 a4 ed 3e 97 0c c6 3e
       0.06391559 -0.018546171 0.46414378 0.3868148
000050 e8 29 65 3e ca 19 19 3e 14 0f 92 3d 7a 4a 87 3e
       0.22379267 0.14951244 0.07131782 0.2642401
000060 fd a0 ef 3e 73 69 64 3e 03 88 a5 3d de ad 6d 3e
       0.46802512 0.2230585 0.08082583 0.23210856
000070 d1 7a 9b 3e b8 db da 3e 9a 42 89 3e a7 5a 8e 3e
       0.3036714 0.42745757 0.26808625 0.27803537
000080 70 98 7d 3d e8 3e 10 3e 04 17 a8 3b 4e a2 a9 bb
       0.061912954 0.14086497 0.005129697 -0.005176819
000090 72 20 eb ba 35 0e 6e 3e e7 7c 33 bf dd 8e 7e 3d
       -0.0017938747 0.23247607 -0.7011246 0.062147964
0000a0 50 25 94 3e 93 53 13 3f c8 7e 02 be b3 e5 dc bd
       0.28934717 0.575494 -0.12743676 -0.10785999
0000b0 d0 27 c0 be 6f d7 15 bf 34 04 bd be 58 62 1a bf
       -0.37530375 -0.5853185 -0.3691727 -0.6030631
0000c0 0b ac 85 3d aa 58 f1 bd 1a 9b 3b 3e e0 4a 97 3d
       0.06526955 -0.117844895 0.18320885 0.07387328
0000d0 35 98 01 be 54 a7 dc 3c 13 4b 2c bd 7d 65 e9 be
       -0.12655719 0.026935257 -0.042063784 -0.45585242
0000e0 3a d3 78 be 80 61 68 be 82 ce 24 3e 0b 9f 63 be
       -0.24299327 -0.22693443 0.16094401 -0.22228639
0000f0 ec d3 35 be e6 7d ea be 91 2e b9 3d 0f b0 bb be
       -0.17756623 -0.45799178 0.09042085 -0.3665776
000100 89 52 37 be 02 13 05 3f a2 e7 d2 bd fd 0f fa 3e
       -0.17902578 0.5198213 -0.10298087 0.48840323
000110 f7 48 6a 3e 8c f1 14 3f fe 3d ea 3c e3 f3 dd bd
       0.22879396 0.5818107 0.028594013 -0.10837533
000120 7b 2a 07 3f 1b a4 05 bf 95 9e 05 3f 4b 81 9c 3d
       0.52799195 -0.5220353 0.521951 0.07641848
000130 5a d2 d4 3d 4c 3d 03 3f 59 c6 9e 3e 90 02 00 3f
       0.10391684 0.51265407 0.31010702 0.5000391
000140 90 93 ed 3e cc 04 06 3f be b3 c6 3e 0d a4 2e 3e
       0.46401644 0.5235107 0.38809007 0.17054768
000150 04 92 f3 3e 36 31 e2 3d 55 55 72 3e 97 0c c4 3e
       0.4757234 0.110445425 0.23665364 0.38290855
000160 b0 4c bb 3d c6 8d e9 3e 6c b2 9d 3e 5a 47 3c 3e
       0.09145486 0.45615977 0.30800188 0.18386593
000170 cc aa 0a 3e e5 b5 82 3e 34 47 fc 3e e1 63 18 3f
       0.13541716 0.255294 0.49273074 0.59527403
000180 2d 31 24 3e 1d 5b 62 be f4 ab 61 bd a6 fc ea 3d
       0.16034384 -0.2210507 -0.055095628 0.1147397
000190 f5 c3 11 3f 25 e7 05 bf 5c b4 1b 3f be 06 a2 be
       0.5693963 -0.52305824 0.6082208 -0.3164577
0001a0 1c 66 b3 be 52 3b b7 be fe 8f 97 3e 0e 31 81 3e
       -0.3503884 -0.35787445 0.29602045 0.25232738
0001b0 21 2e 3f 3f ea 2d dc 3e f0 f3 00 3e d8 21 ef 3e
       0.7467976 0.4300378 0.12593055 0.46705508
0001c0 ea 32 7d be 41 0f 0c 3f 0b d4 02 3e da 68 a8 3e
       -0.24726453 0.54710776 0.127762 0.32892495
0001d0 66 9f 49 3d 64 54 86 3e e2 30 98 be 74 db 3f 3f
       0.04922428 0.2623626 -0.29724795 0.74944234
0001e0 97 31 a6 be e7 62 fe 3e d6 c7 fd bd f1 e1 70 3e
       -0.3245971 0.49684832 -0.12391631 0.2352369
0001f0 6a ad b1 be 2c c1 e8 3e 16 d1 c0 3d ad e6 91 3e
       -0.34702617 0.45459878 0.0941488 0.28496304
000200 6a 34 f4 be bd cc cb 3d aa e6 2e 3f 1f 7e 4a 3f
       -0.4769624 0.0995116 0.68320715 0.79098696
000210 c0 33 33 bf 24 19 3b 3f 84 32 ca be 03 3a f4 3e
       -0.7000084 0.73085237 -0.39491665 0.4770051
000220 d4 99 4f 3f ee a2 f2 be 1e ee 33 bf 43 e5 18 3f
       0.810941 -0.4738993 -0.70285213 0.59724826
000230 a4 4f 93 be d0 a8 9d be 47 0d 01 bf c5 03 68 bf
       -0.28771698 -0.30792856 -0.50410885 -0.9063075
000240 68 06 b5 be 88 6d 08 bf 0e f0 ff be 96 3a e6 be
       -0.3535645 -0.5329213 -0.49987835 -0.44966573
000250 33 cc 13 bf 87 4c b5 be b8 fe 17 bf 18 d0 16 bf
       -0.5773346 -0.35409948 -0.59373045 -0.58911276
000260 e7 38 53 bf 98 ee be be 09 6c 32 bf a4 f3 14 bf
       -0.825087 -0.37291408 -0.696961 -0.58184266
000270 b6 e4 52 bf 7f 0e 0d bf d2 e3 03 bf ac ee 97 be
       -0.82380235 -0.55100244 -0.515195 -0.2967428
000280 74 85 f8 be 8d 53 55 3c 91 33 5a 3e a0 2a 9a be
       -0.48539317 0.013020408 0.21308734 -0.30110645
000290 86 18 d4 be 4d d1 16 3d 02 0e 05 be 26 51 ef 3b
       -0.4142496 0.0368207 -0.12993625 0.007303375
0002a0 51 ff 52 3d 3d 72 c8 bc 7e b0 7a bd 89 3d bb 3e
       0.05151302 -0.024468536 -0.061203472 0.36570385
0002b0 09 f0 48 bd d6 cc 94 be 9e af 6f 3c 59 3e 4e be
       -0.04905704 -0.29062527 0.014629273 -0.20140971
0002c0 9e 85 a3 3b 42 8d c5 be 9e 9f 2f 3c 92 b4 e3 bd
       0.0049902936 -0.38584334 0.010719208 -0.111184254
0002d0 29 b6 f4 be 70 69 2c 3d bf e9 1c be 03 93 a5 bd
       -0.47795227 0.04209274 -0.15323542 -0.08084681
0002e0 ee 4f 6a be fc cb f0 be ce 4b 25 be ae ee fc be
       -0.22882053 -0.47030628 -0.16142198 -0.49400848
0002f0 01 64 6e bd b1 29 d9 bd e3 ad f9 be ba 20 56 be
       -0.05820084 -0.10603655 -0.48765478 -0.20910922
000300 48 8e a3 be 23 58 2d bf 5a 06 5d 3d 2f 11 5d 3f
       -0.3194449 -0.6771261 0.053961135 0.86354345
000310 a8 0a 99 bd 3a 6b 16 3e ba 0c 1b be 41 a7 ab be
       -0.07472736 0.14689341 -0.15141574 -0.33526042
000320 e6 16 fc 3e ce 96 cf 3e 96 4e d8 be 9a 14 a5 bd
       0.4923622 0.40544742 -0.42247456 -0.0806057
000330 80 53 ef 3d e2 22 9d be ce 76 a9 3b de 51 e3 bd
       0.11685848 -0.30690676 0.0051716333 -0.11099599
000340 0d dd 95 3e 35 4d cd 3d 61 8e 5d be 3a d3 23 3e
       0.2927021 0.10024492 -0.21636344 0.15998545
000350 f6 00 a9 3d 95 ad 8c be 9a b0 ff 3d 29 f5 09 be
       0.082521364 -0.27476183 0.12484856 -0.13472427
000360 27 9d 4c 3e ba 55 c2 3c a4 41 03 3e e7 9f a9 3d
       0.19981824 0.023722518 0.12818009 0.08282452
000370 d9 0f 90 3e a0 cc f8 3d b6 b3 3a be 6d 7c 96 bd
       0.2813709 0.12148404 -0.18232617 -0.07347951
000380 da 74 08 3e ca 94 2c 3e 6c 96 88 3d 56 4d d4 3e
       0.13325825 0.16853634 0.06669316 0.41465253
000390 da 10 b4 bd 3b 0b 66 be 58 31 f7 3d 2f c5 00 3f
       -0.08792277 -0.22465222 0.120699584 0.5030088
0003a0 30 45 18 bf c3 c6 1b be 43 99 d1 bd 8f d4 07 bf
       -0.5948057 -0.1521254 -0.102343105 -0.53058714
0003b0 fc ab da bd 11 e7 fe be 8a 4c 45 3e 96 22 ba 3d
       -0.10677335 -0.49785665 0.19267479 0.09088628
0003c0 25 ea 81 bc 15 55 9b be 2c e7 90 3e 6c 4a 1e 3e
       -0.01585872 -0.3033835 0.2830137 0.15458077
0003d0 09 f7 19 be 45 4d 8f bc 2b 5a b7 3e a3 bb e6 3d
       -0.15035643 -0.0174929 0.3581098 0.112662576
0003e0 f4 1b 9b bc 5b 1e 79 bd 86 3a 40 3d a6 ef 0f be
       -0.018934228 -0.060819965 0.046930812 -0.14056262
0003f0 ce 72 b8 3e 71 7d 8b bd 3b 78 37 be be cd eb 3c
       0.3602509 -0.068110354 -0.17916958 0.028784629

b f4 [32]
000000 64 3e 94 3e 43 f6 49 be 9c 45 ac 3e 9c ac e3 3e
       0.2895385 -0.19722848 0.33646858 0.44467628
000010 c9 8c 19 bf 48 51 64 be e9 5f 60 3c 4d f1 8f bd
       -0.59980446 -0.22296631 0.013694742 -0.07028446
000020 42 45 b7 3e 2e ae 07 3e 43 c5 5d be 4e 5a b3 be
       0.35795027 0.13250038 -0.2165728 -0.35029835
000030 9e 80 d7 3e 87 d4 2e 3e e0 13 8c 3e a1 70 5c be
       0.42090315 0.1707326 0.27358913 -0.2152734
000040 e9 dc c1 be 17 54 56 be 2d 99 ac be a6 fd 64 3e
       -0.37863854 -0.20930515 -0.33710614 0.22362384
000050 91 39 33 3e 7a 4a a4 be f1 74 b8 be 14 70 d4 3e
       0.17502429 -0.3208807 -0.3602672 0.4149176
000060 dc 2d 97 be d6 22 79 3e ff fc b5 3e bc 4b f6 3e
       -0.29527175 0.24329695 0.35544583 0.48104656
000070 e5 0f 1d be 60 c3 e1 bd 21 d5 73 be 64 d0 aa 3e
       -0.15338095 -0.11023593 -0.23811771 0.33362114

W f4 [32, 32]
000000 a0 b0 26 3f 28 10 2d bf e3 f4 30 3b b1 66 d0 3e
       0.6511326 -0.6760278 0.0027001433 0.40703347
000010 d6 98 96 bd 09 e9 a4 be 6a ed 17 3f 12 d2 e5 be
       -0.0735337 -0.32209042 0.5934664 -0.44886833
000020 a3 9d 08 3f 2d 66 d4 be dd c9 28 3f e4 ef ec 3d
       0.53365535 -0.41484204 0.6593302 0.11569193
000030 54 de fb bd 16 5b 28 3e 5f 0c 9b be 7b 7f a1 be
       -0.12298265 0.16440997 -0.30282876 -0.31542572
000040 f4 9e 22 be dd c9 ce be 63 79 73 be c5 1b 5b be
       -0.15880948 -0.40388384 -0.23776774 -0.21397312
000050 18 e7 2f bf 30 b9 ab bc 5b 90 4d be 18 f3 45 be
       -0.68711996 -0.020962328 -0.20074598 -0.19331014
000060 18 16 0b bf db c9 ec be b2 1e 6b be af 0a 9e be
       -0.5433059 -0.46247754 -0.22960928 -0.30867526
000070 1a 99 08 be ae ca 12 bf 5d 5a 75 be 37 8b 83 be
       -0.13339654 -0.57340515 -0.23960252 -0.2569215
000080 d0 af 6a be 8a 3e bf be 67 71 30 be 1a 68 5a 3e
       -0.2291863 -0.373524 -0.1723076 0.21328774
000090 01 1e c8 be d8 d2 93 3c 03 ac c2 be b9 1c f6 3d
       -0.3908539 0.018044874 -0.3802186 0.12017197
0000a0 27 18 9e 3e a7 17 78 bd 98 0b a9 3e 60 ab cf 3e
       0.30877802 -0.06056943 0.33016658 0.40560436
0000b0 1d 4e f1 3b 49 50 e2 3d d7 6a 45 3d 20 cd cc bd
       0.007364048 0.110504694 0.048197594 -0.10000062
0000c0 6b 8a ab bd 5c e2 16 be aa 95 81 3e 94 9f e8 bd
       -0.083760105 -0.14734787 0.25309497 -0.11358562
0000d0 f8 5a 56 3d b4 a2 5b 3e bc 4f 88 be ed 85 c4 3e
       0.05233285 0.21448785 -0.26623333 0.38383427
0000e0 2e 7a 5e 3d 5b 0e f0 3d 33 9f 64 bb 34 8f 1f be
       0.05431574 0.11721488 -0.003488493 -0.15581971
0000f0 c8 7a 4b 3e dd d4 80 3e 9f c7 51 bd d4 33 63 3d
       0.19871056 0.25162402 -0.051215764 0.05546935
000100 84 7a ed bd 10 3b d1 3d 95 e4 03 bf 96 aa 01 be
       -0.115956336 0.102163434 -0.51520663 -0.1266273
000110 d0 48 2e bd eb 7a 1b 3f d1 4d 2b bf 3a 6b 2a bf
       -0.04254991 0.6073443 -0.66915613 -0.66569865
000120 d2 3b e6 3e ad 1a be bd b4 5f 4d 3f c5 01 0d bf
       0.44967514 -0.09282432 0.80224156 -0.55080825
000130 9e ca 44 3f 0e a3 26 3f ae b0 f7 3e af 9e 26 3f
       0.7687167 0.6509255 0.48376983 0.6508588
000140 14 9c 04 3f ff b8 c3 3e e4 b7 d7 3e f2 cc df 3e
       0.51800656 0.38227078 0.42132485 0.43711048
000150 92 55 be 3e ed f2 48 3f f7 21 f3 3e f9 02 49 3f
       0.3717466 0.78495675 0.4748685 0.7852016
000160 ad 22 0f 3f 64 3d f0 3e 55 2e 6a 3e 83 15 41 3f
       0.55912286 0.46921837 0.22869237 0.7542345
000170 7f 84 fd 3e 5c e4 8b 3e 7b 35 87 3e 3c ba 36 3f
       0.4951515 0.27322662 0.2640799 0.7137792
000180 82 b8 f2 be 04 b2 8b 3e 9c b8 80 be a1 bf 74 be
       -0.47406393 0.27284253 -0.25140846 -0.23901226
000190 84 45 ef 3e d0 37 df 3e d3 ae b9 be fb e6 d8 be
       0.46732724 0.4359727 -0.36266193 -0.42363724
0001a0 6b 0d 68 be 0b d8 41 3e 95 92 6a 3e 24 50 9d be
       -0.22661369 0.1893007 0.22907479 -0.30725205
0001b0 9f f4 bf 3e b2 dd 77 bc b7 11 99 3e df 42 26 3f
       0.3749132 -0.01512854 0.29896328 0.6494579
0001c0 70 fb ba 3e a1 4c d6 3e 41 51 62 3e ef 94 e5 3e
       0.36519957 0.41855338 0.22101308 0.4484019
0001d0 ff 34 c8 3e 08 fe 0d 3f a9 99 e3 3e 58 53 16 3f
       0.39102933 0.55465746 0.4445317 0.5872092
0001e0 49 be 1d 3f 59 c7 9f 3e 50 86 68 3e 3e f4 fb 3e
       0.6161848 0.31206778 0.22707486 0.4920978
0001f0 1f 32 23 3f 2c ac b1 3e 3b 0d 62 3e 3d 04 13 3f
       0.63748354 0.3470167 0.2207536 0.5742834
000200 2b 65 b8 3e 87 53 0b be ca a6 4b be f0 d8 0e 3e
       0.36014685 -0.13606082 -0.19887844 0.13949943
000210 ff ed 29 3f 3c f0 9c 3e 2c a9 d1 3d 97 02 8b be
       0.6637878 0.30652034 0.10237345 -0.27150413
000220 51 31 11 3f 12 58 8b be ef bb 8a be 27 bc 2d 3f
       0.56715876 -0.2721563 -0.27096507 0.6786522
000230 d7 8c b8 be 96 48 a7 3d a7 6c c0 be 40 fa 20 bf
       -0.36044952 0.081681415 -0.37582895 -0.6288185
000240 09 02 22 bf e4 1c 12 bf 9a 97 4b be bb c0 33 bf
       -0.63284355 -0.57075334 -0.1988205 -0.7021596
000250 81 b8 10 bf 0f b9 1e bf 98 6f 26 be f3 40 e6 be
       -0.5653153 -0.62001127 -0.16253507 -0.44971427
000260 45 dc 2f be 3e 9a 01 bf c9 40 ff be f2 62 3e be
       -0.1717387 -0.5062598 -0.49854115 -0.18592432
000270 24 e7 a8 be 31 dd 1f bf 6d 8d 37 bf b6 60 0a bf
       -0.32988846 -0.62446886 -0.71700174 -0.5405382
000280 01 cc 1c bc ef e6 c5 3c 45 d1 c3 3e 82 b7 08 bf
       -0.009570123 0.02415797 0.38245597 -0.5340501
000290 2f 17 25 3e 7d b3 8f 3e b4 97 77 3e a4 cf 8b be
       0.16122125 0.28066626 0.24178964 -0.27306855
0002a0 7b d6 9d be ec 19 af be f2 7a 77 3c f3 6b f2 3d
       -0.30827698 -0.34199464 0.015104996 0.11836996
0002b0 5e 44 8b 3e 74 3b e5 3e 25 4f 50 3e 00 94 ea bc
       0.27200598 0.44771922 0.20342691 -0.028635025
0002c0 31 e7 99 3e ed 1b 7c 3e 3c 99 8d 3e 81 c6 f0 3e
       0.30059198 0.24620028 0.2765597 0.47026446
0002d0 d2 b3 c3 3e 9d 08 08 3e fd 0c e9 3e 6d 38 b7 3e
       0.3822313 0.13284536 0.45517722 0.35785237
0002e0 10 49 fb 3c 97 a5 c0 bd 18 2e 4f 3e 34 69 87 3e
       0.030674487 -0.09406584 0.20232427 0.2644745
0002f0 69 6e 9d b9 43 8b af 3e 6b 0d 45 3e 09 c6 48 bc
       -0.00030027636 0.34285936 0.192434 -0.0122542465
000300 1a 57 17 be 86 88 01 3d 3a 61 2b 3f c8 16 e0 3e
       -0.1477932 0.03162434 0.6694523 0.4376738
000310 28 f2 1a 3f ac 22 6b be 2c aa ea 3e 21 ab fb 3e
       0.6052575 -0.22962445 0.45832956 0.49153998
000320 a2 59 23 bf f6 a2 53 3e df 60 b5 be 23 6a a9 3e
       -0.63808644 0.20667633 -0.3542547 0.33088788
000330 38 ec a7 be 30 b2 2a bf 03 e2 70 be 10 ec 96 be
       -0.32797408 -0.6667814 -0.23523717 -0.29476976
000340 18 a0 84 be c5 eb 26 be 2f 1e d3 bd 7e ad 13 be
       -0.25903392 -0.16300876 -0.103084914 -0.14421651
000350 2e dc 39 be b1 47 6f be eb 99 5f be ac 2f a6 be
       -0.18150398 -0.23367192 -0.21836059 -0.32458246
000360 ef 6d 64 be b6 ea 2e bd bb 0b 06 bd 5c 6b ff be
       -0.22307561 -0.042704307 -0.03272603 -0.49886596
000370 80 59 d3 bd 63 9d 3b be 0c b4 42 be 24 34 98 be
       -0.10319805 -0.18321757 -0.19013995 -0.2972728
000380 e5 2d 77 be f4 e1 dc 3c 56 12 33 bc 49 30 bf be
       -0.24138601 0.026963212 -0.010929665 -0.37341526
000390 e4 bb 88 3e fc 29 31 3c 18 47 a1 be 75 9d d6 3e
       0.2670585 0.0108132325 -0.31499553 0.41917005
0003a0 b0 de e5 3d de bc ca 3d 1b ab ad be fc eb 07 bf
       0.11224115 0.09899305 -0.33919606 -0.5309446
0003b0 fd f3 0a 3f 5a a7 8c be 60 3f 19 3f 89 70 b0 3e
       0.54278547 -0.2747143 0.5986233 0.34460858
0003c0 7f e2 ab 3e 03 d0 e0 3e 2b a8 23 3f 53 a9 b3 3e
       0.3357124 0.439087 0.6392848 0.35090122
0003d0 a4 5a 92 3e 93 4b aa 3e 6c 53 64 3e ac b2 1b 3e
       0.28584778 0.33260784 0.22297448 0.15204877
0003e0 30 66 04 3e 52 66 12 3f 1e a9 0f 3f 9d 6f 7e 3e
       0.12929606 0.5718738 0.5611743 0.24847265
0003f0 af 06 ec 3e a8 76 3a 3e aa e4 c3 3e 9a 86 15 3f
       0.4609885 0.18209326 0.38260394 0.5840851

b f4 [32]
000000 30 6c 94 be a3 68 e9 3d 32 17 f4 3e ac 86 c7 3e
       -0.2898879 0.11396911 0.47673947 0.38969934
000010 af ab dd be ba 9a 44 3e 28 f5 b3 be 6a 43 d5 3e
       -0.43295047 0.19199648 -0.35147977 0.41652995
000020 fa e7 a0 3e fd f8 60 be 09 16 4e 3e 1a ff 09 3e
       0.31426984 -0.21969981 0.20125593 0.1347622
000030 8c 93 79 3e 01 6b aa 3e a5 e6 6b 3e 9d 5a a6 be
       0.24372691 0.33284763 0.23037203 -0.32491007
000040 a7 38 9e be 46 a5 ac 3e c7 91 a8 be 23 c0 7d be
       -0.30902597 0.33719844 -0.3292372 -0.24780326
000050 9f 10 18 be 8c bd a8 be 45 77 59 3e 66 f8 a9 3e
       -0.1485009 -0.32957113 0.21236904 0.33197325
000060 ca fb c6 3e f2 46 f4 bc eb ae 89 be fe bd a4 be
       0.38863975 -0.029818986 -0.26891264 -0.32176203
000070 df 9f 5c bb f1 9a 54 be 43 06 b1 3e 9b cb bb be
       -0.0033664627 -0.2076223 0.3457509 -0.36678776

W f4 [32, 32]
000000 70 3a 6c be fb 31 1b 3f dd fc 27 3d 70 13 13 3c
       -0.23069167 0.6062314 0.041012634 0.008976802
000010 ed fc e3 3e ec 16 ae 3e d8 e8 c1 3d b3 f6 a1 be
       0.44528905 0.34001863 0.094682395 -0.3163353
000020 e3 31 c9 bd a8 c9 f0 3e dc 70 9d be 4a c0 c0 be
       -0.09823968 0.47028852 -0.30750167 -0.37646705
000030 bc 27 2a 3f 33 78 e0 3e 9b 11 e4 3d 4d ff db bd
       0.6646688 0.43841705 0.111361705 -0.10742054
000040 a9 e6 a5 bd 4c 11 e7 3d ff 91 31 be e2 e7 d2 be
       -0.081006356 0.11282596 -0.1734085 -0.41192538
000050 58 eb 0e bd 51 22 dd 3e 38 6a 1a 3e 67 0e f8 3e
       -0.03489241 0.43190244 0.15079582 0.48448488
000060 f2 34 1b be 04 84 77 3e f6 1f a9 be 4b 51 ae be
       -0.15156916 0.24171454 -0.33032197 -0.34046397
000070 2f 7e 4b 3e 50 15 39 3f 5c 09 9d be da be 17 3e
       0.19872354 0.72298145 -0.30671203 0.14818898
000080 67 1f 55 bd bb 3f 27 bf 49 7c ed 3e fc 32 ca 3d
       -0.0520319 -0.6533162 0.46383885 0.09873006
000090 50 cb d9 be e9 8a 97 3e af 3b 23 3e 31 65 1a be
       -0.42537928 0.29598168 0.15940736 -0.15077664
0000a0 45 a5 ed 3e 5b 67 20 bf 66 0e e2 3c 34 0f ef 3e
       0.46415153 -0.6265771 0.027594756 0.46691287
0000b0 0f 1d d9 bd ae 61 b8 3e c7 90 61 3d 79 d5 e2 be
       -0.106012456 0.36012024 0.05506971 -0.44303492
0000c0 a0 68 92 3e d4 5d 20 bf 76 94 e5 3e 27 a6 1c 3f
       0.28595448 -0.6264317 0.4483983 0.6119103
0000d0 1e e0 59 be 16 e7 bf bc 31 bb b8 3e ec 7d 77 be
       -0.212769 -0.02342562 0.36080316 -0.24169129
0000e0 d4 b3 85 3e e5 f6 c0 3c 1a 55 36 3c e6 10 2c 3e
       0.2611376 0.023555228 0.011128688 0.16803321
0000f0 33 2a b3 be b1 9d 97 bd eb c9 bb 3e 1e 1c 25 bf
       -0.34993133 -0.07403124 0.3667749 -0.6449603
000100 d7 ef fb 3e f0 ae 93 be 4f ec 22 3f db f2 a4 be
       0.4920642 -0.28844404 0.6364183 -0.32216534
000110 16 ab ce be 7e 6f 09 bf 70 63 ac 3e f8 90 c0 be
       -0.40364903 -0.5368575 0.33669615 -0.37610602
000120 a6 a1 b8 bc 5f c5 99 be 5e 99 14 3f 15 ec 03 bd
       -0.022538017 -0.30033395 0.5804652 -0.032207567
000130 d5 80 e5 be cb 28 fd be 7d 36 b0 bd 16 a7 b2 be
       -0.44824854 -0.49445185 -0.08604143 -0.348931
000140 f3 ba 1e be 8d e6 03 bf 87 cc bb 3e 34 55 5a be
       -0.15501003 -0.5152367 0.3667948 -0.21321565
000150 d3 8b e7 bd e2 2c 18 be 9a 5d 0e 3e 45 66 42 3d
       -0.11305966 -0.14860871 0.13902894 0.047460813
000160 04 0f 04 be 0b c3 27 bf 2e dd 28 3f db 57 d4 bd
       -0.12896353 -0.65531987 0.65962493 -0.103683196
000170 3b ea 9d be a3 ae 30 3e ff 44 35 3c 7e 9b c5 bc
       -0.30842766 0.17254119 0.011063813 -0.024121996
000180 db ab f7 3e e3 65 17 bf 1d 24 f1 3e 75 59 ae bd
       0.48373303 -0.5913984 0.47097865 -0.08513156
000190 e8 f5 5d 3e 0a 05 0c 3f 3e a2 9f be bf 36 fc 3e
       0.21675837 0.5469519 -0.31178468 0.49260518
0001a0 45 96 02 3e 20 78 a0 be a5 57 8b 3e 49 a3 4e 3e
       0.12752636 -0.31341648 0.27215305 0.20179476
0001b0 2c 5c 51 3e b6 9e fc 3e dc 00 19 bf 41 b7 63 3e
       0.20445317 0.49339837 -0.59766936 0.22237875
0001c0 f8 e4 29 3e 69 5b e0 3c 3a 92 94 3e 6d 95 bd 3e
       0.16591251 0.027387338 0.29017812 0.37028065
0001d0 b4 31 e2 3e c1 6a 4b 3e 77 1b 6c be cf d9 bb 3e
       0.44178545 0.19864942 -0.23057352 0.36689612
0001e0 5e f1 bd 3e 67 a6 b5 bd 20 bd f1 bd f3 69 bb 3e
       0.3709821 -0.08869629 -0.11803651 0.3660427
0001f0 82 91 09 3e 9c d1 57 bc f6 90 84 be f5 9d 8b 3d
       0.13434413 -0.013172533 -0.25891846 0.06817237
000200 6c 6a ca be 88 6c f9 3e c7 3f c0 be 6e 6d c4 be
       -0.39534318 0.48715615 -0.37548658 -0.38364738
000210 8c 47 b3 bd dc 41 d3 bc 7d 90 96 3e 9c 6e 19 bf
       -0.08753881 -0.02578824 0.2940711 -0.599344
000220 3e 96 b3 bd f8 3b ba 3e b4 ca 0f bc 50 c5 c1 3d
       -0.08768891 0.36373878 -0.008776356 0.094614625
000230 d0 ff 02 be 86 0b a3 be f6 31 f6 3e 21 2d 57 be
       -0.12792897 -0.3184473 0.48084992 -0.21013309
000240 cf 96 c9 be 70 a7 17 3f f2 48 1e 3f 38 98 e0 be
       -0.3937287 0.59239864 0.61830056 -0.43866134
000250 81 8a d3 be 8d 33 99 be 7c 0d f2 3e 7d 71 4a be
       -0.41316608 -0.29922143 0.47275913 -0.19769855
000260 63 02 49 be f6 dd 30 3d 25 ef 06 3f d0 6e 89 be
       -0.19629817 0.04318043 0.52708656 -0.26842356
000270 ff d8 f0 be a0 cd 12 3d 06 c6 68 3e 41 71 a9 be
       -0.47040555 0.03584063 0.2273179 -0.33094218
000280 df 59 fc 3e 3c 45 23 3e 2e 00 81 3e 0f be 79 be
       0.49287316 0.1594438 0.2519545 -0.24388908
000290 aa 51 3e be ea f6 88 3d 2e b0 e8 3e 12 0b b4 be
       -0.1858584 0.0668772 0.45446914 -0.35164696
0002a0 23 cf 1c bf 13 05 4e 3e f2 e5 84 bd 4e 2a 03 bf
       -0.61253566 0.20119123 -0.06489171 -0.51236427
0002b0 11 8b f4 be da 7e 8f 3e 3d e2 a3 3e ce b5 aa be
       -0.4776235 0.28026468 0.32008544 -0.3334183
0002c0 89 de 4a bf d7 1a 75 3c a3 a5 c8 3e d5 2c d6 be
       -0.7924581 0.014960012 0.3918887 -0.4183108
0002d0 e6 7a d2 be 64 83 84 3d 58 c2 1d 3f 36 29 69 bd
       -0.4110939 0.06470373 0.6162467 -0.056924067
0002e0 ee 90 4a bf cb 80 f2 3e 3b a5 db be 2b 7c fb be
       -0.79127395 0.47363886 -0.42899498 -0.4911817
0002f0 2d ea 00 bf 95 82 03 3f 32 44 18 3f fe 6a 41 be
       -0.50357324 0.5137113 0.5947906 -0.1888847
000300 1e a7 63 3e c1 22 f4 bd c0 0b ad 3e 2b 7a ba 3e
       0.22231719 -0.11920691 0.33798027 0.36421332
000310 eb 1a 3c 3e fd 62 be be 0a 62 e3 3c cf 3f c9 be
       0.18369643 -0.37184897 0.02775671 -0.39306495
000320 9b da 63 3e 09 a7 40 3d 04 7e a8 3d 36 3a ec bd
       0.2225136 0.047034297 0.082271606 -0.1153454
000330 d6 39 38 be 3f 40 ac be 7d ab c6 bd 7c 1f dc be
       -0.17990813 -0.33642766 -0.097006775 -0.4299277
000340 c9 84 37 3f 7a 25 96 3e f6 3d d8 3e 7e 93 ac 3d
       0.7168699 0.29325467 0.42234772 0.084265694
000350 c4 5e a0 be d0 5a 3f bd 98 41 86 3e 0f 8e b8 be
       -0.313223 -0.046717465 0.2622192 -0.36045882
000360 a0 02 f9 3e 62 7d ba 3e df fa 5a 3f dc 4a a0 be
       0.48634815 0.36423784 0.8553905 -0.31307113
000370 61 dc 01 be 2a 59 ef 3e 73 a5 3c 3e 4a 03 d4 bd
       -0.12681724 0.46747714 0.18422489 -0.1035219
000380 c2 f5 27 bf 1e 16 d2 be 46 e9 c0 be f4 c7 61 3e
       -0.6560937 -0.410325 -0.37677974 0.22048932
000390 ab f1 17 3d 3d 33 23 be f5 ed 06 bc b7 dd 90 3e
       0.037095707 -0.15937515 -0.008235444 0.28294155
0003a0 ab d7 44 3e 21 99 0e bf b8 50 29 bf 47 01 0e 3e
       0.19222896 -0.55702406 -0.6613879 0.13867675
0003b0 49 5c 1e 3f b1 6a 6e bd b9 77 a3 be 76 44 20 3f
       0.61859566 -0.058207218 -0.3192728 0.62604463
0003c0 09 94 9e 3e 1b 4e 5a be 40 1f 58 be e5 b6 08 3e
       0.30972317 -0.21318857 -0.21105671 0.13351019
0003d0 68 24 0a 3f 4a 79 ac be df b9 01 be 10 1f 1d 3e
       0.539618 -0.33686286 -0.1266856 0.1534388
0003e0 a6 c5 aa be e0 b4 13 bf da 7e 74 be 00 fa ef 3e
       -0.3335392 -0.5769787 -0.23876515 0.46870422
0003f0 ef 04 26 3e 1f 94 c6 bd 41 ec 35 be f9 5f 9d 3e
       0.1621282 -0.096962206 -0.17765905 0.30737284

b f4 [32]
000000 e6 4c e7 bd 2f 35 a2 3e a4 b1 37 3e 97 25 48 be
       -0.11293964 0.316812 0.17938858 -0.1954559
000010 3d e3 bf 3e ed 99 ab be ac 05 aa 3e 33 63 73 be
       0.37478057 -0.33515874 0.33207452 -0.2376831
000020 7f 42 b0 3e a4 78 d4 bd 92 f4 f1 3d f8 11 8e 3c
       0.34425732 -0.10374573 0.11814226 0.017342553
000030 d8 32 a8 be 1f f1 ad be a4 84 0a 3f 1e f9 3b 3e
       -0.3285129 -0.33973023 0.54108644 0.1835675
000040 0f ad 46 3e 02 79 33 3e 06 10 b6 be c8 ac b9 3e
       0.19401954 0.1752663 -0.355591 0.36264634
000050 14 bc f2 3d b4 49 b0 3e 07 33 ce 3e e3 0d bc be
       0.11852279 0.3443123 0.40273306 -0.36729345
000060 46 39 6b be c7 9c dc be c3 87 6b 3c 4d cf c0 be
       -0.22971067 -0.43088362 0.01437563 -0.37658158
000070 3b 54 c2 bd f4 9b af be e8 9d 5c 3e 6f c5 53 be
       -0.09488722 -0.3429867 0.21544611 -0.20680784
