saved_models/model-epoch-4.pth (torch, 21290 bytes, 19 tensors)

embeddings f4 [99, 8]
0	0xbdbbb1d2	-0.09164776
1	0xbeb7cfc1	-0.3590069
2	0xbe774342	-0.2414675
3	0x3ec6b70f	0.38811538
4	0x3d3a522a	0.045488514
5	0x3e76c790	0.24099565
6	0xbf0995b6	-0.53744066
7	0x3ed3aa45	0.41340843
8	0xbe74baad	-0.23899336
9	0xbee886be	-0.454153
10	0xbd691084	-0.056900516
11	0x3e429555	0.19002278
12	0x3a5414b0	0.0008090241
13	0x3dc29714	0.09501472
14	0xbe247ced	-0.1606328
15	0x3f3a5740	0.7278938
16	0x3ee346f8	0.44390082
17	0xbda41fb2	-0.08013858
18	0x3ee44b61	0.4458876
19	0xbd98dcd7	-0.07463997
20	0x3e6a3051	0.22869994
21	0xbdf6cc8b	-0.12050732
22	0xbef9c3df	-0.4878225
23	0xbe16926d	-0.14704295
24	0xbd7eaef2	-0.06217856
25	0x3ec5f912	0.38666588
26	0x3e57f97b	0.21091263
27	0xbe74b75f	-0.23898076
28	0x3c6367eb	0.013879756
29	0xbd3db858	-0.046318382
30	0xbe0b8048	-0.13623154
31	0xbe8b8e87	-0.27257177
32	0xbf378ceb	-0.716994
33	0x3ed3b69b	0.41350254
34	0x3e164924	0.14676338
35	0x3eb76a1d	0.35823146
36	0xbd904686	-0.07044701
37	0x3e80bdf5	0.25144926
38	0xbf726e1b	-0.9469926
39	0x3e6d47c0	0.23171902
40	0xbebd1d8f	-0.36936614
41	0xbe7428e8	-0.2384373
42	0xbe8281a2	-0.25489527
43	0x3ee82151	0.45337918
44	0x3e1fc68a	0.1560308
45	0x3e0f0967	0.1396843
46	0xbe7b3ef5	-0.24535735
47	0x3eb6640f	0.35623214
48	0x3ea2a319	0.3176506
49	0xbf0a4540	-0.5401192
50	0xbea263c7	-0.3171675
51	0x3e332679	0.17495145
52	0x3dd77c1d	0.105217196
53	0x3f094f3e	0.5363654
54	0xbe05abc8	-0.1305381
55	0x3ea3d8ca	0.32001334
56	0xbe5933a4	-0.21211106
57	0xbe8fe51e	-0.2810449
58	0xbcdb599d	-0.02677613
59	0x3ecc9677	0.39958546
60	0x3f056c2d	0.5211819
61	0x3ed354d9	0.4127567
62	0xbf06e4e2	-0.52693
63	0x3f1ad241	0.6047707
64	0x3f0d8723	0.5528433
65	0xbd5d0478	-0.05395934
66	0x3ca34ddf	0.019934593
67	0xbe0d51f4	-0.13800794
68	0xbefb29ae	-0.49055237
69	0xbe9e24cf	-0.30887458
70	0x3e8097de	0.25115865
71	0x3e1e3de6	0.154533
72	0x3e6d4193	0.23169546
73	0xbf11b36f	-0.5691442
74	0x3e7114aa	0.23543039
75	0xbf65800e	-0.8964852
76	0xbe2fc033	-0.17163162
77	0xbf14e912	-0.5816814
78	0x3f959ddd	1.1688801
79	0xbf30d1b9	-0.6907001
80	0x3ee4614f	0.4460549
81	0xbe7fa2e8	-0.24964488
82	0xbee4eb37	-0.44710705
83	0xbd29540e	-0.041339926
84	0xbeb18d9f	-0.3467836
85	0x3efd2696	0.494435
86	0xbeb1b210	-0.34706163
87	0x3e690203	0.22754674
88	0xbdab959b	-0.08378144
89	0xbe2bd089	-0.16778769
90	0x3f84aafa	1.0364678
91	0x3ed08a6a	0.40730602
92	0x3ec757c8	0.3893416
93	0xbbdc6297	-0.00672562
94	0xbdff0b28	-0.124533
95	0x3efb34d2	0.49063736
96	0x3ed55287	0.41664526
97	0xbf4f5944	-0.80995584
98	0xbe2df688	-0.16988575
99	0xbf43cb5e	-0.7648219
100	0xbe9a6f84	-0.30163205
101	0x3f00b5c0	0.5027733
102	0xbea0eca0	-0.3143053
103	0x3ea68641	0.32524303
104	0x3d7b1782	0.061301716
105	0x3eb2eca9	0.34946182
106	0xbed65582	-0.41862112
107	0x3f02d008	0.5109868
108	0xbe4edf30	-0.20202327
109	0xbe731b3a	-0.23740855
110	0xbf71cfd6	-0.9445776
111	0x3f718fa4	0.94359803
112	0x3f4a4d88	0.79024553
113	0x3ea2890d	0.31745186
114	0x3e87e375	0.26540723
115	0xbe740156	-0.23828635
116	0xbe4ce046	-0.20007429
117	0xbeec2e08	-0.4612887
118	0x3ccd76e5	0.025081107
119	0xbf025137	-0.50905174
120	0xbbe2aabd	-0.0069173262
121	0xbeca7455	-0.3954188
122	0xbefb7014	-0.49108946
123	0x3f3644da	0.7119881
124	0xbe45b40d	-0.19306965
125	0x3f221fe8	0.63329935
126	0xbe20433d	-0.1565065
127	0x3ee7a7d1	0.4524522
128	0x3ec95aec	0.3932718
129	0x3d41039e	0.04712259
130	0xbe2272f2	-0.1586416
131	0xbbca076f	-0.006165437
132	0xbd1b6ea8	-0.037947327
133	0x3b83c6e0	0.0040215105
134	0xbf04bc6e	-0.5185002
135	0x3ee609be	0.44929308
136	0xbec1bfc1	-0.3784161
137	0x3f3b2a8b	0.7311179
138	0xbe38cba1	-0.18046428
139	0x3e131a02	0.1436539
140	0xbdbe7b0f	-0.09300815
141	0x3eb7893e	0.35846895
142	0xbf85d3b0	-1.0455227
143	0x3dfeed5e	0.12447618
144	0x3f0b6ea5	0.54465705
145	0x3cf486cd	0.029849434
146	0x3eaba3df	0.3352346
147	0xbec6a3b0	-0.3879676
148	0xbea8d850	-0.32977533
149	0xbe363f0a	-0.17797485
150	0x3d944fbd	0.07241771
151	0xbefafc90	-0.49020815
152	0xbe09bed4	-0.13451701
153	0x3ec0964c	0.37614667
154	0xbf073f36	-0.5283083
155	0xbe96640b	-0.29373202
156	0xbee418fb	-0.4455031
157	0xbe3fbede	-0.18725154
158	0xbea6720f	-0.32508895
159	0x3e9a31a3	0.30115995
160	0xbd9102ef	-0.07080638
161	0xbf07c7fa	-0.53039515
162	0xbdd2445e	-0.10266946
163	0x3ea2c969	0.3179429
164	0xbe003972	-0.12521914
165	0xbd8b6371	-0.06806076
166	0xbef170a8	-0.47156262
167	0x3f59b12d	0.85035974
168	0x3ed2e16a	0.41187602
169	0x3e475837	0.19467245
170	0x3f1dea4e	0.61685646
171	0xbf4c254a	-0.797444
172	0xbd5f1bbb	-0.054469805
173	0xbeee47f2	-0.46539265
174	0x3d0a81ae	0.03381508
175	0xbf178294	-0.5918362
176	0xbe88d270	-0.2672305
177	0xbefa8c68	-0.48935246
178	0x3f1b974c	0.60777736
179	0x3c834cdc	0.01602786
180	0x3e775ec5	0.24157245
181	0x3d98e937	0.07466357
182	0xbec87c44	-0.39157307
183	0xbe108216	-0.14112124
184	0x3e6d52de	0.23176143
185	0x3e543eb4	0.20727044
186	0xbb9e80cd	-0.0048371316
187	0x3f0b4223	0.5439779
188	0xbe3c8602	-0.18410495
189	0xbdf5c7df	-0.12001013
190	0xbe4e93e9	-0.20173611
191	0x3ef7b47b	0.48379883
192	0x3dabfab8	0.0839743
193	0xbedd9e8a	-0.43285018
194	0x3942d71f	0.0001858142
195	0x3e11b672	0.14229754
196	0xbc103831	-0.00880246
197	0xbee3b8be	-0.44476885
198	0xbea043fd	-0.3130187
199	0x3ea93f3f	0.33056065
200	0xbeeb6d86	-0.45981997
201	0x3e251c5d	0.16124101
202	0x3f134f7f	0.57543176
203	0xbf1511a5	-0.5823005
204	0x3ec65732	0.387384
205	0xbef09f70	-0.4699664
206	0x3f8f53fb	1.1197504
207	0xbf197ade	-0.59953105
208	0xbde47b3d	-0.11156318
209	0xbecf5646	-0.4049551
210	0xbd3f8453	-0.046757054
211	0x3eaddb55	0.339564
212	0x3ef95cf7	0.4870374
213	0x3e861dd0	0.2619462
214	0xbd29788f	-0.04137474
215	0x3e1330aa	0.14374033
216	0x3e53bad2	0.20676735
217	0xbe8679b8	-0.2626474
218	0xbeaf1e43	-0.34202775
219	0x3d0e6298	0.034761995
220	0xbe818672	-0.25297886
221	0xbef150f5	-0.47132078
222	0xbf45412a	-0.7705256
223	0xbd1371c0	-0.035997152
224	0x3e9b8981	0.30378345
225	0x3ee68e67	0.4503052
226	0x3f03dc86	0.5150837
227	0xbe5cd7fe	-0.2156677
228	0xbe94e819	-0.29083326
229	0xbe089021	-0.13336231
230	0x3e715a65	0.23569639
231	0xbeca2f66	-0.39489287
232	0xbc18850c	-0.009309065
233	0x3cfb466a	0.030673224
234	0x3dd361c0	0.10321379
235	0xbe8f8fc2	-0.28039366
236	0x3ee9cfc5	0.45666328
237	0xbd07789f	-0.033074018
238	0xbead168d	-0.33806267
239	0xbeba28c7	-0.36359236
240	0x3f03ff1f	0.5156116
241	0xbe284e25	-0.1643606
242	0xbe5381ac	-0.20654935
243	0xbeeda985	-0.46418396
244	0xbf016ca3	-0.5055639
245	0x3e6a4cbe	0.22880837
246	0x3f2c3d4d	0.6728104
247	0x3e43c4d1	0.19118048
248	0xbf1a904a	-0.6037642
249	0xbee1df9d	-0.44115916
250	0xbe54648a	-0.20741478
251	0x3ed44bf9	0.41464213
252	0x3e36325a	0.17792645
253	0x3eabb9bb	0.3354014
254	0xbe843ece	-0.25829166
255	0x3f054e8c	0.5207298

_pos_embeds f4 [64, 8]
0	0x00000000	0.0
1	0x3f800000	1.0
2	0x00000000	0.0
3	0x3f800000	1.0
4	0x00000000	0.0
5	0x3f800000	1.0
6	0x00000000	0.0
7	0x3f800000	1.0
8	0x3f576aa4	0.84147096
9	0x3f0a5140	0.5403023
10	0x3dcc7576	0.099833414
11	0x3f7eb898	0.9950042
12	0x3c23d657	0.009999833
13	0x3f7ffcb9	0.99995
14	0x3a83126d	0.0009999998
15	0x3f7ffff8	0.9999995
16	0x3f68c7b7	0.9092974
17	0xbed51133	-0.41614684
18	0x3e4b6ff9	0.19866933
19	0x3f7ae5a5	0.9800666
20	0x3ca3d43e	0.019998666
21	0x3f7ff2e5	0.9998
22	0x3b031269	0.0019999987
23	0x3f7fffde	0.999998
24	0x3e1081c3	0.14112
25	0xbf7d7026	-0.9899925
26	0x3e974e6d	0.29552022
27	0x3f7490ef	0.9553365
28	0x3cf5b920	0.029995501
29	0x3f7fe283	0.99955004
30	0x3b449b93	0.0029999956
31	0x3f7fffb5	0.9999955
32	0xbf41bdcf	-0.7568025
33	0xbf275530	-0.6536436
34	0x3ec761d7	0.38941833
35	0x3f6bcaa7	0.921061
36	0x3d23cbdb	0.039989334
37	0x3f7fcb94	0.9992001
38	0x3b831258	0.0039999895
39	0x3f7fff7a	0.999992
40	0xbf757c10	-0.9589243
41	0x3e913c2c	0.2836622
42	0x3ef57744	0.47942555
43	0x3f60a940	0.87758255
44	0x3d4cb6f5	0.04997917
45	0x3f7fae19	0.99875027
46	0x3ba3d6de	0.0049999794
47	0x3f7fff2e	0.9999875
48	0xbe8f0f8c	-0.2794155
49	0x3f75cdb8	0.96017027
50	0x3f108c69	0.5646425
51	0x3f534932	0.8253356
52	0x3d759cd1	0.059964005
53	0x3f7f8a12	0.99820054
54	0x3bc49b59	0.005999964
55	0x3f7ffed2	0.999982
56	0x3f283046	0.6569866
57	0x3f40ffbd	0.75390226
58	0x3f24eb73	0.64421767
59	0x3f43ccb3	0.7648422
60	0x3d8f3e32	0.06994285
61	0x3f7f5f81	0.997551
62	0x3be55fc7	0.006999943
63	0x3f7ffe65	0.9999755
64	0x3f7d4695	0.98935825
65	0xbe14fdf6	-0.14550003
66	0x3f37a4a6	0.7173561
67	0x3f325b5f	0.6967067
68	0x3da3aa51	0.0799147
69	0x3f7f2e66	0.99680173
70	0x3c031213	0.007999915
71	0x3f7ffde7	0.999968
72	0x3ed30132	0.4121185
73	0xbf693fd5	-0.91113025
74	0x3f48881d	0.7833269
75	0x3f1f21d5	0.62161
76	0x3db8123f	0.08987855
77	0x3f7ef6c2	0.9959527
78	0x3c13743a	0.008999879
79	0x3f7ffd59	0.9999595
80	0xbf0b44f8	-0.5440211
81	0xbf56cd64	-0.8390715
82	0x3f576aa4	0.84147096
83	0x3f0a5140	0.5403023
84	0x3dcc7576	0.099833414
85	0x3f7eb898	0.9950042
86	0x3c23d657	0.009999833
87	0x3f7ffcb9	0.99995
88	0xbf7fff5c	-0.9999902
89	0x3b910572	0.004425698
90	0x3f64262a	0.89120734
91	0x3ee83dc0	0.45359612
92	0x3de0d372	0.1097783
93	0x3f7e73e8	0.9939561
94	0x3c34386a	0.010999778
95	0x3f7ffc09	0.9999395
96	0xbf095cd8	-0.53657293
97	0x3f5806d0	0.84385395
98	0x3f6e9a1d	0.9320391
99	0x3eb986f5	0.36235777
100	0x3df52bac	0.119712204
101	0x3f7e28b5	0.99280864
102	0x3c449a71	0.011999712
103	0x3f7ffb48	0.999928
104	0x3ed72022	0.42016703
105	0x3f684e6f	0.9074468
106	0x3f76abc0	0.9635582
107	0x3e88f59b	0.26749882
108	0x3e04bed0	0.12963414
109	0x3f7dd700	0.9915619
110	0x3c54fc6b	0.012999634
111	0x3f7ffa76	0.9999155
112	0x3f7d9872	0.9906074
113	0x3e0c04d7	0.13673721
114	0x3f7c466f	0.98544973
115	0x3e2e0bde	0.16996714
116	0x3e0ee464	0.13954312
117	0x3f7d7ecc	0.990216
118	0x3c655e56	0.013999542
119	0x3f7ff994	0.999902
120	0x3f267944	0.65028787
121	0xbf427ae8	-0.7596879
122	0x3f7f5bd5	0.997495
123	0x3d90deaa	0.0707372
124	0x3e19064f	0.14943813
125	0x3f7d201a	0.9887711
126	0x3c75c033	0.014999437
127	0x3f7ff8a1	0.9998875
128	0xbe936810	-0.2879033
129	0xbf75292c	-0.9576595
130	0x3f7fe40e	0.9995736
131	0xbcef33d6	-0.029199522
132	0x3e232450	0.15931821
133	0x3f7cbaed	0.98722726
134	0x3c831100	0.015999317
135	0x3f7ff79d	0.999872
136	0xbf761e25	-0.96139747
137	0xbe8ce236	-0.27516335
138	0x3f7dddbf	0.9916648
139	0xbe03efd0	-0.1288445
140	0x3e2d3e23	0.16918235
141	0x3f7c4f49	0.9855848
142	0x3c8b41de	0.016999181
143	0x3f7ff688	0.9998555
144	0xbf4040b3	-0.75098723
145	0x3f290a84	0.6603167
146	0x3f794e14	0.9738476
147	0xbe68a7aa	-0.22720209
148	0x3e375387	0.17902957
149	0x3f7bdd2e	0.9838437
150	0x3c9372b3	0.017999029
151	0x3f7ff562	0.999838
152	0x3e197969	0.1498772
153	0x3f7d1bbf	0.9887046
154	0x3f7240b9	0.9463001
155	0xbea58636	-0.32328957
156	0x3e41643a	0.1888589
157	0x3f7b64a1	0.9820042
158	0x3c9ba37e	0.018998858
159	0x3f7ff42c	0.9998195
160	0x3f69b6c8	0.9129453
161	0x3ed0f022	0.40808207
162	0x3f68c7b7	0.9092974
163	0xbed51133	-0.41614684
164	0x3e4b6ff9	0.19866933
165	0x3f7ae5a5	0.9800666
166	0x3ca3d43e	0.019998666
167	0x3f7ff2e5	0.9998
168	0x3f562f10	0.8366556
169	0xbf0c37fc	-0.54772925
170	0x3f5cfb4a	0.86320937
171	0xbf013d98	-0.5048461
172	0x3e557683	0.2084599
173	0x3f7a603c	0.9780309
174	0x3cac04f5	0.020998457
175	0x3f7ff18d	0.9997795
176	0xbc110515	-0.008851309
177	0xbf7ffd6f	-0.99996084
178	0x3f4ef99f	0.8084964
179	0xbf16a802	-0.5885011
180	0x3e5f7796	0.21822962
181	0x3f79d46a	0.97589743
182	0x3cb4359f	0.021998225
183	0x3f7ff024	0.999758
184	0xbf58a1e7	-0.84622043
185	0xbf0867bf	-0.53283304
186	0x3f3ee689	0.7457052
187	0xbf2a9111	-0.66627604
188	0x3e6972f1	0.22797753
189	0x3f794233	0.97366637
190	0x3cbc663e	0.022997972
191	0x3f7feeab	0.99973553
192	0xbf67d3fc	-0.9055784
193	0x3ed92dfe	0.42417902
194	0x3f2ceb28	0.6754632
195	0xbf3cc5d6	-0.73739374
196	0x3e736851	0.23770262
197	0x3f78a99b	0.971338
198	0x3cc496d1	0.023997696
199	0x3f7fed20	0.999712
200	0xbe078738	-0.13235176
201	0x3f7dbf78	0.99120283
202	0x3f193578	0.5984721
203	0xbf4d17bf	-0.8011436
204	0x3e7d5777	0.24740396
205	0x3f780aa5	0.9689124
206	0x3cccc757	0.024997396
207	0x3f7feb85	0.9996875
208	0x3f433708	0.76255846
209	0x3f259c81	0.6469193
210	0x3f03f7e6	0.5155014
211	0xbf5b5d10	-0.8568888
212	0x3e83a010	0.25708055
213	0x3f776555	0.96638995
214	0x3cd4f7cf	0.02599707
215	0x3f7fe9da	0.99966204
216	0x3f74d50e	0.95637596
217	0xbe959338	-0.29213881
218	0x3edad189	0.42737988
219	0xbf677146	-0.90407217
220	0x3e889106	0.26673144
221	0x3f76b9b1	0.9637709
222	0x3cdd2839	0.026996719
223	0x3f7fe81d	0.9996355
224	0x3e8ab42a	0.2709058
225	0xbf766d57	-0.9626059
226	0x3eab8391	0.33498815
227	0xbf71357c	-0.94222236
228	0x3e8d7e7d	0.27635565
229	0x3f7607bb	0.96105546
230	0x3ce55895	0.02799634
231	0x3f7fe650	0.99960804
232	0xbf29e3e9	-0.6636339
233	0xbf3f80b3	-0.74805754
234	0x3e74fdc7	0.23924933
235	0xbf7890b7	-0.9709582
236	0x3e926854	0.2859522
237	0x3f754f78	0.95824385
238	0x3ced88e2	0.028995935
239	0x3f7fe472	0.99957955
240	0xbf7cefa4	-0.9880316
241	0x3e1df418	0.15425146
242	0x3e1081c3	0.14112
243	0xbf7d7026	-0.9899925
244	0x3e974e6d	0.29552022
245	0x3f7490ef	0.9553365
246	0x3cf5b920	0.029995501
247	0x3f7fe283	0.99955004
248	0xbecede06	-0.40403765
249	0x3f6a2c8e	0.91474235
250	0x3d2a507c	0.041580662
251	0xbf7fc752	-0.99913514
252	0x3e9c30a5	0.30505863
253	0x3f73cc22	0.95233357
254	0x3cfde94d	0.030995036
255	0x3f7fe083	0.9995195

W f4 [8, 8]
0	0x3dbb3be6	0.09142284
1	0xbd2b58cf	-0.04183274
2	0xbf32dd5d	-0.69869024
3	0x3f0348e2	0.51283085
4	0xbd1a8468	-0.03772393
5	0xbe73a3ad	-0.23792906
6	0xbeab3982	-0.33442312
7	0xbe461b54	-0.19346362
8	0x3eb3d2f2	0.35121876
9	0xbf5faaa7	-0.8736977
10	0xbf60b8d3	-0.8778202
11	0x3f25fbfe	0.64837635
12	0x3e5e407c	0.21704286
13	0x3ea047f9	0.3130491
14	0xbf111521	-0.56672865
15	0x3f1ae11e	0.6049975
16	0x3f468c1f	0.7755756
17	0x3e351443	0.1768351
18	0xbef217a5	-0.47283664
19	0x3e056e91	0.13030459
20	0x3e3bd2a9	0.18342079
21	0x3e0eed4d	0.1395771
22	0xbd94c060	-0.07263255
23	0xbd9bdb4f	-0.07610189
24	0x3e08afa0	0.13348246
25	0xbf70c928	-0.9405694
26	0xbeb8793c	-0.36029994
27	0x3fb52a47	1.4153527
28	0x3f57e42b	0.8433253
29	0x3ee3cc4e	0.4449181
30	0xbf60191e	-0.87538326
31	0x3f32196c	0.6957004
32	0xbc6fda7c	-0.014639493
33	0x3f1e9562	0.6194669
34	0x3e9be281	0.30446246
35	0xbd34e65c	-0.044165
36	0xbe3cceb8	-0.18438232
37	0xbeb9e584	-0.3630792
38	0xbec8a823	-0.39190778
39	0xbe57a182	-0.21057704
40	0xbe615041	-0.2200327
41	0x3e317db8	0.17333114
42	0x3ee120b1	0.43970254
43	0x3f040eb7	0.51584953
44	0x3eb672f6	0.35634583
45	0xbe058089	-0.13037314
46	0x3e9f3991	0.31098607
47	0x3eeb4243	0.4594899
48	0xbd9cc17b	-0.07654091
49	0x3e01f94d	0.12692757
50	0x3e247879	0.16061582
51	0x3e85d996	0.26142567
52	0x3e9f23fc	0.3108214
53	0x3e4f8c33	0.20268326
54	0x3e3d6498	0.18495405
55	0xbedec4c5	-0.43509498
56	0xbe87901a	-0.26477128
57	0x3f570289	0.83988243
58	0xbe1b8a49	-0.1518947
59	0xbedc5e83	-0.43040857
60	0xbefaaa08	-0.4895785
61	0x3e18c773	0.14919834
62	0x3d5785e3	0.05261792
63	0xbf2037b7	-0.62585014

b f4 [8]
0	0x3e7acdda	0.24492589
1	0x3ef95cbc	0.48703563
2	0xbcb16e81	-0.021659138
3	0x3ee38862	0.4443999
4	0xbe07ff81	-0.13281061
5	0xbd12c626	-0.0358335
6	0xbe1b1a05	-0.15146644
7	0xbe30ab20	-0.17252779

W f4 [8, 8]
0	0xbf42b239	-0.76053196
1	0x3d01d8e7	0.031700995
2	0xbec0f913	-0.3769003
3	0xbf0f1c4c	-0.5590255
4	0xbed5fe1a	-0.41795427
5	0xbf3043bf	-0.6885337
6	0xbf6458eb	-0.8919818
7	0x3e66e938	0.22549903
8	0x3ecfc4a9	0.40579727
9	0x3e0ca4b9	0.13734712
10	0xbc137f61	-0.0090025375
11	0xbf140276	-0.57816255
12	0x3f57fe38	0.8437228
13	0x3e5947e3	0.21218829
14	0xbe9c3f6d	-0.3051714
15	0x3f0ff328	0.562304
16	0xbed89fe7	-0.42309496
17	0xbe423f7d	-0.18969531
18	0xbee22fa3	-0.4417697
19	0xbec51d7b	-0.38499054
20	0xbe9c3a85	-0.30513397
21	0x3e6ebb34	0.233136
22	0xbda5dbf3	-0.080985926
23	0xbf4bc885	-0.79602844
24	0xbea49cb4	-0.32150805
25	0x3dfc40f1	0.12317074
26	0xbec1ab0e	-0.37825817
27	0xbec2be6b	-0.38035902
28	0xbedcb888	-0.43109536
29	0x3b8023c5	0.003910514
30	0x3d82c689	0.06385524
31	0xbf1b658f	-0.6070184
32	0x3f05975d	0.5218409
33	0xbb87cb54	-0.0041441116
34	0x3f17499e	0.59096706
35	0x3e0d70fa	0.13812628
36	0x3edcedad	0.43150082
37	0x3f202e64	0.62570786
38	0xbf1a6a61	-0.6031857
39	0x3e81b571	0.2533374
40	0x3f1ad844	0.60486245
41	0xbdb776d3	-0.08958211
42	0x3f1f619f	0.6225833
43	0x3f2df563	0.67952555
44	0x3f52c89f	0.82337373
45	0x3f70cc08	0.94061327
46	0x3f458bb5	0.771663
47	0x3c7b38ce	0.0153333675
48	0x3f7a7d30	0.9784727
49	0x3e188ddb	0.14897864
50	0x3f7864da	0.9702889
51	0xbe1a9151	-0.15094496
52	0x3f7670af	0.9626569
53	0xbe021dc2	-0.12706664
54	0xbcbea3a0	-0.023271382
55	0xbdd1e287	-0.10248285
56	0x3f38e0a7	0.7221779
57	0x3d1f7fb8	0.03894016
58	0x3f1a2c7c	0.6022413
59	0xbd0b9a14	-0.034082487
60	0x3e96de1b	0.29466328
61	0x3e126fc1	0.14300443
62	0x3f48e91f	0.78480715
63	0x3f283792	0.65709794

b f4 [8]
0	0xbe3fdbe4	-0.18736225
1	0x3ea68d52	0.32529694
2	0xbe849a8d	-0.25899163
3	0xbecb7b5b	-0.3974255
4	0x3edee575	0.43534437
5	0x3ebf4d30	0.37363577
6	0x3ed6b3d0	0.4193406
7	0x3e12acd3	0.1432374

W f4 [8, 8]
0	0x3f587f9b	0.8456971
1	0x3e73e9c1	0.23819639
2	0x3f5f9786	0.8734058
3	0xbf7a2e92	-0.9772731
4	0xbf88f863	-1.0700802
5	0x3f39971b	0.72496194
6	0xbee3f233	-0.4452072
7	0xbd263d34	-0.04058571
8	0x3dba1412	0.09085859
9	0xbf807d87	-1.0038308
10	0xbe94d929	-0.2907193
11	0xbe7942ed	-0.24341936
12	0x3c8b510b	0.017006418
13	0x3e02033a	0.12696543
14	0x3f498c75	0.78729945
15	0xbf065b6b	-0.5248324
16	0xbd502f71	-0.050826494
17	0x3eda0f69	0.42589882
18	0xbf00fb01	-0.50383
19	0xbf26d28e	-0.6516503
20	0x3e976f74	0.2957722
21	0xbd965d3f	-0.07342004
22	0x3eee1db4	0.46507037
23	0x3eac0577	0.3359792
24	0xbe03bcbd	-0.12864967
25	0x3de5643d	0.112007596
26	0xbf20cb2f	-0.62810034
27	0xbe6a3b40	-0.22874165
28	0xbea72830	-0.32647848
29	0xbf4c4eed	-0.7980793
30	0x3f1924b5	0.59821635
31	0x3e35cdbd	0.17754264
32	0xbe44df16	-0.19225726
33	0xbf34f7df	-0.7069072
34	0xbf553a7e	-0.83292377
35	0xbe10e4da	-0.141498
36	0x3f7c1fd8	0.9848609
37	0xbf6c893a	-0.9239689
38	0x3f09b7d4	0.53796124
39	0xbf1fff2b	-0.6249873
40	0x3e64d95b	0.2234854
41	0xbed4a895	-0.41534868
42	0xbeeabe0a	-0.45848113
43	0x3f134d5f	0.57539934
44	0x3f4c4f90	0.798089
45	0xbef77ac8	-0.48335862
46	0x3dea901b	0.11453267
47	0xbebef278	-0.37294364
48	0x3e20d160	0.1570487
49	0xbc2d38a3	-0.010572585
50	0xbd23e872	-0.0400166
51	0xbda9bc47	-0.08287864
52	0x3defb0a9	0.11703617
53	0x3e970d1d	0.29502192
54	0xbe550362	-0.20802072
55	0x3f1ee081	0.62061316
56	0xbebe03ad	-0.3711218
57	0xbe50ea9a	-0.20401993
58	0xbf17a0f2	-0.5922996
59	0x3f4b43ce	0.79400337
60	0x3e7d4f47	0.24737273
61	0xbcfa096c	-0.03052207
62	0xbea07a91	-0.3134351
63	0xbec4114f	-0.38294455

b f4 [8]
0	0xbb140b9b	-0.0022589925
1	0xbc002782	-0.007821919
2	0x3bde5035	0.0067844638
3	0x3bf618e2	0.0075102905
4	0x3c1fa9da	0.009745086
5	0xbbf3578a	-0.007426207
6	0x3b99fe1d	0.004699482
7	0x3b8d9327	0.0043205204

W f4 [8, 8]
0	0x3cac34bb	0.021021238
1	0x3f618440	0.8809242
2	0x3e46ec58	0.19426095
3	0x3e93d979	0.28876856
4	0xbe1dd046	-0.15411481
5	0x3cf98a57	0.030461473
6	0xbe8f907a	-0.28039914
7	0xbed65136	-0.41858834
8	0x3e87572c	0.26433694
9	0x3f4f8f91	0.8107844
10	0xbeb68c44	-0.3565389
11	0xbd8734d2	-0.066018716
12	0xbd4ef7a9	-0.050529156
13	0xbed91b1e	-0.424035
14	0x3cd2512a	0.025673468
15	0xbd4e3347	-0.05034187
16	0xbe9d2d59	-0.3069866
17	0x3f4a14a5	0.7893775
18	0x3d5b81c4	0.05359055
19	0x3f334fc3	0.7004358
20	0xbf393bc7	-0.7235684
21	0x3f167e0f	0.587861
22	0x3ebb8b8d	0.36629906
23	0xbeebbe13	-0.46043453
24	0x3eb51163	0.35364828
25	0xbe21e0c1	-0.15808393
26	0xbe205ec8	-0.15661156
27	0xbd72402b	-0.059143227
28	0x3e9be007	0.30444357
29	0x3eb3ac8e	0.35092586
30	0xbe1788c6	-0.14798269
31	0xbf421c64	-0.7582457
32	0x3c9a9426	0.01886947
33	0xbf3383ec	-0.7012317
34	0xbec95055	-0.393191
35	0xbef679f5	-0.4813992
36	0xbe9f0a87	-0.3106272
37	0x3de31a27	0.110889725
38	0x3d68735e	0.056750648
39	0x3f11ce99	0.5695587
40	0x3f03774d	0.51353914
41	0x3f1b9e0f	0.60788053
42	0x3d6aeb1a	0.057353117
43	0x3f267f48	0.65037966
44	0xbe9d3202	-0.30702215
45	0xbe120d73	-0.14262943
46	0x3ea6421c	0.32472312
47	0x3df1e0a3	0.11810424
48	0x3e005642	0.12532905
49	0xbfc18285	-1.5117956
50	0xbe9afe43	-0.3027211
51	0xbf994f65	-1.1977354
52	0x3f567ed7	0.8378729
53	0xbea95e21	-0.33079627
54	0xbe72df90	-0.23718095
55	0x3f966f60	1.1752739
56	0xbeb8f9d1	-0.36128095
57	0xbe247a56	-0.16062292
58	0x3b963963	0.0045844777
59	0xbe029a1d	-0.12754102
60	0x3d583d18	0.05279264
61	0xbbff0efa	-0.007783768
62	0xbed68b5d	-0.419032
63	0x3dabc067	0.08386307

b f4 [8]
0	0x3cd35efe	0.025802132
1	0x3c4b3dcd	0.012404871
2	0x3e5801a1	0.21094371
3	0x3e00b292	0.12568119
4	0x3e80326d	0.25038472
5	0x3c60574b	0.013692687
6	0xbf0a2113	-0.5395672
7	0xbda7bfd3	-0.081908844

weight f4 [8]
0	0x3f662379	0.89897877
1	0x3f357a7d	0.7089003
2	0x3fa22a89	1.2669231
3	0x3f224c65	0.6339782
4	0x3f36816a	0.7129122
5	0x3f6c8428	0.92389154
6	0x400bc278	2.1837444
7	0x3f3d9894	0.7406094

bias f4 [8]
0	0x3deffeb7	0.11718505
1	0xbd1d828e	-0.038454585
2	0x3ee864ca	0.45389396
3	0x3e8499a4	0.25898468
4	0xbdd99143	-0.106234096
5	0x3e6706fa	0.22561255
6	0xbf37971a	-0.7171494
7	0x3e0b729e	0.13617942

W1 f4 [8, 32]
0	0x3db7168d	0.08939848
1	0xbee947df	-0.45562646
2	0xbf19bf25	-0.6005729
3	0xbec558d6	-0.3854434
4	0x3cadb20a	0.02120306
5	0x3ba07bb7	0.0048975605
6	0xbf39c0ed	-0.72560006
7	0xbe0bf0e3	-0.1366611
8	0xbec7726e	-0.3895449
9	0x3e8aa729	0.27080658
10	0x3d985b03	0.07439234
11	0x3df8a5fd	0.12141035
12	0x3e08ae1b	0.13347666
13	0xbece2670	-0.402637
14	0xbed6b78c	-0.4193691
15	0xbf2ae205	-0.6675113
16	0x3eca745c	0.395419
17	0x3d5f058e	0.054448657
18	0x4017f0af	2.3740652
19	0xbea786b5	-0.3271996
20	0xbf28136b	-0.6565463
21	0x3e5c460f	0.215111
22	0x3ed20a68	0.41023564
23	0x3f1ff0c2	0.6247674
24	0xbe7fc5ea	-0.24977842
25	0x3f55d7d9	0.8353248
26	0x3f1adbd5	0.6049169
27	0x3f17876f	0.5919103
28	0x3fa935f7	1.3219594
29	0xbde5bb81	-0.11217404
30	0xbde19582	-0.110148445
31	0xbf6b9159	-0.9201866
32	0x3ed26856	0.41095227
33	0xbf0a65bd	-0.5406149
34	0xbe053f79	-0.13012494
35	0xbe951df9	-0.2912443
36	0xbf11dd7c	-0.56978583
37	0x3e5b7e1b	0.21434824
38	0x3ea1608e	0.31518978
39	0x3eaba000	0.33520508
40	0x3ede63f8	0.43435645
41	0xbefd8093	-0.49512157
42	0x3ea8ed92	0.32993752
43	0xbe61be2f	-0.22045206
44	0x3e3ae54f	0.18251537
45	0x3dd44d3b	0.10366293
46	0xbef54214	-0.47901976
47	0xbed38744	-0.41314137
48	0xbe1ab9e8	-0.1510998
49	0x3eff52fd	0.49868003
50	0x3ebea0ce	0.3723206
51	0x3e4ed83c	0.20199674
52	0xbd66d04e	-0.056351
53	0x3ec66d13	0.38755092
54	0x3e5b59ad	0.21420927
55	0x3e953357	0.29140732
56	0x3edba3f6	0.4289853
57	0xbd88484e	-0.06654416
58	0xbf1ef885	-0.6209796
59	0xbdabb8cb	-0.08384856
60	0x3d0a26eb	0.03372852
61	0x3e49a4ee	0.19691822
62	0x3dc0db1a	0.0941679
63	0xbd11d908	-0.035607368
64	0xbed974c5	-0.424719
65	0x3d2fea8b	0.042948287
66	0xbf079f94	-0.5297787
67	0xbe4e22d3	-0.20130472
68	0xbe6a4575	-0.22878058
69	0xbebdd488	-0.3707621
70	0xbf170d22	-0.59004414
71	0xbf23eb22	-0.6403066
72	0xbd6f2855	-0.058388073
73	0xbf15ae9c	-0.5846956
74	0xbe00979f	-0.12557839
75	0xbdc3100f	-0.09524547
76	0x3e37ca85	0.17948349
77	0xbf1c0d17	-0.60957474
78	0x3c1e7ece	0.009673787
79	0xbe81d339	-0.25356463
80	0x3f1ab90b	0.60438603
81	0xbe48b341	-0.1959963
82	0x4037ad5e	2.8699565
83	0xbe9641db	-0.2934712
84	0x3c8b873d	0.01703226
85	0x3e1d63f1	0.15370156
86	0x3e23b896	0.15988383
87	0x3e67980e	0.22616598
88	0x3ec9684e	0.3933739
89	0x3f074cdf	0.5285167
90	0x3f157495	0.58381015
91	0x3ec00c82	0.37509543
92	0x3f806b81	1.0032808
93	0xbe8cd9b9	-0.2750986
94	0xbdd406bf	-0.10352849
95	0xbe2a33cf	-0.16621326
96	0xbcf14ee7	-0.029456569
97	0x3e8329ea	0.25617915
98	0x3da3c39e	0.079962954
99	0x3ea122bf	0.31471822
100	0xbcfdf527	-0.031000687
101	0xbeb74467	-0.35794374
102	0x3f014a3b	0.5050389
103	0xbabab1ad	-0.0014243625
104	0xbdf4f420	-0.11960626
105	0x3d532b28	0.05155483
106	0x3e16b386	0.1471692
107	0xbe2a71db	-0.16644995
108	0xbe5e63ce	-0.2171776
109	0x3e0be1ed	0.13660403
110	0x3ed4dd24	0.41574967
111	0x3f2ce8ae	0.6754254
112	0xbecd39d2	-0.40083176
113	0x3ee88b30	0.45418692
114	0xbe8dc773	-0.2769123
115	0xbebaaf0c	-0.36461675
116	0x3e546343	0.2074099
117	0xbe307fcf	-0.17236255
118	0xbe98b552	-0.29825836
119	0xbed5b052	-0.41736084
120	0xbe916c38	-0.28402877
121	0xbea43b0f	-0.32076308
122	0xbf22378c	-0.6336601
123	0xbf15a83b	-0.58459824
124	0x3e5e2f93	0.21697836
125	0x3e67e67e	0.2264652
126	0xbe0aad56	-0.13542685
127	0xbc4596a7	-0.012059844
128	0xbdd90d76	-0.105982706
129	0x3df0473b	0.11732336
130	0x3f2f29ef	0.6842336
131	0xbdb7a282	-0.08966543
132	0xbefe2c1a	-0.49643022
133	0x3e63cd18	0.22246206
134	0x3ecba22d	0.39772168
135	0x3e9013fc	0.28140247
136	0xbeed31e3	-0.46327123
137	0xbea55e8b	-0.32298693
138	0xbe135140	-0.14386463
139	0xbe7569ca	-0.23966137
140	0x3f0b0e60	0.5431881
141	0x3e267d69	0.16258778
142	0x3ce2125c	0.027596645
143	0x3e8023cc	0.2502731
144	0xbde502ed	-0.11182199
145	0x3e7d6683	0.24746136
146	0xbe241f68	-0.16027606
147	0xbe1606eb	-0.14651076
148	0xbcb48ee2	-0.022040788
149	0xbe1e5092	-0.15460423
150	0x3e4c36f9	0.19942845
151	0xbebe6152	-0.37183625
152	0xbc0988d4	-0.008394439
153	0xbe995801	-0.29949954
154	0xbee598e6	-0.44843215
155	0xbf34a1fe	-0.7055968
156	0xbeb3dca6	-0.3512928
157	0x3eea147a	0.45718747
158	0xbf33d579	-0.7024761
159	0x3ea069fe	0.31330866
160	0x3d122bfe	0.035686485
161	0x3d7c628b	0.061617415
162	0xbf2cf8c7	-0.67567104
163	0x3eece9c5	0.46272102
164	0xbe8cde65	-0.27513424
165	0xbecb4f15	-0.39708772
166	0xbf028b3c	-0.50993705
167	0xbed25a9e	-0.4108476
168	0xbe6af2ac	-0.22944134
169	0x3dd7da9f	0.105397455
170	0xbe911304	-0.2833482
171	0xbe761b69	-0.24033894
172	0x3d6fc853	0.058540653
173	0xbe739ab0	-0.23789477
174	0x3e113f25	0.14184244
175	0xbe191cfb	-0.14952461
176	0xbd5c3bac	-0.053767845
177	0xbea579fc	-0.3231963
178	0x4008d9bf	2.1382902
179	0xbec8d134	-0.3922211
180	0x3e0ed6c7	0.13949119
181	0xbea410c4	-0.3204404
182	0xbececb3f	-0.4038944
183	0x3eb13498	0.34610438
184	0xbd8a8b5b	-0.06764861
185	0xbe29dc0a	-0.16587844
186	0x3e800e2b	0.2501081
187	0x3f3a93a8	0.72881556
188	0x3fb09b65	1.3797423
189	0xbeb3d818	-0.35125804
190	0xbe73d1eb	-0.23810546
191	0x3e5ec07e	0.21753117
192	0x3f0b27a9	0.5435739
193	0x3e374d44	0.17900568
194	0x3e1ec146	0.15503415
195	0x3d839e4a	0.064266756
196	0x3df3e803	0.11909487
197	0x3e95ab1b	0.29232106
198	0x3f5d2031	0.86377245
199	0xbdec5ceb	-0.1154116
200	0x3d8a4093	0.06750598
201	0xbdaa2d32	-0.083094016
202	0x3db032c8	0.08603436
203	0x3e807b3a	0.25094014
204	0x3ef5b859	0.4799221
205	0xbc839d64	-0.01606626
206	0x3e8ef0b1	0.27918008
207	0x3f18ac38	0.59637785
208	0xbfa8a909	-1.3176585
209	0x3e54b9ee	0.20774052
210	0xc0a9a2dc	-5.3011303
211	0x3e9b17d4	0.30291617
212	0x3eb1f301	0.3475571
213	0x3ddcef82	0.1078787
214	0x3dab87b4	0.08375493
215	0xbe55b9b6	-0.20871624
216	0x3e6b222b	0.22962253
217	0x3f19dfeb	0.60107297
218	0xbf8073d5	-1.0035349
219	0xbf3f8b78	-0.7482219
220	0xc008ec3e	-2.139419
221	0x3cb75b71	0.02238247
222	0x3e86af10	0.26305437
223	0x3d1242ed	0.035708357
224	0x3e306068	0.17224276
225	0x3e9f2b40	0.31087685
226	0xbe2b8892	-0.16751316
227	0x3f16eb12	0.5895244
228	0x3f0674d5	0.5252202
229	0xbe6ce51a	-0.2313427
230	0xbe7f202c	-0.24914616
231	0xbe176def	-0.1478803
232	0x3dc0a628	0.09406692
233	0xbcbed8a4	-0.023296662
234	0x3e8daf6a	0.27672893
235	0x3e1179c9	0.14206614
236	0x3e0da85f	0.1383376
237	0xbf027958	-0.50966406
238	0x3f1046ec	0.5635822
239	0xbb562330	-0.0032674782
240	0xbf0ede6b	-0.5580813
241	0xbe922284	-0.28541958
242	0x3f4bdb48	0.7963147
243	0xbea7bb91	-0.3276029
244	0xbe184514	-0.14870101
245	0x3e319023	0.1734014
246	0x3e27d602	0.16390231
247	0xbe8af2bf	-0.27138326
248	0xbe179889	-0.14804281
249	0xbec5928f	-0.38588378
250	0x3f1eff61	0.6210843
251	0x3efc950b	0.4933246
252	0x3f101ed8	0.56297064
253	0xbf08a306	-0.53373754
254	0xbe12cc19	-0.1433567
255	0xbe5bfc8e	-0.2148306

b1 f4 [32]
0	0xbe64903a	-0.22320643
1	0x3d6d39bf	0.0579164
2	0xbede58f3	-0.43427238
3	0x3e419fd7	0.1890863
4	0xbce7ecab	-0.028311094
5	0xbe021056	-0.12701544
6	0xbeb4887c	-0.3526038
7	0xbec15b18	-0.37764812
8	0x3d447611	0.04796416
9	0xbdf86a05	-0.121295966
10	0xbe483c55	-0.19554265
11	0xbdd87ef2	-0.10571088
12	0xbe3ea6a4	-0.18618256
13	0xbec9d58f	-0.39420745
14	0x3e58a96c	0.2115838
15	0xbe1fcca4	-0.15605408
16	0x3e5e9a7d	0.2173862
17	0xbecb8c49	-0.39755467
18	0x3fefa03e	1.8720777
19	0xbe1cb538	-0.15303504
20	0xbe44ff65	-0.1923805
21	0xbbf79954	-0.00755612
22	0xbe532aa5	-0.20621736
23	0x3e0794d7	0.13240372
24	0x3d3ee85e	0.04660832
25	0xbdbb936b	-0.09158977
26	0x3ef41c46	0.4767782
27	0x3ef28a3a	0.47371083
28	0x3f917a83	1.1365513
29	0xbec79de7	-0.38987657
30	0xbd4d9c25	-0.05019774
31	0xbdd3d388	-0.10343081

W2 f4 [32, 8]
0	0xbe62f2ac	-0.22162884
1	0x3e83ce54	0.25743353
2	0xbd06de09	-0.032926593
3	0xbe1140ce	-0.14184877
4	0x3e2d232e	0.16907951
5	0xbc901bbe	-0.017591354
6	0xbe82f8c3	-0.25580415
7	0xbd48d9fb	-0.049036007
8	0x3e312658	0.17299783
9	0xbee11eed	-0.43968907
10	0x3ea6d996	0.3258788
11	0xbe55a110	-0.20862222
12	0xbf0fdfc6	-0.56200826
13	0x3ec79251	0.38978818
14	0xbf81fda5	-1.0155531
15	0x3ef09181	0.4698601
16	0xbe30e80f	-0.17276023
17	0x3e34c384	0.17652708
18	0xbed33104	-0.41248333
19	0xbf93e7bc	-1.1555095
20	0x3ec61121	0.38684943
21	0x3d982694	0.07429233
22	0x3ff99ac6	1.9500358
23	0x3ed7198b	0.42011675
24	0xbe0739a2	-0.13205579
25	0x3ed03f94	0.40673506
26	0x3efabc82	0.48971945
27	0x3e9d678c	0.30743062
28	0xbe8bcbba	-0.2730387
29	0x3da0e93a	0.078569844
30	0xbf4f3343	-0.80937594
31	0x3e22bbab	0.15891902
32	0xbdfd1860	-0.12358165
33	0xbf32e11a	-0.6987473
34	0xbd12066a	-0.03565065
35	0xbdee8979	-0.116473146
36	0x3f3df273	0.74198073
37	0x3e8fee48	0.28111482
38	0xc00aa198	-2.166113
39	0xbec7adb3	-0.3899971
40	0xbd06bb93	-0.03289373
41	0xbf1a925b	-0.6037957
42	0x3f18b119	0.5964523
43	0x3fc9c0b7	1.5761937
44	0x3f8906f2	1.0705245
45	0xbf3b06a3	-0.73057
46	0x3e77c673	0.24196796
47	0xbfbbfe16	-1.4686916
48	0xbe057adf	-0.13035153
49	0x3e166926	0.14688548
50	0xbe4ad44a	-0.19807544
51	0xc021c06e	-2.52737
52	0x3f17bfb0	0.59276867
53	0xbdbc3645	-0.091900386
54	0x40539565	3.3059933
55	0x3e4f5ff1	0.20251442
56	0x3e9e7e3f	0.30955693
57	0x3d9cc0ec	0.076539844
58	0xbea56557	-0.3230388
59	0x3efba82c	0.49151742
60	0x3df1ac2d	0.11800418
61	0x3f230a14	0.63687253
62	0xbe88d5c9	-0.26725605
63	0xbf68843c	-0.90826774
64	0x3eec1291	0.46107915
65	0xbef813c8	-0.48452592
66	0x3e8822cb	0.26589045
67	0xbe6974ab	-0.22798412
68	0x3e04ff19	0.12987937
69	0xbd04dacb	-0.03243522
70	0xc05108e8	-3.2661686
71	0xbce45221	-0.027871193
72	0xbe59f79e	-0.21285865
73	0x3d24652e	0.040135555
74	0x3f043394	0.516412
75	0x3ea7f237	0.32801983
76	0x3c833c07	0.016019834
77	0x3e6609e5	0.22464712
78	0xbfa10aaf	-1.2581385
79	0xbe0b4a46	-0.13602552
80	0xbea8030c	-0.32814825
81	0x3e004157	0.12524925
82	0x3e895093	0.26819286
83	0xbce6a1a1	-0.028153243
84	0x3eeab3c4	0.45840275
85	0x3e5c3f3e	0.215085
86	0xbe46b01d	-0.1940312
87	0x3d180313	0.037112307
88	0xbf3b2ba6	-0.7311348
89	0xbd86678d	-0.065627195
90	0xbe143d7e	-0.14476582
91	0x3df51cf3	0.11968412
92	0xbd976222	-0.07391764
93	0xbe9ac847	-0.30230924
94	0xbf1048c4	-0.5636103
95	0xbe8a7691	-0.27043584
96	0xbdf97471	-0.121804126
97	0xbda94e05	-0.08266834
98	0x3eadb478	0.3392675
99	0xbee9f0ca	-0.4569152
100	0x3df3a29d	0.118962504
101	0xbe6b07d0	-0.22952199
102	0xbef91d4c	-0.48655164
103	0xbc9975b6	-0.018732887
104	0xbf12fbbf	-0.57415384
105	0x3d89ae11	0.06722654
106	0xbe7347ee	-0.23757908
107	0x3ef299ae	0.47382873
108	0xbe87f59a	-0.26554567
109	0x3e79ffb9	0.24413957
110	0xbe25dde0	-0.1619792
111	0x3e64ff42	0.22362998
112	0xbef0aa29	-0.47004822
113	0x3c937848	0.01800169
114	0x3ec561e3	0.38551244
115	0xbed275de	-0.4110555
116	0xbea77142	-0.32703596
117	0xbe7d0874	-0.24710256
118	0xbefcc707	-0.49370596
119	0x3e0bcd4f	0.13652538
120	0xbedb4f7a	-0.42834073
121	0x3cfeecae	0.031118717
122	0xbce3daad	-0.027814234
123	0xc02c8a39	-2.6959364
124	0x3e866e3e	0.26255983
125	0xbc5274a5	-0.012845193
126	0x4078f3a0	3.8898697
127	0x3e0782d2	0.13233498
128	0x3f27afdd	0.6550272
129	0x3c9eeb9a	0.019399453
130	0x3ec6f333	0.3885742
131	0x3e29a061	0.16565086
132	0xbfbb8222	-1.4649088
133	0x3defde7d	0.11712358
134	0xc027845e	-2.617454
135	0x3e5aee7a	0.21380034
136	0xbe5f747c	-0.21821779
137	0xbe9c2c0c	-0.30502355
138	0x3eb2377b	0.34807953
139	0x3e3eae92	0.18621281
140	0xbe8cf5d2	-0.27531296
141	0x3e665544	0.22493464
142	0x3d8cb995	0.068713345
143	0x3ed721ad	0.4201788
144	0x3f630148	0.8867383
145	0xbef97d61	-0.4872847
146	0x3dfdab38	0.12386173
147	0x40b7eeed	5.7479157
148	0xbf29402a	-0.6611353
149	0x3e151497	0.14558636
150	0xc12c14a9	-10.755044
151	0x3d5df323	0.05418695
152	0xbf279e49	-0.654759
153	0x3e65cd19	0.2244152
154	0x3d9f5466	0.077797696
155	0xbf96d422	-1.1783488
156	0xbee00aca	-0.4375823
157	0x3d897f83	0.06713774
158	0x3e9a1d15	0.30100313
159	0x3e901ae9	0.2814553
160	0xbf099790	-0.5374689
161	0xbe76258c	-0.2403776
162	0xbde51abe	-0.11186741
163	0x3c4cf3c0	0.012509286
164	0x3eb2596a	0.34833843
165	0xbd9e891e	-0.07740997
166	0xbf16ce33	-0.58908385
167	0x3e4d84bc	0.20070165
168	0x3e4f9c4b	0.20274465
169	0xbe53c20b	-0.2067949
170	0x3e80902a	0.25109988
171	0x3e963955	0.29340616
172	0xbe792b79	-0.2433299
173	0xbd9821c5	-0.07428316
174	0xbff21659	-1.891307
175	0xbe81c83f	-0.25348088
176	0x3e8a8e15	0.27061525
177	0xbce19838	-0.027538404
178	0x3db6925d	0.08914635
179	0x3f5e1fe6	0.86767423
180	0x3e786be3	0.24259906
181	0xbbbb9863	-0.005724953
182	0xbef33fdf	-0.47509667
183	0x3cb7b42a	0.022424776
184	0x3b9c46f4	0.0047692005
185	0xbe75fa8d	-0.24021359
186	0x3e492c2d	0.19645758
187	0x3fa27563	1.2692074
188	0xbf09e8db	-0.53870934
189	0xbd563a41	-0.05230165
190	0xc00b5e53	-2.177632
191	0xbdc018eb	-0.09379753
192	0xbd6e452a	-0.05817143
193	0xbe9c7bc7	-0.30563185
194	0x3e820e82	0.25401694
195	0x3f1ac039	0.6044956
196	0xbede464a	-0.43413
197	0x3ec9702b	0.3934339
198	0xbf27fcfa	-0.65620387
199	0x3cb4248a	0.02199008
200	0xbf1e522b	-0.6184413
201	0x3d59f9fa	0.05321691
202	0x3eaee596	0.34159535
203	0x3f37082a	0.7149683
204	0xbecee01d	-0.4040536
205	0xbe8f4838	-0.27984786
206	0xbf3115bc	-0.6917379
207	0x3ef3e5a2	0.47636133
208	0x3edf8ac3	0.43660554
209	0xbd7a1743	-0.06105734
210	0x3eb41452	0.35171753
211	0x4005832c	2.086131
212	0xbf003588	-0.5008168
213	0x3ec07fbd	0.37597457
214	0xc0750418	-3.8283749
215	0xbebdb7cf	-0.37054297
216	0x3eec6736	0.46172494
217	0xbe13ac91	-0.14421298
218	0x3e830b9a	0.2559479
219	0x401655b3	2.3489807
220	0xbed4f756	-0.41594952
221	0x3e9afa29	0.30268982
222	0xc081c8b3	-4.0557494
223	0xbed57137	-0.4168794
224	0x3f0de9aa	0.5543467
225	0xbe000ec0	-0.12505627
226	0x3ef8a0a0	0.48560047
227	0x401de4c0	2.4670868
228	0xbfae5608	-1.3620005
229	0xbc7a69ce	-0.015284015
230	0xc0f05f4e	-7.511634
231	0xbe706348	-0.23475373
232	0xbd59b7ed	-0.05315392
233	0x3cb30ae7	0.021855785
234	0xbe5bc69a	-0.21462479
235	0xbe400973	-0.18753605
236	0xbeccd04a	-0.40002662
237	0xbe82ca22	-0.2554484
238	0x3f23ea01	0.64028937
239	0xbdf2e129	-0.11859352
240	0xbe92917b	-0.28626618
241	0xbd7d721d	-0.061876405
242	0x3f53ba60	0.8270626
243	0xbda4d47a	-0.08048339
244	0x3f1b2419	0.60601956
245	0x3f10f669	0.5662599
246	0xbff4c658	-1.912303
247	0x3f08078a	0.53136504
248	0xbe590d2f	-0.21196435
249	0xbedf619c	-0.43629158
250	0xbe0ba5ae	-0.1363742
251	0x3e6bdc10	0.23033166
252	0x3d3a7bbe	0.045528166
253	0x3eb5a65a	0.3547848
254	0xbce13cde	-0.027494844
255	0x3eec9b71	0.46212342

b2 f4 [8]
0	0xbdd8836d	-0.105719425
1	0xbdda9ece	-0.10674821
2	0x3dfe33ec	0.12412247
3	0x3f3d32c1	0.7390557
4	0xbeb9c5a2	-0.36283594
5	0x3e24c4ab	0.16090648
6	0xbf818a2b	-1.012029
7	0x3e4e56be	0.20150277

weight f4 [8]
0	0x3cb9ff7e	0.022704836
1	0x3df37307	0.11887174
2	0xbd86cf1a	-0.0658247
3	0xbe23b77c	-0.15987962
4	0x3e5e8809	0.21731581
5	0xbd372a37	-0.044717994
6	0x3e8382ab	0.2568563
7	0xbe2961d6	-0.16541228

bias f4 [8]
0	0xbc3ed2ab	-0.011646907
1	0xb9d037dc	-0.0003971447
2	0xbbcbaf36	-0.006215955
3	0x3e3dbf22	0.18529943
4	0x3d5d6839	0.054054473
5	0xbbda6144	-0.006664427
6	0x3f1697bc	0.5882528
7	0x3cae874f	0.021304755

weight f4 [1, 8]
0	0x39e5b90f	0.00043816163
1	0xbcaea5e6	-0.02131934
2	0x3d5954ac	0.053059265
3	0xbca79a55	-0.020459333
4	0xbd7409d3	-0.05957968
5	0x3ca5d468	0.020242885
6	0x3cbabc71	0.022794934
7	0x3c406e9a	0.0117451195
