saved_models/model-epoch-22.pth (torch, 249162 bytes, 52 tensors)

embeddings f4 [99, 32]
00000000: 76fa 593e d4a6 4dbe d2be f03d c77e 133d
00000010: b0a0 69bd a282 cfbd f779 ae3d 2d0c 2fbe
00000020: 986b f8bd 8107 bb3d 5c7f a33c c133 35be
00000030: 5f3a 1f3e 6409 58be d4a9 60bc e49e 17be
00000040: 4ddb 4b3e 760b a2bd 6b53 293e 2f9b 3cbd
00000050: 9a6b 093d 3f6e 313e e494 adbd 4f4a abbd
00000060: 4ad8 54be e1eb 7bbd 4585 28be ab7b 013e
00000070: 2b1d 253e 9692 363e 12dc bfbd 2e68 1f3e
00000080: 41c2 5abc d9de c53d 0e16 da3d 300c 4ebc
00000090: f818 a23d 38c5 2c3e a2c5 e9bd 5105 4abe
000000a0: e6af a83d ffcf b2bd 8623 043c 8ecc 3bbe
000000b0: dd3f a4bc 6db5 06be ada8 2cbe 2000 693d
000000c0: 5903 323e 07f4 f4bd 0a2d ccbd b7bd 0e3e
000000d0: 1457 15be 6370 cbbd 4ded 343e 2cdd eb3d
000000e0: bcc2 fb3c da05 ca3d 3911 a3bd 1c33 533e
000000f0: 76d7 0ebe 3302 09bd 8c79 73bd dd37 463e
00000100: 9c69 2bbe 0078 46bd e72e 24be 9568 213e
00000110: 9356 e8bd 7d05 aebd 2b90 12be 8ea6 babc
00000120: 399a 53be f433 f2bd bf97 583d ad46 57be
00000130: ee82 60bd b53d ef3d e38f 0e3d 9eef 6e3d
00000140: 1285 c1bd df58 d13d 5af9 723c 5be6 d9bd
00000150: 64d1 493e 4d25 60bd b7c4 3d3d 3593 2b3d
00000160: bd3b b03c af87 17be f894 b3bb 38a6 20bc
00000170: 9035 e8bd b6a0 18bd 2db4 8f3c 4f6a 3abc
00000180: 8bc8 58be 00b9 1c3d e441 13be 5b87 4d3e
00000190: a9f9 193e 5d5a 9d3b 5880 ed3d 2a78 843d
000001a0: 13c2 503d d8cc c3bd 91ef 2c3b 9b75 4b3b
000001b0: 6912 2a3e 29dc 67bd 66fa cb3c ff5d ccbd
000001c0: c5f7 a3bd ba91 5abd f25c c13d c7e1 c83d
000001d0: c1df 4fbe 9799 81bd 04ac 15bb 9e23 dc3d
000001e0: d351 12be 5f5c dbbd 4cac 503e d3ce 41be
000001f0: 0648 263c 6d62 89bd 2017 02be 69cd 3fbe
00000200: 13c6 4cbe c093 183e 1b66 0a3d 0d2f 443d
00000210: 6f5b 423d aaa2 17be 30f4 1bbe 3f21 e13c
00000220: 58ea 57bd 0ce1 1e3e bfd4 ab3c 046e 1d3e
00000230: d1dd 463c e8f4 3fbe 6823 143d 29bd 19be
00000240: 8f06 0e3e a820 0fbe 114f 32be 517b 2ebe
00000250: 3d5f 12be 341a 1c3e 7213 593b 683b 2ebe
00000260: ef23 acbd 0f4d 713d f4ee 063e c8eb 2d3d
00000270: 8b86 083e e6e0 9dbd e229 503e adec 8f3d
00000280: 9166 99bd 9ef0 37bd 81d7 e33b 0ba8 16be
00000290: 570d 2bbe 1e73 2d3e d5fd bbbd e8ee 173e
000002a0: 67b9 383e 5fe9 6bbc 227b 273d bba6 363e
000002b0: 7cb7 023c a80b 2d3e f23e 3d3e 5123 e83c
000002c0: 508f 513d 3cb9 e83d 2862 2c3e 4fb8 313e
000002d0: 4f4b b43c 6ebe f9bd ebb6 303e 5a62 da3d
000002e0: 4ee7 9cbd 7078 4fbe b1da 03be 27a9 17bd
000002f0: 61b5 4c3e b484 75bd 42c4 42be 27f6 203e
00000300: fd14 323e f84a 5c3c edb6 1ebe b5ab 96bd
00000310: dd37 0dbe 0fb7 3f3e 9f8f 30be b856 6fbd
00000320: 205d 50be 7061 053d b367 9ebc 629a 973d
00000330: ebbf 4ebe e1e8 283d 51f5 4abe 284a 353e
00000340: 50ca 12bc da65 44be 940d 52bd 2bf9 4f3e
00000350: 4846 49bd 106e 46be 1b3f 37be 5b47 25be
00000360: 1b11 9cbd dcae ffbd a485 31be 8c73 ac3c
00000370: 48b7 2dbe 4fcb 3d3e aba5 c23d 27c9 06be
00000380: 16ed d43c e32e 0ebc 92cd 22be 683e 293e
00000390: 5bb7 d5bd 4547 f03c 7296 0abe 6ab3 31be
000003a0: 4f2d adbc fbc0 233e a888 fdbd 6802 573e
000003b0: 4fa4 f4bb b0cb d73d 15f0 f73d 012e ce3d
000003c0: 07cf 023b bd25 0e3d 1133 84bd 73bd 273e
000003d0: bcb6 493e 6eeb 55be 6a7b a2bd b141 2dbe
000003e0: 5bcc 343c 26ea 48be 8458 febd 2d8b 523e
000003f0: 0c32 e1bc 399b bfbc 7e4a 143e ea89 de3c
0.2128695 -0.20083171 0.11755146 0.036009576 -0.05703801 -0.10132338 0.08519357 -0.17094488
-0.12129897 0.09132291 0.01995819 -0.17695524 0.1554961 -0.21097332 -0.013712365 -0.14806706
0.19907875 -0.07912342 0.16535728 -0.046046432 0.033549882 0.17327212 -0.08475664 -0.083637826
-0.20785633 -0.06150425 -0.16457088 0.12644832 0.16124408 0.17829356 -0.09368147 0.15567085
-0.013351978 0.096616454 0.10648738 -0.012576148 0.07914919 0.16872108 -0.114146486 -0.1972859
0.08236675 -0.08731078 0.00806511 -0.1833975 -0.020049984 -0.13155146 -0.1686122 0.056884885
0.1738409 -0.11960607 -0.09969528 0.13939558 -0.14583999 -0.099335454 0.17668648 0.115167946
0.030732505 0.09864397 -0.07962269 0.20624965 -0.1394938 -0.033449363 -0.059442088 0.19357248
-0.16739506 -0.048454285 -0.16033517 0.15762551 -0.11344638 -0.084971406 -0.14312808 -0.022784498
-0.206643 -0.118263155 0.05287909 -0.21023054 -0.054812364 0.116816916 0.03480519 0.058333986
-0.09449209 0.10222029 0.014829958 -0.1063964 0.19708782 -0.054723073 0.04633018 0.041888434
0.02151286 -0.14797853 -0.005480405 -0.009805255 -0.11338341 -0.03726264 0.01754197 -0.011377885
-0.21170251 0.038262367 -0.14380604 0.20071165 0.15036644 0.004802032 0.11596745 0.06468232
0.050966334 -0.09560555 0.002638791 0.003104544 0.16608585 -0.056606445 0.024899673 -0.09978866
-0.08006243 -0.053361632 0.09441556 0.098086886 -0.20300199 -0.06328123 -0.0022838125 0.10748981
-0.14289026 -0.10710978 0.20378226 -0.18926553 0.010149008 -0.06708226 -0.12704134 -0.18730702
-0.19997434 0.14900112 0.03378878 0.047896434 0.04745048 -0.14808145 -0.15229869 0.027481673
-0.052713722 0.15515536 0.020975469 0.15373999 0.012137846 -0.18745768 0.03616658 -0.15013565
0.1386969 -0.13977301 -0.17412974 -0.17039229 -0.14294143 0.1524437 0.0033123163 -0.17014849
-0.08405291 0.05891138 0.13177091 0.042461187 0.13332574 -0.077089116 0.20328477 0.07027564
-0.07490266 -0.044907205 0.0069531803 -0.14712541 -0.16704307 0.16938445 -0.09179274 0.14837229
0.18039475 -0.014398902 0.040888913 0.1783704 0.007978316 0.16898978 0.18481043 0.028337153
0.051162064 0.11363456 0.16834319 0.17355464 0.022008566 -0.12194525 0.17257278 0.1066329
-0.07661305 -0.20260787 -0.12876393 -0.03702655 0.19991066 -0.05994101 -0.19020179 0.157189
0.17390819 0.013445608 -0.15499468 -0.07356969 -0.13790841 0.18722175 -0.17242287 -0.05843231
-0.20348024 0.032563627 -0.019336557 0.07402493 -0.20190398 0.041237716 -0.19820143 0.1770407
-0.008959368 -0.19179478 -0.05128248 0.20309894 -0.04913929 -0.19377923 -0.17895167 -0.16140501
-0.0762045 -0.12484524 -0.17336136 0.02105119 -0.16964447 0.18534587 0.09504255 -0.13162671
0.025991958 -0.008678171 -0.15898731 0.16527712 -0.10435363 0.029330859 -0.13533953 -0.17353597
-0.021139769 0.15991585 -0.12379581 0.20997012 -0.007465876 0.10536897 0.12106339 0.10067368
0.0019959824 0.03470396 -0.06455053 0.16380863 0.19698614 -0.2089059 -0.079336956 -0.1691959
0.01103505 -0.1962057 -0.12419227 0.20560904 -0.027489685 -0.023389446 0.14481542 0.027165372

_pos_embeds f4 [64, 32]
00000000: 0000 0000 0000 803f 0000 0000 0000 803f
00000010: 0000 0000 0000 803f 0000 0000 0000 803f
00000020: 0000 0000 0000 803f 0000 0000 0000 803f
00000030: 0000 0000 0000 803f 0000 0000 0000 803f
00000040: 0000 0000 0000 803f 0000 0000 0000 803f
00000050: 0000 0000 0000 803f 0000 0000 0000 803f
00000060: 0000 0000 0000 803f 0000 0000 0000 803f
00000070: 0000 0000 0000 803f 0000 0000 0000 803f
00000080: a46a 573f 4051 0a3f ba7d 083f 0e94 583f
00000090: 3e39 9f3e 6a4e 733f 3a23 353e 83f6 7b3f
000000a0: 7675 cc3d 98b8 7e3f b036 663d 6898 7f3f
000000b0: 5c81 013d 3cdf 7f3f 42ab 913c a3f5 7f3f
000000c0: 57d6 233c b9fc 7f3f 5c44 b83b f7fe 7f3f
000000d0: 203e 4f3b acff 7f3f 2015 e93a e5ff 7f3f
000000e0: 6d12 833a f8ff 7f3f 166a 133a fdff 7f3f
000000f0: 5fcb a539 ffff 7f3f 5377 3a39 0000 803f
00000100: b7c7 683f 3311 d5be 0af2 663f b2e8 dc3e
00000110: 1b54 173f ec7b 4e3f f647 b23e a5fa 6f3f
00000120: f96f 4b3e a5e5 7a3f 88d9 e53d f361 7e3f
00000130: c870 813d f97c 7f3f 5ca5 113d 8ed6 7f3f
00000140: 3ed4 a33c e5f2 7f3f 9d43 383c dbfb 7f3f
00000150: dd3d cf3b b0fe 7f3f 0815 693b 96ff 7f3f
00000160: 6912 033b deff 7f3f 146a 933a f5ff 7f3f
00000170: 5fcb 253a fdff 7f3f 5377 ba39 ffff 7f3f
00000180: c381 103e 2670 7dbf d745 7e3f a87f edbd
00000190: c209 503f 572f 153f 6d2f 023f 296d 5c3f
000001a0: 6d4e 973e ef90 743f d8ee 2b3e 9e5d 7c3f
000001b0: c1ff c13d 4fd9 7e3f 4d69 5a3d c3a2 7f3f
000001c0: 20b9 f53c 83e2 7f3f c731 8a3c adf6 7f3f
000001d0: 116e 1b3c 0dfd 7f3f a8cf ae3b 11ff 7f3f
000001e0: 939b 443b b5ff 7f3f 1b1f dd3a e8ff 7f3f
000001f0: 0db1 783a f8ff 7f3f 7ed9 0b3a feff 7f3f
00000200: cfbd 41bf 3055 27bf ed49 473f 9daf 20bf
00000210: de1d 743f b12e 9a3e bc1f 273f edeb 413f
00000220: d761 c73e a7ca 6b3f c665 643e 098d 793f
00000230: 882e 013e 69f4 7d3f c88d 913d 475a 7f3f
00000240: dbcb 233d 94cb 7f3f a240 b83c 6cef 7f3f
00000250: cd3c 4f3c c2fa 7f3f a714 e93b 58fe 7f3f
00000260: 5812 833b 7aff 7f3f 0e6a 133b d6ff 7f3f
00000270: 5ccb a53a f3ff 7f3f 5277 3a3a fcff 7f3f
00000280: 107c 75bf 2c3c 913e d6da a53e 4032 72bf
00000290: 7ffc 7f3f d472 29bc abca 463f f14c 213f
000002a0: 4477 f53e 40a9 603f ee11 8e3e 7cf2 753f
000002b0: 1e3c 213e 81ce 7c3f 21db b53d 1efd 7e3f
000002c0: f5b6 4c3d 19ae 7f3f fe4d e63c 19e6 7f3f
000002d0: 8185 813c cff7 7f3f bbac 113c 69fd 7f3f
000002e0: ded6 a33b 2eff 7f3f 8c44 383b beff 7f3f
000002f0: 313e cf3a ebff 7f3f 2615 693a f9ff 7f3f
00000300: 8c0f 8fbe b8cd 753f 74e5 6bbe 531d 79bf
00000310: 4d78 723f 6f3f a4be 8930 603f 342f f73e
00000320: 698c 103f 3249 533f fd7d a93e e290 713f
00000330: 6f20 413e e367 7b3f c119 da3d 518b 7e3f
00000340: d19c 753d 128a 7f3f bf2c 0a3d b3da 7f3f
00000350: 466c 9b3c 34f4 7f3f 04cf 2e3c 45fc 7f3f
00000360: 599b c43b d2fe 7f3f 061f 5d3b a1ff 7f3f
00000370: 05b1 f83a e2ff 7f3f 7dd9 8b3a f6ff 7f3f
00000380: 4630 283f bdff 403f 6eb6 36bf 604f 33bf
00000390: 6fe8 4c3f bb74 19bf 4484 723f b9f8 a33e
000003a0: 73eb 243f b3cc 433f df60 c43e c56b 6c3f
000003b0: 50d3 603e eac0 793f ba46 fe3d e904 7e3f
000003c0: 323e 8f3d 815f 7f3f 6031 213d 3bcd 7f3f
000003d0: a652 b53c f2ef 7f3f 2af1 4b3c ecfa 7f3f
000003e0: c75f e53b 65fe 7f3f befc 803b 7eff 7f3f
000003f0: ec11 113b d7ff 7f3f 6628 a33a f3ff 7f3f
0.0 1.0 0.0 1.0 0.0 1.0 0.0 1.0
0.0 1.0 0.0 1.0 0.0 1.0 0.0 1.0
0.0 1.0 0.0 1.0 0.0 1.0 0.0 1.0
0.0 1.0 0.0 1.0 0.0 1.0 0.0 1.0
0.84147096 0.5403023 0.53316844 0.84600914 0.3109836 0.95041525 0.17689219 0.9842302
0.099833414 0.9950042 0.056204498 0.9984193 0.031617507 0.99950004 0.017781857 0.99984187
0.009999833 0.99995 0.0056233834 0.9999842 0.0031622723 0.999995 0.0017782785 0.9999984
0.0009999998 0.9999995 0.0005623413 0.9999998 0.00031622776 0.99999994 0.00017782794 1.0
0.9092974 -0.41614684 0.9021307 0.43146282 0.5911271 0.8065784 0.34820527 0.9374183
0.19866933 0.9800666 0.112231314 0.9936821 0.063203394 0.9980007 0.03555809 0.9993676
0.019998666 0.9998 0.011246589 0.99993676 0.0063245133 0.99998 0.0035565514 0.9999937
0.0019999987 0.999998 0.0011246824 0.99999934 0.0006324555 0.9999998 0.00035565588 0.99999994
0.14112 -0.9899925 0.9932532 -0.11596614 0.8126489 0.5827536 0.50853616 0.86104065
0.29552022 0.9553365 0.1679033 0.9858035 0.09472609 0.99550337 0.05332308 0.9985773
0.029995501 0.99955004 0.016869439 0.9998577 0.009486691 0.999955 0.005334813 0.99998575
0.0029999956 0.9999955 0.0016870232 0.99999857 0.0009486832 0.9999995 0.0005334838 0.9999999
-0.7568025 -0.6536436 0.77847177 -0.62767965 0.95358074 0.30113748 0.652828 0.7575062
0.38941833 0.921061 0.22304448 0.9748083 0.12615407 0.99201065 0.07107121 0.9974713
0.039989334 0.9992001 0.022491757 0.99974704 0.012648773 0.99992 0.0071130577 0.9999747
0.0039999895 0.999992 0.0022493633 0.9999975 0.0012649107 0.9999992 0.0007113117 0.99999976
-0.9589243 0.2836622 0.3239352 -0.94607925 0.99994653 -0.010342319 0.77652997 0.6300803
0.47942555 0.87758255 0.27748054 0.96073127 0.15745589 0.987526 0.08879686 0.99604976
0.04997917 0.99875027 0.028113361 0.99960476 0.01581073 0.999875 0.00889128 0.9999605
0.0049999794 0.9999875 0.002811703 0.99999607 0.0015811381 0.99999875 0.0008891396 0.9999996
-0.2794155 0.96017027 -0.23036748 -0.9731037 0.94714814 -0.32079646 0.8757406 0.482782
0.5646425 0.8253356 0.33103934 0.943617 0.18860029 0.98205394 0.106494434 0.9943133
0.059964005 0.99820054 0.03373408 0.99943084 0.018972527 0.99982 0.010669474 0.9999431
0.005999964 0.999982 0.0033740415 0.99999434 0.0018973654 0.9999982 0.0010669675 0.9999994
0.6569866 0.75390226 -0.71372116 -0.7004299 0.80042166 -0.5994374 0.9473307 0.32025698
0.64421767 0.7648422 0.38355157 0.92351943 0.2195561 0.9755999 0.12415834 0.9922624
0.06994285 0.997551 0.03935373 0.9992253 0.022134136 0.999755 0.012447635 0.9999225
0.006999943 0.9999755 0.003936379 0.99999225 0.0022135926 0.99999756 0.0012447953 0.9999992

W f4 [32, 32]
00000000: d262 263e d004 21bf d051 693e 9ea9 653d
00000010: 8085 73be 55b1 18be 3e0e d43e 5cc9 7fbe
00000020: 1159 e0be fcca 96be aa8a a73e 6d3e d7bd
00000030: 0955 f33e 2a08 983e fca8 b53e 68db 033f
00000040: 3c0a 463e f9f8 033f 8592 0f3f 2868 f63e
00000050: d0ba 7c3e d8f2 443f 3f5e 053f 687b a33e
00000060: dbd4 d53e d980 393f be9e d13e 63da 093f
00000070: f7bf 8d3e 259b ec3e 0fe6 d83e f608 403f
00000080: c62e 833e a590 93bd 2a11 9cbe 79cc 8f3e
00000090: 74a8 23bf b045 48bd f428 fe3e 0703 153f
000000a0: 2829 063f 3591 1dbf 675d e0be 8b66 9e3e
000000b0: 4503 6fbe 797e 8b3a a0bf 29bf 1769 29bf
000000c0: 9da6 96be d90a 0dbf 0c4d 5fbe 17f0 85be
000000d0: 346d 22bf 7a1f 2fbf 539d 0dbf 08cd 0cbf
000000e0: 76fd fcbe 6eba 22bf 11d8 a7be d686 1abf
000000f0: 1e9e d2be e22b 16bf 024f 43bf d2e1 2abf
00000100: 17cc 8ebc a4ee 203f df54 01bf 1fcd b1be
00000110: 6ee4 393f 6b8c 2f3f 2e3e 11bf b697 a1be
00000120: 73a9 e63c fde8 123e 8f08 0b3d 26ee 17bf
00000130: d07d e73e 7907 e0be f501 ff3e 6c36 653e
00000140: a10f 693e f217 333e da5e 203e eccc d53e
00000150: 6863 333f 60e2 1f3f 8780 f03e b0a7 883e
00000160: 9aa7 183e f4f5 c33e ac69 913e 1a3c 903e
00000170: 4b13 0d3e 857a 373f 318e 4e3e e70a cd3e
00000180: 2cbc 363e c9bd cf3e 9aaa ff3e b8b1 7c3e
00000190: 945e cc3e 8a7e 7a3d ab00 b53e 4ac9 9bbe
000001a0: ee5a ab3e 2377 1fbe d3f1 1bbf 7acd 9a3e
000001b0: 67b7 2abe dad8 533d 5cc2 a6bd 73a9 7fbe
000001c0: b70a 993d fd60 af3d 3266 cfbe 9022 10be
000001d0: 10c2 e03d 9e3b f2be 70d8 d7be 113e 0bbe
000001e0: 4622 3cbe 1008 58be 3ec3 debe 8945 79be
000001f0: bc70 ce3d c959 7fbe db17 87bb 43f3 32be
00000200: 63cd 8abe 1b65 a03d 2120 aebe d14e 0cbd
00000210: 9248 06be 3695 d73e 8b5c 1bbf 6b31 4cbe
00000220: dc38 3e3c a22c eb3e f0aa 1dbf 1277 79be
00000230: 711a c23e 6d44 fdbe c1f9 3f3e 87d5 96bb
00000240: 63f9 9e3d ed30 d0bd 6fc9 a23e d396 433e
00000250: 5c28 b83e 7fe8 0a3d 8087 5f3e 1f44 903e
00000260: d91c 843c 3113 a23e 4e58 0abe 7b3e 183e
00000270: 37b6 acbc 55b5 b7bd 3a28 a13e 74cb c33e
00000280: 9094 8fbe bdd9 c8bd 434d e2be e122 b83c
00000290: e355 18bf cb71 913e ac10 00bf 5616 743e
000002a0: ae2a 5c3d e640 d23e 00d4 cdbe 099d 223e
000002b0: 39bb 08bf e6b4 1ebf 5d8b f5bd f762 f5be
000002c0: b889 24bf b750 f1be 0f9c f6be df8c 26be
000002d0: 1f30 89be f82a 14bf cb1f fcbe 75f7 fabe
000002e0: 4a23 0bbf d842 c4be d6cc bbbe d811 64be
000002f0: 9e7f 24bf 236a d6be 000f ebbe 7f6c f1be
00000300: ef4a da3e 47c2 26be 9625 f53c aba3 253f
00000310: 5b4f 673e 80ad 463e 9ee7 443e 6cc3 b53e
00000320: 0d85 cbbe f758 83be f8ca 2b3e a616 3e3e
00000330: 946d 663c 102f 513e 7cc2 5e3d 65fe b13d
00000340: be00 d63d 62af 823d a789 95be 99c6 9bbc
00000350: 4a0a e0be 4a95 6cbe 1f95 5abe 5f2d d63d
00000360: da28 a0be 983b f9be 7957 7cbe 17dc c6be
00000370: cae2 e03d 9008 6a3d e028 27be fd73 64be
00000380: a23d 88be a8c9 8fbe 2530 d63d 07dd 8cbe
00000390: b97a b8be ef9f 1fbe 471f 6dbe b324 04bf
000003a0: 6000 b73e f047 2a3e 56dc 2cbe 2cfd f5bd
000003b0: f76f 27be 5f17 c83e a820 9dbd ae96 a93e
000003c0: aa2c 683e 8a62 ea39 10f6 3dbe fc1c 10bd
000003d0: aed7 5bbb 15f7 073e ff00 4c3e b07e 46be
000003e0: 1a81 3e3e c2a9 ee3d a775 dbbd 3937 123e
000003f0: cc1c 2dbc e171 c43e 6179 17be a35d 263e
0.16248634 -0.6289797 0.22785115 0.056069963 -0.23781395 -0.14911397 0.41417116 -0.24979156
-0.43817952 -0.2945174 0.3272298 -0.10509954 0.47525814 0.2969373 0.35480487 0.5150666
0.19339842 0.5155178 0.56082946 0.4812634 0.24680638 0.7693305 0.52096933 0.3193009
0.41763958 0.7246223 0.40941423 0.53848857 0.2768552 0.46212116 0.4236302 0.75013673
0.25621623 -0.07205323 -0.30481845 0.28085688 -0.63928914 -0.048894584 0.4964062 0.58207744
0.5240655 -0.61549693 -0.4382126 0.3093761 -0.23341091 0.001064255 -0.6630802 -0.6617598
-0.2942399 -0.5509468 -0.21806735 -0.26159737 -0.6344788 -0.68407404 -0.5531818 -0.5500035
-0.49412125 -0.6356572 -0.32782033 -0.60361993 -0.4113626 -0.5866071 -0.7629243 -0.66750824
-0.017431302 0.62864137 -0.5052013 -0.34726807 0.7261418 0.68573636 -0.56735504 -0.3156106
0.028156972 0.1434669 0.03394371 -0.5934776 0.45213175 -0.437557 0.4980618 0.22384042
0.22759868 0.17489603 0.15661183 0.41757905 0.70073557 0.62454796 0.4697306 0.26690435
0.14907685 0.38273585 0.28400934 0.28170854 0.13776891 0.71671325 0.20171429 0.4004738
0.1784522 0.40574482 0.49934846 0.2467717 0.39915907 0.061155833 0.35352072 -0.3042701
0.3346781 -0.15572791 -0.6091587 0.3023489 -0.16671525 0.051720478 -0.0814254 -0.24966983
0.07472747 0.08563421 -0.40507656 -0.14075685 0.109745145 -0.4731111 -0.42157316 -0.13597895
-0.1837245 -0.21096826 -0.43508333 -0.24342932 0.10080096 -0.24936594 -0.004122717 -0.1747561
-0.27109823 0.07831784 -0.34008887 -0.034254853 -0.13113621 0.42106026 -0.60688084 -0.19940726
0.011610236 0.4593249 -0.61588955 -0.24361828 0.37910798 -0.49466267 0.18747617 -0.004603091
0.077624105 -0.10165582 0.31794307 0.19100504 0.35968292 0.03391313 0.21829033 0.28176972
0.016127037 0.31655267 -0.13510248 0.14867584 -0.02108298 -0.08970133 0.31476003 0.3824116
-0.28043032 -0.09807155 -0.4419957 0.022477569 -0.5950605 0.2840713 -0.5002544 0.23836645
0.05375164 0.4106514 -0.40200806 0.15880217 -0.5341068 -0.6199478 -0.11989472 -0.47927067
-0.6427264 -0.47131893 -0.48165938 -0.16264676 -0.26794526 -0.57878065 -0.49243006 -0.4901692
-0.5435072 -0.38332248 -0.36679715 -0.22272432 -0.6425723 -0.4187785 -0.45909882 -0.47153088
0.42635295 -0.16285048 0.029925149 0.6470286 0.22588865 0.19402122 0.1922898 0.35500658
-0.39749947 -0.25653812 0.16776645 0.18563327 0.014064211 0.20428109 0.054384694 0.086911
0.1044936 0.06381108 -0.29206583 -0.019015597 -0.4375785 -0.23103824 -0.21345948 0.104578726
-0.31281167 -0.4867828 -0.24642743 -0.3883979 0.109807566 0.057137072 -0.16324186 -0.22309871
-0.26609522 -0.2808354 0.104584016 -0.2751238 -0.3603113 -0.15588354 -0.23156463 -0.516185
0.35742474 0.16629004 -0.16880926 -0.12011179 -0.16351305 0.3908033 -0.07672244 0.33122772
0.22673288 0.00044705375 -0.18550897 -0.03518389 -0.0033545303 0.13277848 0.19922255 -0.19384265
0.18603936 0.116534725 -0.107158 0.14278878 -0.010565948 0.38368133 -0.14792396 0.16246657

b f4 [32]
00000000: 88c1 023f a30e f8be 0d05 e53e 0765 29be
00000010: 6c31 cc3d 6321 babe 1695 40be 4f56 ed3d
00000020: 0803 53be 47e0 d23d 2719 55be 7144 bc3e
00000030: 9f95 bebe 2fbd 6cbe a3eb 38be 6d9d b9be
00000040: d78d aabe ca47 8e3e c69f 4fbe 1c22 c8bc
00000050: 7280 bbbe ad58 aebe 8897 4cbe ba4f bbbe
00000060: 5026 603e da6b f7bd 5204 813e 1c45 a23e
00000070: 59ab c1be 2b66 093e 7372 35be 5ff8 403e
0.51076555 -0.48448667 0.44730416 -0.16542445 0.09970364 -0.36353597 -0.18806872 0.11588728
-0.20606625 0.10296684 -0.20810376 0.36770967 -0.37223527 -0.23119043 -0.18058638 -0.3625292
-0.3331134 0.27789146 -0.20275792 -0.024430327 -0.36621433 -0.3405203 -0.1997968 -0.36584264
0.21889615 -0.12081118 0.2519861 0.3169335 -0.3782604 0.1341788 -0.1771944 0.18844746

W f4 [32, 32]
00000000: becb 143d 00de 14bf 31c4 873d 9ba8 eb3d
00000010: afb4 8a3e c17b 433f 3f13 c5be 68e4 c0be
00000020: 9adc adbe 9db8 623e ddc7 963d ad1a 96be
00000030: 0686 813e 601d 0abd da66 e43e d53a 883e
00000040: a7ee 823d 22ce 97bc 62a6 ed3e 9b0e c63e
00000050: 2c2e 653e df1d 193e 9317 923d 824c 873e
00000060: 1fa3 ef3e 856d 643e 8290 a53d f0b1 6d3e
00000070: f47c 9b3e c2dd da3e bc44 893e b15c 8e3e
00000080: 5c92 7d3d 8d42 103e 0c29 a73b 96d1 a8bb
00000090: fc09 e9ba 0a0c 6e3e e27b 33bf c094 7e3d
000000a0: f324 943e 8152 133f 327f 02be b9dc dcbd
000000b0: 012a c0be 92d7 15bf 6207 bdbe 4c63 1abf
000000c0: f69d 853d 4962 f1bd d393 3b3e 9e40 973d
000000d0: 8d9f 01be 737d dc3c 9268 2cbd 2168 e9be
000000e0: 95da 78be ca66 68be 27c7 243e 53a4 63be
000000f0: 43db 35be 8d80 eabe 0720 b93d b7b2 bbbe
00000100: 8054 37be b718 053f 71f8 d2bd fc13 fa3e
00000110: a449 6a3e 52f0 143f b35f ea3c ecf0 ddbd
00000120: 652b 073f e1a5 05bf a69e 053f ac98 9c3d
00000130: 6dcc d43d 7b3d 033f 58c4 9e3e 1f02 003f
00000140: 6591 ed3e 3804 063f 87b1 c63e 8da1 2e3e
00000150: c88f f33e 172c e23d dc50 723e 510b c43e
00000160: b843 bb3d 7a8c e93e 32b0 9d3e c544 3c3e
00000170: 55a6 0a3e 9bb4 823e f844 fc3e 3b63 183f
00000180: df2f 243e 5c47 62be 4703 62bd 80ff ea3d
00000190: b3c4 113f eae7 05bf aeb4 1b3f 3c05 a2be
000001a0: 8465 b3be 453c b7be 2c90 973e cf35 813e
000001b0: 052b 3f3f 592e dc3e cbe0 003e 2620 ef3e
000001c0: a540 7dbe 580d 0c3f 72c7 023e c463 a83e
000001d0: 3d6e 493d c64e 863e fc36 98be 94d8 3f3f
000001e0: a837 a6be 0f5d fe3e 10e0 fdbd 37d6 703e
000001f0: 70b3 b1be 56bb e83e 19b9 c03d d5e0 913e
00000200: 8a31 f4be ce73 cb3d 6deb 2e3f 3d77 4a3f
00000210: 4d35 33bf 331d 3b3f 6c34 cabe ca37 f43e
00000220: ee99 4f3f a399 f2be 77ed 33bf 53e3 183f
00000230: b049 93be f6a7 9dbe f809 01bf 4600 68bf
00000240: a3ff b4be ed69 08bf 38e9 ffbe 4e33 e6be
00000250: c8c8 13bf 4545 b5be 4dfb 17bf 76cc 16bf
00000260: 7f35 53bf 58e7 bebe a768 32bf 01f0 14bf
00000270: 57e1 52bf dc0a 0dbf 79e0 03bf 6ee7 97be
00000280: 1b87 f8be c703 563c 3027 5a3e 292a 9abe
00000290: 8b18 d4be e6b6 163d 240d 05be 0d69 ef3b
000002a0: 1603 533d 0485 c8bc ceae 7abd f53f bb3e
000002b0: bef6 48bd 56cc 94be 3b86 6f3c 153f 4ebe
000002c0: 1628 a33b e18d c5be 0e6f 2f3c 4db7 e3bd
000002d0: adb7 f4be cd63 2c3d d6ec 1cbe db95 a5bd
000002e0: 0453 6abe b3cc f0be e24e 25be 63ef fcbe
000002f0: 4a70 6ebd 922c d9bd 64af f9be 2522 56be
00000300: f783 a3be 255a 2dbf 8898 5d3d 280d 5d3f
00000310: b72c 99bd 0b7d 163e 6e0f 1bbe 25ae abbe
00000320: 0917 fc3e 34a3 cf3e 3b4d d8be 6228 a5bd
00000330: 1271 ef3d 5622 9dbe 695d ab3b 502a e3bd
00000340: ade4 953e b272 cd3d 147f 5dbe b4e5 233e
00000350: 8e1f a93d 62a4 8cbe 27cf ff3d cce2 09be
00000360: 6bac 4c3e ade8 c23c db50 033e a1c4 a93d
00000370: 6f17 903e 59f1 f83d a8a4 3abe b257 96bd
00000380: 8872 083e 12a4 2c3e 543d 883d dc4f d43e
00000390: 5f0b b4bd a220 66be fd37 f73d acc7 003f
000003a0: f444 18bf d7da 1bbe fb96 d1bd e8d0 07bf
000003b0: 19e3 dabd 0ce5 febe 8527 453e c0fe b93d
000003c0: f326 83bc 1c61 9bbe 00d3 903e 9230 1e3e
000003d0: 8e1f 1abe 7220 90bc e645 b73e 8386 e63d
000003e0: 7c5f 9cbc d688 79bd 7d99 3f3d 450a 10be
000003f0: d55e b83e bcb2 8bbd 909f 37be 96f8 ea3c
0.036327116 -0.58151245 0.066292174 0.11506768 0.27090976 0.7636071 -0.38491246 -0.3767426
-0.33957368 0.22140737 0.0736234 -0.29317227 0.25297564 -0.03371942 0.4460972 0.26607385
0.063931756 -0.018530909 0.46416003 0.38683018 0.22380894 0.14952801 0.07133403 0.26425558
0.4680414 0.22307403 0.08084203 0.23212409 0.3036877 0.42747313 0.26810253 0.27805093
0.061907157 0.14087887 0.0051013287 -0.0051519377 -0.0017779465 0.2324678 -0.70110905 0.062153578
0.2893444 0.57547766 -0.12743834 -0.10784287 -0.37532046 -0.5853206 -0.36919695 -0.60307765
0.06524269 -0.117863245 0.18318109 0.073853716 -0.1265852 0.026915288 -0.042091914 -0.45587257
-0.24302132 -0.22695461 0.16091596 -0.22230653 -0.17759423 -0.458012 0.09039312 -0.36659786
-0.17903328 0.51990837 -0.10301293 0.48843372 0.22879654 0.581792 0.028610086 -0.10836968
0.5280059 -0.52206236 0.52195203 0.07646307 0.103905536 0.51265687 0.31009173 0.50003237
0.4639999 0.5235019 0.38807318 0.17053814 0.47570634 0.11043566 0.23663658 0.38289884
0.09143776 0.45614988 0.3079849 0.18385608 0.13540013 0.25528416 0.4927137 0.59526414
0.16033886 -0.22097534 -0.055178907 0.11474514 0.56940764 -0.52307 0.6082257 -0.3164462
-0.35038388 -0.3578817 0.29602182 0.25236365 0.7467502 0.4300411 0.12585752 0.46704215
-0.24731691 0.5470786 0.12771395 0.32888615 0.049177397 0.26231974 -0.2972945 0.74939847
-0.32464337 0.49680373 -0.12396252 0.23519216 -0.34707212 0.45455426 0.094103046 0.28491846
-0.47694045 0.09934197 0.6832798 0.79088193 -0.70003206 0.7309143 -0.3949312 0.47698814
0.81094253 -0.4738284 -0.7028422 0.5972187 -0.28767157 -0.30792207 -0.50405836 -0.9062542
-0.35351285 -0.5328663 -0.4998262 -0.44961017 -0.5772824 -0.3540441 -0.5936783 -0.5890573
-0.82503504 -0.37285876 -0.69690937 -0.58178717 -0.8237509 -0.55094695 -0.51514393 -0.29668754
-0.48540577 0.013062424 0.21304011 -0.3011029 -0.41424975 0.03679552 -0.12993294 0.007306224
0.051516615 -0.02447749 -0.061201863 0.36572233 -0.049063437 -0.29062146 0.014619405 -0.20141251
0.004979144 -0.38584808 0.01070763 -0.11118946 -0.47796384 0.042087365 -0.1532472 -0.08085223
-0.2288323 -0.47031173 -0.16143373 -0.49401388 -0.058212556 -0.10604204 -0.48766625 -0.20911463
-0.3193662 -0.67715675 0.054100543 0.863482 -0.07479232 0.14696138 -0.15142605 -0.335313
0.49236324 0.40554202 -0.42246422 -0.08064343 0.11691488 -0.3069026 0.005229641 -0.11092055
0.29276028 0.10031642 -0.21630508 0.16005594 0.08257972 -0.27469164 0.12490683 -0.13465422
0.19987647 0.02379259 0.12823813 0.08289457 0.28142878 0.121554084 -0.18226874 -0.07340945
0.1332494 0.16859463 0.066523224 0.41467178 -0.08791231 -0.22473386 0.12071226 0.50304675
-0.59480214 -0.152202 -0.10233875 -0.5305314 -0.10687847 -0.49784124 0.19253357 0.09081793
-0.016009783 -0.30347526 0.2828598 0.15448216 -0.150511 -0.017593596 0.35795516 0.11256125
-0.0190885 -0.060921513 0.046777237 -0.14066418 0.3600985 -0.068212 -0.17931962 0.028682988

b f4 [32]
00000000: 6e40 943e 8bfb 49be 5344 ac3e c6a6 e33e
00000010: 2789 19bf b452 64be be85 613c 9626 90bd
00000020: 63d1 b13e 3338 0e3e 863f 5ebe 596d b3be
00000030: 050b d83e f2c7 2c3e bf46 8b3e 6352 36be
00000040: 1669 c1be c9dd 54be 26be aebe af0d 643e
00000050: 4cb7 333e cbf8 a4be 14c5 b7be 103b d33e
00000060: 8669 a2be 8a11 a33e 017f 533e 6a4b bc3e
00000070: 1f79 dabc 2a4b 41be 5804 4bbe 7bcd b83e
0.28955406 -0.19724862 0.33645877 0.44463176 -0.599749 -0.22297174 0.013764797 -0.0703861
0.34730062 0.13888626 -0.2170392 -0.35044363 0.42195907 0.16873148 0.27202412 -0.17804866
-0.37775487 -0.2078773 -0.34129447 0.22270845 0.17550391 -0.32221064 -0.35892546 0.41256
-0.31721133 0.3184932 0.20653917 0.36776286 -0.026669083 -0.18876329 -0.19825876 0.3609427

W f4 [32, 32]
00000000: 05c2 203f 2d9f 0bbf 5f69 4f3c 2cc4 dd3e
00000010: 1cfb 68bd 6e93 8fbe 1185 1c3f 85b1 f8be
00000020: 793e 043f 0563 cabe fda7 583f 4d02 d43d
00000030: d8db 8cbd 63fe 813e dbe5 84be 64d3 4bbe
00000040: 3499 f1bd fd73 a4be b35d 4abe 6703 0dbe
00000050: 5eae 25bf b239 5b3d 4ac0 24be cf76 f4bd
00000060: 0ce4 00bf 2e04 c7be ae5c 42be eb97 70be
00000070: 8bbe bfbd d9d8 ffbe 4bae 4cbe d59e 3bbe
00000080: 1cc4 8a3d 7ebf 0cbf 0b7f 4cbe 7e46 2b3e
00000090: 05ac bebe 4e90 9f3c ef45 d5be 2dc1 663e
000000a0: 564e c13e a2c0 80bd d742 8b3e 185f f13e
000000b0: 15ae 9cbd 124c 503d 94f8 1abd 4254 3ebe
000000c0: 4e31 2ebe 609c 71be 00af 2a3e 73a1 4fbe
000000d0: 9c97 0bbd 1527 003e 678a b4be c5c1 963e
000000e0: 881d 03bd 1dd7 e33c c4b8 b7bd bb1c 7bbe
000000f0: acc5 e63d cb1b 263e 8231 0cbe 6104 0bbd
00000100: c085 a4bd 262e 743d 1b57 0cbf 14d9 34be
00000110: 6554 22bd 4786 1c3f d525 31bf 2ed5 19bf
00000120: b26e f73e ff40 b7bd 48dc 393f db7f e0be
00000130: 8aee 373f 97af 1b3f 949f e13e 3294 1b3f
00000140: 002a f43e d46b ae3e 95f8 c23e d3c2 ca3e
00000150: 71af a93e 9778 3e3f ce84 de3e ff8b 3e3f
00000160: 72d6 043f a551 db3e d206 413e fb9f 363f
00000170: 0ef8 e83e f1f2 6d3e 406b 653e d044 2c3f
00000180: 3cbe e1be 635d 543d 0d42 91be f881 91be
00000190: fa6a ec3e ba3f ce3e 4225 d5be 5ef7 c5be
000001a0: 2f48 65be 2e28 483e 44c5 343e e839 9abe
000001b0: 888a b33e b5e0 24be c006 8e3e 67ba 1c3f
000001c0: e748 b03e 4be3 c53e b720 4d3e 75cc d53e
000001d0: fba4 bd3e 3931 063f 6d0c d93e cb8d 0e3f
000001e0: 4478 183f c940 903e 3170 533e 236f ec3e
000001f0: 49ed 1d3f 7e27 a23e 5dfe 4c3e fa41 0b3f
00000200: 407b ab3e 77f4 3bbe 9f35 2abe e1f5 ff3d
00000210: 5467 2e3f 4e33 703e 0152 4d3e adb4 89be
00000220: 8446 073f 43d5 81be 64d1 8fbe f8e6 2a3f
00000230: bbd1 b6be 35ae 863d f6b0 bebe 97f5 20bf
00000240: 9d28 21bf 21c3 11bf bd38 48be b656 33bf
00000250: 5fe1 0fbf 974a 1ebf 0414 23be 5761 e5be
00000260: 4181 2cbe 072a 01bf 9993 fdbe 8ba1 3cbe
00000270: 7d3a a7be d16c 1fbf 93b7 36bf 53f0 09bf
00000280: b4d6 25bd 8f21 b53d feaa d33e 6504 02bf
00000290: cd9e 2e3e a813 9d3e 100f 863e 8886 96be
000002a0: d36b acbe fd42 a8be e310 e83c 3df4 c73d
000002b0: 84a8 943e 7b16 ed3e af1b 643e ea02 28bc
000002c0: e8f1 a33e e0bc 873e 07af 973e e788 fa3e
000002d0: efcc cd3e 4f99 1b3e ed26 f33e a102 c13e
000002e0: a672 4e3d 757a 99bd 0c60 633e 2d34 913e
000002f0: 2301 9f3c 4b56 b93e ac36 593e 0a37 e13b
00000300: e5de 33be 37f2 fe3d 9050 263f 9c38 223f
00000310: b24c 133f 67ac 5cbe 98b7 f23e 7926 df3e
00000320: 3bbd 2bbf 528d 6b3e f888 b1be aac1 8f3e
00000330: a1e1 9cbe 941c 29bf 78a9 57be a709 8ebe
00000340: e326 6fbe e2de 12be 8263 9ebd b7f8 fdbd
00000350: 3c6a 1fbe 6464 5abe a022 45be 2eb6 9bbe
00000360: faf6 49be be15 b6bc 05f5 e1bb 97ee f4be
00000370: 0882 9ebd 60a3 26be fe55 28be 0ab7 8dbe
00000380: 3575 59be b794 80be a163 afbc a5ec cabe
00000390: ddd3 813e 5593 33bc 2eae a4be cd11 ef3e
000003a0: 777a 0a3e 3c58 cd3d c6b6 edbe 1000 04bf
000003b0: 4b8c f93e f0b9 b8be b195 0e3f 288a 713e
000003c0: 1105 983e 4f39 ba3e 6dee 193f 5636 903e
000003d0: 880f 7e3e 2eb6 873e 02c3 3d3e dd1c ae3d
000003e0: 01bc bb3d c347 013f 6608 063f 9f02 3a3e
000003f0: 84c8 d83e b51b ec3d d9ab b03e ba6c 043f
0.6279605 -0.5453976 0.0126594 0.4331373 -0.0568801 -0.28042167 0.61140543 -0.48572937
0.51657826 -0.3952867 0.8463133 0.10352001 -0.06877869 0.25389394 -0.25956616 -0.19904858
-0.11796799 -0.32119742 -0.19762306 -0.13770829 -0.6471919 0.05352182 -0.16088977 -0.119367234
-0.5034797 -0.38870376 -0.18980667 -0.23495452 -0.09362515 -0.4997013 -0.19988362 -0.18322308
0.06775686 -0.54979694 -0.19970338 0.1672611 -0.37240615 0.01947799 -0.41654918 0.22534628
0.37755078 -0.06286742 0.27199432 0.47142863 -0.07650391 0.050853796 -0.03783472 -0.1858683
-0.17010996 -0.23594809 0.1666832 -0.20276432 -0.034080133 0.12514909 -0.35261843 0.2944471
-0.032010585 0.027812535 -0.08970788 -0.24522679 0.11268172 0.1622154 -0.1369076 -0.033939723
-0.08033323 0.059614323 -0.5482041 -0.17660934 -0.039631266 0.6114239 -0.6919835 -0.6009091
0.4832664 -0.08947944 0.7260175 -0.43847546 0.71848357 0.60814804 0.4406706 0.60773003
0.47688293 0.3406664 0.38080278 0.39601764 0.33141664 0.74402755 0.43460697 0.7443237
0.5188972 0.42835727 0.18850258 0.7133786 0.4550175 0.23237206 0.22404194 0.672925
-0.4409045 0.051846873 -0.28370705 -0.2841947 0.46175367 0.40282995 -0.41629988 -0.3866529
-0.22390817 0.19546577 0.17653376 -0.30122304 0.35066628 -0.16101344 0.27739525 0.6122193
0.3443062 0.38649973 0.20032011 0.4175755 0.37039933 0.5241886 0.42392293 0.5568511
0.5955851 0.28174427 0.20648266 0.4617854 0.61690193 0.31670755 0.20018907 0.5439755
0.3349247 -0.18354975 -0.16622017 0.124980696 0.68126416 0.23457071 0.20050813 -0.26895657
0.52841973 -0.25358018 -0.2808944 0.6675868 -0.35706887 0.06576196 -0.37244385 -0.6287474
-0.62952596 -0.5693837 -0.19552894 -0.70054185 -0.56203264 -0.61832565 -0.15925604 -0.44800827
-0.16846181 -0.50454754 -0.4952667 -0.18420999 -0.3266181 -0.62275416 -0.7137386 -0.5388233
-0.04048796 0.088442914 0.41341394 -0.50787956 0.17052765 0.3067906 0.26183367 -0.29399514
-0.33676013 -0.32863608 0.028328365 0.09763382 0.29034817 0.46306214 0.22276185 -0.010254601
0.32020497 0.26511288 0.29625723 0.48932573 0.40195414 0.15195201 0.47490636 0.37697318
0.050402306 -0.0749406 0.22204608 0.2836012 0.019409722 0.3619865 0.21212262 0.0068730162
-0.17565496 0.124485426 0.6496668 0.6336763 0.575389 -0.21550141 0.47405696 0.4358404
-0.6708562 0.23003128 -0.3467481 0.2807744 -0.3064089 -0.6605923 -0.21060741 -0.2774174
-0.23354678 -0.14342836 -0.07733823 -0.12400954 -0.15567869 -0.21327358 -0.1925149 -0.3041243
-0.1972312 -0.022227164 -0.0068956637 -0.4783828 -0.07739645 -0.1627326 -0.16439053 -0.2767871
-0.21236117 -0.2511346 -0.021409811 -0.3963367 0.2535695 -0.01096042 -0.3216414 0.46693268
0.13523279 0.10026595 -0.46428508 -0.51562595 0.48739848 -0.3607936 0.5569716 0.23587859
0.29691365 0.36371848 0.60129434 0.28166455 0.24810612 0.2650618 0.18531421 0.08501599
0.09166718 0.50500125 0.52356565 0.18165062 0.4234048 0.11528722 0.3450611 0.51728404

b f4 [32]
00000000: 6c61 5dbe de31 c93c 6e2c df3e 3502 b83e
00000010: d9ca dcbe d130 583e 0878 a9be f50f b33e
00000020: b1f3 a03e ede7 60be c2fc 4d3e 532b 093e
00000030: 00d9 793e 3073 aa3e 62f3 6d3e 545f a6be
00000040: a8e7 a4be f6be af3e 95fd a5be 678e 60be
00000050: 6246 17be 4889 adbe e31d 0d3e c050 af3e
00000060: 3e6f c63e 8be4 04bd 026c 87be 866d a3be
00000070: 78b8 1abc 84d1 54be 6cee af3e 7af7 babe
-0.21619195 0.024559911 0.43588585 0.35939184 -0.4312351 0.21112372 -0.3309939 0.34973112
0.31435922 -0.21963473 0.2011595 0.13395433 0.24399185 0.33291006 0.23237374 -0.32494605
-0.3220799 0.3432538 -0.3242003 -0.21929322 -0.14772943 -0.338938 0.13780932 0.34241295
0.38756746 -0.032444518 -0.2644959 -0.31919497 -0.009443395 -0.20783049 0.3436159 -0.36516935

W f4 [32, 32]
00000000: 895e 6bbe d375 1a3f bc90 293d eb5a 4bbd
00000010: 5170 e63e b93c 9c3e 7a39 ad3d beb2 abbe
00000020: b44a c8bd a553 ef3e 9362 9dbe 40f7 c9be
00000030: b5b3 2b3f 70df cd3e 1d01 c53d fb8a 02be
00000040: 46d2 9fbd 13e6 de3d d020 31be 93d8 d7be
00000050: f6d6 9cbc 4ae3 cf3e 279b 0a3e 12e9 ee3e
00000060: a59a 2cbe 080d 793e 7ad2 aabe 9f08 b1be
00000070: 2d5f 553e bcb6 393f 4617 9ebe 6251 0b3e
00000080: 7f67 52bd c7f5 26bf 0feb ed3e 4a88 dc3d
00000090: 78d8 dcbe e216 983e 0045 203e fda1 18be
000000a0: d377 ec3e 3988 1fbf 6fed e13c bcc7 f03e
000000b0: 5089 eabd c616 b93e f391 593d 85b4 e3be
000000c0: 3266 903e 80e6 1ebf 2449 e53e 215c 1d3f
000000d0: f4cd 65be e9cd abbc 4c03 b83e ad2d 7abe
000000e0: c5dc 853e a603 cf3c 034c 463c ba1c 2f3e
000000f0: c558 b6be 415c 94bd 7b50 bb3e 23cd 24bf
00000100: 8f96 fe3e c69d 93be ff4b 233f 3a41 a4be
00000110: e791 cfbe 0a7e 08bf 4fe2 ab3e 63fa bdbe
00000120: 7590 cabc d91b 98be cc69 143f d9de 07bd
00000130: 983e e6be e3a5 f8be 015b b3bd 20f1 b1be
00000140: a26c 29be 14d4 01bf 50de ba3e 440d 5abe
00000150: e899 e9bd 5a00 d3bd 12bd 0d3e 472c 443d
00000160: 6533 d6bd 5028 30bf 30c7 293f 8023 e2bd
00000170: c2f0 9dbe 0cd1 293e 1ebd 153c 6d61 b4bc
00000180: 9a92 f83e e9d8 17bf edb1 f13e 0522 b5bd
00000190: 60d6 5f3e 0626 0b3f c1a3 9fbe 6ded fb3e
000001a0: 65e8 043e b013 a2be bfe3 8b3e 01ec 4a3e
000001b0: 5687 533e d227 f83e b1f0 18bf 0492 633e
000001c0: 5359 2e3e 4356 b73c c515 963e 8e42 bc3e
000001d0: 114d e33e a5e9 3c3e 60fd 6bbe 59d3 bb3e
000001e0: 723e b13e 065d b2bd 298a fbbd d9b5 b93e
000001f0: 7f3b 0a3e 523c 86bc 6bd2 84be ab13 883d
00000200: a0b5 c7be e8f8 f73e 8cc3 bebe d52e c6be
00000210: 6cfd b2bd 1c9c e8bc fb8c 943e 97b0 19bf
00000220: c644 abbd d8dd b73e b4f3 a4bb 4098 ba3d
00000230: ac22 02be 31b9 a4be 7927 f53e 412d 58be
00000240: e762 c7be 3cb6 153f 1eb7 253f 8584 e2be
00000250: a733 d3be 2e80 9bbe e1d0 f03e 369c 4bbe
00000260: b92f 4fbe e372 5d3d 1515 063f 5ef4 8bbe
00000270: 7dcd f1be c85e 053d ac3f 613e 73ee abbe
00000280: f577 ff3e b75e 213e af9c 813e c681 84be
00000290: f7e9 39be dbfe 833d 0f25 e93e 817e b5be
000002a0: a19e 19bf e249 4c3e f36d 81bd 40a6 04bf
000002b0: 79c5 f2be 4065 8e3e bca4 a43e e7d2 abbe
000002c0: c5f0 42bf f9b3 4d3c 6d20 cc3e 0222 d8be
000002d0: 0764 d0be 27f3 7f3d 161b 1e3f c2ca 6fbd
000002e0: 857f 49bf 0fea f13e dc06 dcbe 6c54 fdbe
000002f0: 99d4 ffbe 4f43 033f 9f48 193f f4f5 43be
00000300: 7cfe 223e a6fd 18bc bbcb 963e 793f b03e
00000310: c9fb 463e 781b bebe 6851 3e3d 3e6b e1be
00000320: e03f e33d dce9 163e 110e b03c 9754 09be
00000330: 7684 2bbe 2056 afbe 4478 b9bd da37 f0be
00000340: 9201 0f3f 0cd5 d13e f02d a93e c01a 873d
00000350: 8d10 9abe 3a2e 39bd 0a30 893e 9724 cbbe
00000360: c7ca 3a3e 07b4 dc3e f321 483f bd6e b5be
00000370: 3192 0bbe 8752 873e 4689 393e cbcd 2abe
00000380: afc1 2fbf 0889 bfbe 6885 c4be baf2 703e
00000390: 360b 183d e319 1ebe aaca bfbb 52b6 903e
000003a0: 2118 453e 5c85 0cbf ba2e 2abf 01f8 2d3e
000003b0: 3a32 1e3f 081f 61bd 8584 a2be 8af7 203f
000003c0: be88 a13e dede 58be 2b4a 5abe d09f 0f3e
000003d0: 2de1 093f 6063 abbe bbd1 ffbd 0b3c 203e
000003e0: 87f8 a1be e56e 13bf 4014 76be 867c f13e
000003f0: 914f 243e 3c3a c5bd 63d9 33be 36ec 9d3e
-0.22985281 0.60336035 0.041397795 -0.049647253 0.45007566 0.30515078 0.084582284 -0.33534807
-0.097798735 0.46743503 -0.3073927 -0.3944645 0.67071086 0.40209532 0.09619353 -0.1274833
-0.07803778 0.10883727 -0.17297673 -0.4215742 -0.01914547 0.40603095 0.13535748 0.46662194
-0.16855867 0.24321377 -0.33363706 -0.3457689 0.20837088 0.72544456 -0.3087713 0.13605264
-0.051368233 -0.65218776 0.46468398 0.107681826 -0.43133903 0.29704958 0.15651321 -0.14905544
0.4618517 -0.62317234 0.027579037 0.47027385 -0.114519715 0.36150187 0.053117704 -0.44473663
0.2820297 -0.62070465 0.44782364 0.614687 -0.22441846 -0.020972209 0.35940015 -0.24431486
0.26144996 0.025270294 0.012103084 0.17100802 -0.356146 -0.072441585 0.3658484 -0.64375514
0.49724242 -0.2883131 0.63787836 -0.32081014 -0.40541002 -0.5331732 0.33571097 -0.37105092
-0.024727086 -0.29708746 0.57973933 -0.03317151 -0.4496963 -0.48564062 -0.08757592 -0.34754276
-0.16545346 -0.5071423 0.36497736 -0.21294123 -0.114063084 -0.103028014 0.13841656 0.04789379
-0.104590215 -0.6881151 0.6631956 -0.11041927 -0.30847746 0.16583651 0.009139327 -0.022019112
0.48549348 -0.59315354 0.4720606 -0.08844379 0.21859121 0.54354894 -0.31179622 0.4920458
0.12979276 -0.31655645 0.27322194 0.19816591 0.20657095 0.4846788 -0.59742266 0.2222367
0.17026262 0.02238 0.29313484 0.36769527 0.44394735 0.18448503 -0.23045874 0.36684683
0.34617954 -0.08709149 -0.12282211 0.3627155 0.13499258 -0.016386185 -0.25941786 0.06644376
-0.39005756 0.48432088 -0.37258565 -0.38707605 -0.08739743 -0.028394751 0.2901381 -0.6003508
-0.08362727 0.3591144 -0.0050339345 0.09111071 -0.12708539 -0.3217254 0.47881678 -0.21111013
-0.38942644 0.5848119 0.6473254 -0.4424173 -0.41250345 -0.3037123 0.47034362 -0.19883808
-0.20233048 0.054064643 0.5237592 -0.27334875 -0.47227088 0.032561094 0.21996945 -0.3358036
0.49896207 0.15758787 0.25314853 -0.2588026 -0.18155657 0.06445094 0.45536086 -0.35448077
-0.60007674 0.19950059 -0.06319799 -0.5181618 -0.47416285 0.27811623 0.32156932 -0.33559343
-0.76148635 0.012555116 0.3986849 -0.42213446 -0.40701315 0.062487748 0.6176008 -0.058542974
-0.78710204 0.47248885 -0.42973983 -0.4947847 -0.49966887 0.5127458 0.59876436 -0.19136792
0.1591739 -0.009337818 0.2945231 0.34423426 0.19431986 -0.37130332 0.046464354 -0.44027132
0.110961676 0.14737648 0.021491082 -0.13411175 -0.16749749 -0.34245396 -0.09056142 -0.4691761
0.5586177 0.40982854 0.3304286 0.06596899 -0.30090752 -0.0452101 0.26794463 -0.39676353
0.18241416 0.431061 0.781768 -0.3543605 -0.13629986 0.2643015 0.18118772 -0.16680066
-0.6865491 -0.37409234 -0.3838303 0.23530093 0.037120067 -0.15439562 -0.005853017 0.282641
0.19247486 -0.5489099 -0.6647755 0.16989137 0.6179539 -0.054961234 -0.3174173 0.62877715
0.31549639 -0.21178767 -0.21317355 0.14025807 0.53859216 -0.33474255 -0.12491175 0.15647905
-0.31634924 -0.57591087 -0.24031162 0.47165316 0.16045977 -0.09630248 -0.17563395 0.30844277

b f4 [32]
00000000: 0af3 edbd 9bef a23e 18d1 383e dfb7 47be
00000010: a023 c03e 7be3 acbe 276d ab3e a424 73be
00000020: 4886 af3e 4424 dbbd e0b9 f63d 438d 7d3c
00000030: aeba a7be e0ea adbe 59b3 0c3f 9481 3d3e
00000040: b6a0 473e c2bf 333e d440 b6be 6f37 bc3e
00000050: 2d37 f23d d183 be3e a8b4 ce3e d5b1 b9be
00000060: e57b 6abe a89c dbbe 6002 5b3c 5c4b bebe
00000070: 3284 c2bd ca38 aebe 8d7a 5c3e f1f5 50be
-0.11618622 0.3182343 0.18048513 -0.19503735 0.3752718 -0.33767304 0.33481714 -0.23744446
0.34282136 -0.107002765 0.120471716 0.015475574 -0.32759613 -0.33968258 0.5496116 0.18506461
0.194949 0.17553619 -0.35596335 0.36761042 0.1182693 0.37209943 0.40372205 -0.36268488
-0.22898825 -0.42892957 0.013367265 -0.3716687 -0.094978705 -0.34027702 0.21531124 -0.20406319

W1 f4 [32, 128]
00000000: c307 983e 050b c83e cba3 5d3e 00b0 02bf
00000010: 3143 963e 1f28 f5be 9d7f e6bd 4608 c9be
00000020: 27e4 273e 3a98 92be 8bbc 063c b51f a0be
00000030: dff2 b83d 66fa b33e ffc1 e73e 60c2 b53d
00000040: 51f5 d03e 51f3 babe 1b1e 2cbd 8d0e 5b3e
00000050: 3b92 aa3e df50 4a3e 9a85 cbbe 4d84 423e
00000060: e9e5 323e a200 553e 5132 87bd ab8f f03e
00000070: dc0f 3dbd 55d4 c53e 1024 1ebf c26f 573e
00000080: 7449 fa3d 9d57 f5be cf09 463e 5e5e a2be
00000090: d79e f83e 641b 5a3d b2b4 b2be 532e ad3e
000000a0: bce1 05bf b248 363e ac33 833e d093 f9be
000000b0: 66ce aa3d 3c93 a83e 5543 00be 9a52 3dbe
000000c0: 4391 5c3e 98dc a6be 4a90 15bd b76f 713e
000000d0: 7a4d 903d 7732 45bd 4377 a93c 47e2 dd3c
000000e0: 34a5 8a3e bb51 963d ab68 903e e0d2 81be
000000f0: ec87 f63e 7c7e 743c 08a2 763e 6257 a2be
00000100: 08c8 a9be ac72 d33e d0f6 94be 3107 f03e
00000110: a7c2 bbbe 5e6c 96be 0aef a53e 8165 fa3e
00000120: b93f 8bbd 19a8 8a3e 0260 27be da02 a1be
00000130: af20 90be f470 8a3e 933c 323d 9431 04bf
00000140: d9aa a3be 524d 003f dea4 8dbe 8c21 983e
00000150: b5f9 d4bc b1c8 49be d5b1 f23d a2c4 a2be
00000160: bbb8 ebbe 158b a03e 1acc 86be d32e f43e
00000170: ae98 b23e 670c 113e 55fd 46be 1af1 f4be
00000180: 18e1 583e a74f 00bf af3f 13be 553b 333e
00000190: 4449 b43e cdac f73e 34c1 aabe 85f8 ea3e
000001a0: 5567 a4bd b7ac 45be a572 fabe c403 08be
000001b0: dbf7 ebbd cedf 143f 8998 a7bd 816f 55be
000001c0: dc27 143e d455 8cb9 a0bc c73e 60b7 c0be
000001d0: ce04 063f 728a a23e 3175 8abe 6cc2 97be
000001e0: f27b 1d3e 3996 eebe 6c89 9e3e 48b4 cfbe
000001f0: 3ad6 5b3e 2590 c4be a175 ee3e 98a5 bbbe
00000200: af6c eebe 10b7 03bf f405 e3be 3632 593e
00000210: 1d4b e0be eb22 e53e 331b 0cbe 9ff6 17bf
00000220: cedf f0be 13f8 76bc 81ce d0bd 73c5 293e
00000230: 8626 803e a001 6cbd cccb d53d ebce 38be
00000240: 0399 07be a1f0 4abe 956b 0ebf c6ff 953e
00000250: a540 e93e 0b5b fabe b212 f33e bc0c cc3c
00000260: c3f7 993e 5f70 1abd 6d47 b33d c01d db3e
00000270: 0337 a03e f99b f9bd 91eb d23e 755a cebe
00000280: cc4d 28bd 85da 08be 6a00 21be d790 f1be
00000290: 8b56 56be 40c4 5d3d 5c35 093e cf30 cb3e
000002a0: 67ec b8be c9a3 543e ab39 d3be c9c3 9ebe
000002b0: a833 a43e d036 6e3e 351a a73e d678 433d
000002c0: 8cce 01bf 1e2e b7be 3571 da3c 2385 66be
000002d0: 66ee 973e 5b9f 5d3e 56a0 be3e f23b 45be
000002e0: 542a 823d a0c6 afbe 09f5 34be 1ee9 a5be
000002f0: ebe6 dbbe d4ef f7be 9440 3fbe 035a 8cbe
00000300: ada0 d13e fdfb 4ebe b0ab 99be 83f3 8dbd
00000310: 9ab0 07bf 2e1c ae3d 8e84 8bbd bec4 b6be
00000320: 0f06 1dbe b06c bfbe ec08 0cbf babb 903d
00000330: b641 6c3e c309 1dbd 32c5 4e3e ffb5 ef3e
00000340: cea7 90bb d50c 2d3e 9cac a1be 1595 bcbe
00000350: 5527 b7be 5ed1 dd3b 0755 8abe 7c3d 813e
00000360: ebe6 2e3c 9dd4 c63e 946c 153e b03f c4be
00000370: 9d66 e0be 52fd c93d 9b6d 9a3c 54c1 aabe
00000380: 2489 3e3f fe61 d03e 7cdb 69be b978 e2be
00000390: 4795 b33e 1f65 bebe ebfe 083e 63ff 6bbe
000003a0: bdd3 ec3d d4b9 9fbe 54a5 b53d f771 9b3c
000003b0: 1e17 babe 64f6 e03d 2d81 e13d 1791 793e
000003c0: 717f b0be 48f2 b03e 75b0 623e b356 ae3e
000003d0: a04f edbd db97 88be 5a80 babe 73c2 1fbe
000003e0: ddc3 b6be cda5 17be c0a2 84be f31f 6a3e
000003f0: f6cd 43be 247d 023f 8bec c8be 9fbf 413e
0.29693422 0.39070907 0.21644513 -0.51049805 0.29348138 -0.47882172 -0.11254809 -0.39264125
0.16395627 -0.28631765 0.008223663 -0.3127419 0.09030699 0.35151976 0.45265195 0.08874965
0.40812162 -0.3651376 -0.0420209 0.2139227 0.3331469 0.19757412 -0.39750367 0.18995781
0.17470516 0.20801023 -0.06601394 0.4698461 -0.046157703 0.3863856 -0.61773777 0.21038726
0.12221041 -0.47918406 0.19339679 -0.3171262 0.48558685 0.053248778 -0.34903485 0.33824405
-0.5229757 0.17801169 0.2562536 -0.48745584 0.08340149 0.3292483 -0.12525685 -0.18488541
0.21539788 -0.32590175 -0.036514558 0.23577772 0.070460275 -0.04814383 0.020686751 0.027085437
0.27079165 0.073398076 0.28204855 -0.25356197 0.48150575 0.014922734 0.24085248 -0.31707293
-0.33160424 0.41298425 -0.29094553 0.46880487 -0.36671945 -0.29379553 0.32408935 0.48905566
-0.067992635 0.27081373 -0.16345218 -0.31447488 -0.28149936 0.270393 0.0435148 -0.5163815
-0.31966284 0.5011798 -0.27664846 0.29713094 -0.025997976 -0.19705464 0.11850325 -0.31790644
-0.46039376 0.3135611 -0.26327592 0.47691974 0.3488211 0.14164887 -0.19432576 -0.47840196
0.21179616 -0.5012154 -0.14379762 0.17503102 0.35212147 0.48374024 -0.33350527 0.4589273
-0.080275215 -0.19304167 -0.48915592 -0.13282686 -0.11521884 0.58154 -0.08183391 -0.20843317
0.1446833 -0.00026766828 0.39011097 -0.37639904 0.5235108 0.3174625 -0.27042535 -0.2964052
0.15379313 -0.46598986 0.3096422 -0.4056723 0.2146844 -0.38391224 0.4657412 -0.36649776
-0.46567294 -0.51451206 -0.4434048 0.2121056 -0.43807307 0.44753203 -0.1368225 -0.5936069
-0.4704575 -0.015073794 -0.101956375 0.16579227 0.2502939 -0.057618737 0.10439262 -0.18047683
-0.13241963 -0.19818355 -0.5563291 0.29296702 0.45557132 -0.48897585 0.474752 0.024908416
0.3007184 -0.03770482 0.08753858 0.42796135 0.3129197 -0.121879525 0.41195348 -0.40303388
-0.041089818 -0.13364609 -0.15722814 -0.47180817 -0.20931451 0.054142237 0.13399261 0.39685676
-0.3611786 0.20765604 -0.41254935 -0.31008747 0.3207066 0.23263097 0.32637182 0.04772266
-0.5070579 -0.35777372 0.02666531 -0.22511725 0.2967407 0.2164282 0.37231702 -0.19261149
0.0635573 -0.34331226 -0.17671598 -0.32404417 -0.42949614 -0.48425162 -0.18676978 -0.27412423
0.40942898 -0.20213313 -0.300138 -0.06931212 -0.5300385 0.085014686 -0.06812392 -0.35696977
-0.15334342 -0.3738761 -0.54701114 0.07067056 0.23071942 -0.038339388 0.20192412 0.4681854
-0.004414535 0.16899426 -0.31577003 -0.3683249 -0.35772195 0.0067693433 -0.27017996 0.2524222
0.010675172 0.38834086 0.145922 -0.3832984 -0.43828288 0.0986277 0.018851092 -0.33350623
0.7442801 0.40699762 -0.22837633 -0.4423273 0.35074827 -0.37186524 0.13378493 -0.23046641
0.11563823 -0.31196463 0.088694245 0.018975241 -0.36345762 0.10984495 0.110109664 0.24371754
-0.3447223 0.34559846 0.22137626 0.3405052 -0.11587453 -0.26678357 -0.3642605 -0.1560152
-0.35696307 -0.14809342 -0.25905418 0.2286375 -0.19121537 0.509722 -0.39242968 0.18920754

b1 f4 [128]
00000000: 22e0 92be 6ff2 91be 5de6 8bba d367 b23e
00000010: 1a15 5abe a4ba 20be 12a4 50be bd61 a23e
00000020: 7352 b13e bf88 c93e f217 29be 3ea2 1abe
00000030: 684c a83e 71b5 61be 70f3 553e da9a 58be
00000040: 7e3b 8c3d 5775 c8bd e7a4 3fbe f461 b5bd
00000050: 87f1 a4be 8002 68be 2357 aa3e 56a1 a03e
00000060: 4775 3cbe 2d06 a1be 7f32 83bc 41c5 5d3e
00000070: 95f5 54be a92a 3abe 040a ab3e 7691 3fbe
00000080: 2ee5 5dbe 11bf 0f3e 3160 3fbe 4312 a4be
00000090: b45b 5cbe 2bc6 a93e 93fe d8be b51b f23d
000000a0: 88d4 25be 2df6 313e 9796 913e 7a4b abbe
000000b0: 6066 3c3e 41d0 9d3e 180e 7a3e 8b83 abbd
000000c0: 685a 0a3e a4dd 21be bdef 6dbd 614c 39be
000000d0: cb39 2ebd fa1d a93e 50d6 633e 237d aebe
000000e0: 3dc4 123e b730 6bbe 4b42 ad3e 50b9 d0be
000000f0: f361 b4be cab0 97be 0ac7 41be 32ea 483e
00000100: 2c52 ab3e a842 d0be 5469 b8be d807 733e
00000110: 8c0f e2bd 1a23 ad3e 3acf dbbe 3ff1 afbd
00000120: 7e68 c0be c600 08be 61ea a6bb 5a46 993d
00000130: 65b7 be3e a603 37be 6d64 a43e b62b 7b3e
00000140: 286d a9be 6229 79be 158a aebe 3215 e6be
00000150: 8e31 bdbe cf85 d63e 8d9b 6cbe 20e6 8b3e
00000160: e66c 4abe 679e 743e 0d36 fa3d 6271 b43e
00000170: ccdd acbe aef5 a7be b9d4 c7bd 0125 bcbe
00000180: 2b01 d03e 3488 ae3e 576a cfbe 54ef c2be
00000190: 5e25 4fbe 0f8a 31be 8923 c23e eaa0 b83e
000001a0: b6c6 ffbd 1f4f c3be 661b af3e a916 b5be
000001b0: 7bb2 82be 2153 ae3e 95b9 943e e425 a83e
000001c0: 1204 b33d fc1b ae3e 85de 9d3e d3ed a93e
000001d0: 1706 f5be 0832 d6be d9ea d1be d15b 27be
000001e0: f15c 5bbe 0a52 20be 47f6 efbd 852f af3e
000001f0: 17b3 a13e 40e5 783e 2ecd b3be 8994 b13e
-0.28686625 -0.28505275 -0.0010673512 0.34844837 -0.21297112 -0.15696198 -0.20375088 0.31715193
0.34633216 0.3936214 -0.1651304 -0.15100953 0.32870793 -0.2204187 0.20893645 -0.21152821
0.06847285 -0.09788006 -0.18715249 -0.08856574 -0.3221552 -0.22657204 0.33269605 0.3137309
-0.18404113 -0.31450024 -0.01601529 0.21657278 -0.20796807 -0.18180336 0.3340608 -0.18707833
-0.21669456 0.1403773 -0.18689038 -0.32045183 -0.21519357 0.33159003 -0.42381725 0.11821691
-0.16194355 0.17379065 0.28435203 -0.33456022 0.18398428 0.30822948 0.24419439 -0.08374699
0.1351105 -0.15807205 -0.05808996 -0.18095542 -0.042535584 0.33030683 0.22249722 -0.34079847
0.14332671 -0.22967802 0.3383964 -0.40766382 -0.3523098 -0.29627067 -0.18923584 0.19620588
0.3346113 -0.40675855 -0.3601786 0.23733461 -0.110381216 0.33815843 -0.4293154 -0.08590936
-0.3757972 -0.13281545 -0.005093858 0.074841216 0.37249294 -0.17872486 0.3210787 0.24528393
-0.33091092 -0.24332193 -0.34089723 -0.44938046 -0.3695187 0.41898963 -0.23106213 0.2732401
-0.19768104 0.2388855 0.122173406 0.35242754 -0.33762968 -0.32804626 -0.097573705 -0.36746982
0.4062589 0.3408829 -0.40510818 -0.38073218 -0.20229098 -0.17337821 0.37917736 0.36060268
-0.12489073 -0.38146302 0.3420059 -0.3536885 -0.25526795 0.34047797 0.29047838 0.32841408
0.08741011 0.34005725 0.3083383 0.33189258 -0.4785621 -0.41835046 -0.40999487 -0.16343619
-0.21422173 -0.15656295 -0.117168956 0.34215942 0.31581947 0.24306202 -0.35117477 0.34683636
