saved_models/model-epoch-14.pth (torch, 21314 bytes, 19 tensors)

embeddings f4 [99, 8]
0	0x3fd028ff	1.6262511
1	0xbd63fa3b	-0.05565856
2	0x3fc520cc	1.5400634
3	0x400f2d4b	2.2371395
4	0xbea58acd	-0.3233246
5	0x3fc46cdb	1.534572
6	0xbf2d9101	-0.67799383
7	0x3f9a3584	1.2047582
8	0x3f9ef3b9	1.2418128
9	0xbfde7274	-1.7378678
10	0x3f74870d	0.9551857
11	0x3fad7e8a	1.3554242
12	0xbf2565f3	-0.6460869
13	0x3fcb4889	1.5881511
14	0x3d915b9a	0.0709755
15	0x403e2cc5	2.9714825
16	0x3fff62aa	1.9951985
17	0x3f86a917	1.0520352
18	0x3f9ff0d2	1.2495368
19	0xbd8e653a	-0.06952901
20	0xbf9b70c2	-1.2143786
21	0x3f4e0fd8	0.80492926
22	0xbf0a878d	-0.54113084
23	0xbfd0aa0e	-1.6301897
24	0xc01f8e64	-2.4930658
25	0x3e37ffac	0.17968625
26	0xbfee7698	-1.8629942
27	0xbfabcb6e	-1.3421457
28	0x402e260d	2.7210724
29	0xc029e33c	-2.6544943
30	0xbe60998f	-0.21933578
31	0x3fc98b3b	1.5745615
32	0xbe78653a	-0.24257365
33	0x3fef54d7	1.8697766
34	0x3f335775	0.70055324
35	0xbf49cd51	-0.7882891
36	0xbfbda591	-1.4816152
37	0xbd34a43a	-0.04410193
38	0xbf8a07ad	-1.0783592
39	0xbd3eef66	-0.046615027
40	0x3fd1aaeb	1.6380285
41	0x3ec1f9f9	0.37886027
42	0x3fc25731	1.5182859
43	0x40170c9d	2.3601449
44	0xc00e732a	-2.225779
45	0x40085335	2.1300786
46	0xbfc0915f	-1.5044364
47	0xbd91069e	-0.0708134
48	0x3fbaf845	1.4607016
49	0x3f82762f	1.0192317
50	0x3f24294c	0.64125514
51	0x4011ebea	2.280024
52	0xbef351e1	-0.47523406
53	0x3fdc21e9	1.7197849
54	0xc0040dd6	-2.0633445
55	0x3dbdb725	0.09263448
56	0xbe43095a	-0.19046536
57	0xbfa345f0	-1.2755718
58	0x3fcd5707	1.6042184
59	0x3fe4ab5b	1.7864794
60	0x3fab838e	1.3399522
61	0x3f68b4c9	0.90900856
62	0xc03e4d18	-2.9734554
63	0x40267487	2.6008623
64	0x3fa8a226	1.3174484
65	0xbddd6163	-0.10809591
66	0xbf1fd80a	-0.62439024
67	0xbd90e2eb	-0.07074531
68	0xbffbcd1e	-1.9671972
69	0x3eb88d37	0.36045238
70	0xbf54b948	-0.83095217
71	0x3f2d28bf	0.676403
72	0x3f864042	1.048836
73	0xbfd1456b	-1.634931
74	0x3f5ed423	0.87042445
75	0xbf3a1ea4	-0.72703004
76	0x3f32cb21	0.698412
77	0x3f4a138a	0.78936064
78	0xbfe90230	-1.8203793
79	0x3e9f9293	0.31166515
80	0x3f04bc53	0.5184986
81	0xbf94258c	-1.1573958
82	0xbebb41bf	-0.36573598
83	0x3fdffc55	1.7498881
84	0xbfb0da22	-1.3816569
85	0x401027f7	2.2524393
86	0xbf711eff	-0.9418792
87	0x3feb6931	1.8391477
88	0xbfda38a3	-1.7048534
89	0xbf7a8d35	-0.97871715
90	0xc006aed2	-2.1044202
91	0xbef8453a	-0.48490316
92	0x3fae5caa	1.3622029
93	0xbf97cc3b	-1.1859201
94	0x3ec71890	0.38885927
95	0xbe7050c1	-0.23468305
96	0x3f35c794	0.7100766
97	0xc03cb8ab	-2.9487712
98	0xbf92b4dc	-1.1461444
99	0x4027fb9b	2.6247318
100	0xc045e6ec	-3.0922194
101	0x4022dddd	2.5447915
102	0xbed00c0f	-0.406342
103	0x3fe5d521	1.7955667
104	0x3f7ae507	0.9800572
105	0xbf384560	-0.7198086
106	0x3fe5c5fa	1.7951043
107	0x3fe974d0	1.8238773
108	0x3f9ba657	1.2160138
109	0xbda3bebc	-0.07995364
110	0x3fa6604e	1.299814
111	0x3fcfba49	1.6228725
112	0xbe93124f	-0.28724906
113	0xbe1691ea	-0.147041
114	0xbf37dafd	-0.71818525
115	0xbedda055	-0.43286386
116	0x3f526272	0.82181466
117	0xbf8c8855	-1.0979105
118	0x3f83e526	1.0304306
119	0xbf36cf37	-0.71409935
120	0x3fd9d11e	1.7016943
121	0x3f1a5b23	0.60295314
122	0x3f81df14	1.0146203
123	0x405245a5	3.2855008
124	0xbfca8c55	-1.5824076
125	0x3ffdd782	1.9831393
126	0xbf1eb4e6	-0.6199478
127	0x3ea508cf	0.32233283
128	0xbf633006	-0.8874515
129	0xbfdd72e8	-1.7300692
130	0xbc255254	-0.010090429
131	0xbf2ef94a	-0.68349135
132	0x4005ffcc	2.0937376
133	0xc01cb5a6	-2.448587
134	0x40268fd6	2.602529
135	0x3f7404b0	0.9531965
136	0x3f216a8e	0.63053215
137	0x3e001695	0.12508614
138	0x3f7b66cf	0.9820375
139	0x3f269c68	0.65082407
140	0x3fe7eab7	1.8118504
141	0x3feecb6a	1.8655827
142	0xc00314e3	-2.0481498
143	0x3fa165b4	1.2609162
144	0x400f8c20	2.2429276
145	0xc0051951	-2.0796702
146	0x3ff32a89	1.8997356
147	0x3fb8f3e7	1.4449433
148	0x3f9287d9	1.1447707
149	0x3f8c49f0	1.0960064
150	0x3e9b6b05	0.30355087
151	0x3fe4e6b9	1.7882911
152	0x3fbc34a2	1.4703562
153	0x40052e5e	2.080955
154	0x3f935998	1.1511717
155	0x3f60b84d	0.8778122
156	0xc013523f	-2.301895
157	0x3fc7dd72	1.5614455
158	0xbff981be	-1.9492719
159	0x3ebc5aca	0.36788017
160	0xbe94f430	-0.2909255
161	0xbebd7363	-0.37002096
162	0xbe7b888b	-0.24563806
163	0xc0072531	-2.111645
164	0x4064a794	3.5727282
165	0xbf9f1bca	-1.2430356
166	0x3f0efd5f	0.55855364
167	0xbf479181	-0.77956396
168	0x40182d95	2.377782
169	0x3fb95afc	1.4480891
170	0x4016cd24	2.3562708
171	0x3fd3097f	1.6487273
172	0xbff3d7be	-1.9050214
173	0x3fb03374	1.3765702
174	0xbfbcaca3	-1.4740185
175	0x3ff0f813	1.8825706
176	0x3fe49517	1.7857999
177	0x3e9b4d50	0.30332422
178	0x40270056	2.6093955
179	0x400e416a	2.2227426
180	0xbfc582d8	-1.5430555
181	0x3ff463ff	1.9093016
182	0xbfee45b9	-1.8615028
183	0x3ef88636	0.48539895
184	0xbfd5ac72	-1.6693251
185	0xbd1e4fdc	-0.03865038
186	0xbfd7ef39	-1.686988
187	0x3dc22543	0.09479763
188	0x3e675003	0.22589116
189	0xbf4fdef2	-0.8119956
190	0xc0217fcf	-2.5234258
191	0x3ee00675	0.43754926
192	0x3eae5be6	0.34054488
193	0xbeed6447	-0.46365568
194	0x3fcbdec3	1.5927356
195	0x3f422b6c	0.75847507
196	0x4004ad60	2.073082
197	0xbfd9dfc0	-1.7021408
198	0x3fc28b0e	1.5198686
199	0x3d8a41d2	0.067508355
200	0xc022682a	-2.5376077
201	0x402cac8e	2.698032
202	0xbfbf21f6	-1.4932239
203	0xbfe0a4d9	-1.7550308
204	0x3fa43e2c	1.2831473
205	0xc01388db	-2.305228
206	0x3f778622	0.96689045
207	0xc00fadbd	-2.2449791
208	0x3f635301	0.8879853
209	0xbed7e852	-0.42169434
210	0x3f88b0f6	1.0679004
211	0x3f485a03	0.78262347
212	0xbf3a62cc	-0.72807
213	0x3f1acb21	0.604662
214	0xbf802280	-1.0010529
215	0xbf346024	-0.704592
216	0x3feb3887	1.8376626
217	0x3f1e0b5c	0.61736083
218	0x3f5df08e	0.8669518
219	0x404e76ee	3.226009
220	0xbfdd9611	-1.7311422
221	0x3f1a3f5f	0.60252947
222	0xc0122e28	-2.2840672
223	0x40399935	2.899976
224	0x3fe50e8f	1.7895068
225	0xbf8cc73d	-1.0998303
226	0x400c4855	2.1919148
227	0x3f4a75c3	0.7908594
228	0xbf18ff3e	-0.5976447
229	0x3f360b72	0.71111214
230	0xbfd33f3f	-1.6503676
231	0x3fa4b5c1	1.2867967
232	0xbe1456b8	-0.14486206
233	0x3f7704b1	0.96491534
234	0x3d23f5d1	0.04002935
235	0xbf54bc13	-0.8309948
236	0xbf2f39d3	-0.6844761
237	0x3e3913c2	0.18073943
238	0xbff861ca	-1.9404843
239	0xbd9fce4e	-0.07803021
240	0x3fd00f9f	1.6254767
241	0x3fa63e36	1.2987735
242	0x3f455c82	0.7709428
243	0x3e7a611e	0.2445111
244	0xbff425a5	-1.9073988
245	0x3f8d54cd	1.1041504
246	0xbee9a893	-0.45636424
247	0x3fc43f7c	1.5331874
248	0x3f3b52cf	0.7317323
249	0x3f68742c	0.90802264
250	0x3f52c199	0.82326657
251	0x3fef4f22	1.8696024
252	0xbfbcbbb9	-1.4744788
253	0x40025a6f	2.0367696
254	0xbfe981c4	-1.8242726
255	0x40108f28	2.2587376

_pos_embeds f4 [64, 8]
0	0x00000000	0.0
1	0x3f800000	1.0
2	0x00000000	0.0
3	0x3f800000	1.0
4	0x00000000	0.0
5	0x3f800000	1.0
6	0x00000000	0.0
7	0x3f800000	1.0
8	0x3f576aa4	0.84147096
9	0x3f0a5140	0.5403023
10	0x3dcc7576	0.099833414
11	0x3f7eb898	0.9950042
12	0x3c23d657	0.009999833
13	0x3f7ffcb9	0.99995
14	0x3a83126d	0.0009999998
15	0x3f7ffff8	0.9999995
16	0x3f68c7b7	0.9092974
17	0xbed51133	-0.41614684
18	0x3e4b6ff9	0.19866933
19	0x3f7ae5a5	0.9800666
20	0x3ca3d43e	0.019998666
21	0x3f7ff2e5	0.9998
22	0x3b031269	0.0019999987
23	0x3f7fffde	0.999998
24	0x3e1081c3	0.14112
25	0xbf7d7026	-0.9899925
26	0x3e974e6d	0.29552022
27	0x3f7490ef	0.9553365
28	0x3cf5b920	0.029995501
29	0x3f7fe283	0.99955004
30	0x3b449b93	0.0029999956
31	0x3f7fffb5	0.9999955
32	0xbf41bdcf	-0.7568025
33	0xbf275530	-0.6536436
34	0x3ec761d7	0.38941833
35	0x3f6bcaa7	0.921061
36	0x3d23cbdb	0.039989334
37	0x3f7fcb94	0.9992001
38	0x3b831258	0.0039999895
39	0x3f7fff7a	0.999992
40	0xbf757c10	-0.9589243
41	0x3e913c2c	0.2836622
42	0x3ef57744	0.47942555
43	0x3f60a940	0.87758255
44	0x3d4cb6f5	0.04997917
45	0x3f7fae19	0.99875027
46	0x3ba3d6de	0.0049999794
47	0x3f7fff2e	0.9999875
48	0xbe8f0f8c	-0.2794155
49	0x3f75cdb8	0.96017027
50	0x3f108c69	0.5646425
51	0x3f534932	0.8253356
52	0x3d759cd1	0.059964005
53	0x3f7f8a12	0.99820054
54	0x3bc49b59	0.005999964
55	0x3f7ffed2	0.999982
56	0x3f283046	0.6569866
57	0x3f40ffbd	0.75390226
58	0x3f24eb73	0.64421767
59	0x3f43ccb3	0.7648422
60	0x3d8f3e32	0.06994285
61	0x3f7f5f81	0.997551
62	0x3be55fc7	0.006999943
63	0x3f7ffe65	0.9999755
64	0x3f7d4695	0.98935825
65	0xbe14fdf6	-0.14550003
66	0x3f37a4a6	0.7173561
67	0x3f325b5f	0.6967067
68	0x3da3aa51	0.0799147
69	0x3f7f2e66	0.99680173
70	0x3c031213	0.007999915
71	0x3f7ffde7	0.999968
72	0x3ed30132	0.4121185
73	0xbf693fd5	-0.91113025
74	0x3f48881d	0.7833269
75	0x3f1f21d5	0.62161
76	0x3db8123f	0.08987855
77	0x3f7ef6c2	0.9959527
78	0x3c13743a	0.008999879
79	0x3f7ffd59	0.9999595
80	0xbf0b44f8	-0.5440211
81	0xbf56cd64	-0.8390715
82	0x3f576aa4	0.84147096
83	0x3f0a5140	0.5403023
84	0x3dcc7576	0.099833414
85	0x3f7eb898	0.9950042
86	0x3c23d657	0.009999833
87	0x3f7ffcb9	0.99995
88	0xbf7fff5c	-0.9999902
89	0x3b910572	0.004425698
90	0x3f64262a	0.89120734
91	0x3ee83dc0	0.45359612
92	0x3de0d372	0.1097783
93	0x3f7e73e8	0.9939561
94	0x3c34386a	0.010999778
95	0x3f7ffc09	0.9999395
96	0xbf095cd8	-0.53657293
97	0x3f5806d0	0.84385395
98	0x3f6e9a1d	0.9320391
99	0x3eb986f5	0.36235777
100	0x3df52bac	0.119712204
101	0x3f7e28b5	0.99280864
102	0x3c449a71	0.011999712
103	0x3f7ffb48	0.999928
104	0x3ed72022	0.42016703
105	0x3f684e6f	0.9074468
106	0x3f76abc0	0.9635582
107	0x3e88f59b	0.26749882
108	0x3e04bed0	0.12963414
109	0x3f7dd700	0.9915619
110	0x3c54fc6b	0.012999634
111	0x3f7ffa76	0.9999155
112	0x3f7d9872	0.9906074
113	0x3e0c04d7	0.13673721
114	0x3f7c466f	0.98544973
115	0x3e2e0bde	0.16996714
116	0x3e0ee464	0.13954312
117	0x3f7d7ecc	0.990216
118	0x3c655e56	0.013999542
119	0x3f7ff994	0.999902
120	0x3f267944	0.65028787
121	0xbf427ae8	-0.7596879
122	0x3f7f5bd5	0.997495
123	0x3d90deaa	0.0707372
124	0x3e19064f	0.14943813
125	0x3f7d201a	0.9887711
126	0x3c75c033	0.014999437
127	0x3f7ff8a1	0.9998875
128	0xbe936810	-0.2879033
129	0xbf75292c	-0.9576595
130	0x3f7fe40e	0.9995736
131	0xbcef33d6	-0.029199522
132	0x3e232450	0.15931821
133	0x3f7cbaed	0.98722726
134	0x3c831100	0.015999317
135	0x3f7ff79d	0.999872
136	0xbf761e25	-0.96139747
137	0xbe8ce236	-0.27516335
138	0x3f7dddbf	0.9916648
139	0xbe03efd0	-0.1288445
140	0x3e2d3e23	0.16918235
141	0x3f7c4f49	0.9855848
142	0x3c8b41de	0.016999181
143	0x3f7ff688	0.9998555
144	0xbf4040b3	-0.75098723
145	0x3f290a84	0.6603167
146	0x3f794e14	0.9738476
147	0xbe68a7aa	-0.22720209
148	0x3e375387	0.17902957
149	0x3f7bdd2e	0.9838437
150	0x3c9372b3	0.017999029
151	0x3f7ff562	0.999838
152	0x3e197969	0.1498772
153	0x3f7d1bbf	0.9887046
154	0x3f7240b9	0.9463001
155	0xbea58636	-0.32328957
156	0x3e41643a	0.1888589
157	0x3f7b64a1	0.9820042
158	0x3c9ba37e	0.018998858
159	0x3f7ff42c	0.9998195
160	0x3f69b6c8	0.9129453
161	0x3ed0f022	0.40808207
162	0x3f68c7b7	0.9092974
163	0xbed51133	-0.41614684
164	0x3e4b6ff9	0.19866933
165	0x3f7ae5a5	0.9800666
166	0x3ca3d43e	0.019998666
167	0x3f7ff2e5	0.9998
168	0x3f562f10	0.8366556
169	0xbf0c37fc	-0.54772925
170	0x3f5cfb4a	0.86320937
171	0xbf013d98	-0.5048461
172	0x3e557683	0.2084599
173	0x3f7a603c	0.9780309
174	0x3cac04f5	0.020998457
175	0x3f7ff18d	0.9997795
176	0xbc110515	-0.008851309
177	0xbf7ffd6f	-0.99996084
178	0x3f4ef99f	0.8084964
179	0xbf16a802	-0.5885011
180	0x3e5f7796	0.21822962
181	0x3f79d46a	0.97589743
182	0x3cb4359f	0.021998225
183	0x3f7ff024	0.999758
184	0xbf58a1e7	-0.84622043
185	0xbf0867bf	-0.53283304
186	0x3f3ee689	0.7457052
187	0xbf2a9111	-0.66627604
188	0x3e6972f1	0.22797753
189	0x3f794233	0.97366637
190	0x3cbc663e	0.022997972
191	0x3f7feeab	0.99973553
192	0xbf67d3fc	-0.9055784
193	0x3ed92dfe	0.42417902
194	0x3f2ceb28	0.6754632
195	0xbf3cc5d6	-0.73739374
196	0x3e736851	0.23770262
197	0x3f78a99b	0.971338
198	0x3cc496d1	0.023997696
199	0x3f7fed20	0.999712
200	0xbe078738	-0.13235176
201	0x3f7dbf78	0.99120283
202	0x3f193578	0.5984721
203	0xbf4d17bf	-0.8011436
204	0x3e7d5777	0.24740396
205	0x3f780aa5	0.9689124
206	0x3cccc757	0.024997396
207	0x3f7feb85	0.9996875
208	0x3f433708	0.76255846
209	0x3f259c81	0.6469193
210	0x3f03f7e6	0.5155014
211	0xbf5b5d10	-0.8568888
212	0x3e83a010	0.25708055
213	0x3f776555	0.96638995
214	0x3cd4f7cf	0.02599707
215	0x3f7fe9da	0.99966204
216	0x3f74d50e	0.95637596
217	0xbe959338	-0.29213881
218	0x3edad189	0.42737988
219	0xbf677146	-0.90407217
220	0x3e889106	0.26673144
221	0x3f76b9b1	0.9637709
222	0x3cdd2839	0.026996719
223	0x3f7fe81d	0.9996355
224	0x3e8ab42a	0.2709058
225	0xbf766d57	-0.9626059
226	0x3eab8391	0.33498815
227	0xbf71357c	-0.94222236
228	0x3e8d7e7d	0.27635565
229	0x3f7607bb	0.96105546
230	0x3ce55895	0.02799634
231	0x3f7fe650	0.99960804
232	0xbf29e3e9	-0.6636339
233	0xbf3f80b3	-0.74805754
234	0x3e74fdc7	0.23924933
235	0xbf7890b7	-0.9709582
236	0x3e926854	0.2859522
237	0x3f754f78	0.95824385
238	0x3ced88e2	0.028995935
239	0x3f7fe472	0.99957955
240	0xbf7cefa4	-0.9880316
241	0x3e1df418	0.15425146
242	0x3e1081c3	0.14112
243	0xbf7d7026	-0.9899925
244	0x3e974e6d	0.29552022
245	0x3f7490ef	0.9553365
246	0x3cf5b920	0.029995501
247	0x3f7fe283	0.99955004
248	0xbecede06	-0.40403765
249	0x3f6a2c8e	0.91474235
250	0x3d2a507c	0.041580662
251	0xbf7fc752	-0.99913514
252	0x3e9c30a5	0.30505863
253	0x3f73cc22	0.95233357
254	0x3cfde94d	0.030995036
255	0x3f7fe083	0.9995195

W f4 [8, 8]
0	0xbfe46955	-1.7844645
1	0xbf6e14fc	-0.9300077
2	0xbfb0067b	-1.3751978
3	0x40001337	2.0011728
4	0x3f681ae5	0.9066604
5	0x3e6efdac	0.23338956
6	0xbf9c91be	-1.2231977
7	0x3f544e14	0.8293164
8	0x4076c322	3.85566
9	0x400134ac	2.0188398
10	0x3e3dc794	0.18533164
11	0xc02e18d4	-2.7202654
12	0xbfedb504	-1.8570867
13	0xbfdcda21	-1.7254068
14	0x3f8161fd	1.0108029
15	0xbfa5dc6b	-1.2957891
16	0x4034ad9b	2.823096
17	0x3ff3a91b	1.9035982
18	0x3e62e058	0.22155893
19	0xbfc50f93	-1.5395378
20	0xbfa8b523	-1.3180279
21	0xbf8f8e0f	-1.1215228
22	0x3f9cdde0	1.2255211
23	0xbfccca76	-1.5999286
24	0x40458e3a	3.0868058
25	0x3f11d8ec	0.5697162
26	0x3ea4dff8	0.32202125
27	0xbf47c5d7	-0.78036255
28	0xbe08ffa8	-0.13378775
29	0xbf331f4e	-0.6996964
30	0xbddb2909	-0.10701186
31	0xbd869c0e	-0.06572734
32	0xc035de2a	-2.8416848
33	0xbf931a63	-1.1492428
34	0xbdbb4b83	-0.09145262
35	0x3ffd34cb	1.9781736
36	0x3faab2ff	1.3335875
37	0x3f94652f	1.1593379
38	0xbfae387a	-1.3610985
39	0x3f9f6d4c	1.245523
40	0x3f13876f	0.5762853
41	0xbf392f0b	-0.72337407
42	0x3ec9fcf5	0.39450803
43	0x3f337e65	0.7011474
44	0x3ec9292a	0.39289218
45	0xbf0f22dc	-0.55912566
46	0xbeb57ef9	-0.35448435
47	0x3f604f7a	0.8762127
48	0x4027d10d	2.6221344
49	0x400fd50f	2.247379
50	0x3f3011c4	0.6877711
51	0xc00a2294	-2.1583605
52	0xbfb88c33	-1.4417785
53	0xbf9ebff5	-1.2402331
54	0x4017a573	2.3694732
55	0xc01ea387	-2.478731
56	0xc00ed501	-2.2317507
57	0xbe8261b3	-0.25465164
58	0xbe94c45d	-0.29056063
59	0x3f32ebc3	0.69890994
60	0x3ecd6ccb	0.40122065
61	0x3f939c26	1.1532028
62	0xbe92e1bc	-0.28687847
63	0x3e3fa3fb	0.18714897

b f4 [8]
0	0x3fa64e03	1.2992557
1	0xbf921b36	-1.1414554
2	0xbfb561e0	-1.4170494
3	0xbe532ce7	-0.20622598
4	0x3f91ac56	1.1380718
5	0x3ec90f54	0.39269507
6	0xc00290cc	-2.0400877
7	0x3f00e7f9	0.5035396

W f4 [8, 8]
0	0xbffd8c1b	-1.9808382
1	0x3f084d98	0.532434
2	0x3eccb2dd	0.39980212
3	0xbfb26021	-1.3935586
4	0x4008d25a	2.1378388
5	0xc013d7ba	-2.310042
6	0x4074aab8	3.8229198
7	0xbd97dc4e	-0.07415067
8	0xbfa36217	-1.276431
9	0x3fab526b	1.3384527
10	0xc06ebbc4	-3.7302103
11	0xbfb1353b	-1.384437
12	0xbfaa4d54	-1.3304849
13	0xbff73d75	-1.931563
14	0xbe9d5899	-0.30731657
15	0xbf80dda4	-1.0067639
16	0x3d6dcdfb	0.058057766
17	0x3f30d5a4	0.6907599
18	0x3fd78173	1.683638
19	0xbf6c0ab3	-0.92203826
20	0x3fb3afcc	1.4038024
21	0xbf96b54b	-1.1774076
22	0x4032dfbe	2.7949061
23	0xbf214355	-0.62993366
24	0xbfbed3b8	-1.4908361
25	0x3f704456	0.9385427
26	0xc04b5d9e	-3.177589
27	0xc004524d	-2.0675232
28	0x3f3c53ad	0.7356518
29	0xbfe779e2	-1.8084071
30	0x407c2f66	3.940393
31	0xbfdea8a1	-1.7395211
32	0xbecd7096	-0.4012496
33	0x3ffc1117	1.9692715
34	0xc02c0633	-2.6878784
35	0xbed22819	-0.41046217
36	0xbfedd23a	-1.8579781
37	0xbf93ac1f	-1.1536902
38	0xc01c0efa	-2.438414
39	0xbfdf1df0	-1.7431011
40	0x3f345083	0.7043535
41	0xbebee51e	-0.37284178
42	0xbf04c0c9	-0.51856667
43	0x400d9f2a	2.2128396
44	0xbf8ec24c	-1.1153045
45	0x401428b8	2.3149853
46	0xbfe2c411	-1.7716085
47	0x3f2496ac	0.6429241
48	0x3f73fe6a	0.9531008
49	0xbd0a86dd	-0.033820022
50	0xbfa9e69b	-1.32735
51	0xbd64ea69	-0.055887613
52	0xbf5ff0c5	-0.8747676
53	0x3f5ab04a	0.85425246
54	0xc02cf1fd	-2.7022698
55	0xbf369d59	-0.71333843
56	0x3f5bfd3e	0.8593329
57	0xbee61ec6	-0.44945353
58	0xbf83038b	-1.0235456
59	0x3f8506be	1.0392683
60	0xbfdc9713	-1.7233604
61	0x3fb36c15	1.4017359
62	0xbfd572b9	-1.6675636
63	0x3f6c608a	0.92334807

b f4 [8]
0	0x3ef7b463	0.48379812
1	0xbfecb397	-1.8492306
2	0x3f4206e0	0.7579174
3	0xbfbdf707	-1.4841012
4	0xbfc0fce8	-1.5077181
5	0x3ced5a56	0.02897374
6	0xbf3d2cd2	-0.73896515
7	0xbeed590e	-0.46357006

W f4 [8, 8]
0	0x40af6416	5.4809675
1	0xbfe3e28c	-1.7803512
2	0x3faf5202	1.3696902
3	0xc07593e9	-3.8371527
4	0xc042c754	-3.043416
5	0x40422fa2	3.0341573
6	0xc0256f9a	-2.5849366
7	0x400158d0	2.0210457
8	0x3d38e986	0.04514458
9	0x3ee8a3cf	0.45437476
10	0x3fde8487	1.7384194
11	0xbf45c304	-0.77250695
12	0xc0098f1a	-2.1493592
13	0x3ff36943	1.9016498
14	0xbf91b64a	-1.1383755
15	0x3e464a44	0.19364268
16	0x406b1872	3.673367
17	0xbe6a7836	-0.2289742
18	0x3e8ede63	0.27904043
19	0xc05271e7	-3.288202
20	0xbfdaab6f	-1.7083567
21	0x400e604c	2.2246275
22	0xbfd4e633	-1.6632751
23	0x3feca715	1.8488489
24	0x404d3902	3.2066045
25	0x3f6e0506	0.92976415
26	0x3fd72da0	1.6810799
27	0xc063be35	-3.5584843
28	0xc053621e	-3.3028636
29	0x40158409	2.3361838
30	0xc00ec6fd	-2.2308953
31	0x400d1fed	2.2050736
32	0xc0656f02	-3.5849004
33	0x400392bd	2.0558312
34	0xbefa3ba5	-0.4887363
35	0x3edc5d92	0.43040138
36	0x3f455b14	0.770921
37	0xbf7322c8	-0.94974947
38	0x3f079381	0.5295945
39	0xbfa82577	-1.3136433
40	0xbf106fce	-0.564206
41	0xbf300c86	-0.6876911
42	0xbf717125	-0.9431327
43	0x3ff46882	1.9094393
44	0x400a02e5	2.1564267
45	0xbffe0705	-1.9845892
46	0x3fc08e3e	1.5043409
47	0xbfd74a30	-1.6819515
48	0xbf896660	-1.0734367
49	0xbf2ccdc8	-0.675015
50	0xbf69abab	-0.9127757
51	0x3eecfe6a	0.46287853
52	0x3fe02572	1.7511427
53	0xbf9fe4aa	-1.2491658
54	0x3fb1bbf9	1.388549
55	0xbea7352b	-0.3265775
56	0xbf1e1f0f	-0.6176614
57	0xbeed5ee0	-0.46361446
58	0xbf1f04f2	-0.6211692
59	0x4006cfdc	2.1064367
60	0x3fd586fc	1.6681819
61	0xbfd433d5	-1.6578318
62	0x3f973b2f	1.1814936
63	0xbfd27929	-1.6443225

b f4 [8]
0	0xbb10cdec	-0.0022095395
1	0xbbf19b21	-0.007373229
2	0x3be2a6bc	0.006916849
3	0x3bfbc3cc	0.007683253
4	0x3c1af7c5	0.009458487
5	0xbbe7923b	-0.0070669926
6	0x3b9bbbc4	0.004752608
7	0x3b8ef16c	0.004362276

W f4 [8, 8]
0	0xbfcad5aa	-1.5846455
1	0x405818d0	3.3765144
2	0x403bc3d1	2.9338267
3	0xbfe66e7e	-1.800247
4	0xc00db05f	-2.2138898
5	0xc0515296	-3.2706656
6	0x4028efca	2.6396356
7	0x3eca3d00	0.39499664
8	0xbca081cf	-0.019593148
9	0xbfdd61ba	-1.7295449
10	0xbf869735	-1.0514895
11	0x3e4965b8	0.19667709
12	0x3fa1e14e	1.2646883
13	0x3e43f126	0.1913496
14	0xbf5b3053	-0.8562061
15	0xbf44d4b4	-0.7688706
16	0xc006684e	-2.1001163
17	0x40632fea	3.5497994
18	0x4040b58e	3.0110812
19	0xc000c515	-2.012029
20	0xc03b9f2a	-2.9315896
21	0xc01a861d	-2.4144356
22	0x4038faba	2.8903031
23	0x3fcc8225	1.5977217
24	0x403913d3	2.891835
25	0xbfc87dc3	-1.566338
26	0xc0559fe2	-3.3378835
27	0xbfeb5f94	-1.8388543
28	0x401895b9	2.3841383
29	0x40139a1f	2.3062818
30	0xc02941d8	-2.6446438
31	0x3fd22004	1.641602
32	0xbf8a82f9	-1.082122
33	0x400ec334	2.2306643
34	0x3ff11534	1.8834596
35	0xbf985888	-1.1902018
36	0xc01c0c93	-2.4382675
37	0xc01e40a1	-2.4726946
38	0x401cfcca	2.452929
39	0x3e5cd612	0.21566036
40	0x3f46e4ac	0.77692676
41	0x403df53b	2.9680927
42	0x3fcc35ab	1.5953878
43	0xbef54388	-0.47903085
44	0xbfa2f8e8	-1.273221
45	0xbfec7af9	-1.8475028
46	0x400b8d22	2.180489
47	0x3fa8d3b8	1.3189611
48	0xbfee6bb5	-1.862662
49	0xc038d39c	-2.8879156
50	0xbf4d160c	-0.80111766
51	0x3fcda322	1.6065409
52	0x3f8deb02	1.1087344
53	0x3ffd99ca	1.9812558
54	0xbfe3855c	-1.7775073
55	0xbfea04f9	-1.8282768
56	0x3c8ccf6f	0.017188756
57	0x3fcf1bd3	1.6180366
58	0x3f13f4a1	0.5779515
59	0x3eb6e424	0.35720932
60	0xbf9e2801	-1.2355958
61	0x3e70adc5	0.23503788
62	0x3d3317cf	0.043723878
63	0x3ea3ac7b	0.3196753

b f4 [8]
0	0xbff63f6e	-1.9238107
1	0x3f3c2b6d	0.7350376
2	0xbfb48553	-1.4103187
3	0x3fc44cbd	1.5335919
4	0xbf679ebc	-0.90476584
5	0xbe871d5d	-0.2638959
6	0x3f81c641	1.0138627
7	0xbe994eab	-0.2994283

weight f4 [8]
0	0x400f8c58	2.242941
1	0xbf9277e4	-1.1442838
2	0x400a1052	2.157246
3	0x40d86f39	6.763577
4	0xbdc6f1b0	-0.09714067
5	0x3e99b1fb	0.300186
6	0x3fa258ad	1.2683312
7	0x3e221d9f	0.15831612

bias f4 [8]
0	0xc03a1cbc	-2.9080038
1	0xbeea0f9b	-0.4571503
2	0xc000518c	-2.0049772
3	0x40a66ae7	5.2005496
4	0x3ecfb32d	0.40566388
5	0x3fafef94	1.3744988
6	0x3e93fed3	0.28905353
7	0x404b2e7c	3.1747122

W1 f4 [8, 32]
0	0x3f859a82	1.0437777
1	0xbf7dc21b	-0.99124306
2	0xbf213c00	-0.6298218
3	0x3b61cffc	0.0034456244
4	0x3f41de42	0.75729764
5	0x3f775c51	0.9662524
6	0xc0858e77	-4.1736407
7	0x3e8cca75	0.27498212
8	0x3ed34018	0.41259837
9	0x3e230741	0.15920736
10	0x3f8b915e	1.0903738
11	0x3e61aee1	0.22039367
12	0xbd781698	-0.060568422
13	0xbcd896b4	-0.026439048
14	0xbe67da17	-0.22641788
15	0xc0a7ebd3	-5.247537
16	0x3e997833	0.29974517
17	0x3f1c7e87	0.61130565
18	0x41255109	10.332284
19	0x3e85dc97	0.2614486
20	0xbd9c2d95	-0.076258816
21	0xbdd9435c	-0.10608551
22	0x3f9a0182	1.203171
23	0x3ef24eff	0.47325894
24	0x3d5f5265	0.054521937
25	0x3f9d4073	1.2285293
26	0x3fe050b7	1.7524632
27	0x3fb416ea	1.4069493
28	0x40493f03	3.144471
29	0xbd22d897	-0.039757337
30	0xbd8d9d52	-0.06914772
31	0xbf2a5bc3	-0.6654627
32	0x3f9ef4dd	1.2418476
33	0x3f59d35c	0.85088134
34	0xc01ed534	-2.481763
35	0x3febcae2	1.842129
36	0x3f852370	1.040144
37	0x3db1abc2	0.08675338
38	0xbfdbef20	-1.718235
39	0x3fe0d1c4	1.7564015
40	0x3e5ee4b4	0.21766931
41	0x3ebcca38	0.3687303
42	0x40128287	2.2892168
43	0xbd042081	-0.03225756
44	0xbd1fd11b	-0.039017778
45	0x3f91028d	1.1328903
46	0x3ff0e756	1.8820598
47	0xc087e5bf	-4.246795
48	0x400af982	2.1714787
49	0xbf6052b5	-0.876262
50	0x4001c380	2.0275574
51	0xbeab94e3	-0.3351203
52	0xbf356615	-0.7085889
53	0x3f4b7bc6	0.7948574
54	0x3fecaba6	1.8489883
55	0x3e71ad1d	0.23601194
56	0xbf1e22f3	-0.6177208
57	0xbfecfc08	-1.8514414
58	0xbe880d2b	-0.26572546
59	0x3fb8f60f	1.4450091
60	0x3ee28486	0.44241732
61	0xbf61e9c8	-0.88247347
62	0x3f9c7594	1.2223382
63	0xbf97ac0d	-1.1849381
64	0x3e879fb1	0.26489022
65	0x3f0df7e7	0.55456394
66	0xbdc19a35	-0.09453241
67	0xbe89d080	-0.26916885
68	0x3f4301fc	0.761749
69	0x3f602163	0.87550944
70	0xc07d2a9d	-3.955726
71	0x3ded8eb3	0.11599483
72	0x3f8b3849	1.0876552
73	0xbecfa573	-0.40555915
74	0x3f7636dd	0.96177465
75	0x3db04672	0.086071864
76	0x3c9afd89	0.018919723
77	0xbc0007f3	-0.007814395
78	0xbec8fd43	-0.39255723
79	0xc08a0b9b	-4.3139167
80	0xbf1ecac8	-0.6202817
81	0x3f0e04b4	0.55475926
82	0x41155fae	9.335859
83	0x3e3ee14e	0.18640634
84	0x3ed79e3a	0.42112905
85	0x3e1f62ee	0.15565082
86	0x3fdf8b5c	1.7464404
87	0x3dc67d54	0.09691873
88	0x3fdf3e43	1.7440876
89	0x3f84316e	1.0327585
90	0x40212e3d	2.5184472
91	0x3f0b959d	0.54525167
92	0x4050197a	3.251555
93	0x3c2bb634	0.010480452
94	0x3e99068b	0.29887804
95	0x3e8b1069	0.27160957
96	0xbfac55f5	-1.3463732
97	0x3c92c958	0.017918274
98	0x40037348	2.0539112
99	0xbec37fc2	-0.3818341
100	0xbf5d6a87	-0.8649067
101	0xbfdd7580	-1.7301483
102	0x40a03755	5.0067544
103	0xbf399483	-0.72492236
104	0xbeb4cbdf	-0.3531179
105	0xbdc10d2d	-0.09426341
106	0xbfa52ed0	-1.2904911
107	0xbe7ca351	-0.24671675
108	0xbf970f6a	-1.1801579
109	0xbefddae6	-0.4958107
110	0x3c286555	0.010278066
111	0x40f1055b	7.5319037
112	0xc0795a46	-3.8961349
113	0xbf11be93	-0.5693142
114	0xc0c1f923	-6.061662
115	0x3d33caec	0.043894693
116	0xbf1f86dc	-0.62315154
117	0x3da81cfc	0.08208653
118	0xbf99e54d	-1.2023102
119	0xbe5711c8	-0.21002877
120	0xbe9f110c	-0.31067693
121	0xbf0519d6	-0.5199255
122	0xbfc085b0	-1.5040798
123	0xc022fce8	-2.5466862
124	0xbfa95efc	-1.3232112
125	0xbe72666a	-0.2367188
126	0xbebf7c4e	-0.37399524
127	0xbf3fe778	-0.7496257
128	0x3e7eec93	0.24894933
129	0x3ecfb3ab	0.40566763
130	0x3f457bdc	0.7714212
131	0x3e928150	0.28614283
132	0xbed91f1d	-0.4240655
133	0xbf8c1952	-1.0945227
134	0x404e09af	3.219341
135	0x3f1e4aa0	0.6183262
136	0xbf08a6cd	-0.5337952
137	0xbe8351ee	-0.25648445
138	0x3e8ed97b	0.279003
139	0xbe5a6d0b	-0.21330659
140	0xbdadec0b	-0.08492287
141	0x3d28af8d	0.041183043
142	0x3f19b55e	0.6004237
143	0x4072bc4a	3.7927423
144	0xbea4a6e0	-0.32158566
145	0x3e0ca1a3	0.13733535
146	0xbf3e3788	-0.74303484
147	0xbfc8d7ac	-1.5690818
148	0xbe615054	-0.22003299
149	0xbde09faa	-0.109679535
150	0x3e39bef7	0.18139254
151	0xbec692dc	-0.3878392
152	0x3f481e9e	0.7817172
153	0xbf944877	-1.1584615
154	0xbe9f9e20	-0.31175327
155	0xbece74cf	-0.40323493
156	0xbed6ad88	-0.4192927
157	0x3b5c3933	0.003360343
158	0xbec4d61d	-0.38444605
159	0x3e6a4075	0.22876151
160	0xbefde136	-0.49585885
161	0xbface1ce	-1.350641
162	0xbfca7ddb	-1.5819658
163	0xbfa595c9	-1.2936336
164	0xbf0faae4	-0.56120133
165	0x3fc3db57	1.5301312
166	0x40835503	4.1041274
167	0x4022e8f7	2.545469
168	0x3fe8f136	1.8198612
169	0x3f1d3a85	0.6141742
170	0xbfae468a	-1.3615277
171	0x3d29ddba	0.04147122
172	0xbe3f0e6a	-0.18657842
173	0xbf90eb86	-1.1321876
174	0xc03a1880	-2.9077454
175	0x407e15c9	3.9700797
176	0xbd6f4f35	-0.058425147
177	0xbea97ca1	-0.33102897
178	0xbf9fdfac	-1.2490134
179	0xbfbd13eb	-1.4771703
180	0x3fb00470	1.3751354
181	0xbd24927f	-0.040178772
182	0xbfd96c70	-1.6986217
183	0x3f1c1c81	0.60980994
184	0x3fab4c03	1.3382572
185	0x3fed423a	1.8535836
186	0x3f861abc	1.0476909
187	0x3f0da29f	0.55326265
188	0x3e2c377d	0.16818042
189	0x3ebd9cc4	0.37033665
190	0x3fa4cff2	1.287596
191	0x3f61ec86	0.8825153
192	0xbe7c1dbe	-0.2462072
193	0x3f1573af	0.58379644
194	0x3e0eb635	0.13936694
195	0x3f2894d1	0.65852076
196	0xbf287c68	-0.6581483
197	0xc002d209	-2.0440695
198	0x3fb1537d	1.3853604
199	0xbfcbc8b1	-1.5920621
200	0xc033ebbb	-2.8112628
201	0xbfdc031c	-1.7188449
202	0xbf9bbe78	-1.2167501
203	0xbf042239	-0.5161472
204	0xbe339982	-0.17539027
205	0xbfca31e3	-1.5796474
206	0x3f96ad0d	1.1771561
207	0x3fbb9093	1.4653496
208	0x3ea63ee9	0.32469872
209	0xbf4b4d2a	-0.7941462
210	0xc10f7c20	-8.967804
211	0x3f030687	0.51181835
212	0xbf9fd1cd	-1.2485901
213	0xbf5fdafd	-0.87443525
214	0xbf5c2745	-0.8599742
215	0xbef1e3d5	-0.47244135
216	0xbffc3183	-1.970261
217	0xbf008302	-0.501999
218	0xc03035cc	-2.7532835
219	0xbf8d0b3e	-1.1019056
220	0xc08ad0b3	-4.337976
221	0xbf6e9393	-0.9319393
222	0xbf819028	-1.0122118
223	0xbf25844c	-0.64654994
224	0xbf4d7c38	-0.8026767
225	0xc00397ea	-2.056147
226	0x3fe5209c	1.7900577
227	0xbfa6a6aa	-1.3019612
228	0xbf242404	-0.64117455
229	0xbfd0ef14	-1.6322961
230	0x402dbcb7	2.7146432
231	0xbfe00951	-1.7502843
232	0xbc1f936e	-0.00973974
233	0xbf7e2409	-0.99273735
234	0xbfb844e9	-1.439603
235	0xbf0d83f6	-0.5527948
236	0xbdad7118	-0.084688365
237	0xbf76a58c	-0.96346354
238	0xbfd8bfbf	-1.6933516
239	0x40c17fbb	6.046842
240	0xc0021cb7	-2.0330026
241	0x3ef3299e	0.4749269
242	0xc0214d87	-2.520357
243	0xbf8419e7	-1.0320405
244	0xbf8d5f04	-1.1044621
245	0xbf5983f6	-0.8496698
246	0xbfc32726	-1.5246322
247	0xbe9a4c4c	-0.30136335
248	0xbf1a567e	-0.60288227
249	0x3fb1da29	1.3894702
250	0xbd9891de	-0.07449697
251	0xbf873ff1	-1.0566388
252	0xbee2a243	-0.4426442
253	0xbe96e709	-0.2947314
254	0xbfc295be	-1.5201948
255	0xbe8dc074	-0.27685893

b1 f4 [32]
0	0xbf6ae69a	-0.9175812
1	0x3dc99876	0.09843533
2	0x3fada8f6	1.3567188
3	0x3f12b01b	0.57299966
4	0xbf6f6c2d	-0.9352444
5	0xc051efe8	-3.2802677
6	0x4017468c	2.3636808
7	0xc00be3dd	-2.1857827
8	0xbf30cb28	-0.6905999
9	0xbf1e3bd5	-0.61810046
10	0xbf9d4190	-1.2285633
11	0xbea39874	-0.3195225
12	0xbf5e1711	-0.86753947
13	0xbfc9208d	-1.5713059
14	0x3f657eb8	0.8964648
15	0x40c09d5c	6.019209
16	0xbfca1877	-1.5788716
17	0xbfd729eb	-1.6809667
18	0x3db3bd94	0.087763935
19	0x3e88ad58	0.2669475
20	0xbfc7dab7	-1.5613621
21	0xbeec2cd9	-0.46127966
22	0xbfbfed38	-1.4994268
23	0xbe7bc43e	-0.24586579
24	0xbe78ed81	-0.2430935
25	0xbfb78e18	-1.4340239
26	0xbf2666d8	-0.6500068
27	0x3cdbb477	0.02681945
28	0xbe88a365	-0.2668716
29	0xbfb64b3f	-1.4241713
30	0xbfa4663b	-1.2843698
31	0xbf988f79	-1.1918784

W2 f4 [32, 8]
0	0xbed4497e	-0.4146232
1	0x3f83bea1	1.029255
2	0xbf274999	-0.65346676
3	0xbfa27d26	-1.2694442
4	0xbf476e30	-0.7790251
5	0x3f465858	0.7747855
6	0x3f7cf8cc	0.98817134
7	0xbe709eb2	-0.23498037
8	0xbf6de30a	-0.9292456
9	0x3f33fdd6	0.703092
10	0xbe864fa1	-0.26232627
11	0x3f39b88d	0.7254723
12	0xbfc82254	-1.5635476
13	0x3fb09caa	1.379781
14	0xc048a2e1	-3.1349413
15	0xbe67f465	-0.22651823
16	0xbf7d1a3e	-0.9886817
17	0xbf2f7ffd	-0.6855467
18	0xbfe8c888	-1.8186197
19	0xc1309ca5	-11.038243
20	0xbf58ab59	-0.84636456
21	0xbf99fd57	-1.2030438
22	0x411c29b9	9.760186
23	0xbf5e5b43	-0.86858004
24	0xbf2ef2df	-0.6833934
25	0xbf44578f	-0.76696104
26	0x3e8aa7cf	0.27081153
27	0xc0a0690f	-5.0128245
28	0xc00331d2	-2.0499158
29	0x3f8c7757	1.097392
30	0x4020d50c	2.5130033
31	0x3f8a71b3	1.0815948
32	0xc0019ba4	-2.0251245
33	0x3e4aa5a2	0.19789746
34	0x3f7f55b2	0.99740136
35	0xc009bbf3	-2.1520965
36	0xbf7f193d	-0.99647886
37	0xbdf47180	-0.11935711
38	0xbfce516d	-1.6118599
39	0x3d8af002	0.06784059
40	0x408d40c9	4.4141583
41	0x3ffdad9a	1.9818604
42	0x402bbef1	2.6835291
43	0x40a549fb	5.165281
44	0x3ee8cb0f	0.4546742
45	0x3fa3cc2f	1.2796687
46	0xc0a93d05	-5.2886987
47	0xbfc12c4b	-1.5091642
48	0xbf0d090c	-0.5509193
49	0xbf764db9	-0.96212345
50	0xc00ee775	-2.232877
51	0xc15457a7	-13.2713995
52	0xbedb4e76	-0.42833298
53	0xbfe30e58	-1.7738752
54	0x414af055	12.683675
55	0xbf6febe6	-0.9371933
56	0x3e0e1b57	0.13877617
57	0x3f46c718	0.7764754
58	0xbeca48f4	-0.39508784
59	0x40579138	3.3682384
60	0xbeafb998	-0.34321284
61	0x3f70163f	0.93783945
62	0xbecfca0e	-0.40583843
63	0x3fa5191c	1.2898288
64	0xbf97a1fa	-1.1846306
65	0x3f37aff5	0.71752864
66	0x3f3f2f65	0.74681693
67	0xc00f021e	-2.2345042
68	0xbfc0d905	-1.5066229
69	0x3edde2ae	0.43337005
70	0xc001e1ad	-2.0293992
71	0x3e59107f	0.21197699
72	0xbf632678	-0.88730574
73	0x3eb56333	0.35427245
74	0x3ed49407	0.41519186
75	0x3fa9f5ae	1.32781
76	0xbefb9d15	-0.49143282
77	0x3ee89626	0.45427054
78	0xbf6cebd9	-0.92547375
79	0x3f161e5c	0.58640075
80	0xbdce2c6c	-0.100670666
81	0x3d23d9bd	0.040002573
82	0xbeb1b6fa	-0.34709913
83	0x3e321f86	0.17394838
84	0xbf59ebbb	-0.8512532
85	0x3f1b4132	0.60646355
86	0x3f0405fc	0.5157163
87	0x3f1d8af5	0.61540157
88	0xbec244b0	-0.3794303
89	0xbe51b0c2	-0.20477584
90	0xbcc7edf6	-0.02440546
91	0x3fe41d8b	1.7821516
92	0xbf2a3e69	-0.6650148
93	0x3e9b454e	0.30326313
94	0xbf6876da	-0.90806353
95	0x3f219ca7	0.6312966
96	0xbf32af45	-0.6979869
97	0x3f8501cc	1.0391173
98	0x3f3fcbb7	0.7492022
99	0xbf92ad5d	-1.1459156
100	0xbd932e06	-0.07186513
101	0x3fa457ad	1.2839257
102	0xc0295312	-2.6456952
103	0xbe2471a4	-0.16058975
104	0x3e2ee9a1	0.1708131
105	0x3fba0e5f	1.4535636
106	0xbfbcd79e	-1.4753301
107	0x3f160988	0.58608294
108	0xbda22bdf	-0.07918524
109	0x3f94bde4	1.162045
110	0x3f3aa1c7	0.729031
111	0xbe409841	-0.1880808
112	0xbf1d170a	-0.6136328
113	0xbf324865	-0.69641715
114	0x3ec2be75	0.38035932
115	0xc0bc8586	-5.8912992
116	0xc008f5ab	-2.1399944
117	0x3f10306c	0.56323886
118	0x405451b6	3.3174872
119	0x3f348374	0.7051308
120	0xbfb555d2	-1.4166815
121	0xbec42dbc	-0.38316143
122	0xc0175ea4	-2.3651514
123	0xc18380d4	-16.437904
124	0xbfbb3ea4	-1.4628491
125	0xbfdab153	-1.7085365
126	0x4149a3b2	12.602465
127	0xbfbeee1a	-1.4916413
128	0x3ff5b2fb	1.9195246
129	0xbfb6a4ff	-1.4269103
130	0x3f30320c	0.68826365
131	0x40fde57e	7.934264
132	0xc00bdd1c	-2.1853704
133	0x3f88a922	1.0676615
134	0xc0fcf945	-7.9054284
135	0x401da2c2	2.463059
136	0xbfb8c019	-1.4433624
137	0x3f3cc935	0.7374452
138	0xbe853859	-0.26019552
139	0xbf51d0df	-0.81959337
140	0xbffad6fc	-1.9596858
141	0x3fd3ac86	1.6537025
142	0xbf5ed236	-0.87039506
143	0xbf232bfb	-0.63738984
144	0xbcb46d74	-0.022024848
145	0x3e127dd4	0.14305812
146	0x3e7d50fd	0.24737926
147	0x40e59eed	7.17565
148	0xbf9dc58f	-1.2325915
149	0x3ff107d4	1.8830514
150	0xc176f814	-15.435566
151	0xbeb76643	-0.35820207
152	0xbefeb0b1	-0.4974418
153	0x3e854e3f	0.2603626
154	0x3d26d3ac	0.04072921
155	0xc03031b1	-2.753033
156	0xbea1a414	-0.31570494
157	0xbef3ea4f	-0.476397
158	0x409578a5	4.670977
159	0xbe8de22e	-0.27711624
160	0xbfc32187	-1.5244607
161	0x3f135ed2	0.5756656
162	0xbf695941	-0.91151816
163	0xbee15688	-0.4401133
164	0xbf484fa5	-0.7824653
165	0x3f12186b	0.5706851
166	0xbd355dc6	-0.044278882
167	0x3d5e9e7d	0.054350365
168	0x3e95de62	0.29271227
169	0x3ca54787	0.020175708
170	0x3f141c05	0.57855254
171	0x409142bc	4.5393963
172	0xbc3fbded	-0.011702997
173	0x3e5275a8	0.20552695
174	0xc0839d69	-4.112965
175	0x3ed28a22	0.41121012
176	0xbff837fc	-1.9392085
177	0xbf039ef3	-0.5141441
178	0x3f3483b0	0.7051344
179	0x3b0f743c	0.002188935
180	0x3f9701ed	1.1797463
181	0xbf874682	-1.0568392
182	0xc032e0e3	-2.794976
183	0xbf315a21	-0.6927815
184	0x3f168649	0.5879865
185	0xbed80e91	-0.42198613
186	0x3eb4aee1	0.35289672
187	0x404e5916	3.2241874
188	0xbeb0297b	-0.34406647
189	0x3f1375fe	0.57601917
190	0xc05cb7af	-3.4487112
191	0x3ecfb56f	0.4056811
192	0xc004bf3a	-2.0741715
193	0x3f3c1d55	0.7348226
194	0x3e976a04	0.2957307
195	0xbe2d60f9	-0.16931523
196	0xc01d595e	-2.4585795
197	0x3fa673a9	1.3004047
198	0xbf911199	-1.1333495
199	0x3dedc75a	0.11610289
200	0xbf91a0cb	-1.1377195
201	0x3f684cb2	0.9074203
202	0x3da1d52c	0.079019874
203	0x3f5895c8	0.8460355
204	0xbf525b82	-0.8217088
205	0x3f896622	1.0734293
206	0xc0156f64	-2.3349237
207	0xbea014bc	-0.3126582
208	0xbf800c95	-1.000384
209	0x3f46dedd	0.7768381
210	0x3f69e98a	0.9137198
211	0x401a9f33	2.4159667
212	0xbf669dfe	-0.90084827
213	0x3fa97180	1.3237762
214	0xc0767b67	-3.851282
215	0x3e8c9564	0.27457726
216	0x3ecdf725	0.4022762
217	0x3f18a294	0.59623075
218	0x3f69a5a1	0.91268355
219	0x407fa122	3.9942098
220	0xbf7f4ab8	-0.99723387
221	0x3fc39996	1.5281246
222	0xc0d530c9	-6.662205
223	0xbd91f60f	-0.0712701
224	0xbe88ce11	-0.26719716
225	0x3f731c53	0.94965094
226	0x3e8a005e	0.26953405
227	0x404c024c	3.1876402
228	0xbfefb35b	-1.872661
229	0x3fd0e943	1.6321186
230	0xc129b511	-10.606706
231	0xbf4c1220	-0.79715157
232	0xbf4d9f92	-0.8032161
233	0x3f51043d	0.8164709
234	0xbf02c0d3	-0.51075476
235	0xbf46f30b	-0.77714604
236	0xbfbf3b78	-1.4940023
237	0x3f849dbd	1.0360638
238	0xbfde9eae	-1.7392175
239	0xbf8fc9c4	-1.1233449
240	0xbd985c58	-0.07439488
241	0x3e8e8482	0.2783547
242	0x3fa61e3d	1.2977978
243	0x406e75ae	3.7259326
244	0x3f221d84	0.6332629
245	0x3f62a55b	0.8853356
246	0xc052849b	-3.2893436
247	0x3facbb1f	1.3494605
248	0xbfcbdeb6	-1.5927341
249	0x3efab2d7	0.4896457
250	0xbee3224f	-0.44362113
251	0xbf6e7ee1	-0.9316235
252	0xbff54f1b	-1.9164766
253	0x3fc3e28e	1.5303514
254	0xbf71dab7	-0.9447436
255	0xbf09ad6c	-0.53780246

b2 f4 [8]
0	0xbed68e2a	-0.41905338
1	0x3f3b0298	0.7305083
2	0xbfcb753f	-1.5895156
3	0xc03742ad	-2.8634446
4	0xbf5f0afb	-0.8712613
5	0x3edb274c	0.4280342
6	0x3f8f24f2	1.118315
7	0xbfa660b4	-1.2998261

weight f4 [8]
0	0x3caee1e5	0.02134795
1	0xbe435eea	-0.19079176
2	0x3f631edc	0.8871896
3	0x3d8d4e98	0.06899756
4	0x3c9866d2	0.018603716
5	0x3f034b5c	0.51286864
6	0x3d2a2f5b	0.041549068
7	0xbc2a5bcf	-0.010397865

bias f4 [8]
0	0x3b0db0a7	0.0021620186
1	0x3d036d4f	0.032086667
2	0x3df4d49a	0.11954613
3	0x3e6d1fbd	0.23156638
4	0xbbbbebbe	-0.00573489
5	0x3c8bf6e2	0.017085496
6	0xbd47e870	-0.048805654
7	0x3a65e778	0.0008770148

weight f4 [1, 8]
0	0xbb9afce8	-0.004729856
1	0x3c5c13df	0.013432472
2	0xbdd54da4	-0.104151994
3	0xbcac762f	-0.021052448
4	0x3aa92ded	0.0012907364
5	0xbcef799c	-0.029232793
6	0x390c01e8	0.0001335215
7	0x393adef1	0.00017821394
