saved_models/model-epoch-16.pth (torch, 21314 bytes, 19 tensors)

embeddings f4 [99, 8]
1.6434096 -0.06550211 1.4489394 2.2128427 -0.31283292 1.5272008 -0.5784197 1.2109045
1.3316584 -1.7679665 0.76980925 1.3459667 -0.76025677 1.6671532 -0.036424026 2.9831254
2.0160673 1.0467186 1.194588 -0.09559037 -1.2206659 0.8223441 -0.5280216 -1.5785644
-2.5299182 0.16895008 -1.8743517 -1.3889301 2.750814 -2.632071 -0.18722893 1.5084199
-0.21281986 1.9014901 0.68333673 -0.79401904 -1.5061067 -0.055164758 -1.1048806 -0.04328618
1.6427816 0.38725632 1.538542 2.3969479 -2.2493553 2.124138 -1.5455419 -0.10558271
1.4541373 1.0217794 0.65347934 2.2928014 -0.4812225 1.7280934 -2.0782738 0.08635346
-0.19349381 -1.4671224 1.5164512 1.8451341 1.4237801 0.99374825 -2.9300473 2.5877447
1.4278154 -0.18472835 -0.5778755 0.014399617 -1.9790831 0.3608403 -0.91735184 0.6352459
1.0803958 -1.653516 0.8096828 -0.824008 0.70850766 0.799662 -1.7786094 0.3209634
0.54356533 -1.1404601 -0.38983718 1.69701 -1.3627149 2.2293763 -0.90010476 1.8339473
-1.6719594 -0.98655224 -2.2013521 -0.56172204 1.4374385 -1.1329063 0.4730973 -0.10365001
0.79430926 -2.9041884 -1.3332467 2.545844 -3.0904605 2.521087 -0.33729675 1.8180553
0.9776838 -0.7232333 1.8248721 1.7821227 1.485961 -0.3797209 1.5175585 1.373666
-0.31121585 -0.091286294 -0.83142483 -0.52413654 0.84516305 -1.0974365 1.1855108 -0.6462222
1.6916246 0.6158663 1.074583 3.2969337 -1.6168722 1.9793025 -0.672419 0.32140416
-0.7268898 -1.6645719 0.079393424 -0.56853205 1.9883726 -2.5512643 2.3923283 0.94865066
0.6405507 0.069357894 0.9645367 0.6874637 1.8066214 1.872439 -2.016676 1.2411358
2.227061 -2.0967357 1.9605798 1.397492 1.1718289 1.1123366 0.28701413 1.7792518
1.4726894 2.098474 1.1533911 0.8714668 -2.301382 1.5588537 -1.959403 0.3737266
-0.20514172 -0.4234842 -0.37983882 -2.0860434 3.6552842 -1.2004476 0.5403537 -0.705016
2.3957987 1.4519569 2.2962737 1.5073433 -1.8770812 1.3863077 -1.4413152 1.9549801
1.753877 0.28869042 2.5796735 2.1989746 -1.5090107 1.9459971 -1.8145325 0.508232
-1.669137 -0.028169625 -1.6242703 0.09567871 0.1998498 -0.8167757 -2.5561023 0.4684515
0.69654727 -0.7093527 1.4965898 1.1908709 1.9311398 -1.3188624 1.1219265 0.17311572
-2.4684029 2.647815 -1.5180802 -1.7825603 1.3365448 -2.3183262 1.008466 -2.2075636
0.84821063 -0.543505 0.952036 0.7493799 -0.6833868 0.6753141 -0.8044969 -0.6372082
1.8736007 0.5796205 0.82643634 3.2760007 -1.7137042 0.6201894 -2.314341 2.8939095
1.7363167 -1.0701066 2.2449017 0.7789249 -0.62161165 0.7122401 -1.6628485 1.2927923
-0.1524423 0.93085736 0.03158175 -0.82825357 -0.6730839 0.18891387 -1.924969 -0.08167251
1.6376368 1.2776625 0.7610128 0.27232176 -1.9007552 1.1132227 -0.4660037 1.5062389
0.71860003 0.9115349 0.8241241 1.9361341 -1.4912915 2.0353484 -1.827744 2.259882
00000000: 3f5b d23f f825 86bd d976 b93f 379f 0d40
00000010: a32b a0be 517b c33f 5013 14bf ebfe 9a3f
00000020: c873 aa3f ba4c e2bf 3812 453f a348 ac3f
00000030: 30a0 42bf 4765 d53f 5c31 15bd 87eb 3e40
00000040: 3f07 0140 e0fa 853f 42e8 983f e2c4 c3bd
00000050: c83e 9cbf 2585 523f 6c2c 07bf 660e cabf
00000060: 2eea 21c0 4001 2d3e c2ea efbf 76c8 b1bf
00000070: 560d 3040 da73 28c0 f1b8 3fbe e713 c13f
00000080: 73ed 59be 0764 f33f 28ef 2e3f d544 4bbf
00000090: 1bc8 c0bf 71f4 61bd ba6c 8dbf d94c 31bd
000000a0: ab46 d23f 7646 c63e f2ee c43f 9867 1940
000000b0: 70f5 0fc0 e1f1 0740 51d4 c5bf bf3b d8bd
000000c0: 2c21 ba3f abc9 823f 6c4a 273f 42bd 1240
000000d0: cc62 f6be 2a32 dd3f 7002 05c0 15da b03d
000000e0: 3e23 46be abca bbbf 131b c23f 5b2d ec3f
000000f0: 6d3e b63f 4966 7e3f e585 3bc0 9c9d 2540
00000100: a8c2 b63f 6e29 3dbe a6ef 13bf 5fec 6b3c
00000110: 9852 fdbf 0fc0 b83e 92d7 6abf 7a9f 223f
00000120: 694a 8a3f 6aa6 d3bf 5f47 4f3f 30f2 52bf
00000130: c260 353f a6b6 4c3f 79a9 e3bf 5155 a43e
00000140: 1927 0b3f 99fa 91bf bd98 c7be a037 d93f
00000150: 716d aebf 1aae 0e40 446d 66bf c9be ea3f
00000160: c402 d6bf b08e 7cbf f4e2 0cc0 04cd 0fbf
00000170: fcfd b73f 1303 91bf cf39 f23e 7546 d4bd
00000180: da57 4b3f 39de 39c0 d4a7 aabf 1cef 2240
00000190: 1bca 45c0 7d59 2140 29b2 acbe 09b6 e83f
000001a0: 7c49 7a3f d125 39bf 6995 e93f 991c e43f
000001b0: f833 be3f c76a c2be 5b3f c23f 4ad4 af3f
000001c0: af57 9fbe 4ff4 babd 42d8 54bf d02d 06bf
000001d0: 9b5c 583f cd78 8cbf d1be 973f d16e 25bf
000001e0: 2887 d83f 6aa9 1d3f f08b 893f f600 5340
000001f0: abf5 cebf c959 fd3f a723 2cbf 168f a43e
00000200: 7315 3abf b110 d5bf 0599 a23d 518b 11bf
00000210: fe82 fe3f ea47 23c0 e81b 1940 c5da 723f
00000220: 21fb 233f 830b 8e3d e1eb 763f 9ffd 2f3f
00000230: 5f3f e73f 15ac ef3f 3811 01c0 8add 9e3f
00000240: 2b88 0e40 eb30 06c0 47f4 fa3f 05e1 b23f
00000250: 7dfe 953f 0c61 8e3f 84f3 923e 86be e33f
00000260: 1681 bc3f 664d 0640 52a2 933f 7318 5f3f
00000270: d849 13c0 8588 c73f b8cd fabf 1859 bf3e
00000280: ac10 52be ecd2 d8be 3c7a c2be bc81 05c0
00000290: 2df0 6940 44a8 99bf 9f54 0a3f ee7b 34bf
000002a0: c454 1940 b9d9 b93f 26f6 1240 a0f0 c03f
000002b0: 3244 f0bf 8872 b13f 047d b8bf ca3c fa3f
000002c0: 0b7f e03f 3bcf 933e 5f19 2540 00bc 0c40
000002d0: 4327 c1bf 6f16 f93f 9a42 e8bf 7e1b 023f
000002e0: 48a6 d5bf fcc3 e6bc 17e8 cfbf 33f3 c33d
000002f0: 6da5 4c3e 3618 51bf 2e97 23c0 e0d8 ef3e
00000300: ec50 323f 2398 35bf 4190 bf3f 756e 983f
00000310: 972f f73f 7cd0 a8bf 4a9b 8f3f 3f45 313e
00000320: 50fa 1dc0 cd75 2940 7450 c2bf f02a e4bf
00000330: e613 ab3f 755f 14c0 6a15 813f b948 0dc0
00000340: 5524 593f 2523 0bbf a2b8 733f 5cd7 3f3f
00000350: 70f2 2ebf 63e1 2c3f 82f3 4dbf 1420 23bf
00000360: 26d2 ef3f 0262 143f 5591 533f ffa9 5140
00000370: a95a dbbf bcc4 1e3f 2a1e 14c0 d035 3940
00000380: a03f de3f 41f9 88bf 78ac 0f40 9f67 473f
00000390: f121 1fbf 5e55 363f 38d8 d4bf 387a a53f
000003a0: d619 1cbe ab4c 6e3f dd5b 013d 6d08 54bf
000003b0: 3a4f 2cbf a372 413e 6265 f6bf eb43 a7bd
000003c0: 159e d13f 728a a33f bcd1 423f c26d 8b3e
000003d0: f24b f3bf 157e 8e3f 0998 eebe 70cc c03f
000003e0: 2cf6 373f 5a5a 693f ccf9 523f 3ed3 f73f
000003f0: a4e2 bebf 2643 0240 84f3 e9bf e8a1 1040

_pos_embeds f4 [64, 8]
0.0 1.0 0.0 1.0 0.0 1.0 0.0 1.0
0.84147096 0.5403023 0.099833414 0.9950042 0.009999833 0.99995 0.0009999998 0.9999995
0.9092974 -0.41614684 0.19866933 0.9800666 0.019998666 0.9998 0.0019999987 0.999998
0.14112 -0.9899925 0.29552022 0.9553365 0.029995501 0.99955004 0.0029999956 0.9999955
-0.7568025 -0.6536436 0.38941833 0.921061 0.039989334 0.9992001 0.0039999895 0.999992
-0.9589243 0.2836622 0.47942555 0.87758255 0.04997917 0.99875027 0.0049999794 0.9999875
-0.2794155 0.96017027 0.5646425 0.8253356 0.059964005 0.99820054 0.005999964 0.999982
0.6569866 0.75390226 0.64421767 0.7648422 0.06994285 0.997551 0.006999943 0.9999755
0.98935825 -0.14550003 0.7173561 0.6967067 0.0799147 0.99680173 0.007999915 0.999968
0.4121185 -0.91113025 0.7833269 0.62161 0.08987855 0.9959527 0.008999879 0.9999595
-0.5440211 -0.8390715 0.84147096 0.5403023 0.099833414 0.9950042 0.009999833 0.99995
-0.9999902 0.004425698 0.89120734 0.45359612 0.1097783 0.9939561 0.010999778 0.9999395
-0.53657293 0.84385395 0.9320391 0.36235777 0.119712204 0.99280864 0.011999712 0.999928
0.42016703 0.9074468 0.9635582 0.26749882 0.12963414 0.9915619 0.012999634 0.9999155
0.9906074 0.13673721 0.98544973 0.16996714 0.13954312 0.990216 0.013999542 0.999902
0.65028787 -0.7596879 0.997495 0.0707372 0.14943813 0.9887711 0.014999437 0.9998875
-0.2879033 -0.9576595 0.9995736 -0.029199522 0.15931821 0.98722726 0.015999317 0.999872
-0.96139747 -0.27516335 0.9916648 -0.1288445 0.16918235 0.9855848 0.016999181 0.9998555
-0.75098723 0.6603167 0.9738476 -0.22720209 0.17902957 0.9838437 0.017999029 0.999838
0.1498772 0.9887046 0.9463001 -0.32328957 0.1888589 0.9820042 0.018998858 0.9998195
0.9129453 0.40808207 0.9092974 -0.41614684 0.19866933 0.9800666 0.019998666 0.9998
0.8366556 -0.54772925 0.86320937 -0.5048461 0.2084599 0.9780309 0.020998457 0.9997795
-0.008851309 -0.99996084 0.8084964 -0.5885011 0.21822962 0.97589743 0.021998225 0.999758
-0.84622043 -0.53283304 0.7457052 -0.66627604 0.22797753 0.97366637 0.022997972 0.99973553
-0.9055784 0.42417902 0.6754632 -0.73739374 0.23770262 0.971338 0.023997696 0.999712
-0.13235176 0.99120283 0.5984721 -0.8011436 0.24740396 0.9689124 0.024997396 0.9996875
0.76255846 0.6469193 0.5155014 -0.8568888 0.25708055 0.96638995 0.02599707 0.99966204
0.95637596 -0.29213881 0.42737988 -0.90407217 0.26673144 0.9637709 0.026996719 0.9996355
0.2709058 -0.9626059 0.33498815 -0.94222236 0.27635565 0.96105546 0.02799634 0.99960804
-0.6636339 -0.74805754 0.23924933 -0.9709582 0.2859522 0.95824385 0.028995935 0.99957955
-0.9880316 0.15425146 0.14112 -0.9899925 0.29552022 0.9553365 0.029995501 0.99955004
-0.40403765 0.91474235 0.041580662 -0.99913514 0.30505863 0.95233357 0.030995036 0.9995195
00000000: 0000 0000 0000 803f 0000 0000 0000 803f
00000010: 0000 0000 0000 803f 0000 0000 0000 803f
00000020: a46a 573f 4051 0a3f 7675 cc3d 98b8 7e3f
00000030: 57d6 233c b9fc 7f3f 6d12 833a f8ff 7f3f
00000040: b7c7 683f 3311 d5be f96f 4b3e a5e5 7a3f
00000050: 3ed4 a33c e5f2 7f3f 6912 033b deff 7f3f
00000060: c381 103e 2670 7dbf 6d4e 973e ef90 743f
00000070: 20b9 f53c 83e2 7f3f 939b 443b b5ff 7f3f
00000080: cfbd 41bf 3055 27bf d761 c73e a7ca 6b3f
00000090: dbcb 233d 94cb 7f3f 5812 833b 7aff 7f3f
000000a0: 107c 75bf 2c3c 913e 4477 f53e 40a9 603f
000000b0: f5b6 4c3d 19ae 7f3f ded6 a33b 2eff 7f3f
000000c0: 8c0f 8fbe b8cd 753f 698c 103f 3249 533f
000000d0: d19c 753d 128a 7f3f 599b c43b d2fe 7f3f
000000e0: 4630 283f bdff 403f 73eb 243f b3cc 433f
000000f0: 323e 8f3d 815f 7f3f c75f e53b 65fe 7f3f
00000100: 9546 7d3f f6fd 14be a6a4 373f 5f5b 323f
00000110: 51aa a33d 662e 7f3f 1312 033c e7fd 7f3f
00000120: 3201 d33e d53f 69bf 1d88 483f d521 1f3f
00000130: 3f12 b83d c2f6 7e3f 3a74 133c 59fd 7f3f
00000140: f844 0bbf 64cd 56bf a46a 573f 4051 0a3f
00000150: 7675 cc3d 98b8 7e3f 57d6 233c b9fc 7f3f
00000160: 5cff 7fbf 7205 913b 2a26 643f c03d e83e
00000170: 72d3 e03d e873 7e3f 6a38 343c 09fc 7f3f
00000180: d85c 09bf d006 583f 1d9a 6e3f f586 b93e
00000190: ac2b f53d b528 7e3f 719a 443c 48fb 7f3f
000001a0: 2220 d73e 6f4e 683f c0ab 763f 9bf5 883e
000001b0: d0be 043e 00d7 7d3f 6bfc 543c 76fa 7f3f
000001c0: 7298 7d3f d704 0c3e 6f46 7c3f de0b 2e3e
000001d0: 64e4 0e3e cc7e 7d3f 565e 653c 94f9 7f3f
000001e0: 4479 263f e87a 42bf d55b 7f3f aade 903d
000001f0: 4f06 193e 1a20 7d3f 33c0 753c a1f8 7f3f
00000200: 1068 93be 2c29 75bf 0ee4 7f3f d633 efbc
00000210: 5024 233e edba 7c3f 0011 833c 9df7 7f3f
00000220: 251e 76bf 36e2 8cbe bfdd 7d3f d0ef 03be
00000230: 233e 2d3e 494f 7c3f de41 8b3c 88f6 7f3f
00000240: b340 40bf 840a 293f 144e 793f aaa7 68be
00000250: 8753 373e 2edd 7b3f b372 933c 62f5 7f3f
00000260: 6979 193e bf1b 7d3f b940 723f 3686 a5be
00000270: 3a64 413e a164 7b3f 7ea3 9b3c 2cf4 7f3f
00000280: c8b6 693f 22f0 d03e b7c7 683f 3311 d5be
00000290: f96f 4b3e a5e5 7a3f 3ed4 a33c e5f2 7f3f
000002a0: 102f 563f fc37 0cbf 4afb 5c3f 983d 01bf
000002b0: 8376 553e 3c60 7a3f f504 ac3c 8df1 7f3f
000002c0: 1505 11bc 6ffd 7fbf 9ff9 4e3f 02a8 16bf
000002d0: 9677 5f3e 6ad4 793f 9f35 b43c 24f0 7f3f
000002e0: e7a1 58bf bf67 08bf 89e6 3e3f 1191 2abf
000002f0: f172 693e 3342 793f 3e66 bc3c abee 7f3f
00000300: fcd3 67bf fe2d d93e 28eb 2c3f d6c5 3cbf
00000310: 5168 733e 9ba9 783f d196 c43c 20ed 7f3f
00000320: 3887 07be 78bf 7d3f 7835 193f bf17 4dbf
00000330: 7757 7d3e a50a 783f 57c7 cc3c 85eb 7f3f
00000340: 0837 433f 819c 253f e6f7 033f 105d 5bbf
00000350: 10a0 833e 5565 773f cff7 d43c dae9 7f3f
00000360: 0ed5 743f 3893 95be 89d1 da3e 4671 67bf
00000370: 0691 883e b1b9 763f 3928 dd3c 1de8 7f3f
00000380: 2ab4 8a3e 576d 76bf 9183 ab3e 7c35 71bf
00000390: 7d7e 8d3e bb07 763f 9558 e53c 50e6 7f3f
000003a0: e9e3 29bf b380 3fbf c7fd 743e b790 78bf
000003b0: 5468 923e 784f 753f e288 ed3c 72e4 7f3f
000003c0: a4ef 7cbf 18f4 1d3e c381 103e 2670 7dbf
000003d0: 6d4e 973e ef90 743f 20b9 f53c 83e2 7f3f
000003e0: 06de cebe 8e2c 6a3f 7c50 2a3d 52c7 7fbf
000003f0: a530 9c3e 22cc 733f 4de9 fd3c 83e0 7f3f

W f4 [8, 8]
-1.8657386 -0.90967053 -1.424669 2.1362438 0.8875246 0.11725607 -1.3961616 0.86159
3.8278482 2.0218945 0.16362794 -2.670943 -1.8633265 -1.7731789 0.9394156 -1.2851702
2.8405023 1.9107895 0.2731883 -1.566139 -1.3151858 -1.1011643 1.2553904 -1.6049691
3.108842 0.5634381 0.35185567 -0.8371378 -0.12707824 -0.6394066 -0.031867508 -0.07866177
-2.8234084 -1.1434362 -0.07976836 1.9563861 1.334072 1.1750942 -1.3403835 1.242128
0.52964616 -0.7484646 0.36417302 0.7213852 0.39368838 -0.5720661 -0.35790515 0.87808955
2.6164978 2.272626 0.6913516 -2.107347 -1.4453565 -1.2986133 2.3137872 -2.4646223
-2.2770526 -0.25955456 -0.33770183 0.770437 0.39531264 1.0829704 -0.36544117 0.20207267
00000000: 86d0 eebf 2be0 68bf 8e5b b6bf 38b8 0840
00000010: d034 633f f323 f03d 6cb5 b2bf 2a91 5c3f
00000020: 77fb 7440 b866 0140 158e 273e bbf0 2ac0
00000030: 7c81 eebf 87f7 e2bf 8a7d 703f 7580 a4bf
00000040: caca 3540 c094 f43f 56df 8b3e 3e77 c8bf
00000050: 0258 a8bf f4f2 8cbf a2b0 a03f a16f cdbf
00000060: 44f7 4640 7b3d 103f 6d26 b43e aa4e 56bf
00000070: cc20 02be 27b0 23bf 8187 02bd 6c19 a1bd
00000080: b9b2 34c0 1e5c 92bf 985d a3bd dc6a fa3f
00000090: dfc2 aa3f 7d69 963f b091 abbf 0dfe 9e3f
000000a0: e496 073f 609b 3fbf e374 ba3e b3ac 383f
000000b0: 8691 c93e ed72 12bf 583f b7be 7aca 603f
000000c0: b374 2740 b472 1140 6bfc 303f c6de 06c0
000000d0: 7101 b9bf f638 a6bf 1715 1440 5fbc 1dc0
000000e0: 3bbb 11c0 56e4 84be 41e7 acbe 5c3b 453f
000000f0: 6b66 ca3e c69e 8a3f 1b1b bbbe 23ec 4e3e

b f4 [8]
1.386395 -1.1099643 -1.4320049 -0.24335605 1.1280725 0.39941978 -2.0051954 0.546163
00000000: 6475 b13f 4f13 8ebf f04b b7bf 5432 79be
00000010: ae64 903f c080 cc3e 1f55 00c0 57d1 0b3f

W f4 [8, 8]
-1.9811611 0.53113717 0.41048792 -1.3871939 2.1318874 -2.313448 3.8153188 -0.06672551
-1.3080566 1.3494678 -3.778255 -1.3895537 -1.3483349 -1.9293365 -0.32659578 -1.0130221
0.050479572 0.6364918 1.6936555 -0.9053087 1.4072182 -1.1901122 2.7904608 -0.61160725
-1.5283098 0.8980389 -3.2600245 -2.058891 0.7279364 -1.8161635 3.9144094 -1.737943
-0.42158693 1.9119358 -2.7198858 -0.4112249 -1.8453189 -1.1576401 -2.4306693 -1.7451003
0.7228162 -0.34620118 -0.47696596 2.2115245 -1.1174988 2.3205087 -1.7662996 0.6397338
0.9717823 -0.015988402 -1.2918421 -0.054066226 -0.8693588 0.85949737 -2.6962464 -0.7026686
0.87240964 -0.41829666 -0.9987124 1.0356375 -1.7273352 1.407867 -1.6643898 0.91658723
00000000: b096 fdbf 9bf8 073f 792b d23e 928f b1bf
00000010: d870 0840 880f 14c0 2f2e 7440 62a7 88bd
00000020: 666e a7bf 5cbb ac3f eece 71c0 e5dc b1bf
00000030: 3d96 acbf 80f4 f6bf 9037 a7be b5aa 81bf
00000040: abc3 4e3d 20f1 223f b4c9 d83f 50c2 67bf
00000050: ba1f b43f 9955 98bf e996 3240 4b92 1cbf
00000060: a89f c3bf e1e5 653f 3ea4 50c0 dfc4 03c0
00000070: 0a5a 3a3f 0c78 e8bf af85 7a40 eb74 debf
00000080: 3eda d7be 50ba f43f 9c12 2ec0 128c d2be
00000090: 6933 ecbf 8d2d 94bf 1690 1bc0 725f dfbf
000000a0: 7c0a 393f 4841 b1be e234 f4be 9e89 0d40
000000b0: 330a 8fbf 3783 1440 1b16 e2bf 98c5 233f
000000c0: bac6 783f 1cfa 82bc 155b a5bf 8c74 5dbd
000000d0: 4c8e 5ebf 0508 5c3f 4d8f 2cc0 17e2 33bf
000000e0: 3d56 5f3f fb2a d6be 9eab 7fbf c58f 843f
000000f0: 5219 ddbf fc34 b43f ba0a d5bf 76a5 6a3f

b f4 [8]
0.47971514 -1.851844 0.75145257 -1.4958599 -1.504892 0.03178451 -0.7357369 -0.4613996
00000000: 399d f53e 3909 edbf 325f 403f 5678 bfbf
00000010: 4da0 c0bf 7930 023d 4159 3cbf 923c ecbe

W f4 [8, 8]
5.475619 -1.658924 1.3221565 -3.8542612 -3.036337 3.031383 -2.5820925 2.0209386
0.04191712 0.5684939 1.9748883 -0.7585778 -2.1791258 1.9101055 -1.1433195 0.19356443
3.6681664 -0.23521268 0.21790044 -3.2824364 -1.6818892 2.2076705 -1.655304 1.8485054
3.1947713 1.0424144 1.7096134 -3.5508711 -3.302355 2.3315408 -2.2284923 2.2046657
-3.5792289 2.07618 -0.34716848 0.45095098 0.7526154 -0.9465662 0.52600104 -1.3138328
-0.560707 -0.703165 -0.93539256 1.9095033 2.1531703 -1.9819136 1.5021739 -1.6817536
-1.0632823 -0.69382584 -0.769552 0.49139223 1.7330525 -1.2453332 1.3853776 -0.32657832
-0.61546487 -0.48311502 -0.59742445 2.1054726 1.6571842 -1.6501647 1.1774992 -1.6441102
00000000: 4538 af40 9f57 d4bf 6d3c a93f 37ac 76c0
00000010: 5853 42c0 2e02 4240 0141 25c0 0f57 0140
00000020: 49b1 2b3d d188 113f 24c9 fc3f 2832 42bf
00000030: cc76 0bc0 567e f43f 4b58 92bf c135 463e
00000040: 3dc3 6a40 98db 70be 4b21 5f3e 7013 52c0
00000050: 2548 d7bf 794a 0d40 00e1 d3bf d39b ec3f
00000060: 2277 4c40 d66d 853f 9dd4 da3f 7941 63c0
00000070: c959 53c0 f737 1540 9e9f 0ec0 3e19 0d40
00000080: 1612 65c0 22e0 0440 11c0 b1be 0ce3 e63e
00000090: 67ab 403f 2a52 72bf 01a8 063f ac2b a8bf
000000a0: 7e8a 0fbf 9f02 34bf e375 6fbf 9b6a f43f
000000b0: 8bcd 0940 58af fdbf 3c47 c03f b443 d7bf
000000c0: a219 88bf 929e 31bf 5c01 45bf c397 fb3e
000000d0: aad4 dd3f 1467 9fbf 0e54 b13f 4635 a7be
000000e0: 1b8f 1dbf da5a f7be cff0 18bf 10c0 0640
000000f0: 9d1e d43f 9938 d3bf 4bb8 963f 3472 d2bf

b f4 [8]
-0.0022095847 -0.007372761 0.006916716 0.007683461 0.0094583165 -0.007066979 0.0047527226 0.0043622227
00000000: aece 10bb 3497 f1bb 9fa5 e23b 8bc5 fb3b
00000010: 0ef7 1a3c 1e92 e7bb babc 9b3b faf0 8e3b

W f4 [8, 8]
-1.9904191 3.5763857 3.3046515 -1.4799215 -2.466998 -3.304343 2.8680487 0.10092911
-0.2722825 -1.6061375 -0.745963 0.37408397 1.0522114 0.18585831 -0.76621354 -1.0268565
-1.7876958 3.4177747 2.7745123 -2.1229775 -2.7389798 -2.3822398 2.7415662 1.7371014
3.2525766 -1.7944971 -3.7176044 -2.250981 2.6674917 2.3850956 -2.9149399 2.0033457
-0.9865079 2.1065948 1.711091 -1.4431859 -2.3018117 -2.4778836 2.3550975 0.43398532
1.0065875 2.6273804 1.2264806 -0.7408405 -0.93763024 -1.8268124 1.9155859 1.6029166
-1.9544415 -2.8772125 -0.78252506 1.5738218 1.0826535 1.9642676 -1.7431216 -1.79645
-0.014707939 1.6406 0.62450075 0.3863486 -1.2710607 0.23245688 0.06254305 0.2803943
00000000: 0ec6 febf 81e3 6440 697f 5340 116e bdbf
00000010: 4ce3 1dc0 5b7a 53c0 1c8e 3740 ecb3 ce3d
00000020: 9d68 8bbe ea95 cdbf 6ef7 3ebf ef87 bf3e
00000030: ddae 863f a451 3e3e 9226 44bf 0970 83bf
00000040: 37d3 e4bf d2bc 5a40 9c91 3140 ddde 07c0
00000050: 724b 2fc0 9e76 18c0 d275 2f40 5759 de3f
00000060: 372a 5040 15b2 e5bf 3bed 6dc0 1310 10c0
00000070: 2fb8 2a40 68a5 1840 608e 3ac0 d136 0040
00000080: c88b 7cbf 73d2 0640 0805 db3f 51ba b8bf
00000090: e250 13c0 a595 1ec0 ebb9 1640 5333 de3e
000000a0: dcd7 803f 0027 2840 51fd 9c3f b9a7 3dbf
000000b0: 8908 70bf fdd4 e9bf eb31 f53f 5f2c cd3f
000000c0: 242b fabf 4024 38c0 9053 48bf fe72 c93f
000000d0: 6494 8a3f 1f6d fb3f 9c1e dfbf 13f2 e5bf
000000e0: 91f9 70bc 2eff d13f 48df 1f3f 7ccf c53e
000000f0: 1eb2 a2bf 2d09 6e3e 9216 803d d78f 8f3e

b f4 [8]
-1.955324 0.7232489 -1.375508 1.6217976 -0.9031579 -0.24747802 0.98677 -0.3025671
00000000: 0f48 fabf d726 393f a510 b0bf 1097 cf3f
00000010: 5b35 67bf e16a 7dbe f59c 7c3f 13ea 9abe

weight f4 [8]
2.5196228 -0.73116255 1.7712886 7.2117634 -0.516606 -0.48922816 1.1651869 0.09262314
00000000: 8041 2140 782d 3bbf 96b9 e23f c4c6 e640
00000010: 4a40 04bf 1d7c fabe d824 953f 33b1 bd3d

bias f4 [8]
-3.1582408 -0.07482757 -1.8835341 5.4273987 0.863155 1.9500701 0.25361922 3.6158934
00000000: 9e20 4ac0 323f 99bd a517 f1bf 40ad ad40
00000010: baf7 5c3f e69b f93f 61da 813e cc6a 6740

W1 f4 [8, 32]
0.20982967 -1.1410683 0.9851747 -0.19335745 0.009069085 0.7485576 -4.072453 -0.21360998
0.3182629 1.0138131 0.4437641 1.5842222 -0.21029226 -0.3965078 -0.11175201 -6.155793
0.1601469 0.50825757 9.989567 0.2458801 0.4722942 0.684231 0.544889 0.62665886
0.47442165 1.1554606 1.0980418 0.6267767 2.7686481 -0.20531666 0.22869626 -0.31266803
0.8650044 0.874285 -1.2812221 1.7339416 0.81957924 0.031380236 -1.5955199 1.5531608
0.24992058 0.49488142 1.8967841 0.6408915 0.018172003 0.9675424 1.8164078 -4.921675
1.9648584 -0.6103733 1.875404 0.29408756 -0.48096743 0.905541 1.4295079 0.6304283
-0.5808791 -1.7826412 -0.37499222 1.0326067 0.36673844 -0.91146743 1.1990849 -0.8486699
-0.38649938 0.14950743 1.0880289 -0.38998187 0.047470294 0.885484 -3.5915515 -0.30018407
0.9104213 0.04119855 0.5002171 1.2302811 -0.102112785 -0.2939964 -0.39729756 -5.2023425
-0.81907177 0.19072181 9.050248 0.20466493 0.5183678 0.6613782 1.1403823 0.25138143
1.4495095 0.8642586 2.0135133 -0.20558009 2.9805348 -0.23895173 0.44804525 0.25440106
-0.53415966 0.0027987368 0.5751457 0.029733928 -0.19267918 -1.6751189 5.032252 -0.22096252
-0.2914888 -0.77922195 -0.73897976 -1.4895234 -1.296885 -0.1109475 -0.32727152 8.279964
-3.9466455 -0.13775744 -6.143649 0.131812 -1.1152252 -0.78592724 -0.5072766 -0.3503947
-0.7466543 -0.34139302 -0.82564473 -2.0411086 -1.1747352 -0.28571436 -0.6217664 -0.86942154
0.70146936 0.71600634 -0.50080264 -0.029753756 0.16810888 -0.9448244 2.848647 1.3579416
-0.5881193 -0.34304625 0.7019822 -0.7418799 -0.3010324 0.5622155 0.7039493 5.196483
0.50044185 0.36051753 -0.2935489 -1.8138522 -0.5888027 -0.17416917 0.54079366 -0.605023
0.960131 -1.2089182 0.29822633 0.07998794 0.22553778 0.26477778 -0.339658 -0.06070852
0.22683477 -1.1164577 -3.138334 -1.1842287 0.3555859 1.5370374 3.943466 3.2711434
2.0249653 0.14855124 -0.36220887 -1.1018469 -0.3230258 -0.83076864 -3.0709045 5.155195
0.38207552 -0.09973551 -0.88227093 -1.2102385 0.85596 -0.40430415 -0.871422 0.3288557
1.1940643 1.9345695 2.2106946 1.1408267 0.65826595 0.50809276 1.0714388 0.68392634
0.24802409 0.6559816 -0.58628464 0.69604576 -0.49831071 -2.0318463 1.0872602 -1.3887675
-2.7341685 -1.8455085 -0.71300745 -1.5907019 -0.04602375 -1.3977779 1.1961584 2.0677738
0.3996495 -0.70848393 -8.82161 -0.14878556 -1.3852465 -1.0161109 -0.38462162 -0.4297394
-1.9606645 -0.48452395 -2.6581154 -0.7248619 -4.2605147 -0.800224 -0.9977438 -0.83065146
-0.16002494 -1.8865541 0.5553644 -1.1471475 -0.37995034 -1.6038673 2.6595354 -1.4284698
-0.02483474 -1.3432227 -0.9199384 -1.8421106 -0.14163722 -0.61119133 -1.8480356 6.8144484
-1.8158631 0.6588782 -2.4705458 -1.1649301 -1.6129651 -1.2073908 -0.92860484 -0.4363258
-0.76756173 1.4907376 0.053544182 -0.5542217 -0.38651457 -0.14866218 -1.6124421 -0.52773374
00000000: 97dd 563e 870e 92bf 6934 7c3f 7fff 45be
00000010: 8096 143c 79a1 3f3f 8951 82c0 93bc 5abe
00000020: 5bf3 a23e a1c4 813f 0c35 e33e cbc7 ca3f
00000030: db56 57be 1203 cbbe 3dde e4bd 42fc c4c0
00000040: 8dfd 233e 2b1d 023f 44d5 1f41 fec7 7b3e
00000050: 8cd0 f13e c329 2f3f d87d 0b3f b76c 203f
00000060: 65e7 f23e 22e6 933f a28c 8c3f 7074 203f
00000070: 8831 3140 883e 52be 5a2f 6a3e 0616 a0be
00000080: ee70 5d3f 24d1 5f3f 16ff a3bf ccf1 dd3f
00000090: f2cf 513f 9088 003d ff39 ccbf f9cd c63f
000000a0: 2eeb 7f3e 1961 fd3e d2c9 f23f 7711 243f
000000b0: 74dd 943c dcb0 773f 0d80 e83f 5d7e 9dc0
000000c0: 7b80 fb3f 6d41 1cbf 3d0d f03f a592 963e
000000d0: 5d41 f6be 89d1 673f 1dfa b63f c063 213f
000000e0: 7eb4 14bf 962d e4bf fbfe bfbe 752c 843f
000000f0: 24c5 bb3e ee55 69bf 9d7b 993f 6e42 59bf
00000100: 3fe3 c5be 7a18 193e 8844 8b3f b4ab c7be
00000110: 3670 423d 14af 623f fbdb 65c0 bab1 99be
00000120: 5f11 693f d0bf 283d 3a0e 003f da79 9d3f
00000130: 8220 d1bd b286 96be 966a cbbe 9779 a6c0
00000140: b0ae 51bf 944c 433e d1cd 1041 af93 513e
00000150: c1b3 043f 1550 293f 0cf8 913f 11b5 803e
00000160: 8789 b93f 0d40 5d3f 67dd 0040 9683 52be
00000170: 15c1 3e40 c3af 74be 3066 e53e db40 823e
00000180: b0be 08bf 036b 373b c03c 133f 9194 f33c
00000190: b14d 45be 4c6a d6bf 3508 a140 0044 62be
000001a0: 053e 95be 177b 47bf c72d 3dbf b4a8 bebf
000001b0: 5400 a6bf 7138 e3bd 2290 a7be bc7a 0441
000001c0: d795 7cc0 4910 0dbe c698 c4c0 baf9 063e
000001d0: b3bf 8ebf 8732 49bf e1dc 01bf ef66 b3be
000001e0: bc24 3fbf 11cb aebe 745d 53bf 86a1 02c0
000001f0: b95d 96bf 2749 92be 152c 1fbf 6992 5ebf
00000200: 7f93 333f 314c 373f 9a34 00bf 26be f3bc
00000210: bc24 2c3e 03e0 71bf 3c50 3640 08d1 ad3f
00000220: fd8e 16bf c2a3 afbe 1bb5 333f d7eb 3dbf
00000230: eb20 9abe 5bed 0f3f 0536 343f 9749 a640
00000240: f51c 003f c195 b83e 0b4c 96be 4f2c e8bf
00000250: c6bb 16bf 6759 32be 7471 0a3f cae2 1abf
00000260: 25cb 753f d5bd 9abf 1fb1 983e b8d0 a33d
00000270: 60f3 663e f490 873e a7e7 adbe 7fa9 78bd
00000280: 6047 683e 16e8 8ebf 77da 48c0 ce94 97bf
00000290: 5b0f b63e a4bd c43f bf61 7c40 6a5a 5140
000002a0: 0899 0140 d11d 183e 7173 b9be 5209 8dbf
000002b0: a363 a5be 41ad 54bf b389 44c0 5cf7 a440
000002c0: 679f c33e 2242 ccbd 82dc 61bf 18e9 9abf
000002d0: 3220 5b3f f400 cfbe 8315 5fbf c65f a83e
000002e0: 19d7 983f f99f f73f 057c 0d40 9c06 923f
000002f0: 1e84 283f 5e12 023f e824 893f cc15 2f3f
00000300: 07fa 7d3e 69ee 273f c016 16bf 0e30 323f
00000310: 9522 ffbe c509 02c0 582b 8b3f 22c3 b1bf
00000320: 9efc 2ec0 9f39 ecbf a887 36bf 1f9c cbbf
00000330: 6683 3cbd 63ea b2bf b81b 993f 6856 0440
00000340: dc9e cc3e 345f 35bf 5125 0dc1 3e5b 18be
00000350: c24f b1bf ec0f 82bf 20ed c4be cd06 dcbe
00000360: 0ef7 fabf 8613 f8be 901e 2ac0 8d90 39bf
00000370: 2356 88c0 7bdb 4cbf 236c 7fbf 93a5 54bf
00000380: 94dd 23be 9b7a f1bf 5c2c 0e3f bbd5 92bf
00000390: da88 c2be 864b cdbf d435 2a40 19d8 b6bf
000003a0: 3a72 cbbc b9ee abbf 1581 6bbf 48ca ebbf
000003b0: 5909 11be 0977 1cbf 6e8c ecbf f60f da40
000003c0: 346e e8bf 3eac 283f 6c1d 1ec0 6e1c 95bf
000003d0: a475 cebf c88b 9abf 0cb9 6dbf 1866 dfbe
000003e0: ed7e 44bf 7dd0 be3f 2551 5b3d 79e1 0dbf
000003f0: 3de5 c5be e63a 18be 8164 cebf 8f19 07bf

b1 f4 [32]
-0.4784308 0.18533395 0.15123007 0.4748411 -0.6390913 -3.270538 2.249153 -1.8586828
-0.67637706 -0.85071445 -0.816459 -1.398397 -0.93609595 -1.298015 0.85520464 6.7761207
-1.3757805 -1.5547643 0.1661489 -0.1108676 -2.0156379 -0.6468513 -0.9786007 -0.29729465
-0.38998556 -1.4180689 -0.48702824 0.37695885 -0.18845685 -1.3268291 -1.3485379 -1.5540065
00000000: e2f4 f4be 2fc8 3d3e 0edc 1a3e 5f1e f33e
00000010: 7d9b 23bf 7f50 51c0 1ff2 0f40 51e9 edbf
00000020: 0c27 2dbf 6cc8 59bf 7503 51bf acfe b2bf
00000030: fca3 6fbf 5b25 a6bf b1ee 5a3f fbd5 d840
00000040: 9319 b0bf 8402 c7bf f022 2a3e 8d0e e3bd
00000050: 3600 01c0 0c98 25bf 9385 7abf 0137 98be
00000060: 30ac c7be 4883 b5bf c45b f9be c000 c13e
00000070: d5fa 40be 89d5 a9bf e49c acbf afe9 c6bf

W2 f4 [32, 8]
0.38749057 1.5002154 -1.0238538 -1.0478634 -0.46896052 0.6140688 0.40272024 -0.18028875
0.09950566 0.67970884 -0.8158768 1.2171907 -1.302359 1.0906125 -3.5348315 -0.78342265
-1.2839134 -1.3192184 -1.443965 -11.302322 -0.8139814 -1.0507319 10.241939 -1.5638306
-0.5315935 1.4436953 1.5364249 -6.3035283 -0.22081539 -0.40969846 1.5753483 2.4971855
-1.151353 0.66092336 0.56220436 -1.88919 -0.8537761 -0.23285174 -1.7740388 -0.018861355
4.5144506 2.456725 2.3704226 5.7322645 0.54535943 0.864056 -5.7804403 -1.1511075
-1.1691709 -1.6344696 -1.8570966 -13.8256645 -0.63770896 -1.3094568 13.521428 -0.8438582
0.82524645 1.4214659 -0.5341544 3.370761 -0.14844702 0.78757036 -1.2204288 0.95668805
-1.7378306 0.20837042 -0.0982904 -2.386506 -0.22376402 1.2649875 -2.3892999 -0.26641917
1.3812916 -1.0318323 0.70440376 2.102432 -0.7407266 0.7326307 -0.50092065 1.3892045
0.8658579 1.0788108 -0.8154895 0.5250593 -0.0915402 0.31184885 -0.16336727 0.95509976
-0.789192 0.41166854 -0.61133003 1.2481215 -0.15318011 0.20334817 -1.8109679 0.7540479
1.3645833 0.91327626 0.2037727 -0.85037464 -0.07762657 0.2956823 -3.4062755 -0.022111584
0.7514507 1.8387227 -1.5822666 0.82392335 -0.043215603 0.87811226 0.18135256 -0.2572635
-0.5595871 -0.6206999 0.27099487 -5.87582 -2.0344799 0.5463252 3.2639291 0.7080994
-1.824921 -1.1150873 -2.081891 -16.923378 -1.5553433 -1.2660687 13.454766 -1.3722007
2.1225324 -0.80836576 0.45041463 8.417842 -2.0706656 0.7014002 -8.597723 2.1547453
-0.5592513 0.820191 -0.6273016 -0.80160916 -1.451942 1.5019205 -1.6223059 -0.9088148
0.4265896 0.5670172 -0.109911926 7.7733955 -1.141064 1.4680163 -15.92451 -0.44793892
-0.26475915 0.52419907 -1.5713232 -3.6063702 -1.227323 -0.38154256 3.6726458 1.121491
0.74629056 -0.54775554 -1.0496868 -0.5147423 -0.8602731 0.41687915 -0.7692866 0.50323486
-0.07758209 0.7367107 0.2849863 4.5547934 -0.067383684 -0.050451186 -4.6809654 1.3391354
-1.0376015 0.47192478 0.30889365 0.4082226 1.105732 -1.247503 -3.5422769 -0.43079427
0.5207573 -0.26344365 0.12588839 2.9567015 -0.082754426 1.012163 -4.5218997 0.08743815
-1.5708289 0.67052245 -0.24435464 -0.42236957 -1.0019667 0.82262254 -1.86791 -0.06838952
-0.57645166 0.8280649 -0.42278725 0.6926963 0.014108584 1.0046598 -3.4842417 -0.5295577
-0.3124866 1.1348484 0.5284242 2.7792099 -0.7681998 1.0195298 -4.2782903 0.15497802
0.8415871 0.9869991 0.54885906 4.5035143 -0.90798897 1.1551077 -7.069649 -0.06943396
0.17592528 1.3009557 -0.11441576 3.7545958 -1.7534367 1.211191 -10.958177 -0.87853473
0.13627492 0.7918275 -0.93055266 -0.5380472 -1.3537099 0.9291382 -1.9277941 -1.1744294
0.6295481 0.92835736 0.861502 3.7655141 0.6300695 0.7107129 -3.9391582 1.5171616
-0.7012645 2.4745045 0.83219093 -2.2150524 0.18302405 -0.21468247 -2.4976122 2.2156186
00000000: 2a65 c63e 0f07 c03f a40d 83bf 6320 86bf
00000010: 981b f0be 9d33 1d3f 5931 ce3e 9d9d 38be
00000020: a0c9 cb3d 6601 2e3f 4ddd 50bf e8cc 9b3f
00000030: b3b3 a6bf 3199 8b3f ae3a 62c0 638e 48bf
00000040: 4657 a4bf 26dc a8bf d8d3 b8bf 50d6 34c1
00000050: 1661 50bf 627e 86bf fbde 2341 9a2b c8bf
00000060: 8316 08bf 02cb b83f 92a9 c43f 81b6 c9c0
00000070: 6e1d 62be ffc3 d1be 03a5 c93f e3d1 1f40
00000080: 895f 93bf 4632 293f a0ec 0f3f fad0 f1bf
00000090: 1291 5abf b070 6ebe b413 e3bf 2183 9abc
000000a0: 6176 9040 fb3a 1d40 01b5 1740 b66e b740
000000b0: ad9c 0b3f c632 5d3f 5ef9 b8c0 7e57 93bf
000000c0: 64a7 95bf 4d36 d1bf 57b5 edbf ec35 5dc1
000000d0: e540 23bf 489c a7bf c557 5841 1707 58bf
000000e0: 5a43 533f 98f2 b53f 58be 08bf 8cba 5740
000000f0: 7f02 18be 369e 493f 0337 9cbf 82e9 743f
00000100: 3c71 debf 0e5f 553e 7a4c c9bd 84bc 18c0
00000110: 6522 65be 1ceb a13f 4aea 18c0 1868 88be
00000120: 2ace b03f 1513 84bf ce53 343f 3f8e 0640
00000130: 42a0 3dbf b08d 3b3f 563c 00bf 74d1 b13f
00000140: dda8 5d3f 7916 8a3f ebc3 50bf 496a 063f
00000150: 6e79 bbbd a7aa 9f3e c049 27be 6b81 743f
00000160: 7d08 4abf 38c6 d23e 2080 1cbf 72c2 9f3f
00000170: 3fdb 1cbe 813a 503e cccd e7bf 4809 413f
00000180: aaaa ae3f 79cc 693f caa9 503e 27b2 59bf
00000190: aefa 9ebd ac63 973e 6b00 5ac0 5a23 b5bc
000001a0: 135f 403f 445b eb3f b687 cabf a4ec 523f
000001b0: d802 31bd f7cb 603f 7cb4 393e 0bb8 83be
000001c0: 1a41 0fbf 30e6 1ebf d7bf 8a3e b806 bcc0
000001d0: eb34 02c0 f8db 0b3f 37e4 5040 0146 353f
000001e0: 0397 e9bf 2ebb 8ebf b43d 05c0 1463 87c1
000001f0: 7d15 c7bf 8a0e a2bf b946 5741 46a4 afbf
00000200: 92d7 0740 0ff1 4ebf bf9c e63e 7baf 0641
00000210: c985 04c0 f78e 333f 4690 09c1 59e7 0940
00000220: 182b 0fbf 0af8 513f d696 20bf 4236 4dbf
00000230: 3cd9 b9bf ee3e c03f b8a7 cfbf 16a8 68bf
00000240: f469 da3e 0a28 113f 8119 e1bd a8bf f840
00000250: 630e 92bf f5e7 bb3f cbca 7ec1 4058 e5be
00000260: 838e 87be e931 063f 1e21 c9bf c5ce 66c0
00000270: ec18 9dbf 8c59 c3be a10c 6b40 048d 8f3f
00000280: e60c 3f3f b539 0cbf 235c 86bf 27c6 03bf
00000290: dc3a 5cbf 2f71 d53e f7ef 44bf 00d4 003f
000002a0: 5ce3 9ebd 1399 3c3f b9e9 913e dec0 9140
000002b0: 7500 8abd e7a5 4ebd 78ca 95c0 ca68 ab3f
000002c0: 20d0 84bf 20a0 f13e 4f27 9e3e 8d02 d13e
000002d0: a088 8d3f 2eae 9fbf aab4 62c0 1191 dcbe
000002e0: 5a50 053f 16e2 86be e3e8 003e 993a 3d40
000002f0: 277b a9bd 8f8e 813f 67b3 90c0 c612 b33d
00000300: ec10 c9bf 5ca7 2b3f 1a38 7abe d340 d8be
00000310: 7240 80bf 6497 523f ad17 efbf ce0f 8cbd
00000320: 5692 13bf 10fc 533f 9277 d8be 8b54 313f
00000330: b127 673c b198 803f d1fd 5ec0 1891 07bf
00000340: 3efe 9fbe b642 913f cf46 073f 93de 3140
00000350: bea8 44bf f47f 823f c1e7 88c0 8fb2 1e3e
00000360: 4172 573f f9ab 7c3f 0782 0c3f ca1c 9040
00000370: f771 68bf 92da 933f 913a e2c0 6433 8ebd
00000380: c225 343e b785 a63f cf52 eabd 4c4b 7040
00000390: 9d70 e0bf 4f08 9b3f b154 2fc1 a7e7 60bf
000003a0: a78b 0b3e 35b5 4a3f b338 6ebf 76bd 09bf
000003b0: 5e46 adbf 00dc 6d3f f5c1 f6bf b453 96bf
000003c0: 102a 213f d4a8 6d3f 658b 5c3f 2ffe 7040
000003d0: 3c4c 213f 48f1 353f 2b1b 7cc0 5a32 c23f
000003e0: 1286 33bf 485e 1e40 770a 553f 6bc3 0dc0
000003f0: a86a 3b3e b9d5 5bbe e1d8 1fc0 b2cc 0d40

b2 f4 [8]
-0.89328945 0.22132032 -1.2523636 -3.3533945 -0.9999249 0.8060503 1.6786824 -1.207632
00000000: 9eae 64bf cba1 623e 734d a0bf 049e 56c0
00000010: 14fb 7fbf 5059 4e3f 11df d63f af93 9abf

weight f4 [8]
-0.15290774 -0.13209829 0.0105207 0.053708654 -0.19002415 0.16271737 0.02685193 -0.23887369
00000000: d993 1cbe c644 07be 045f 2c3c 9bfd 5b3d
00000010: b195 42be 629f 263e 94f8 db3c 4e9b 74be

bias f4 [8]
-0.038473934 -0.014009638 0.008223717 0.0544445 -0.042090714 0.05596312 -0.08456785 -0.083790824
00000000: d896 1dbd ae88 65bc c5bc 063c 3201 5f3d
00000010: 5067 2cbd 9639 653d e931 adbd 869a abbd

weight f4 [1, 8]
0.031064028 -0.00201424 -0.0035255519 0.0057853446 0.050800305 -0.0594935 0.026358575 0.11338496
00000000: fd79 fe3c 5701 04bb f20c 67bb fd92 bd3b
00000010: fb13 503d 75af 73bd f0ed d73c 6036 e83d
