saved_models/model-epoch-24.pth (torch, 249162 bytes, 52 tensors)

embeddings f4 [99, 32]
0.2128695 -0.20083171 0.11755146 0.036009576 -0.05703801 -0.10132338 0.08519357 -0.17094488
-0.12129897 0.09132291 0.01995819 -0.17695524 0.1554961 -0.21097332 -0.013712365 -0.14806706
0.19907875 -0.07912342 0.16535728 -0.046046432 0.033549882 0.17327212 -0.08475664 -0.083637826
-0.20785633 -0.06150425 -0.16457088 0.12644832 0.16124408 0.17829356 -0.09368147 0.15567085
-0.013351978 0.096616454 0.10648738 -0.012576148 0.07914919 0.16872108 -0.114146486 -0.1972859
0.08236675 -0.08731078 0.00806511 -0.1833975 -0.020049984 -0.13155146 -0.1686122 0.056884885
0.1738409 -0.11960607 -0.09969528 0.13939558 -0.14583999 -0.099335454 0.17668648 0.115167946
0.030732505 0.09864397 -0.07962269 0.20624965 -0.1394938 -0.033449363 -0.059442088 0.19357248
-0.16739506 -0.048454285 -0.16033517 0.15762551 -0.11344638 -0.084971406 -0.14312808 -0.022784498
-0.206643 -0.118263155 0.05287909 -0.21023054 -0.054812364 0.116816916 0.03480519 0.058333986
-0.09449209 0.10222029 0.014829958 -0.1063964 0.19708782 -0.054723073 0.04633018 0.041888434
0.02151286 -0.14797853 -0.005480405 -0.009805255 -0.11338341 -0.03726264 0.01754197 -0.011377885
-0.21170251 0.038262367 -0.14380604 0.20071165 0.15036644 0.004802032 0.11596745 0.06468232
0.050966334 -0.09560555 0.002638791 0.003104544 0.16608585 -0.056606445 0.024899673 -0.09978866
-0.08006243 -0.053361632 0.09441556 0.098086886 -0.20300199 -0.06328123 -0.0022838125 0.10748981
-0.14289026 -0.10710978 0.20378226 -0.18926553 0.010149008 -0.06708226 -0.12704134 -0.18730702
-0.19997434 0.14900112 0.03378878 0.047896434 0.04745048 -0.14808145 -0.15229869 0.027481673
-0.052713722 0.15515536 0.020975469 0.15373999 0.012137846 -0.18745768 0.03616658 -0.15013565
0.1386969 -0.13977301 -0.17412974 -0.17039229 -0.14294143 0.1524437 0.0033123163 -0.17014849
-0.08405291 0.05891138 0.13177091 0.042461187 0.13332574 -0.077089116 0.20328477 0.07027564
-0.07490266 -0.044907205 0.0069531803 -0.14712541 -0.16704307 0.16938445 -0.09179274 0.14837229
0.18039475 -0.014398902 0.040888913 0.1783704 0.007978316 0.16898978 0.18481043 0.028337153
0.051162064 0.11363456 0.16834319 0.17355464 0.022008566 -0.12194525 0.17257278 0.1066329
-0.07661305 -0.20260787 -0.12876393 -0.03702655 0.19991066 -0.05994101 -0.19020179 0.157189
0.17390819 0.013445608 -0.15499468 -0.07356969 -0.13790841 0.18722175 -0.17242287 -0.05843231
-0.20348024 0.032563627 -0.019336557 0.07402493 -0.20190398 0.041237716 -0.19820143 0.1770407
-0.008959368 -0.19179478 -0.05128248 0.20309894 -0.04913929 -0.19377923 -0.17895167 -0.16140501
-0.0762045 -0.12484524 -0.17336136 0.02105119 -0.16964447 0.18534587 0.09504255 -0.13162671
0.025991958 -0.008678171 -0.15898731 0.16527712 -0.10435363 0.029330859 -0.13533953 -0.17353597
-0.021139769 0.15991585 -0.12379581 0.20997012 -0.007465876 0.10536897 0.12106339 0.10067368
0.0019959824 0.03470396 -0.06455053 0.16380863 0.19698614 -0.2089059 -0.079336956 -0.1691959
0.01103505 -0.1962057 -0.12419227 0.20560904 -0.027489685 -0.023389446 0.14481542 0.027165372
00000000: 76fa 593e d4a6 4dbe d2be f03d c77e 133d
00000010: b0a0 69bd a282 cfbd f779 ae3d 2d0c 2fbe
00000020: 986b f8bd 8107 bb3d 5c7f a33c c133 35be
00000030: 5f3a 1f3e 6409 58be d4a9 60bc e49e 17be
00000040: 4ddb 4b3e 760b a2bd 6b53 293e 2f9b 3cbd
00000050: 9a6b 093d 3f6e 313e e494 adbd 4f4a abbd
00000060: 4ad8 54be e1eb 7bbd 4585 28be ab7b 013e
00000070: 2b1d 253e 9692 363e 12dc bfbd 2e68 1f3e
00000080: 41c2 5abc d9de c53d 0e16 da3d 300c 4ebc
00000090: f818 a23d 38c5 2c3e a2c5 e9bd 5105 4abe
000000a0: e6af a83d ffcf b2bd 8623 043c 8ecc 3bbe
000000b0: dd3f a4bc 6db5 06be ada8 2cbe 2000 693d
000000c0: 5903 323e 07f4 f4bd 0a2d ccbd b7bd 0e3e
000000d0: 1457 15be 6370 cbbd 4ded 343e 2cdd eb3d
000000e0: bcc2 fb3c da05 ca3d 3911 a3bd 1c33 533e
000000f0: 76d7 0ebe 3302 09bd 8c79 73bd dd37 463e
00000100: 9c69 2bbe 0078 46bd e72e 24be 9568 213e
00000110: 9356 e8bd 7d05 aebd 2b90 12be 8ea6 babc
00000120: 399a 53be f433 f2bd bf97 583d ad46 57be
00000130: ee82 60bd b53d ef3d e38f 0e3d 9eef 6e3d
00000140: 1285 c1bd df58 d13d 5af9 723c 5be6 d9bd
00000150: 64d1 493e 4d25 60bd b7c4 3d3d 3593 2b3d
00000160: bd3b b03c af87 17be f894 b3bb 38a6 20bc
00000170: 9035 e8bd b6a0 18bd 2db4 8f3c 4f6a 3abc
00000180: 8bc8 58be 00b9 1c3d e441 13be 5b87 4d3e
00000190: a9f9 193e 5d5a 9d3b 5880 ed3d 2a78 843d
000001a0: 13c2 503d d8cc c3bd 91ef 2c3b 9b75 4b3b
000001b0: 6912 2a3e 29dc 67bd 66fa cb3c ff5d ccbd
000001c0: c5f7 a3bd ba91 5abd f25c c13d c7e1 c83d
000001d0: c1df 4fbe 9799 81bd 04ac 15bb 9e23 dc3d
000001e0: d351 12be 5f5c dbbd 4cac 503e d3ce 41be
000001f0: 0648 263c 6d62 89bd 2017 02be 69cd 3fbe
00000200: 13c6 4cbe c093 183e 1b66 0a3d 0d2f 443d
00000210: 6f5b 423d aaa2 17be 30f4 1bbe 3f21 e13c
00000220: 58ea 57bd 0ce1 1e3e bfd4 ab3c 046e 1d3e
00000230: d1dd 463c e8f4 3fbe 6823 143d 29bd 19be
00000240: 8f06 0e3e a820 0fbe 114f 32be 517b 2ebe
00000250: 3d5f 12be 341a 1c3e 7213 593b 683b 2ebe
00000260: ef23 acbd 0f4d 713d f4ee 063e c8eb 2d3d
00000270: 8b86 083e e6e0 9dbd e229 503e adec 8f3d
00000280: 9166 99bd 9ef0 37bd 81d7 e33b 0ba8 16be
00000290: 570d 2bbe 1e73 2d3e d5fd bbbd e8ee 173e
000002a0: 67b9 383e 5fe9 6bbc 227b 273d bba6 363e
000002b0: 7cb7 023c a80b 2d3e f23e 3d3e 5123 e83c
000002c0: 508f 513d 3cb9 e83d 2862 2c3e 4fb8 313e
000002d0: 4f4b b43c 6ebe f9bd ebb6 303e 5a62 da3d
000002e0: 4ee7 9cbd 7078 4fbe b1da 03be 27a9 17bd
000002f0: 61b5 4c3e b484 75bd 42c4 42be 27f6 203e
00000300: fd14 323e f84a 5c3c edb6 1ebe b5ab 96bd
00000310: dd37 0dbe 0fb7 3f3e 9f8f 30be b856 6fbd
00000320: 205d 50be 7061 053d b367 9ebc 629a 973d
00000330: ebbf 4ebe e1e8 283d 51f5 4abe 284a 353e
00000340: 50ca 12bc da65 44be 940d 52bd 2bf9 4f3e
00000350: 4846 49bd 106e 46be 1b3f 37be 5b47 25be
00000360: 1b11 9cbd dcae ffbd a485 31be 8c73 ac3c
00000370: 48b7 2dbe 4fcb 3d3e aba5 c23d 27c9 06be
00000380: 16ed d43c e32e 0ebc 92cd 22be 683e 293e
00000390: 5bb7 d5bd 4547 f03c 7296 0abe 6ab3 31be
000003a0: 4f2d adbc fbc0 233e a888 fdbd 6802 573e
000003b0: 4fa4 f4bb b0cb d73d 15f0 f73d 012e ce3d
000003c0: 07cf 023b bd25 0e3d 1133 84bd 73bd 273e
000003d0: bcb6 493e 6eeb 55be 6a7b a2bd b141 2dbe
000003e0: 5bcc 343c 26ea 48be 8458 febd 2d8b 523e
000003f0: 0c32 e1bc 399b bfbc 7e4a 143e ea89 de3c

_pos_embeds f4 [64, 32]
0.0 1.0 0.0 1.0 0.0 1.0 0.0 1.0
0.0 1.0 0.0 1.0 0.0 1.0 0.0 1.0
0.0 1.0 0.0 1.0 0.0 1.0 0.0 1.0
0.0 1.0 0.0 1.0 0.0 1.0 0.0 1.0
0.84147096 0.5403023 0.53316844 0.84600914 0.3109836 0.95041525 0.17689219 0.9842302
0.099833414 0.9950042 0.056204498 0.9984193 0.031617507 0.99950004 0.017781857 0.99984187
0.009999833 0.99995 0.0056233834 0.9999842 0.0031622723 0.999995 0.0017782785 0.9999984
0.0009999998 0.9999995 0.0005623413 0.9999998 0.00031622776 0.99999994 0.00017782794 1.0
0.9092974 -0.41614684 0.9021307 0.43146282 0.5911271 0.8065784 0.34820527 0.9374183
0.19866933 0.9800666 0.112231314 0.9936821 0.063203394 0.9980007 0.03555809 0.9993676
0.019998666 0.9998 0.011246589 0.99993676 0.0063245133 0.99998 0.0035565514 0.9999937
0.0019999987 0.999998 0.0011246824 0.99999934 0.0006324555 0.9999998 0.00035565588 0.99999994
0.14112 -0.9899925 0.9932532 -0.11596614 0.8126489 0.5827536 0.50853616 0.86104065
0.29552022 0.9553365 0.1679033 0.9858035 0.09472609 0.99550337 0.05332308 0.9985773
0.029995501 0.99955004 0.016869439 0.9998577 0.009486691 0.999955 0.005334813 0.99998575
0.0029999956 0.9999955 0.0016870232 0.99999857 0.0009486832 0.9999995 0.0005334838 0.9999999
-0.7568025 -0.6536436 0.77847177 -0.62767965 0.95358074 0.30113748 0.652828 0.7575062
0.38941833 0.921061 0.22304448 0.9748083 0.12615407 0.99201065 0.07107121 0.9974713
0.039989334 0.9992001 0.022491757 0.99974704 0.012648773 0.99992 0.0071130577 0.9999747
0.0039999895 0.999992 0.0022493633 0.9999975 0.0012649107 0.9999992 0.0007113117 0.99999976
-0.9589243 0.2836622 0.3239352 -0.94607925 0.99994653 -0.010342319 0.77652997 0.6300803
0.47942555 0.87758255 0.27748054 0.96073127 0.15745589 0.987526 0.08879686 0.99604976
0.04997917 0.99875027 0.028113361 0.99960476 0.01581073 0.999875 0.00889128 0.9999605
0.0049999794 0.9999875 0.002811703 0.99999607 0.0015811381 0.99999875 0.0008891396 0.9999996
-0.2794155 0.96017027 -0.23036748 -0.9731037 0.94714814 -0.32079646 0.8757406 0.482782
0.5646425 0.8253356 0.33103934 0.943617 0.18860029 0.98205394 0.106494434 0.9943133
0.059964005 0.99820054 0.03373408 0.99943084 0.018972527 0.99982 0.010669474 0.9999431
0.005999964 0.999982 0.0033740415 0.99999434 0.0018973654 0.9999982 0.0010669675 0.9999994
0.6569866 0.75390226 -0.71372116 -0.7004299 0.80042166 -0.5994374 0.9473307 0.32025698
0.64421767 0.7648422 0.38355157 0.92351943 0.2195561 0.9755999 0.12415834 0.9922624
0.06994285 0.997551 0.03935373 0.9992253 0.022134136 0.999755 0.012447635 0.9999225
0.006999943 0.9999755 0.003936379 0.99999225 0.0022135926 0.99999756 0.0012447953 0.9999992
00000000: 0000 0000 0000 803f 0000 0000 0000 803f
00000010: 0000 0000 0000 803f 0000 0000 0000 803f
00000020: 0000 0000 0000 803f 0000 0000 0000 803f
00000030: 0000 0000 0000 803f 0000 0000 0000 803f
00000040: 0000 0000 0000 803f 0000 0000 0000 803f
00000050: 0000 0000 0000 803f 0000 0000 0000 803f
00000060: 0000 0000 0000 803f 0000 0000 0000 803f
00000070: 0000 0000 0000 803f 0000 0000 0000 803f
00000080: a46a 573f 4051 0a3f ba7d 083f 0e94 583f
00000090: 3e39 9f3e 6a4e 733f 3a23 353e 83f6 7b3f
000000a0: 7675 cc3d 98b8 7e3f b036 663d 6898 7f3f
000000b0: 5c81 013d 3cdf 7f3f 42ab 913c a3f5 7f3f
000000c0: 57d6 233c b9fc 7f3f 5c44 b83b f7fe 7f3f
000000d0: 203e 4f3b acff 7f3f 2015 e93a e5ff 7f3f
000000e0: 6d12 833a f8ff 7f3f 166a 133a fdff 7f3f
000000f0: 5fcb a539 ffff 7f3f 5377 3a39 0000 803f
00000100: b7c7 683f 3311 d5be 0af2 663f b2e8 dc3e
00000110: 1b54 173f ec7b 4e3f f647 b23e a5fa 6f3f
00000120: f96f 4b3e a5e5 7a3f 88d9 e53d f361 7e3f
00000130: c870 813d f97c 7f3f 5ca5 113d 8ed6 7f3f
00000140: 3ed4 a33c e5f2 7f3f 9d43 383c dbfb 7f3f
00000150: dd3d cf3b b0fe 7f3f 0815 693b 96ff 7f3f
00000160: 6912 033b deff 7f3f 146a 933a f5ff 7f3f
00000170: 5fcb 253a fdff 7f3f 5377 ba39 ffff 7f3f
00000180: c381 103e 2670 7dbf d745 7e3f a87f edbd
00000190: c209 503f 572f 153f 6d2f 023f 296d 5c3f
000001a0: 6d4e 973e ef90 743f d8ee 2b3e 9e5d 7c3f
000001b0: c1ff c13d 4fd9 7e3f 4d69 5a3d c3a2 7f3f
000001c0: 20b9 f53c 83e2 7f3f c731 8a3c adf6 7f3f
000001d0: 116e 1b3c 0dfd 7f3f a8cf ae3b 11ff 7f3f
000001e0: 939b 443b b5ff 7f3f 1b1f dd3a e8ff 7f3f
000001f0: 0db1 783a f8ff 7f3f 7ed9 0b3a feff 7f3f
00000200: cfbd 41bf 3055 27bf ed49 473f 9daf 20bf
00000210: de1d 743f b12e 9a3e bc1f 273f edeb 413f
00000220: d761 c73e a7ca 6b3f c665 643e 098d 793f
00000230: 882e 013e 69f4 7d3f c88d 913d 475a 7f3f
00000240: dbcb 233d 94cb 7f3f a240 b83c 6cef 7f3f
00000250: cd3c 4f3c c2fa 7f3f a714 e93b 58fe 7f3f
00000260: 5812 833b 7aff 7f3f 0e6a 133b d6ff 7f3f
00000270: 5ccb a53a f3ff 7f3f 5277 3a3a fcff 7f3f
00000280: 107c 75bf 2c3c 913e d6da a53e 4032 72bf
00000290: 7ffc 7f3f d472 29bc abca 463f f14c 213f
000002a0: 4477 f53e 40a9 603f ee11 8e3e 7cf2 753f
000002b0: 1e3c 213e 81ce 7c3f 21db b53d 1efd 7e3f
000002c0: f5b6 4c3d 19ae 7f3f fe4d e63c 19e6 7f3f
000002d0: 8185 813c cff7 7f3f bbac 113c 69fd 7f3f
000002e0: ded6 a33b 2eff 7f3f 8c44 383b beff 7f3f
000002f0: 313e cf3a ebff 7f3f 2615 693a f9ff 7f3f
00000300: 8c0f 8fbe b8cd 753f 74e5 6bbe 531d 79bf
00000310: 4d78 723f 6f3f a4be 8930 603f 342f f73e
00000320: 698c 103f 3249 533f fd7d a93e e290 713f
00000330: 6f20 413e e367 7b3f c119 da3d 518b 7e3f
00000340: d19c 753d 128a 7f3f bf2c 0a3d b3da 7f3f
00000350: 466c 9b3c 34f4 7f3f 04cf 2e3c 45fc 7f3f
00000360: 599b c43b d2fe 7f3f 061f 5d3b a1ff 7f3f
00000370: 05b1 f83a e2ff 7f3f 7dd9 8b3a f6ff 7f3f
00000380: 4630 283f bdff 403f 6eb6 36bf 604f 33bf
00000390: 6fe8 4c3f bb74 19bf 4484 723f b9f8 a33e
000003a0: 73eb 243f b3cc 433f df60 c43e c56b 6c3f
000003b0: 50d3 603e eac0 793f ba46 fe3d e904 7e3f
000003c0: 323e 8f3d 815f 7f3f 6031 213d 3bcd 7f3f
000003d0: a652 b53c f2ef 7f3f 2af1 4b3c ecfa 7f3f
000003e0: c75f e53b 65fe 7f3f befc 803b 7eff 7f3f
000003f0: ec11 113b d7ff 7f3f 6628 a33a f3ff 7f3f

W f4 [32, 32]
0.16149129 -0.6286423 0.22654003 0.05412159 -0.23751107 -0.15004411 0.42022386 -0.24960543
-0.44137993 -0.29651475 0.32791653 -0.105079025 0.4750422 0.2974469 0.3538325 0.5151683
0.19220059 0.51536316 0.55956805 0.48101008 0.24552596 0.7690441 0.51968336 0.31900373
0.4163524 0.7243218 0.40812775 0.538187 0.27557072 0.46181914 0.4223497 0.7498346
0.2544606 -0.07026894 -0.31601417 0.2784687 -0.63395894 -0.055192262 0.50750536 0.58371663
0.52472836 -0.62226266 -0.4351104 0.31228548 -0.23551668 0.006618011 -0.6656644 -0.6631262
-0.29694086 -0.55287313 -0.22080258 -0.26365185 -0.6372246 -0.68616563 -0.55593055 -0.55210656
-0.49687085 -0.6377638 -0.33056954 -0.60572773 -0.41411075 -0.5887151 -0.7656704 -0.6696164
-0.017969793 0.6293898 -0.5074674 -0.3468835 0.72939605 0.6830649 -0.5661345 -0.3119476
0.029817872 0.14075676 0.037799794 -0.5914658 0.45089325 -0.4341635 0.49664903 0.22323646
0.2261539 0.17388885 0.15515834 0.41649777 0.6992794 0.62344646 0.46827382 0.26579657
0.14761995 0.38162616 0.2825526 0.28059822 0.13631251 0.7156027 0.20025869 0.39936325
0.17652804 0.40436125 0.49795395 0.24391787 0.39241722 0.058168475 0.35446104 -0.33338574
0.32637626 -0.14431174 -0.6209798 0.29840782 -0.16325459 0.047592334 -0.077749714 -0.2457718
0.07844174 0.08957436 -0.4013521 -0.13681105 0.11347248 -0.46916395 -0.41784513 -0.1320314
-0.17999661 -0.2070206 -0.4313562 -0.23948158 0.10452673 -0.24541824 -0.0003995095 -0.17080837
-0.27041373 0.078504026 -0.33951506 -0.0338245 -0.13121621 0.42144307 -0.6089737 -0.1986627
0.013162812 0.45968625 -0.618412 -0.24346033 0.37875143 -0.49545813 0.18724266 -0.0053493287
0.07741906 -0.102153964 0.31774634 0.19055569 0.35948867 0.033477437 0.21809694 0.28133824
0.015933909 0.31612244 -0.13529551 0.14824605 -0.02127594 -0.09013103 0.3145671 0.38198197
-0.2907417 -0.09015377 -0.44326192 0.021395873 -0.593381 0.27970237 -0.49656984 0.23792185
0.052970607 0.40813726 -0.40095168 0.16249387 -0.5372685 -0.61828834 -0.12668131 -0.48040664
-0.6512148 -0.47365186 -0.49074304 -0.16540891 -0.2772195 -0.58168435 -0.5017607 -0.49311817
-0.5528478 -0.3862859 -0.3761271 -0.22569229 -0.6518744 -0.4217479 -0.46834883 -0.47450072
0.4253133 -0.16273446 0.030171461 0.64801604 0.22521521 0.19603953 0.19173078 0.35425466
-0.39785287 -0.25641868 0.16851993 0.18273695 0.016547788 0.20293349 0.056381203 0.08884157
0.10638682 0.06560534 -0.29020196 -0.017252842 -0.43572363 -0.22928473 -0.21160762 0.10632938
-0.31096116 -0.485033 -0.24457788 -0.38664845 0.11165573 0.058886465 -0.16139601 -0.22134934
-0.26660103 -0.28146803 0.104893744 -0.27750894 -0.36124963 -0.15780278 -0.23169886 -0.51823705
0.35388166 0.18135606 -0.17095695 -0.13171375 -0.16226429 0.38899457 -0.07480329 0.33162528
0.22883226 0.0013011242 -0.18335555 -0.0342011 -0.0011843442 0.13380061 0.20139788 -0.19280824
0.18821605 0.11757301 -0.10498131 0.14382827 -0.00839004 0.3847212 -0.14574969 0.16350658
00000000: f95d 253e b4ee 20bf 1cfa 673e 9aae 5d3d
00000010: 1a36 73be 2aa5 19be 9527 d73e 9198 7fbe
00000020: 8dfc e1be c8d0 97be ade4 a73e ac33 d7bd
00000030: bb38 f33e f64a 983e 8929 b53e 12e2 033f
00000040: 3bd0 443e d7ee 033f da3f 0f3f f446 f63e
00000050: 286b 7b3e 13e0 443f f809 053f 7554 a33e
00000060: 242c d53e 276d 393f 1ff6 d03e a0c6 093f
00000070: 9b17 8d3e 8f73 ec3e 383e d83e 29f5 3f3f
00000080: a948 823e 29e9 8fbd 9ccc a1be 7393 8e3e
00000090: 224b 22bf 4811 62bd dfeb 013f 746e 153f
000000a0: 9954 063f 9b4c 1fbf cac6 debe e2e3 9f3e
000000b0: 492b 71be e6db d83b fb68 2abf a3c2 29bf
000000c0: a208 98be 1889 0dbf 121a 62be 60fd 86be
000000d0: 2721 23bf 8da8 2fbf 7751 0ebf db56 0dbf
000000e0: db65 febe 7d44 23bf 6940 a9be f910 1bbf
000000f0: 5306 d4be 08b6 16bf fa02 44bf fb6b 2bbf
00000100: 6335 93bc b11f 213f 62e9 01bf b79a b1be
00000110: b3b9 3a3f 57dd 2e3f 31ee 10bf 99b7 9fbe
00000120: 9c44 f43c 8a22 103e f5d3 1a3d 4d6a 17bf
00000130: 7bdb e63e ae4a debe c848 fe3e 1998 643e
00000140: e394 673e eb0f 323e d4e1 1e3e 323f d53e
00000150: fa03 333f 309a 1f3f 96c1 ef3e 7d16 883e
00000160: af29 173e 8164 c33e bcaa 903e 92aa 8f3e
00000170: 8295 0b3e bd31 373f 9d10 4d3e 5779 cc3e
00000180: c4c3 343e 7008 cf3e d2f3 fe3e 9bc5 793e
00000190: e9ea c83e 1142 6e3d eb7b b53e 89b1 aabe
000001a0: ca1a a73e 75c6 13be 88f8 1ebf e9c8 983e
000001b0: 362c 27be 2ef0 423d 3e3b 9fbd 9aab 7bbe
000001c0: 10a6 a03d c372 b73d 067e cdbe 3218 0cbe
000001d0: 4264 e83d 4236 f0be ccef d5be 3d33 07be
000001e0: 0851 38be 35fd 53be b8da dcbe a93a 75be
000001f0: 1c12 d63d eb4e 7bbe 4275 d1b9 64e8 2ebe
00000200: ab73 8abe b8c6 a03d ebd4 adbe 8f8b 0abd
00000210: 8b5d 06be 63c7 d73e b3e5 1bbf 3c6e 4bbe
00000220: d6a8 573c ff5b eb3e 4050 1ebf aa4d 79be
00000230: b5eb c13e b0ac fdbe 8abc 3f3e 6c49 afbb
00000240: e28d 9e3d 1936 d1bd a6af a23e 0821 433e
00000250: e60e b83e a31f 093d ce54 5f3e 910b 903e
00000260: d487 823c cdda a13e e88a 0abe d0cd 173e
00000270: e14a aebc 9e96 b8bd f00e a13e 2493 c33e
00000280: 19dc 94be 8aa2 b8bd 3af3 e2be 6646 af3c
00000290: d1e7 17bf 2635 8f3e 673e febe c9a1 733e
000002a0: b5f7 583d 5ef7 d03e 8a49 cdbe cb64 263e
000002b0: 6e8a 09bf 2548 1ebf bfb8 01be dcf7 f5be
000002c0: 03b6 26bf 7f82 f2be ac42 fbbe f460 29be
000002d0: b7ef 8dbe 44e9 14bf 6473 00bf fc79 fcbe
000002e0: 6f87 0dbf 44c7 c5be bb93 c0be e11b 67be
000002f0: 3ee1 26bf 57ef d7be 6bcb efbe c2f1 f2be
00000300: aac2 d93e dda3 26be 242a f73c 61e4 253f
00000310: d19e 663e 96be 483e 1355 443e de60 b53e
00000320: 5fb3 cbbe 4f49 83be 7d90 2c3e 651f 3b3e
00000330: 3a8f 873c cccd 4f3e faef 663d 92f2 b53d
00000340: 55e1 d93d 185c 863d 5a95 94be d555 8dbc
00000350: 2b17 dfbe 9ec9 6abe abaf 58be 38c3 d93d
00000360: 4d36 9fbe 3f56 f8be a072 7abe c9f6 c5be
00000370: c2ab e43d ef32 713d ff44 25be 67a9 62be
00000380: ee7f 88be 941c 90be 88d2 d63d a715 8ebe
00000390: b6f5 b8be 0d97 21be 7742 6dbe 2fab 04bf
000003a0: fa2f b53e 67b5 393e 570f 2fbe f8df 06be
000003b0: 9c28 26be 4c2a c73e 7832 99bd caca a93e
000003c0: 0153 6a3e 7c8a aa3a 8fc1 3bbe 7416 0cbd
000003d0: ff3b 9bba 0703 093e 3f3b 4e3e 866f 45be
000003e0: b5bb 403e 1eca f03d 7100 d7bd b847 133e
000003f0: 6176 09bc 2dfa c43e 683f 15be 456e 273e

b f4 [32]
0.5104634 -0.48659483 0.44619355 -0.16147672 0.099274 -0.36650604 -0.18631937 0.11692734
-0.20606668 0.10296675 -0.20810424 0.3677093 -0.37223506 -0.23119047 -0.18058647 -0.36252922
-0.33292526 0.27876353 -0.20310691 -0.012490437 -0.36675274 -0.34048408 -0.2013429 -0.36539242
0.21895753 -0.11981014 0.25304893 0.31622118 -0.3783398 0.13579088 -0.1774552 0.18829794
00000000: bbad 023f f522 f9be 7b73 e43e 275a 25be
00000010: 2b50 cb3d aea6 bbbe 81ca 3ebe 9a77 ef3d
00000020: 2503 53be 3be0 d23d 4719 55be 6544 bc3e
00000030: 9895 bebe 32bd 6cbe a9eb 38be 6e9d b9be
00000040: 2e75 aabe 18ba 8e3e 42fb 4fbe b1a4 4cbc
00000050: 04c7 bbbe ee53 aebe d52c 4ebe b714 bbbe
00000060: 6736 603e 055f f5bd a18f 813e bee7 a13e
00000070: c1b5 c1be c40c 0b3e d1b6 35be 2dd1 403e

W f4 [32, 32]
0.036341324 -0.58146214 0.06627039 0.115124345 0.27090847 0.7635698 -0.3848732 -0.3767383
-0.3395667 0.22139151 0.07364391 -0.29316038 0.25296578 -0.033684175 0.44608638 0.2660661
0.063920684 -0.018540047 0.46414885 0.38682076 0.22379778 0.14951847 0.07132288 0.26424602
0.46803018 0.22306448 0.08083089 0.23211454 0.3036765 0.42746356 0.26809135 0.27804136
0.061904166 0.14087705 0.0051045395 -0.0051554996 -0.0017764723 0.23246925 -0.70111287 0.06215327
0.28934324 0.57548064 -0.12743898 -0.1078476 -0.37531802 -0.58532214 -0.36919305 -0.60307634
0.06524705 -0.11786125 0.1831856 0.07385599 -0.12658063 0.02691764 -0.0420873 -0.45587015
-0.2430167 -0.22695221 0.16092055 -0.22230414 -0.17758965 -0.45800957 0.09039768 -0.36659542
-0.17904025 0.5198493 -0.10299668 0.48840466 0.22879794 0.5818047 0.028597785 -0.108371876
0.5279921 -0.5220436 0.52195024 0.076429494 0.103912696 0.5126532 0.3101017 0.5000359
0.4640108 0.523507 0.3880844 0.17054377 0.47571766 0.11044145 0.23664795 0.38290465
0.09144913 0.45615572 0.30799624 0.18386194 0.1354115 0.25529 0.49272504 0.59527
0.1603333 -0.22104 -0.05512622 0.11473828 0.5694181 -0.5230606 0.60822135 -0.3164522
-0.3503879 -0.35787573 0.29602006 0.25233272 0.74678695 0.4300373 0.12591578 0.46705094
-0.24727489 0.5471001 0.1277526 0.32891518 0.04921511 0.2623518 -0.29725716 0.74943167
-0.3246061 0.49683714 -0.123925306 0.23522568 -0.347035 0.4545878 0.094140016 0.28495198
-0.47692275 0.09945175 0.6832438 0.7909705 -0.70003897 0.73086774 -0.39491668 0.47699338
0.81094974 -0.47388485 -0.70282215 0.5972502 -0.28770143 -0.3078799 -0.50409406 -0.9062769
-0.35355002 -0.53289545 -0.49986383 -0.4496408 -0.57732016 -0.35407504 -0.593716 -0.58908844
-0.82507277 -0.3728899 -0.69694704 -0.58181834 -0.8237884 -0.5509781 -0.51518124 -0.29671872
-0.48542058 0.013011365 0.21307896 -0.3011107 -0.4142489 0.036819942 -0.12993614 0.007303708
0.05151447 -0.024468753 -0.061203204 0.36570588 -0.049057093 -0.29062453 0.014629159 -0.20140935
0.0049901595 -0.38584316 0.010719066 -0.11118398 -0.47795227 0.04209302 -0.1532356 -0.08084652
-0.2288207 -0.470306 -0.16142212 -0.49400815 -0.058200955 -0.10603629 -0.4876547 -0.2091089
-0.31930956 -0.67713785 0.054035474 0.8635323 -0.074810386 0.14691336 -0.15141639 -0.33529776
0.49237126 0.40547112 -0.42244157 -0.080606155 0.116879925 -0.3068633 0.0051909303 -0.11095135
0.29272082 0.100280456 -0.2163448 0.16001898 0.08253992 -0.2747289 0.12486704 -0.13469154
0.19983672 0.023755247 0.12819844 0.08285722 0.28138918 0.121516734 -0.18230814 -0.0734468
0.13324146 0.16855554 0.0666092 0.41465402 -0.08790771 -0.2246773 0.12070191 0.50303286
-0.5948073 -0.15214698 -0.102353685 -0.53057694 -0.10681115 -0.49786967 0.19262837 0.090851635
-0.015907409 -0.3034233 0.28296438 0.15453944 -0.15040584 -0.017534677 0.35806045 0.112620674
-0.01898334 -0.06086192 0.046882074 -0.14060453 0.3602028 -0.06815234 -0.17921644 0.028742654
00000000: a4da 143d b4da 14bf c5b8 873d 50c6 eb3d
00000010: 84b4 8a3e 4f79 433f 1a0e c5be d8e3 c0be
00000020: b0db adbe 75b4 623e 9ed2 963d 1e19 96be
00000030: bb84 813e 6bf8 09bd 6f65 e43e d139 883e
00000040: d9e8 823d 4ce1 97bc eba4 ed3e 5f0d c63e
00000050: 3f2b 653e 5f1b 193e bb11 923d 414b 873e
00000060: a7a1 ef3e 046b 643e aa8a a53d 6faf 6d3e
00000070: 7c7b 9b3e 81dc da3e 4543 893e 705b 8e3e
00000080: 398f 7d3d 1342 103e fb43 a73b 77ef a8bb
00000090: 85d8 e8ba 6b0c 6e3e 227c 33bf 6d94 7e3d
000000a0: cc24 943e b352 133f 5d7f 02be 34df dcbd
000000b0: af29 c0be acd7 15bf df06 bdbe 3663 1abf
000000c0: 3fa0 853d 3d61 f1bd 0295 3b3e cf41 973d
000000d0: 5a9e 01be 6282 dc3c bc63 2cbd d067 e9be
000000e0: 5fd9 78be 2966 68be 5bc8 243e b2a3 63be
000000f0: 10da 35be 3b80 eabe 6b22 b93d 65b2 bbbe
00000100: 5456 37be d814 053f ecef d2bd 2d10 fa3e
00000110: 024a 6a3e 27f1 143f e745 ea3c 13f2 ddbd
00000120: 7e2a 073f a6a4 05bf 889e 053f 1187 9c3d
00000130: 2ed0 d43d 3d3d 033f a6c5 9e3e 5a02 003f
00000140: d392 ed3e 8e04 063f 00b3 c63e 07a3 2e3e
00000150: 4491 f33e 202f e23d d753 723e 140c c43e
00000160: ae49 bb3d 3e8d e93e afb1 9d3e 4e46 3c3e
00000170: 50a9 0a3e 5fb5 823e 7546 fc3e 9d63 183f
00000180: 6a2e 243e 4f58 62be 08cc 61bd e7fb ea3d
00000190: 62c5 113f 4de7 05bf 65b4 1b3f 0606 a2be
000001a0: 0b66 b3be 7d3b b7be f18f 973e c131 813e
000001b0: 6e2d 3f3f d92d dc3e 11f0 003e 4d21 ef3e
000001c0: a135 7dbe c10e 0c3f 94d1 023e 9267 a83e
000001d0: c895 493d fa52 863e 1732 98be c1da 3f3f
000001e0: c532 a6be 7061 fe3e 8dcc fdbd 00df 703e
000001f0: 92ae b1be bbbf e83e 7bcc c03d 3ae5 913e
00000200: 382f f4be 5cad cb3d 11e9 2e3f 0b7d 4a3f
00000210: c135 33bf 261a 3b3f 8532 cabe 7a38 f43e
00000220: 679a 4f3f 09a1 f2be 27ec 33bf 64e5 183f
00000230: 9a4d 93be 6fa2 9dbe 4f0c 01bf c301 68bf
00000240: 8204 b5be d66b 08bf 27ee ffbe 5237 e6be
00000250: 41cb 13bf 5349 b5be c6fd 17bf 80ce 16bf
00000260: f837 53bf 6deb bebe 1f6b 32bf 0cf2 14bf
00000270: cce3 52bf e70c 0dbf ebe2 03bf 84eb 97be
00000280: 0c89 f8be 9f2d 553c 5f31 5a3e 2f2b 9abe
00000290: 6f18 d4be 82d0 163d fb0d 05be f153 ef3b
000002a0: d600 533d b272 c8bc 36b0 7abd cd3d bb3e
000002b0: 17f0 48bd bdcc 94be 24af 6f3c 413e 4ebe
000002c0: 7e84 a33b 3c8d c5be 059f 2f3c 6db4 e3bd
000002d0: 29b6 f4be bb69 2c3d cbe9 1cbe dc92 a5bd
000002e0: f94f 6abe f3cb f0be d74b 25be a3ee fcbe
000002f0: 2064 6ebd 8e29 d9bd e0ad f9be a520 56be
00000300: 8b7c a3be e858 2dbf 4d54 5d3d 7410 5d3f
00000310: 3036 99bd 7570 163e e60c 1bbe 26ac abbe
00000320: 1618 fc3e e999 cf3e 434a d8be d714 a5bd
00000330: be5e ef3d 301d 9dbe ae18 aa3b 763a e3bd
00000340: 81df 953e d75f cd3d 7e89 5dbe 04dc 233e
00000350: b10a a93d 44a9 8cbe 4aba ff3d 94ec 09be
00000360: ffa1 4c3e 5d9a c23c 7446 033e 0cb1 a93d
00000370: 3e12 903e c4dd f83d fcae 3abe 476b 96bd
00000380: 7370 083e d399 2c3e 676a 883d 884d d43e
00000390: f508 b4bd ce11 66be 9032 f73d c3c6 003f
000003a0: 4b45 18bf 6bcc 1bbe cf9e d1bd e4d3 07bf
000003b0: cebf dabd c6e8 febe 5f40 453e 6c10 ba3d
000003c0: 4150 82bc 4c5a 9bbe b5e0 903e 963f 1e3e
000003d0: fd03 1abe e2a4 8fbc b353 b73e aba5 e63d
000003e0: f382 9bbc 594a 79bd 6b07 403d a2fa 0fbe
000003f0: 806c b83e 7493 8bbd 8484 37be b775 eb3c

b f4 [32]
0.2895445 -0.19724622 0.3364646 0.44466528 -0.5997802 -0.22296602 0.0137274405 -0.07032643
0.34751984 0.13875817 -0.21701431 -0.3504284 0.4219993 0.16880469 0.27210355 -0.17882833
-0.3777518 -0.20786774 -0.3413133 0.22270435 0.17550609 -0.32221732 -0.3589201 0.41255265
-0.32044798 0.31964478 0.19688386 0.36204776 -0.022813972 -0.1909073 -0.19345409 0.36408556
00000000: 2d3f 943e eafa 49be 1745 ac3e 2bab e33e
00000010: 328b 19bf 3451 64be 0fe9 603c 4e07 90bd
00000020: 1fee b13e 9f16 0e3e 0039 5ebe 5a6b b3be
00000030: 4b10 d83e 23db 2c3e 2851 8b3e c61e 37be
00000040: af68 c1be 48db 54be 9ec0 aebe 9c0c 643e
00000050: deb7 333e abf9 a4be 60c4 b7be 1a3a d33e
00000060: c211 a4be 7ba8 a33e ec9b 493e 535e b93e
00000070: 5ee4 babc 347d 43be d418 46be 6c69 ba3e

W f4 [32, 32]
0.6248046 -0.5563877 0.019821702 0.43723837 -0.049578343 -0.2754581 0.6022965 -0.48948568
0.54253435 -0.41767788 0.892412 0.10666144 -0.06574403 0.26751468 -0.2583623 -0.1909249
-0.11713549 -0.3167657 -0.19689429 -0.13396329 -0.64649475 0.057077505 -0.1602026 -0.11586901
-0.502796 -0.38522342 -0.18912394 -0.23147987 -0.092943214 -0.4962284 -0.19920257 -0.17975083
0.14854778 -0.5272557 -0.2262312 0.15958098 -0.38059044 0.015046664 -0.4102485 0.22302407
0.35132387 -0.049991053 0.26249045 0.45584208 -0.07612306 0.036469754 -0.035314012 -0.19098456
-0.1670112 -0.2389458 0.16995528 -0.20517202 -0.030754663 0.12292067 -0.34927717 0.2922746
-0.028666154 0.025657702 -0.08636559 -0.24737602 0.11601767 0.16006789 -0.13358359 -0.03608666
-0.074002035 0.068779565 -0.55852777 -0.1829877 -0.053031858 0.61095977 -0.688822 -0.5956633
0.4780761 -0.07067285 0.71071786 -0.44729587 0.7160809 0.59839815 0.43956167 0.60428137
0.47607046 0.33813846 0.38007537 0.3937292 0.33071542 0.74181056 0.4339141 0.7421289
0.5182072 0.42616946 0.1878139 0.711193 0.4543299 0.23018722 0.22335595 0.6707404
-0.43563035 0.058754757 -0.31567496 -0.29252318 0.4577422 0.40095937 -0.38015997 -0.38069686
-0.23459883 0.21662351 0.16689156 -0.30355173 0.3494583 -0.18274179 0.27685377 0.60952556
0.34392294 0.38466728 0.1999828 0.4159459 0.37007624 0.5226181 0.42360428 0.5552988
0.59526795 0.28019768 0.206166 0.46024063 0.6165855 0.31516337 0.19987296 0.5424314
0.33558246 -0.18998045 -0.165673 0.12353545 0.6730585 0.2266083 0.20544884 -0.2699917
0.5236982 -0.25521213 -0.28659883 0.66434586 -0.35780814 0.050898895 -0.37286276 -0.6338527
-0.6298746 -0.5728326 -0.19585758 -0.70363706 -0.5623552 -0.6213205 -0.15957655 -0.45097238
-0.16878156 -0.50750196 -0.495586 -0.18716146 -0.32693705 -0.6257047 -0.71405673 -0.54177344
-0.044109955 0.08411644 0.42199326 -0.5036275 0.17376582 0.31061855 0.25158715 -0.30005425
-0.32905337 -0.3435949 0.032383267 0.09751013 0.29222426 0.4662861 0.2242567 -0.008335846
0.3215961 0.2668114 0.29761705 0.49096367 0.4033041 0.15357158 0.4762531 0.378587
0.051747847 -0.07332862 0.22339088 0.28521258 0.02075371 0.36359772 0.21346526 0.0084842015
-0.17968181 0.112390995 0.6552104 0.6468834 0.5831601 -0.21166766 0.46979946 0.44044185
-0.6567185 0.22096783 -0.34335303 0.29027116 -0.30629018 -0.65637165 -0.2111858 -0.27598456
-0.234318 -0.142553 -0.07816784 -0.12329053 -0.15652646 -0.21260229 -0.19336821 -0.30346784
-0.19808604 -0.021575471 -0.0077506066 -0.4777326 -0.07825069 -0.16208287 -0.16524325 -0.27613756
-0.20812277 -0.22769357 -0.03141747 -0.39917755 0.24581838 -0.013436974 -0.315871 0.47259372
0.094948545 0.11032364 -0.48917904 -0.5196429 0.4844409 -0.37578237 0.5557577 0.22685514
0.2960345 0.35875952 0.6005075 0.27743652 0.24734744 0.26103416 0.18456429 0.08104899
0.090920165 0.50105315 0.5228197 0.17770852 0.42265955 0.11134702 0.34431663 0.5133444
00000000: 32f3 1f3f 6d6f 0ebf 1f61 a23c b5dd df3e
00000010: a912 4bbd d808 8dbe 1a30 1a3f de9d fabe
00000020: 88e3 0a3f e0d9 d5be 1d75 643f 5071 da3d
00000030: cea4 86bd aff7 883e 1048 84be d181 43be
00000040: bbe4 efbd 1d2f a2be a89e 49be ac2d 09be
00000050: ae80 25bf 1aca 693d 260c 24be bb4c edbd
00000060: 3db7 00bf 013c c5be b5a9 41be 0f09 6dbe
00000070: 0359 bebd a611 febe c2fb 4bbe 9a10 38be
00000080: e91c 183e 3bfa 06bf 27a9 67be 3269 233e
00000090: c0dc c2be 4886 763c 170c d2be 6c60 643e
000000a0: b9e0 b33e 6bc3 4cbd 2665 863e 2264 e93e
000000b0: 68e6 9bbd 4f61 153d 6da5 10bd 7591 43be
000000c0: fc04 2bbe 35ae 74be c208 2e3e 9d18 52be
000000d0: 34f1 fbbc d5bd fb3d 75d4 b2be 04a5 953e
000000e0: 48d5 eabc 1a30 d23c 71e0 b0bd 2450 7dbe
000000f0: ac9a ed3d d6e8 233e 23ca 08be 9bcf 13bd
00000100: 618e 97bd 4ddc 8c3d adfb 0ebf 2161 3bbe
00000110: ef37 59bd dc67 1c3f a356 30bf 647d 18bf
00000120: 64c6 f43e edbc 90bd 9bf1 353f f703 e5be
00000130: 1451 373f 9f30 193f 3a0e e13e 2fb2 1a3f
00000140: 82bf f33e 7c20 ad3e 3d99 c23e e096 c93e
00000150: 8853 a93e 4ce7 3d3f fd29 de3e 29fc 3d3f
00000160: 3aa9 043f e232 da3e 4952 403e bf10 363f
00000170: ee9d e83e 33b6 6b3e 6cb7 643e a5b5 2b3f
00000180: f10a dfbe d4a8 703d 26a0 a1be 99c5 95be
00000190: 305d ea3e 8c4a cd3e 54a4 c2be b3ea c2be
000001a0: ad3a 70be 8ed2 5d3e 9fe5 2a3e 226b 9bbe
000001b0: 33ec b23e aa20 3bbe c7bf 8d3e de09 1c3f
000001c0: ab16 b03e 1cf3 c43e 4bc8 4c3e dcf6 d43e
000001d0: a27a bd3e 4dca 053f a9e2 d83e 1028 0e3f
000001e0: 7b63 183f 1276 8f3e 2e1d 533e a9a4 eb3e
000001f0: 8cd8 1d3f 185d a13e 7fab 4c3e c9dc 0a3f
00000200: 77d1 ab3e 3c8a 42be 2fa6 29be 2700 fd3d
00000210: 904d 2c3f 020c 683e 2e61 523e 5a3c 8abe
00000220: 1611 063f 2aab 82be 15bd 92be 9212 2a3f
00000230: a132 b7be 5c7b 503d dee7 bebe 2c44 22bf
00000240: 763f 21bf 28a5 12bf e48e 48be 8f21 34bf
00000250: 83f6 0fbf dc0e 1fbf 0968 23be dae5 e6be
00000260: 13d5 2cbe a6eb 01bf 73bd fdbe 41a7 3fbe
00000270: 4b64 a7be 2f2e 20bf 6ccc 36bf aab1 0abf
00000280: a4ac 34bd 3d45 ac3d 800f d83e bbed 00bf
00000290: abef 313e 6509 9f3e 08d0 803e b6a0 99be
000002a0: af79 a8be aceb afbe 51a4 043d 64b3 c73d
000002b0: 6b9e 953e 0dbd ee3e 8ca3 653e 1293 08bc
000002c0: 3ea8 a43e 819b 883e 4361 983e 975f fb3e
000002d0: e07d ce3e de41 1d3e 72d7 f33e 28d6 c13e
000002e0: 8df5 533d 512d 96bd 94c0 643e 6207 923e
000002f0: af03 aa3c 7b29 ba3e a396 5a3e 5201 0b3c
00000300: 82fe 37be 402d e63d debb 273f 279a 253f
00000310: fb49 153f 68bf 58be 8e89 f03e 9881 e13e
00000320: b41e 28bf 6445 623e f8cb afbe 6c9e 943e
00000330: 11d2 9cbe f907 28bf 1741 58be d94d 8dbe
00000340: 0ff1 6fbe 6af9 11be 7616 a0bd bf7f fcbd
00000350: 7948 20be 6ab4 59be 5102 46be 2360 9bbe
00000360: 11d7 4abe 0bbf b0bc cdf8 fdbb 5e99 f4be
00000370: e641 a0bd 0df9 25be 8735 29be e761 8dbe
00000380: 231e 55be 8128 69be 9baf 00bd 0061 ccbe
00000390: d0b7 7b3e c126 5cbc d8b9 a1be cef7 f13e
000003a0: 6274 c23d 5cf1 e13d ad75 fabe 5107 05bf
000003b0: a308 f83e 8c66 c0be 2346 0e3f b74c 683e
000003c0: d591 973e 54af b73e dcba 193f 290c 8e3e
000003d0: a648 7d3e 45a6 853e 6cfe 3c3e 03fd a53d
000003e0: 5a34 ba3d 0545 003f 83d7 053f 39f9 353e
000003f0: d566 d83e e809 e43d 454a b03e 8a6a 033f

b f4 [32]
-0.21271992 0.022413215 0.43370128 0.35784787 -0.43418524 0.2127349 -0.3303444 0.34579176
0.31436154 -0.21963306 0.20115696 0.13393328 0.24399814 0.33291182 0.23242407 -0.32494694
-0.3227033 0.34338868 -0.32390657 -0.21776918 -0.14695096 -0.3397301 0.13521165 0.34303823
0.3875673 -0.032421358 -0.2645417 -0.31921163 -0.009365218 -0.20783187 0.3436325 -0.36518127
00000000: 40d3 59be eb9b b73c 180e de3e d637 b73e
00000010: 874d debe 2dd7 593e e722 a9be 9e0b b13e
00000020: fff3 a03e 7de7 60be 17fc 4d3e ce25 093e
00000030: a6da 793e 6b73 aa3e 9300 6e3e 725f a6be
00000040: 5e39 a5be a4d0 af3e 15d7 a5be e2fe 5ebe
00000050: 507a 16be 1bf1 adbe ec74 0a3e b5a2 af3e
00000060: 396f c63e 42cc 04bd 0272 87be b56f a3be
00000070: 9270 19bc e1d1 54be 99f0 af3e 0af9 babe

W f4 [32, 32]
-0.2300016 0.60318977 0.041127574 -0.048540924 0.45025855 0.30446655 0.08480524 -0.3359167
-0.09796543 0.46723557 -0.30763444 -0.39444384 0.67109126 0.40100363 0.09574041 -0.1284967
-0.079011954 0.1089335 -0.17340767 -0.42173332 -0.02006744 0.40496314 0.13381793 0.46318924
-0.16981566 0.24338464 -0.33401123 -0.345828 0.20821284 0.7253884 -0.30908513 0.13512146
-0.051009808 -0.65209013 0.464845 0.10864958 -0.4306928 0.2977247 0.15728718 -0.14727983
0.46179107 -0.6225229 0.027606187 0.47056445 -0.1148549 0.36187714 0.053357057 -0.4444361
0.28188747 -0.62009895 0.44768798 0.6149292 -0.22509654 -0.020662896 0.35962614 -0.24414352
0.26049152 0.027000431 0.0116231255 0.17131272 -0.35760748 -0.0722542 0.3659975 -0.6441372
0.4990686 -0.2890074 0.63880354 -0.32099745 -0.40472496 -0.53288114 0.3364717 -0.3699388
-0.024043648 -0.29697466 0.58004373 -0.03347323 -0.4495555 -0.48552513 -0.08720456 -0.3474715
-0.16544983 -0.50676435 0.36497757 -0.21319851 -0.11407001 -0.10480873 0.13878095 0.04764428
-0.10561797 -0.6854185 0.6629506 -0.11050598 -0.30863073 0.1652485 0.009810849 -0.022403248
0.48553193 -0.5931785 0.47207186 -0.08797951 0.21817647 0.543331 -0.3123002 0.49202627
0.12996823 -0.31668726 0.27339664 0.1982534 0.206222 0.48374498 -0.5977436 0.22217695
0.17111489 0.02198073 0.2948171 0.3675934 0.44356728 0.18222772 -0.23076114 0.36677164
0.3526154 -0.08844343 -0.1217768 0.36278147 0.13477029 -0.0169795 -0.25983834 0.06665087
-0.39023796 0.48450482 -0.3726666 -0.38605082 -0.08880639 -0.028433766 0.28960148 -0.6003624
-0.083540425 0.35910326 -0.004987774 0.09153706 -0.12767456 -0.32187125 0.47848126 -0.21112616
-0.38909507 0.5844579 0.649114 -0.44224724 -0.41297606 -0.30401173 0.4699813 -0.19883998
-0.20174071 0.05250426 0.5243142 -0.27273387 -0.4726509 0.03247704 0.21938969 -0.33546486
0.5001842 0.1574141 0.25375172 -0.25871477 -0.18110657 0.06453752 0.45546657 -0.35409907
-0.5998386 0.19942836 -0.06259304 -0.51832616 -0.47392568 0.27811632 0.321437 -0.3355654
-0.76338017 0.012570817 0.39899895 -0.42220673 -0.40692276 0.0624579 0.6174573 -0.058680024
-0.7891903 0.47253546 -0.42986247 -0.49486747 -0.49963215 0.5127043 0.5985597 -0.19155464
0.16196273 -0.012555315 0.2958961 0.3504865 0.18776737 -0.37348166 0.038920235 -0.43879518
0.117148 0.1403242 0.02329602 -0.13113672 -0.17132454 -0.34773856 -0.092790484 -0.46775395
0.5688557 0.40034905 0.33531055 0.06744313 -0.3051807 -0.0640297 0.2655326 -0.3958264
0.2145923 0.42389268 0.78661 -0.34989417 -0.13909546 0.25254604 0.17905827 -0.16182992
-0.6852809 -0.37775442 -0.38336676 0.2273975 0.03685742 -0.15554015 -0.006745206 0.28159857
0.19442657 -0.5514835 -0.66424096 0.16529499 0.61795926 -0.055658203 -0.3177736 0.6283543
0.31734708 -0.21304259 -0.21258244 0.13919747 0.5386466 -0.33526623 -0.12523998 0.15613045
-0.281443 -0.5776262 -0.2395647 0.47087392 0.1606916 -0.096647054 -0.17602794 0.3086363
00000000: 8a85 6bbe a56a 1a3f 6375 283d d9d2 46bd
00000010: 4a88 e63e 0ae3 9b3e 5fae ad3d 46fd abbe
00000020: 19a2 c8bd 8039 ef3e 4382 9dbe 8bf4 c9be
00000030: a3cc 2b3f 5950 cd3e 8c13 c43d a494 03be
00000040: 05d1 a1bd 8718 df3d c891 31be 6eed d7be
00000050: 7964 a4bc 5457 cf3e 9107 093e 2427 ed3e
00000060: 28e4 2dbe d339 793e 8503 abbe 5e10 b1be
00000070: bf35 553e 0eb3 393f 6840 9ebe 485d 0a3e
00000080: a9ef 50bd 61ef 26bf 2a00 ee3e ac83 de3d
00000090: c483 dcbe 5f6f 983e e40f 213e 86d0 16be
000000a0: e16f ec3e a95d 1fbf 5f26 e23c d3ed f03e
000000b0: 0c39 ebbd f647 b93e ee8c 5a3d 218d e3be
000000c0: 8e53 903e cebe 1ebf 5c37 e53e 006c 1d3f
000000d0: b57f 66be 3c45 a9bc eb20 b83e c200 7abe
000000e0: 255f 853e 0230 dd3c ec6e 3e3c 9a6c 2f3e
000000f0: 5418 b7be 03fa 93bd 0664 bb3e 2de6 24bf
00000100: eb85 ff3e c7f8 93be a188 233f c759 a4be
00000110: 1c38 cfbe e66a 08bf 0546 ac3e 9e68 bdbe
00000120: 2ff7 c4bc 100d 98be bf7d 143f 3a1b 09bd
00000130: 232c e6be c096 f8be 4e98 b2bd c9e7 b1be
00000140: ae6b 29be 4fbb 01bf 57de ba3e b650 5abe
00000150: 8a9d e9bd f6a5 d6bd 981c 0e3e a626 433d
00000160: 3c4e d8bd 9677 2fbf 21b7 293f f650 e2bd
00000170: d904 9ebe e736 293e afbd 203c 0487 b7bc
00000180: a497 f83e 8cda 17bf 67b3 f13e 9a2e b4bd
00000190: a769 5f3e be17 0b3f d0e5 9fbe deea fb3e
000001a0: 6416 053e d524 a2be a5fa 8b3e f002 4b3e
000001b0: dc2b 533e 6cad f73e b905 19bf 5b82 633e
000001c0: be38 2f3e ef10 b43c 44f2 963e 3435 bc3e
000001d0: 401b e33e e799 3a3e a64c 6cbe 7ec9 bb3e
000001e0: 018a b43e d421 b5bd 1d66 f9bd 7ebe b93e
000001f0: 3901 0a3e 9818 8bbc 8809 85be 4080 883d
00000200: 45cd c7be 0411 f83e 28ce bebe 74a8 c5be
00000210: 20e0 b5bd eeed e8bc a546 943e 5ab1 19bf
00000220: 3e17 abbd 62dc b73e 7b70 a3bb c877 bb3d
00000230: 1fbd 02be 4fcc a4be 7ffb f43e 7531 58be
00000240: 7837 c7be 089f 153f 562c 263f 3b6e e2be
00000250: 9971 d3be 6da7 9bbe 64a1 f03e b59c 4bbe
00000260: 1e95 4ebe b50e 573d 7539 063f c6a3 8bbe
00000270: 4cff f1be a506 053d b1a7 603e 0dc2 abbe
00000280: 120c 003f 2931 213e bfeb 813e 4376 84be
00000290: 0074 39be 3f2c 843d ea32 e93e 794c b5be
000002a0: 068f 19bf f336 4c3e c830 80bd 06b1 04bf
000002b0: 63a6 f2be 4365 8e3e 6493 a43e 3acf abbe
000002c0: e26c 43bf d4f5 4d3c 9749 cc3e 7b2b d8be
000002d0: 2e58 d0be dbd3 7f3d ae11 1e3f 775a 70bd
000002e0: 6008 4abf 2bf0 f13e ef16 dcbe 455f fdbe
000002f0: c9cf ffbe 9740 033f 353b 193f e626 44be
00000300: 8fd9 253e cfb4 4dbc b27f 973e f772 b33e
00000310: 1746 403e fd38 bfbe d36a 1f3d c3a9 e0be
00000320: 4aeb ef3d 26b1 0f3e 4cd7 be3c b448 06be
00000330: b36f 2fbe ca0a b2be f008 bebd 727d efbe
00000340: 87a0 113f 8dfa cc3e d3ad ab3e a01f 8a3d
00000350: a540 9cbe 0122 83bd e4f3 873e c2a9 cabe
00000360: 15be 5b3e 7608 d93e 465f 493f 5425 b3be
00000370: 0a6f 0ebe b74d 813e 0d5b 373e beb6 25be
00000380: 926e 2fbf 0769 c1be a648 c4be e4da 683e
00000390: cef7 163d eb45 1fbe e406 ddbb b02d 903e
000003a0: c217 473e 062e 0dbf b20b 2abf 1743 293e
000003b0: 9432 1e3f dbf9 63bd 39b3 a2be d4db 203f
000003c0: 517b a23e d627 5abe 36af 59be c889 0e3e
000003d0: bee4 093f 04a8 abbe e93e 00be a9e0 1f3e
000003e0: 4c19 90be 50df 13bf 7350 75be 6316 f13e
000003f0: 578c 243e e4ee c5bd ab40 34be 9405 9e3e

b f4 [32]
-0.116063386 0.31832027 0.18076223 -0.19502605 0.37520972 -0.33742586 0.33384123 -0.23743047
0.34312788 -0.106989235 0.12028389 0.015563789 -0.32742634 -0.33952165 0.5506945 0.18530974
0.19550662 0.17585176 -0.3559547 0.36914292 0.11818524 0.37617415 0.4040884 -0.36198494
-0.22873804 -0.42963427 0.01351815 -0.36929834 -0.09495149 -0.33968338 0.21530373 -0.20393896
00000000: a4b2 edbd e0fa a23e bc19 393e e9b4 47be
00000010: 7d1b c03e 15c3 acbe 3ded aa3e f920 73be
00000020: 75ae af3e 2c1d dbbd 6657 f63d 43ff 7e3c
00000030: 6da4 a7be c8d5 adbe 51fa 0c3f d6c1 3d3e
00000040: e332 483e 7c12 343e b23f b6be 4d00 bd3e
00000050: 1a0b f23d e699 c03e ade4 ce3e 1756 b9be
00000060: 4e3a 6abe 06f9 dbbe 3b7b 5d3c ac14 bdbe
00000070: ed75 c2bd fbea adbe 9578 5c3e 60d5 50be

W1 f4 [32, 128]
0.2969647 0.40065533 0.21575096 -0.5103465 0.29562846 -0.47913933 -0.11256429 -0.39056373
0.16434951 -0.28482524 0.008216005 -0.31091818 0.09231871 0.3515276 0.4520301 0.088896565
0.4072455 -0.36499417 -0.04549819 0.2116854 0.3331376 0.197592 -0.39682412 0.1904291
0.17410924 0.2097102 -0.068736 0.47054446 -0.046234965 0.3853866 -0.61298466 0.21037303
0.12177003 -0.4804079 0.19308673 -0.31595603 0.48534498 0.052996676 -0.3486898 0.3418131
-0.52502954 0.17652996 0.25632218 -0.48742786 0.08463309 0.32989115 -0.12361497 -0.18478908
0.21562427 -0.32593143 -0.042340156 0.23568378 0.06552276 -0.047028027 0.020905258 0.027450649
0.27071103 0.07346631 0.2836565 -0.25352377 0.48148534 0.014740165 0.24115187 -0.31786045
-0.33192867 0.41292858 -0.29091746 0.4701097 -0.36738053 -0.29389396 0.32400736 0.49053314
-0.065471046 0.2706485 -0.1634025 -0.32000718 -0.27868512 0.2707333 0.04419257 -0.5161199
-0.31962624 0.5012525 -0.27698016 0.29710147 -0.02599597 -0.19685808 0.11856427 -0.31644505
-0.4602239 0.30827984 -0.26246032 0.47798836 0.34886962 0.13893159 -0.19170545 -0.47576827
0.21382193 -0.50102913 -0.14377677 0.18304572 0.35248214 0.48374665 -0.33407786 0.45981765
-0.08026182 -0.19299442 -0.48880926 -0.13086647 -0.11487997 0.58541054 -0.08226967 -0.20844637
0.1447882 0.0026310168 0.3907252 -0.37666652 0.52359486 0.32227537 -0.27040455 -0.29641482
0.15384799 -0.4658146 0.3099163 -0.40570414 0.21461046 -0.385761 0.4684223 -0.36566195
-0.46577188 -0.51824725 -0.4431878 0.21220897 -0.43823093 0.44795617 -0.13681832 -0.594419
-0.4704099 -0.020352144 -0.10196888 0.1647359 0.25018376 -0.057624556 0.10425505 -0.18055119
-0.13356332 -0.19815566 -0.54956347 0.293975 0.4556849 -0.48901024 0.47452465 0.024115259
0.30106348 -0.038859908 0.08867385 0.42771184 0.31334826 -0.12100924 0.41163114 -0.40302667
-0.040760025 -0.13146697 -0.15709445 -0.47284353 -0.20916286 0.05401121 0.1333329 0.3961441
-0.36061156 0.20742887 -0.4124052 -0.3100994 0.3210334 0.2324339 0.3250339 0.047537047
-0.5074909 -0.3577384 0.028612707 -0.22509052 0.29801002 0.21641746 0.371034 -0.19341002
0.06343887 -0.34331694 -0.17725733 -0.32410833 -0.4294748 -0.48407024 -0.1870494 -0.27221665
0.40962008 -0.20210484 -0.3001288 -0.068730235 -0.5310786 0.08539272 -0.06810425 -0.35781842
-0.1554131 -0.3744473 -0.54678196 0.07728301 0.23021379 -0.038224682 0.2020272 0.4652016
-0.004481015 0.16897483 -0.31551582 -0.36832073 -0.3577427 0.0072648553 -0.270187 0.25236633
0.010344455 0.40271086 0.14556429 -0.38432702 -0.43838835 0.10400291 0.019578142 -0.33665997
0.7423871 0.40654272 -0.22846992 -0.44613567 0.34964538 -0.37186846 0.13424207 -0.23086481
0.11574717 -0.31206012 0.08811693 0.014125196 -0.3637454 0.10967278 0.11070198 0.243691
-0.3448581 0.34480852 0.22133665 0.34083828 -0.11592684 -0.2710367 -0.36427322 -0.15602084
-0.35696033 -0.14819966 -0.25849628 0.22871141 -0.19216168 0.51022154 -0.39716506 0.18965478
00000000: c20b 983e b222 cd3e d2ed 5c3e 11a6 02bf
00000010: 9d5c 973e c051 f5be 1b88 e6bd f8f7 c7be
00000020: 3d4b 283e 9dd4 91be 6c9c 063c ab30 9fbe
00000030: 9811 bd3d 6dfb b33e 7d70 e73e 670f b63d
00000040: 7b82 d03e 84e0 babe 4f5c 3abd 0fc4 583e
00000050: 0391 aa3e 8f55 4a3e 882c cbbe d9ff 423e
00000060: b149 323e 45be 563e 76c5 8cbd 34eb f03e
00000070: e060 3dbd 6451 c53e 90ec 1cbf 076c 573e
00000080: 9162 f93d 06f8 f5be 87b8 453e fdc4 a1be
00000090: 237f f83e 0b13 593d 7887 b2be 2002 af3e
000000a0: 5668 06bf 45c4 343e a93c 833e 2590 f9be
000000b0: 1d54 ad3d 7ee7 a83e d829 fdbd 5939 3dbe
000000c0: 9ccc 5c3e 7ce0 a6be df6c 2dbd 1757 713e
000000d0: cc30 863d 76a0 40bd 8141 ab3c 2fe0 e03c
000000e0: a39a 8a3e 8175 963d 6d3b 913e decd 81be
000000f0: 3f85 f63e bc80 713c 84f0 763e 9bbe a2be
00000100: 8ef2 a9be 606b d33e 22f3 94be 38b2 f03e
00000110: 4d19 bcbe 4579 96be 4be4 a53e 2927 fb3e
00000120: af15 86bd 7192 8a3e fc52 27be fbd7 a3be
00000130: d1af 8ebe 8e9d 8a3e 4503 353d 6f20 04bf
00000140: 0da6 a3be 1552 003f 58d0 8dbe af1d 983e
00000150: 80f5 d4bc 2a95 49be d3d1 f23d 1605 a2be
00000160: 78a2 ebbe dbd6 9d3e 3361 86be e4ba f43e
00000170: 0a9f b23e 1544 0e3e 6f4e 44be e697 f3be
00000180: 23f4 5a3e 7243 00bf 383a 13be 5670 3b3e
00000190: 8a78 b43e a4ad f73e 410c abbe 386d eb3e
000001a0: 4f60 a4bd 54a0 45be 3545 fabe dc01 06be
000001b0: 3146 ebbd 77dd 153f 007d a8bd f772 55be
000001c0: 5c43 143e 236d 2c3b 220d c83e 6fda c0be
000001d0: 500a 063f 4701 a53e 7772 8abe afc3 97be
000001e0: 548a 1d3e 407f eebe 59ad 9e3e 74b8 cfbe
000001f0: d8c2 5b3e 7782 c5be 0cd5 ef3e 0b38 bbbe
00000200: a779 eebe daab 04bf 83e9 e2be 4f4d 593e
00000210: ce5f e0be 835a e53e 1a1a 0cbe d82b 18bf
00000220: 91d9 f0be 8ab9 a6bc 0fd5 d0bd 87b0 283e
00000230: 1618 803e ba07 6cbd ac83 d53d 69e2 38be
00000240: d3c4 08be 51e9 4abe 31b0 0cbf e483 963e
00000250: 884f e93e 8d5f fabe e5f4 f23e 5d8d c53c
00000260: fe24 9a3e 912b 1fbd a39a b53d 0cfd da3e
00000270: 2f6f a03e b1d3 f7bd 51c1 d23e 8359 cebe
00000280: fcf3 26bd 479f 06be 5edd 20be 8c18 f2be
00000290: ca2e 56be dc3a 5d3d 6b88 083e 66d3 ca3e
000002a0: 14a2 b8be 3c68 543e c626 d3be 59c5 9ebe
000002b0: 7d5e a43e 2703 6e3e d86a a63e 35b6 423d
000002c0: ecea 01bf 7d29 b7be 3265 ea3c 217e 66be
000002d0: c594 983e 8a9c 5d3e 2bf8 bd3e 470d 46be
000002e0: 3dec 813d 3dc7 afbe f282 35be 87f1 a5be
000002f0: 1fe4 dbbe 0ed8 f7be e189 3fbe fb5f 8bbe
00000300: b9b9 d13e 92f4 4ebe 7baa 99be 70c2 8cbd
00000310: c4f4 07bf 61e2 ae3d 3e7a 8bbd fa33 b7be
00000320: 9d24 1fbe 8eb7 bfbe e7f9 0bbf 8e46 9e3d
00000330: 2abd 6b3e 7c91 1cbd 38e0 4e3e e72e ee3e
00000340: 7ad5 92bb bd07 2d3e 4a8b a1be 8994 bcbe
00000350: 0d2a b7be 060e ee3b f355 8abe 2936 813e
00000360: ca7b 293c 1e30 ce3e ce0e 153e 83c6 c4be
00000370: 7074 e0be 7aff d43d 5762 a03c b25e acbe
00000380: 150d 3e3f 5e26 d03e 05f4 69be e56b e4be
00000390: b804 b33e 8b65 bebe c176 093e d367 6cbe
000003a0: da0c ed3d 58c6 9fbe a676 b43d 5e6d 673c
000003b0: d63c babe 1f9c e03d b8b7 e23d 228a 793e
000003c0: 3e91 b0be be8a b03e 13a6 623e 5b82 ae3e
000003d0: 0d6b edbd 53c5 8abe 0582 babe edc3 1fbe
000003e0: 81c3 b6be a7c1 17be a059 84be 5333 6a3e
000003f0: 08c6 44be e19d 023f 3859 cbbe dd34 423e

b1 f4 [128]
-0.28683254 -0.2865218 0.0037950012 0.34913296 -0.21309485 -0.15626551 -0.20375875 0.3163514
0.3473573 0.39869824 -0.16528194 -0.15462382 0.32934976 -0.22041956 0.20838876 -0.2117162
0.069626935 -0.09806071 -0.18558322 -0.08608402 -0.32211062 -0.22652207 0.33264223 0.3136556
-0.184358 -0.31540802 -0.0061954493 0.21848612 -0.20773664 -0.18114449 0.3341235 -0.18707205
-0.21637253 0.14040707 -0.1866784 -0.32076368 -0.21496736 0.3262114 -0.4246405 0.11822621
-0.16165176 0.17595918 0.28119645 -0.33457413 0.18585792 0.30755714 0.2449936 -0.08432268
0.14433572 -0.15802717 -0.05833424 -0.18077843 -0.04385067 0.3315578 0.22235242 -0.3409588
0.14494963 -0.22967689 0.33955202 -0.40757918 -0.35205293 -0.29617122 -0.19031148 0.19697055
0.33433777 -0.40665185 -0.36018214 0.23795605 -0.109922 0.3379227 -0.42934147 -0.08862631
-0.3772063 -0.13366283 -0.005469165 0.06828774 0.37312123 -0.1791321 0.32119036 0.24544926
-0.33101946 -0.24334915 -0.34083012 -0.449463 -0.36954117 0.41989902 -0.23108573 0.2722141
-0.19769743 0.23663521 0.11761169 0.35263336 -0.33748183 -0.32748142 -0.107709326 -0.36892727
0.40996042 0.34072918 -0.4051075 -0.3851787 -0.20297337 -0.17340033 0.3777299 0.3618445
-0.12562172 -0.38137397 0.34264174 -0.35596254 -0.25532123 0.34084806 0.28989753 0.32764974
0.08474969 0.3406509 0.3115658 0.33205694 -0.4785994 -0.42045435 -0.40991193 -0.16342324
-0.21421081 -0.15672557 -0.11816848 0.3416603 0.3158239 0.2457225 -0.35191414 0.34732845
00000000: b7db 92be fcb2 92be 8eb5 783b 8ec1 b23e
00000010: 8935 5abe 1104 20be 22a6 50be d0f8 a13e
00000020: d1d8 b13e 2d22 cc3e ab3f 29be b555 1ebe
00000030: 88a0 a83e aab5 61be dd63 553e 22cc 58be
00000040: 9198 8e3d 0ed4 c8bd 8709 3ebe d24c b0bd
00000050: afeb a4be 67f5 67be 1550 aa3e 7897 a03e
00000060: 58c8 3cbe 297d a1be 3203 cbbb d3ba 5f3e
00000070: eab8 54be f17d 39be 3c12 ab3e d18f 3fbe
00000080: c390 5dbe dfc6 0f3e 9f28 3fbe 233b a4be
00000090: 6720 5cbe 2e05 a73e 7b6a d9be 9520 f23d
000000a0: 0a88 25be a52e 343e fbf8 8f3e 4d4d abbe
000000b0: 8a51 3e3e 2178 9d3e 9adf 7a3e 5fb1 acbd
000000c0: becc 133e e0d1 21be e2ef 6ebd fb1d 39be
000000d0: c39c 33bd f2c1 a93e 5ab0 633e 2792 aebe
000000e0: ad6d 143e 6b30 6bbe c3d9 ad3e 38ae d0be
000000f0: 4840 b4be c1a3 97be 03e1 42be a6b2 493e
00000100: 522e ab3e ac34 d0be cb69 b8be c0aa 733e
00000110: c91e e1bd 3404 ad3e a5d2 dbbe b681 b5bd
00000120: 2f21 c1be e9de 08be ae36 b3bb 71da 8b3d
00000130: bf09 bf3e 686e 37be 1073 a43e 0d57 7b3e
00000140: 627b a9be 8530 79be 4981 aebe 0420 e6be
00000150: 8034 bdbe 01fd d63e bda1 6cbe a65f 8b3e
00000160: 3271 4abe 8050 723e 66de f03d 5c8c b43e
00000170: 6bca acbe a5ab a7be b596 dcbd 09e4 bcbe
00000180: 55e6 d13e 0e74 ae3e 406a cfbe 2436 c5be
00000190: 40d8 4fbe db8f 31be d065 c13e af43 b93e
000001a0: fba2 00be 7343 c3be bd6e af3e b940 b6be
000001b0: 77b9 82be a383 ae3e 736d 943e b5c1 a73e
000001c0: 3f91 ad3d cb69 ae3e 8d85 9f3e 5e03 aa3e
000001d0: fb0a f5be cb45 d7be fadf d1be 6c58 27be
000001e0: 145a 5bbe ab7c 20be 5102 f2bd 19ee ae3e
000001f0: acb3 a13e ae9e 7b3e 172e b4be 09d5 b13e
