saved_models/model-epoch-41.pth (torch, 249162 bytes, 52 tensors)

embeddings f4 [99, 32]
-0.0012508184 -0.0010311572 -0.17646901 0.17720495 -0.14262676 0.17020604 -0.16927664 0.08359992
0.007876624 -0.061684724 0.041961245 -0.072456434 0.15682346 -0.096690595 -0.057038877 -0.11565064
-0.12325745 0.19162166 0.028541762 0.072941475 -0.062872574 -0.015942346 -0.13315092 0.15719487
0.019078271 -0.09683765 -0.17272401 0.19803515 0.11880493 -0.03660126 -0.20301281 0.08426134
-0.18310264 -0.14006802 -0.15569463 0.18034454 -0.15493865 0.2004205 -0.14261752 0.033565957
-0.18465205 0.17193864 0.04746543 0.18085133 -0.1284016 -0.027056945 0.14503701 0.1691657
0.13931143 -0.07159422 -0.032281715 -0.007833101 0.17690481 0.021858757 0.15897965 0.19077806
-0.08233465 0.061590225 -0.074602485 0.060729492 -0.047178365 0.124183446 -0.08678334 -0.037568584
-0.1357463 0.09430815 -0.08330525 -0.08830852 0.10791306 0.0055785254 -0.054285027 0.16637783
0.09526507 -0.15910763 -0.21106261 -0.15728784 0.078310035 0.060521003 0.16407798 -0.04602439
0.07438884 0.08353394 -0.0904438 0.1335411 -0.1844459 0.09133214 0.100912735 -0.17742792
-0.08402633 -0.09972202 0.052856695 0.05251044 -0.21164608 -0.037930604 -0.14457902 0.082272254
0.037232842 -0.17817084 0.12479288 -0.1400511 -0.13634114 0.17686793 -0.055316284 0.1395807
0.08513443 0.1403926 0.06707609 0.14054608 0.20062256 0.013812781 -0.0035584592 -0.037934788
0.046032757 -0.10246051 0.11137947 -0.16511057 -0.14969271 -0.21169174 -0.032202527 0.1426138
0.19591303 -0.2015465 0.18373972 -0.18330158 0.12067162 0.03683245 -0.08456938 0.19150619
0.1400339 -0.011244201 -0.15409358 0.152777 0.06489223 0.11100158 0.03620286 0.053831622
0.038102865 -0.002533272 0.18713087 0.2079229 0.017737089 -0.0064946217 -0.011097964 -0.11815197
0.1292258 0.19907477 -0.20755585 0.06473049 0.10885293 0.20273677 0.19136526 0.0032723641
-0.12618616 0.20299336 0.2084924 0.026379338 0.21343373 0.10652351 0.21301696 -0.054058783
-0.1883651 -0.14899234 0.078978814 -0.03481958 -0.11171516 -0.047123563 -0.033630807 -0.16993694
-0.16607529 -0.20019977 -0.12781022 -0.06846666 0.067076854 -0.15145046 -0.030702198 0.17310338
0.029557562 0.07320109 0.112551354 -0.17355035 -0.03645783 -0.17871614 -0.18433018 -0.16269527
0.03192444 -0.14931574 -0.17522891 -0.13649713 0.03974943 -0.024420705 -0.021953255 -0.018213097
0.0877425 0.11434273 0.16500331 0.03565154 0.1256532 -0.10443787 -0.0034042627 0.051017202
-0.19011179 0.007955152 0.14498563 0.09714517 -0.20766412 -0.14724082 -0.107077636 0.13581517
0.08228062 0.13856143 0.19084501 0.038058523 -0.16836973 -0.1912403 -0.029108442 -0.1678936
-0.14512019 -0.043513007 -0.10358061 -0.035263903 -0.005971313 0.13305219 0.18558279 0.09654308
-0.10131332 0.030259304 -0.08260478 0.046469323 0.18917538 -0.019806648 0.050251067 0.18015407
0.20231602 0.05142377 0.12318785 -0.10525202 0.100131236 -0.15620025 0.15949419 0.18933289
0.21150157 0.1614823 -0.001484103 -0.16492453 0.19606514 0.082869954 0.21139626 -0.17228015
0.21310534 -0.08874427 -0.19050069 -0.17177144 -0.19497387 0.1817537 0.052899145 0.15361726
00000000: 80f2 a3ba e527 87ba 4bb4 34be 3775 353e
00000010: c00c 12be 7e4a 2e3e db56 2dbe 6f36 ab3d
00000020: f50c 013c 1fa9 7cbd 8edf 2b3d 0a64 94bd
00000030: 5496 203e b805 c6bd 99a1 69bd 3eda ecbd
00000040: 676e fcbd 7838 443e 6ad0 e93c 5762 953d
00000050: 56c3 80bd 8699 82bc b758 08be b1f7 203e
00000060: 094a 9c3c d152 c6bd 90de 30be bac9 4a3e
00000070: 0050 f33d 34eb 15bd 97e2 4fbe 3691 ac3d
00000080: 427f 3bbe fe6d 0fbe 6a6e 1fbe 3dac 383e
00000090: 3da8 1ebe 083b 4d3e 540a 12be 757c 093d
000000a0: 6d15 3dbe af10 303e 1c6b 423d 1731 393e
000000b0: b67b 03be 87a6 ddbc 9584 143e c639 2d3e
000000c0: a8a7 0e3e fe9f 92bd d539 04bd 6856 00bc
000000d0: 8926 353e 2311 b33c 90cb 223e 535b 433e
000000e0: 129f a8bd 0846 7c3d 30c9 98bd 7dbf 783d
000000f0: 1a3e 41bd e453 fe3d 77bb b1bd 84e1 19bd
00000100: 1401 0bbe a224 c13d f19b aabd 19db b4bd
00000110: 8601 dd3d 10cc b63b fa59 5ebd f35e 2a3e
00000120: 551a c33d 1ced 22be cc20 58be 1010 21be
00000130: 0361 a03d dfe4 773d 0f04 283e 1284 3cbd
00000140: 2d59 983d d813 ab3d 993a b9bd 00bf 083e
00000150: 63df 3cbe 580c bb3d 56ab ce3d aaaf 35be
00000160: ff15 acbd 0f3b ccbd 4380 583d 3015 573d
00000170: c0b9 58be 1f5d 1bbd 860c 14be 5b7e a83d
00000180: 7781 183d 6b72 36be 6993 ff3d 8e69 0fbe
00000190: 039d 0bbe de1c 353e 5493 62bd 3eee 0e3e
000001a0: f65a ae3d 14c3 0f3e 305f 893d 50eb 0f3e
000001b0: 0070 4d3e 014f 623c 0a35 69bb 8261 1bbd
000001c0: d88c 3c3d d1d6 d1bd eb1a e43d bf12 29be
000001d0: 0c49 19be b8c5 58be cce6 03bd 5a09 123e
000001e0: 6d9d 483e 3562 4ebe 4426 3c3e 69b3 3bbe
000001f0: af22 f73d a0dd 163d b632 adbd 331a 443e
00000200: 0c65 0f3e 9939 38bc b5ca 1dbe 9371 1c3e
00000210: 38e6 843d cc54 e33d 7349 143d 8c7e 5c3d
00000220: c011 1c3d 4005 26bb 3c9f 3f3e bee9 543e
00000230: 5f4d 913c d6d0 d4bb 3cd4 35bc a9f9 f1bd
00000240: c553 043e 42da 4b3e 8589 54be 6b91 843d
00000250: 49ee de3d 3a9a 4f3e 41f5 433e 2975 563b
00000260: f236 01be 7edd 4f3e 087f 553e 7b19 d83c
00000270: 5f8e 5a3e ff28 da3d 1e21 5a3e be6c 5dbd
00000280: c8e2 40be 7391 18be a5bf a13d fa9e 0ebd
00000290: ebca e4bd a304 41bd 75c0 09bd f303 2ebe
000002a0: a40f 2abe 2b01 4dbe afe0 02be 4038 8cbd
000002b0: 975f 893d d415 1bbe 2d83 fbbc 0342 313e
000002c0: b322 f23c 74ea 953d 5381 e63d 2fb7 31be
000002d0: ce54 15bd 5d01 37be 0dc1 3cbe 9799 26be
000002e0: 34c3 023d 3ae6 18be 356f 33be e7c5 0bbe
000002f0: 4cd0 223d ee0d c8bc 50d7 b3bc a233 95bc
00000300: 57b2 b33d 852c ea3d a1f6 283e 5907 123d
00000310: 3cab 003e 86e3 d5bd 0d1a 5fbb 6af7 503d
00000320: aaac 42be 5356 023c 1d77 143e 0cf4 c63d
00000330: e7a5 54be 4cc6 16be 854b dbbd 2213 0b3e
00000340: be82 a83d 0ce3 0d3e e06c 433e 41e3 1b3d
00000350: 1d69 2cbe 7fd4 43be d474 eebc 4dec 2bbe
00000360: 639a 14be b23a 32bd 1222 d4bd e270 10bd
00000370: 01ab c3bb d53e 083e 6a09 3e3e 61b8 c53d
00000380: 5c7d cfbd 5ce2 f73c b22c a9bd 9e56 3e3d
00000390: 31b7 413e 8d41 a2bc 10d4 4d3d 4f7a 383e
000003a0: ee2b 4f3e bba1 523d e949 fc3d 5f8e d7bd
000003b0: 9b11 cd3d f5f2 1fbe 7252 233e 7be0 413e
000003c0: de93 583e 9e5b 253e 3c86 c2ba fae1 28be
000003d0: 4dc5 483e b9b7 a93d 4378 583e 356a 30be
000003e0: 4938 5a3e 8ebf b5bd 9d12 43be dae4 2fbe
000003f0: 3ba7 47be a41d 3a3e c6ac 583d d84d 1d3e

_pos_embeds f4 [64, 32]
0.0 1.0 0.0 1.0 0.0 1.0 0.0 1.0
0.0 1.0 0.0 1.0 0.0 1.0 0.0 1.0
0.0 1.0 0.0 1.0 0.0 1.0 0.0 1.0
0.0 1.0 0.0 1.0 0.0 1.0 0.0 1.0
0.84147096 0.5403023 0.53316844 0.84600914 0.3109836 0.95041525 0.17689219 0.9842302
0.099833414 0.9950042 0.056204498 0.9984193 0.031617507 0.99950004 0.017781857 0.99984187
0.009999833 0.99995 0.0056233834 0.9999842 0.0031622723 0.999995 0.0017782785 0.9999984
0.0009999998 0.9999995 0.0005623413 0.9999998 0.00031622776 0.99999994 0.00017782794 1.0
0.9092974 -0.41614684 0.9021307 0.43146282 0.5911271 0.8065784 0.34820527 0.9374183
0.19866933 0.9800666 0.112231314 0.9936821 0.063203394 0.9980007 0.03555809 0.9993676
0.019998666 0.9998 0.011246589 0.99993676 0.0063245133 0.99998 0.0035565514 0.9999937
0.0019999987 0.999998 0.0011246824 0.99999934 0.0006324555 0.9999998 0.00035565588 0.99999994
0.14112 -0.9899925 0.9932532 -0.11596614 0.8126489 0.5827536 0.50853616 0.86104065
0.29552022 0.9553365 0.1679033 0.9858035 0.09472609 0.99550337 0.05332308 0.9985773
0.029995501 0.99955004 0.016869439 0.9998577 0.009486691 0.999955 0.005334813 0.99998575
0.0029999956 0.9999955 0.0016870232 0.99999857 0.0009486832 0.9999995 0.0005334838 0.9999999
-0.7568025 -0.6536436 0.77847177 -0.62767965 0.95358074 0.30113748 0.652828 0.7575062
0.38941833 0.921061 0.22304448 0.9748083 0.12615407 0.99201065 0.07107121 0.9974713
0.039989334 0.9992001 0.022491757 0.99974704 0.012648773 0.99992 0.0071130577 0.9999747
0.0039999895 0.999992 0.0022493633 0.9999975 0.0012649107 0.9999992 0.0007113117 0.99999976
-0.9589243 0.2836622 0.3239352 -0.94607925 0.99994653 -0.010342319 0.77652997 0.6300803
0.47942555 0.87758255 0.27748054 0.96073127 0.15745589 0.987526 0.08879686 0.99604976
0.04997917 0.99875027 0.028113361 0.99960476 0.01581073 0.999875 0.00889128 0.9999605
0.0049999794 0.9999875 0.002811703 0.99999607 0.0015811381 0.99999875 0.0008891396 0.9999996
-0.2794155 0.96017027 -0.23036748 -0.9731037 0.94714814 -0.32079646 0.8757406 0.482782
0.5646425 0.8253356 0.33103934 0.943617 0.18860029 0.98205394 0.106494434 0.9943133
0.059964005 0.99820054 0.03373408 0.99943084 0.018972527 0.99982 0.010669474 0.9999431
0.005999964 0.999982 0.0033740415 0.99999434 0.0018973654 0.9999982 0.0010669675 0.9999994
0.6569866 0.75390226 -0.71372116 -0.7004299 0.80042166 -0.5994374 0.9473307 0.32025698
0.64421767 0.7648422 0.38355157 0.92351943 0.2195561 0.9755999 0.12415834 0.9922624
0.06994285 0.997551 0.03935373 0.9992253 0.022134136 0.999755 0.012447635 0.9999225
0.006999943 0.9999755 0.003936379 0.99999225 0.0022135926 0.99999756 0.0012447953 0.9999992
00000000: 0000 0000 0000 803f 0000 0000 0000 803f
00000010: 0000 0000 0000 803f 0000 0000 0000 803f
00000020: 0000 0000 0000 803f 0000 0000 0000 803f
00000030: 0000 0000 0000 803f 0000 0000 0000 803f
00000040: 0000 0000 0000 803f 0000 0000 0000 803f
00000050: 0000 0000 0000 803f 0000 0000 0000 803f
00000060: 0000 0000 0000 803f 0000 0000 0000 803f
00000070: 0000 0000 0000 803f 0000 0000 0000 803f
00000080: a46a 573f 4051 0a3f ba7d 083f 0e94 583f
00000090: 3e39 9f3e 6a4e 733f 3a23 353e 83f6 7b3f
000000a0: 7675 cc3d 98b8 7e3f b036 663d 6898 7f3f
000000b0: 5c81 013d 3cdf 7f3f 42ab 913c a3f5 7f3f
000000c0: 57d6 233c b9fc 7f3f 5c44 b83b f7fe 7f3f
000000d0: 203e 4f3b acff 7f3f 2015 e93a e5ff 7f3f
000000e0: 6d12 833a f8ff 7f3f 166a 133a fdff 7f3f
000000f0: 5fcb a539 ffff 7f3f 5377 3a39 0000 803f
00000100: b7c7 683f 3311 d5be 0af2 663f b2e8 dc3e
00000110: 1b54 173f ec7b 4e3f f647 b23e a5fa 6f3f
00000120: f96f 4b3e a5e5 7a3f 88d9 e53d f361 7e3f
00000130: c870 813d f97c 7f3f 5ca5 113d 8ed6 7f3f
00000140: 3ed4 a33c e5f2 7f3f 9d43 383c dbfb 7f3f
00000150: dd3d cf3b b0fe 7f3f 0815 693b 96ff 7f3f
00000160: 6912 033b deff 7f3f 146a 933a f5ff 7f3f
00000170: 5fcb 253a fdff 7f3f 5377 ba39 ffff 7f3f
00000180: c381 103e 2670 7dbf d745 7e3f a87f edbd
00000190: c209 503f 572f 153f 6d2f 023f 296d 5c3f
000001a0: 6d4e 973e ef90 743f d8ee 2b3e 9e5d 7c3f
000001b0: c1ff c13d 4fd9 7e3f 4d69 5a3d c3a2 7f3f
000001c0: 20b9 f53c 83e2 7f3f c731 8a3c adf6 7f3f
000001d0: 116e 1b3c 0dfd 7f3f a8cf ae3b 11ff 7f3f
000001e0: 939b 443b b5ff 7f3f 1b1f dd3a e8ff 7f3f
000001f0: 0db1 783a f8ff 7f3f 7ed9 0b3a feff 7f3f
00000200: cfbd 41bf 3055 27bf ed49 473f 9daf 20bf
00000210: de1d 743f b12e 9a3e bc1f 273f edeb 413f
00000220: d761 c73e a7ca 6b3f c665 643e 098d 793f
00000230: 882e 013e 69f4 7d3f c88d 913d 475a 7f3f
00000240: dbcb 233d 94cb 7f3f a240 b83c 6cef 7f3f
00000250: cd3c 4f3c c2fa 7f3f a714 e93b 58fe 7f3f
00000260: 5812 833b 7aff 7f3f 0e6a 133b d6ff 7f3f
00000270: 5ccb a53a f3ff 7f3f 5277 3a3a fcff 7f3f
00000280: 107c 75bf 2c3c 913e d6da a53e 4032 72bf
00000290: 7ffc 7f3f d472 29bc abca 463f f14c 213f
000002a0: 4477 f53e 40a9 603f ee11 8e3e 7cf2 753f
000002b0: 1e3c 213e 81ce 7c3f 21db b53d 1efd 7e3f
000002c0: f5b6 4c3d 19ae 7f3f fe4d e63c 19e6 7f3f
000002d0: 8185 813c cff7 7f3f bbac 113c 69fd 7f3f
000002e0: ded6 a33b 2eff 7f3f 8c44 383b beff 7f3f
000002f0: 313e cf3a ebff 7f3f 2615 693a f9ff 7f3f
00000300: 8c0f 8fbe b8cd 753f 74e5 6bbe 531d 79bf
00000310: 4d78 723f 6f3f a4be 8930 603f 342f f73e
00000320: 698c 103f 3249 533f fd7d a93e e290 713f
00000330: 6f20 413e e367 7b3f c119 da3d 518b 7e3f
00000340: d19c 753d 128a 7f3f bf2c 0a3d b3da 7f3f
00000350: 466c 9b3c 34f4 7f3f 04cf 2e3c 45fc 7f3f
00000360: 599b c43b d2fe 7f3f 061f 5d3b a1ff 7f3f
00000370: 05b1 f83a e2ff 7f3f 7dd9 8b3a f6ff 7f3f
00000380: 4630 283f bdff 403f 6eb6 36bf 604f 33bf
00000390: 6fe8 4c3f bb74 19bf 4484 723f b9f8 a33e
000003a0: 73eb 243f b3cc 433f df60 c43e c56b 6c3f
000003b0: 50d3 603e eac0 793f ba46 fe3d e904 7e3f
000003c0: 323e 8f3d 815f 7f3f 6031 213d 3bcd 7f3f
000003d0: a652 b53c f2ef 7f3f 2af1 4b3c ecfa 7f3f
000003e0: c75f e53b 65fe 7f3f befc 803b 7eff 7f3f
000003f0: ec11 113b d7ff 7f3f 6628 a33a f3ff 7f3f

W f4 [32, 32]
0.25205392 0.21974525 -0.19219209 0.08205735 -0.017470347 0.098015256 -0.29585016 0.2514677
0.16882588 0.0031718996 0.19022074 -0.25703838 -0.11710689 0.12953074 0.016438572 0.2001885
0.09295517 -0.06870986 0.28091452 0.23903714 -0.044375867 -0.10391616 0.25549987 -0.23660022
-0.026335264 -0.12209301 0.2619233 -0.036466137 0.059521582 0.09371203 -0.16280961 0.20361829
0.095608726 -0.11307246 0.25679496 0.1256116 0.052232213 -0.08180839 0.14304924 0.19703166
0.24680525 -0.19312787 -0.30126917 0.040997386 -0.24217193 -0.30767187 -0.03775756 0.12826087
-0.18673626 0.048896395 0.010078594 -0.12957497 -0.05490693 0.15259652 0.043561462 0.1239814
-0.18245736 -0.038842585 -0.21719065 0.25887516 0.07565015 0.05423449 -0.27108368 -0.04816262
0.18480903 0.29884857 -0.2868119 -0.29122034 0.16749069 -0.13106102 0.3021688 -0.031497978
-0.05489592 0.032621678 -0.18316884 0.10179723 -0.1797723 0.13860649 -0.13771062 0.13418682
-0.05799051 -0.15562125 0.13761227 0.04592698 0.29291713 0.28863674 -0.20428021 -0.0105480105
0.07677871 -0.27781516 -0.11532599 0.21951096 0.08413148 -0.0401006 0.2353175 0.027253762
0.08733964 0.26668066 0.057221733 -0.21979098 -0.18825553 0.2689247 -0.14664818 -0.2973227
0.3149881 -0.2140387 0.11477415 -0.27389455 0.09773397 -0.26885256 0.091881126 0.04407404
-0.15986499 -0.017588248 -0.1369308 -0.08184471 0.2486921 0.26506978 -0.2826617 0.14937554
-0.104819685 -0.28045684 -0.25011185 0.041486803 0.028075991 -0.28826353 0.033077538 -0.036573607
-0.07335355 -0.19623187 -0.14780211 0.10372812 -0.19707796 -0.059023324 -0.18465304 0.12190714
0.13221246 -0.2983529 -0.2019975 -0.19953872 0.23967163 -0.20124583 0.10235736 0.17591985
0.12196445 0.30199832 -0.10509448 -0.09165497 -0.14061336 0.18984875 -0.1914367 0.19570854
0.09926952 -0.18630973 0.27992973 -0.03828426 0.12884963 0.14017494 -0.066111 0.247748
-0.09016996 -0.09939885 0.12104765 0.080526814 -0.27000958 -0.24920934 -0.02627985 -0.015177432
0.024904741 0.25414658 0.19860336 0.2323594 -0.011627637 -0.26171646 -0.08504633 0.053206466
-0.16148993 0.2557378 0.23105958 -0.06891694 0.22356632 0.17620714 -0.27887815 -0.16930516
-0.20594896 0.27781463 0.1997205 -0.008695377 0.18299317 -0.19639814 0.112145476 -0.038451158
0.24880789 0.17526385 0.20373318 0.03558278 -0.20307393 -0.020365866 -0.10671406 -0.103080936
-0.18010858 0.06683285 -0.14737248 -0.28297168 0.26223212 -0.051195465 -0.1749844 0.01963733
-0.10887225 -0.18158817 0.22951527 -0.29668283 0.114513405 -0.22189662 0.08512624 -0.27338696
0.021648522 -0.14152108 -0.2592293 0.12988693 0.0653448 0.13485934 0.29111338 0.058306843
0.038485344 0.2663378 -0.28606004 -0.13743784 -0.23132634 0.2182946 0.29126707 -0.20681353
0.07373272 0.16044877 -0.19156246 -0.30089822 0.12581633 -0.11438692 -0.008013534 0.24572779
0.008541674 0.25473362 -0.056309618 -0.24649327 -0.20885782 -0.2629222 0.12587908 0.29168358
-0.24323362 0.29972246 -0.064164646 -0.006832761 -0.07077771 -0.1395232 -0.004506618 0.09863704
00000000: 360d 813e e604 613e 01ce 44be af0d a83d
00000010: f91d 8fbc 39bc c83d ac79 97be 60c0 803e
00000020: b1e0 2c3e a5df 4f3b 3ac9 423e 899a 83be
00000030: bdd5 efbd b5a3 043e 2faa 863c 37fe 4c3e
00000040: 485f be3d c1b7 8cbd 07d4 8f3e 27c6 743e
00000050: 78c3 35bd ffd1 d4bd e1d0 823e 5447 72be
00000060: 0dbd d7bc e60b fabd d01a 863e 845d 15bd
00000070: e7cc 733d 18ec bf3d 90b7 26be 5081 503e
00000080: 82ce c33d 8992 e7bd a17a 833e 54a0 003e
00000090: 72f1 553d 288b a7bd 807b 123e abc2 493e
000000a0: 84ba 7c3e 50c3 45be f43f 9abe e0ec 273d
000000b0: ebfb 77be 2b87 9dbe aca7 1abd d156 033e
000000c0: ca37 3fbe 9647 483d b020 253c 4daf 04be
000000d0: 17e6 60bd 4342 1c3e 816d 323d f6e9 fd3d
000000e0: 1ad6 3abe 6719 1fbd 3a67 5ebe 498b 843e
000000f0: 77ee 9a3d fc24 5e3d 7bcb 8abe 2b46 45bd
00000100: 943e 3d3e ae02 993e 02d9 92be d51a 95be
00000110: ae82 2b3e dc34 06be deb5 9a3e 0604 01bd
00000120: 8bda 60bd 4f9e 053d 9d90 3bbe 117b d03d
00000130: 3b16 38be dcee 0d3e 0304 0dbe 4568 093e
00000140: 7587 6dbd 2d5b 1fbe 3bea 0c3e ee1d 3c3d
00000150: 3cf9 953e 32c8 933e d52e 51be 90d1 2cbc
00000160: 283e 9d3d ca3d 8ebe 0830 ecbd 7bc7 603e
00000170: 204d ac3d 8740 24bd 12f7 703e 4843 df3c
00000180: 20df b23d 5e8a 883e 5661 6a3d e310 61be
00000190: 0fc6 40be 80b0 893e f12a 16be ae3a 98be
000001a0: 1f46 a13e f62c 5bbe b60e eb3d e83b 8cbe
000001b0: bf28 c83d 0ba7 89be 2c2c bc3d fb86 343d
000001c0: a6b3 23be 3b15 90bc 9637 0cbe 339e a7bd
000001d0: 24a9 7e3e 3ab7 873e 09b9 90be e7f5 183e
000001e0: b4ab d6bd 0a98 8fbe a90e 80be 11ee 293d
000001f0: 9fff e53c 4797 93be 507c 073d 35ce 15bd
00000200: 633a 96bd 02f1 48be 7059 17be 696f d43d
00000210: cece 49be 71c2 71bd b015 3dbe 73aa f93d
00000220: b462 073e b6c1 98be 6fd8 4ebe e153 4cbe
00000230: 7b6c 753e 6313 4ebe bca0 d13d 5524 343e
00000240: 7fc8 f93d 869f 9a3e c63b d7bd 9ab5 bbbd
00000250: f3fc 0fbe b667 423e fb07 44be d267 483e
00000260: d14d cb3d fac7 3ebe f352 8f3e f5cf 1cbd
00000270: 28f1 033e 058a 0f3e 3465 87bd a7b1 7d3e
00000280: 07ab b8bd a091 cbbd d5e7 f73d 3eeb a43d
00000290: b23e 8abe bc30 7fbe d748 d7bc c4aa 78bc
000002a0: 0705 cc3c 801f 823e ae5e 4b3e 9fef 6d3e
000002b0: d881 3ebc b3ff 85be c52c aebd 06ef 593d
000002c0: 9e5d 25be 11f0 823e e29a 6c3e 5324 8dbd
000002d0: 92ee 643e a56f 343e 1ec9 8ebe 555e 2dbe
000002e0: 49e4 52be b83d 8e3e 8883 4c3e 0e77 0ebc
000002f0: 9062 3b3e 981c 49be 87ac e53d f67e 1dbd
00000300: 7fc7 7e3e 5e78 333e 6e9f 503e 40bf 113d
00000310: 9df2 4fbe 51d6 a6bc e78c dabd 191c d3bd
00000320: 626e 38be a9df 883d d0e8 16be aae1 90be
00000330: 4a43 863e 56b2 51bd 1c2f 33be 77de a03c
00000340: 6af8 debd 40f2 39be 0d06 6b3e d0e6 97be
00000350: 0186 ea3d de38 63be ab56 ae3d 60f9 8bbe
00000360: 3e58 b13c e7ea 10be b4b9 84be 1401 053e
00000370: 7fd3 853d 9118 0a3e d00c 953e 28d3 6e3d
00000380: cfa2 1d3d 6e5d 883e 7676 92be 81bc 0cbe
00000390: d0e0 6cbe 9f88 5f3e f520 953e edc6 53be
000003a0: 2e01 973d af4c 243e f328 44be 550f 9abe
000003b0: ffd5 003e b143 eabd 334b 03bc 11a0 7b3e
000003c0: 61f2 0b3c 726c 823e eaa4 66bd bb68 7cbe
000003d0: d3de 55be bd9d 86be 72e6 003e 8d57 953e
000003e0: 3c12 79be 3975 993e c168 83bd 5be5 dfbb
000003f0: e7f3 90bd 2bdf 0ebe 40ac 93bb 3702 ca3d

b f4 [32]
0.0036332905 -0.00066104415 -0.0014690522 0.004740138 0.013668779 -0.0038540363 -0.008245062 0.0007409181
-0.007028315 0.0064452467 -0.00897064 0.011456063 0.022705754 0.009800064 0.00088809774 -0.001173165
-0.015921742 -0.0078029293 -0.009505851 0.0034559518 0.011217301 0.002632974 -0.009259175 0.00067239796
0.015857222 0.00973872 -0.006213091 0.007930132 0.008655564 0.026421728 0.011560313 -0.01465738
00000000: 801c 6e3b ec49 2dba 368d c0ba 2953 9b3b
00000010: 04f3 5f3c 0094 7cbb 4c16 07bc 2c3a 423a
00000020: c84d e6bb a632 d33b 97f9 12bc 36b2 3b3c
00000030: 6b01 ba3c 7390 203c 3bcf 683a e3c4 99ba
00000040: 506e 82bc b7af ffbb 6ebe 1bbc 407d 623b
00000050: c5c8 373c f98d 2c3b cbb3 17bc dd43 303a
00000060: 01e7 813c 278f 1f3c 2f97 cbbb 62ed 013c
00000070: 11d0 0d3c 6172 d83c 7867 3d3c 8225 70bc

W f4 [32, 32]
0.20531717 0.055772293 -0.07716962 0.16819273 0.2351683 -0.07536352 0.14687926 -0.100141
-0.08789722 0.17974183 0.16401643 0.12318699 -0.2008333 -0.11944251 -0.19360106 -0.2748556
-0.24293393 -0.0057632313 0.04359582 0.12859854 0.057705045 -0.28993785 -0.155604 0.20008373
0.020416083 -0.023728473 -0.1456161 0.23513162 0.22211938 0.12907292 -0.13217485 0.093189746
-0.01431759 0.08054949 -0.08129434 -0.30306658 -0.29756904 -0.13331665 0.029883904 0.091935955
0.30284908 0.17244367 -0.28223106 -0.2500503 0.18159944 -0.13599475 0.026687447 0.16330995
-0.15175025 -0.102176495 0.26003236 -0.035836305 0.2917888 0.16368183 -0.24510603 0.08494069
0.30409485 -0.14341356 -0.24800229 -0.15746559 0.28490037 0.0034180149 -0.063337944 0.18525422
-0.29613337 -0.03518552 0.171157 -0.28334343 0.21078466 0.022052502 0.15845264 -0.12665763
-0.20094498 -0.18233556 -0.20322321 -0.0848893 -0.02528035 0.17594133 0.06704788 0.040458187
0.0054604514 0.1902869 0.11472897 -0.1930816 0.17325626 -0.24420293 -0.11627803 -0.19480284
0.14452614 -0.09703615 0.26550332 -0.13120407 0.025105126 0.29946417 0.022474844 0.059034087
-0.06219979 0.22622144 0.10705661 0.24679852 0.23566231 0.26656082 0.1746784 -0.18776353
0.1557559 0.0249466 0.09177468 -0.27679893 0.10874864 -0.16839656 -0.22626019 0.14143649
0.053225834 -0.17973238 -0.06850895 0.22848788 0.15481181 -0.16705547 -0.17464873 0.033178583
0.25516132 -0.062176432 -0.082622856 -0.11175855 -0.2346452 0.00039205162 0.30534115 0.035181016
0.24806146 -0.014108684 0.16952503 -0.10316403 0.19311695 -0.20271748 -0.2217891 0.23967506
0.24017043 -0.13256957 -0.027481828 0.17536864 0.25278497 0.08659934 -0.058719624 0.20198572
0.10917602 0.08153485 0.23562205 -0.29788986 0.1560575 0.10307068 0.14808683 -0.06531414
0.03802315 0.10142654 0.2900192 -0.11359786 -0.024465527 -0.008106815 0.2239872 0.097245626
0.20266443 0.011445097 0.16533333 0.01968226 -0.08124135 -0.19050992 0.26373014 -0.07500421
-0.18026416 -0.042935297 -0.06807066 0.27044934 -0.0732919 -0.16168001 0.060177237 -0.27807721
0.044042867 -0.29188052 0.2140872 -0.21225588 0.28393367 0.14145924 -0.02408384 0.18608844
-0.01144637 -0.25095218 -0.0942484 0.17462578 0.29068238 0.06682406 0.25121662 -0.21045056
-0.19579998 0.2670522 0.21649219 0.2062947 -0.20384336 -0.2762558 -0.075129345 -0.24746822
0.15496571 0.1098915 -0.09549735 -0.048274066 0.112567775 -0.13582605 -0.2279382 0.23723444
-0.15056537 -0.11058518 0.2218328 -0.1943055 0.26725465 0.1323054 -0.28173247 0.15862769
-0.12491294 0.0063312035 -0.080063194 0.23442464 0.19511925 -0.23227188 0.18235756 -0.24208216
-0.06883462 0.21407817 0.15575445 -0.119264655 -0.24056567 -0.039635755 0.07975789 0.26330635
-0.04911597 -0.019295834 -0.07845949 0.085604094 0.23920006 0.025129413 -0.19132714 -0.2550243
0.12610534 0.020227728 0.250686 -0.028461393 -0.113377176 -0.071025796 0.035444256 -0.06813854
-0.23859978 0.07557781 -0.053470615 0.12480083 0.19569142 -0.11295236 -0.2964236 -0.0027743285
00000000: aa3e 523e 7d71 643d 1b0b 9ebd b73a 2c3e
00000010: f5cf 703e 3058 9abd 8467 163e b916 cdbd
00000020: 7503 b4bd 3e0e 383e ecf3 273e 7649 fc3d
00000030: 3fa7 4dbe 469e f4bd 5b3f 46be e0b9 8cbe
00000040: acc3 78be 7dd9 bcbb 8891 323d 56af 033e
00000050: 205c 6c3d bc72 94be a856 1fbe c0e2 4c3e
00000060: a13f a73c 3762 c2bc 631c 15be 58c6 703e
00000070: 4373 633e b12b 043e d858 07be 44da be3d
00000080: 5394 6abc 22f7 a43d a67d a6bd 8b2b 9bbe
00000090: f85a 98be 2984 08be 17cf f43c eb48 bc3d
000000a0: 090f 9b3e 1395 303e 9780 90be 9806 80be
000000b0: 34f5 393e 3542 0bbe a29f da3c b93a 273e
000000c0: 6b64 1bbe e941 d1bd f622 853e 17c9 12bd
000000d0: 5765 953e 369c 273e 13fd 7abe 62f5 ad3d
000000e0: 52b2 9b3e 01db 12be 50f4 7dbe a93e 21be
000000f0: 76de 913e c600 603b 53b7 81bd 48b3 3d3e
00000100: cb9e 97be b11e 10bd c843 2f3e 6412 91be
00000110: efd7 573e 73a7 b43c 6941 223e 8ab2 01be
00000120: 85c4 4dbe 2cb6 3abe bf19 50be 71da adbd
00000130: bd18 cfbc f729 343e 6650 893d 7cb7 253d
00000140: 96ed b23b 92da 423e 06f7 ea3d 2fb7 45be
00000150: 176a 313e 5510 7abe 2d23 eebd 657a 47be
00000160: a9fe 133e e4ba c6bd 0df0 873e 5c5a 06be
00000170: 44a9 cd3c 5e53 993e 2a1d b83c bacd 713d
00000180: 35c5 7ebd 98a6 673e 7f40 db3d c0b8 7c3e
00000190: 7651 713e a97a 883e e5de 323e 1545 40be
000001a0: 7a7e 1f3e d05c cc3c 5df4 bb3d 97b8 8dbe
000001b0: 9bb7 de3d 2670 2cbe c0b0 67be bad4 103e
000001c0: 5503 5a3d c40b 38be 6c4e 8cbd baf8 693e
000001d0: fd86 1e3e 9710 2bbe 1ed7 32be 44e6 073d
000001e0: 81a4 823e b7ac 7ebd 2c36 a9bd abe1 e4bd
000001f0: d546 70be 478c cd39 ad55 9c3e f819 103d
00000200: d303 7e3e 1c28 67bc f897 2d3e aa47 d3bd
00000210: 73c0 453e 2c95 4fbe af1c 63be 616d 753e
00000220: 3def 753e 51c0 07be 9221 e1bc d693 333e
00000230: 086d 813e ff5a b13d fd83 70bd 58d5 4e3e
00000240: ad97 df3d befb a63d e846 713e 0585 98be
00000250: 8acd 1f3e b816 d33d 13a4 173e 6bc3 85bd
00000260: 2abe 1b3d b8b8 cf3d 667d 943e ffa5 e8bd
00000270: ee6b c8bc 72d2 04bc e75c 653e b728 c73d
00000280: 4487 4f3e 3784 3b3c 244d 293e b13c a13c
00000290: dd61 a6bd 0815 43be a307 873e cf9b 99bd
000002a0: 2b97 38be ecdc 2fbd a168 8bbd 5678 8a3e
000002b0: 101a 96bd 728f 25be 687c 763d 2360 8ebe
000002c0: 4b66 343d 5d71 95be ad39 5b3e 9b59 59be
000002d0: c15f 913e b1da 103e 794b c5bc f88d 3e3e
000002e0: 8e89 3bbc ce7c 80be 4e05 c1bd 1ad1 323e
000002f0: 52d4 943e 0edb 883d 779f 803e 5a80 57be
00000300: ca7f 48be 11bb 883e 21b0 5d3e eb3e 533e
00000310: 50bc 50be 6671 8dbe 6add 99bd 4f68 7dbe
00000320: 55af 1e3e cb0e e13d 1d94 c3bd 07bb 45bd
00000330: ef89 e63d fc15 0bbe a268 69be 96ed 723e
00000340: cf2d 1abe 7c7a e2bd 2328 633e 05f8 46be
00000350: 9ad5 883e 117b 073e 3d3f 90be 4c6f 223e
00000360: 5bd2 ffbd fc75 cf3b 2cf8 a3bd 030d 703e
00000370: 57cd 473e aed8 6dbe f1bb 3a3e 63e4 77be
00000380: 2af9 8cbd 4f37 5b3e 187e 1f3e 0741 f4bd
00000390: d956 76be 1a59 22bd 1b58 a33d 17d0 863e
000003a0: d42d 49bd 4c12 9ebc 5eaf a0bd 3351 af3d
000003b0: dcf0 743e 33dc cd3c 43eb 43be 8c92 82be
000003c0: c221 013e 9fb4 a53c ea59 803e de27 e9bc
000003d0: 4b32 e8bd f975 91bd ff2d 113d 388c 8bbd
000003e0: 8053 74be 8ac8 9a3d 0104 5bbd 9497 ff3d
000003f0: 5563 483e 9153 e7bd d6c4 97be 82d1 35bb

b f4 [32]
0.0013363677 -0.007563241 -0.012337193 -0.0015006687 -0.030110259 0.0031882075 0.0052284533 0.014276446
0.004289818 0.0005894523 -0.007904125 -0.011990259 0.024899859 -0.004039299 0.0065865275 -0.006825635
0.000930096 0.0004013376 -0.0058650216 0.004763077 0.00092202803 -0.008832364 -0.009724467 -0.010064767
0.0114792045 -0.008019073 -0.0006807217 0.0024437814 -0.0019668627 -0.0016202556 0.00048955384 0.021039026
00000000: 0f29 af3a 10d5 f7bb f021 4abc 16b2 c4ba
00000010: caa9 f6bc 3ff1 503b 7253 ab3b c1e7 693c
00000020: 9a91 8c3b 7985 1a3a 4e80 01bc cb72 44bc
00000030: cafa cb3c 195c 84bb ccd3 d73b 94a9 dfbb
00000040: b0d1 733a 9f6a d239 5e2f c0bb 9613 9c3b
00000050: 41b4 713a 9fb5 10bc 5f53 1fbc b1e6 24bc
00000060: 4613 3c3c 6e62 03bc 7672 32ba d927 203b
00000070: 7be6 00bb c25e d4ba 6755 003a 095a ac3c

W f4 [32, 32]
-0.058245607 0.034930415 0.13411894 0.13757396 0.16128877 0.17718881 0.20967333 -0.23543154
-0.08142363 -0.04419774 0.2906256 0.29056913 0.0354632 -0.04450318 -0.2753739 0.17128305
0.07911322 -0.24732165 0.056906924 -0.1693056 -0.17483486 -0.11425952 0.018981146 0.06597954
-0.1725103 -0.1143602 0.057181038 0.1691411 -0.004332518 -0.07845291 -0.04521285 0.30796567
0.19836359 -0.045838293 0.1792366 -0.036837593 0.0058683767 -0.03632533 0.20159 0.019516457
-0.2965676 -0.008427343 0.2023393 0.082165 0.08097518 0.23150487 0.10118232 -0.08012502
0.14261998 -0.10130926 -0.17692932 -0.08756874 0.27989006 -0.04564034 0.1125728 -0.08224358
-0.14245814 -0.10205593 -0.24436113 0.2778387 -0.27617657 0.23041187 -0.15717028 0.07999812
0.20279695 -0.18026279 -0.07768 -0.25366285 0.23011817 0.16123758 0.0031411485 0.062039793
0.20810625 -0.0044680173 -0.15625751 -0.1162163 0.28316468 -0.03820747 -0.06006684 0.24284959
-0.21646357 -0.009319316 -0.21713889 0.01953159 -0.057920765 -0.01825333 -0.15310737 -0.2400279
-0.17478743 0.13510735 0.10263216 0.23714407 0.058111094 0.2639126 0.18304111 -0.19551586
0.005324775 -0.24559075 -0.21811637 0.055307727 0.07089142 0.205253 -0.16007838 -0.033161778
0.21350256 -0.024236208 0.10127052 -0.1317778 -0.21254408 0.123472355 0.30050096 -0.040737323
-0.1273408 -0.0035440575 0.18995552 0.28649828 0.26026225 0.015393449 0.21869941 0.2504181
0.05330219 0.25589463 0.042294107 0.11616687 0.22712892 -0.031983376 -0.09339074 0.2152642
0.0029840348 0.26688516 0.2840575 -0.22090471 -0.06744095 -0.106788844 -0.25718078 0.045626845
0.2137431 -0.13689606 -0.02905119 0.037388258 0.1833076 -0.25189614 0.27630863 0.31145307
0.17899232 0.075235516 -0.18695396 0.081105106 -0.2540471 -0.20230852 -0.27306625 0.0348553
0.20449938 0.1935053 0.023094883 -0.15883681 0.28884605 -0.11347942 0.13118528 0.26142693
-0.11286411 -0.21672095 -0.25858918 -0.09175996 0.121571116 0.18392168 -0.08602141 0.07522914
0.19193813 -0.26625833 0.2696304 -0.30367184 0.25539404 -0.19633962 -0.07113882 -0.265497
-0.21580747 -0.2769838 -0.065419935 0.26089886 0.04765531 -0.089514285 -0.032529257 0.11134848
-0.2036486 -0.27887413 -0.17298092 0.068611205 -0.24777235 0.15001242 -0.02827936 0.20057124
0.109412655 0.004092541 0.24739674 -0.27461165 -0.043526687 -0.24274309 -0.09867703 0.032610305
0.19249831 0.031179853 -0.011369067 0.29176632 -0.0034496242 -0.08873613 0.0833214 0.020284131
0.0882308 0.05932133 0.23961332 -0.15525578 0.31133208 0.1372547 -0.18654288 -0.08269802
-0.14908415 -0.22189023 -0.28882375 -0.28605422 0.3079747 -0.14275408 0.26307675 0.17787643
0.09438102 -0.12316139 -0.11635078 0.23083705 -0.059522647 -0.0574049 0.028552637 -0.031112753
-0.19498 0.2348781 -0.2330132 -0.15994461 0.17121163 0.24806844 -0.1001634 -0.022080425
0.18678308 -0.2328979 -0.13937889 -0.26077473 -0.28133526 -0.026697986 -0.12722546 -0.31491715
-0.07592412 0.035804905 0.13282968 -0.31506374 0.24285792 0.12992036 -0.08631041 -0.1264029
00000000: f292 6ebd 3213 0f3d 7a56 093e 30e0 0c3e
00000010: e228 253e fc70 353e 9bb4 563e f714 71be
00000020: 6fc1 a6bd b008 35bd e1cc 943e 7ac5 943e
00000030: dc41 113d f748 36bd cffd 8cbe d364 2f3e
00000040: 1d06 a23d e341 7dbe 3c17 693d 725e 2dbe
00000050: e907 33be e500 eabd 597e 9b3c 4820 873d
00000060: 8aa6 30be ae35 eabd aa36 6a3d 5333 2d3e
00000070: ccf7 8dbb ebab a0bd 1c31 39bd adad 9d3e
00000080: d31f 4b3e efc0 3bbd cd89 373e 04e3 16bd
00000090: 834b c03b dfc9 14bd 9c6d 4e3e fae0 9f3c
000000a0: b5d7 97be d712 0abc 0932 4f3e 2046 a83d
000000b0: 51d6 a53d 9d0f 6d3e ad38 cf3d 9618 a4bd
000000c0: f90a 123e 3b7b cfbd f62c 35be 3d57 b3bd
000000d0: c04d 8f3e 5df1 3abd 918c e63d 526f a8bd
000000e0: 8ce0 11be b302 d1bd ce39 7abe e040 8e3e
000000f0: 0467 8dbe 17f1 6b3e 3ff1 20be 0ed6 a33d
00000100: 01aa 4f3e cf96 38be b116 9fbd 19e0 81be
00000110: 19a4 6b3e 771b 253e badb 4d3b 701d 7e3d
00000120: ce19 553e 7268 92bb f801 20be d002 eebd
00000130: f6fa 903e 707f 1cbd a608 76bd 90ad 783e
00000140: a0a8 5dbe 0bb0 18bc a859 5ebe b700 a03c
00000150: 533e 6dbd 0288 95bc 2ec8 1cbe e0c9 75be
00000160: 7afb 32be 9559 0a3e cf30 d23d e5d5 723e
00000170: e605 6e3d 8d1f 873e 216f 3b3e 4f35 48be
00000180: 737b ae3b 247c 7bbe e659 5fbe 5b8a 623d
00000190: 852f 913d d82d 523e 96eb 23be a5d4 07bd
000001a0: 6aa0 5a3e 038b c6bc eb66 cf3d c2f0 06be
000001b0: 28a5 59be 13df fc3d 43db 993e 2edc 26bd
000001c0: a065 02be 6b43 68bb b383 423e e7af 923e
000001d0: 1841 853e ce34 7c3c bdf2 5f3e cd36 803e
000001e0: 6653 5a3d 9f04 833e 963c 2d3d e5e8 ed3d
000001f0: 7c94 683e 0001 03bd a543 bfbd 386e 5c3e
00000200: cc8f 433b 2ca5 883e fc6f 913e d834 62be
00000210: 7b1e 8abd 1cb4 dabd 33ad 83be 37e3 3a3d
00000220: 79df 5a3e 7b2e 0cbe c3fc edbc 6e24 193d
00000230: fdb4 3b3e 88f8 80be 5378 8d3e c776 9f3e
00000240: c349 373e 1415 9a3d dc70 3fbe 6f1a a63d
00000250: 7612 82be f729 4fbe 57cf 8bbe 6ec4 0e3d
00000260: 4968 513e 4126 463e 7b31 bd3c 1ea6 22be
00000270: a1e3 933e e667 e8bd 6f55 063e c0d9 853e
00000280: 4c25 e7bd 19ec 5dbe cd65 84be a5ec bbbd
00000290: 47fa f83d f755 3c3e fe2b b0bd bc11 9a3d
000002a0: 6e8b 443e 0353 88be ff0c 8a3e e07a 9bbe
000002b0: 02c3 823e 410d 49be 3bb1 91bd 39ef 87be
000002c0: a2fc 5cbe d2d0 8dbe e3fa 85bd 8994 853e
000002d0: 3732 433d 4453 b7bd 663d 05bd ac0a e43d
000002e0: 4289 50be 97c8 8ebe e921 31be 0884 8c3d
000002f0: 09b8 7dbe db9c 193e 1eaa e7bc 8c62 4d3e
00000300: be13 e03d b91a 863b 9255 7d3e e699 8cbe
00000310: 0a49 32bd a591 78be 2f17 cabd 6292 053d
00000320: 471e 453e e46c ff3c 5345 3abc 6562 953e
00000330: 1713 62bb 4abb b5bd 69a4 aa3d e82a a63c
00000340: 5ab2 b43d ecfa 723d 325d 753e 5ffb 1ebe
00000350: eb66 9f3e 7f8c 0c3e 1905 3fbe 945d a9bd
00000360: 84a9 18be 3137 63be b5e0 93be b375 92be
00000370: dcae 9d3e 202e 12be ffb1 863e 3d25 363e
00000380: d64a c13d 0a3c fcbd 5149 eebd 8c60 6c3e
00000390: 05ce 73bd 6721 6bbd 38e7 e93c 2ce0 febc
000003a0: d6a8 47be e283 703e 039b 6ebe 85c8 23be
000003b0: 1a52 2f3e a705 7e3e 7822 cdbd 02e2 b4bc
000003c0: 1044 3f3e c97c 6ebe 57b9 0ebe 4484 85be
000003d0: 2d0b 90be bcb5 dabc 6447 02be d23c a1be
000003e0: 1b7e 9bbd 2aa8 123d 8104 083e 0950 a1be
000003f0: bfaf 783e d809 053e 83c3 b0bd c36f 01be

b f4 [32]
-0.0008891527 0.0020063785 -0.0021777726 0.006281275 0.0027801327 0.0011603406 0.0007275297 -0.0059926957
-0.04061089 -0.00127873 0.018160759 -0.0156546 0.002363027 -0.004689542 0.00031796342 0.023855783
-0.0002857222 -0.015454499 0.00640074 0.009516443 -0.017959276 -0.009646226 0.00801182 -0.0014206413
0.019503377 0.020043703 0.0007928536 0.010089896 0.006146219 0.012287369 -0.010152684 -0.013098435
00000000: 0716 69ba 727d 033b f6b8 0ebb 27d3 cd3b
00000010: e332 363b 9216 983a b1b7 3e3a 605e c4bb
00000020: 9b57 26bd 0f9b a7ba dfc5 943c 133e 80bc
00000030: 04dd 1a3b bbaa 99bb 54b4 a639 346d c33c
00000040: fccc 95b9 de34 7dbc 4cbd d13b dbea 1b3c
00000050: 551f 93bc 340b 1ebc 0244 033c d034 baba
00000060: 8cc5 9f3c b132 a43c 81d7 4f3a 1750 253c
00000070: 3966 c93b f650 493c 7157 26bc d19a 56bc

W f4 [32, 32]
0.15065682 -0.28056797 0.09619398 -0.037823174 0.015303352 0.059248548 -0.26160395 0.23275955
-0.10698365 -0.09091736 0.15485768 -0.06437904 -0.003486834 -0.21639557 -0.16610515 -0.12637082
0.10904981 0.06648745 0.12684645 -0.2889771 -0.11289917 -0.1801397 0.20513667 0.19435385
0.1166074 0.23080586 -0.25344735 -0.10473231 -0.26634598 -0.27464658 0.044511512 -0.16504426
-0.050974097 0.07779727 -0.174112 -0.02746981 -0.26320785 0.09499376 0.23584554 -0.07500729
0.101611145 -0.009003976 -0.2885285 0.009093059 -0.0011111617 -0.15798756 0.21833277 -0.08162525
-0.23576342 0.21046095 0.053023864 -0.2560498 -0.3077427 0.100424826 -0.12610254 0.30411747
-0.01588092 -0.22547004 -0.0050002327 0.12377457 -0.14389928 0.18053825 -0.12321185 0.2584336
0.072309114 -0.05721446 -0.054416325 0.2177865 -0.0656269 -0.011716932 0.002304251 -0.23524407
-0.2837913 -0.20638263 0.014933761 -0.2722561 -0.22204414 0.2713824 0.12258764 -0.21125837
-0.24639729 0.2803133 0.1625245 -0.10721322 0.29816467 -0.17200899 -0.23908204 -0.1362624
0.15842625 -0.052969415 -0.24032842 0.17849104 -0.008328835 0.28414488 -0.07906622 -0.1412776
0.26062325 0.17958735 -0.15617009 0.2013182 -0.19106416 0.07463284 -0.070756175 0.28755376
-0.026032794 -0.10167904 0.161903 -0.046525948 0.016654242 -0.21093848 -0.07476682 0.27187523
0.01904012 0.27539423 -0.061302524 -0.066627525 -0.28248096 0.012394366 0.20848043 -0.122480065
0.26991796 0.13334806 -0.12937929 0.24938329 0.0712731 -0.032454982 -0.08195793 0.26472744
-0.006135965 0.09301765 -0.0962821 -0.027421407 -0.11581977 -0.105049394 -0.25332162 -0.028421028
0.1004458 0.07040636 -0.2778268 0.14098004 -0.08943513 -0.11461865 -0.2836656 0.15125565
-0.22946216 0.03017759 0.015537915 -0.14145939 -0.08262015 -0.062424947 -0.19497684 0.22530642
-0.026318846 -0.011946768 -0.13349748 -0.00041274147 -0.087266624 -0.24360211 -0.07037956 0.26503992
-0.23470715 -0.08352798 -0.0048183724 -0.24477218 0.0028344048 -0.06652211 0.073314264 0.25818786
-0.17064528 0.18901277 0.09420679 -0.22901982 0.002548856 -0.29169896 0.12686324 0.032410417
0.27333832 0.2367696 -0.06186546 -0.039342977 -0.08541379 -0.18898584 -0.14579801 -0.106666364
0.13540453 -0.10234345 -0.076796025 0.10176436 -0.05904889 -0.1080196 0.29026306 -0.27362207
0.20348598 0.13206598 0.029552188 -0.15167238 -0.22387314 0.1119289 0.04190993 0.0861821
0.043959815 -0.2957796 -0.17246413 -0.2552302 -0.02876625 0.108938 -0.047923412 0.12716605
0.12981819 0.119128734 -0.039029714 0.28143862 0.12068605 -0.10958185 -0.21310404 -0.038794566
-0.06732493 0.14020671 -0.12171761 0.025357906 0.061773416 0.26602635 0.1231866 -0.0062285205
0.10154563 -0.29600617 -0.101160266 0.027010996 -0.29505405 -0.24294029 -0.24344368 -0.018495226
-0.096994735 -0.25666642 0.0397949 -0.06692793 0.059704024 0.19444086 0.29273364 0.09429358
0.2894005 0.01368854 -0.016492777 0.14238358 -0.3060072 0.30112073 0.18499517 -0.09406865
-0.24625348 -0.062194206 0.012271219 0.08911969 -0.093868904 0.28564864 0.19317815 -0.025959192
00000000: c845 1a3e 9ba6 8fbe 5901 c53d 79ec 1abd
00000010: e9ba 7a3c 9bae 723d f4f0 85be 8558 6e3e
00000020: 3e1a dbbd e132 babd 0393 1e3e 28d9 83bd
00000030: 5e83 64bb cd96 5dbe 7817 2abe 5a67 01be
00000040: 8255 df3d 922a 883d 09e4 013e cef4 93be
00000050: ae37 e7bd 8b76 38be 590f 523e b204 473e
00000060: dccf ee3d 5f58 6c3e dac3 81be e57d d6bd
00000070: 805e 88be 7a9e 8cbe b451 363d 5d01 29be
00000080: 37ca 50bd 2d54 9f3d 6b4a 32be 5e08 e1bc
00000090: 2ec3 86be 178c c23d 7e81 713e 6c9d 99bd
000000a0: 8119 d03d 6a85 13bc 02ba 93be 0efb 143c
000000b0: 66a4 91ba 7ec7 21be a092 5f3e 242b a7bd
000000c0: f76b 71be 1383 573e 8d2f 593d f618 83be
000000d0: 7490 9dbe 88ab cd3d 0621 01be 49b5 9b3e
000000e0: b418 82bc 9ee1 66be fed8 a3bb 867d fd3d
000000f0: 555a 13be 05df 383e 7f56 fcbd 6951 843e
00000100: cd16 943d b659 6abd a7e3 5ebd 6d03 5f3e
00000110: 6567 86bd 60f8 3fbc eb02 173b d2e3 70be
00000120: 184d 91be f855 53be bcac 743c 2765 8bbe
00000130: 8a5f 63be a2f2 8a3e 3b0f fb3d 1d54 58be
00000140: 924f 7cbe 3a85 8f3e d36c 263e 9b92 dbbd
00000150: 0aa9 983e 2023 30be ecd1 74be 5f88 0bbe
00000160: 7e3a 223e 75f6 58bd a718 76be 5bc6 363e
00000170: aa75 08bc 707b 913e 78ed a1bd 13ab 10be
00000180: 6970 853e bfe5 373e 0deb 1fbe 5c26 4e3e
00000190: 53a6 43be 1ad9 983d 9de8 90bd 3f3a 933e
000001a0: ba42 d5bc 1a3d d0bd e6c9 253e fe91 3ebd
000001b0: 7a6e 883c 4200 58be 591f 99bd 3b33 8b3e
000001c0: 07fa 9b3c 7900 8d3e 5b18 7bbd 0374 88bd
000001d0: 58a1 90be bd11 4b3c e57b 553e d4d6 fabd
000001e0: b032 8a3e 658c 083e 017c 04be 555e 7f3e
000001f0: a2f7 913d 84ef 04bd 8fd9 a7bd 5b8a 873e
00000200: 3510 c9bb 0a80 be3d 8d2f c5bd dca2 e0bc
00000210: ea32 edbd 2324 d7bd 5fb3 81be 37d3 e8bc
00000220: 87b6 cd3d 3631 903d 503f 8ebe 125d 103e
00000230: c429 b7bd 2fbd eabd 9e3c 91be c3e2 1a3e
00000240: 21f8 6abe fe36 f73c bd92 7e3c bbda 10be
00000250: c134 a9bd 4db1 7fbd 02a8 47be bab6 663e
00000260: 9f9a d7bc 60bc 43bc 90b3 08be 3965 d8b9
00000270: d8b8 b2bd d572 79be 2923 90bd 50b3 873e
00000280: 1257 70be b810 abbd 70e3 9dbb 8fa5 7abe
00000290: 6cc1 393b be3c 88bd ca25 963d 3331 843e
000002a0: a3bd 2ebe 908c 413e 7def c03d 2c84 6abe
000002b0: b50a 273b 9159 95be 70e8 013e c9c0 043d
000002c0: 00f3 8b3e bb73 723e a366 7dbd 1a26 21bd
000002d0: 6ded aebd 8185 41be 134c 15be e573 dabd
000002e0: 7ca7 0a3e 7199 d1bd 3c47 9dbd d569 d03d
000002f0: 40dd 71bd 6139 ddbd 5c9d 943e 3118 8cbe
00000300: a15e 503e 4e3c 073e 6e17 f23c 0150 1bbe
00000310: 003f 65be fb3a e53d bfa9 2b3d 3e80 b03d
00000320: 350f 343d 6c70 97be 709a 30be 88ad 82be
00000330: 33a7 ebbc e31a df3d 574b 44bd d137 023e
00000340: 0fef 043e c4f9 f33d 9fdd 1fbd b918 903e
00000350: 3f2a f73d 736c e0bd f237 5abe 0de7 1ebd
00000360: a7e1 89bd 5992 0f3e 1547 f9bd 62bb cf3c
00000370: 1f06 7d3d 9b34 883e 4249 fc3d 9e18 ccbb
00000380: 28f7 cf3d 1f8e 97be 1d2d cfbd 2a46 dd3c
00000390: 5311 97be 57c5 78be 4d49 79be 4d83 97bc
000003a0: 2da5 c6bd c869 83be faff 223d 8311 89bd
000003b0: 358c 743d 811b 473e 2fe1 953e fe1c c13d
000003c0: 4d2c 943e e645 603c dc1b 87bc 00cd 113e
000003d0: faac 9cbe 7f2c 9a3e 606f 3d3e 10a7 c0bd
000003e0: df29 7cbe 5abf 7ebd 390d 493c 6284 b63d
000003f0: 573e c0bd 8a40 923e 7ed0 453e 5fa8 d4bc

b f4 [32]
-0.009728231 0.00051879586 -0.0020928595 0.0021865622 -0.003972937 0.0036030798 -0.0066675767 -0.0031933982
-0.003805087 -0.0043603 0.008438453 0.014178019 -0.016119592 -4.1446e-05 -0.0060465033 -0.007317651
0.005064618 0.01579594 -0.01794573 -0.0037253667 0.0083082095 -0.0014412301 -0.0017458872 -0.008516841
-0.003145975 0.0035256138 -0.0045096786 -0.005089435 0.0012191457 0.008389315 -0.017027458 0.0037486071
00000000: 2863 1fbc cdff 073a 5b28 09bb 6d4c 0f3b
00000010: 692f 82bb a621 6c3b b07b dabb 5548 51bb
00000020: c45e 79bb d9e0 8ebb 7041 0a3c ec4a 683c
00000030: 3c0d 84bc 4ed6 2db8 bf21 c6bb e8c8 efbb
00000040: 18f5 a53b 7d66 813c ec02 93bc 4825 74bb
00000050: 281f 083c a8e7 bcba 41d6 e4ba 388a 0bbc
00000060: b42c 4ebb fc0d 673b edc5 93bb 46c5 a6bb
00000070: becb 9f3a 5673 093c 2b7d 8bbc 31ab 753b

W1 f4 [32, 128]
-0.12030426 -0.024720686 0.0054362305 0.017521113 -0.08220308 0.02681481 -0.19157416 0.12252947
-0.0049328706 -0.04608285 -0.02310774 0.1578709 -0.1271794 -0.009420437 0.040819768 -8.40233e-05
-0.11456785 0.106712855 -0.07059658 0.11217809 -0.10235462 0.044946443 0.003315386 0.15289159
0.044477247 0.02024153 -0.1429311 -0.08515953 -0.112824626 -0.14631444 0.14415842 -0.0005079501
0.00464662 0.09514542 -0.117498904 0.07987904 -0.042517222 -0.10280273 -0.0691294 0.13861406
0.12763946 -0.06065028 -0.1525906 0.053499576 0.0046423245 -0.1327998 0.004814925 0.17333166
0.16334523 0.022064028 0.05740889 0.105851844 -0.03664698 0.02871711 -0.0448496 -0.03264328
-0.0852517 0.052054733 -0.121275865 -0.08739559 0.15364036 -0.06793247 0.10639618 -0.14783329
0.0060831145 -0.028198615 0.08273044 0.15848571 0.14007078 -0.10121873 0.14636597 -0.015629634
-0.10701863 0.0054070815 0.069991715 -0.18510103 -0.085403 -0.01512716 -0.18572015 0.06769954
0.09790417 -0.11884596 0.08591527 -0.15176804 0.14770596 0.119570516 -0.001268663 0.18146242
0.0762955 0.16482794 0.17879821 -0.1313001 0.018264446 -0.121094406 -0.18519448 -0.049367897
0.18444547 0.13252471 -0.12939088 -0.05811572 -0.12091034 0.002467514 -0.18877341 -0.083635576
-0.11680039 -0.074373476 -0.095245466 0.060442496 -0.09915627 -0.046660736 -0.13027768 0.06298262
-0.17678861 0.082667835 0.1430969 -0.15231064 0.042625397 -0.12525181 -0.19717409 -0.15597785
-0.030332662 0.13074495 0.076445445 -0.18667947 0.015122243 -0.13512835 -0.09301088 0.1613732
0.07429477 0.12567987 0.043242455 -0.20002627 0.0052337456 -0.16785377 -0.15082394 -0.1097971
0.12766528 0.1625354 0.011993182 0.030092092 0.03947505 0.18158764 0.16327915 0.13525991
0.12570135 -0.10343917 0.09686856 -0.15226676 0.044423036 -0.034195557 -0.008472059 0.010296748
-0.07153256 0.1455384 -0.1404987 0.065103 -0.01793724 0.05972868 0.17117122 -0.06657327
-0.11547467 0.15892476 -0.04096573 -0.0031877775 -0.16804475 -0.13320994 0.07228497 -0.06593419
0.1258093 -0.031826872 -0.058484565 -0.16416205 -0.15714748 -0.10930467 0.10406917 0.053115826
-0.18041542 0.03521015 -0.027222713 0.03573424 -0.1313702 0.16546537 0.13296603 -0.07163613
0.016445305 -0.02696714 0.14667019 -0.1656793 -0.028158756 -0.067997105 -0.026014708 0.02454755
0.18875138 0.10672952 -0.12302506 0.13851583 -0.04582294 -0.082010984 -0.0072566057 0.003798108
-0.02093559 -0.068985984 0.19135742 -0.1261216 0.04194248 -0.10055312 -0.023547681 0.1347162
-0.012090692 -0.1573921 0.14841059 -0.14505194 0.009530318 0.13911726 -0.0012119017 -0.115458146
0.065623455 0.11249246 0.078308105 0.04494811 0.015807198 -0.17037404 0.09626338 -0.0054776166
-0.07969095 0.007080995 0.031088782 0.084841385 -0.118817486 -0.029703142 0.14239542 -0.1322583
0.056295257 -0.008064773 -0.0099233445 -0.17901 0.060508866 0.14919497 0.07548489 0.0026427351
-0.034158703 -0.1837223 0.13474683 0.13746028 -0.0772965 0.10963232 -0.00042521016 0.10088441
0.07517515 0.060863968 -0.051094282 0.05984743 0.006216582 0.11145633 0.03905781 -0.13669123
00000000: 1462 f6bd 0983 cabc 6822 b23b 7088 8f3c
00000010: 175a a8bd bbaa db3c 042c 44be bbf0 fa3d
00000020: eba3 a1bb 5fc1 3cbd 714c bdbc e9a8 213e
00000030: 513b 02be 2d58 1abc a132 273d aa35 b0b8
00000040: 8da2 eabd 458c da3d f194 90bd a0bd e53d
00000050: 4d9f d1bd c319 383d f246 593b 9d8f 1c3e
00000060: c62d 363d 91d1 a53c 885c 12be 1f68 aebd
00000070: 9910 e7bd 74d3 15be 449e 133e f427 05ba
00000080: ac42 983b 9adb c23d 44a3 f0bd 9f97 a33d
00000090: 8a26 2ebd 3d8a d2bd b793 8dbd d8f0 0d3e
000000a0: ebb3 023e 6e6c 78bd b640 1cbe 5f22 5b3d
000000b0: a41e 983b acfc 07be 85c6 9d3b db7d 313e
000000c0: f943 273e 9fbf b43c 9625 6b3d dac8 d83d
000000d0: 251b 16bd 2540 eb3c 37b4 37bd f6b4 05bd
000000e0: 7198 aebd 5837 553d 7b5f f8bd 76fc b2bd
000000f0: e653 1d3e 2e20 8bbd 3ee6 d93d 9c61 17be
00000100: dd54 c73b c800 e7bc 946e a93d 144a 223e
00000110: b76e 0f3e c44b cfbd f6e0 153e b809 80bc
00000120: 952c dbbd e32d b13b d157 8f3d 208b 3dbe
00000130: c5e7 aebd e8d7 77bc 6c2d 3ebe 0ea6 8a3d
00000140: fb81 c83d 8365 f3bd 58f4 af3d 1569 1bbe
00000150: 3b40 173e 63e1 f43d 4449 a6ba 49d1 393e
00000160: d140 9c3d a8c8 283e e116 373e 8973 06be
00000170: 529f 953c 5800 f8bd 9fa3 3dbe fe35 4abd
00000180: 46df 3c3e 8fb4 073e 0b7f 04be c00a 6ebd
00000190: d79f f7bd 04b6 213b d14d 41be 2149 abbd
000001a0: 0b35 efbd 1f51 98bd 0e10 c3bd 8d92 773d
000001b0: 7112 cbbd 541f 3fbd 8367 05be 08fd 803d
000001c0: 1308 35be c14d a93d fe87 123e 52f7 1bbe
000001d0: f897 2e3d 0342 00be 01e8 49be a8b8 1fbe
000001e0: 347c f8bc 01e2 053e 6e8f 9c3d e728 3fbe
000001f0: 49c3 773c 165f 0abe 7d7c bebd 043f 253e
00000200: db27 983d 39b2 003e 001f 313d b0d3 4cbe
00000210: d77f ab3b dce1 2bbe 9771 1abe 4ddd e0bd
00000220: b0ba 023e ae6f 263e 0d7f 443c b183 f63c
00000230: 97b0 213d 1cf2 393e a632 273e 9381 0a3e
00000240: dbb7 003e ead7 d3bd 0663 c63d d1eb 1bbe
00000250: eef4 353d a410 0cbd 64ce 0abc b1b3 283c
00000260: aa7f 92bd 0508 153e e4de 0fbe b954 853d
00000270: 1ef1 92bc 0fa6 743d 8247 2f3e 9157 88bd
00000280: fc7d ecbd 2cbd 223e aecb 27bd 08ea 50bb
00000290: ec13 2cbe 3068 08be 240a 943d 8108 87bd
000002a0: 27d4 003e e55c 02bd 838d 6fbd 191a 28be
000002b0: 45eb 20be 20db dfbd 3822 d53d fb8f 593d
000002c0: d2be 38be 8538 103d 2b02 dfbc 115e 123d
000002d0: e985 06be c16f 293e 3f28 083e f7b5 92bd
000002e0: 4eb8 863c 31ea dcbc b630 163e d6a7 29be
000002f0: 31ad e6bc 1142 8bbd cc1c d5bc f217 c93c
00000300: 0b48 413e 0295 da3d 90f4 fbbd 18d7 0d3e
00000310: d6b0 3bbd 60f5 a7bd d2c8 edbb aee9 783b
00000320: 1d81 abbc 8648 8dbd 33f3 433e 0526 01be
00000330: e1cb 2b3d cbee cdbd 11e7 c0bc 0bf3 093e
00000340: 0a18 46bc 652b 21be f2f8 173e 7f88 14be
00000350: 0d25 1c3c c174 0e3e acd8 9eba 5275 ecbd
00000360: 9765 863d 7262 e63d 0060 a03d 821b 383d
00000370: 197e 813c 8876 2ebe bc25 c53d 947d b3bb
00000380: 0235 a3bd b107 e83b e7ad fe3c 52c1 ad3d
00000390: 9556 f3bd 0154 f3bc 1bd0 113e b86e 07be
000003a0: db95 663d 1c22 04bc 8695 22bc 664e 37be
000003b0: 25d8 773d 91c6 183e d297 9a3d bd31 2d3b
000003c0: ffe9 0bbd b321 3cbe 13fb 093e 63c2 0c3e
000003d0: a14d 9ebd e986 e03d beee deb9 7c9c ce3d
000003e0: 6ef5 993d 7f4c 793d 3d48 51bd 9422 753d
000003f0: 78b4 cb3b 3743 e43d 15fb 1f3d c9f8 0bbe

b1 f4 [128]
0.011216086 -0.010294994 0.008244835 0.015560135 -0.00930294 -0.009671282 -0.0020655396 -0.010101765
0.0051241037 0.0011788526 0.0021298027 -0.006457514 -0.0031183918 -0.0071188584 0.011460188 0.014445814
0.0018613362 -0.00033271738 -0.0049594557 -0.00036336557 -0.009057203 -0.009815393 0.009822171 -0.002503622
-0.0012032377 -0.00051386526 -0.011447283 -0.014618625 -0.003369067 0.008692789 -0.019755429 -0.008250477
0.0074945 0.00203068 -0.005677724 -0.006223144 0.0025329506 0.0016527327 0.0036198827 0.012728342
-0.012823177 -0.00055140385 0.0044570533 -0.0076240418 -0.0023789834 -0.003985747 0.0041370764 0.009801381
0.00013248081 -0.0087086875 -0.004301149 0.0020804198 0.008786011 0.0052628913 -0.0008432926 -0.012485581
-0.0016180461 -0.010884792 0.0057096276 0.0025642335 -0.0016456789 -0.0001987146 0.0032362519 -0.005299926
-0.0057906224 -0.0031461937 0.004779965 -0.0015776992 -0.0075093377 0.0060566133 0.0022414024 0.0005474492
0.00412036 -0.0033047034 -0.0064277453 0.019582214 0.0010731838 0.007671876 0.01156237 0.0058031376
0.0015687312 -0.0062854374 -0.006325141 0.005809295 -0.006025497 -0.0034718441 -0.011638636 0.0014730608
0.004128396 0.0002295084 0.009956455 -0.016579207 -0.014634334 -0.001700561 -0.0058207004 0.009844787
0.0028286471 0.014430734 0.0024872601 0.0036332267 0.000118279466 -0.0019883802 -0.004802774 -0.0031060195
-0.0041649486 -0.0067250654 -0.01434343 -0.01519741 -0.0012939274 0.016587337 0.007732612 -0.0020931636
-0.0051543363 0.0049120625 0.0033315127 0.0027128116 -0.0010591901 -0.004587623 -0.0025684598 0.008951472
-0.01080819 0.006256225 0.016204992 -0.010224956 -0.00520485 0.0069200024 0.0015436608 0.0074638403
00000000: adc3 373c 56ac 28bc 5815 073c f0ef 7e3c
00000010: 5c6b 18bc 4c74 1ebc 015e 07bb e081 25bc
00000020: 19e8 a73b bb83 9a3a 2994 0b3b 8e99 d3bb
00000030: ef5d 4cbb 5045 e9bb 83c3 3b3c 23ae 6c3c
00000040: 14f8 f33a 9270 aeb9 ee82 a2bb 1a82 beb9
00000050: aa64 14bc bed0 20bc 2ced 203c cf13 24bb
00000060: f5b5 9dba eab4 06ba 638d 3bbc f582 6fbc
00000070: 91cb 5cbb 336c 0e3c 23d6 a1bc 022d 07bc
00000080: 6c94 f53b 2815 053b 330c babb 84eb cbbb
00000090: dcff 253b 82a0 d83a 8e3b 6d3b 898a 503c
000000a0: 4d18 52bc 168c 10ba 790c 923b 19d3 f9bb
000000b0: b8e8 1bbb df9a 82bb 5090 873b f995 203c
000000c0: 8cea 0a39 e2ae 0ebc a7f0 8cbb a757 083b
000000d0: 33f3 0f3c 5574 ac3b 6910 5dba 5390 4cbc
000000e0: 9e14 d4ba 2056 32bc d417 bb3b b30c 283b
000000f0: d2b3 d7ba 0b5e 50b9 4c17 543b 00ab adbb
00000100: 43bf bdbb 5f30 4ebb 41a1 9c3b cdca ceba
00000110: e410 f6bb 8e76 c63b 7ee4 123b b282 0f3a
00000120: 1604 873b b993 58bb d69f d2bb e16a a03c
00000130: 13aa 8c3a 5c64 fb3b 1870 3d3c 3f28 be3b
00000140: e29d cd3a 12f6 cdbb 2143 cfbb e65b be3b
00000150: 8871 c5bb e187 63bb faaf 3ebc b813 c13a
00000160: 7f47 873b 31a8 7039 6620 233c 1ed1 87bc
00000170: d8c4 6fbc 5ce5 deba 93bb bebb 084c 213c
00000180: d360 393b e36e 6c3c 4d01 233b 6e1b 6e3b
00000190: ce0c f838 7c4f 02bb 9760 9dbb 5c8e 4bbb
000001a0: 1f7a 88bb f05d dcbb b500 6bbc 8ffe 78bc
000001b0: 0099 a9ba 2be2 873c da61 fd3b 752d 09bb
000001c0: b5e5 a8bb 5ef5 a03b 8255 5a3b 6dc9 313b
000001d0: 86d4 8aba c553 96bb 9b53 28bb 32a9 123c
000001e0: d614 31bc 0501 cd3b 55c0 843c 9386 27bc
000001f0: 728d aabb 30c1 e23b a954 ca3a 3b93 f43b
