saved_models/model-epoch-74.pth (torch, 249162 bytes, 52 tensors)

embeddings f4 [99, 32]
00000000: b8e9 8e3d 4428 10be 7c91 ffbd 2372 b33d
00000010: 17c9 76bd 6aff 903d af4f 6d3d 6e2e 10be
00000020: ee82 e4bd 73a2 16bd 285f 1bbd 34d3 1bbe
00000030: 377f 403e 120f 7fbd 1dab 3fbe 6537 0abc
00000040: 261a 56bd 2f03 b8bd 6e12 c0bc 73b8 1f3d
00000050: 479b 1b3e b0fa 1e3e 0288 ec3d 5206 26bc
00000060: 8120 14be 9b73 393e 78b1 373e 5e57 c0bd
00000070: 89ef 19bd 4fc2 1a3e 4cb8 0dbe e259 423e
00000080: c9b1 a33d e73a e5bd 48f2 2abe 19b3 a5bd
00000090: 2912 44bd 0dd4 2b3e f609 01bd 411c 0ebe
000000a0: ab99 a8bd 8307 44bd 587e c4bc 8d97 723c
000000b0: 0512 6f3d 0380 a8bc c956 503e 70bf ec3d
000000c0: 11ca 393e daa5 0f3e c377 213e cb92 483e
000000d0: 7d27 54be 55da 5abd 09a6 353e 76e3 cabd
000000e0: 48da 55be b938 013d 2bfb 403e c86c a4bd
000000f0: 9bcb 58be 4437 a33d 7cb0 eebd de4c 83bc
00000100: c3be dd3d 25fa 92bd fcb5 483d 8ecc 1fbe
00000110: f156 1e3e 1b96 103e 5661 153e 0612 67bd
00000120: fff6 57be 2e69 4dbe 1643 633d dae6 9a3d
00000130: 6ae8 063e 9f82 283e 773a bb3d 37ac 313e
00000140: 9e2b 81bd b575 523e 1a48 8f38 2241 46be
00000150: 00be 223e 5815 00bd 58e4 4ebe 255e ea3d
00000160: eedd 3e3e 9940 0f3e 1530 3f3e 2926 3e3e
00000170: 70f6 11bc 5a3a 8dbd f5fb 603d a719 1bbd
00000180: f8b4 2b3c 580c 003e e702 79bd 8288 e13d
00000190: c5cc 5a3e fdf0 3fbe 6b51 38be 84b9 48bd
000001a0: 5f7e bcbd c3bc 363e d548 38be 4330 343e
000001b0: de6a e53d 531a 52be 3019 323e 6688 e9bd
000001c0: 1137 40be 1c8f 6f3d 8bb7 babd d9af 213e
000001d0: 2f98 e13d 855a 0dbe 94a2 ffbb f4b2 1ebe
000001e0: e18c 0dbc 619e 7dba 7296 a73d f944 89bd
000001f0: 120e 9fbd 820f 303e 78cc 46be 519a 5abe
00000200: 8df7 edbd ada0 283e a124 073e 23c8 46be
00000210: 0c39 81bd 43d8 523e e1d1 57be b44f fbbc
00000220: 1dbd 493e 1cda ea3c 6dab 503e b483 ec3d
00000230: 87a2 3cbe d37c 573e 785c 363e 9c9d 11be
00000240: 3e76 b83d bf14 d4bd fc9c 2dbe 9b82 b2bc
00000250: 105f 523b 26de 11be e0d5 20be 64f5 40bc
00000260: dc69 6a3c 6b16 363e b97e 523e 887b 2dbc
00000270: db71 f6bd dc92 2d3e 68e6 c23d 1dd4 37be
00000280: faf3 d3bc 29b0 15be ddf2 1d3e 0697 20bd
00000290: 1582 b5bd bcfd c03c 320e 31be 0b25 ad3d
000002a0: 096d 253e 38d8 3ebe 4dff 7bbd cefe be3d
000002b0: fb32 903d 4087 a53d 21fc 033e 8a33 2fbc
000002c0: 8997 b3bd a120 46bd 7e5c 1cbd 5f70 b33c
000002d0: 11bd b73d cf37 2cbe 0ef0 983c 5372 53be
000002e0: 55bf ea3d 72f3 483e 6c84 16be e536 543e
000002f0: 0660 f93d 200b c0bd 0cf5 34be f33b f83d
00000300: b5ac 383e b1dc d0bd d108 11be a91a 50bb
00000310: df56 fdbd 3e9d e3bd 4acc 1a3e a63e 1f3e
00000320: 597d b5bd f60c 383e 5272 813d 7d0f bebd
00000330: 0872 d4bc e90f e5bd 3dff 32be fcff 80bd
00000340: 2e2c 39bd cd00 40be 3b0a 9ebd b431 9dbc
00000350: fd68 563e 94ef 903d a9c4 c53d 2b9e 3bbd
00000360: b4af babd 8acc 80bc 221e 013d 5395 253e
00000370: 1abe 4dbe c646 16be 818c 31be 7420 4d3e
00000380: 23b2 3e3e 91e1 f83d 9191 22be a05a b1bc
00000390: 9c5b 813d e923 233e 0bcb babb fc84 303e
000003a0: a5dc 3e3d 9640 a8bd 9417 bdbd afea 2b3e
000003b0: 3ebe 3ebe 59d5 8f3c 4a74 3b3e e3df d1bd
000003c0: 33aa cd3d 9490 f5bd a11d 343e 570d efbd
000003d0: 57fe 1bbe cefa 04be 39fa 18be fe9d fa3d
000003e0: 0de7 a3bd d9db 533d 59a5 a33d 3ef4 993d
000003f0: 303a 103e ee67 39be 0723 c5bc d8c3 473e
0.06978172 -0.1407786 -0.12478921 0.08762004 -0.060250368 0.07079966 0.05793732 -0.14080212
-0.11157785 -0.036776017 -0.037932545 -0.15217286 0.18798529 -0.06227023 -0.18717618 -0.008436059
-0.05227103 -0.08984982 -0.023446288 0.038994264 0.15195952 0.15525317 0.11549379 -0.010133343
-0.14465524 0.18110506 0.17938793 -0.09391664 -0.037581954 0.15113185 -0.13839835 0.189796
0.07992894 -0.11192875 -0.16693985 -0.08090801 -0.04786888 0.1678011 -0.03150364 -0.13877966
-0.08232435 -0.047858726 -0.023986027 0.01480664 0.058366794 -0.020568853 0.20345606 0.11559951
0.18143488 0.14028111 0.15768342 0.19587247 -0.20718189 -0.053430874 0.17739119 -0.09906666
-0.20884049 0.031548236 0.18845813 -0.08028561 -0.2117142 0.079695255 -0.116547555 -0.016027864
0.108274005 -0.071766175 0.04900168 -0.15605375 0.15462853 0.1411976 0.14587912 -0.056413673
-0.21090315 -0.20059654 0.0554839 0.07563563 0.13174596 0.16456078 0.09142011 0.17350851
-0.063071474 0.20552714 6.832201e-05 -0.19360784 0.15892792 -0.031270355 -0.20204294 0.11443738
0.18639347 0.13989486 0.18670686 0.18569244 -0.008908853 -0.06895895 0.054927785 -0.03786626
0.010480158 0.12504709 -0.060793784 0.11012365 0.21367176 -0.18744273 -0.17999808 -0.049005046
-0.09203791 0.17845444 -0.17996533 0.17596535 0.11202024 -0.20517854 0.17392421 -0.11402969
-0.18771006 0.05848609 -0.09117039 0.15789737 0.11015355 -0.13804062 -0.0078013632 -0.15497953
-0.008639545 -0.00096747844 0.08182992 -0.067026086 -0.077663556 0.17193416 -0.19413936 -0.2134793
-0.11619482 0.16467543 0.13197567 -0.19412284 -0.06309709 0.2059031 -0.21076156 -0.030677654
0.19701047 0.028668456 0.20377894 0.11548558 -0.18421374 0.2104371 0.17808712 -0.1422028
0.09006928 -0.103555195 -0.16954416 -0.021790793 0.0032100119 -0.14244899 -0.15706587 -0.011777256
0.014307465 0.1778199 0.20556153 -0.010588534 -0.12033435 0.16950554 0.09516603 -0.17952009
-0.025873173 -0.14617981 0.15424676 -0.039206527 -0.08862702 0.02355849 -0.17290571 0.08454331
0.16154875 -0.18637168 -0.06152277 0.09325944 0.07040974 0.080824375 0.12889148 -0.01069344
-0.087691374 -0.04837096 -0.038174145 0.021904169 0.089716084 -0.16818164 0.018669154 -0.2064908
0.11462275 0.19624117 -0.14698952 0.20724066 0.12176518 -0.09377122 -0.17671603 0.121208094
0.18034633 -0.101983435 -0.1416352 -0.0031754172 -0.12370085 -0.11113976 0.15116993 0.15551242
-0.08861799 0.17973694 0.06320633 -0.09280298 -0.02593328 -0.11184675 -0.17480178 -0.06298825
-0.04520815 -0.18750305 -0.07716795 -0.01918874 0.20938487 0.07076946 0.096566506 -0.045805138
-0.09115544 -0.015722532 0.031522878 0.16170244 -0.20092049 -0.14675435 -0.17338754 0.20031911
0.18622641 0.121523984 -0.15875842 -0.021649659 0.06316301 0.15931667 -0.005700474 0.1723823
0.04659714 -0.08215444 -0.09233013 0.16788743 -0.18627259 0.017557787 0.1830608 -0.10247781
0.100422285 -0.11990467 0.17589428 -0.11672466 -0.15233742 -0.129863 -0.14939202 0.12237166
-0.08003054 0.051723335 0.07990522 0.075172886 0.14084697 -0.18106052 -0.024064554 0.19508302

_pos_embeds f4 [64, 32]
00000000: 0000 0000 0000 803f 0000 0000 0000 803f
00000010: 0000 0000 0000 803f 0000 0000 0000 803f
00000020: 0000 0000 0000 803f 0000 0000 0000 803f
00000030: 0000 0000 0000 803f 0000 0000 0000 803f
00000040: 0000 0000 0000 803f 0000 0000 0000 803f
00000050: 0000 0000 0000 803f 0000 0000 0000 803f
00000060: 0000 0000 0000 803f 0000 0000 0000 803f
00000070: 0000 0000 0000 803f 0000 0000 0000 803f
00000080: a46a 573f 4051 0a3f ba7d 083f 0e94 583f
00000090: 3e39 9f3e 6a4e 733f 3a23 353e 83f6 7b3f
000000a0: 7675 cc3d 98b8 7e3f b036 663d 6898 7f3f
000000b0: 5c81 013d 3cdf 7f3f 42ab 913c a3f5 7f3f
000000c0: 57d6 233c b9fc 7f3f 5c44 b83b f7fe 7f3f
000000d0: 203e 4f3b acff 7f3f 2015 e93a e5ff 7f3f
000000e0: 6d12 833a f8ff 7f3f 166a 133a fdff 7f3f
000000f0: 5fcb a539 ffff 7f3f 5377 3a39 0000 803f
00000100: b7c7 683f 3311 d5be 0af2 663f b2e8 dc3e
00000110: 1b54 173f ec7b 4e3f f647 b23e a5fa 6f3f
00000120: f96f 4b3e a5e5 7a3f 88d9 e53d f361 7e3f
00000130: c870 813d f97c 7f3f 5ca5 113d 8ed6 7f3f
00000140: 3ed4 a33c e5f2 7f3f 9d43 383c dbfb 7f3f
00000150: dd3d cf3b b0fe 7f3f 0815 693b 96ff 7f3f
00000160: 6912 033b deff 7f3f 146a 933a f5ff 7f3f
00000170: 5fcb 253a fdff 7f3f 5377 ba39 ffff 7f3f
00000180: c381 103e 2670 7dbf d745 7e3f a87f edbd
00000190: c209 503f 572f 153f 6d2f 023f 296d 5c3f
000001a0: 6d4e 973e ef90 743f d8ee 2b3e 9e5d 7c3f
000001b0: c1ff c13d 4fd9 7e3f 4d69 5a3d c3a2 7f3f
000001c0: 20b9 f53c 83e2 7f3f c731 8a3c adf6 7f3f
000001d0: 116e 1b3c 0dfd 7f3f a8cf ae3b 11ff 7f3f
000001e0: 939b 443b b5ff 7f3f 1b1f dd3a e8ff 7f3f
000001f0: 0db1 783a f8ff 7f3f 7ed9 0b3a feff 7f3f
00000200: cfbd 41bf 3055 27bf ed49 473f 9daf 20bf
00000210: de1d 743f b12e 9a3e bc1f 273f edeb 413f
00000220: d761 c73e a7ca 6b3f c665 643e 098d 793f
00000230: 882e 013e 69f4 7d3f c88d 913d 475a 7f3f
00000240: dbcb 233d 94cb 7f3f a240 b83c 6cef 7f3f
00000250: cd3c 4f3c c2fa 7f3f a714 e93b 58fe 7f3f
00000260: 5812 833b 7aff 7f3f 0e6a 133b d6ff 7f3f
00000270: 5ccb a53a f3ff 7f3f 5277 3a3a fcff 7f3f
00000280: 107c 75bf 2c3c 913e d6da a53e 4032 72bf
00000290: 7ffc 7f3f d472 29bc abca 463f f14c 213f
000002a0: 4477 f53e 40a9 603f ee11 8e3e 7cf2 753f
000002b0: 1e3c 213e 81ce 7c3f 21db b53d 1efd 7e3f
000002c0: f5b6 4c3d 19ae 7f3f fe4d e63c 19e6 7f3f
000002d0: 8185 813c cff7 7f3f bbac 113c 69fd 7f3f
000002e0: ded6 a33b 2eff 7f3f 8c44 383b beff 7f3f
000002f0: 313e cf3a ebff 7f3f 2615 693a f9ff 7f3f
00000300: 8c0f 8fbe b8cd 753f 74e5 6bbe 531d 79bf
00000310: 4d78 723f 6f3f a4be 8930 603f 342f f73e
00000320: 698c 103f 3249 533f fd7d a93e e290 713f
00000330: 6f20 413e e367 7b3f c119 da3d 518b 7e3f
00000340: d19c 753d 128a 7f3f bf2c 0a3d b3da 7f3f
00000350: 466c 9b3c 34f4 7f3f 04cf 2e3c 45fc 7f3f
00000360: 599b c43b d2fe 7f3f 061f 5d3b a1ff 7f3f
00000370: 05b1 f83a e2ff 7f3f 7dd9 8b3a f6ff 7f3f
00000380: 4630 283f bdff 403f 6eb6 36bf 604f 33bf
00000390: 6fe8 4c3f bb74 19bf 4484 723f b9f8 a33e
000003a0: 73eb 243f b3cc 433f df60 c43e c56b 6c3f
000003b0: 50d3 603e eac0 793f ba46 fe3d e904 7e3f
000003c0: 323e 8f3d 815f 7f3f 6031 213d 3bcd 7f3f
000003d0: a652 b53c f2ef 7f3f 2af1 4b3c ecfa 7f3f
000003e0: c75f e53b 65fe 7f3f befc 803b 7eff 7f3f
000003f0: ec11 113b d7ff 7f3f 6628 a33a f3ff 7f3f
0.0 1.0 0.0 1.0 0.0 1.0 0.0 1.0
0.0 1.0 0.0 1.0 0.0 1.0 0.0 1.0
0.0 1.0 0.0 1.0 0.0 1.0 0.0 1.0
0.0 1.0 0.0 1.0 0.0 1.0 0.0 1.0
0.84147096 0.5403023 0.53316844 0.84600914 0.3109836 0.95041525 0.17689219 0.9842302
0.099833414 0.9950042 0.056204498 0.9984193 0.031617507 0.99950004 0.017781857 0.99984187
0.009999833 0.99995 0.0056233834 0.9999842 0.0031622723 0.999995 0.0017782785 0.9999984
0.0009999998 0.9999995 0.0005623413 0.9999998 0.00031622776 0.99999994 0.00017782794 1.0
0.9092974 -0.41614684 0.9021307 0.43146282 0.5911271 0.8065784 0.34820527 0.9374183
0.19866933 0.9800666 0.112231314 0.9936821 0.063203394 0.9980007 0.03555809 0.9993676
0.019998666 0.9998 0.011246589 0.99993676 0.0063245133 0.99998 0.0035565514 0.9999937
0.0019999987 0.999998 0.0011246824 0.99999934 0.0006324555 0.9999998 0.00035565588 0.99999994
0.14112 -0.9899925 0.9932532 -0.11596614 0.8126489 0.5827536 0.50853616 0.86104065
0.29552022 0.9553365 0.1679033 0.9858035 0.09472609 0.99550337 0.05332308 0.9985773
0.029995501 0.99955004 0.016869439 0.9998577 0.009486691 0.999955 0.005334813 0.99998575
0.0029999956 0.9999955 0.0016870232 0.99999857 0.0009486832 0.9999995 0.0005334838 0.9999999
-0.7568025 -0.6536436 0.77847177 -0.62767965 0.95358074 0.30113748 0.652828 0.7575062
0.38941833 0.921061 0.22304448 0.9748083 0.12615407 0.99201065 0.07107121 0.9974713
0.039989334 0.9992001 0.022491757 0.99974704 0.012648773 0.99992 0.0071130577 0.9999747
0.0039999895 0.999992 0.0022493633 0.9999975 0.0012649107 0.9999992 0.0007113117 0.99999976
-0.9589243 0.2836622 0.3239352 -0.94607925 0.99994653 -0.010342319 0.77652997 0.6300803
0.47942555 0.87758255 0.27748054 0.96073127 0.15745589 0.987526 0.08879686 0.99604976
0.04997917 0.99875027 0.028113361 0.99960476 0.01581073 0.999875 0.00889128 0.9999605
0.0049999794 0.9999875 0.002811703 0.99999607 0.0015811381 0.99999875 0.0008891396 0.9999996
-0.2794155 0.96017027 -0.23036748 -0.9731037 0.94714814 -0.32079646 0.8757406 0.482782
0.5646425 0.8253356 0.33103934 0.943617 0.18860029 0.98205394 0.106494434 0.9943133
0.059964005 0.99820054 0.03373408 0.99943084 0.018972527 0.99982 0.010669474 0.9999431
0.005999964 0.999982 0.0033740415 0.99999434 0.0018973654 0.9999982 0.0010669675 0.9999994
0.6569866 0.75390226 -0.71372116 -0.7004299 0.80042166 -0.5994374 0.9473307 0.32025698
0.64421767 0.7648422 0.38355157 0.92351943 0.2195561 0.9755999 0.12415834 0.9922624
0.06994285 0.997551 0.03935373 0.9992253 0.022134136 0.999755 0.012447635 0.9999225
0.006999943 0.9999755 0.003936379 0.99999225 0.0022135926 0.99999756 0.0012447953 0.9999992

W f4 [32, 32]
00000000: ca24 053e bc70 983d 05a6 3ebc 344a a43d
00000010: b93c 83be 7a06 1fbe ead6 b8bd dfbd 2b3e
00000020: 275f 2fbe fd21 cebd 8fd4 a83b b438 40be
00000030: b619 553e 5389 263d 8144 c03d 8a1e 8abd
00000040: 0f1b 61bd 49e0 b63d d49b 833e fbb0 373e
00000050: 4973 64be 7142 843d b7eb b53d 4365 683e
00000060: dc99 e13d e894 62be d736 9d3d 5997 473e
00000070: 21e1 3a3e f3cb 0abe 483f 52be b788 113e
00000080: 84e0 19bb f254 79be 15a9 25bd 7873 303e
00000090: 5efc edbd bcda 923d 8ed2 03bd 1e3c 8c3e
000000a0: f0f7 023e cece 313d e54c afbd 625b 4cbe
000000b0: a83d 883e 6ffc 74be e537 833e 74db 373d
000000c0: a31b 0dbe fb38 913e b5d9 83be 5657 f83d
000000d0: ff80 4a3e ff92 9e3e c7d4 21be e758 6e3e
000000e0: 6222 353e 6885 f03d f1f1 1f3e 5497 5cbc
000000f0: a20f 843e a615 853e 48b8 16be b59b 923e
00000100: d1d2 133d 049d f23d 28f3 06be 0522 d43d
00000110: 20e2 473e bc9a 4f3e 13fc 853e 7b9c 3abe
00000120: 059d 5e3e a7e8 c6bd 78d2 74be c826 88be
00000130: 7670 8cbe 1b27 1bbe 0785 59be 0576 0c3e
00000140: 1100 34be 154c ca3d d7e5 2e3e 52fa 75be
00000150: 5905 023e 7332 4abe d901 c5bd ddb5 14be
00000160: 484f c3bd 1673 75be cfd5 14be 008b 0bbc
00000170: 9ea3 b1bc 8131 7cbd d45b 99be b9ea 033e
00000180: 4bf9 043e a58b 333e e6b0 71be 8918 40be
00000190: 7d74 35bd 20b6 d93d f29a d23d 84f7 6d3d
000001a0: 90df 43bd cf0b 053e 1754 8abd 4c83 d5bc
000001b0: b27c 843e 352c 923e 7d2a 76be 5930 e0bc
000001c0: 6c91 663e 46a1 50be 9e7a 453e ad17 4bbd
000001d0: ddac 41be f2ee 8a3e 41a2 9a3e d0bc fd3d
000001e0: cd47 2d3e e2c3 19be a372 373e 4abc ff3d
000001f0: 5fae 43bd e29b ebbb fc86 c53d 5ce0 9bbe
00000200: 5232 23be a95c 2bbe f051 79be f300 293d
00000210: 1b7c 483d 55d5 4dbe 657e 23bd 1142 883d
00000220: 83e2 3d3e d8f5 6b3e b86a 9dbe 2bf8 18be
00000230: a466 6bbe 0f06 f1bd 0abe 213e 8c36 7dbe
00000240: b655 433c 9358 943d 67d7 263e d336 99be
00000250: f4e5 78be bb17 7f3e fede f63d 5119 4c3e
00000260: 2f30 2bbe 95b8 e73d 888c 7fbe 82c5 71be
00000270: 3ae3 0b3e d3e5 083e 4d0f 77be 490e 9bbe
00000280: a226 873d 15bb c53d 34a9 37bd 20e1 c4bd
00000290: 659d 383d e2b3 80be 95ed 5bbe b633 0cbe
000002a0: 2866 3bbe 406f 8fbe b7ab 8e3e 045e 743e
000002b0: 7e37 05be f21c 323e 5d61 aebd a374 0c3e
000002c0: 518a 823e 97ea 023e 0bad 88be 2952 67be
000002d0: b7cb eb3d d67f 303e b740 2f3e aea7 663e
000002e0: 8962 84be c9a7 113d ac12 083e 2c32 483c
000002f0: 8a45 213e 0e03 22be d35e 72bd 8318 093e
00000300: 6a9c 0ebd cdd1 1c3c ac50 30be 9e5a 293d
00000310: 00ed 4ebe b363 54be 5269 5c3c ce7b 7cbe
00000320: ab66 8f3e cf87 38be 1c8d 97be 7ed2 653e
00000330: 81e7 323e 2ce2 333d 0ab8 31be 5dbd 703e
00000340: b75c 86be e7ff 083e c37b 45be 9804 84be
00000350: edd7 9dbe c85c 18bd 0894 213e 7786 02be
00000360: 1adb 953d bfdb 9c3d 982d 7bbe 96a7 89be
00000370: 7206 33bd 4036 15be 73ef 5d3d 50ca 7a3d
00000380: 6dd7 3cbb 2174 8dbe 4e6d 613e 7c86 89be
00000390: 46f5 a83d 76e9 b9bd 38ba 0bbe dcb4 20be
000003a0: b7e2 c13d af9d 793e 92fd cd3a 554f 063e
000003b0: 43cd 853e 73ce 67be b355 26bd bd31 233e
000003c0: 2c32 363e cbc7 c7bd c10a 0fbe dfdb 923e
000003d0: 57b6 15be 38a7 4abe 69a8 883e d94d 483c
000003e0: a51f 70be f853 843e 7d51 5dbe b2ba 01be
000003f0: bc9c 973d 7741 38bd 9d71 4fbe 16d8 cb3d
0.13002315 0.074433774 -0.011636262 0.080219656 -0.25632265 -0.15529814 -0.090253666 0.16771649
-0.17126141 -0.100650765 0.005152292 -0.1877163 0.20810589 0.040658306 0.09388066 -0.06744106
-0.054957446 0.08929498 0.25704825 0.17938606 -0.22309603 0.06457985 0.0888285 0.22694878
0.110156745 -0.22127116 0.076764755 0.19491328 0.18249942 -0.13554363 -0.20531952 0.14212309
-0.002347977 -0.2434881 -0.040444452 0.17231548 -0.11620401 0.071706265 -0.032183222 0.27389616
0.12789893 0.043410115 -0.08559588 -0.19956735 0.2660954 -0.23924421 0.25628582 0.04488702
-0.13780074 0.28363785 -0.25752035 0.12126033 0.1977577 0.30971524 -0.15803824 0.23276101
0.17688897 0.11744195 0.15619637 -0.013463814 0.25793177 0.2599308 -0.14718735 0.2863442
0.036089722 0.118463546 -0.13178694 0.10358051 0.19519854 0.2027387 0.2616888 -0.18223755
0.21739586 -0.09712344 -0.23908412 -0.26592088 -0.2742955 -0.15151636 -0.21242152 0.13716896
-0.1757815 0.09877793 0.17079864 -0.24021271 0.12697352 -0.19745807 -0.09619493 -0.145225
-0.09536606 -0.23969683 -0.14534687 -0.008517027 -0.021684464 -0.061570648 -0.29952872 0.12882508
0.12985723 0.17533739 -0.23602638 -0.1875936 -0.044300545 0.10630441 0.1028346 0.058097377
-0.047820628 0.12992786 -0.0675432 -0.026063584 0.25876385 0.28549352 -0.24039645 -0.027366804
0.22516412 -0.20374021 0.19285056 -0.049583126 -0.18913598 0.27135426 0.30201915 0.12389529
0.16921921 -0.1501613 0.17914824 0.12487085 -0.047773715 -0.0071902135 0.09644887 -0.3044461
-0.15937164 -0.16734566 -0.24347663 0.04126067 0.04894648 -0.20100911 -0.03991546 0.06653226
0.18543439 0.23043 -0.30745482 -0.14938419 -0.22988373 -0.11768734 0.1579515 -0.24727839
0.011922291 0.07243457 0.16293107 -0.2992464 -0.2430647 0.24911396 0.12054251 0.19931532
-0.167176 0.11314503 -0.24955952 -0.236105 0.13660899 0.13368921 -0.2412693 -0.30284336
0.065991655 0.09654824 -0.0448391 -0.09613252 0.045071978 -0.2513724 -0.21477349 -0.13691601
-0.18300688 -0.28014565 0.27865383 0.23863989 -0.1300945 0.17393854 -0.08514664 0.13716368
0.25496152 0.12784801 -0.2669452 -0.22589935 0.11513465 0.17236266 0.1711453 0.22524902
-0.25856426 0.035560403 0.13288373 0.012218993 0.15749183 -0.15821478 -0.059172463 0.13388257
-0.034817137 0.009571505 -0.17218274 0.041346185 -0.20207596 -0.20741157 0.013452845 -0.24656603
0.28008017 -0.18020557 -0.29599845 0.22443578 0.17471124 0.043916866 -0.17355362 0.23509736
-0.2624261 0.13378869 -0.19285493 -0.25784755 -0.308288 -0.037197858 0.15779126 -0.12746607
0.07317181 0.07659101 -0.24529111 -0.2688567 -0.04370732 -0.14571476 0.054183435 0.061228096
-0.0028814927 -0.27627662 0.22014353 -0.26860416 0.08249907 -0.09077732 -0.13645256 -0.15693992
0.094670705 0.24376558 0.0015715829 0.131162 0.26133165 -0.22637348 -0.040609073 0.15936942
0.17792577 -0.09754904 -0.13968946 0.28683373 -0.14620338 -0.19790351 0.26690987 0.012225592
-0.23449571 0.25845313 -0.21613117 -0.12668875 0.074029416 -0.044984307 -0.20258184 0.099533245

b f4 [32]
00000000: 8c80 ef3b 23e1 2b3c dd62 5fbc 45a4 953b
00000010: 4ede 02ba c504 06bc c76e dabb c03a af3c
00000020: f534 173c 507e 483c 8fac 543b 589a 413b
00000030: fac9 90bb 65cd 543c 62af a6bb 57f4 8e3c
00000040: 07b2 ce3c ef84 a5bb 35a9 74bb 3a9f 28bb
00000050: 088b 84bc 0aa1 9bbb 7d06 9cbc c9f9 303c
00000060: 0ce8 803c 47c2 ff3b 2083 45bb 4c09 fabb
00000070: d57d 52bc 58e1 7e3c da42 bcbb 6db4 973c
0.007309025 0.0104906885 -0.013634411 0.0045667016 -0.00049922324 -0.008179848 -0.0066660377 0.021390319
0.0092289345 0.0122371465 0.0032451486 0.002954146 -0.0044186087 0.012988423 -0.005086825 0.017450495
0.025231374 -0.0050512473 -0.00373323 -0.0025729672 -0.016179577 -0.004749422 -0.019046063 0.010801741
0.015735649 0.007805142 -0.003013797 -0.007630503 -0.0128473835 0.015556656 -0.005745274 0.01851865

W f4 [32, 32]
00000000: 79ed 6fbe c0b8 99bd 4cd9 5ebe 572c 1b3e
00000010: f86d 02be 796e a13c c0ee 16bd 4232 963c
00000020: 01e9 25be 2396 30be 74bc 7fbd 138f 953e
00000030: e23f af3d 0aec 693d 5c94 cd3c 50f1 4abd
00000040: f435 d23d 8c8c 633e f0a9 a5bd 7d22 92be
00000050: 6b6b 8fbe f103 103e fc6c dabc 682b f5bd
00000060: d292 ffbd 58d8 dcbd 5cb1 1abe b211 733e
00000070: 3285 6cbe 97cc 5c3d fe51 5a3e b06a 56be
00000080: ed66 473e bd9c 623e 0325 4c3e 0cbf 81be
00000090: 6bf3 403e d11a 4cbd 80b0 6f3b 91a3 d53d
000000a0: 2711 963e e2ee a1bd 5c9a 0b3e 3505 9f3e
000000b0: 006e 5f3e d5ef d43d 9863 8b3e a737 9b3e
000000c0: 4f63 213e a220 a23d 9791 203e c7f1 5dbe
000000d0: 5b5b 81be c9af 793d ef94 f73d c5d0 633e
000000e0: a546 34be c439 933d 040d 82bc 3125 6cbe
000000f0: 9b48 d63d 9459 86bd 4410 fdbd 0637 1ebe
00000100: 869a 453e f8a3 f4bd c99a 7a3e 54b3 d33d
00000110: a802 143d df6e 143e c6a8 0a3e 41d3 1dbe
00000120: e578 84be 2cc3 88bd 7633 693e 48ac 683e
00000130: 0689 b53d e6c6 973e 5754 80be caca 843e
00000140: 3606 493e 7e8b 803e f0a4 403c f4db 2b3e
00000150: 7f51 c43d c6df 78be 0648 86be af10 8b3e
00000160: 8558 823e a661 0dbe eedf 413e 1853 46be
00000170: b2b9 8dbe ef51 3fbd 8130 9dbe f214 6c3d
00000180: 9f71 b8bd fb3c aebc b086 79bd 090b 433e
00000190: 48d1 533d f832 693e dce7 30bd 2d77 4bbe
000001a0: 0bbd 8ebe bcf9 cb3d 4710 e2bd 4736 913e
000001b0: f647 063e 1a83 5abe 8a91 fc3d 8fd6 843c
000001c0: ece5 6cbe 1417 9bbc e5de 88be 058b b23d
000001d0: d2b9 813e f142 40be 3b44 3fbe 2f45 a43c
000001e0: 772e 6cbe 23b8 2f3e 449c d4bb 3036 51be
000001f0: e28c 703e dc6c 5cbe 8e13 34be d225 87be
00000200: de84 513e 9ee3 f33c 0302 e5bd d4fe 6b3e
00000210: ad59 83be 85af 57be b297 1a3c 82fc 063e
00000220: 72a1 213e 8dbc 37be 6393 203e dae5 603d
00000230: 0e65 903e 789e 743e b59b 2ebc 92b5 773d
00000240: 6132 883c c2ca 9b3d 31b5 783e 5fbb 74be
00000250: 53e0 933e 88e4 063e 0806 1bbd fae1 6bbe
00000260: d0dc 33be afda 963d 32d1 723e 17eb 84be
00000270: 8230 73be bde2 fa3d a5b2 80be c22d 683e
00000280: 8843 5cbe caaa ea3d efdf 8f3e fb07 a2bd
00000290: 6c01 86bb c71e d0bd 8b7d 683e 9203 523e
000002a0: 1027 9f3d 022c bfbd c671 373e 3bff 59ba
000002b0: 081a b03d 02ca 85be 68cc 4dbe 2b07 8c3e
000002c0: 4009 b63d fbc3 513e 2de5 4fbc a5e5 06be
000002d0: 98d2 343e c56f 843e bc52 143e 1101 e03d
000002e0: 70b9 8a3e f22f 61be abbb 02bc df7b 66be
000002f0: a99e 863d dcbf 363e 0082 7bbd 1f1a b93d
00000300: 44aa 643e 6a83 8f3e 02ba bdbc df4e 1c3e
00000310: c124 513e 8be3 2d3e 287d 6cbe 0939 ca3b
00000320: dc8a 9fbc 7587 933e c2c3 973e fd0a 6f3e
00000330: 58d3 a7bd c61c 483e bc67 c8bd d483 783e
00000340: 0f4e 5d3e 85e4 303e 9d69 86be 7891 23be
00000350: 2752 1cba 9c86 323e 61ce 8e3d 1992 fabc
00000360: 1329 89bd ffab 89be cd39 143e 8d3a 883e
00000370: a13a 5b3e d26a 82be e01f 2cbe 4e4a 2ebe
00000380: 32b0 8c3e 019d 51be e2df 22be 601e 213e
00000390: a557 6b3e 4b04 2b3d 1d1b f9bd f204 943d
000003a0: 91eb 2e3c 82b5 d7bc 7079 303e 2400 87be
000003b0: c7b4 9bbd 419b 35be 112e 83bd 0548 9abe
000003c0: ced3 8e3d 230d 9b3e 73e5 693e d00b b4bd
000003d0: 5823 183e 2f9d 5fbe 1826 673d 8a6c c6bd
000003e0: e6eb efbb f00f 9abe efe1 123e 096f 813e
000003f0: 6936 773d a060 ff3d d58f 95be e042 973e
-0.23430432 -0.075059414 -0.2176258 0.15153633 -0.12737262 0.019705998 -0.036848783 0.018334512
-0.16202165 -0.17244773 -0.062435582 0.2921072 0.085571066 0.05710987 0.025095157 -0.04954654
0.10264197 0.22221583 -0.08089054 -0.28541937 -0.2801164 0.14064004 -0.026663296 -0.1197117
-0.124791756 -0.10783452 -0.1510672 0.23737219 -0.23097685 0.05390605 0.2132034 -0.20939136
0.19472857 0.22130103 0.19935994 -0.2534107 0.18842857 -0.04983026 0.0036573708 0.104315884
0.2930996 -0.079068914 0.13633102 0.3105866 0.21819305 0.10397307 0.27224422 0.30315897
0.1576054 0.079163805 0.15680538 -0.21674262 -0.2526501 0.060958657 0.12088954 0.22247608
-0.17605074 0.07188752 -0.015875347 -0.23061062 0.10463067 -0.065600544 -0.12356618 -0.15450677
0.19297227 -0.11945337 0.24473108 0.103369385 0.036135346 0.14495419 0.13540944 -0.15412618
-0.25873485 -0.06677851 0.22773537 0.2272197 0.08864026 0.29643935 -0.25064346 0.25935966
0.19631276 0.25106424 0.011758074 0.16783124 0.09585857 -0.24304113 -0.26226825 0.27161166
0.2545816 -0.13806781 0.18933079 -0.19367635 -0.27680737 -0.046708997 -0.30701068 0.057637163
-0.090060465 -0.021269312 -0.060919464 0.19047178 0.051713258 0.2277335 -0.04318987 -0.1986968
-0.27878603 0.099597424 -0.11038261 0.28361723 0.13113388 -0.21339074 0.12332447 0.01621559
-0.23134583 -0.018931903 -0.26732555 0.08717922 0.25337082 -0.18775536 -0.18678372 0.02005252
-0.230646 0.17160086 -0.006488355 -0.20430827 0.23491243 -0.21525902 -0.17585585 -0.26396042
0.20460841 0.029771622 -0.11182024 0.23046428 -0.25654355 -0.21063049 0.009435581 0.13182262
0.15784243 -0.1794302 0.15681224 0.054906704 0.282021 0.23888576 -0.010657241 0.060475893
0.016625585 0.07607032 0.24287869 -0.23899601 0.28882083 0.13173115 -0.03784755 -0.23035422
-0.17564702 0.07365929 0.23712614 -0.2596061 -0.23748973 0.12250278 -0.25136295 0.22673705
-0.21510136 0.11458357 0.28100535 -0.079116784 -0.004089525 -0.1016212 0.22704141 0.20509174
0.077711225 -0.09334566 0.17914495 -0.00083159254 0.08598715 -0.26130682 -0.20097506 0.2734922
0.08888483 0.20484917 -0.012688917 -0.1317354 0.1765846 0.25866523 0.14484686 0.109377034
0.27094603 -0.21990946 -0.007979314 -0.2250819 0.06573231 0.17846626 -0.061403275 0.09038185
0.22330576 0.28029948 -0.023159984 0.15264462 0.20424177 0.16981332 -0.23094618 0.00617135
-0.019475393 0.28814283 0.2964154 0.23344035 -0.081946075 0.19542226 -0.09785411 0.24269038
0.21611808 0.17274673 -0.26252452 -0.1597346 -0.00059631694 0.17434162 0.069729574 -0.030587243
-0.066972874 -0.26889035 0.14475174 0.2660717 0.21409084 -0.25472122 -0.16809034 -0.17020532
0.27478176 -0.20470048 -0.15905717 0.15734243 0.22982652 0.04175214 -0.121633746 0.07227506
0.010676281 -0.026331667 0.17233825 -0.26367295 -0.0760284 -0.17735006 -0.06405271 -0.30133072
0.06973992 0.3028346 0.22841434 -0.087913156 0.14857233 -0.21837305 0.056432813 -0.09688671
-0.0073218225 -0.30090284 0.14344 0.25280026 0.060354624 0.12469602 -0.29211298 0.2954321

b f4 [32]
00000000: 7a58 e9ba ed05 95bb e73f 273a 1d72 ca3b
00000010: e00c 82bc dfb0 153c 79bb 083c 547b 073c
00000020: 3dea a93a 5808 3f3b 3df5 6abc 5b24 933a
00000030: a906 13bc 9167 10bc 5ef0 34ba 9963 6f3b
00000040: 7f39 1dbb 7cbc 583b 5a99 123b 7041 8ab9
00000050: 587b 713b a4fd 51bb 4b82 9e3b 094f 3f3b
00000060: 3828 09bc 3ae8 06bb be5c 493b a05e 3cbb
00000070: 72bf 47ba 95a4 993b 1e4e 023c b94e abbb
-0.0017802857 -0.0045478255 0.00063800666 0.006178154 -0.01587528 0.009136408 0.008345478 0.00826915
0.0012963485 0.002914926 -0.014340696 0.0011226045 -0.008973756 -0.008813755 -0.00069022726 0.003652787
-0.002399057 0.003307133 0.0022369237 -0.00026370166 0.00368472 -0.003204205 0.0048373095 0.0029191396
-0.008371405 -0.0020585195 0.0030725445 -0.0028742924 -0.0007619775 0.004688809 0.007953195 -0.0052278903

W f4 [32, 32]
00000000: 859b bc3d 5dfb 3b3d 4d86 033e 29f8 773d
00000010: 5033 89bd 210e aa3d 698d 7e3c 79ab 74be
00000020: a1dd 363e 2ac5 a03e c916 2c3e 0a59 483c
00000030: 9fbe 0bbe 5c3f 54be 55ae 9e3d c1ff 81be
00000040: 2cf5 d0bd e7b3 7fbe 1188 96bd d6fa 513e
00000050: 97d7 2cbe 4cdc b9bd 7ec5 643e 73a7 1c3e
00000060: 1ee7 573e 2eae f93c 973d 3c3e 64fb a0bd
00000070: a5df 5ebe 4d4d 98be f4b6 193e c19d 85bc
00000080: 64e8 073e 8631 1f3c 71f1 cdbd 0a32 1b3e
00000090: 8a85 933e a12d 3f3e 95d7 633d eafc 5e3e
000000a0: ab98 88be a082 e1bd 3b1b 17bd 002e 7fbe
000000b0: 78ec 063e e61d 26be 12d1 abbb 251b 533e
000000c0: 6484 8e3e c8e0 e83d f412 3f3d c656 c93d
000000d0: 5568 44be ff9d 843e 8108 4fbe d740 9fbc
000000e0: 29c7 90bd 4781 9a3e 4ea2 313e 1b66 a23c
000000f0: eada 54bd 5f02 763d 8f4d 83bd f736 5c3e
00000100: 4e90 953e 3f5e 663d c766 483e 6024 863e
00000110: c49d 3e3e 5140 56be 9d3c cb3d fa1b 43be
00000120: 0d33 0bbe b488 34be 69d7 3e3e 038e 9dbe
00000130: d059 313e 6563 fd3c 60f1 9bbe 3e44 95bd
00000140: a534 96be 8545 913d 60cb 9abe 2022 b03d
00000150: 9bbf ef3d fc0b f13c 83f1 d53d a461 acbd
00000160: 4969 863e 9e20 b23d bbc9 3f3d f9f8 8f3e
00000170: f8cc ac3c 1962 c9bd 16b7 43be 9fb4 273e
00000180: 6c18 793e fd16 92be 5ffa 463e f35b d3bd
00000190: 9fc8 f1bd 79e4 8abe c747 e0bd 4206 8abd
000001a0: e0de 50be 464c 23be 6efa 2dbe 9b25 58be
000001b0: 818e 66bc 0130 cd3b 593c 36be cf81 4abe
000001c0: ed3c 56be 4320 ffbc 26d9 efbd e63f 95be
000001d0: 5639 2a3e 1d1d 42be d9a3 0bbd 1dda 88be
000001e0: 9060 193e cc30 27bd 5d2d d23d 5e4a 0e3e
000001f0: e0e6 9cbe c058 2dbe d3bc ff3d 0d09 8bbe
00000200: 464d 293e fba4 633c 7895 253e 354d 3a3e
00000210: e0ad ce3d f073 cfbc ee43 e2bc 24b6 9abd
00000220: b55a 1abe c980 c63d 8fec 8cbe 64ef b13d
00000230: 6807 9cbd 6637 1dbc 38bc c7bc 1c0c 4dbe
00000240: 84e9 423e 1db9 6dbd 22bc 073d 06bd 89be
00000250: 1deb 223d 5714 923e 4206 9f3e 8e5c bf3d
00000260: a9c0 d3bd ed8e 843d 288d b23d b1f9 69be
00000270: d5fe af3d 4d1e 49be bae2 54be ae40 9b3e
00000280: ff9b ddbd 202f c5bd 9205 c63d d831 253e
00000290: 8620 2b3e c6c3 30be e319 40be 9a24 453e
000002a0: da69 4d3e 0d2f 8ebd dc57 8e3d 1e10 903e
000002b0: e4d0 483e 075a 3ebe 99d4 2abe b2ea 8e3e
000002c0: 8564 dabd 0a17 8f3e e511 703e d7de 7a3e
000002d0: 8edd 423e dd24 82be 5709 9b3e 082f cabd
000002e0: f95b ae3c 8414 9a3e 6378 20bd 4abc 09be
000002f0: 892b 023e 43c7 52be 86c4 d4bd fe55 f2bd
00000300: 2ef1 57be fa34 723e 02f7 8c3d 2fb1 963d
00000310: d3d0 903e 6eef 7abe 6852 1bbe 2866 ab3c
00000320: ecbf 903e 426c 993e 0fd1 913d 2894 163e
00000330: 5d07 71be a9d3 943e ff79 94be 23b4 64bc
00000340: f8ba 423d cc36 81bd c609 6c3e 93d2 5ebe
00000350: 0356 003c 149c 39be f1ba 853e 8628 623e
00000360: df11 02bc e0ca 823e a6a5 e7bd 8161 8e3e
00000370: e8a4 2fbe 4488 2a3e bc11 8ebe 17ae 84bd
00000380: 0dc1 a2bd cc24 063e 388b 2e3c a191 cfbd
00000390: 6086 8e3e 8281 5fbe 5f3c 633e d926 603e
000003a0: 4008 303d a363 df3d 115e 073d fdd7 e2bd
000003b0: 62b8 35bd fc53 9c3e 6085 963e 9326 d7bc
000003c0: 7b6c 263d 1a83 30be 805c f9bd e3e6 bfbd
000003d0: a082 56be b684 98bc fbaf 5cbe c113 383d
000003e0: ceb5 9bbc 8a14 7a3e 9d4a 0f3e e59a 4cbe
000003f0: c68e 9ebd 53c5 6ebe 1cdc 69be 2744 7c3d
0.092093505 0.045894016 0.128442 0.0605394 -0.0669924 0.08303476 0.0155366445 -0.23893537
0.17857982 0.31400424 0.16805567 0.01222826 -0.13646935 -0.20727295 0.07748095 -0.25390437
-0.10203013 -0.24970971 -0.07350171 0.20505843 -0.16879116 -0.090752214 0.22340962 0.15298252
0.21084258 0.030478563 0.1838287 -0.07860449 -0.21765001 -0.29746476 0.15011197 -0.016310574
0.13272244 0.009716397 -0.10055817 0.15155807 0.2881282 0.1866975 0.055625517 0.21776167
-0.26678976 -0.11011243 -0.036891203 -0.24919891 0.13176143 -0.16222343 -0.005243429 0.20615824
0.2783538 0.113709986 0.046648934 0.09831004 -0.19180425 0.2590179 -0.20218088 -0.019440098
-0.07069237 0.30176756 0.1734707 0.019824078 -0.051966585 0.060060855 -0.064112775 0.21505342
0.29211658 0.056242224 0.19570456 0.26199627 0.1861487 -0.20922972 0.099236704 -0.19053641
-0.13593693 -0.17630273 0.1863686 -0.3077241 0.17319417 0.030931184 -0.30457592 -0.07288407
-0.2933704 0.07093338 -0.30233288 0.08600259 0.11706468 0.02942466 0.10446455 -0.08417061
0.262522 0.086976275 0.046823245 0.2811964 0.02109383 -0.09833164 -0.1911281 0.16377495
0.24325722 -0.28533164 0.19431446 -0.10320272 -0.118058436 -0.27127436 -0.109511904 -0.06739475
-0.2039752 -0.15947065 -0.16990063 -0.21108095 -0.0140720615 0.006261826 -0.17796458 -0.1977608
-0.20921679 -0.031143313 -0.1171134 -0.29150313 0.16623434 -0.18956418 -0.034091804 -0.26728907
0.14978242 -0.04081802 0.102625586 0.13895556 -0.30644894 -0.16928387 0.12487187 -0.27155343
0.16533384 0.013894315 0.16170299 0.18193515 0.10091758 -0.025323838 -0.027620282 -0.07554272
-0.15073664 0.096925326 -0.2752423 0.08688238 -0.076186 -0.009595728 -0.024381742 -0.2002415
0.19034392 -0.058037866 0.0331384 -0.26902026 0.039775003 0.28531143 0.31059462 0.09343825
-0.103394814 0.064725734 0.0871833 -0.22849156 0.08593527 -0.19640465 -0.20789614 0.30322784
-0.108207695 -0.09628129 0.09669031 0.16132295 0.16711625 -0.17262182 -0.18759875 0.19252244
0.2005991 -0.06942568 0.069503516 0.28137296 0.19610935 -0.1858903 -0.16682662 0.27913433
-0.10663704 0.27947265 0.23444326 0.24499069 0.19029829 -0.2541875 0.30280563 -0.09872252
0.02128409 0.30093777 -0.03917731 -0.13450733 0.1271192 -0.20583825 -0.10389046 -0.11832808
-0.21088096 0.23653021 0.068830505 0.07358014 0.2828432 -0.24505398 -0.15168154 0.020922735
0.28271425 0.29965407 0.07119953 0.14704955 -0.23537965 0.29067734 -0.28999326 -0.013958964
0.04754159 -0.0630928 0.23050603 -0.21760015 0.007833007 -0.18125945 0.26119187 0.22085771
-0.007938831 0.25545406 -0.11310892 0.27808765 -0.1715275 0.16653544 -0.27747905 -0.064785175
-0.07946978 0.13099974 0.0106533095 -0.101351984 0.27836895 -0.21826747 0.22190998 0.21889819
0.042976618 0.10907676 0.033048693 -0.11076353 -0.044365294 0.30532825 0.29398632 -0.02626351
0.0406308 -0.17237511 -0.12175846 -0.0937021 -0.20948267 -0.018617969 -0.21551506 0.044940714
-0.01900759 0.24421898 0.13993306 -0.19980963 -0.077420756 -0.2331746 -0.22837871 0.061588433

b f4 [32]
00000000: 288f 063c ed1e 483b 13d6 9bbb 496a 31bb
00000010: e1e0 353b b49a e83b d766 2b3b 7caf 223c
00000020: 7fc9 453b eed2 3ebc 3b51 b3ba 9e86 583c
00000030: 160d 10bb 9f1f a33b 56b6 d8bb 50d2 f1bb
00000040: 863d 493b c617 9cba 7b83 493a 23b4 d9bb
00000050: 1765 e9bc f4bc 0cbc d514 0e3c 076b b3bb
00000060: db6f 1e3c 16c3 ee3a 349c 5f3c befc 2539
00000070: c40e 983b 9b21 cbbb c0c9 373c 22f6 e2ba
0.008212842 0.0030536011 -0.0047557442 -0.0027071408 0.0027752446 0.00709852 0.0026153827 0.009929534
0.0030179915 -0.011646969 -0.0013680825 0.013215689 -0.0021980456 0.0049781348 -0.006613533 -0.0073798075
0.0030706837 -0.001190894 0.00076871336 -0.0066437884 -0.028490586 -0.008589972 0.008671959 -0.005475405
0.009670223 0.0018216099 0.013648082 0.0001582978 0.004640432 -0.0061990744 0.011217535 -0.0017315785

W f4 [32, 32]
00000000: c1aa 0dbe 4dcf 68be cde7 56be 8875 16be
00000010: 5e07 20bd a110 31bb fbda c7bd 3e3c 833e
00000020: 2d9e 26be 8b4e 82bd f048 8fbe eb84 89bc
00000030: b362 8d3e 6ee0 463e c233 25be 229a fc3d
00000040: d946 7c3d edd1 8f3e 6dd6 9dbe 821e 71be
00000050: c6df 933e 6629 40be 71e3 49bd 2a55 8f3e
00000060: b786 3d3e 9418 37be bf68 58be be26 903d
00000070: 2728 34be fcad 36be 8075 b4bd 9eac bfbd
00000080: fb3a 23be be84 20be 8df8 533d f186 87be
00000090: 5a3d 1ebe 3df8 6dbe a8d4 213e 99d5 93bd
000000a0: 137b 66bd 6cfa 123c b973 03be 69ef 8fbd
000000b0: a811 7c3e 7516 c7bd e65b 34bd 9bd0 89be
000000c0: ea7e 653e cd91 07be c456 03be 4401 9bbe
000000d0: 60b1 063e d4de 153e 8173 87be 91f7 d2bd
000000e0: 9f44 9e3e f276 813e 959a 32be 57a8 0f3e
000000f0: 2544 99be cff9 d4bd 25f3 fbbd 7e54 90be
00000100: 1287 b4bd 3fc8 ce3d 7f29 e1bd 1a19 733e
00000110: 81b5 40be 06df 98bc f8c3 193e f3fc 683d
00000120: 922e 383e 4256 85be 41c9 9dbe feaf c5bd
00000130: e706 143d 9b23 373e add7 bbbd 182c 663e
00000140: de3b 83be 1909 f2ba c98f 3b3d 6259 03be
00000150: 8295 5e3e c602 8d3e adfb 72bd 5d31 6c3e
00000160: aaf6 bc3d 1bc0 3a3d 92a3 913e 65ec 5ebd
00000170: 5009 50be 0350 cdbd c0da 49bc b772 17be
00000180: 4252 eebd 4e68 91be 5d5c b4bd 7ada 8b3e
00000190: 3e78 a13e 3990 79be 3690 143d 588a 5fbe
000001a0: f7e7 11be 1d2e 22b9 14f5 9cbd d075 bdbd
000001b0: 4755 d6bd a76c 84be ea1b 8cbe 00f4 833e
000001c0: 45b6 763c 5a45 623e 20cf 1e3e 0390 62be
000001d0: fd7a 8abe 8c26 4c3a 94dd 123e 88de 843c
000001e0: 6e94 39be 7f3f da3d aba3 6bbe 5eb9 48bb
000001f0: d71d 9a3d e20b c8bd 1ef5 fc3d 829a e6bc
00000200: 1b65 453e 80f6 903e e7a8 223e 933a be3d
00000210: f8c8 c13c 8a0a f23c ffb7 1a3e 72b9 c0bc
00000220: e168 a7bd 7e9b 3b3d 344e 073e 166c 3c3e
00000230: 3ec1 8fbe 4dd4 87bb 2edc 3a3e d1cb 9fbe
00000240: ea8a a9bd a56a 78be 6162 80be 8c97 17be
00000250: 24c2 9abe 4351 9dbd 5b22 0bbe 7051 833e
00000260: f257 3e3e fa36 853e 21db 56be d301 5cbe
00000270: 2493 a13d cf39 603e 2487 66be e796 9a3d
00000280: 6acd 61be 8198 c93d cb0a 2c3e 53b0 cebd
00000290: 3ba6 8a3e 2c40 63be 101d f6bc 6478 2f3e
000002a0: 36ec 0ebe 84ff 5dbe a656 c5bd c8ce 9dbe
000002b0: 3db3 943e 5f7e 1bbe 977f a73d 188e 92be
000002c0: c564 fabd 815e 63be abf1 a5bd 2960 653e
000002d0: b808 6bbe 2fa8 653e 3ec0 59bc 9a00 7abe
000002e0: 4ab6 f03d 079f 2cbe dd75 cabc 3858 0f3e
000002f0: 5e78 7d3e 5d53 b33d c7a4 8cbe dd14 36be
00000300: e859 803d 599a e8bc bfad 8a3e b42b 67be
00000310: 1fa4 36be 3a24 07bd 7080 b23c 807c 4cbd
00000320: 8bf2 45bd f95d 2a3e f587 f13d 635c 28bd
00000330: 7985 743c 3843 9b3e 394d 193d 1d24 803c
00000340: 2607 8d3e 82f4 4b3e 468b 333e 215a 35be
00000350: 348f 703e c089 993e d493 913e a2d8 62be
00000360: 5285 5d3d 428e 913e 8b9f 36be cb49 82be
00000370: 4103 933e 9d80 50be d5c5 82be a2da 5fbc
00000380: a532 403e c868 02be 661d 673e 9c52 07bc
00000390: 02c7 9e3e 84ef 15bc 1e1a 9a3e 84e3 9fbd
000003a0: b4fb c5bd a86d 8a3e d068 433e cb2e 853d
000003b0: 6ddd 1fbe 7f74 7fbe 7aac 11be 76ae cdbd
000003c0: f6ac 7fbd 4779 153a 0bb2 8f3d f137 8a3d
000003d0: 6472 8dbe 46fc 963e 0337 84be 1051 413e
000003e0: 6741 ca3d 3081 6c3e 8699 e1bd 6cdd 06be
000003f0: da6a 27be 12b2 41be 92e9 5b3d 3c3f 483e
-0.13834669 -0.22735329 -0.20986862 -0.14693272 -0.039069526 -0.0027017968 -0.09758564 0.256319
-0.16271277 -0.06362637 -0.27985334 -0.016787013 0.27614364 0.1942155 -0.16133025 0.12334086
0.061591003 0.28089848 -0.30827656 -0.23546794 0.28881663 -0.18765792 -0.04928917 0.27994663
0.18508421 -0.1788047 -0.21133707 0.070386395 -0.17593442 -0.17839807 -0.08811474 -0.09359096
-0.15940468 -0.15675637 0.05175071 -0.2647014 -0.15453091 -0.23239227 0.15803778 -0.07218475
-0.056269716 0.008970838 -0.12837113 -0.07028086 0.2461611 -0.0972108 -0.044032954 -0.26916966
0.22411695 -0.13239212 -0.12826067 -0.30274403 0.131536 0.14635783 -0.2645531 -0.10301126
0.3091173 0.2528606 -0.17441781 0.1402906 -0.29934803 -0.1039921 -0.123022355 -0.28189462
-0.08814825 0.10096788 -0.10994243 0.23740044 -0.18819238 -0.018661033 0.15016162 0.056881856
0.17986515 -0.26042372 -0.30817607 -0.096527085 0.036139395 0.17884676 -0.09171996 0.22477758
-0.25631613 -0.0018465846 0.04579142 -0.12827066 0.2173672 0.27541178 -0.059322048 0.23065706
0.09226735 0.045593362 0.28445107 -0.054424662 -0.20316052 -0.10025027 -0.0123202205 -0.14789854
-0.11636783 -0.2839989 -0.088066794 0.27315122 0.3153705 -0.24371423 0.036270343 -0.21830118
-0.14248644 -0.00015466702 -0.076639324 -0.092509866 -0.10465484 -0.25864145 -0.27365047 0.25772095
0.015058105 0.22096768 0.155087 -0.22125249 -0.27046958 0.00077877264 0.14342338 0.016219392
-0.18123028 0.10656642 -0.23011653 -0.0030628066 0.07525223 -0.097678915 0.1235144 -0.028149847
0.1927685 0.28313065 0.15884744 0.09288516 0.0236554 0.029546041 0.15109251 -0.023525927
-0.08174301 0.045802586 0.13213426 0.18400607 -0.2807712 -0.0041451813 0.18248054 -0.31210187
-0.08278449 -0.24259432 -0.25075057 -0.14803904 -0.30226243 -0.07681515 -0.13587324 0.2564807
0.18588236 0.26018506 -0.20982029 -0.21485071 0.07889393 0.21897052 -0.2251249 0.075483136
-0.22051015 0.09843541 0.16800992 -0.10092225 0.2707995 -0.22192448 -0.030043155 0.17135769
-0.13957295 -0.21679503 -0.096356675 -0.30821824 0.29042998 -0.15184925 0.08178633 -0.28624034
-0.122262515 -0.22204019 -0.08102735 0.22399963 -0.22952545 0.22427438 -0.013290463 -0.24414292
0.11753519 -0.16857539 -0.024714405 0.13998497 0.24752948 0.08756135 -0.27469465 -0.17781396
0.06267148 -0.028393911 0.27085683 -0.22575265 -0.17836045 -0.032993533 0.02178976 -0.04992342
-0.04832701 0.1663741 0.1179351 -0.04110373 0.0149244005 0.3032472 0.03742716 0.01564222
0.27544516 0.19917491 0.17533597 -0.17710163 0.23492128 0.29987907 0.28433096 -0.22152951
0.054082222 0.28428847 -0.17834298 -0.25446925 0.2871342 -0.20361562 -0.2554156 -0.013662966
0.1876932 -0.12735283 0.22569808 -0.008259442 0.31011206 -0.009151343 0.3009805 -0.07807067
-0.09667149 0.27036786 0.19082952 0.06503066 -0.15611811 -0.24946783 -0.14225951 -0.100430414
-0.062420808 0.00057019707 0.07016381 0.06748951 -0.27626336 0.29489344 -0.2582322 0.18878579
0.09875756 0.23096156 -0.110156104 -0.13170403 -0.16349354 -0.18915585 0.053689547 0.19555372

b f4 [32]
00000000: f8d4 90bb d2a5 6c39 f10d eb39 2e72 36bc
00000010: db2d 183c 9b40 43b9 c034 503c d50e 47bb
00000020: ee85 293b be45 063c b0dc f2bb 5d20 44bc
00000030: c20e 623c 9e9d 113c 07b8 b83a 3e7a a1bc
00000040: 616f 34bc ca51 77bc 4221 4039 d3a9 d9bb
00000050: bd63 423c 1a5c 66ba 40b3 bbbb d18f 883c
00000060: ca64 a9bc 8bd0 0bbb 4c74 f23b a8d9 5bbc
00000070: a603 7e3b 1e19 873b 2d5d 7c3a 2e62 6d3b
-0.004419919 0.00022568487 0.0004483308 -0.011135621 0.009288277 -0.00018620717 0.012707889 -0.003037383
0.0025867182 0.008195339 -0.007411562 -0.011970607 0.013797464 0.0088876765 0.001409293 -0.01971161
-0.011012883 -0.015095184 0.00018322936 -0.006642559 0.0118646 -0.0008787528 -0.0057281554 0.01667014
-0.020677943 -0.0021334018 0.0073991176 -0.0134185925 0.00387595 0.0041228672 0.00096269214 0.003622185

W1 f4 [32, 128]
00000000: 9c2d 0bbe c233 b23d c044 07bd 9d5a ccbd
00000010: 75e4 1cbe 2e11 353e af24 12be ab43 373d
00000020: de3a fd3d e8ec 0f3d ee74 07bd 4236 e5bc
00000030: 90e2 c13d 30f7 153e a03e be3d 0176 983d
00000040: 4d33 1e3e 8c24 483e 1282 f1bc 5c25 16bd
00000050: d492 fdbc d5ba 09be 9491 c6bc 9544 af3d
00000060: 1f98 a73d f7d3 14be 9932 32be 51fb f53b
00000070: f8a9 b13d e791 2c3d c3cc 03be 0da6 64bd
00000080: e29b 08be 43a0 adbd bac0 403d 349d 133d
00000090: 84d5 b33d fab4 41be c530 0cbe 29a5 acbc
000000a0: 4b84 553d ec23 15be 2842 32bd c6d9 cabc
000000b0: 14c5 353d f5e5 14be 9829 1bbe 40ed 44be
000000c0: 4f57 cf3d bfed d03c 878c 1cbe 4df8 8bbc
000000d0: 93d5 45be 9d35 d63d 0234 84bd c6ea 35be
000000e0: 2e9e 11be 5c7a 0dbe 0fb3 0abe be09 f23d
000000f0: 436d 09be 6f66 21be 04a1 6dbd 9c59 3fbe
00000100: b301 d43d 5638 0fbe 0663 ac3c b1f8 153e
00000110: 98c6 24be 6f50 453e bcce 7fbc d894 d4bd
00000120: 8564 e9bd 3944 2fbe 3987 853d 2549 303e
00000130: 96b6 bebc 5cf2 a33d 8ff4 0e3e 007f 39be
00000140: 6202 f1bd 5ecd 9c3b 94c6 bf3d 7544 21bd
00000150: 1fc4 f8bc 6a79 d4bd 4369 23be 9980 c93d
00000160: 7ca7 b0bc f291 31be e4f3 ab3d ebe0 7dbd
00000170: 4faa d9bd b654 fa3d 9a47 a93c ea0f 01bc
00000180: bc29 0dbd 3b23 1b3e 62aa dd3d 7c66 40be
00000190: 4041 17be eea8 4b3d 6f02 40be 1bd0 38bc
000001a0: f5e9 9a3d 0aea d7bd ab93 2b3e 67b2 143e
000001b0: e8f2 1e3c 3917 10be 3f34 e13c 8d0c b2bd
000001c0: 4e60 34be 35e7 f6bd fab3 803d 2d8e abbc
000001d0: d511 133e 528a dd3c 76e2 18be 997b bc3d
000001e0: a037 e3bd 1900 fdbd 96a9 163e 425c 2bbd
000001f0: 0842 afbd 5583 a6bd 1b0f bb3d 4a29 9d3d
00000200: 7599 42bd b05e 0abe 7d67 b13d 6dc5 87bc
00000210: 3149 43be 132b f93d 605c 913d 7197 aebd
00000220: 8524 6bbc 8c19 6f3c 2cc7 2f3e b3c0 a4ba
00000230: 89ec 213e a21a 03be ef45 413c 4c27 f4b9
00000240: 266d 623d b232 92bd 8e76 c9bd 2ff7 dbbd
00000250: 483f 293d a9d1 453e f492 24be dde6 0ebe
00000260: ec80 a3bc 55a2 14bd 0740 dd3d a4ce 4c3e
00000270: 4951 aabd f53e c2bc c033 80bd 5ed2 e8bd
00000280: 9dfe f73d aa11 2a3e 1645 0bbe f363 893d
00000290: 2c6e 2d3e ce8e acbd 3d39 aa3d cdb9 1c3e
000002a0: 9019 6dbb 0372 aebd e75d 27be 9749 95bd
000002b0: 9bda c23d 03a9 16be 96e4 06be bc59 48be
000002c0: 1e33 ef3b 6baa 15be c1a2 3b3e 003d 0cbd
000002d0: ea45 7e3c 554b 00bd e389 0dbe 15cd 2e3d
000002e0: fb66 c2bd 8703 cdbc 025a 923c da5c 423e
000002f0: 04ab 1d3e 8011 6b3c 17ac 44bc 62d9 4dbb
00000300: e7c2 e4bd 73b0 f2bc cd8a 153e 3008 193e
00000310: 8ab2 96bd 28c3 2abd cdab 8f3d d3d6 e53d
00000320: 1dd0 89bc bfdd 88ba e7d6 a83b 230c 243e
00000330: 86fd 8d3d ae29 173e 8410 26be 080a 9d3d
00000340: 6149 2dbe 1d56 1c3d 5607 f33d 34bc c4bd
00000350: 0547 013e c244 703d 1a7b 98bd f27a f4bd
00000360: ccca c9bd 2d2e d2bd 9ca5 1dbe 48f3 213e
00000370: 4518 f53d 1928 09be 4dec a93c 606f 56bd
00000380: f27b 453e 6dda 0ebe 17bc 153e 04c6 e0bd
00000390: dca3 19be ec23 bcbc eb5e ea3d 5667 923d
000003a0: 81d7 7ebd c679 9ebd 44f5 d53d 4da0 fbbc
000003b0: 1703 a0bd da31 3dbe 20c9 87bd b216 e93d
000003c0: 69bb fd3d a4c0 8ebc 86c5 c7bd a295 b13d
000003d0: 698b 39be 2697 903d 8485 303e 3c8b f33d
000003e0: b82f f43d eb4c 5d3d 00f3 073e 91b3 92bd
000003f0: f815 043d dffb 79bc 504c 3a3e e355 753d
-0.13591617 0.08701278 -0.03302455 -0.099782206 -0.15321524 0.17682335 -0.14271806 0.044742268
0.12364744 0.03513804 -0.033070497 -0.027979974 0.094670415 0.14645076 0.092892885 0.074443825
0.15449257 0.19545192 -0.029480968 -0.036656722 -0.030953802 -0.13450177 -0.024239339 0.08558003
0.08183312 -0.14533983 -0.17402114 0.007506766 0.08674997 0.04213133 -0.12871079 -0.05582242
-0.13340715 -0.08477833 0.0470588 0.036038592 0.08780959 -0.18916693 -0.13690479 -0.021074848
0.052128118 -0.14564484 -0.043520123 -0.024762046 0.0443774 -0.14540847 -0.15152586 -0.19231129
0.10124075 0.025503991 -0.15287982 -0.017086172 -0.19319753 0.10459445 -0.06455232 -0.1776534
-0.14220497 -0.13816208 -0.13544868 0.118182644 -0.13420586 -0.15761732 -0.058014885 -0.18686527
0.103518866 -0.13986334 0.021043312 0.1464565 -0.16091383 0.19268964 -0.015613254 -0.10379952
-0.11396126 -0.17115869 0.06519932 0.17215402 -0.023280423 0.08005211 0.13960479 -0.18114853
-0.117680326 0.004785224 0.09364048 -0.039371926 -0.030366955 -0.103747204 -0.15958123 0.09838981
-0.021564238 -0.1734083 0.08396128 -0.061982077 -0.10628187 0.122231886 0.020664025 -0.007877329
-0.03446363 0.15150158 0.108235136 -0.18789095 -0.14770985 0.04972165 -0.18750928 -0.011280085
0.07564155 -0.10542686 0.1675555 0.1452118 0.009701468 -0.14071359 0.027490733 -0.086938
-0.17614862 -0.12055818 0.06284328 -0.020941818 0.14362271 0.027043495 -0.14930138 0.09203262
-0.11094594 -0.12353534 0.1471313 -0.04183603 -0.08557516 -0.08130518 0.091337405 0.07673891
-0.04750963 -0.13512683 0.08662317 -0.016573632 -0.19070889 0.12166419 0.07097697 -0.08524979
-0.014351969 0.014593493 0.17165822 -0.0012569636 0.15812887 -0.12803128 0.011796459 -0.00046568585
0.055279873 -0.071385756 -0.09837066 -0.10740506 0.041320115 0.1931826 -0.16071683 -0.13955255
-0.019958936 -0.036287624 0.10803228 0.20000702 -0.08316285 -0.02371166 -0.062598705 -0.11368249
0.121091105 0.16608301 -0.13600573 0.06708517 0.16936558 -0.08425675 0.083116986 0.15305252
-0.0036178567 -0.0851784 -0.16344415 -0.07289427 0.09514352 -0.1471291 -0.13173136 -0.19565481
0.007299795 -0.1461579 0.18323804 -0.03423786 0.0155195985 -0.031321842 -0.13822131 0.04267605
-0.09492298 -0.025026096 0.017865185 0.18980733 0.15397269 0.014347434 -0.01200392 -0.0031410088
-0.11169987 -0.029625153 0.1460373 0.1494453 -0.073582724 -0.04169002 0.0701519 0.11222615
-0.016822869 -0.0010442062 0.0051525715 0.16020255 0.069331214 0.14761993 -0.16217238 0.07667929
-0.16922523 0.03816806 0.118666336 -0.096062094 0.12624748 0.058659323 -0.07445355 -0.119375125
-0.098531336 -0.102627136 -0.15395206 0.1581546 0.1196752 -0.13394202 0.02074256 -0.05235231
0.19285563 -0.1395051 0.14622532 -0.109752685 -0.15003914 -0.022966348 0.114438854 0.07148616
-0.06221724 -0.0773807 0.10447171 -0.030716086 -0.07813089 -0.18476048 -0.066301584 0.11381282
0.12389261 -0.017425843 -0.097544715 0.08671118 -0.18119587 0.07060079 0.17238432 0.11891791
0.11923164 0.054028433 0.13276291 -0.07163156 0.032247514 -0.015257805 0.18193173 0.05989636

b1 f4 [128]
00000000: a42e 463c bde4 03bb 74c4 6f3b 847b 0fbc
00000010: e30f 45bc ed94 54bc 5b80 2a3c 46dc 8fbb
00000020: e4d1 e63b d1b4 463c 42ac 483c 698c 473b
00000030: 0eae d7bb 1e58 c8bb 8dbf b13b b4b5 bc3c
00000040: aca9 0abc d371 a1bb 1e99 fcba eb88 8a3c
00000050: 905b 70bb c026 01ba 9c7f 82bc 1f14 dd39
00000060: 6ad1 5bbc 7f33 ab3b c70b 3938 e787 dd3c
00000070: be7a 82bc eafd 643b 62cb 7b3b a204 9f3b
00000080: cdff 633b 8958 47bc b2b6 11bc 7328 50bc
00000090: 736f 73bc 97ae d1bb 6564 eebb 9a97 95bb
000000a0: 945c 95bb 91df a13b d7bc 90bc ee16 a739
000000b0: 795b 1e3c ae49 523b 3d32 c23b 0288 dd3b
000000c0: 1f07 0d3c 16ad 3fba aebe fcba bc5a bd3a
000000d0: b32c e83b 6b14 51ba 74c5 08bc 3a77 02bc
000000e0: 27c6 44bc 1dfa d0bb eb6d 4b3b 1ccf eebb
000000f0: 62e0 eeba 8a91 813b 9c31 753c 134d 81bc
00000100: 4745 6c3a ae86 ebbb 0b49 efbb c496 dcbc
00000110: d62e 0c3b b9dd baba c7f8 8a3c bb99 5eba
00000120: 17d9 22bc 248a 44bc 0d22 92bc 6617 afbb
00000130: 70de e1ba 79d8 dbbb 02cb c33b 7b83 c93a
00000140: 8e18 873b 3bb4 8fbc 0c7b c43b 41bb d1bb
00000150: 1e81 1e3c f5c6 ea3b 12f5 9539 4e6f 0ebc
00000160: 4556 16bc 7b25 57bb 441f ebbb 4ef4 a7bb
00000170: 0f96 28bc 71f8 c7bc f5b9 c7bb c4c3 b139
00000180: a7e5 d23a a560 fb3b e0d2 01bc a9ec db3b
00000190: b9f2 673b 02d0 3f3b 5a83 133c 06ba 363b
000001a0: 1721 8d3b 8722 1f3b 63e3 0cbc e22d 83bc
000001b0: e04d 73bb 21c2 1c3b 2540 c1ba 61d4 c9bb
000001c0: a467 0b3c f29d 22bc f30a c63b 2979 233c
000001d0: c41a 8abc 1a87 7dbc 49fa 4bbb f803 703a
000001e0: e5ec b03c cdc5 feba 9d52 4ebc 06e0 48bb
000001f0: 1d85 4b3c 6ac7 5e3b 9c82 eb3b b3ed bb3b
0.012096081 -0.0020125352 0.00365856 -0.008757476 -0.0120277135 -0.01297496 0.010406579 -0.0043902723
0.007044064 0.012128071 0.012248101 0.0030448681 -0.006582028 -0.00611402 0.005424446 0.023035862
-0.0084633045 -0.004926899 -0.0019271707 0.01691099 -0.003667567 -0.00049267337 -0.01592999 0.00042167396
-0.013416627 0.0052246447 4.4118406e-05 0.027042342 -0.015927669 0.0034941384 0.0038420786 0.004852847
0.003478992 -0.0121671045 -0.008893656 -0.012704956 -0.0148581145 -0.0063989866 -0.0072751516 -0.0045651915
-0.0045581553 0.0049399813 -0.01766817 0.00031869806 0.0096653635 0.0032087374 0.005926399 0.006760598
0.008607655 -0.00073118636 -0.0019282901 0.0014446597 0.0070854067 -0.000797576 -0.008347858 -0.007962996
-0.012010134 -0.006377472 0.0031040858 -0.007287873 -0.001822483 0.003954117 0.014965441 -0.015783822
0.00090130087 -0.007187686 -0.0073024086 -0.02692736 0.002139022 -0.0014256752 0.01696433 -0.00084915356
-0.009939454 -0.011995826 -0.017838502 -0.0053433655 -0.0017232429 -0.006709155 0.005975128 0.0015374267
0.0041228 -0.017541995 0.0059961136 -0.0064004962 0.009674339 0.007164831 0.00028602086 -0.008693529
-0.009175842 -0.0032828737 -0.007175358 -0.005125559 -0.010289683 -0.024410458 -0.006095166 0.00033905928
0.001609017 0.007671433 -0.007923812 0.0067115617 0.0035392477 0.002926827 0.009003485 0.0027881875
0.004306923 0.0024282055 -0.008599135 -0.01601309 -0.0037125275 0.002391942 -0.0014743848 -0.0061593507
0.008508597 -0.009925352 0.0060437857 0.009977617 -0.016858466 -0.015474105 -0.0031124523 0.0009155865
0.021597335 -0.0019437611 -0.012592939 -0.0030651106 0.012421873 0.0033993372 0.0071872007 0.005735123
