saved_models/model-epoch-36.pth (torch, 249162 bytes, 52 tensors)

embeddings f4 [99, 32]
0	0x3e59fa76	0.2128695
1	0xbe4da6d4	-0.20083171
2	0x3df0bed2	0.11755146
3	0x3d137ec7	0.036009576
4	0xbd69a0b0	-0.05703801
5	0xbdcf82a2	-0.10132338
6	0x3dae79f7	0.08519357
7	0xbe2f0c2d	-0.17094488
8	0xbdf86b98	-0.12129897
9	0x3dbb0781	0.09132291
10	0x3ca37f5c	0.01995819
11	0xbe3533c1	-0.17695524
12	0x3e1f3a5f	0.1554961
13	0xbe580964	-0.21097332
14	0xbc60a9d4	-0.013712365
15	0xbe179ee4	-0.14806706
16	0x3e4bdb4d	0.19907875
17	0xbda20b76	-0.07912342
18	0x3e29536b	0.16535728
19	0xbd3c9b2f	-0.046046432
20	0x3d096b9a	0.033549882
21	0x3e316e3f	0.17327212
22	0xbdad94e4	-0.08475664
23	0xbdab4a4f	-0.083637826
24	0xbe54d84a	-0.20785633
25	0xbd7bebe1	-0.06150425
26	0xbe288545	-0.16457088
27	0x3e017bab	0.12644832
28	0x3e251d2b	0.16124408
29	0x3e369296	0.17829356
30	0xbdbfdc12	-0.09368147
31	0x3e1f682e	0.15567085
32	0xbc5ac241	-0.013351978
33	0x3dc5ded9	0.096616454
34	0x3dda160e	0.10648738
35	0xbc4e0c30	-0.012576148
36	0x3da218f8	0.07914919
37	0x3e2cc538	0.16872108
38	0xbde9c5a2	-0.114146486
39	0xbe4a0551	-0.1972859
40	0x3da8afe6	0.08236675
41	0xbdb2cfff	-0.08731078
42	0x3c042386	0.00806511
43	0xbe3bcc8e	-0.1833975
44	0xbca43fdd	-0.020049984
45	0xbe06b56d	-0.13155146
46	0xbe2ca8ad	-0.1686122
47	0x3d690020	0.056884885
48	0x3e320359	0.1738409
49	0xbdf4f407	-0.11960607
50	0xbdcc2d0a	-0.09969528
51	0x3e0ebdb7	0.13939558
52	0xbe155714	-0.14583999
53	0xbdcb7063	-0.099335454
54	0x3e34ed4d	0.17668648
55	0x3debdd2c	0.115167946
56	0x3cfbc2bc	0.030732505
57	0x3dca05da	0.09864397
58	0xbda31139	-0.07962269
59	0x3e53331c	0.20624965
60	0xbe0ed776	-0.1394938
61	0xbd090233	-0.033449363
62	0xbd73798c	-0.059442088
63	0x3e4637dd	0.19357248
64	0xbe2b699c	-0.16739506
65	0xbd467800	-0.048454285
66	0xbe242ee7	-0.16033517
67	0x3e216895	0.15762551
68	0xbde85693	-0.11344638
69	0xbdae057d	-0.084971406
70	0xbe12902b	-0.14312808
71	0xbcbaa68e	-0.022784498
72	0xbe539a39	-0.206643
73	0xbdf233f4	-0.118263155
74	0x3d5897bf	0.05287909
75	0xbe5746ad	-0.21023054
76	0xbd6082ee	-0.054812364
77	0x3def3db5	0.116816916
78	0x3d0e8fe3	0.03480519
79	0x3d6eef9e	0.058333986
80	0xbdc18512	-0.09449209
81	0x3dd158df	0.10222029
82	0x3c72f95a	0.014829958
83	0xbdd9e65b	-0.1063964
84	0x3e49d164	0.19708782
85	0xbd60254d	-0.054723073
86	0x3d3dc4b7	0.04633018
87	0x3d2b9335	0.041888434
88	0x3cb03bbd	0.02151286
89	0xbe1787af	-0.14797853
90	0xbbb394f8	-0.005480405
91	0xbc20a638	-0.009805255
92	0xbde83590	-0.11338341
93	0xbd18a0b6	-0.03726264
94	0x3c8fb42d	0.01754197
95	0xbc3a6a4f	-0.011377885
96	0xbe58c88b	-0.21170251
97	0x3d1cb900	0.038262367
98	0xbe1341e4	-0.14380604
99	0x3e4d875b	0.20071165
100	0x3e19f9a9	0.15036644
101	0x3b9d5a5d	0.004802032
102	0x3ded8058	0.11596745
103	0x3d84782a	0.06468232
104	0x3d50c213	0.050966334
105	0xbdc3ccd8	-0.09560555
106	0x3b2cef91	0.002638791
107	0x3b4b759b	0.003104544
108	0x3e2a1269	0.16608585
109	0xbd67dc29	-0.056606445
110	0x3ccbfa66	0.024899673
111	0xbdcc5dff	-0.09978866
112	0xbda3f7c5	-0.08006243
113	0xbd5a91ba	-0.053361632
114	0x3dc15cf2	0.09441556
115	0x3dc8e1c7	0.098086886
116	0xbe4fdfc1	-0.20300199
117	0xbd819997	-0.06328123
118	0xbb15ac04	-0.0022838125
119	0x3ddc239e	0.10748981
120	0xbe1251d3	-0.14289026
121	0xbddb5c5f	-0.10710978
122	0x3e50ac4c	0.20378226
123	0xbe41ced3	-0.18926553
124	0x3c264806	0.010149008
125	0xbd89626d	-0.06708226
126	0xbe021720	-0.12704134
127	0xbe3fcd69	-0.18730702
128	0xbe4cc613	-0.19997434
129	0x3e1893c0	0.14900112
130	0x3d0a661b	0.03378878
131	0x3d442f0d	0.047896434
132	0x3d425b6f	0.04745048
133	0xbe17a2aa	-0.14808145
134	0xbe1bf430	-0.15229869
135	0x3ce1213f	0.027481673
136	0xbd57ea58	-0.052713722
137	0x3e1ee10c	0.15515536
138	0x3cabd4bf	0.020975469
139	0x3e1d6e04	0.15373999
140	0x3c46ddd1	0.012137846
141	0xbe3ff4e8	-0.18745768
142	0x3d142368	0.03616658
143	0xbe19bd29	-0.15013565
144	0x3e0e068f	0.1386969
145	0xbe0f20a8	-0.13977301
146	0xbe324f11	-0.17412974
147	0xbe2e7b51	-0.17039229
148	0xbe125f3d	-0.14294143
149	0x3e1c1a34	0.1524437
150	0x3b591372	0.0033123163
151	0xbe2e3b68	-0.17014849
152	0xbdac23ef	-0.08405291
153	0x3d714d0f	0.05891138
154	0x3e06eef4	0.13177091
155	0x3d2debc8	0.042461187
156	0x3e08868b	0.13332574
157	0xbd9de0e6	-0.077089116
158	0x3e5029e2	0.20328477
159	0x3d8fecad	0.07027564
160	0xbd996691	-0.07490266
161	0xbd37f09e	-0.044907205
162	0x3be3d781	0.0069531803
163	0xbe16a80b	-0.14712541
164	0xbe2b0d57	-0.16704307
165	0x3e2d731e	0.16938445
166	0xbdbbfdd5	-0.09179274
167	0x3e17eee8	0.14837229
168	0x3e38b967	0.18039475
169	0xbc6be95f	-0.014398902
170	0x3d277b22	0.040888913
171	0x3e36a6bb	0.1783704
172	0x3c02b77c	0.007978316
173	0x3e2d0ba8	0.16898978
174	0x3e3d3ef2	0.18481043
175	0x3ce82351	0.028337153
176	0x3d518f50	0.051162064
177	0x3de8b93c	0.11363456
178	0x3e2c6228	0.16834319
179	0x3e31b84f	0.17355464
180	0x3cb44b4f	0.022008566
181	0xbdf9be6e	-0.12194525
182	0x3e30b6eb	0.17257278
183	0x3dda625a	0.1066329
184	0xbd9ce74e	-0.07661305
185	0xbe4f7870	-0.20260787
186	0xbe03dab1	-0.12876393
187	0xbd17a927	-0.03702655
188	0x3e4cb561	0.19991066
189	0xbd7584b4	-0.05994101
190	0xbe42c442	-0.19020179
191	0x3e20f627	0.157189
192	0x3e3214fd	0.17390819
193	0x3c5c4af8	0.013445608
194	0xbe1eb6ed	-0.15499468
195	0xbd96abb5	-0.07356969
196	0xbe0d37dd	-0.13790841
197	0x3e3fb70f	0.18722175
198	0xbe308f9f	-0.17242287
199	0xbd6f56b8	-0.05843231
200	0xbe505d20	-0.20348024
201	0x3d056170	0.032563627
202	0xbc9e67b3	-0.019336557
203	0x3d979a62	0.07402493
204	0xbe4ebfeb	-0.20190398
205	0x3d28e8e1	0.041237716
206	0xbe4af551	-0.19820143
207	0x3e354a28	0.1770407
208	0xbc12ca50	-0.008959368
209	0xbe4465da	-0.19179478
210	0xbd520d94	-0.05128248
211	0x3e4ff92b	0.20309894
212	0xbd494648	-0.04913929
213	0xbe466e10	-0.19377923
214	0xbe373f1b	-0.17895167
215	0xbe25475b	-0.16140501
216	0xbd9c111b	-0.0762045
217	0xbdffaedc	-0.12484524
218	0xbe3185a4	-0.17336136
219	0x3cac738c	0.02105119
220	0xbe2db748	-0.16964447
221	0x3e3dcb4f	0.18534587
222	0x3dc2a5ab	0.09504255
223	0xbe06c927	-0.13162671
224	0x3cd4ed16	0.025991958
225	0xbc0e2ee3	-0.008678171
226	0xbe22cd92	-0.15898731
227	0x3e293e68	0.16527712
228	0xbdd5b75b	-0.10435363
229	0x3cf04745	0.029330859
230	0xbe0a9672	-0.13533953
231	0xbe31b36a	-0.17353597
232	0xbcad2d4f	-0.021139769
233	0x3e23c0fb	0.15991585
234	0xbdfd88a8	-0.12379581
235	0x3e570268	0.20997012
236	0xbbf4a44f	-0.007465876
237	0x3dd7cbb0	0.10536897
238	0x3df7f015	0.12106339
239	0x3dce2e01	0.10067368
240	0x3b02cf07	0.0019959824
241	0x3d0e25bd	0.03470396
242	0xbd843311	-0.06455053
243	0x3e27bd73	0.16380863
244	0x3e49b6bc	0.19698614
245	0xbe55eb6e	-0.2089059
246	0xbda27b6a	-0.079336956
247	0xbe2d41b1	-0.1691959
248	0x3c34cc5b	0.01103505
249	0xbe48ea26	-0.1962057
250	0xbdfe5884	-0.12419227
251	0x3e528b2d	0.20560904
252	0xbce1320c	-0.027489685
253	0xbcbf9b39	-0.023389446
254	0x3e144a7e	0.14481542
255	0x3cde89ea	0.027165372

_pos_embeds f4 [64, 32]
0	0x00000000	0.0
1	0x3f800000	1.0
2	0x00000000	0.0
3	0x3f800000	1.0
4	0x00000000	0.0
5	0x3f800000	1.0
6	0x00000000	0.0
7	0x3f800000	1.0
8	0x00000000	0.0
9	0x3f800000	1.0
10	0x00000000	0.0
11	0x3f800000	1.0
12	0x00000000	0.0
13	0x3f800000	1.0
14	0x00000000	0.0
15	0x3f800000	1.0
16	0x00000000	0.0
17	0x3f800000	1.0
18	0x00000000	0.0
19	0x3f800000	1.0
20	0x00000000	0.0
21	0x3f800000	1.0
22	0x00000000	0.0
23	0x3f800000	1.0
24	0x00000000	0.0
25	0x3f800000	1.0
26	0x00000000	0.0
27	0x3f800000	1.0
28	0x00000000	0.0
29	0x3f800000	1.0
30	0x00000000	0.0
31	0x3f800000	1.0
32	0x3f576aa4	0.84147096
33	0x3f0a5140	0.5403023
34	0x3f087dba	0.53316844
35	0x3f58940e	0.84600914
36	0x3e9f393e	0.3109836
37	0x3f734e6a	0.95041525
38	0x3e35233a	0.17689219
39	0x3f7bf683	0.9842302
40	0x3dcc7576	0.099833414
41	0x3f7eb898	0.9950042
42	0x3d6636b0	0.056204498
43	0x3f7f9868	0.9984193
44	0x3d01815c	0.031617507
45	0x3f7fdf3c	0.99950004
46	0x3c91ab42	0.017781857
47	0x3f7ff5a3	0.99984187
48	0x3c23d657	0.009999833
49	0x3f7ffcb9	0.99995
50	0x3bb8445c	0.0056233834
51	0x3f7ffef7	0.9999842
52	0x3b4f3e20	0.0031622723
53	0x3f7fffac	0.999995
54	0x3ae91520	0.0017782785
55	0x3f7fffe5	0.9999984
56	0x3a83126d	0.0009999998
57	0x3f7ffff8	0.9999995
58	0x3a136a16	0.0005623413
59	0x3f7ffffd	0.9999998
60	0x39a5cb5f	0.00031622776
61	0x3f7fffff	0.99999994
62	0x393a7753	0.00017782794
63	0x3f800000	1.0
64	0x3f68c7b7	0.9092974
65	0xbed51133	-0.41614684
66	0x3f66f20a	0.9021307
67	0x3edce8b2	0.43146282
68	0x3f17541b	0.5911271
69	0x3f4e7bec	0.8065784
70	0x3eb247f6	0.34820527
71	0x3f6ffaa5	0.9374183
72	0x3e4b6ff9	0.19866933
73	0x3f7ae5a5	0.9800666
74	0x3de5d988	0.112231314
75	0x3f7e61f3	0.9936821
76	0x3d8170c8	0.063203394
77	0x3f7f7cf9	0.9980007
78	0x3d11a55c	0.03555809
79	0x3f7fd68e	0.9993676
80	0x3ca3d43e	0.019998666
81	0x3f7ff2e5	0.9998
82	0x3c38439d	0.011246589
83	0x3f7ffbdb	0.99993676
84	0x3bcf3ddd	0.0063245133
85	0x3f7ffeb0	0.99998
86	0x3b691508	0.0035565514
87	0x3f7fff96	0.9999937
88	0x3b031269	0.0019999987
89	0x3f7fffde	0.999998
90	0x3a936a14	0.0011246824
91	0x3f7ffff5	0.99999934
92	0x3a25cb5f	0.0006324555
93	0x3f7ffffd	0.9999998
94	0x39ba7753	0.00035565588
95	0x3f7fffff	0.99999994
96	0x3e1081c3	0.14112
97	0xbf7d7026	-0.9899925
98	0x3f7e45d7	0.9932532
99	0xbded7fa8	-0.11596614
100	0x3f5009c2	0.8126489
101	0x3f152f57	0.5827536
102	0x3f022f6d	0.50853616
103	0x3f5c6d29	0.86104065
104	0x3e974e6d	0.29552022
105	0x3f7490ef	0.9553365
106	0x3e2beed8	0.1679033
107	0x3f7c5d9e	0.9858035
108	0x3dc1ffc1	0.09472609
109	0x3f7ed94f	0.99550337
110	0x3d5a694d	0.05332308
111	0x3f7fa2c3	0.9985773
112	0x3cf5b920	0.029995501
113	0x3f7fe283	0.99955004
114	0x3c8a31c7	0.016869439
115	0x3f7ff6ad	0.9998577
116	0x3c1b6e11	0.009486691
117	0x3f7ffd0d	0.999955
118	0x3baecfa8	0.005334813
119	0x3f7fff11	0.99998575
120	0x3b449b93	0.0029999956
121	0x3f7fffb5	0.9999955
122	0x3add1f1b	0.0016870232
123	0x3f7fffe8	0.99999857
124	0x3a78b10d	0.0009486832
125	0x3f7ffff8	0.9999995
126	0x3a0bd97e	0.0005334838
127	0x3f7ffffe	0.9999999
128	0xbf41bdcf	-0.7568025
129	0xbf275530	-0.6536436
130	0x3f4749ed	0.77847177
131	0xbf20af9d	-0.62767965
132	0x3f741dde	0.95358074
133	0x3e9a2eb1	0.30113748
134	0x3f271fbc	0.652828
135	0x3f41ebed	0.7575062
136	0x3ec761d7	0.38941833
137	0x3f6bcaa7	0.921061
138	0x3e6465c6	0.22304448
139	0x3f798d09	0.9748083
140	0x3e012e88	0.12615407
141	0x3f7df469	0.99201065
142	0x3d918dc8	0.07107121
143	0x3f7f5a47	0.9974713
144	0x3d23cbdb	0.039989334
145	0x3f7fcb94	0.9992001
146	0x3cb840a2	0.022491757
147	0x3f7fef6c	0.99974704
148	0x3c4f3ccd	0.012648773
149	0x3f7ffac2	0.99992
150	0x3be914a7	0.0071130577
151	0x3f7ffe58	0.9999747
152	0x3b831258	0.0039999895
153	0x3f7fff7a	0.999992
154	0x3b136a0e	0.0022493633
155	0x3f7fffd6	0.9999975
156	0x3aa5cb5c	0.0012649107
157	0x3f7ffff3	0.9999992
158	0x3a3a7752	0.0007113117
159	0x3f7ffffc	0.99999976
160	0xbf757c10	-0.9589243
161	0x3e913c2c	0.2836622
162	0x3ea5dad6	0.3239352
163	0xbf723240	-0.94607925
164	0x3f7ffc7f	0.99994653
165	0xbc2972d4	-0.010342319
166	0x3f46caab	0.77652997
167	0x3f214cf1	0.6300803
168	0x3ef57744	0.47942555
169	0x3f60a940	0.87758255
170	0x3e8e11ee	0.27748054
171	0x3f75f27c	0.96073127
172	0x3e213c1e	0.15745589
173	0x3f7cce81	0.987526
174	0x3db5db21	0.08879686
175	0x3f7efd1e	0.99604976
176	0x3d4cb6f5	0.04997917
177	0x3f7fae19	0.99875027
178	0x3ce64dfe	0.028113361
179	0x3f7fe619	0.99960476
180	0x3c818581	0.01581073
181	0x3f7ff7cf	0.999875
182	0x3c11acbb	0.00889128
183	0x3f7ffd69	0.9999605
184	0x3ba3d6de	0.0049999794
185	0x3f7fff2e	0.9999875
186	0x3b38448c	0.002811703
187	0x3f7fffbe	0.99999607
188	0x3acf3e31	0.0015811381
189	0x3f7fffeb	0.99999875
190	0x3a691526	0.0008891396
191	0x3f7ffff9	0.9999996
192	0xbe8f0f8c	-0.2794155
193	0x3f75cdb8	0.96017027
194	0xbe6be574	-0.23036748
195	0xbf791d53	-0.9731037
196	0x3f72784d	0.94714814
197	0xbea43f6f	-0.32079646
198	0x3f603089	0.8757406
199	0x3ef72f34	0.482782
200	0x3f108c69	0.5646425
201	0x3f534932	0.8253356
202	0x3ea97dfd	0.33103934
203	0x3f7190e2	0.943617
204	0x3e41206f	0.18860029
205	0x3f7b67e3	0.98205394
206	0x3dda19c1	0.106494434
207	0x3f7e8b51	0.9943133
208	0x3d759cd1	0.059964005
209	0x3f7f8a12	0.99820054
210	0x3d0a2cbf	0.03373408
211	0x3f7fdab3	0.99943084
212	0x3c9b6c46	0.018972527
213	0x3f7ff434	0.99982
214	0x3c2ecf04	0.010669474
215	0x3f7ffc45	0.9999431
216	0x3bc49b59	0.005999964
217	0x3f7ffed2	0.999982
218	0x3b5d1f06	0.0033740415
219	0x3f7fffa1	0.99999434
220	0x3af8b105	0.0018973654
221	0x3f7fffe2	0.9999982
222	0x3a8bd97d	0.0010669675
223	0x3f7ffff6	0.9999994
224	0x3f283046	0.6569866
225	0x3f40ffbd	0.75390226
226	0xbf36b66e	-0.71372116
227	0xbf334f60	-0.7004299
228	0x3f4ce86f	0.80042166
229	0xbf1974bb	-0.5994374
230	0x3f728444	0.9473307
231	0x3ea3f8b9	0.32025698
232	0x3f24eb73	0.64421767
233	0x3f43ccb3	0.7648422
234	0x3ec460df	0.38355157
235	0x3f6c6bc5	0.92351943
236	0x3e60d350	0.2195561
237	0x3f79c0ea	0.9755999
238	0x3dfe46ba	0.12415834
239	0x3f7e04e9	0.9922624
240	0x3d8f3e32	0.06994285
241	0x3f7f5f81	0.997551
242	0x3d213160	0.03935373
243	0x3f7fcd3b	0.9992253
244	0x3cb552a6	0.022134136
245	0x3f7feff2	0.999755
246	0x3c4bf12a	0.012447635
247	0x3f7ffaec	0.9999225
248	0x3be55fc7	0.006999943
249	0x3f7ffe65	0.9999755
250	0x3b80fcbe	0.003936379
251	0x3f7fff7e	0.99999225
252	0x3b1111ec	0.0022135926
253	0x3f7fffd7	0.99999756
254	0x3aa32866	0.0012447953
255	0x3f7ffff3	0.9999992

W f4 [32, 32]
0	0x3e25d781	0.1619549
1	0xbf20bcdf	-0.62788194
2	0x3e6af431	0.22944714
3	0x3cb4addb	0.022055557
4	0xbe737b9d	-0.23777623
5	0xbe23898d	-0.1597044
6	0x3ed1cb53	0.40975437
7	0xbe822c1f	-0.25424287
8	0xbee77486	-0.45206088
9	0xbe96e4b6	-0.29471368
10	0x3ea90864	0.33014214
11	0xbdeea740	-0.11652994
12	0x3ef94848	0.4868796
13	0x3e9826b7	0.29717037
14	0x3ebcec7c	0.36899173
15	0x3f052442	0.5200845
16	0x3e54a566	0.2076622
17	0x3f05c782	0.5225755
18	0x3f1334fd	0.5750273
19	0x3efa6112	0.48902184
20	0x3e859e3d	0.2609729
21	0x3f46fe12	0.7773143
22	0x3f08fdb1	0.535121
23	0x3ea79b46	0.32735652
24	0x3edd121e	0.43177885
25	0x3f3b9244	0.7327006
26	0x3ed8d9c3	0.4235364
27	0x3f0bec49	0.5465742
28	0x3e94f730	0.2909484
29	0x3ef0bf39	0.4702089
30	0x3ee0169b	0.43767247
31	0x3f421b0e	0.7582253
32	0x3e82200c	0.25415075
33	0xbdd22995	-0.102618374
34	0xbeb56f42	-0.35436445
35	0x3e8022ae	0.25026459
36	0xbf151656	-0.58237207
37	0xbdf85d4a	-0.121271685
38	0x3ef6d1a4	0.48206818
39	0x3f1d9a86	0.6156391
40	0x3f14cd5b	0.5812585
41	0xbf31fdc7	-0.6952786
42	0xbece52c5	-0.40297523
43	0x3eb3a782	0.35088736
44	0xbe83e7d9	-0.25762823
45	0x3d906cd1	0.07052005
46	0xbf31281b	-0.6920182
47	0xbf2c41ff	-0.672882
48	0xbea60689	-0.3242686
49	0xbf11c5be	-0.56942356
50	0xbe7e5f55	-0.24841054
51	0xbe903f29	-0.28173187
52	0xbf2a380b	-0.66491765
53	0xbf346645	-0.7046855
54	0xbf1569f3	-0.5836479
55	0xbf121d72	-0.5707618
56	0xbf064bb4	-0.52459264
57	0xbf280dd5	-0.65646106
58	0xbeb7714b	-0.35828623
59	0xbf1fdb38	-0.62443876
60	0xbee23585	-0.44181457
61	0xbf1b808a	-0.6074301
62	0xbf4b18fb	-0.7933499
63	0xbf30368b	-0.68833226
64	0xbc72cb4f	-0.01481898
65	0x3f2155cd	0.63021547
66	0xbf02c4e0	-0.5108166
67	0xbeb258af	-0.34833285
68	0x3f3fdb1d	0.74943715
69	0x3f300275	0.6875375
70	0xbf126d6e	-0.57198226
71	0xbe9d159a	-0.30680543
72	0x3db624ec	0.08893761
73	0x3e00f820	0.12594652
74	0x3d89c4de	0.067270026
75	0xbf124145	-0.57130843
76	0x3ee36a72	0.4441715
77	0xbecc295b	-0.39875302
78	0x3efa4bee	0.48886055
79	0x3e68f20e	0.22748587
80	0x3e5f6fc8	0.21819985
81	0x3e30d65e	0.17269275
82	0x3e16b1c7	0.14716254
83	0x3ed4210a	0.41431457
84	0x3f30f729	0.69127136
85	0x3f1ef965	0.62099296
86	0x3eeba78a	0.4602626
87	0x3e86ca2c	0.2632612
88	0x3e0ef580	0.13960838
89	0x3ec214dc	0.3790654
90	0x3e8c90ce	0.27454227
91	0x3e8e59db	0.2780293
92	0x3e036256	0.12830481
93	0x3f368939	0.71303135
94	0x3e44deb4	0.1922558
95	0x3ecb282f	0.39679095
96	0x3e1ccff7	0.15313707
97	0x3ec733b6	0.3890664
98	0x3f00429a	0.50101626
99	0x3e6964fc	0.22792429
100	0x3ea2044a	0.31643897
101	0x3c1ffcf8	0.009764902
102	0x3ec10c6e	0.37704796
103	0xbef05fa2	-0.46947962
104	0x3e7ff69d	0.24996419
105	0xbda78f37	-0.08181613
106	0xbf42e395	-0.7612851
107	0x3e898e24	0.26866257
108	0xbe1bb4c6	-0.15205678
109	0xbc732b6c	-0.014841896
110	0xbd825959	-0.06364698
111	0xbe830a81	-0.2559395
112	0x3dbeae33	0.093105696
113	0x3dba7609	0.09104545
114	0xbec5e7ec	-0.38653505
115	0xbe08753b	-0.1332597
116	0x3e036a45	0.12833507
117	0xbeee1a34	-0.46504366
118	0xbece51fb	-0.4029692
119	0xbe02cdf6	-0.1277388
120	0xbe2914c0	-0.16511822
121	0xbe4f89d6	-0.20267424
122	0xbed53ce2	-0.41648012
123	0xbe70c2dc	-0.23511833
124	0x3df48639	0.119396634
125	0xbe76d5b9	-0.24104966
126	0x3c6ce467	0.014458752
127	0xbe2a6ec1	-0.16643812
128	0xbe89f906	-0.26947802
129	0x3da6032e	0.08106075
130	0xbeaea723	-0.3411189
131	0xbce4dadf	-0.027936397
132	0xbe08a030	-0.13342357
133	0x3eda4f0e	0.4263844
134	0xbf190db1	-0.59786516
135	0xbe449b93	-0.19199972
136	0x3a3eba15	0.0007275653
137	0x3eede40f	0.46463057
138	0xbf1e0472	-0.61725533
139	0xbe7de0df	-0.24792813
140	0x3ec428e9	0.38312462
141	0xbefed3cf	-0.49770972
142	0x3e43faa8	0.19138587
143	0xba097030	-0.00052428525
144	0x3da6eabe	0.08150242
145	0xbdc7f2b2	-0.09763087
146	0x3ea4c47f	0.32181165
147	0x3e47b0ad	0.1950099
148	0x3eba22ff	0.36354825
149	0x3d1b4970	0.037911832
150	0x3e637c7d	0.22215457
151	0x3e924ffe	0.28576654
152	0x3ca3c3a6	0.019990753
153	0x3ea41ef9	0.3205488
154	0xbe0663a0	-0.13123941
155	0x3e1c5602	0.15267184
156	0xbc8d12c5	-0.017220864
157	0xbdaf865d	-0.0857055
158	0x3ea32237	0.3186204
159	0x3ec5d731	0.3864074
160	0xbe667dd7	-0.22508942
161	0xbe1aae62	-0.15105584
162	0xbee420da	-0.44556314
163	0x39b841ec	0.0003514433
164	0xbf11aa50	-0.569005
165	0x3e723970	0.23654723
166	0xbefebc3c	-0.49752986
167	0x3eb37480	0.3504982
168	0x3d929d26	0.0715888
169	0x3eb65d40	0.3561802
170	0xbec1b51e	-0.37833494
171	0x3e750a0d	0.23929615
172	0xbf13f788	-0.5779958
173	0xbf14d8f5	-0.5814355
174	0xbe5c2316	-0.21497759
175	0xbef7de37	-0.48411724
176	0xbf42b551	-0.76057917
177	0xbefcd879	-0.49383906
178	0xbf1b760c	-0.60727
179	0xbe44029b	-0.19141619
180	0xbecac211	-0.39601186
181	0xbf1c0edc	-0.60960174
182	0xbf1f0796	-0.6212095
183	0xbf058aa6	-0.52164686
184	0xbf2c21ff	-0.67239374
185	0xbed47bfc	-0.41500843
186	0xbefdb32b	-0.49550757
187	0xbe824abc	-0.25447643
188	0xbf4556d1	-0.77085596
189	0xbee6aead	-0.45055142
190	0xbf162b06	-0.586594
191	0xbf00d8f2	-0.5033103
192	0x3ed3ef4c	0.41393507
193	0xbe193b40	-0.14964008
194	0x3d0750da	0.03303609
195	0x3f25e6cb	0.6480529
196	0x3e618bff	0.2202606
197	0x3e554ade	0.20829341
198	0x3e3f6305	0.18690117
199	0x3ea8d634	0.32975924
200	0xbecd0be7	-0.40048143
201	0xbe7b7931	-0.2455795
202	0x3e232592	0.159323
203	0x3e226f63	0.15862803
204	0x3d04eb2b	0.032450836
205	0x3e304f33	0.17217712
206	0x3d924120	0.07141328
207	0x3dc7bb2f	0.09752499
208	0x3df81ea7	0.121152215
209	0x3d9cb494	0.0765163
210	0xbe8d10bb	-0.27551827
211	0xbbc30d26	-0.005952495
212	0xbed795fb	-0.42106614
213	0xbe5f1bd3	-0.21787958
214	0xbe49afe4	-0.19696003
215	0x3df12f55	0.11776606
216	0xbe97b73a	-0.29631978
217	0xbef279e9	-0.47358635
218	0xbe6b766b	-0.22994392
219	0xbec01a12	-0.3751989
220	0x3e014ef4	0.12627774
221	0x3d900cdc	0.07033703
222	0xbe165164	-0.14679486
223	0xbe56ef9d	-0.20989843
224	0xbe8b9b02	-0.272667
225	0xbe984efd	-0.29747763
226	0x3db77496	0.08957784
227	0xbe908ece	-0.2823395
228	0xbebff04d	-0.37488022
229	0xbe38b4b7	-0.18037687
230	0xbe5962d2	-0.21229103
231	0xbf041f7c	-0.5161054
232	0x3e9a3602	0.3011933
233	0x3e831aba	0.25606328
234	0xbe459f85	-0.19299133
235	0xbe739618	-0.23787725
236	0xbe2651a9	-0.16242088
237	0x3eb8ea39	0.36116198
238	0xbd918f0d	-0.07107363
239	0x3ea49dc7	0.32151625
240	0x3e6f2da1	0.2335725
241	0xbbae0234	-0.005310321
242	0xbe36983e	-0.17831513
243	0xbd23306b	-0.039841097
244	0x3b8165d7	0.003948908
245	0x3e0389f4	0.12845594
246	0x3e53846f	0.20655988
247	0xbe4ad06b	-0.19806068
248	0x3e460715	0.19338639
249	0x3de61794	0.11234966
250	0xbdcc68ef	-0.09980952
251	0x3e0df0da	0.13861409
252	0xbb530778	-0.0032200497
253	0x3ec24f1d	0.37950984
254	0xbe0ff552	-0.14058426
255	0x3e221863	0.15829615

b f4 [32]
0	0x3f04d3a5	0.51885444
1	0xbf015c21	-0.505312
2	0x3ee3224b	0.443621
3	0xbe20e04e	-0.15710565
4	0x3dd46065	0.10369948
5	0xbeca6737	-0.39531872
6	0xbe3310b4	-0.1748684
7	0x3de4cc13	0.111717366
8	0xbe52f9f6	-0.20603165
9	0x3dd321dd	0.10309193
10	0xbe550d92	-0.20805958
11	0x3ebc44b2	0.3677116
12	0xbebe9712	-0.37224633
13	0xbe6cb76d	-0.23116846
14	0xbe38ec9c	-0.1805901
15	0xbeb99eb9	-0.36253908
16	0xbeab3328	-0.33437467
17	0x3e6ccc40	0.2312479
18	0xbe57d80b	-0.21078508
19	0xbc8b98e0	-0.01704067
20	0xbeb79fc3	-0.35864076
21	0xbeb036f5	-0.3441693
22	0xbe55da21	-0.20883991
23	0xbeb921b3	-0.36158523
24	0x3e6521e3	0.22376208
25	0xbda402f1	-0.080083735
26	0x3e85c631	0.2612777
27	0x3ea6a40a	0.32547027
28	0xbecdd394	-0.40200484
29	0x3e54f705	0.20797355
30	0xbe381f47	-0.17980681
31	0x3e4149ff	0.18875884

W f4 [32, 32]
0	0x3d15116c	0.036393568
1	0xbf14bcd7	-0.58100647
2	0x3d87456f	0.0660504
3	0x3decb8b3	0.11558666
4	0x3e8ab420	0.2709055
5	0x3f436313	0.7632305
6	0xbec4e0fc	-0.384529
7	0xbec0dd6a	-0.37668926
8	0xbeadd42d	-0.3395094
9	0x3e628f07	0.22124873
10	0x3d97210d	0.07379351
11	0xbe960b5a	-0.29305536
12	0x3e8178af	0.25287387
13	0xbd08d8cf	-0.03340989
14	0x3ee45861	0.44598678
15	0x3e882fa8	0.2659886
16	0x3d82b3a8	0.06381923
17	0xbc989907	-0.018627657
18	0x3eed978e	0.4640469
19	0x3ec60199	0.38673094
20	0x3e651077	0.22369562
21	0x3e1903a5	0.14942797
22	0x3d91dc30	0.071220756
23	0x3e873f62	0.26415545
24	0x3eef9440	0.46792793
25	0x3e64533b	0.22297375
26	0x3da55524	0.0807288
27	0x3e6d97a5	0.23202379
28	0x3e9b6e1a	0.30357438
29	0x3edad09d	0.42737284
30	0x3e8935e9	0.26798943
31	0x3e8e4f8c	0.27795064
32	0x3d7d79ef	0.061883863
33	0x3e103602	0.14083102
34	0x3baa256d	0.00519245
35	0xbbabcafb	-0.005242703
36	0xbaeb7d70	-0.001796646
37	0x3e6e1456	0.23249945
38	0xbf33808a	-0.7011801
39	0x3d7e84cd	0.062138367
40	0x3e942438	0.28933883
41	0x3f1356b4	0.57554173
42	0xbe027fef	-0.12744115
43	0xbddd0871	-0.10792626
44	0xbec02230	-0.37526083
45	0xbf15d84f	-0.58533186
46	0xbebcfbab	-0.36910757
47	0xbf1a607e	-0.60303485
48	0x3d85d27d	0.06534288
49	0xbdf1436d	-0.117804386
50	0x3e3baf0a	0.18328491
51	0x3d976227	0.07391768
52	0xbe01840c	-0.12648028
53	0x3cdd0705	0.026980886
54	0xbd2bfa34	-0.04198666
55	0xbee95f75	-0.4558064
56	0xbe78bf04	-0.24291617
57	0xbe685568	-0.2268883
58	0x3e24e2ae	0.16102096
59	0xbe6392f0	-0.22224021
60	0xbe35bfd4	-0.17748958
61	0xbeea77d8	-0.4579456
62	0x3db95678	0.09049696
63	0xbebbaa01	-0.3665314
64	0xbe375c37	-0.17906271
65	0x3f04f1d4	0.519315
66	0xbdd2991f	-0.10283112
67	0x3ef9f174	0.48817027
68	0x3e6a4a94	0.22880012
69	0x3f14f8b3	0.58191985
70	0x3ce964c4	0.028490432
71	0xbdddff3e	-0.10839699
72	0x3f072316	0.5278791
73	0xbf059989	-0.521874
74	0x3f059db0	0.5219374
75	0x3d9bec80	0.07613468
76	0x3dd4f2f1	0.103979
77	0x3f033b69	0.5126253
78	0x3e9ed1ac	0.31019342
79	0x3f00048e	0.5000695
80	0x3eed9fea	0.46411067
81	0x3f0607c1	0.5235558
82	0x3ec6c06c	0.3881868
83	0x3e2eb105	0.17059715
84	0x3ef39ecc	0.4758209
85	0x3de24bdc	0.11049625
86	0x3e726ef6	0.2367514
87	0x3ec4134f	0.3829598
88	0x3dbb7ffa	0.09155269
89	0x3ee99483	0.45621118
90	0x3e9dbf3c	0.30809963
91	0x3e3c54d5	0.18391736
92	0x3e0ac46b	0.1355149
93	0x3e82bca3	0.25534543
94	0x3efc53fe	0.4928283
95	0x3f186740	0.59532547
96	0x3e24295a	0.160314
97	0xbe62e4e1	-0.22157623
98	0xbd5fcb94	-0.054637507
99	0x3deae127	0.11468726
100	0x3f11c776	0.5694498
101	0xbf05e219	-0.5229812
102	0x3f1bb1f2	0.608184
103	0xbea20dfd	-0.31651297
104	0xbeb36a7a	-0.35042173
105	0xbeb734ca	-0.35782462
106	0x3e978e39	0.29600695
107	0x3e810fc9	0.25207356
108	0x3f3f4237	0.7471041
109	0x3edc29f9	0.43000773
110	0x3e017242	0.12641242
111	0x3eef2b97	0.46712944
112	0xbe7cd7f6	-0.24691758
113	0x3f0c1b12	0.54728806
114	0x3e0327be	0.12808129
115	0x3ea8889e	0.3291673
116	0x3d4ae5fe	0.049535744
117	0x3e86776a	0.2626298
118	0xbe980864	-0.29693902
119	0x3f3fed86	0.74971807
120	0xbea60939	-0.3242891
121	0x3efe876b	0.4971269
122	0xbdfd26c4	-0.123609096
123	0x3e712b31	0.23551632
124	0xbeb18545	-0.3467199
125	0x3ee8e5d5	0.45487848
126	0x3dc170d2	0.09445347
127	0x3e920b5a	0.28524286
128	0xbef42900	-0.4768753
129	0x3dcdb44b	0.10044154
130	0x3f2ed137	0.68287987
131	0x3f4aac7a	0.7916943
132	0xbf3334ea	-0.70002615
133	0x3f3affda	0.7304665
134	0xbeca236a	-0.39480144
135	0x3ef44133	0.47705993
136	0x3f4f9cfb	0.8109891
137	0xbef2df55	-0.47436014
138	0xbf33e5d4	-0.70272565
139	0x3f18f584	0.5974963
140	0xbe9370c6	-0.28796977
141	0xbe9d83a8	-0.30764508
142	0xbf0120c6	-0.50440633
143	0xbf6811b0	-0.9065199
144	0xbeb52ef4	-0.35387385
145	0xbf087e64	-0.53317857
146	0xbf000c8a	-0.50019133
147	0xbee65dad	-0.44993344
148	0xbf13e0c6	-0.5776485
149	0xbeb57004	-0.35437024
150	0xbf18134d	-0.5940445
151	0xbf16e1e7	-0.5893845
152	0xbf534d75	-0.82540065
153	0xbebf123d	-0.37318602
154	0xbf32808d	-0.697274
155	0xbf150579	-0.58211476
156	0xbf52f925	-0.82411414
157	0xbf0d2054	-0.55127454
158	0xbf03f819	-0.5155044
159	0xbe981258	-0.29701495
160	0xbef88f50	-0.4854684
161	0x3c4ef4e0	0.012631625
162	0x3e5a86e5	0.2134052
163	0xbe9a31c7	-0.30116102
164	0xbed417de	-0.4142446
165	0x3d179afb	0.037013035
166	0xbe051494	-0.12996131
167	0x3beea28f	0.007282562
168	0x3d52eb90	0.05149418
169	0xbcc7e261	-0.024399938
170	0xbd7abb8d	-0.06121402
171	0x3ebb2c4b	0.3655723
172	0xbd48bb7d	-0.049006928
173	0xbe94d01c	-0.29065025
174	0x3c70f28d	0.014706266
175	0xbe4e37e7	-0.20138513
176	0x3ba65ea0	0.005077198
177	0xbec58836	-0.38580483
178	0x3c3119f4	0.01080941
179	0xbde39e0f	-0.11114132
180	0xbef4aa33	-0.47786102
181	0x3d2c97e8	0.042137057
182	0xbe1cd1be	-0.15314385
183	0xbda57b8a	-0.08080204
184	0xbe6a37ea	-0.22872892
185	0xbef0c619	-0.47026137
186	0xbe2533cb	-0.16133039
187	0xbefce8ca	-0.49396354
188	0xbd6e0419	-0.058109377
189	0xbdd9121f	-0.105991594
190	0xbef9a1ee	-0.48756355
191	0xbe5614f0	-0.20906425
192	0xbea36aab	-0.3191732
193	0xbf2d4d66	-0.67696226
194	0x3d5a85e8	0.05335036
195	0x3f5d2c08	0.8639531
196	0xbd9921f1	-0.07477177
197	0x3e15ffce	0.14648363
198	0xbe1af80f	-0.1513369
199	0xbeab9156	-0.3350932
200	0x3efc1e1f	0.4924173
201	0x3ecf48b0	0.40485144
202	0xbed83b75	-0.42232862
203	0xbda4767a	-0.0803041
204	0x3deeb37f	0.1165533
205	0xbe9cff76	-0.3066365
206	0x3b9e8da6	0.004838663
207	0xbde3ed17	-0.11129206
208	0x3e95b0a3	0.29236326
209	0x3dcca136	0.09991686
210	0xbe5de79c	-0.21670383
211	0x3e237bb7	0.15965162
212	0x3da84e50	0.08218062
213	0xbe8cd98b	-0.27509722
214	0x3dfefdfa	0.12450786
215	0xbe0a4d38	-0.13506019
216	0x3e4c43ee	0.19947788
217	0x3cbf94ee	0.023386445
218	0x3e02e898	0.1278404
219	0x3da8efae	0.0824884
220	0x3e8fe37c	0.28103244
221	0x3df81c65	0.12114791
222	0xbe3b0bdf	-0.18266247
223	0xbd972ca8	-0.073815644
224	0x3e0869d8	0.13321626
225	0x3e2c3c8d	0.16819973
226	0x3d8a36b3	0.06748714
227	0x3ed43a7c	0.4145087
228	0xbdb4071f	-0.08790421
229	0xbe658baf	-0.22416566
230	0x3df703da	0.120612815
231	0x3f00bbf3	0.5028679
232	0xbf1847ce	-0.59484565
233	0xbe1b4be8	-0.15165675
234	0xbdd1d295	-0.102452435
235	0xbf07ed94	-0.5309689
236	0xbdd97837	-0.10618632
237	0xbeff038f	-0.49807402
238	0x3e462349	0.19349398
239	0x3dbac52e	0.0911964
240	0xbc755ccc	-0.014975738
241	0xbe9b1843	-0.30291948
242	0x3e915d4e	0.28391498
243	0x3e1ecfc7	0.15508948
244	0xbe190971	-0.14945008
245	0xbc8b059a	-0.016970444
246	0x3eb7d10b	0.35901675
247	0x3de7cfcc	0.11318931
248	0xbc93b10d	-0.01802876
249	0xbd76f499	-0.06029186
250	0x3d43ec50	0.047832787
251	0xbe0f651a	-0.14003411
252	0x3eb8e830	0.36114645
253	0xbd8a6846	-0.0675817
254	0xbe36906a	-0.17828527
255	0x3cf02285	0.029313335

b f4 [32]
0	0x3e943349	0.28945377
1	0xbe49ea26	-0.19718227
2	0x3eac4c5a	0.33652002
3	0x3ee3d14a	0.44495612
4	0xbf199e9e	-0.60007656
5	0xbe64457e	-0.22292134
6	0x3c5ade07	0.0133585995
7	0xbd8edc19	-0.06975574
8	0x3eb7447a	0.3579443
9	0x3e07abfc	0.132492
10	0xbe5ddfa1	-0.21667339
11	0xbeb368a6	-0.35040778
12	0x3ed74cc9	0.4205077
13	0x3e2ea9ad	0.17056914
14	0x3e8c0f48	0.2735541
15	0xbe5c5878	-0.21518123
16	0xbec12844	-0.37726033
17	0xbe542a5f	-0.20719288
18	0xbeafc71b	-0.34331593
19	0x3e63894c	0.22220343
20	0x3e33d9b1	0.17563511
21	0xbea54977	-0.32282612
22	0xbeb74916	-0.35797948
23	0x3ed28dff	0.4112396
24	0xbe9726e6	-0.29521865
25	0x3e78f3e5	0.24311788
26	0x3eb62e83	0.3558236
27	0x3ef66fbd	0.48132125
28	0xbe1d62e7	-0.1536976
29	0xbde1605b	-0.110047065
30	0xbe73f07b	-0.23822205
31	0x3eaac6dd	0.33354846

W f4 [32, 32]
0	0x3f266c12	0.6500865
1	0xbf2af88b	-0.66785496
2	0xb8c8d998	-9.577273e-05
3	0x3ecef2eb	0.40419707
4	0xbd8943fc	-0.0670242
5	0xbea1d2e3	-0.31606206
6	0x3f167f43	0.58787936
7	0xbee594e8	-0.4484017
8	0x3f086ea7	0.5329384
9	0xbecebec4	-0.40379918
10	0x3f2604c5	0.6485103
11	0x3de21a27	0.110401444
12	0xbdf13aea	-0.11778815
13	0x3e21b869	0.15793003
14	0xbe982e08	-0.2972262
15	0xbe9f0d19	-0.3106468
16	0xbe1ccb4f	-0.15311931
17	0xbecc0e12	-0.39854485
18	0xbe6d9f41	-0.23205282
19	0xbe558a63	-0.20853572
20	0xbf2e7017	-0.68139786
21	0xbc7deb69	-0.015498021
22	0xbe47b3f1	-0.19502236
23	0xbe405883	-0.18783765
24	0xbf099f0b	-0.53758305
25	0xbee9fc3e	-0.45700258
26	0xbe65431e	-0.22388884
27	0xbe9b3cf4	-0.3031994
28	0xbe02bebd	-0.12768073
29	0xbf1163ce	-0.56792915
30	0xbe6f8236	-0.23389515
31	0xbe80bd72	-0.25144535
32	0xbe6f04dd	-0.23341699
33	0xbebd47cd	-0.36968842
34	0xbe32e0e6	-0.17468604
35	0x3e590741	0.21194173
36	0xbec72018	-0.38891673
37	0x3ca069cf	0.019581703
38	0xbec3933d	-0.3819827
39	0x3df731ed	0.120700695
40	0x3e9ded65	0.3084518
41	0xbd6ded54	-0.05808766
42	0x3ea8b01c	0.3294686
43	0x3ecde4f4	0.4021374
44	0x3c1e2e2e	0.009654565
45	0x3ddf519f	0.1090424
46	0x3d520dea	0.0512828
47	0xbdca155e	-0.09867357
48	0xbda4bfd1	-0.080443986
49	0xbe14e455	-0.14540227
50	0x3e835194	0.25648177
51	0xbde44887	-0.11146646
52	0x3d6450ca	0.05574111
53	0x3e5ddc19	0.21665992
54	0xbe86904a	-0.2628196
55	0x3ec5a4cc	0.38602293
56	0x3d6c7537	0.057728972
57	0x3df48c8c	0.1194087
58	0xb8a689f7	-7.941195e-05
59	0xbe1d4fab	-0.15362422
60	0x3e4ef640	0.20211124
61	0x3e81f4b4	0.25382006
62	0xbd43e999	-0.047830198
63	0x3d6c32ad	0.057665516
64	0xbdf36b39	-0.118856855
65	0x3de18065	0.110108174
66	0xbf04ce81	-0.518776
67	0xbe0c3446	-0.13691816
68	0xbcdb499d	-0.0267685
69	0x3f1c1e26	0.609835
70	0xbf2c870b	-0.6739356
71	0xbf29fe3b	-0.6640355
72	0x3ee5f570	0.44913816
73	0xbd9270e6	-0.0715044
74	0x3f4b67c1	0.7945519
75	0xbf1513f5	-0.58233577
76	0x3f47179e	0.7777041
77	0x3f244369	0.6416536
78	0x3efd0dd8	0.49424624
79	0x3f27bdd7	0.6552405
80	0x3f076045	0.5288127
81	0x3ec6e8d6	0.38849515
82	0x3edd4c75	0.43222395
83	0x3ee33a6c	0.4438051
84	0x3ec3edaa	0.3826726
85	0x3f4ab2ce	0.79179084
86	0x3ef8bad9	0.48580053
87	0x3f4ac5b1	0.79207903
88	0x3f11eef6	0.5700525
89	0x3ef3c499	0.4761093
90	0x3e755d2e	0.23961326
91	0x3f42d967	0.7611298
92	0x3f018ce1	0.5060559
93	0x3e8f6c4b	0.28012308
94	0x3e8cc6d5	0.27495447
95	0x3f387e3c	0.7206762
96	0xbef1fb61	-0.472621
97	0x3e852f2f	0.2601256
98	0xbe777ab4	-0.24167901
99	0xbe6fd4de	-0.23421046
100	0x3eedb1d5	0.46424738
101	0x3edd44d6	0.4321658
102	0xbeb0f4cc	-0.34561765
103	0xbed931c7	-0.4242079
104	0xbe67cac7	-0.22635947
105	0x3e378953	0.17923479
106	0x3e6cc120	0.23120546
107	0xbe9bf8a6	-0.3046314
108	0x3ebf0491	0.3730817
109	0xbbedcea1	-0.007257298
110	0x3e97e740	0.29668617
111	0x3f25f614	0.6482861
112	0x3eb9c189	0.36280468
113	0x3ed57746	0.4169256
114	0x3e5fd42b	0.2185828
115	0x3ee4b0f6	0.4466626
116	0x3ec6f504	0.38858807
117	0x3f0d89e4	0.5528853
118	0x3ee25942	0.44208723
119	0x3f15de89	0.58542687
120	0x3f1d1e0a	0.6137396
121	0x3e9edd51	0.31028226
122	0x3e660570	0.22463012
123	0x3efb0a15	0.4903113
124	0x3f2291f9	0.63503987
125	0x3eb0c1f6	0.3452298
126	0x3e5f8d42	0.2183123
127	0x3f128f20	0.5724964
128	0x3ebae092	0.3649946
129	0xbe231967	-0.15927659
130	0xbe47b953	-0.1950429
131	0x3e186dfc	0.14885706
132	0x3f24727a	0.6423718
133	0x3e935566	0.2877609
134	0x3e07dd51	0.1326802
135	0xbe8bad5d	-0.27280703
136	0x3f1168d8	0.56800604
137	0xbe9525a8	-0.29130292
138	0xbe85f635	-0.26164404
139	0x3f2fdc92	0.6869594
140	0xbebc770b	-0.36809573
141	0x3dc5ee6a	0.096646145
142	0xbec4fdf8	-0.38475013
143	0xbf2287ea	-0.6348864
144	0xbf245f3a	-0.64207804
145	0xbf140be0	-0.5783062
146	0xbe552467	-0.20814668
147	0xbf35c4db	-0.710035
148	0xbf131d7d	-0.5746687
149	0xbf20c33f	-0.6279792
150	0xbe300525	-0.17189462
151	0xbeea590b	-0.4577106
152	0xbe39714f	-0.1810963
153	0xbf03a6e0	-0.51426506
154	0xbf020527	-0.5078911
155	0xbe469637	-0.1939324
156	0xbeadaeb1	-0.3392234
157	0xbf21ea0e	-0.63247764
158	0xbf39ef72	-0.7263099
159	0xbf0c6d9b	-0.54854745
160	0xbc378357	-0.011200747
161	0x3d10c195	0.035340864
162	0x3ec163c9	0.37771443
163	0xbf0a7493	-0.5408413
164	0x3e29d2b1	0.16584279
165	0x3e98dc90	0.29855776
166	0x3e6b8101	0.2299843
167	0xbe8b3a0e	-0.2719273
168	0xbe9e1fbe	-0.30883592
169	0xbea792b3	-0.3272911
170	0x3c5a4102	0.013321163
171	0x3de2a76e	0.11067091
172	0x3e8cf05c	0.2752713
173	0x3ee386b0	0.44438696
174	0x3e54e36b	0.20789878
175	0xbcdcbf5f	-0.026946722
176	0x3e9c6040	0.30542183
177	0x3e7ebf76	0.24877724
178	0x3e9020d5	0.2815005
179	0x3ef238e0	0.47309017
180	0x3ec63ff5	0.3872067
181	0x3e0b0148	0.13574708
182	0x3eeb9a80	0.46016312
183	0x3eb8b7df	0.36077783
184	0x3d121312	0.035662718
185	0xbdbaa3de	-0.091132864
186	0x3e544982	0.20731166
187	0x3e88e9f1	0.26740983
188	0x3b997ccc	0.0046840664
189	0x3eb10c1b	0.34579548
190	0x3e4a267d	0.19741245
191	0xbc18aa29	-0.009317913
192	0xbe1c929a	-0.15290299
193	0x3d34d215	0.044145662
194	0x3f299fe6	0.6625961
195	0x3eca5818	0.39520335
196	0x3f1f4073	0.62207717
197	0xbe65cc46	-0.22441205
198	0x3ee46c16	0.44613713
199	0x3efcb6e6	0.4935829
200	0xbf23a548	-0.63924074
201	0x3e63f650	0.2226193
202	0xbeb6f0ae	-0.357305
203	0x3e9ce035	0.30639806
204	0xbea46246	-0.32106227
205	0xbf2c09f9	-0.6720272
206	0xbe670541	-0.22560598
207	0xbe953897	-0.29144737
208	0xbe7e8efa	-0.24859229
209	0xbe219d76	-0.15782723
210	0xbdbd3842	-0.09239246
211	0xbe0dd2c9	-0.1384994
212	0xbe2ed4d9	-0.17073382
213	0xbe6941cd	-0.22779007
214	0xbe548cb0	-0.20756793
215	0xbea325f3	-0.3186489
216	0xbe595fcb	-0.21227948
217	0xbd168be0	-0.03675449
218	0xbcb3b165	-0.021935174
219	0xbefc5ed5	-0.492911
220	0xbdbd46ce	-0.092420205
221	0xbe3583e5	-0.17726095
222	0xbe37b10c	-0.17938632
223	0xbe952754	-0.29131567
224	0xbe757b2c	-0.23972768
225	0x3b72cde9	0.0037049002
226	0xbbd2b61c	-0.0064304005
227	0xbebd98b3	-0.37030563
228	0x3e841c46	0.2580282
229	0x3bd33a04	0.006446125
230	0xbe9eeb05	-0.3103868
231	0x3ed615df	0.4181356
232	0x3de85e79	0.11346144
233	0x3dbb4d26	0.09145574
234	0xbea99358	-0.33120227
235	0xbf062d35	-0.5241273
236	0x3f095848	0.5365033
237	0xbe88a60d	-0.26689187
238	0x3f17977e	0.59215534
239	0x3ead9ccd	0.33908692
240	0x3ea88e03	0.32920846
241	0x3eddbb82	0.4330712
242	0x3f21fd47	0.63277096
243	0x3eb08996	0.3447997
244	0x3e8f0489	0.27933148
245	0x3ea728c7	0.32648298
246	0x3e5da729	0.21645798
247	0x3e156b38	0.14591682
248	0x3dfb7469	0.12278063
249	0x3f10d44e	0.5657395
250	0x3f0dfe49	0.55466133
251	0x3e782766	0.2423378
252	0x3ee8b193	0.45447978
253	0x3e342e63	0.1759582
254	0x3ec09093	0.376103
255	0x3f13f489	0.57795006

b f4 [32]
0	0xbe919e6a	-0.28441173
1	0x3dede81a	0.116165355
2	0x3ef79f3a	0.48363668
3	0x3ec69c74	0.3879124
4	0xbee1c57c	-0.4409598
5	0x3e479c80	0.19493294
6	0xbeb0e851	-0.34552243
7	0x3ed21f44	0.4103948
8	0x3ea0e478	0.31424308
9	0xbe60fddc	-0.2197184
10	0x3e4e1d3f	0.20128344
11	0x3e0a3c69	0.13499607
12	0x3e798037	0.24365316
13	0x3eaa6896	0.33282918
14	0x3e6b4fe9	0.22979702
15	0xbea65910	-0.32489824
16	0xbe9eb89d	-0.31000224
17	0x3eac920d	0.33705178
18	0xbea90805	-0.3301393
19	0xbe7bf360	-0.24604559
20	0xbe15dba7	-0.14634572
21	0xbea97b22	-0.33101755
22	0x3e424165	0.18970259
23	0x3eaa77f5	0.33294645
24	0x3ec704d4	0.3887087
25	0xbcf27363	-0.029596036
26	0xbe89dae6	-0.2692482
27	0xbea4e178	-0.3220327
28	0xbb4008ee	-0.0029302198
29	0xbe548d19	-0.2075695
30	0x3eb11721	0.34587958
31	0xbebbda15	-0.3668982

W f4 [32, 32]
0	0xbe68da01	-0.22739412
1	0x3f1b2511	0.60603434
2	0x3d2b35a8	0.041799217
3	0x3ca05b5a	0.01957481
4	0x3ee61d0d	0.4494404
5	0x3eb60a76	0.35554856
6	0x3dcd7bf5	0.100334086
7	0xbe998dd2	-0.29991013
8	0xbdc15304	-0.09439662
9	0x3ef08917	0.4697959
10	0xbe9cda0b	-0.30635104
11	0xbebf16b0	-0.37321997
12	0x3f2c4187	0.67287487
13	0x3ee96512	0.45584923
14	0x3df45eeb	0.11932167
15	0xbdb0ad78	-0.086268365
16	0xbd9a6dbf	-0.07540464
17	0x3de4ecc4	0.11177972
18	0xbe2fc306	-0.1716424
19	0xbed23880	-0.4105873
20	0xbc40961c	-0.011754539
21	0x3ee3cabe	0.44490618
22	0x3e250fbb	0.16119282
23	0x3f029d71	0.51021487
24	0xbe0599fe	-0.13047025
25	0x3e7207a2	0.23635724
26	0xbea6f381	-0.32607654
27	0xbeaefae1	-0.3417578
28	0x3e5c90bd	0.21539588
29	0x3f3746fc	0.7159269
30	0xbe9c107b	-0.30481324
31	0x3e25f2d0	0.16205907
32	0xbd5992ce	-0.05311852
33	0xbf26f25e	-0.6521357
34	0x3eed708d	0.46374932
35	0x3dce4dc6	0.10073428
36	0xbeda449b	-0.42630467
37	0x3e97d2ac	0.29652917
38	0x3e2307ce	0.15920946
39	0xbe1b4979	-0.15164746
40	0x3eed4775	0.4634358
41	0xbf200ec8	-0.62522554
42	0x3ce0df0a	0.027450103
43	0x3eefee2c	0.46861398
44	0xbdddf1cf	-0.10837137
45	0x3eb8ab2f	0.36068103
46	0x3d614d24	0.055005208
47	0xbee329fe	-0.44367975
48	0x3e921c99	0.28537443
49	0xbf200b5f	-0.6251735
50	0x3ee5771b	0.44817433
51	0x3f1cf8f1	0.61317354
52	0xbe5de759	-0.21670283
53	0xbcbc6a37	-0.022999866
54	0x3eb89af1	0.3605571
55	0xbe77fe7e	-0.24218175
56	0x3e84a514	0.25907195
57	0x3ce1344c	0.027490757
58	0x3c26be05	0.01017714
59	0x3e2dfd32	0.16991118
60	0xbeb50a2c	-0.35359323
61	0xbd93617c	-0.07196328
62	0x3ebbb74a	0.36663276
63	0xbf253d70	-0.6454687
64	0x3efae829	0.4900525
65	0xbe938666	-0.28813475
66	0x3f22d9cd	0.6361359
67	0xbea58462	-0.32327563
68	0xbecef135	-0.404184
69	0xbf0a038f	-0.5391168
70	0x3eac5ae9	0.3366311
71	0xbec22c5d	-0.37924471
72	0xbccc4fec	-0.024940453
73	0xbe999c83	-0.3000222
74	0x3f148b66	0.58025205
75	0xbd05e556	-0.032689415
76	0xbee60ba7	-0.44930765
77	0xbeffb8ee	-0.49945778
78	0xbdb05525	-0.0860999
79	0xbeb43819	-0.3519905
80	0xbe20dd0f	-0.15709327
81	0xbf03e9f1	-0.5152884
82	0x3ebbbe93	0.36668834
83	0xbe5b11b8	-0.21393478
84	0xbdead042	-0.11465503
85	0xbe2fa1b1	-0.17151524
86	0x3e0de1cb	0.13855664
87	0x3d38afa0	0.045089364
88	0xbe1cd828	-0.15316832
89	0xbf1d0f19	-0.6135116
90	0x3f27f8c6	0.65613973
91	0xbdcd19ae	-0.10014664
92	0xbe9f06fe	-0.31060022
93	0x3e370d9a	0.17876282
94	0x3c36f2d5	0.011166294
95	0xbcdae901	-0.026722433
96	0x3ef77c81	0.48337176
97	0xbf1749db	-0.5909707
98	0x3ef15277	0.47133228
99	0xbdabf57d	-0.083964325
100	0x3e5d8d4c	0.21635932
101	0x3f0c41d6	0.5478796
102	0xbe9fdd80	-0.3122368
103	0x3efc6635	0.49296728
104	0x3e014af9	0.12626256
105	0xbe9fffdc	-0.31249893
106	0x3e8b58ff	0.27216336
107	0x3e4fe74d	0.20303078
108	0x3e510634	0.20412523
109	0x3efdd97d	0.49579993
110	0xbf190ec9	-0.59788185
111	0x3e63dd01	0.22252275
112	0x3e267cbd	0.16258521
113	0x3cef54b8	0.029215202
114	0x3e9489a9	0.29011276
115	0x3ebe11ee	0.37123054
116	0x3ee1f75c	0.44134033
117	0x3e4fdfda	0.20300236
118	0xbe6c45d5	-0.23073514
119	0x3ebbe498	0.3669784
120	0x3ebd0c00	0.36923218
121	0xbdb3f939	-0.0878777
122	0xbdef0d2d	-0.11672435
123	0x3ebb870b	0.36626467
124	0x3e08ff43	0.13378625
125	0xbc567b5b	-0.013090934
126	0xbe84c69c	-0.25932777
127	0x3d8bd437	0.06827586
128	0xbecb6a35	-0.39729467
129	0x3ef9d35e	0.48794073
130	0xbec086df	-0.37602898
131	0xbec40254	-0.38283026
132	0xbdaef6b0	-0.08543146
133	0xbcca9357	-0.02472846
134	0x3e9767bd	0.29571334
135	0xbf19468b	-0.59873265
136	0xbdb82a79	-0.08992476
137	0x3ebb19d3	0.3654314
138	0xbc20ecd6	-0.009822091
139	0x3dc31f7a	0.09527488
140	0xbe01bab8	-0.12668884
141	0xbea25819	-0.31707838
142	0x3ef69c70	0.48166227
143	0xbe56a9ff	-0.20963286
144	0xbecb4d8a	-0.39707595
145	0x3f18ac3e	0.5963782
146	0x3f1b785f	0.60730547
147	0xbee0255e	-0.4377851
148	0xbed30b25	-0.4121944
149	0xbe9827e5	-0.29717937
150	0x3ef28364	0.47365868
151	0xbe4a09bc	-0.19730276
152	0xbe451b90	-0.19248796
153	0x3cfd2f3d	0.030906314
154	0x3f0858a7	0.5326027
155	0xbe8a394a	-0.26996833
156	0xbef02b9f	-0.4690828
157	0x3d0e0fc6	0.03468301
158	0x3e6a1bef	0.22862218
159	0xbea8d106	-0.32971972
160	0x3ef8f817	0.48626778
161	0x3e243058	0.16034067
162	0x3e7de701	0.24795152
163	0xbe7966d7	-0.24355637
164	0xbe3efefc	-0.18651956
165	0x3d899f5a	0.06719847
166	0x3ee8c046	0.45459193
167	0xbeb483c3	-0.35256776
168	0xbf1f24e9	-0.62165695
169	0x3e4ec7d9	0.20193423
170	0xbd8df1b7	-0.06930869
171	0xbf0326b9	-0.5123096
172	0xbef4c4d3	-0.47806415
173	0x3e8fa5cb	0.28056177
174	0x3ea401f9	0.32032755
175	0xbeab0c54	-0.33407843
176	0xbf4dee65	-0.80441886
177	0x3c7e73a1	0.015530498
178	0x3ec59027	0.38586542
179	0xbed632b1	-0.4183555
180	0xbed2610c	-0.41089666
181	0x3d852d1f	0.06502747
182	0x3f1ddcaf	0.6166486
183	0xbd6b2a9a	-0.057413675
184	0xbf490686	-0.7852558
185	0x3ef23eca	0.4731353
186	0xbedb1bf4	-0.42794764
187	0xbefbba4b	-0.49165568
188	0xbf00cbd4	-0.5031102
189	0x3f0364b9	0.51325566
190	0x3f186ad2	0.59537995
191	0xbe4190c0	-0.18902874
192	0x3e6e59d6	0.23276457
193	0xbe04fadc	-0.1298632
194	0x3eb3c43e	0.35110658
195	0x3ebefb9c	0.37301338
196	0x3e3b84fb	0.18312447
197	0xbebb4f78	-0.36584067
198	0x3ccda609	0.025103586
199	0xbec14e13	-0.37754878
200	0x3e6ba535	0.2301224
201	0x3d39bdcb	0.045347016
202	0x3dc39f3b	0.09551855
203	0xbde2a8fe	-0.11067389
204	0xbe3962b6	-0.18104061
205	0xbea60c63	-0.32431325
206	0xbdc97644	-0.098370105
207	0xbed77ef1	-0.42089036
208	0x3f3822fa	0.7192837
209	0x3e9a2793	0.30108318
210	0x3edebeed	0.4350504
211	0x3dba3b09	0.09093291
212	0xbea23914	-0.31684172
213	0xbc875708	-0.016520992
214	0x3e859dc9	0.26096943
215	0xbeb53333	-0.35390624
216	0x3f00228b	0.5005271
217	0x3ebabf66	0.3647415
218	0x3f5e34e4	0.86799455
219	0xbe9dfa89	-0.30855206
220	0xbe06f036	-0.1317757
221	0x3efbef6f	0.4920611
222	0x3e3ab296	0.18232188
223	0xbdc5632c	-0.09638056
224	0xbf292230	-0.6606779
225	0xbed0b3fe	-0.40762323
226	0xbec14edd	-0.3775548
227	0x3e5511dd	0.20807596
228	0x3d1a3750	0.037650406
229	0xbe232a5e	-0.1593413
230	0xbbf4694f	-0.007458843
231	0x3e90908b	0.28235278
232	0x3e3d5934	0.1849106
233	0xbf0dea4c	-0.55435634
234	0xbf29a289	-0.66263634
235	0x3df8ec9a	0.12154503
236	0x3f1e7f1a	0.6191269
237	0xbd6e4cda	-0.05817876
238	0xbea332d7	-0.31874725
239	0x3f1ff339	0.62480503
240	0x3e9b47a1	0.30328086
241	0xbe584134	-0.21118623
242	0xbe597ba7	-0.21238576
243	0x3e05abdd	0.13053842
244	0x3f0a4200	0.5400696
245	0xbeac89b6	-0.33698815
246	0xbe010d22	-0.12602666
247	0x3e1baf30	0.15203547
248	0xbedbd5dc	-0.429366
249	0xbf128dcf	-0.5724763
250	0xbe766d93	-0.24065237
251	0x3eef9aa9	0.46797684
252	0x3e265bd7	0.16245972
253	0xbdc514c2	-0.096231
254	0xbe34c572	-0.17653444
255	0x3e9c75b4	0.3055855

b f4 [32]
0	0xbde6afd7	-0.112640075
1	0x3ea2582f	0.31707904
2	0x3e374c81	0.17900278
3	0xbe47edc5	-0.19524296
4	0x3ec01cd2	0.37521988
5	0xbeab60bf	-0.3347225
6	0x3eaad439	0.33365038
7	0xbe745457	-0.23860298
8	0x3eaff46a	0.3436616
9	0xbdd7bba7	-0.10533839
10	0x3df1f6d5	0.118146576
11	0x3c84aa3a	0.016194452
12	0xbea8538e	-0.32876247
13	0xbeae1a08	-0.34004235
14	0x3f0c6a64	0.5484984
15	0x3e3b14b2	0.18269613
16	0x3e45d695	0.19320138
17	0x3e337277	0.17524134
18	0xbeb61592	-0.35563332
19	0x3ebc06f0	0.36724043
20	0x3df2877e	0.11842249
21	0x3eb0b3ad	0.34512082
22	0x3ecd9e25	0.40159717
23	0xbebd3ff8	-0.36962867
24	0xbe6b2dae	-0.22966644
25	0xbeda8254	-0.42677557
26	0x3c3645e1	0.011125059
27	0xbebb664e	-0.3660149
28	0xbdc24793	-0.09486308
29	0xbeac9e8b	-0.3371471
30	0x3e5c8292	0.21534184
31	0xbe51e597	-0.20497738

W1 f4 [32, 128]
0	0x3e982470	0.297153
1	0x3ed65bd0	0.41866922
2	0x3e5ce616	0.21572146
3	0xbf029f60	-0.51024437
4	0x3e9a200f	0.30102584
5	0xbef5b7c1	-0.47991756
6	0xbde6489b	-0.11244317
7	0xbec6bc56	-0.38815564
8	0x3e255565	0.16145857
9	0xbe8db92c	-0.27680337
10	0x3b74066f	0.003723528
11	0xbeac9501	-0.3370743
12	0x3da0d337	0.07852786
13	0x3eb3fee3	0.351554
14	0x3ee9ac88	0.45639443
15	0x3db48fc5	0.08816484
16	0x3ecbb4eb	0.39786467
17	0xbebedd9b	-0.37278447
18	0xbd513560	-0.051076293
19	0x3e3e5e2d	0.18590613
20	0x3eaa9fa2	0.33324915
21	0x3e4a4ced	0.19755907
22	0xbecb0ae9	-0.3965676
23	0x3e4095c7	0.18807136
24	0x3e2d88dd	0.1694674
25	0x3e56fa34	0.20993882
26	0xbd4ad3e9	-0.0495185
27	0x3eef908f	0.46789977
28	0xbd3b6974	-0.045754865
29	0x3ec55bf3	0.38546714
30	0xbf1f10b9	-0.6213489
31	0x3e576959	0.2103628
32	0x3decebb5	0.11568395
33	0xbf00afc9	-0.50268227
34	0x3e45556d	0.19270869
35	0xbea1adfd	-0.31578055
36	0x3ef938f7	0.48676273
37	0x3d5ef23a	0.054430224
38	0xbeb264ce	-0.34842533
39	0x3eb15925	0.34638324
40	0xbf06251f	-0.5240039
41	0x3e415f48	0.18884003
42	0x3e82d49d	0.25552836
43	0xbef9bd4a	-0.4877723
44	0x3d692ac9	0.05692557
45	0x3ea9a8a5	0.33136478
46	0xbda904ea	-0.082528904
47	0xbe40263a	-0.18764582
48	0x3e5aff60	0.2138648
49	0xbea6e87d	-0.3259925
50	0xbe0313b2	-0.12800482
51	0x3e70d6a4	0.23519379
52	0x3dcb1bad	0.09917388
53	0xbd0d1021	-0.03443921
54	0x3c88a323	0.016679352
55	0x3ce4042a	0.027834017
56	0x3e8baf1f	0.27282044
57	0x3d99bf91	0.075072415
58	0x3e8ceb68	0.2752335
59	0xbe81d0e8	-0.25354695
60	0x3ef6b50d	0.48185006
61	0x3c915f75	0.017745713
62	0x3e788e74	0.24273092
63	0xbea9172d	-0.33025494
64	0xbeae65f5	-0.34062162
65	0x3ed3bef3	0.4135662
66	0xbe94f658	-0.29094195
67	0x3ef4cc50	0.47812128
68	0xbeb4c203	-0.3530427
69	0xbe97fcd8	-0.29685092
70	0x3ea59e12	0.3234716
71	0x3f02ca79	0.510902
72	0xbd970599	-0.073741145
73	0x3e892ac3	0.26790437
74	0xbe279d18	-0.1636852
75	0xbe5eed22	-0.21770146
76	0xbe8b1841	-0.27166942
77	0x3e886989	0.26643017
78	0x3d258b4f	0.04041606
79	0xbf041098	-0.5158782
80	0xbea3c6b6	-0.31987542
81	0x3f006d25	0.5016654
82	0xbe8e3b46	-0.27779597
83	0x3e9822b6	0.29713982
84	0xbcd1f9a5	-0.025631735
85	0xbe4b1e49	-0.19835772
86	0x3df20978	0.11818212
87	0xbea4d854	-0.32196295
88	0xbeea2c71	-0.4573703
89	0x3e9f272a	0.31084567
90	0xbe8985c0	-0.26859856
91	0x3eedc060	0.46435833
92	0x3eb32adc	0.34993637
93	0x3dd71de3	0.10503747
94	0xbe39380f	-0.18087791
95	0xbef3fa54	-0.47651923
96	0x3e5d2d5a	0.21599331
97	0xbeff2e16	-0.49839848
98	0xbe130ea1	-0.14361049
99	0x3e409f7c	0.18810838
100	0x3eb53154	0.35389197
101	0x3ef7c159	0.483897
102	0xbeb13673	-0.34611854
103	0x3eeab839	0.45843676
104	0xbda3e251	-0.08002151
105	0xbe45b2a1	-0.19306423
106	0xbef8cc45	-0.48593345
107	0xbe05b316	-0.13056597
108	0xbe0ec1c0	-0.13941097
109	0x3f1b6983	0.60707873
110	0xbdac4ca7	-0.08413058
111	0xbe577f75	-0.21044715
112	0x3e107a1c	0.14109081
113	0x3b88ff5f	0.004180833
114	0x3ec72ca2	0.3890124
115	0xbecc0700	-0.3984909
116	0x3f05f7a4	0.52330995
117	0x3eaa28df	0.33234307
118	0xbe8a715c	-0.2703961
119	0xbe97fd1e	-0.296853
120	0x3e1e4b4c	0.15458411
121	0xbeeea5c2	-0.46610838
122	0x3ea10e81	0.31456378
123	0xbed2087f	-0.41022107
124	0x3e5a7e4d	0.21337242
125	0xbedcf6de	-0.43157095
126	0x3ef2a8be	0.47394365
127	0xbec03b47	-0.37545225
128	0xbeee805d	-0.46582308
129	0xbf06eb43	-0.5270273
130	0xbee413fd	-0.445465
131	0x3e582903	0.21109395
132	0xbee09f8a	-0.4387172
133	0x3ee676a2	0.45012385
134	0xbe0c1d60	-0.1368308
135	0xbf178b9f	-0.5919742
136	0xbeef7cd6	-0.4677493
137	0xbd8681d2	-0.0656773
138	0xbdca9070	-0.098908305
139	0x3e4585da	0.19289342
140	0x3e829b68	0.2550919
141	0xbd6bf339	-0.057605002
142	0x3dd55acd	0.104177095
143	0xbe387fed	-0.1801755
144	0xbdbc04b5	-0.09180585
145	0xbe424b5b	-0.18974058
146	0xbf0985c6	-0.5371975
147	0x3e9de59d	0.30839244
148	0x3ee8a269	0.4543641
149	0xbefa072f	-0.48833606
150	0x3ef3575f	0.47527596
151	0x3cf7d388	0.030252233
152	0x3e9df13b	0.30848107
153	0xbd1ed63b	-0.038778525
154	0x3d9e8a88	0.077412665
155	0x3edcb586	0.4310724
156	0x3ea32fe6	0.3187248
157	0xbdf7d7aa	-0.121016815
158	0x3ed39ffc	0.41332996
159	0xbece5ec1	-0.40306666
160	0xbd17cc6e	-0.037060194
161	0xbdfd1770	-0.12357986
162	0xbe20d2e7	-0.15705453
163	0xbef259d8	-0.4733417
164	0xbe574aa3	-0.21024565
165	0x3d5c887a	0.05384109
166	0x3e081d56	0.13292441
167	0x3ecedde8	0.40403676
168	0xbeb83641	-0.35978892
169	0x3e500190	0.20313096
170	0xbed3de7b	-0.41380677
171	0xbe9eadb4	-0.309919
172	0x3eaac401	0.33352664
173	0x3e6ea6ab	0.23305766
174	0x3e8c3620	0.27385044
175	0x3d5a67f5	0.053321797
176	0xbf01b058	-0.50659704
177	0xbeb73271	-0.3578067
178	0x3de6eae8	0.112752736
179	0xbe665993	-0.22495107
180	0x3e96bdb8	0.2944162
181	0x3e563185	0.20917328
182	0x3edce1be	0.43140978
183	0xbe3f8b1c	-0.1870541
184	0x3d8d08d4	0.068864495
185	0xbeafdcf0	-0.3434825
186	0xbe2c75aa	-0.1684176
187	0xbea5942f	-0.32339618
188	0xbedc9878	-0.43085074
189	0xbef69f02	-0.48168188
190	0xbe408cb7	-0.18803678
191	0xbe7ade9c	-0.24498981
192	0x3ed2d0bb	0.41174874
193	0xbe4f4b71	-0.20243622
194	0xbe99a315	-0.30007234
195	0xbd66aea4	-0.056318894
196	0xbf0ac329	-0.5420404
197	0x3db2b1fa	0.087253526
198	0xbd8b37b2	-0.067977324
199	0xbebc81b7	-0.36817715
200	0xbe1922a1	-0.14954616
201	0xbeb645fa	-0.35600263
202	0xbf0c1813	-0.54724234
203	0x3a412006	0.00073671376
204	0x3e6881fe	0.22705838
205	0xbd17e485	-0.037083168
206	0x3e4f1e7e	0.20226476
207	0x3eebed25	0.46079364
208	0xbb83489e	-0.0040064594
209	0x3e2cfbd5	0.16892941
210	0xbea156cd	-0.31511536
211	0xbebc9082	-0.36829
212	0xbeb7a3a9	-0.3586705
213	0x3c20f209	0.009823331
214	0xbe8a48f2	-0.27008778
215	0x3e84a4ec	0.25907075
216	0x3bc5de4d	0.006038463
217	0x3eefb749	0.46819523
218	0x3e191dc7	0.14952765
219	0xbeb8dc7f	-0.36105725
220	0xbee174bf	-0.44034383
221	0x3e6961f3	0.22791271
222	0x3cd4e233	0.025986766
223	0xbeabe809	-0.33575466
224	0x3f400546	0.75008047
225	0x3ecf1baa	0.40450794
226	0xbe6a630e	-0.22889349
227	0xbee51e5a	-0.4474972
228	0x3eb2e674	0.34941447
229	0xbebe6fe6	-0.37194747
230	0x3e1b1019	0.1514286
231	0xbe6b2767	-0.2296425
232	0x3ded1659	0.11576528
233	0xbe9f7d41	-0.3115025
234	0x3daef982	0.085436836
235	0x3c809010	0.015693694
236	0xbe99763b	-0.29973015
237	0x3dcf630b	0.10126313
238	0x3de4eacf	0.11177599
239	0x3e7b1d74	0.24522954
240	0xbeae3dc3	-0.34031495
241	0x3eafb062	0.34314257
242	0x3e63e844	0.22256571
243	0x3eaee006	0.3415529
244	0xbdebf679	-0.1152162
245	0xbe8faf2f	-0.28063342
246	0xbeba84da	-0.36429483
247	0xbe1fdd6a	-0.15611807
248	0xbeb6c7ea	-0.35699397
249	0xbe1821f0	-0.14856696
250	0xbe84608c	-0.2585491
251	0x3e6d50eb	0.23175399
252	0xbe37ebde	-0.1796107
253	0x3f052c0a	0.52020323
254	0xbecb905c	-0.39758575
255	0x3e425718	0.18978536
