saved_models/model-epoch-76.pth (torch, 249162 bytes, 52 tensors)

embeddings f4 [99, 32]
000000 b8 e9 8e 3d 44 28 10 be 7c 91 ff bd 23 72 b3 3d
       0.06978172 -0.1407786 -0.12478921 0.08762004
000010 17 c9 76 bd 6a ff 90 3d af 4f 6d 3d 6e 2e 10 be
       -0.060250368 0.07079966 0.05793732 -0.14080212
000020 ee 82 e4 bd 73 a2 16 bd 28 5f 1b bd 34 d3 1b be
       -0.11157785 -0.036776017 -0.037932545 -0.15217286
000030 37 7f 40 3e 12 0f 7f bd 1d ab 3f be 65 37 0a bc
       0.18798529 -0.06227023 -0.18717618 -0.008436059
000040 26 1a 56 bd 2f 03 b8 bd 6e 12 c0 bc 73 b8 1f 3d
       -0.05227103 -0.08984982 -0.023446288 0.038994264
000050 47 9b 1b 3e b0 fa 1e 3e 02 88 ec 3d 52 06 26 bc
       0.15195952 0.15525317 0.11549379 -0.010133343
000060 81 20 14 be 9b 73 39 3e 78 b1 37 3e 5e 57 c0 bd
       -0.14465524 0.18110506 0.17938793 -0.09391664
000070 89 ef 19 bd 4f c2 1a 3e 4c b8 0d be e2 59 42 3e
       -0.037581954 0.15113185 -0.13839835 0.189796
000080 c9 b1 a3 3d e7 3a e5 bd 48 f2 2a be 19 b3 a5 bd
       0.07992894 -0.11192875 -0.16693985 -0.08090801
000090 29 12 44 bd 0d d4 2b 3e f6 09 01 bd 41 1c 0e be
       -0.04786888 0.1678011 -0.03150364 -0.13877966
0000a0 ab 99 a8 bd 83 07 44 bd 58 7e c4 bc 8d 97 72 3c
       -0.08232435 -0.047858726 -0.023986027 0.01480664
0000b0 05 12 6f 3d 03 80 a8 bc c9 56 50 3e 70 bf ec 3d
       0.058366794 -0.020568853 0.20345606 0.11559951
0000c0 11 ca 39 3e da a5 0f 3e c3 77 21 3e cb 92 48 3e
       0.18143488 0.14028111 0.15768342 0.19587247
0000d0 7d 27 54 be 55 da 5a bd 09 a6 35 3e 76 e3 ca bd
       -0.20718189 -0.053430874 0.17739119 -0.09906666
0000e0 48 da 55 be b9 38 01 3d 2b fb 40 3e c8 6c a4 bd
       -0.20884049 0.031548236 0.18845813 -0.08028561
0000f0 9b cb 58 be 44 37 a3 3d 7c b0 ee bd de 4c 83 bc
       -0.2117142 0.079695255 -0.116547555 -0.016027864
000100 c3 be dd 3d 25 fa 92 bd fc b5 48 3d 8e cc 1f be
       0.108274005 -0.071766175 0.04900168 -0.15605375
000110 f1 56 1e 3e 1b 96 10 3e 56 61 15 3e 06 12 67 bd
       0.15462853 0.1411976 0.14587912 -0.056413673
000120 ff f6 57 be 2e 69 4d be 16 43 63 3d da e6 9a 3d
       -0.21090315 -0.20059654 0.0554839 0.07563563
000130 6a e8 06 3e 9f 82 28 3e 77 3a bb 3d 37 ac 31 3e
       0.13174596 0.16456078 0.09142011 0.17350851
000140 9e 2b 81 bd b5 75 52 3e 1a 48 8f 38 22 41 46 be
       -0.063071474 0.20552714 6.832201e-05 -0.19360784
000150 00 be 22 3e 58 15 00 bd 58 e4 4e be 25 5e ea 3d
       0.15892792 -0.031270355 -0.20204294 0.11443738
000160 ee dd 3e 3e 99 40 0f 3e 15 30 3f 3e 29 26 3e 3e
       0.18639347 0.13989486 0.18670686 0.18569244
000170 70 f6 11 bc 5a 3a 8d bd f5 fb 60 3d a7 19 1b bd
       -0.008908853 -0.06895895 0.054927785 -0.03786626
000180 f8 b4 2b 3c 58 0c 00 3e e7 02 79 bd 82 88 e1 3d
       0.010480158 0.12504709 -0.060793784 0.11012365
000190 c5 cc 5a 3e fd f0 3f be 6b 51 38 be 84 b9 48 bd
       0.21367176 -0.18744273 -0.17999808 -0.049005046
0001a0 5f 7e bc bd c3 bc 36 3e d5 48 38 be 43 30 34 3e
       -0.09203791 0.17845444 -0.17996533 0.17596535
0001b0 de 6a e5 3d 53 1a 52 be 30 19 32 3e 66 88 e9 bd
       0.11202024 -0.20517854 0.17392421 -0.11402969
0001c0 11 37 40 be 1c 8f 6f 3d 8b b7 ba bd d9 af 21 3e
       -0.18771006 0.05848609 -0.09117039 0.15789737
0001d0 2f 98 e1 3d 85 5a 0d be 94 a2 ff bb f4 b2 1e be
       0.11015355 -0.13804062 -0.0078013632 -0.15497953
0001e0 e1 8c 0d bc 61 9e 7d ba 72 96 a7 3d f9 44 89 bd
       -0.008639545 -0.00096747844 0.08182992 -0.067026086
0001f0 12 0e 9f bd 82 0f 30 3e 78 cc 46 be 51 9a 5a be
       -0.077663556 0.17193416 -0.19413936 -0.2134793
000200 8d f7 ed bd ad a0 28 3e a1 24 07 3e 23 c8 46 be
       -0.11619482 0.16467543 0.13197567 -0.19412284
000210 0c 39 81 bd 43 d8 52 3e e1 d1 57 be b4 4f fb bc
       -0.06309709 0.2059031 -0.21076156 -0.030677654
000220 1d bd 49 3e 1c da ea 3c 6d ab 50 3e b4 83 ec 3d
       0.19701047 0.028668456 0.20377894 0.11548558
000230 87 a2 3c be d3 7c 57 3e 78 5c 36 3e 9c 9d 11 be
       -0.18421374 0.2104371 0.17808712 -0.1422028
000240 3e 76 b8 3d bf 14 d4 bd fc 9c 2d be 9b 82 b2 bc
       0.09006928 -0.103555195 -0.16954416 -0.021790793
000250 10 5f 52 3b 26 de 11 be e0 d5 20 be 64 f5 40 bc
       0.0032100119 -0.14244899 -0.15706587 -0.011777256
000260 dc 69 6a 3c 6b 16 36 3e b9 7e 52 3e 88 7b 2d bc
       0.014307465 0.1778199 0.20556153 -0.010588534
000270 db 71 f6 bd dc 92 2d 3e 68 e6 c2 3d 1d d4 37 be
       -0.12033435 0.16950554 0.09516603 -0.17952009
000280 fa f3 d3 bc 29 b0 15 be dd f2 1d 3e 06 97 20 bd
       -0.025873173 -0.14617981 0.15424676 -0.039206527
000290 15 82 b5 bd bc fd c0 3c 32 0e 31 be 0b 25 ad 3d
       -0.08862702 0.02355849 -0.17290571 0.08454331
0002a0 09 6d 25 3e 38 d8 3e be 4d ff 7b bd ce fe be 3d
       0.16154875 -0.18637168 -0.06152277 0.09325944
0002b0 fb 32 90 3d 40 87 a5 3d 21 fc 03 3e 8a 33 2f bc
       0.07040974 0.080824375 0.12889148 -0.01069344
0002c0 89 97 b3 bd a1 20 46 bd 7e 5c 1c bd 5f 70 b3 3c
       -0.087691374 -0.04837096 -0.038174145 0.021904169
0002d0 11 bd b7 3d cf 37 2c be 0e f0 98 3c 53 72 53 be
       0.089716084 -0.16818164 0.018669154 -0.2064908
0002e0 55 bf ea 3d 72 f3 48 3e 6c 84 16 be e5 36 54 3e
       0.11462275 0.19624117 -0.14698952 0.20724066
0002f0 06 60 f9 3d 20 0b c0 bd 0c f5 34 be f3 3b f8 3d
       0.12176518 -0.09377122 -0.17671603 0.121208094
000300 b5 ac 38 3e b1 dc d0 bd d1 08 11 be a9 1a 50 bb
       0.18034633 -0.101983435 -0.1416352 -0.0031754172
000310 df 56 fd bd 3e 9d e3 bd 4a cc 1a 3e a6 3e 1f 3e
       -0.12370085 -0.11113976 0.15116993 0.15551242
000320 59 7d b5 bd f6 0c 38 3e 52 72 81 3d 7d 0f be bd
       -0.08861799 0.17973694 0.06320633 -0.09280298
000330 08 72 d4 bc e9 0f e5 bd 3d ff 32 be fc ff 80 bd
       -0.02593328 -0.11184675 -0.17480178 -0.06298825
000340 2e 2c 39 bd cd 00 40 be 3b 0a 9e bd b4 31 9d bc
       -0.04520815 -0.18750305 -0.07716795 -0.01918874
000350 fd 68 56 3e 94 ef 90 3d a9 c4 c5 3d 2b 9e 3b bd
       0.20938487 0.07076946 0.096566506 -0.045805138
000360 b4 af ba bd 8a cc 80 bc 22 1e 01 3d 53 95 25 3e
       -0.09115544 -0.015722532 0.031522878 0.16170244
000370 1a be 4d be c6 46 16 be 81 8c 31 be 74 20 4d 3e
       -0.20092049 -0.14675435 -0.17338754 0.20031911
000380 23 b2 3e 3e 91 e1 f8 3d 91 91 22 be a0 5a b1 bc
       0.18622641 0.121523984 -0.15875842 -0.021649659
000390 9c 5b 81 3d e9 23 23 3e 0b cb ba bb fc 84 30 3e
       0.06316301 0.15931667 -0.005700474 0.1723823
0003a0 a5 dc 3e 3d 96 40 a8 bd 94 17 bd bd af ea 2b 3e
       0.04659714 -0.08215444 -0.09233013 0.16788743
0003b0 3e be 3e be 59 d5 8f 3c 4a 74 3b 3e e3 df d1 bd
       -0.18627259 0.017557787 0.1830608 -0.10247781
0003c0 33 aa cd 3d 94 90 f5 bd a1 1d 34 3e 57 0d ef bd
       0.100422285 -0.11990467 0.17589428 -0.11672466
0003d0 57 fe 1b be ce fa 04 be 39 fa 18 be fe 9d fa 3d
       -0.15233742 -0.129863 -0.14939202 0.12237166
0003e0 0d e7 a3 bd d9 db 53 3d 59 a5 a3 3d 3e f4 99 3d
       -0.08003054 0.051723335 0.07990522 0.075172886
0003f0 30 3a 10 3e ee 67 39 be 07 23 c5 bc d8 c3 47 3e
       0.14084697 -0.18106052 -0.024064554 0.19508302

_pos_embeds f4 [64, 32]
000000 00 00 00 00 00 00 80 3f 00 00 00 00 00 00 80 3f
       0.0 1.0 0.0 1.0
000010 00 00 00 00 00 00 80 3f 00 00 00 00 00 00 80 3f
       0.0 1.0 0.0 1.0
000020 00 00 00 00 00 00 80 3f 00 00 00 00 00 00 80 3f
       0.0 1.0 0.0 1.0
000030 00 00 00 00 00 00 80 3f 00 00 00 00 00 00 80 3f
       0.0 1.0 0.0 1.0
000040 00 00 00 00 00 00 80 3f 00 00 00 00 00 00 80 3f
       0.0 1.0 0.0 1.0
000050 00 00 00 00 00 00 80 3f 00 00 00 00 00 00 80 3f
       0.0 1.0 0.0 1.0
000060 00 00 00 00 00 00 80 3f 00 00 00 00 00 00 80 3f
       0.0 1.0 0.0 1.0
000070 00 00 00 00 00 00 80 3f 00 00 00 00 00 00 80 3f
       0.0 1.0 0.0 1.0
000080 a4 6a 57 3f 40 51 0a 3f ba 7d 08 3f 0e 94 58 3f
       0.84147096 0.5403023 0.53316844 0.84600914
000090 3e 39 9f 3e 6a 4e 73 3f 3a 23 35 3e 83 f6 7b 3f
       0.3109836 0.95041525 0.17689219 0.9842302
0000a0 76 75 cc 3d 98 b8 7e 3f b0 36 66 3d 68 98 7f 3f
       0.099833414 0.9950042 0.056204498 0.9984193
0000b0 5c 81 01 3d 3c df 7f 3f 42 ab 91 3c a3 f5 7f 3f
       0.031617507 0.99950004 0.017781857 0.99984187
0000c0 57 d6 23 3c b9 fc 7f 3f 5c 44 b8 3b f7 fe 7f 3f
       0.009999833 0.99995 0.0056233834 0.9999842
0000d0 20 3e 4f 3b ac ff 7f 3f 20 15 e9 3a e5 ff 7f 3f
       0.0031622723 0.999995 0.0017782785 0.9999984
0000e0 6d 12 83 3a f8 ff 7f 3f 16 6a 13 3a fd ff 7f 3f
       0.0009999998 0.9999995 0.0005623413 0.9999998
0000f0 5f cb a5 39 ff ff 7f 3f 53 77 3a 39 00 00 80 3f
       0.00031622776 0.99999994 0.00017782794 1.0
000100 b7 c7 68 3f 33 11 d5 be 0a f2 66 3f b2 e8 dc 3e
       0.9092974 -0.41614684 0.9021307 0.43146282
000110 1b 54 17 3f ec 7b 4e 3f f6 47 b2 3e a5 fa 6f 3f
       0.5911271 0.8065784 0.34820527 0.9374183
000120 f9 6f 4b 3e a5 e5 7a 3f 88 d9 e5 3d f3 61 7e 3f
       0.19866933 0.9800666 0.112231314 0.9936821
000130 c8 70 81 3d f9 7c 7f 3f 5c a5 11 3d 8e d6 7f 3f
       0.063203394 0.9980007 0.03555809 0.9993676
000140 3e d4 a3 3c e5 f2 7f 3f 9d 43 38 3c db fb 7f 3f
       0.019998666 0.9998 0.011246589 0.99993676
000150 dd 3d cf 3b b0 fe 7f 3f 08 15 69 3b 96 ff 7f 3f
       0.0063245133 0.99998 0.0035565514 0.9999937
000160 69 12 03 3b de ff 7f 3f 14 6a 93 3a f5 ff 7f 3f
       0.0019999987 0.999998 0.0011246824 0.99999934
000170 5f cb 25 3a fd ff 7f 3f 53 77 ba 39 ff ff 7f 3f
       0.0006324555 0.9999998 0.00035565588 0.99999994
000180 c3 81 10 3e 26 70 7d bf d7 45 7e 3f a8 7f ed bd
       0.14112 -0.9899925 0.9932532 -0.11596614
000190 c2 09 50 3f 57 2f 15 3f 6d 2f 02 3f 29 6d 5c 3f
       0.8126489 0.5827536 0.50853616 0.86104065
0001a0 6d 4e 97 3e ef 90 74 3f d8 ee 2b 3e 9e 5d 7c 3f
       0.29552022 0.9553365 0.1679033 0.9858035
0001b0 c1 ff c1 3d 4f d9 7e 3f 4d 69 5a 3d c3 a2 7f 3f
       0.09472609 0.99550337 0.05332308 0.9985773
0001c0 20 b9 f5 3c 83 e2 7f 3f c7 31 8a 3c ad f6 7f 3f
       0.029995501 0.99955004 0.016869439 0.9998577
0001d0 11 6e 1b 3c 0d fd 7f 3f a8 cf ae 3b 11 ff 7f 3f
       0.009486691 0.999955 0.005334813 0.99998575
0001e0 93 9b 44 3b b5 ff 7f 3f 1b 1f dd 3a e8 ff 7f 3f
       0.0029999956 0.9999955 0.0016870232 0.99999857
0001f0 0d b1 78 3a f8 ff 7f 3f 7e d9 0b 3a fe ff 7f 3f
       0.0009486832 0.9999995 0.0005334838 0.9999999
000200 cf bd 41 bf 30 55 27 bf ed 49 47 3f 9d af 20 bf
       -0.7568025 -0.6536436 0.77847177 -0.62767965
000210 de 1d 74 3f b1 2e 9a 3e bc 1f 27 3f ed eb 41 3f
       0.95358074 0.30113748 0.652828 0.7575062
000220 d7 61 c7 3e a7 ca 6b 3f c6 65 64 3e 09 8d 79 3f
       0.38941833 0.921061 0.22304448 0.9748083
000230 88 2e 01 3e 69 f4 7d 3f c8 8d 91 3d 47 5a 7f 3f
       0.12615407 0.99201065 0.07107121 0.9974713
000240 db cb 23 3d 94 cb 7f 3f a2 40 b8 3c 6c ef 7f 3f
       0.039989334 0.9992001 0.022491757 0.99974704
000250 cd 3c 4f 3c c2 fa 7f 3f a7 14 e9 3b 58 fe 7f 3f
       0.012648773 0.99992 0.0071130577 0.9999747
000260 58 12 83 3b 7a ff 7f 3f 0e 6a 13 3b d6 ff 7f 3f
       0.0039999895 0.999992 0.0022493633 0.9999975
000270 5c cb a5 3a f3 ff 7f 3f 52 77 3a 3a fc ff 7f 3f
       0.0012649107 0.9999992 0.0007113117 0.99999976
000280 10 7c 75 bf 2c 3c 91 3e d6 da a5 3e 40 32 72 bf
       -0.9589243 0.2836622 0.3239352 -0.94607925
000290 7f fc 7f 3f d4 72 29 bc ab ca 46 3f f1 4c 21 3f
       0.99994653 -0.010342319 0.77652997 0.6300803
0002a0 44 77 f5 3e 40 a9 60 3f ee 11 8e 3e 7c f2 75 3f
       0.47942555 0.87758255 0.27748054 0.96073127
0002b0 1e 3c 21 3e 81 ce 7c 3f 21 db b5 3d 1e fd 7e 3f
       0.15745589 0.987526 0.08879686 0.99604976
0002c0 f5 b6 4c 3d 19 ae 7f 3f fe 4d e6 3c 19 e6 7f 3f
       0.04997917 0.99875027 0.028113361 0.99960476
0002d0 81 85 81 3c cf f7 7f 3f bb ac 11 3c 69 fd 7f 3f
       0.01581073 0.999875 0.00889128 0.9999605
0002e0 de d6 a3 3b 2e ff 7f 3f 8c 44 38 3b be ff 7f 3f
       0.0049999794 0.9999875 0.002811703 0.99999607
0002f0 31 3e cf 3a eb ff 7f 3f 26 15 69 3a f9 ff 7f 3f
       0.0015811381 0.99999875 0.0008891396 0.9999996
000300 8c 0f 8f be b8 cd 75 3f 74 e5 6b be 53 1d 79 bf
       -0.2794155 0.96017027 -0.23036748 -0.9731037
000310 4d 78 72 3f 6f 3f a4 be 89 30 60 3f 34 2f f7 3e
       0.94714814 -0.32079646 0.8757406 0.482782
000320 69 8c 10 3f 32 49 53 3f fd 7d a9 3e e2 90 71 3f
       0.5646425 0.8253356 0.33103934 0.943617
000330 6f 20 41 3e e3 67 7b 3f c1 19 da 3d 51 8b 7e 3f
       0.18860029 0.98205394 0.106494434 0.9943133
000340 d1 9c 75 3d 12 8a 7f 3f bf 2c 0a 3d b3 da 7f 3f
       0.059964005 0.99820054 0.03373408 0.99943084
000350 46 6c 9b 3c 34 f4 7f 3f 04 cf 2e 3c 45 fc 7f 3f
       0.018972527 0.99982 0.010669474 0.9999431
000360 59 9b c4 3b d2 fe 7f 3f 06 1f 5d 3b a1 ff 7f 3f
       0.005999964 0.999982 0.0033740415 0.99999434
000370 05 b1 f8 3a e2 ff 7f 3f 7d d9 8b 3a f6 ff 7f 3f
       0.0018973654 0.9999982 0.0010669675 0.9999994
000380 46 30 28 3f bd ff 40 3f 6e b6 36 bf 60 4f 33 bf
       0.6569866 0.75390226 -0.71372116 -0.7004299
000390 6f e8 4c 3f bb 74 19 bf 44 84 72 3f b9 f8 a3 3e
       0.80042166 -0.5994374 0.9473307 0.32025698
0003a0 73 eb 24 3f b3 cc 43 3f df 60 c4 3e c5 6b 6c 3f
       0.64421767 0.7648422 0.38355157 0.92351943
0003b0 50 d3 60 3e ea c0 79 3f ba 46 fe 3d e9 04 7e 3f
       0.2195561 0.9755999 0.12415834 0.9922624
0003c0 32 3e 8f 3d 81 5f 7f 3f 60 31 21 3d 3b cd 7f 3f
       0.06994285 0.997551 0.03935373 0.9992253
0003d0 a6 52 b5 3c f2 ef 7f 3f 2a f1 4b 3c ec fa 7f 3f
       0.022134136 0.999755 0.012447635 0.9999225
0003e0 c7 5f e5 3b 65 fe 7f 3f be fc 80 3b 7e ff 7f 3f
       0.006999943 0.9999755 0.003936379 0.99999225
0003f0 ec 11 11 3b d7 ff 7f 3f 66 28 a3 3a f3 ff 7f 3f
       0.0022135926 0.99999756 0.0012447953 0.9999992

W f4 [32, 32]
000000 b5 e0 05 3e 44 f9 98 3d b3 56 49 bc 86 07 a5 3d
       0.13074 0.07469419 -0.012288737 0.080580756
000010 e2 16 83 be 89 df 1f be aa f8 b7 bd 3e 94 2c 3e
       -0.25603396 -0.15612616 -0.08982976 0.16853425
000020 dc 58 2f be 11 00 d0 bd 5e 52 be 3b ad df 3f be
       -0.17123741 -0.10156263 0.005808159 -0.1873767
000030 48 df 54 3e 9c a6 28 3d 88 89 bf 3d ab 46 8a bd
       0.207883 0.041174516 0.09352404 -0.0675176
000040 ae b0 62 bd 44 6b b6 3d fe 67 83 3e 96 6d 37 3e
       -0.055344276 0.08907178 0.25665277 0.17912897
000050 aa db 64 be 8f b6 83 3d 8a 1a b5 3d 89 1e 68 3e
       -0.2234942 0.06431305 0.088429525 0.22667898
000060 8e c8 e0 3d e0 db 62 be 85 65 9c 3d 4c 50 47 3e
       0.10975753 -0.22154188 0.07636551 0.19464225
000070 7a 78 3a 3e 04 13 0b be e8 a7 52 be a3 41 11 3e
       0.1821002 -0.13581473 -0.20571864 0.14185195
000080 b4 80 24 bb d1 25 79 be 2c 0e 26 bd 08 1a 30 3e
       -0.0025101127 -0.24330832 -0.04054086 0.1719743
000090 06 0e ef bd be fa 92 3d 46 d7 05 bd ca 2c 8c 3e
       -0.11672597 0.071767315 -0.032676004 0.2737792
0000a0 ee 69 03 3e 4e f3 31 3d 62 9a ae bd 79 50 4c be
       0.12833378 0.043444924 -0.0852554 -0.19952573
0000b0 72 69 88 3e 9d 84 74 be 70 62 83 3e 9d b0 39 3d
       0.26642948 -0.23878713 0.2566104 0.045334447
0000c0 31 c7 0c be c6 70 91 3e 94 af 83 be 1b 33 f9 3d
       -0.1374786 0.28406352 -0.25719893 0.12167951
0000d0 30 d5 4a 3e ae c9 9e 3e 9a 80 21 be 18 c6 6e 3e
       0.19807887 0.31013244 -0.15771714 0.23317754
0000e0 8e 76 35 3e b0 5f f1 3d 17 46 20 3e 62 c5 55 bc
       0.17721006 0.11785829 0.15651737 -0.013047548
0000f0 b3 39 84 3e 34 4c 85 3e 2c 64 16 be 43 d2 92 3e
       0.2582527 0.260347 -0.1468665 0.28676042
000100 e1 a2 13 3d 68 8a f1 3d ee 0e 07 be 67 78 d4 3d
       0.036044005 0.11793977 -0.13189289 0.103745274
000110 e6 d8 47 3e c4 95 4f 3e 06 0b 86 3e 4e 87 3a be
       0.19516334 0.20271975 0.26180285 -0.18215677
000120 8b bd 5d 3e 38 14 c7 bd a2 c6 74 be 97 6c 88 be
       0.21654336 -0.09720653 -0.23903897 -0.26645347
000130 57 43 8c be 24 75 1b be 62 32 59 be 3a 7e 0c 3e
       -0.27395126 -0.15181404 -0.21210626 0.13720027
000140 f8 af 33 be 3c 8d ca 3d 28 35 2f 3e 7b d4 75 be
       -0.17547596 0.098902196 0.17110121 -0.24006836
000150 6b 54 02 3e 23 0b 4a be dc 63 c4 bd 1d 8e 14 be
       0.12727515 -0.19730811 -0.09589359 -0.14507337
000160 59 b1 c2 bd 32 4b 75 be dc 86 14 be 16 0c 09 bc
       -0.09506483 -0.23954466 -0.1450457 -0.008364698
000170 18 2c af bc b8 91 7b bd 5d 34 99 be ab 12 04 3e
       -0.02138333 -0.061418265 -0.29922763 0.12897746
000180 00 f9 04 3e b2 48 33 3e 62 91 71 be 19 fc 3f be
       0.12985611 0.175082 -0.23590615 -0.18748511
000190 cf 62 35 bd a0 ec d9 3d 20 3d d3 3d 5a f0 6c 3d
       -0.044283684 0.10640836 0.10314393 0.057846405
0001a0 73 13 45 bd 6e 6a 05 3e 0a 92 8a bd 00 63 d7 bc
       -0.04811425 0.13028881 -0.06766136 -0.026292324
0001b0 b9 98 84 3e 69 22 92 3e 70 ee 75 be 77 7d de bc
       0.25897768 0.28541878 -0.24016738 -0.027159436
0001c0 b8 cd 66 3e 15 63 50 be ef b6 45 3e 42 1a 4a bd
       0.22539413 -0.20350297 0.19308065 -0.049341448
0001d0 8c 70 41 be c2 0e 8b 3e 69 c0 9a 3e 41 3c fe 3d
       -0.1889059 0.27159697 0.30224922 0.12413836
0001e0 1d 84 2d 3e 24 84 19 be f3 ae 37 3e e6 1d 00 3e
       0.16944928 -0.14991814 0.17937832 0.12511405
0001f0 2a bd 42 bd b2 a3 e3 bb 8d ff c5 3d 7a c0 9b be
       -0.047543682 -0.0069470042 0.09667883 -0.30420285
000200 2e 86 23 be 3c 0b 2b be bd af 79 be e1 f3 27 3d
       -0.15969154 -0.16703504 -0.24383445 0.041004065
000210 ba cf 47 3d d1 c8 4d be 34 5c 24 bd 57 c9 87 3d
       0.048782088 -0.20096137 -0.040126994 0.066301994
000220 95 cc 3d 3e 98 1e 6c 3e 50 80 9d be 7d 39 19 be
       0.18535073 0.23058546 -0.30761957 -0.14963336
000230 81 4d 6b be 3b fd f1 bd 8e e3 21 3e e4 4c 7d be
       -0.22978784 -0.11815878 0.15809461 -0.24736363
000240 9f df 45 3c 63 55 94 3d f0 00 27 3e 15 35 99 be
       0.012077241 0.07242849 0.16308951 -0.2992331
000250 24 bc 78 be ba 1c 7f 3e cb 32 f7 3d c3 1e 4c 3e
       -0.2429052 0.24913302 0.12070235 0.1993361
000260 42 06 2b be c5 c3 e7 3d 9a 62 7f be dc bf 71 be
       -0.16701606 0.11316637 -0.24939957 -0.23608345
000270 26 0d 0c 3e 7a eb 08 3e 62 e5 76 be 75 0b 9b be
       0.1367689 0.13371077 -0.2411094 -0.3028218
000280 8c f7 87 3d d2 e6 c6 3d 30 c4 3a bd 3f cd c4 bd
       0.06639013 0.09711994 -0.045597255 -0.0960946
000290 60 df 36 3d b6 e7 80 be a2 f2 5b be 92 f1 0b be
       0.04464662 -0.2517678 -0.21479276 -0.1366637
0002a0 72 b9 3b be d6 aa 8f be f1 ef 8e 3e a8 0a 74 3e
       -0.1833246 -0.28060025 0.27917436 0.2383219
0002b0 01 b2 04 be a8 4c 32 3e d7 8a ad bd 28 e5 0c 3e
       -0.12958528 0.17412055 -0.08473747 0.13759291
0002c0 2c bc 82 3e 59 5c 03 3e 54 7c 88 be c1 e1 66 be
       0.2553419 0.12828197 -0.26657355 -0.22547056
0002d0 27 8d ec 3d b0 ef 30 3e 34 a1 2f 3e 59 17 67 3e
       0.1155036 0.17278934 0.17151338 0.225675
0002e0 55 32 84 be 36 66 13 3d 0c 73 08 3e 90 2b 4f 3c
       -0.2581965 0.035986148 0.13325137 0.012644663
0002f0 e3 a5 21 3e 79 93 21 be 89 dd 70 bd 18 88 09 3e
       0.15785937 -0.15778913 -0.058805022 0.13430822
000300 62 b4 0f bd 29 b7 23 3c 16 6c 30 be 47 47 29 3d
       -0.035084136 0.009992399 -0.17228732 0.04132774
000310 33 f2 4e be ca e1 54 be 7a d1 59 3c f0 f7 7b be
       -0.20209579 -0.20789257 0.013294572 -0.246063
000320 d1 98 8f 3e 9a fe 38 be f2 6b 97 be c9 3c 66 3e
       0.28046277 -0.18065873 -0.29574543 0.22484125
000330 fb 97 32 3e 1e 07 35 3d 4d 0e 32 be 6d 96 70 3e
       0.17440788 0.04419624 -0.17388268 0.23494883
000340 2c 88 86 be 59 c2 08 3e cd d2 45 be a0 25 84 be
       -0.26275766 0.13355388 -0.19318695 -0.25809956
000350 76 03 9e be fb 69 19 bd f2 3c 21 3e 23 ca 02 be
       -0.30862015 -0.037454586 0.15745905 -0.12772422
000360 f1 2c 95 3d 2a 54 9c 3d ac 84 7b be 7f c9 89 be
       0.072839625 0.076332405 -0.24562329 -0.26911542
000370 b7 62 34 bd 17 7a 15 be 42 93 5c 3d f3 ba 79 3d
       -0.044039454 -0.14597355 0.053851373 0.060969304
000380 a3 ff 2c bb 0f 5d 8d be 65 5b 61 3e 91 4c 89 be
       -0.0026397489 -0.2761006 0.2200752 -0.26816228
000390 62 5b a9 3d 9a 65 b9 bd 8d 23 0b be 7c b2 20 be
       0.08269383 -0.09052582 -0.1358778 -0.15693086
0003a0 8b 2b c1 3d 1d 60 79 3e 7e 08 e4 3a 37 2b 06 3e
       0.09432133 0.2435307 0.001739755 0.13102423
0003b0 54 d3 85 3e aa d5 67 be 34 78 26 bd c2 16 23 3e
       0.26137793 -0.226401 -0.04064198 0.1592665
0003c0 b5 24 36 3e 79 0f c8 bd a0 19 0f be 1d c9 92 3e
       0.1778744 -0.09768576 -0.13974619 0.28669062
0003d0 a3 c5 15 be 23 cd 4a be b5 a0 88 3e 11 ed 45 3c
       -0.14626174 -0.19804816 0.2668511 0.012080447
0003e0 1b 2f 70 be ec 40 84 3e fa 60 5d be ca e0 01 be
       -0.2345547 0.2583078 -0.21619025 -0.12683406
0003f0 c8 7d 97 3d e1 d9 38 bd 15 81 4f be e1 8b cb 3d
       0.07397038 -0.04512966 -0.20264085 0.09938789

b f4 [32]
000000 f7 9d e6 3b f9 b2 32 3c a0 e3 5c bc 7f 9c 9d 3b
       0.007037874 0.010906928 -0.013482004 0.0048099156
000010 01 68 fa b9 07 17 fe bb bd e9 e2 bb ee 09 ae 3c
       -0.00047761205 -0.00775421 -0.0069248364 0.02124497
000020 d9 df 0c 3c 38 80 4f 3c da 45 43 3b 01 8f 3a 3b
       0.008598291 0.012664847 0.0029796273 0.0028466585
000030 9b 9e 8f bb 67 18 56 3c f6 34 ae bb 31 9a 90 3c
       -0.004382921 0.013067341 -0.005316372 0.01765165
000040 ef 89 cb 3c 03 4d 97 bb 97 b6 7b bb 76 b4 29 bb
       0.024846045 -0.004617335 -0.0038408393 -0.0025894917
000050 67 19 85 bc da 06 90 bb f9 cf 9e bc d4 f8 32 3c
       -0.016247464 -0.004395348 -0.019386278 0.010923583
000060 25 d8 7f 3c 63 5a 06 3c 31 ee 4d bb b3 ec 01 bc
       0.015615498 0.008200261 -0.003142249 -0.007929969
000070 18 bc 4e bc 0d cb 82 3c 20 5a c9 bb 4e 9e 98 3c
       -0.012618087 0.015965963 -0.006144777 0.018630173

W f4 [32, 32]
000000 1f 0d 70 be 9c de 97 bd 4e 4c 5f be 94 06 1b 3e
       -0.23442505 -0.07415506 -0.21806452 0.15139228
000010 84 89 02 be b3 59 a5 3c e9 a7 19 bd 41 f0 98 3c
       -0.1274777 0.020184373 -0.037513647 0.01866925
000020 f3 5e 25 be a9 3d 30 be d2 e0 80 bd d4 91 95 3e
       -0.16149502 -0.17211021 -0.06292881 0.2921282
000030 d2 09 af 3d 5a 54 68 3d dd 7a cd 3c b5 d8 4b bd
       0.08546795 0.05672107 0.025083 -0.049767215
000040 f9 3a d2 3d c7 6c 63 3e 99 a1 a5 bd 4e 2f 92 be
       0.102651544 0.22209464 -0.08087463 -0.28551716
000050 12 69 8f be 15 ec 0f 3e 3b 46 da bc 08 5a f5 bd
       -0.2800985 0.14054902 -0.026644817 -0.11980063
000060 07 89 ff bd 9f 06 dd bd 73 ac 1a be 9b fa 72 3e
       -0.12477308 -0.107922785 -0.15104847 0.23728411
000070 47 80 6c be 53 70 5c 3d e8 56 5a 3e bf 81 56 be
       -0.23095809 0.05381806 0.21322215 -0.20947932
000080 dd a3 47 3e 5d 08 63 3e 8f b7 4b 3e 84 c7 81 be
       0.19496103 0.22171159 0.19894241 -0.2534753
000090 a5 e5 40 3e 5d 70 4a bd 20 7f 81 3b 0d b1 d8 3d
       0.18837602 -0.049423564 0.003951922 0.10580645
0000a0 07 4c 96 3e f6 e8 a3 bd 5a 05 0c 3e 75 40 9f 3e
       0.2935488 -0.08003418 0.13673916 0.31103864
0000b0 7f 4b 5f 3e ea 58 d6 3d 33 49 8b 3e 04 3f 9b 3e
       0.21806143 0.10466178 0.27204284 0.30321515
0000c0 13 2a 21 3e 44 0f a2 3d 0c 57 20 3e 48 00 5e be
       0.15738706 0.07913068 0.15658206 -0.21679795
0000d0 d4 78 81 be e9 6e 79 3d c9 1e f7 3d 05 c0 63 3e
       -0.25287497 0.060896788 0.12066419 0.22241218
0000e0 c1 81 34 be ec 17 93 3d f2 e5 83 bc 28 36 6c be
       -0.17627622 0.07182297 -0.016100857 -0.23067534
0000f0 66 d2 d5 3d 8e 7b 86 bd 6d 86 fd bd 05 48 1e be
       0.10440521 -0.06566535 -0.12379155 -0.15457161
000100 00 fa 44 3e 61 c9 f2 bd ea 9b 7a 3e e8 9a d4 3d
       0.19235992 -0.11854816 0.24473539 0.103811085
000110 ba bb 13 3d 8c c3 14 3e af 0c 0b 3e 49 6f 1c be
       0.036067702 0.1452772 0.13579057 -0.15276827
000120 d1 48 84 be b5 fa 8a bd 1e 8f 69 3e 27 3b 69 3e
       -0.25836805 -0.067861 0.22808501 0.22776471
000130 b0 aa b4 3d 11 42 98 3e 8f 93 80 be b6 a2 84 3e
       0.088216186 0.29737905 -0.25112578 0.2590539
000140 29 84 48 3e f0 58 80 3e bd 73 38 3c 3c 72 2b 3e
       0.19581665 0.25067854 0.011258063 0.16742796
000150 b7 4a c3 3d d3 4a 79 be c2 89 86 be f5 da 8a 3e
       0.09535735 -0.2434495 -0.26276976 0.27120176
000160 c8 16 82 3e 39 cd 0d be 79 5c 41 3e b7 be 46 be
       0.25408006 -0.13847817 0.18882932 -0.1940869
000170 65 fb 8d be 73 00 41 bd 22 72 9d be 67 66 6a 3d
       -0.2773086 -0.04711957 -0.3075114 0.057226565
000180 34 6a b9 bd 9e 2c b1 bc f9 f2 77 bd 08 cb 42 3e
       -0.0905346 -0.02162772 -0.06053445 0.19022763
000190 5d d5 54 3d be 76 69 3e b5 58 33 bd 61 7a 4c be
       0.05196129 0.22799203 -0.04378577 -0.19968559
0001a0 00 14 8f be 3a 17 cd 3d d9 d3 e2 bd 42 d8 90 3e
       -0.27944946 0.10014196 -0.11075563 0.28289992
0001b0 9b 86 06 3e b9 2a 5b be 80 43 fd 3d 8e db 83 3c
       0.13137285 -0.21403016 0.1236639 0.016095903
0001c0 d2 86 6c be 3c ef 9a bc 77 ae 88 be 5f a8 b2 3d
       -0.23098305 -0.018912904 -0.26695606 0.087235205
0001d0 87 ea 81 3e 60 31 40 be a8 e2 3e be ec d8 a4 3c
       0.25374243 -0.18768835 -0.1864115 0.020122968
0001e0 d9 cc 6b be e4 ca 2f 3e 83 68 c8 bb 59 23 51 be
       -0.23027362 0.1716724 -0.0061159744 -0.2042364
0001f0 7b ee 70 3e fe 59 5c be 01 b2 33 be 63 1c 87 be
       0.23528473 -0.21518704 -0.17548372 -0.26388845
000200 e0 0c 51 3e 86 74 fa 3c ee c5 e6 bd d7 12 6c 3e
       0.20415068 0.03057314 -0.11268221 0.23054062
000210 ef 24 83 be 04 50 58 be 6d aa 14 3c 99 2a 06 3e
       -0.25614116 -0.21124274 0.009073836 0.13102187
000220 2f f8 20 3e 96 ff 36 be 32 0e 20 3e e4 dd 5d 3d
       0.15719675 -0.17870936 0.15630415 0.05416669
000230 fb 72 90 3e bf df 73 3e b8 73 2a bc 99 aa 76 3d
       0.28212723 0.23815821 -0.010403566 0.06022129
000240 38 99 8a 3c 97 8d 9b 3d 22 05 79 3e 93 cf 74 be
       0.016918764 0.075953655 0.24318364 -0.23907308
000250 c9 08 94 3e 83 d3 06 3e 3b c1 19 bd ff f1 6b be
       0.28912953 0.13166623 -0.037537795 -0.23041533
000260 8b 8b 33 be 41 bb 96 3d 79 22 73 3e e5 f2 84 be
       -0.175337 0.073599346 0.23743619 -0.25966564
000270 49 df 72 be 93 c3 fa 3d 14 8a 80 be 30 1e 68 3e
       -0.23717989 0.12244334 -0.25105345 0.22667766
000280 6e 19 5c be 63 a3 e8 3d dd e8 8f 3e ca f0 a1 bd
       -0.21494076 0.113592885 0.28107348 -0.07907255
000290 06 b1 8a bb 42 b8 d0 bd 56 ad 68 3e 0d 6e 51 3e
       -0.0042325286 -0.101913944 0.22722372 0.20452137
0002a0 44 43 9f 3d 27 df be bd 70 98 37 3e 52 d7 49 ba
       0.07776502 -0.09319907 0.17929244 -0.0007699627
0002b0 14 57 b0 3d dc a8 85 be ac b3 4d be 13 23 8c 3e
       0.08610359 -0.26105392 -0.2008807 0.2737051
0002c0 36 37 b6 3d ed f4 51 3e 1c 7e 4e bc c8 b6 06 be
       0.088972494 0.20503588 -0.012603309 -0.13155663
0002d0 dd e8 34 3e e2 86 84 3e f3 68 14 3e 1c 5d e0 3d
       0.17666955 0.25884157 0.1449316 0.10955259
0002e0 89 c4 8a 3e fd 01 61 be ca 58 01 bc ef 4d 66 be
       0.2710307 -0.21973415 -0.007894704 -0.22490667
0002f0 fb ca 86 3d cc ed 36 3e 72 29 7b bd fa 75 b9 3d
       0.06581684 0.1786415 -0.061318822 0.09055705
000300 3c 0b 65 3e 65 b0 8f 3e 41 c0 c1 bc b8 c2 1c 3e
       0.22367567 0.28064266 -0.023651244 0.15308654
000310 f1 7c 50 3e 1f 15 2d 3e 05 4e 6c be 8e 0f bb 3b
       0.20360161 0.16902588 -0.23076637 0.0057086414
000320 ef 46 9d bc 00 e7 93 3e c9 c5 97 3e 8d 19 6f 3e
       -0.019198863 0.28887177 0.29643086 0.2334959
000330 72 66 a7 bd a1 61 48 3e ef ec c7 bd fa d8 78 3e
       -0.08173837 0.19568492 -0.09761988 0.2430152
000340 19 8d 5d 3e 1b 39 31 3e da 49 86 be 38 3d 23 be
       0.21635856 0.1730694 -0.2622822 -0.15941322
000350 f4 56 b9 b9 c1 da 32 3e c1 4d 8f 3d 3c f1 f7 bc
       -0.00035350735 0.1746626 0.06997252 -0.030266397
000360 b4 a9 88 bd f3 81 89 be 77 79 14 3e 99 64 88 3e
       -0.06672993 -0.26856956 0.1449946 0.2663925
000370 3b 7a 5b 3e c6 40 82 be 5e e0 2b be 36 f6 2d be
       0.21433346 -0.25440043 -0.16784808 -0.16988453
000380 6a 8e 8c 3e a7 a3 51 be 17 ba 22 be 26 92 20 3e
       0.27452403 -0.20472585 -0.158913 0.15680751
000390 53 3f 6b 3e 1c c0 2d 3d a0 48 fa bd 1e d1 94 3d
       0.22973375 0.042419538 -0.12220883 0.072664484
0003a0 c0 d5 2b 3c b0 56 d3 bc 15 9c 30 3e c2 4f 87 be
       0.010487974 -0.025798172 0.1724704 -0.26428038
0003b0 77 3c 9a bd 01 bb 35 be 24 bd 81 bd cb e2 99 be
       -0.07531064 -0.17747118 -0.06334904 -0.30055842
0003c0 d2 42 90 3d df 6f 9b 3e aa 9c 6a 3e cc 83 b2 bd
       0.07043995 0.30358788 0.22911325 -0.087165445
0003d0 78 da 18 3e 9f d9 5e be 70 02 6a 3d ae e5 c4 bd
       0.14927089 -0.21762703 0.05713123 -0.096141204
0003e0 68 0a d9 bb 3e ae 99 be ee 98 13 3e bb d0 81 3e
       -0.006623555 -0.3001575 0.14413807 0.2535456
0003f0 03 12 7a 3d af 73 00 3e 78 34 95 be 90 a4 97 3e
       0.061052334 0.1254413 -0.29141593 0.2961774

b f4 [32]
000000 10 e0 f4 ba c2 25 97 bb 60 73 6e 39 4e ce cc 3b
       -0.0018682498 -0.0046126554 0.00022740429 0.0062501794
000010 6f 89 82 bc c0 8f 18 3c ec fc 0d 3c 2e b1 13 3c
       -0.015934674 0.009311616 0.008666258 0.009014411
000020 9a ff ca 3a ac 06 61 3b 2b 95 6a bc 81 be 48 3a
       0.0015487552 0.0034336252 -0.014317791 0.0007657782
000030 d4 3a 13 bc e8 65 17 bc a3 fe 82 ba cb 20 76 3b
       -0.008986194 -0.009240605 -0.00099941 0.0037556167
000040 c4 df 0d bb f9 45 5e 3b 7a e4 f4 3a 1e 2f d0 b9
       -0.0021648267 0.0033916219 0.0018683814 -0.00039707957
000050 00 38 6b 3b 14 d7 4b bb 3f 45 9e 3b d7 da 32 3b
       0.0035891533 -0.0031103538 0.004830032 0.0027291083
000060 81 01 14 bc 64 a2 e2 ba 89 3d 5b 3b a6 56 59 bb
       -0.009033562 -0.0017290828 0.0033453426 -0.0033163219
000070 a6 fb 88 ba 46 03 b3 3b f0 2c 09 3c 62 3e a4 bb
       -0.0010450974 0.0054630367 0.00837253 -0.0050123194

W f4 [32, 32]
000000 93 e2 bc 3d f5 57 3a 3d 64 b2 03 3e 82 de 78 3d
       0.09222903 0.04549404 0.1286102 0.060759075
000010 e9 05 8a bd b1 6f ab 3d 8e ff 78 3c 9a d0 74 be
       -0.067394085 0.08370913 0.015197648 -0.239077
000020 36 2d 37 3e ea 03 a1 3e d1 83 2b 3e 10 bd 4c 3c
       0.1788834 0.314483 0.16749503 0.012496248
000030 e8 26 0c be ef c8 54 be 36 f5 9d 3d e8 39 82 be
       -0.13686717 -0.20779775 0.07712786 -0.25434804
000040 b6 a7 d1 bd e1 0f 80 be 9a 38 97 bd 5b 91 51 3e
       -0.102370664 -0.25012115 -0.07383843 0.20465605
000050 8c 2f 2d be d0 ad ba bd a4 6d 64 3e ec 3e 1c 3e
       -0.16912669 -0.09115183 0.2230745 0.15258378
000060 4f 8f 57 3e 7f 6a f6 3c cd e5 3b 3e 43 cc a1 bd
       0.21050762 0.030080078 0.18349381 -0.07900288
000070 67 37 5f be 83 81 98 be 40 5f 19 3e 30 e1 88 bc
       -0.21798478 -0.2978631 0.14977741 -0.01670894
000080 0b ad 07 3e fa f9 17 3c f6 ed cc bd 55 39 1a 3e
       0.13249604 0.009275908 -0.10006325 0.15060933
000090 b9 71 93 3e 13 ea 3f 3e 95 1a 62 3d 53 9f 5e 3e
       0.287977 0.18741636 0.05520113 0.21740465
0000a0 8d 40 88 be 94 53 df bd 11 23 1a bd f9 d4 7e be
       -0.26611748 -0.10904613 -0.0376311 -0.2488593
0000b0 5c a1 06 3e b5 64 26 be 19 56 b1 bb 85 e4 52 3e
       0.13147491 -0.16249354 -0.005411875 0.20594986
0000c0 95 72 8e 3e 58 8d e8 3d df 8e 3e 3d c5 0a c9 3d
       0.27821794 0.11355084 0.04652297 0.09816507
0000d0 8b 88 44 be 91 8b 84 3e 76 28 4f be dd 64 a0 bc
       -0.19192712 0.2588773 -0.20230278 -0.019579345
0000e0 e7 06 91 bd 16 6f 9a 3e 76 82 31 3e 44 43 a1 3c
       -0.07081395 0.30162877 0.17334923 0.019685395
0000f0 2f 5a 55 bd fe 70 75 3d 23 8d 83 bd a1 12 5c 3e
       -0.05208796 0.05992221 -0.06423404 0.21491481
000100 e4 7d 95 3e 24 e3 63 3d ac d8 48 3e 59 e9 85 3e
       0.2919761 0.05563654 0.19613904 0.26154593
000110 6a 7c 3e 3e 8a 58 56 be f4 d4 ca 3d ef 68 43 be
       0.18602148 -0.20932212 0.09903899 -0.19082998
000120 73 9b 0a be 16 49 34 be 45 e3 3e 3e 9d 58 9d be
       -0.13535862 -0.17606005 0.18641384 -0.3073167
000130 01 4f 31 3e 1f 66 ff 3c 4d f8 9b be eb 04 95 bd
       0.17315294 0.031176625 -0.30462876 -0.07276329
000140 e8 3b 96 be 2c 74 91 3d bb d2 9a be 13 4c b0 3d
       -0.2934258 0.07102236 -0.302389 0.0860826
000150 12 a2 ef 3d 09 ae f1 3c f3 d3 d5 3d 93 39 ac bd
       0.11700834 0.029501932 0.10440817 -0.08409419
000160 e5 61 86 3e 89 48 b2 3d 94 8e 3f 3d f2 02 90 3e
       0.26246563 0.08705241 0.046766832 0.28127247
000170 b3 56 ac 3c 3b 3a c9 bd dd c5 43 be 8e c8 27 3e
       0.021037435 -0.0982556 -0.19118448 0.163851
000180 c9 01 79 3e 23 55 92 be 19 1a 47 3e f8 4a d2 bd
       0.24317087 -0.2858058 0.19443549 -0.102682054
000190 f3 8c f0 bd fe a3 8a be b6 fa df bd 68 cd 8a bd
       -0.11745634 -0.2707824 -0.10936491 -0.067774594
0001a0 db e3 50 be 9d b6 22 be 8d ac 2e be 51 0f 58 be
       -0.2039942 -0.15889974 -0.1705801 -0.21099593
0001b0 e2 6f 6e bc 33 95 b3 3b ed aa 36 be 7a 20 4b be
       -0.014553042 0.0054804324 -0.1783864 -0.19836608
0001c0 f1 a6 56 be 39 d8 01 bd 5a aa f0 bd 13 87 95 be
       -0.2096212 -0.031700347 -0.11751242 -0.29204616
0001d0 30 d1 29 3e 5c aa 42 be e5 43 0d bd 8f 20 89 be
       0.16583705 -0.190103 -0.034488577 -0.26782653
0001e0 9a f8 18 3e e9 63 29 bd 81 5d d1 3d a1 bd 0d 3e
       0.14938584 -0.041355047 0.102229126 0.13841869
0001f0 d4 1a 9d be 7c e5 2d be 1f ed fe 3d 69 4f 8b be
       -0.3068453 -0.16982073 0.12447571 -0.27209023
000200 66 26 29 3e 34 71 66 3c 14 8b 25 3e ca 4c 3a 3e
       0.16518554 0.014065076 0.16166335 0.18193355
000210 d3 73 ce 3d bd f2 cd bc f2 8f e5 bc 26 aa 9a bd
       0.100806855 -0.02514016 -0.02802274 -0.075519845
000220 2b c4 1a be a0 4c c5 3d e1 9b 8c be 18 83 b0 3d
       -0.15113895 0.09633756 -0.27462676 0.08618754
000230 e4 82 9a bd 11 99 17 bc 1e f0 c1 bc f1 72 4c be
       -0.07544497 -0.0092528025 -0.023674067 -0.19965722
000240 4a 9f 43 3e 4b 33 6b bd 45 8e 0a 3d 72 6b 89 be
       0.19103733 -0.057421964 0.033827085 -0.26839787
000250 a1 bb 25 3d 25 66 92 3e 41 60 9f 3e 0f a4 c0 3d
       0.04046214 0.28593555 0.31128123 0.09406292
000260 ca 58 d2 bd 83 d6 85 3d ef f4 b3 3d e1 55 69 be
       -0.102708414 0.065350555 0.08786952 -0.22786666
000270 7d 66 b1 3d 7d 7a 48 be 00 2f 54 be 96 92 9b 3e
       0.08662126 -0.19577976 -0.20721054 0.30385274
000280 d5 ef de bd 22 94 c5 bd 88 cd c5 3d fe a6 25 3e
       -0.10885588 -0.09647395 0.096583426 0.16176984
000290 21 bc 2a 3e f1 51 31 be a0 92 3f be 46 e0 44 3e
       0.16673328 -0.17316414 -0.18708277 0.19226179
0002a0 2b 16 4d 3e 34 9d 8e bd 78 56 8f 3d aa ff 8f 3e
       0.20027988 -0.06963578 0.069989145 0.28124744
0002b0 51 13 49 3e cf ca 3d be 13 a2 2a be 1f 19 8f 3e
       0.19636275 -0.18534397 -0.16663389 0.27948853
0002c0 2d 08 da bd 88 3d 8f 3e bf 3e 70 3e b6 27 7b 3e
       -0.10646091 0.27976632 0.23461436 0.24526867
0002d0 ff 09 43 3e 0c 01 82 be 80 1f 9b 3e 83 a0 c9 bd
       0.19046782 -0.25391424 0.3029747 -0.09845068
0002e0 19 be af 3c 16 38 9a 3e 65 c7 1f bd 32 75 09 be
       0.02145295 0.30120915 -0.039008517 -0.13423613
0002f0 c3 57 02 3e 2e 80 52 be 18 6c d4 bd d2 c7 f1 bd
       0.12728791 -0.20556709 -0.1037218 -0.11805691
000300 63 25 57 be c3 d3 71 3e 5b b7 8c 3d 39 5b 95 3d
       -0.21010356 0.23615937 0.0687091 0.0729279
000310 1b d0 90 3e af 7b 7a be 1f 4a 1b be 5a 71 ac 3c
       0.28283772 -0.24461244 -0.15164994 0.021050144
000320 a4 cc 90 3e c7 87 99 3e ac b4 91 3d e8 90 16 3e
       0.28281128 0.29986402 0.071145386 0.14703715
000330 95 f4 70 be df d8 94 3e ac 6c 94 be 67 f0 62 bc
       -0.235308 0.2907171 -0.2898916 -0.013851262
000340 76 2e 43 3d 91 f8 80 bd 53 27 6c 3e a8 b2 5e be
       0.04765173 -0.0629741 0.23061876 -0.2174784
000350 33 32 02 3c ed 7b 39 be dc c9 85 3e c2 48 62 3e
       0.007946539 -0.1811368 0.2613057 0.22098067
000360 53 34 00 bc 00 db 82 3e f3 69 e7 bd a2 71 8e 3e
       -0.007824975 0.2555771 -0.11299505 0.2782107
000370 0f 87 2f be 89 a8 2a 3e d2 02 8e be 8f 6d 84 bd
       -0.17141365 0.16665854 -0.27736527 -0.06466209
000380 7c 82 a1 bd 32 a7 06 3e 51 f3 26 3c e0 4c cf bd
       -0.07886216 0.13149717 0.010189847 -0.101220846
000390 d9 9f 8e 3e b9 e8 5f be 79 39 63 3e fa 02 61 3e
       0.2785633 -0.2186612 0.22189893 0.21973792
0003a0 b7 ea 2f 3d 19 38 de 3d 1e 02 09 3d 52 92 e2 bd
       0.04294845 0.108505435 0.033449285 -0.11063065
0003b0 b5 15 35 bd f6 8a 9c 3e 7e 8e 96 3e f0 27 d5 bc
       -0.044210155 0.3057477 0.29405588 -0.02602002
0003c0 92 9a 26 3d 54 51 30 be 96 49 f9 bd c4 8b bf bd
       0.040674753 -0.17218524 -0.121722385 -0.0935283
0003d0 d0 79 56 be ae 22 97 bc 5e a7 5c be 1f c3 38 3d
       -0.20944905 -0.018449154 -0.2154822 0.045107957
0003e0 7b 71 9b bc 41 40 7a 3e 23 53 0f 3e 39 6f 4c be
       -0.01897501 0.24438573 0.13996558 -0.19964303
0003f0 c3 7d 9e bd aa 99 6e be 9c d3 69 be c6 f2 7c 3d
       -0.07738831 -0.23300806 -0.22834629 0.061754964

b f4 [32]
000000 50 08 00 3c 46 09 3f 3b 5c 58 99 bb d7 98 54 bb
       0.007814482 0.0029149815 -0.0046797227 -0.0032439732
000010 e8 d4 5e 3b 55 7d f1 3b de 77 33 3b ed 69 25 3c
       0.0034001414 0.007369677 0.0027384679 0.010096055
000020 41 cd 5c 3b ff 83 3c bc ba f5 c6 ba 29 26 66 3c
       0.0033691677 -0.01150608 -0.0015179433 0.014047184
000030 0f da 2e bb a5 2a 9d 3b 86 53 cd bb 3c 8d f7 bb
       -0.0026680266 0.0047963434 -0.0062660603 -0.0075546782
000040 4e bc 5e 3b 90 fb a3 ba e6 1b 8e 3a da a4 ce bb
       0.003398675 -0.0012510885 0.0010842055 -0.006306273
000050 85 8c e8 bc e8 13 13 bc 3d ca 08 3c 9c cb b6 bb
       -0.028387317 -0.008976914 0.008348999 -0.0055784713
000060 1c aa 1e 3c f1 af f9 3a d4 bf 5b 3c 62 73 9c 39
       0.009684112 0.0019049627 0.013412435 0.00029840606
000070 39 7c 83 3b fd ed c5 bb a0 7b 34 3c 55 df ee ba
       0.004012611 -0.0060403333 0.011015803 -0.0018224517

W f4 [32, 32]
000000 4f 1b 0d be e2 bb 68 be 98 c8 57 be 6e 1b 17 be
       -0.13779949 -0.22727922 -0.21072614 -0.14756557
000010 a1 90 25 bd d4 2f 24 bb c9 f6 c8 bd 29 7f 83 3e
       -0.040421132 -0.0025052922 -0.098126955 0.25682953
000020 b2 51 26 be 9f c2 81 bd d9 ab 8f be 7d 37 8e bc
       -0.16242102 -0.06335949 -0.28060797 -0.017360443
000030 0a d8 8c 3e e8 0d 47 3e b3 c8 25 be 8a a0 fd 3d
       0.27508575 0.19438899 -0.16189842 0.12384136
000040 b2 eb 7c 3d eb 02 90 3e 79 3e 9e be a9 d3 71 be
       0.061748214 0.28127226 -0.30907038 -0.23615898
000050 35 65 93 3e 07 88 40 be 09 7e 4c bd 36 a3 8f 3e
       0.28788152 -0.1880189 -0.049924884 0.28054208
000060 75 70 3d 3e 12 cc 36 be 79 d2 58 be 26 c3 8f 3d
       0.1849993 -0.17851284 -0.21174039 0.070196435
000070 66 71 34 be 77 29 37 be 7a 21 b5 bd ce fd be bd
       -0.17621383 -0.17886911 -0.08844276 -0.09325753
000080 64 6a 23 be 42 4b 20 be dd 2e 54 3d 8c 4f 87 be
       -0.15958554 -0.15653709 0.051802505 -0.26427877
000090 b0 b2 1d be 96 bc 6d be a4 fd 21 3e 16 3f 94 bd
       -0.15400195 -0.23216471 0.15819412 -0.07238595
0000a0 8f 1c 66 bd 8f 13 19 3c 32 73 03 be 57 e7 8e bd
       -0.05617958 0.009343042 -0.12836912 -0.06977718
0000b0 9d 72 7c 3e 3d fb c5 bd 40 ad 33 bd 41 05 8a be
       0.24653096 -0.096670605 -0.043866396 -0.26957133
0000c0 96 1e 66 3e 36 3e 07 be 2f 80 03 be 3e 0b 9b be
       0.22472605 -0.13207325 -0.12841867 -0.30282015
0000d0 45 c6 06 3e 83 95 16 3e 3c 72 87 be c2 e1 d2 bd
       0.13161571 0.14705472 -0.2645434 -0.10296966
0000e0 98 a5 9e 3e 61 97 81 3e 9f e5 32 be 85 48 0f 3e
       0.30985713 0.25310805 -0.17470406 0.13992508
0000f0 ec 77 99 be f6 02 d3 bd ef ff fb bd 26 42 90 be
       -0.29974306 -0.10303299 -0.12304675 -0.28175467
000100 f6 e3 b3 bd 00 34 cf 3d f0 41 e3 bd 27 ee 72 3e
       -0.087837145 0.1011734 -0.11096561 0.2372366
000110 a6 37 41 be 62 d2 97 bc 7e 63 19 3e c7 65 6d 3d
       -0.18868884 -0.018532936 0.1497936 0.05795839
000120 0a b1 38 3e 31 36 85 be 74 37 9e be 18 34 c6 bd
       0.18036285 -0.26017907 -0.30901682 -0.09677905
000130 f5 d6 11 3d 57 7a 37 3e 14 d8 bc bd 6a f7 66 3e
       0.03560539 0.17917763 -0.09220901 0.22555318
000140 79 06 83 be 9b 86 c2 ba 63 6d 39 3d ff 6c 03 be
       -0.25590876 -0.0014841141 0.045270335 -0.12834547
000150 a0 12 5e 3e 79 62 8d 3e 93 d5 74 bd 80 84 6c 3e
       0.21686792 0.2761419 -0.059773993 0.2309742
000160 00 8d bd 3d 27 3b 3c 3d 6d 69 91 3e dd 92 5e bd
       0.09255409 0.04595485 0.28400746 -0.05433928
000170 9a 82 50 be 0d cd cc bd 4d 9f 50 bc e5 36 17 be
       -0.2036232 -0.10000048 -0.012733293 -0.14767034
000180 69 46 f0 bd cb 9c 91 be 3e 71 b2 bd ce f0 8b 3e
       -0.1173218 -0.28439936 -0.087130055 0.27332157
000190 7b e5 a1 3e 76 13 7a be 2b 89 16 3d 11 2d 60 be
       0.31620392 -0.24421486 0.036751907 -0.21892191
0001a0 a2 9a 12 be d6 ae 30 ba 63 5a 9b bd 8e 94 bc bd
       -0.143168 -0.000673992 -0.07585599 -0.09208022
0001b0 61 33 d5 bd 46 9a 84 be 93 d7 8b be c3 91 83 3e
       -0.104101904 -0.2589895 -0.27312908 0.25697145
0001c0 48 b4 6d 3c f4 80 61 3e dd 92 1f 3e ab 6a 62 be
       0.014508314 0.22021848 0.15583368 -0.22111003
0001d0 7b 41 8a be ec 69 42 b8 0b 68 13 3e 46 1f 82 3c
       -0.27003083 -4.635185e-05 0.14395158 0.015884053
0001e0 f0 4b 3a be 67 66 d8 3d f1 d4 6a be 1b 27 42 bb
       -0.1819303 0.10566407 -0.22932793 -0.002962536
0001f0 e9 3d 9b 3d e6 77 c9 bd 55 54 fe 3d 54 06 e9 bc
       0.07580168 -0.09837322 0.12418429 -0.0284454
000200 66 71 44 3e 45 b8 90 3e e5 93 23 3e ef 3f c0 3d
       0.19183883 0.28265586 0.15974386 0.09387194
000210 47 65 ca 3c aa 33 f1 3c 03 be 1b 3e a4 e3 c6 bc
       0.024706496 0.02944358 0.15209202 -0.02427847
000220 a1 d9 a8 bd b7 1a 3a 3d da f2 07 3e a8 5b 3d 3e
       -0.082446344 0.045435634 0.13276234 0.18491995
000230 af 69 8f be 74 66 90 bb c1 c4 3b 3e 64 0f a0 be
       -0.28010318 -0.0044067446 0.18336774 -0.31261742
000240 4f 9e aa bd b1 c7 78 be d6 33 80 be 5c c5 16 be
       -0.08330976 -0.24294926 -0.25039548 -0.14723724
000250 73 7e 9a be cb cd 9d bd 7d 5a 0a be 7d 13 83 3e
       -0.30174598 -0.077052675 -0.13511081 0.25600806
000260 d9 e1 3d 3e 36 0d 85 3e 7e 9f 56 be 89 23 5b be
       0.18543185 0.25986642 -0.20959279 -0.21400274
000270 20 73 a2 3d d6 6c 60 3e 2f ca 65 be 4d 18 99 3d
       0.079321146 0.21916518 -0.22440408 0.07475338
000280 94 fb 61 be 7f 82 c9 3d bb 34 2c 3e 1c 33 ce bd
       -0.22068626 0.09839343 0.1681699 -0.10068342
000290 ea e6 8a 3e e1 22 63 be ac 89 f5 bc 70 5b 2f 3e
       0.27129298 -0.22181274 -0.029972874 0.17124724
0002a0 d7 da 0e be 8c fb 5d be fc ff c4 bd 07 e2 9d be
       -0.13950668 -0.21677989 -0.09619138 -0.30836508
0002b0 f2 fa 94 3e 0e 74 1b be b1 a9 a7 3d ef 9a 92 be
       0.29097706 -0.1518099 0.08186663 -0.2863383
0002c0 a3 06 fa bd cd 47 63 be c1 7e a5 bd 35 20 65 3e
       -0.12208297 -0.22195359 -0.08080817 0.22375567
0002d0 67 78 6a be fa cc 65 3e 73 c5 57 bc 63 30 7a be
       -0.22897492 0.22441474 -0.013169634 -0.2443252
0002e0 e5 fc f0 3d ad c1 2c be 25 1f c8 bc fe 0b 0f 3e
       0.11766986 -0.16870756 -0.024428913 0.13969418
0002f0 a6 c7 7d 3e b0 63 b3 3d 2b 96 8c be 2f 59 36 be
       0.24783191 0.08759248 -0.2745832 -0.17807458
000300 99 27 7e 3d 5b ca ed bc 2e 1c 8b 3e 42 c5 66 be
       0.062049482 -0.029027155 0.27169937 -0.22536185
000310 44 fc 35 be bc 5e 09 bd b3 22 b4 3c 65 38 4f bd
       -0.17772013 -0.03353761 0.021989202 -0.05059089
000320 01 e7 47 bd a2 1b 2a 3e f8 16 f3 3d 46 4d 26 bd
       -0.048804287 0.16612104 0.11869615 -0.040601037
000330 1c 67 7f 3c 9e 13 9b 3e b6 ad 1a 3d 15 b3 76 3c
       0.015588548 0.30288404 0.03776332 0.015057345
000340 f1 f3 8c 3e 9c b7 4b 3e 69 09 34 3e b0 1f 35 be
       0.27529863 0.1989426 0.17581715 -0.17687869
000350 f8 18 71 3e 2f 54 99 3e 1f b7 91 3e 30 3e 63 be
       0.23544681 0.2994704 0.28460023 -0.22191691
000360 71 74 5d 3d 6a 73 91 3e f5 64 36 be f1 47 82 be
       0.054066125 0.28408366 -0.1781195 -0.25445512
000370 a8 1d 93 3e e3 74 50 be 3d a7 82 be 1d b1 63 bc
       0.28733563 -0.20357089 -0.25518218 -0.013897208
000380 78 2a 40 3e 11 1a 02 be d9 01 67 3e 65 de 01 bc
       0.187662 -0.12705256 0.22559299 -0.007926558
000390 89 9d 9e 3e 15 77 1d bc 3a fa 99 3e 2b 18 a0 bd
       0.30979565 -0.009610911 0.3007372 -0.0781711
0003a0 3e ab c6 bd d1 75 8a 3e 2b 8e 43 3e e9 36 86 3d
       -0.097006306 0.27043012 0.19097202 0.06553442
0003b0 b9 ee 1f be 7c e7 7f be 02 d9 11 be 07 ef cd bd
       -0.15618409 -0.24990648 -0.14242938 -0.100553565
0003c0 95 77 80 bd 1c b3 65 39 ee 36 90 3d 0e e5 8a 3d
       -0.062728085 0.00021905865 0.07041727 0.0678197
0003d0 00 98 8d be b0 d5 96 3e dd 54 84 be 66 7b 41 3e
       -0.2765503 0.29459906 -0.25845996 0.18894729
0003e0 b6 70 c9 3d 8d 4a 6c 3e fb dc e0 bd 38 44 06 be
       0.09835951 0.23075314 -0.10979649 -0.13111961
0003f0 36 73 27 be 18 cb 41 be 08 39 5c 3d ee 3a 48 3e
       -0.16352543 -0.1892513 0.053765327 0.1955373

b f4 [32]
000000 ad 62 87 bb bd 6c 6c 3a 02 53 7e 3a c9 e3 41 bc
       -0.004131636 0.0009018889 0.00097017 -0.011834093
000010 66 7d 15 3c bc 61 27 ba 51 22 4d 3c e4 0c 6e bb
       0.009124136 -0.0006385108 0.012520389 -0.0036323601
000020 bf 45 53 3b f8 9f fe 3b e7 21 f8 bb c9 d4 42 bc
       0.0032237617 0.0077705346 -0.007572401 -0.011891552
000030 40 ed 5f 3c 2b 45 0a 3c ca 62 d2 3a cf a0 a8 bc
       0.013667405 0.0084393425 0.001605117 -0.020584492
000040 96 e3 3c bc 0d df 70 bc 4f a7 bc 39 37 d3 ee bb
       -0.01152887 -0.014701617 0.0003598281 -0.0072883624
000050 16 5b 45 3c 03 04 5a ba e6 f5 ae bb 8a 2f 84 3c
       0.012045642 -0.0008316638 -0.005339372 0.01613595
000060 85 8a a5 bc 86 10 0f bb f8 3b ee 3b 54 7d 59 bc
       -0.020207653 -0.0021829917 0.0072703324 -0.013274509
000070 89 83 84 3b 46 b0 89 3b 65 2b ad 3a e4 d7 97 3b
       0.0040440005 0.0042019216 0.0013211785 0.0046338905
