saved_models/model-epoch-52.pth (torch, 249162 bytes, 52 tensors)

embeddings f4 [99, 32]
0.2128695 -0.20083171 0.11755146 0.036009576 -0.05703801 -0.10132338 0.08519357 -0.17094488
-0.12129897 0.09132291 0.01995819 -0.17695524 0.1554961 -0.21097332 -0.013712365 -0.14806706
0.19907875 -0.07912342 0.16535728 -0.046046432 0.033549882 0.17327212 -0.08475664 -0.083637826
-0.20785633 -0.06150425 -0.16457088 0.12644832 0.16124408 0.17829356 -0.09368147 0.15567085
-0.013351978 0.096616454 0.10648738 -0.012576148 0.07914919 0.16872108 -0.114146486 -0.1972859
0.08236675 -0.08731078 0.00806511 -0.1833975 -0.020049984 -0.13155146 -0.1686122 0.056884885
0.1738409 -0.11960607 -0.09969528 0.13939558 -0.14583999 -0.099335454 0.17668648 0.115167946
0.030732505 0.09864397 -0.07962269 0.20624965 -0.1394938 -0.033449363 -0.059442088 0.19357248
-0.16739506 -0.048454285 -0.16033517 0.15762551 -0.11344638 -0.084971406 -0.14312808 -0.022784498
-0.206643 -0.118263155 0.05287909 -0.21023054 -0.054812364 0.116816916 0.03480519 0.058333986
-0.09449209 0.10222029 0.014829958 -0.1063964 0.19708782 -0.054723073 0.04633018 0.041888434
0.02151286 -0.14797853 -0.005480405 -0.009805255 -0.11338341 -0.03726264 0.01754197 -0.011377885
-0.21170251 0.038262367 -0.14380604 0.20071165 0.15036644 0.004802032 0.11596745 0.06468232
0.050966334 -0.09560555 0.002638791 0.003104544 0.16608585 -0.056606445 0.024899673 -0.09978866
-0.08006243 -0.053361632 0.09441556 0.098086886 -0.20300199 -0.06328123 -0.0022838125 0.10748981
-0.14289026 -0.10710978 0.20378226 -0.18926553 0.010149008 -0.06708226 -0.12704134 -0.18730702
-0.19997434 0.14900112 0.03378878 0.047896434 0.04745048 -0.14808145 -0.15229869 0.027481673
-0.052713722 0.15515536 0.020975469 0.15373999 0.012137846 -0.18745768 0.03616658 -0.15013565
0.1386969 -0.13977301 -0.17412974 -0.17039229 -0.14294143 0.1524437 0.0033123163 -0.17014849
-0.08405291 0.05891138 0.13177091 0.042461187 0.13332574 -0.077089116 0.20328477 0.07027564
-0.07490266 -0.044907205 0.0069531803 -0.14712541 -0.16704307 0.16938445 -0.09179274 0.14837229
0.18039475 -0.014398902 0.040888913 0.1783704 0.007978316 0.16898978 0.18481043 0.028337153
0.051162064 0.11363456 0.16834319 0.17355464 0.022008566 -0.12194525 0.17257278 0.1066329
-0.07661305 -0.20260787 -0.12876393 -0.03702655 0.19991066 -0.05994101 -0.19020179 0.157189
0.17390819 0.013445608 -0.15499468 -0.07356969 -0.13790841 0.18722175 -0.17242287 -0.05843231
-0.20348024 0.032563627 -0.019336557 0.07402493 -0.20190398 0.041237716 -0.19820143 0.1770407
-0.008959368 -0.19179478 -0.05128248 0.20309894 -0.04913929 -0.19377923 -0.17895167 -0.16140501
-0.0762045 -0.12484524 -0.17336136 0.02105119 -0.16964447 0.18534587 0.09504255 -0.13162671
0.025991958 -0.008678171 -0.15898731 0.16527712 -0.10435363 0.029330859 -0.13533953 -0.17353597
-0.021139769 0.15991585 -0.12379581 0.20997012 -0.007465876 0.10536897 0.12106339 0.10067368
0.0019959824 0.03470396 -0.06455053 0.16380863 0.19698614 -0.2089059 -0.079336956 -0.1691959
0.01103505 -0.1962057 -0.12419227 0.20560904 -0.027489685 -0.023389446 0.14481542 0.027165372
00000000: 76fa 593e d4a6 4dbe d2be f03d c77e 133d
00000010: b0a0 69bd a282 cfbd f779 ae3d 2d0c 2fbe
00000020: 986b f8bd 8107 bb3d 5c7f a33c c133 35be
00000030: 5f3a 1f3e 6409 58be d4a9 60bc e49e 17be
00000040: 4ddb 4b3e 760b a2bd 6b53 293e 2f9b 3cbd
00000050: 9a6b 093d 3f6e 313e e494 adbd 4f4a abbd
00000060: 4ad8 54be e1eb 7bbd 4585 28be ab7b 013e
00000070: 2b1d 253e 9692 363e 12dc bfbd 2e68 1f3e
00000080: 41c2 5abc d9de c53d 0e16 da3d 300c 4ebc
00000090: f818 a23d 38c5 2c3e a2c5 e9bd 5105 4abe
000000a0: e6af a83d ffcf b2bd 8623 043c 8ecc 3bbe
000000b0: dd3f a4bc 6db5 06be ada8 2cbe 2000 693d
000000c0: 5903 323e 07f4 f4bd 0a2d ccbd b7bd 0e3e
000000d0: 1457 15be 6370 cbbd 4ded 343e 2cdd eb3d
000000e0: bcc2 fb3c da05 ca3d 3911 a3bd 1c33 533e
000000f0: 76d7 0ebe 3302 09bd 8c79 73bd dd37 463e
00000100: 9c69 2bbe 0078 46bd e72e 24be 9568 213e
00000110: 9356 e8bd 7d05 aebd 2b90 12be 8ea6 babc
00000120: 399a 53be f433 f2bd bf97 583d ad46 57be
00000130: ee82 60bd b53d ef3d e38f 0e3d 9eef 6e3d
00000140: 1285 c1bd df58 d13d 5af9 723c 5be6 d9bd
00000150: 64d1 493e 4d25 60bd b7c4 3d3d 3593 2b3d
00000160: bd3b b03c af87 17be f894 b3bb 38a6 20bc
00000170: 9035 e8bd b6a0 18bd 2db4 8f3c 4f6a 3abc
00000180: 8bc8 58be 00b9 1c3d e441 13be 5b87 4d3e
00000190: a9f9 193e 5d5a 9d3b 5880 ed3d 2a78 843d
000001a0: 13c2 503d d8cc c3bd 91ef 2c3b 9b75 4b3b
000001b0: 6912 2a3e 29dc 67bd 66fa cb3c ff5d ccbd
000001c0: c5f7 a3bd ba91 5abd f25c c13d c7e1 c83d
000001d0: c1df 4fbe 9799 81bd 04ac 15bb 9e23 dc3d
000001e0: d351 12be 5f5c dbbd 4cac 503e d3ce 41be
000001f0: 0648 263c 6d62 89bd 2017 02be 69cd 3fbe
00000200: 13c6 4cbe c093 183e 1b66 0a3d 0d2f 443d
00000210: 6f5b 423d aaa2 17be 30f4 1bbe 3f21 e13c
00000220: 58ea 57bd 0ce1 1e3e bfd4 ab3c 046e 1d3e
00000230: d1dd 463c e8f4 3fbe 6823 143d 29bd 19be
00000240: 8f06 0e3e a820 0fbe 114f 32be 517b 2ebe
00000250: 3d5f 12be 341a 1c3e 7213 593b 683b 2ebe
00000260: ef23 acbd 0f4d 713d f4ee 063e c8eb 2d3d
00000270: 8b86 083e e6e0 9dbd e229 503e adec 8f3d
00000280: 9166 99bd 9ef0 37bd 81d7 e33b 0ba8 16be
00000290: 570d 2bbe 1e73 2d3e d5fd bbbd e8ee 173e
000002a0: 67b9 383e 5fe9 6bbc 227b 273d bba6 363e
000002b0: 7cb7 023c a80b 2d3e f23e 3d3e 5123 e83c
000002c0: 508f 513d 3cb9 e83d 2862 2c3e 4fb8 313e
000002d0: 4f4b b43c 6ebe f9bd ebb6 303e 5a62 da3d
000002e0: 4ee7 9cbd 7078 4fbe b1da 03be 27a9 17bd
000002f0: 61b5 4c3e b484 75bd 42c4 42be 27f6 203e
00000300: fd14 323e f84a 5c3c edb6 1ebe b5ab 96bd
00000310: dd37 0dbe 0fb7 3f3e 9f8f 30be b856 6fbd
00000320: 205d 50be 7061 053d b367 9ebc 629a 973d
00000330: ebbf 4ebe e1e8 283d 51f5 4abe 284a 353e
00000340: 50ca 12bc da65 44be 940d 52bd 2bf9 4f3e
00000350: 4846 49bd 106e 46be 1b3f 37be 5b47 25be
00000360: 1b11 9cbd dcae ffbd a485 31be 8c73 ac3c
00000370: 48b7 2dbe 4fcb 3d3e aba5 c23d 27c9 06be
00000380: 16ed d43c e32e 0ebc 92cd 22be 683e 293e
00000390: 5bb7 d5bd 4547 f03c 7296 0abe 6ab3 31be
000003a0: 4f2d adbc fbc0 233e a888 fdbd 6802 573e
000003b0: 4fa4 f4bb b0cb d73d 15f0 f73d 012e ce3d
000003c0: 07cf 023b bd25 0e3d 1133 84bd 73bd 273e
000003d0: bcb6 493e 6eeb 55be 6a7b a2bd b141 2dbe
000003e0: 5bcc 343c 26ea 48be 8458 febd 2d8b 523e
000003f0: 0c32 e1bc 399b bfbc 7e4a 143e ea89 de3c

_pos_embeds f4 [64, 32]
0.0 1.0 0.0 1.0 0.0 1.0 0.0 1.0
0.0 1.0 0.0 1.0 0.0 1.0 0.0 1.0
0.0 1.0 0.0 1.0 0.0 1.0 0.0 1.0
0.0 1.0 0.0 1.0 0.0 1.0 0.0 1.0
0.84147096 0.5403023 0.53316844 0.84600914 0.3109836 0.95041525 0.17689219 0.9842302
0.099833414 0.9950042 0.056204498 0.9984193 0.031617507 0.99950004 0.017781857 0.99984187
0.009999833 0.99995 0.0056233834 0.9999842 0.0031622723 0.999995 0.0017782785 0.9999984
0.0009999998 0.9999995 0.0005623413 0.9999998 0.00031622776 0.99999994 0.00017782794 1.0
0.9092974 -0.41614684 0.9021307 0.43146282 0.5911271 0.8065784 0.34820527 0.9374183
0.19866933 0.9800666 0.112231314 0.9936821 0.063203394 0.9980007 0.03555809 0.9993676
0.019998666 0.9998 0.011246589 0.99993676 0.0063245133 0.99998 0.0035565514 0.9999937
0.0019999987 0.999998 0.0011246824 0.99999934 0.0006324555 0.9999998 0.00035565588 0.99999994
0.14112 -0.9899925 0.9932532 -0.11596614 0.8126489 0.5827536 0.50853616 0.86104065
0.29552022 0.9553365 0.1679033 0.9858035 0.09472609 0.99550337 0.05332308 0.9985773
0.029995501 0.99955004 0.016869439 0.9998577 0.009486691 0.999955 0.005334813 0.99998575
0.0029999956 0.9999955 0.0016870232 0.99999857 0.0009486832 0.9999995 0.0005334838 0.9999999
-0.7568025 -0.6536436 0.77847177 -0.62767965 0.95358074 0.30113748 0.652828 0.7575062
0.38941833 0.921061 0.22304448 0.9748083 0.12615407 0.99201065 0.07107121 0.9974713
0.039989334 0.9992001 0.022491757 0.99974704 0.012648773 0.99992 0.0071130577 0.9999747
0.0039999895 0.999992 0.0022493633 0.9999975 0.0012649107 0.9999992 0.0007113117 0.99999976
-0.9589243 0.2836622 0.3239352 -0.94607925 0.99994653 -0.010342319 0.77652997 0.6300803
0.47942555 0.87758255 0.27748054 0.96073127 0.15745589 0.987526 0.08879686 0.99604976
0.04997917 0.99875027 0.028113361 0.99960476 0.01581073 0.999875 0.00889128 0.9999605
0.0049999794 0.9999875 0.002811703 0.99999607 0.0015811381 0.99999875 0.0008891396 0.9999996
-0.2794155 0.96017027 -0.23036748 -0.9731037 0.94714814 -0.32079646 0.8757406 0.482782
0.5646425 0.8253356 0.33103934 0.943617 0.18860029 0.98205394 0.106494434 0.9943133
0.059964005 0.99820054 0.03373408 0.99943084 0.018972527 0.99982 0.010669474 0.9999431
0.005999964 0.999982 0.0033740415 0.99999434 0.0018973654 0.9999982 0.0010669675 0.9999994
0.6569866 0.75390226 -0.71372116 -0.7004299 0.80042166 -0.5994374 0.9473307 0.32025698
0.64421767 0.7648422 0.38355157 0.92351943 0.2195561 0.9755999 0.12415834 0.9922624
0.06994285 0.997551 0.03935373 0.9992253 0.022134136 0.999755 0.012447635 0.9999225
0.006999943 0.9999755 0.003936379 0.99999225 0.0022135926 0.99999756 0.0012447953 0.9999992
00000000: 0000 0000 0000 803f 0000 0000 0000 803f
00000010: 0000 0000 0000 803f 0000 0000 0000 803f
00000020: 0000 0000 0000 803f 0000 0000 0000 803f
00000030: 0000 0000 0000 803f 0000 0000 0000 803f
00000040: 0000 0000 0000 803f 0000 0000 0000 803f
00000050: 0000 0000 0000 803f 0000 0000 0000 803f
00000060: 0000 0000 0000 803f 0000 0000 0000 803f
00000070: 0000 0000 0000 803f 0000 0000 0000 803f
00000080: a46a 573f 4051 0a3f ba7d 083f 0e94 583f
00000090: 3e39 9f3e 6a4e 733f 3a23 353e 83f6 7b3f
000000a0: 7675 cc3d 98b8 7e3f b036 663d 6898 7f3f
000000b0: 5c81 013d 3cdf 7f3f 42ab 913c a3f5 7f3f
000000c0: 57d6 233c b9fc 7f3f 5c44 b83b f7fe 7f3f
000000d0: 203e 4f3b acff 7f3f 2015 e93a e5ff 7f3f
000000e0: 6d12 833a f8ff 7f3f 166a 133a fdff 7f3f
000000f0: 5fcb a539 ffff 7f3f 5377 3a39 0000 803f
00000100: b7c7 683f 3311 d5be 0af2 663f b2e8 dc3e
00000110: 1b54 173f ec7b 4e3f f647 b23e a5fa 6f3f
00000120: f96f 4b3e a5e5 7a3f 88d9 e53d f361 7e3f
00000130: c870 813d f97c 7f3f 5ca5 113d 8ed6 7f3f
00000140: 3ed4 a33c e5f2 7f3f 9d43 383c dbfb 7f3f
00000150: dd3d cf3b b0fe 7f3f 0815 693b 96ff 7f3f
00000160: 6912 033b deff 7f3f 146a 933a f5ff 7f3f
00000170: 5fcb 253a fdff 7f3f 5377 ba39 ffff 7f3f
00000180: c381 103e 2670 7dbf d745 7e3f a87f edbd
00000190: c209 503f 572f 153f 6d2f 023f 296d 5c3f
000001a0: 6d4e 973e ef90 743f d8ee 2b3e 9e5d 7c3f
000001b0: c1ff c13d 4fd9 7e3f 4d69 5a3d c3a2 7f3f
000001c0: 20b9 f53c 83e2 7f3f c731 8a3c adf6 7f3f
000001d0: 116e 1b3c 0dfd 7f3f a8cf ae3b 11ff 7f3f
000001e0: 939b 443b b5ff 7f3f 1b1f dd3a e8ff 7f3f
000001f0: 0db1 783a f8ff 7f3f 7ed9 0b3a feff 7f3f
00000200: cfbd 41bf 3055 27bf ed49 473f 9daf 20bf
00000210: de1d 743f b12e 9a3e bc1f 273f edeb 413f
00000220: d761 c73e a7ca 6b3f c665 643e 098d 793f
00000230: 882e 013e 69f4 7d3f c88d 913d 475a 7f3f
00000240: dbcb 233d 94cb 7f3f a240 b83c 6cef 7f3f
00000250: cd3c 4f3c c2fa 7f3f a714 e93b 58fe 7f3f
00000260: 5812 833b 7aff 7f3f 0e6a 133b d6ff 7f3f
00000270: 5ccb a53a f3ff 7f3f 5277 3a3a fcff 7f3f
00000280: 107c 75bf 2c3c 913e d6da a53e 4032 72bf
00000290: 7ffc 7f3f d472 29bc abca 463f f14c 213f
000002a0: 4477 f53e 40a9 603f ee11 8e3e 7cf2 753f
000002b0: 1e3c 213e 81ce 7c3f 21db b53d 1efd 7e3f
000002c0: f5b6 4c3d 19ae 7f3f fe4d e63c 19e6 7f3f
000002d0: 8185 813c cff7 7f3f bbac 113c 69fd 7f3f
000002e0: ded6 a33b 2eff 7f3f 8c44 383b beff 7f3f
000002f0: 313e cf3a ebff 7f3f 2615 693a f9ff 7f3f
00000300: 8c0f 8fbe b8cd 753f 74e5 6bbe 531d 79bf
00000310: 4d78 723f 6f3f a4be 8930 603f 342f f73e
00000320: 698c 103f 3249 533f fd7d a93e e290 713f
00000330: 6f20 413e e367 7b3f c119 da3d 518b 7e3f
00000340: d19c 753d 128a 7f3f bf2c 0a3d b3da 7f3f
00000350: 466c 9b3c 34f4 7f3f 04cf 2e3c 45fc 7f3f
00000360: 599b c43b d2fe 7f3f 061f 5d3b a1ff 7f3f
00000370: 05b1 f83a e2ff 7f3f 7dd9 8b3a f6ff 7f3f
00000380: 4630 283f bdff 403f 6eb6 36bf 604f 33bf
00000390: 6fe8 4c3f bb74 19bf 4484 723f b9f8 a33e
000003a0: 73eb 243f b3cc 433f df60 c43e c56b 6c3f
000003b0: 50d3 603e eac0 793f ba46 fe3d e904 7e3f
000003c0: 323e 8f3d 815f 7f3f 6031 213d 3bcd 7f3f
000003d0: a652 b53c f2ef 7f3f 2af1 4b3c ecfa 7f3f
000003e0: c75f e53b 65fe 7f3f befc 803b 7eff 7f3f
000003f0: ec11 113b d7ff 7f3f 6628 a33a f3ff 7f3f

W f4 [32, 32]
0.15634105 -0.6278751 0.23279603 -0.0022902687 -0.22542916 -0.16251004 0.40030032 -0.24709783
-0.37327638 -0.3532342 0.3420768 -0.03740463 0.43662348 0.32048023 0.2933738 0.51252747
0.12740111 0.50081056 0.49378598 0.4622369 0.17948459 0.7488948 0.45358565 0.2984159
0.35027587 0.7035948 0.3421272 0.5174163 0.20971602 0.4410341 0.35675666 0.7290454
0.2712472 -0.11166573 -0.030547315 0.26761374 -0.4494465 -0.16541356 0.42751154 0.6346528
0.62098324 -0.74430186 -0.43013674 0.3765877 -0.29573885 0.03754524 -0.7294861 -0.72286975
-0.36150402 -0.6162306 -0.28557044 -0.32771483 -0.7020518 -0.75042415 -0.620771 -0.6164246
-0.5617061 -0.70209986 -0.39538634 -0.6700701 -0.47889212 -0.6530591 -0.8303876 -0.73396045
-0.016752101 0.63506174 -0.48967737 -0.348916 0.8086092 0.7079226 -0.5722948 -0.2977084
0.14376184 0.11085523 0.08427001 -0.5486272 0.43084946 -0.37254018 0.4758278 0.22048719
0.20528565 0.16319937 0.13428709 0.40439016 0.6784087 0.6109528 0.44740456 0.2531858
0.12675335 0.36897928 0.2616905 0.26793975 0.11545816 0.70294046 0.17941824 0.38669994
0.13238698 0.3971962 0.5013433 0.22477368 0.49625263 -0.0059533967 0.37525973 -0.27077287
0.3494324 -0.1964386 -0.52741766 0.32290265 -0.17325991 0.11061176 -0.0920263 -0.23328707
0.06321626 0.089268886 -0.41684908 -0.13949984 0.097892575 -0.47251132 -0.43344936 -0.13557868
-0.19560598 -0.21063034 -0.44696257 -0.24311101 0.08892931 -0.2490539 -0.01597969 -0.17444588
-0.27401915 0.07203646 -0.3555955 -0.030947153 -0.15878142 0.4229721 -0.5810516 -0.2348142
-0.07527678 0.5124685 -0.7062125 -0.27345768 0.39372236 -0.54551715 0.20459446 -0.005631771
0.09521645 -0.09410429 0.33566388 0.20014374 0.377442 0.043488067 0.23606084 0.29147705
0.033899844 0.32630134 -0.11733122 0.15843739 -0.003316177 -0.07993583 0.33251828 0.39217842
-0.123072416 -0.2315245 -0.4223792 -0.000489447 -0.46468347 0.19453205 -0.51219237 0.4608487
0.12705454 0.2689246 -0.3617455 0.38228193 -0.7031543 -0.54399467 -0.41594136 -0.53995293
-0.9851382 -0.58711654 -0.83867526 -0.29732952 -0.6294404 -0.71957725 -0.85516036 -0.6329133
-0.9063154 -0.5266835 -0.7290778 -0.36628094 -1.0037093 -0.56239694 -0.8181548 -0.61516887
0.42169005 -0.13647693 0.03931242 0.6468889 0.21732487 0.21330257 0.18487078 0.299436
-0.40382504 -0.23985142 0.16033287 0.14121902 0.047097895 0.16370037 0.08358167 0.1097753
0.13276507 0.08792699 -0.26406527 0.0052619404 -0.40966317 -0.20672286 -0.18557426 0.12890486
-0.28494227 -0.46245292 -0.21857403 -0.36406744 0.13763633 0.081467845 -0.13545544 -0.1987677
-0.2769404 -0.3294676 0.050957557 -0.2856893 -0.36188447 -0.19873646 -0.20741732 -0.48992077
0.33241695 0.19709441 -0.19123068 -0.11520484 -0.18352969 0.37250996 -0.09621768 0.31260282
0.20738365 -0.018174836 -0.2048133 -0.05379925 -0.022643762 0.11416569 0.17993997 -0.21245465
0.16676205 0.09792308 -0.12642775 0.124177165 -0.029822947 0.36506954 -0.16715862 0.14385502
00000000: de17 203e 6cbc 20bf 1562 6e3e 5518 16bb
00000010: e7d6 66be 0869 26be 2af4 cc3e 3707 7dbe
00000020: 151e bfbe 1ddb b4be b124 af3e 9935 19bd
00000030: 1d8d df3e fc15 a43e 1735 963e 0035 033f
00000040: 7075 023e 1f35 003f 84d1 fc3e 51aa ec3e
00000050: cfca 373e 92b7 3f3f 613c e83e f8c9 983e
00000060: 5c57 b33e ca1e 343f 4c2b af3e 6575 043f
00000070: ccbf 563e 39cf e13e cfa8 b63e b8a2 3a3f
00000080: eae0 8a3e 01b1 e4bd 5d3e fabc ab04 893e
00000090: da1d e6be 2c62 29be cbe2 da3e 9b78 223f
000000a0: c2f8 1e3f 918a 3ebf e23a dcbe 1ad0 c03e
000000b0: 156b 97be 0ac9 193d 9abf 3abf fe0d 39bf
000000c0: 0e17 b9be 4ac1 1dbf 4a36 92be 3dca a7be
000000d0: abb9 33bf cc1b 40bf d9ea 1ebf 01ce 1dbf
000000e0: f9cb 0fbf d1bc 33bf 1470 cabe b789 2bbf
000000f0: 5931 f5be e22e 27bf 4894 54bf d5e4 3bbf
00000100: b43b 89bc 6893 223f feb6 fabe 1ea5 b2be
00000110: 0301 4f3f 6a3a 353f e981 12bf 3c6d 98be
00000120: 4e36 133e 1108 e33d c195 ac3d d572 0cbf
00000130: 4d98 dc3e 96bd bebe b49f f33e 65c7 613e
00000140: 6736 523e bc1d 273e 8e82 093e 3a0c cf3e
00000150: 31ac 2d3f 6767 1c3f 3612 e53e 92a1 813e
00000160: a1cb 013e daea bc3e 4cfc 853e 662f 893e
00000170: 5475 ec3d e8f3 333f 6ab9 373e 89fd c53e
00000180: 7490 073e 4d5d cb3e 0958 003f 122b 663e
00000190: d314 fe3e b614 c3bb 0b22 c03e bea2 8abe
000001a0: cee8 b23e 3327 49be d804 07bf 7f53 a53e
000001b0: 0c6b 31be 6b88 e23d 4978 bcbd cee2 6ebe
000001c0: 8777 813d 9bd2 b63d 3e6d d5be 0cd9 0ebe
000001d0: e77b c83d 01ed f1be 13ed ddbe 23d5 0abe
000001e0: ef4c 48be 7baf 57be 47d8 e4be 18f2 78be
000001f0: 9220 b63d fc07 7fbe d7e7 82bc f1a1 32be
00000200: 3d4c 8cbe da87 933d 9d10 b6be e284 fdbc
00000210: 9997 22be cd8f d83e ccbf 14bf 2273 70be
00000220: b62a 9abd 2331 033f 58ca 34bf a502 8cbe
00000230: fa95 c93e 03a7 0bbf 3681 513e b88a b8bb
00000240: d800 c33d c0b9 c0bd 23dc ab3e 7bf2 4c3e
00000250: 1440 c13e 8b20 323d efb9 713e 7b3c 953e
00000260: 90da 0a3d f810 a73e 5a4b f0bd 693d 223e
00000270: 3854 59bb 65b5 a3bd d63f aa3e 9ccb c83e
00000280: 640d fcbd c214 6dbe 1642 d8be 3b4e 00ba
00000290: feea edbe 6933 473e 0a1f 03bf 5cf4 eb3e
000002a0: 961a 023e 7cb0 893e b536 b9be 75ba c33e
000002b0: ec01 34bf 3c43 0bbf 44f6 d4be 5b3a 0abf
000002c0: 0432 7cbf 454d 16bf 6cb3 56bf 933b 98be
000002d0: 0223 21bf 3736 38bf caeb 5abf 9b06 22bf
000002e0: 4904 68bf bbd4 06bf d8a4 3abf 2d89 bbbe
000002f0: 8c79 80bf 3ff9 0fbf 9872 51bf b57b 1dbf
00000300: c2e7 d73e 9cc0 0bbe 0f06 213d 839a 253f
00000310: 698a 5e3e fd6b 5a3e c44e 3d3e ad4f 993e
00000320: 28c2 cebe 9c9b 75be 4d2e 243e b89b 103e
00000330: b9e9 403d 12a1 273e de2c ab3d dfd1 e03d
00000340: 91f3 073e 1113 b43d 9033 87be 5b6c ac3b
00000350: 5fbf d1be 28af 53be 2e07 3ebe a3ff 033e
00000360: f4e3 91be a1c6 ecbe dfd1 5fbe 0c67 babe
00000370: 8af0 0c3e 9dd8 a63d d5b4 0abe c389 4bbe
00000380: 22cb 8dbe faaf a8be dfb8 503d de45 92be
00000390: ec48 b9be 9281 4bbe 3565 54be e5d6 fabe
000003a0: 8e32 aa3e 1ed3 493e fad1 43be 84f0 ebbd
000003b0: 35ef 3bbe a0b9 be3e c60d c5bd 7a0d a03e
000003c0: 615c 543e 65e3 94bc 94ba 51be 9a5c 5cbd
000003d0: 697f b9bc b4cf e93d 2f42 383e b68d 59be
000003e0: acc3 2a3e e58b c83d 4776 01be 9950 fe3d
000003f0: 414f f4bc 65ea ba3e a12b 2bbe bb4e 133e

b f4 [32]
0.48967186 -0.55094016 0.4335299 -0.16511519 0.10947105 -0.5071826 -0.16373773 0.09727569
-0.20602179 0.103122845 -0.20804718 0.36771816 -0.37224895 -0.23116203 -0.18059047 -0.36254042
-0.32396868 0.21108806 -0.2093563 0.1437183 -0.35710683 -0.34102243 -0.21979664 -0.35209098
0.2250039 -0.033426374 0.2599996 0.33943215 -0.4167581 0.30489072 -0.18314928 0.19258012
00000000: 45b6 fa3e 6a0a 0dbf a2f7 dd3e f513 29be
00000010: 5c32 e03d b8d6 01bf ddaa 27be 7a38 c73d
00000020: 60f7 52be 1232 d33d 520a 55be 8e45 bc3e
00000030: 6a97 bebe bdb5 6cbe b5ec 38be e69e b9be
00000040: 39df a5be 7827 583e 7f61 56be e42a 133e
00000050: b5d6 b6be 7e9a aebe 5f12 61be 4545 b4be
00000060: 6c67 663e 18ea 08bd ab1e 853e 0dca ad3e
00000070: 5161 d5be a31a 9c3e 7c8b 3bbe b933 453e

W f4 [32, 32]
0.03639721 -0.5810658 0.06607968 0.11552705 0.27090138 0.76326734 -0.38455656 -0.37669975
-0.33950594 0.22126235 0.07380638 -0.2930627 0.25288484 -0.03339936 0.44599777 0.26600215
0.06383024 -0.018614892 0.46405795 0.3867435 0.22370665 0.14944059 0.07123183 0.2641681
0.46793896 0.22298624 0.08073987 0.2320363 0.3035854 0.4273853 0.26800042 0.2779631
0.061885435 0.14084321 0.0051730243 -0.005215233 -0.0017619613 0.23249502 -0.7011804 0.062145717
0.28932348 0.5755368 -0.12744892 -0.107932925 -0.3752717 -0.585348 -0.36912093 -0.6030516
0.065328576 -0.11782165 0.18327029 0.07390025 -0.12649493 0.026963338 -0.042001396 -0.45582396
-0.24293084 -0.22690587 0.16100633 -0.22225781 -0.17750418 -0.45796323 0.090482436 -0.36654907
-0.17906469 0.51939285 -0.10285559 0.48820382 0.22880435 0.58190584 0.028500423 -0.10839112
0.5278735 -0.5218924 0.5219364 0.07615906 0.10397018 0.5126242 0.31018203 0.5000628
0.46409836 0.523548 0.3881742 0.17058896 0.4758083 0.11048785 0.2367388 0.38295126
0.09154001 0.45620283 0.30808705 0.1839089 0.13550226 0.25533706 0.49281567 0.5953172
0.16031267 -0.22151086 -0.054699935 0.11469304 0.56946826 -0.5229902 0.6081874 -0.31650168
-0.35042107 -0.35782972 0.29600698 0.2520961 0.7470675 0.43000838 0.12635735 0.46711767
-0.2469567 0.54726315 0.1280453 0.32913476 0.049500726 0.26259422 -0.29697362 0.7496814
-0.3243238 0.49709007 -0.12364364 0.2354793 -0.3467546 0.45484143 0.09441913 0.28520575
-0.47687212 0.100242585 0.6829481 0.79153556 -0.70006853 0.7305241 -0.39481035 0.47703633
0.8110054 -0.4743057 -0.70267963 0.59748465 -0.28792468 -0.30757508 -0.5043598 -0.9064503
-0.35382652 -0.5331143 -0.50014424 -0.44987044 -0.5776011 -0.3543076 -0.593997 -0.5893221
-0.8253536 -0.37312362 -0.6972272 -0.58205235 -0.82406694 -0.5512122 -0.5154577 -0.29695258
-0.4854737 0.012666526 0.2133679 -0.3011579 -0.41424537 0.03699144 -0.12995818 0.0072842003
0.051498067 -0.024407912 -0.061212096 0.36558992 -0.04901233 -0.2906459 0.014697731 -0.20138687
0.0050675026 -0.38580823 0.010799332 -0.11114533 -0.47787112 0.042132843 -0.15315413 -0.08080629
-0.22873911 -0.47026548 -0.16134068 -0.49396768 -0.058119606 -0.10599587 -0.48757362 -0.20906855
-0.3191555 -0.6769945 0.05346823 0.86386853 -0.07488567 0.14653808 -0.15134162 -0.335161
0.49243653 0.4049128 -0.4222738 -0.08031323 0.11660251 -0.306566 0.0048852433 -0.11120027
0.2924091 0.099993184 -0.21665813 0.15972438 0.08222625 -0.27502534 0.124553464 -0.13498858
0.19952345 0.023457915 0.12788582 0.0825598 0.28107777 0.12121933 -0.18261743 -0.07374422
0.13321379 0.16825208 0.067358464 0.4145306 -0.087886274 -0.22422482 0.12061977 0.50290966
-0.59485084 -0.15170538 -0.102468476 -0.53094405 -0.106267564 -0.49809292 0.19339088 0.09112629
-0.015084617 -0.30300277 0.28380454 0.15500255 -0.149561 -0.01705858 0.35890576 0.113100804
-0.018139523 -0.060380455 0.04772241 -0.14012273 0.36103684 -0.06767036 -0.17839369 0.029224692
00000000: 3e15 153d bac0 14bf c954 873d 7299 ec3d
00000010: 96b3 8a3e 7d65 433f 99e4 c4be cade c0be
00000020: b9d3 adbe 9992 623e cd27 973d 500c 96be
00000030: 1f7a 813e c4cd 08bd d259 e43e 6f31 883e
00000040: 6eb9 823d 427e 98bc 0199 ed3e 3e03 c63e
00000050: 5b13 653e f406 193e fee1 913d 0b41 873e
00000060: b295 ef3e 8156 643e f25a a53d ec9a 6d3e
00000070: 8c6f 9b3e 3fd2 da3e 5a37 893e 2e51 8e3e
00000080: 957b 7d3d 3439 103e 7982 a93b 8ce4 aabb
00000090: 9cf1 e6ba 2d13 6e3e 8f80 33bf 828c 7e3d
000000a0: 3522 943e 6156 133f f881 02be f00b ddbd
000000b0: 9d23 c0be 5ed9 15bf 6bfd bcbe 9761 1abf
000000c0: fdca 853d 7a4c f1bd 35ab 3b3e 0459 973d
000000d0: e387 01be 38e2 dc3c a809 2cbd c261 e9be
000000e0: ddc2 78be 035a 68be d8de 243e 8d97 63be
000000f0: a8c3 35be 287a eabe db4e b93d 52ac bbbe
00000100: bc5c 37be eef6 043f f4a5 d2bd daf5 f93e
00000110: b04b 6a3e c8f7 143f b879 e93c 2afc ddbd
00000120: b822 073f be9a 05bf a09d 053f 48f9 9b3d
00000130: 51ee d43d 573b 033f 2ed0 9e3e 1e04 003f
00000140: 4d9e ed3e 3e07 063f c5be c63e dfae 2e3e
00000150: 259d f33e 7447 e23d a86b 723e 3012 c43e
00000160: 5479 bb3d 6b93 e93e 96bd 9d3e 9d52 3c3e
00000170: 1bc1 0a3e 8abb 823e 5652 fc3e b566 183f
00000180: 0129 243e bed3 62be 0a0d 60bd 2fe4 ea3d
00000190: acc8 113f b0e2 05bf 2bb2 1b3f 820c a2be
000001a0: 646a b3be 7535 b7be 3a8e 973e bd12 813e
000001b0: d13f 3f3f 0f2a dc3e d263 013e 0c2a ef3e
000001c0: 38e2 7cbe 7019 0c3f 4f1e 033e 5a84 a83e
000001d0: 46c1 4a3d c072 863e ed0c 98be 1feb 3f3f
000001e0: c50d a6be 9782 fe3e e038 fdbd 7c21 713e
000001f0: d289 b1be fae0 e83e d15e c13d 7d06 923e
00000200: 9528 f4be fc4b cd3d b0d5 2e3f 13a2 4a3f
00000210: b137 33bf a103 3b3f 9524 cabe 1b3e f43e
00000220: 0d9e 4f3f 32d8 f2be d0e2 33bf c1f4 183f
00000230: dd6a 93be 7b7a 9dbe b91d 01bf 200d 68bf
00000240: c028 b5be 2e7a 08bf 7409 00bf 6b55 e6be
00000250: aadd 13bf ce67 b5be 3010 18bf d0dd 16bf
00000260: 604a 53bf 0f0a bfbe 7b7d 32bf 6201 15bf
00000270: 0df6 52bf 3e1c 0dbf 09f5 03bf 2b0a 98be
00000280: 0290 f8be 4387 4f3c 1d7d 5a3e 5e31 9abe
00000290: f817 d4be 5684 173d c213 05be 4db0 ee3b
000002a0: a3ef 523d 1af3 c7bc 89b9 7abd 9a2e bb3e
000002b0: 27c1 48bd 8acf 94be c0ce 703c 5c38 4ebe
000002c0: 4b0d a63b a888 c5be aeef 303c 2aa0 e3bd
000002d0: 86ab f4be 7d93 2c3d 70d4 1cbe c57d a5bd
000002e0: 963a 6abe a3c6 f0be 7e36 25be 55e9 fcbe
000002f0: d30e 6ebd 5d14 d9bd 40a3 f9be 1116 56be
00000300: 5a68 a3be 834f 2dbf 8101 5b3d 7d26 5d3f
00000310: a85d 99bd 140e 163e 4cf9 1abe 399a abbe
00000320: a420 fc3e bb50 cf3e 4634 d8be 437b a4bd
00000330: 4ccd ee3d 38f6 9cbe 6414 a03b f8bc e3bd
00000340: a5b6 953e 3ac9 cc3d a1db 5dbe ca8e 233e
00000350: 3c66 a83d 1fd0 8cbe e315 ff3d 723a 0abe
00000360: e04f 4c3e d02a c03c 80f4 023e 1d15 a93d
00000370: 6de9 8f3e d741 f83d 1000 3bbe 3607 97bd
00000380: 3269 083e 464a 2c3e 3cf3 893d 5b3d d43e
00000390: b8fd b3bd 319b 65be 7f07 f73d b0be 003f
000003a0: 2548 18bf a858 1bbe feda d1bd f3eb 07bf
000003b0: cfa2 d9bd 0906 ffbe 4208 463e 6ca0 ba3d
000003c0: 7825 77bc 2e23 9bbe d44e 913e fdb8 1e3e
000003d0: 8526 19be 6fbe 8bbc 7fc2 b73e 65a1 e73d
000003e0: 5699 94bc 7f51 77bd 9378 433d 557c 0fbe
000003f0: d2d9 b83e c296 8abd d6ac 36be 9f68 ef3c

b f4 [32]
0.28946623 -0.19719987 0.33651164 0.44491887 -0.6000143 -0.22292565 0.013430028 -0.06984445
0.36088893 0.13080487 -0.21668352 -0.3505436 0.41982374 0.17096055 0.27397817 -0.22543834
-0.376665 -0.20634043 -0.34584802 0.22161525 0.17587698 -0.32363647 -0.35711223 0.40987915
-0.29520202 0.24306434 0.35593837 0.4814045 -0.15379454 -0.10999006 -0.23825444 0.33352664
00000000: eb34 943e c3ee 49be 414b ac3e 68cc e33e
00000010: 8a9a 19bf 9f46 64be 9f09 5c3c 9b0a 8fbd
00000020: 6fc6 b83e b6f1 053e 49e2 5dbe 737a b3be
00000030: 23f3 d63e 4810 2f3e de46 8c3e 4fd9 66be
00000040: 3cda c0be e84a 53be fe12 b1be 1cef 623e
00000050: 1819 343e aeb3 a5be 6ad7 b6be aedb d13e
00000060: b824 97be dce5 783e 8e3d b63e a77a f63e
00000070: 517c 1dbe 7842 e1bd f9f8 73be 01c4 aa3e

W f4 [32, 32]
0.64905554 -0.6651379 -0.00065677415 0.4028345 -0.0646749 -0.31309426 0.5855777 -0.44839668
0.53235584 -0.3992984 0.64441115 0.10820793 -0.11563929 0.15537612 -0.29493594 -0.3086428
-0.15079948 -0.39634198 -0.22972474 -0.20629862 -0.67906755 -0.013251616 -0.19269158 -0.18558845
-0.53525263 -0.45475253 -0.22155945 -0.3009492 -0.12535334 -0.56567895 -0.23157135 -0.24919486
-0.23701464 -0.36881346 -0.17500101 0.21138974 -0.38840175 0.020179952 -0.3825595 0.12069698
0.30829766 -0.057287276 0.3292731 0.40102106 0.010398758 0.10860826 0.052272074 -0.09823085
-0.079383865 -0.14476702 0.25756347 -0.110777386 0.056829374 0.21736546 -0.26172978 0.38673344
0.05881864 0.120120876 0.0010088431 -0.15291144 0.20319672 0.25453284 -0.046749797 0.058378443
-0.12151556 0.11269029 -0.5194192 -0.14206304 -0.021027284 0.6110587 -0.67594975 -0.66414714
0.44876444 -0.06266322 0.7915627 -0.5955296 0.7814354 0.63792336 0.4985558 0.6570683
0.53324836 0.39106712 0.43669477 0.4465661 0.3871535 0.7946079 0.49028352 0.7949138
0.5745344 0.47894946 0.24409127 0.7639716 0.5105268 0.28296533 0.27941245 0.72351897
-0.47121546 0.2557132 -0.23954406 -0.23180945 0.46308196 0.430187 -0.33820075 -0.42421296
-0.22615746 0.1749034 0.23204415 -0.30348444 0.37227374 -0.004026725 0.295696 0.64775443
0.36176652 0.4162057 0.2175301 0.44589645 0.38753104 0.5521059 0.44102895 0.5846429
0.61268085 0.30949706 0.22357169 0.48952565 0.633982 0.34444404 0.21725544 0.5717105
0.3695071 -0.16691561 -0.19429661 0.1533745 0.63466287 0.2787624 0.1451468 -0.27279177
0.56858873 -0.29905108 -0.25809938 0.6903611 -0.37120587 0.102536134 -0.38834468 -0.6373691
-0.64579076 -0.58136463 -0.21189381 -0.713218 -0.5784259 -0.63119775 -0.17565408 -0.4609402
-0.18485482 -0.51749814 -0.5116461 -0.1971664 -0.3429724 -0.63571197 -0.7300478 -0.55178183
-0.012960924 0.038633313 0.37690556 -0.5440791 0.16739734 0.30724698 0.22528493 -0.271965
-0.3093672 -0.32150754 0.01267957 0.10759215 0.27657405 0.4431327 0.20965853 -0.026261851
0.30731666 0.24980293 0.283437 0.47421098 0.3891561 0.1368971 0.46211654 0.36193696
0.037617017 -0.089970954 0.20926552 0.2685728 0.0066367015 0.34695867 0.1993626 -0.008154713
-0.15789612 0.04840908 0.6611699 0.37392798 0.6283344 -0.22176977 0.44092676 0.49355578
-0.64023554 0.22937015 -0.35850814 0.29588127 -0.3181072 -0.67417586 -0.22153258 -0.29001215
-0.24418707 -0.1556192 -0.08788478 -0.13606904 -0.16619438 -0.2252915 -0.20301938 -0.31612882
-0.20772974 -0.034227684 -0.017387763 -0.49038208 -0.08787855 -0.17473137 -0.17485537 -0.2887859
-0.23802383 -0.0035158144 -0.005586362 -0.36882854 0.25489363 0.004319586 -0.30852643 0.41813418
0.11450964 0.08845379 -0.32826504 -0.5213623 0.53396 -0.26389197 0.589571 0.336816
0.32661727 0.43064147 0.630178 0.3423434 0.27673838 0.32401946 0.21386491 0.1434512
0.12018811 0.5632735 0.5520697 0.23987132 0.45189008 0.17349164 0.3735166 0.5754838
00000000: 8128 263f 7a46 2abf 5e2b 2cba 5340 ce3e
00000010: 4674 84bd e44d a0be 6ce8 153f 4094 e5be
00000020: 7948 083f d770 ccbe 21f8 243f 1f9c dd3d
00000030: 4bd4 ecbd eb1a 1f3e d801 97be 6e06 9ebe
00000040: 2e6b 1abe 56ed cabe f63c 6bbe f23f 53be
00000050: 5fd7 2dbf 4e1d 59bc f150 45be e60a 3ebe
00000060: 5106 09bf 53d5 e8be 7be0 62be 0316 9abe
00000070: a05c 00be 56d0 10bf 0a21 6dbe f02c 7fbe
00000080: f7b3 72be 1ed5 bcbe 7733 33be 8d76 583e
00000090: 98dc c6be 6d50 a53c d7de c3be fa2f f73d
000000a0: 31d9 9d3e 10a6 6abd 7c96 a83e a252 cd3e
000000b0: 8d5f 2a3c 026e de3d 3e1b 563d 422d c9bd
000000c0: 0294 a2bd ce3d 14be 5cdf 833e 41df e2bd
000000d0: ebc5 683d 0d95 5e3e 7201 86be ed01 c63e
000000e0: d0eb 703d ef01 f63d 283b 843a d194 1cbe
000000f0: cd12 503e 2152 823e b77c 3fbd 3c1e 6f3d
00000100: 26dd f8bd 2bca e63d a8f8 04bf f978 11be
00000110: 6941 acbc 586e 1c3f 0b0b 2dbf 8c05 2abf
00000120: 74c4 e53e 9355 80bd daa3 4a3f a174 18bf
00000130: 260c 483f f24e 233f b542 ff3e a135 283f
00000140: f782 083f f339 c83e 7596 df3e 50a4 e43e
00000150: fc38 c63e 6c6b 4b3f 7106 fb3e 797f 4b3f
00000160: b014 133f dd38 f53e 10f3 793e a593 433f
00000170: e2b1 023f d5e0 903e 260f 8f3e 8a38 393f
00000180: 2743 f1be d7ec 823e 0a4b 75be 755f 6dbe
00000190: 1419 ed3e 7841 dc3e a628 adbe 7132 d9be
000001a0: d295 67be e019 333e fb9c 6d3e 5062 9bbe
000001b0: aa9a be3e 9ef2 83bb 7765 973e 3cd3 253f
000001c0: 7639 b93e ea18 d53e 36c0 5e3e 8a4c e43e
000001d0: 786a c63e d056 0d3f 8cce e13e 28ab 153f
000001e0: a7d8 1c3f 6676 9e3e faef 643e 1ba3 fa3e
000001f0: a54c 223f f85a b03e 3678 5e3e 9f5b 123f
00000200: 0930 bd3e edeb 2abe b1f5 46be 340e 1d3e
00000210: 4479 223f f2b9 8e3e 5da1 143e 5dab 8bbe
00000220: 088f 113f 391d 99be 9a25 84be 81bb 303f
00000230: b20e bebe 77fe d13d 1dd5 c6be 9f2a 23bf
00000240: 8b52 25bf 50d4 14bf b1fa 58be 7495 36bf
00000250: b813 14bf 2d96 21bf aade 33be 5b00 ecbe
00000260: 954a 3dbe c27a 04bf 3dfb 02bf fde5 49be
00000270: 149a afbe 05be 22bf 6ae4 3abf 9341 0dbf
00000280: 0e5a 54bc f73d 1e3d c4f9 c03e c548 0bbf
00000290: 356a 2b3e 7a4f 9d3e 18b1 663e ff3e 8bbe
000002a0: 6165 9ebe a39c a4be f9bd 4f3c 4659 dc3d
000002b0: 1d9b 8d3e 4ae2 e23e bab0 563e 1823 d7bc
000002c0: 9c58 9d3e 57cc 7f3e a81e 913e c8cb f23e
000002d0: 783f c73e c12e 0c3e 8a9a ec3e cd4f b93e
000002e0: 4d14 1a3d b142 b8bd b349 563e 6082 893e
000002f0: b078 d93b 91a4 b13e b625 4c3e 589b 05bc
00000300: 85af 21be 9948 463d 6e42 293f 7d73 bf3e
00000310: 86da 203f 9d17 63be 27c1 e13e 58b3 fc3e
00000320: 7ae6 23bf 02e0 6a3e 618e b7be c07d 973e
00000330: f2de a2be ca96 2cbf 70d9 62be 797c 94be
00000340: 2d0c 7abe a45a 1fbe effc b3bd af55 0bbe
00000350: dc2e 2abe d1b2 66be 50e4 4fbe a3db a1be
00000360: 1bb7 54be 5432 0cbd c870 8ebc 5c13 fbbe
00000370: abf9 b3bd c8ec 32be 490d 33be bfdb 93be
00000380: 85bc 73be 9469 66bb cd0d b7bb 18d7 bcbe
00000390: 6b81 823e 508b 8d3b 2df7 9dbe af15 d63e
000003a0: 0884 ea3d 4327 b53d 5b12 a8be 0078 05bf
000003b0: 9ab1 083f d91c 87be 20ee 163f 2673 ac3e
000003c0: 613a a73e 0a7d dc3e 5853 213f a247 af3e
000003d0: a7b0 8d3e e1e5 a53e 67ff 5a3e dfe4 123e
000003e0: 2f25 f63d b132 103f 7154 0d3f d4a0 753e
000003f0: 235e e73e cba7 313e 913d bf3e e852 133f

b f4 [32]
-0.2821613 0.11687833 0.4864791 0.3871266 -0.44419435 0.19609615 -0.34299248 0.40792805
0.31418633 -0.21976012 0.20134856 0.1355014 0.24346371 0.33279347 0.22845908 -0.32487047
-0.31046888 0.33694553 -0.3304153 -0.24498099 -0.14581598 -0.3316 0.17885385 0.3333913
0.3891789 -0.028601859 -0.27090588 -0.3230776 -0.0007245075 -0.20746008 0.34667876 -0.3676218
00000000: 7277 90be e85d ef3d ca13 f93e 7535 c63e
00000010: 716d e3be 6ecd 483e b69c afbe f2db d03e
00000020: 08dd a03e cc08 61be 512e 4e3e e1c0 0a3e
00000030: 8d4e 793e e863 aa3e 2df1 693e 6c55 a6be
00000040: c7f5 9ebe 2084 ac3e 322c a9be 4cdc 7abe
00000050: c950 15be 7ac7 a9be 7725 373e 44b2 aa3e
00000060: 7542 c73e 724e eabc 2db4 8abe 6d6a a5be
00000070: e0ec 3dba 6a70 54be e17f b13e ed38 bcbe

W f4 [32, 32]
-0.24229085 0.61209625 0.038007304 0.14784113 0.44197065 0.44270667 0.10250493 -0.27876902
-0.09902049 0.473383 -0.30727422 -0.3336869 0.663423 0.53108597 0.11217432 -0.0558959
-0.0910467 0.11938619 -0.1762064 -0.38882735 -0.03584305 0.50303596 0.15359549 0.52347076
-0.107204154 0.23006207 -0.32206824 -0.32811537 0.20002759 0.7049825 -0.30781594 0.17495197
-0.040595673 -0.66570336 0.46785456 0.054319244 -0.40700004 0.28695038 0.16576815 -0.14458898
0.47058868 -0.6365975 0.031103978 0.4455819 -0.07869592 0.35415486 0.060834505 -0.43974414
0.29399264 -0.6387781 0.4538452 0.5944139 -0.17654662 -0.0325828 0.3648845 -0.23870657
0.2644619 0.015687196 0.014353923 0.15297402 -0.31450436 -0.07689239 0.37068376 -0.6440349
0.496829 -0.29407442 0.6360735 -0.34919646 -0.3925533 -0.5573837 0.34385446 -0.3860455
-0.03500306 -0.29718736 0.57368034 -0.049899332 -0.43995056 -0.51594734 -0.07779398 -0.3599984
-0.15453985 -0.5219411 0.36616817 -0.23458758 -0.1033715 -0.24592128 0.14647256 0.04242637
-0.21056719 -0.5203682 0.6476464 -0.12808102 -0.29644784 0.1951933 0.023425512 -0.031960696
0.47497895 -0.58765453 0.46927488 -0.06551718 0.21115503 0.55522573 -0.31621993 0.49311915
0.11994768 -0.30859852 0.2709978 0.23290399 0.20001021 0.51064277 -0.60014606 0.22269468
0.14404075 0.03833064 0.2744489 0.39125484 0.4363365 0.23302144 -0.2323767 0.36677042
0.3171982 -0.075871445 -0.12357254 0.38518208 0.12689272 -0.004315628 -0.26244673 0.067887016
-0.41293377 0.4934992 -0.3809981 -0.36319202 -0.08191873 -0.016914392 0.30525982 -0.59635043
-0.09833903 0.37177208 -0.014091079 0.111817926 -0.12488246 -0.30973598 0.48575422 -0.20711651
-0.40796226 0.61100996 0.5508455 -0.42260188 -0.41188288 -0.28689882 0.47814897 -0.19509448
-0.19843234 0.057599984 0.51996166 -0.25391996 -0.47008246 0.04245607 0.2378675 -0.3263388
0.4651125 0.16431981 0.23671311 -0.22006702 -0.19174406 0.07241649 0.45254582 -0.349716
-0.657012 0.20559306 -0.08309806 -0.5021512 -0.48243916 0.28593552 0.31682214 -0.33104274
-0.8724302 0.020105325 0.35867548 -0.4118355 -0.41527602 0.07086327 0.613419 -0.0548002
-0.78805745 0.47408462 -0.4298168 -0.48625478 -0.50691223 0.51588047 0.5843784 -0.18480352
0.24030964 -0.07732785 0.3718947 0.4277532 0.14429551 -0.35410833 0.029831974 -0.36303416
0.2418921 0.08703085 0.12039506 -0.07216708 -0.21819036 -0.31813297 -0.09915628 -0.41513246
0.73832947 0.34273282 0.45087463 0.13776056 -0.35969397 0.0018995404 0.26375583 -0.3477945
0.41796172 0.43067208 0.83979625 -0.24307193 -0.20003596 0.65650827 0.1865363 -0.0992714
-0.6785535 -0.42043346 -0.38517886 0.11673531 0.03897538 -0.16882494 -0.006829861 0.27168572
0.1595695 -0.55175567 -0.67196864 0.032131143 0.6203448 -0.06372966 -0.31799608 0.61403596
0.2862224 -0.21119457 -0.21818647 0.11182211 0.54154867 -0.34255254 -0.12583314 0.1425409
-0.49321288 -0.5725479 -0.24429283 0.45502207 0.1643023 -0.10084413 -0.17558345 0.29766095
00000000: 181b 78be 57b2 1c3f 8cad 1b3d aa63 173e
00000010: fa49 e23e 73aa e23e 1bee d13d d0ba 8ebe
00000020: 41cb cabd 425f f23e 0c53 9dbe 02d9 aabe
00000030: 17d6 293f 40f5 073f a6bb e53d 19f3 64bd
00000040: b176 babd bf80 f43d 736f 34be 6114 c7be
00000050: 29d0 12bd f7c6 003f 2348 1d3e 2e02 063f
00000060: da8d dbbd 6495 6b3e 21e6 a4be bdfe a7be
00000070: 08d4 4c3e bc79 343f 0d9a 9dbe 9c26 333e
00000080: a647 26bd 896b 2abf a28a ef3e db7d 5e3d
00000090: 4f62 d0be 29eb 923e 20bf 293e 220f 14be
000000a0: 00f1 f03e 0ef8 22bf c5cd fe3c 5023 e43e
000000b0: 542b a1bd c953 b53e 9a2d 793d 2526 e1be
000000c0: 3486 963e f686 23bf 665e e83e 822b 183f
000000d0: a3c8 34be 8b75 05bd 24d2 ba3e 7f6f 74be
000000e0: 8d67 873e 6f82 803c b72c 6b3c 39a5 1c3e
000000f0: b706 a1be c279 9dbd 43ca bd3e 79df 24bf
00000100: 5f60 fe3e ec90 96be b7d5 223f e1c9 b2be
00000110: bffc c8be b3b0 0ebf b10d b03e c1a7 c5be
00000120: 5e5f 0fbd f128 98be b7dc 123f 3e63 4cbd
00000130: 3341 e1be 2015 04bf 7352 9fbd b651 b8be
00000140: b23f 1ebe ef9d 05bf 657a bb3e ba37 70be
00000150: 70b4 d3bd cad2 7bbe e7fc 153e 46c7 2d3d
00000160: ed9e 57be da36 05bf 28cc 253f ac27 03be
00000170: 03c8 97be c1e0 473e dce6 bf3c 38e9 02bd
00000180: 7130 f33e 8770 16bf cc44 f03e df2d 86bd
00000190: 0639 583e 4623 0e3f 94e7 a1be 1d7a fc3e
000001a0: 21a7 f53d a000 9ebe 39c0 8a3e 627e 6e3e
000001b0: 7acf 4c3e 7cb9 023f 2ca3 19bf 130a 643e
000001c0: 6b7f 133e 9700 1d3d 9184 8c3e 8e52 c83e
000001d0: 7f67 df3e 2c9d 6e3e 28f4 6dbe 55c9 bb3e
000001e0: cd67 a23e 7d62 9bbd 9a13 fdbd 9636 c53e
000001f0: 2af0 013e 1d6a 8dbb 6b5f 86be 5908 8b3d
00000200: 0e6c d3be edab fc3e 2f12 c3be 4ef4 b9be
00000210: 02c5 a7bd 0d90 8abc 044b 9c3e 6caa 18bf
00000220: f965 c9bd e958 be3e 45de 66bc cc00 e53d
00000230: 60c2 ffbd b795 9ebe c7b4 f83e 5a16 54be
00000240: 6ee0 d0be 266b 1c3f 3604 0d3f 465f d8be
00000250: 50e2 d2be 67e4 92be f1cf f43e d9c6 47be
00000260: d931 4bbe f6ed 6b3d 351c 053f cc01 82be
00000270: a6ae f0be 6be6 2d3d 8a93 733e e115 a7be
00000280: 3a23 ee3e 7443 283e ec64 723e 4059 61be
00000290: 8e58 44be 194f 943d 16b4 e73e fa0d b3be
000002a0: f031 28bf fd86 523e 512f aabd fb8c 00bf
000002b0: 4402 f7be 2466 923e 8336 a23e 6f7e a9be
000002c0: 9657 5fbf ecb3 a43c 50a4 b73e 1adc d2be
000002d0: 0f9f d4be c320 913d 0709 1d3f 2d76 60bd
000002e0: 22be 49bf 38bb f23e f310 dcbe 63f6 f8be
000002f0: 00c5 01bf be10 043f d399 153f 223d 3dbe
00000300: bb13 763e 105e 9ebd fb68 be3e 7802 db3e
00000310: 34c2 133e b04d b5be 2f62 f43c 9ddf b9be
00000320: 90b2 773e 3b3d b23d af91 f63d 56cc 93bd
00000330: 4b6d 5fbe 53e2 a2be 7312 cbbd 3e8c d4be
00000340: 2903 3d3f ad7a af3e 0ad9 e63e 1b11 0d3e
00000350: cf29 b8be 00fa f83a 010b 873e 1f12 b2be
00000360: 14ff d53e 0d81 dc3e e3fc 563f d9e7 78be
00000370: 3ad6 4cbe ed10 283f 5f03 3f3e ce4e cbbd
00000380: afb5 2dbf 0e43 d7be 2a36 c5be ec12 ef3d
00000390: a6a4 1f3d 72e0 2cbe 07cd dfbb 641a 8b3e
000003a0: 3066 233e dc3f 0dbf 2306 2cbf f29b 033d
000003b0: ebce 1e3f b284 82bd 62d0 a2be 7631 1d3f
000003c0: be8b 923e 6443 58be 466c 5fbe fe02 e53d
000003d0: efa2 0a3f 0c63 afbe 67da 00be 3ef6 113e
000003e0: 6686 fcbe 8092 12bf e627 7abe a7f8 e83e
000003f0: dd3e 283e 5e87 cebd 26cc 33be 0467 983e

b f4 [32]
-0.10852038 0.31496397 0.1735459 -0.19492425 0.37465438 -0.3327357 0.33209497 -0.23955408
0.34403482 -0.09705321 0.116612405 0.017740048 -0.33055803 -0.34034336 0.52617234 0.1805223
0.19068931 0.17205173 -0.35465485 0.35646555 0.11882937 0.30086935 0.3998178 -0.37747094
-0.23142049 -0.43298656 0.015710007 -0.3869903 -0.09490786 -0.34419373 0.21520942 -0.2062483
00000000: ef3f debd f542 a13e 04b6 313e 399a 47be
00000010: b3d2 bf3e 555c aabe 5a08 aa3e aa4d 75be
00000020: 5525 b03e d5c3 c6bd 7cd2 ee3d 9453 913c
00000030: e73e a9be 7c41 aebe 3bb3 063f d6da 383e
00000040: 0f44 433e 542e 303e 5295 b5be a782 b63e
00000050: d05c f33d 8c0b 9a3e ebb4 cc3e df43 c1be
00000060: 7ef9 6cbe 6ab0 ddbe 46b2 803c 9823 c6be
00000070: 0d5f c2bd 293a b0be dc5f 5c3e c132 53be

W1 f4 [32, 128]
0.2997225 0.43632627 0.2164541 -0.51045793 0.30215135 -0.48222592 -0.11770997 -0.3724128
0.16194539 -0.26254973 -0.0037519124 -0.359154 0.06576083 0.3515103 0.45444328 0.08942302
0.39116967 -0.38797125 -0.05806151 0.14476046 0.33328044 0.19765106 -0.3956474 0.18705453
0.16305768 0.214791 -0.060039543 0.47289878 -0.041922048 0.38639706 -0.5995455 0.2102506
0.10508112 -0.51554894 0.19246164 -0.31609127 0.48729452 0.04975766 -0.34857616 0.33616444
-0.53482825 0.20739886 0.24860765 -0.4878383 0.034878578 0.34070542 -0.08236209 -0.19079366
0.21558021 -0.32638818 -0.09812117 0.23736642 0.12818092 -0.03454354 0.035755392 0.029837737
0.2899294 0.07566062 0.28081405 -0.25300217 0.48137972 0.014389175 0.23841445 -0.33961573
-0.34100637 0.4138617 -0.29099196 0.48060885 -0.34498888 -0.29796335 0.3224179 0.5050345
-0.09141362 0.26660833 -0.16284563 -0.22563188 -0.2592082 0.2424941 0.037243485 -0.5176522
-0.31970823 0.50238025 -0.27782002 0.29686162 -0.025683116 -0.19836909 0.11813614 -0.2992693
-0.45422232 0.34306365 -0.264723 0.4531441 0.34921172 0.08469758 -0.16553184 -0.48197317
0.21826936 -0.4993517 -0.14360581 0.1847912 0.35295933 0.48392606 -0.34868062 0.45770285
-0.07917655 -0.19236949 -0.48167896 -0.13346305 -0.17423744 0.5905774 -0.087322846 -0.21120854
0.14349431 0.015499758 0.3952979 -0.41801673 0.5244022 0.33416182 -0.27014494 -0.29562116
0.15470469 -0.48310345 0.32190335 -0.40989283 0.21330726 -0.49597758 0.4791794 -0.3867708
-0.46324098 -0.52659315 -0.44274744 0.21050243 -0.43889135 0.4578694 -0.1365746 -0.6038446
-0.46680474 -0.12618276 -0.09471164 0.21818817 0.26091796 -0.057527404 0.10540076 -0.18160747
-0.06080505 -0.17996274 -0.5170275 0.3110054 0.4536922 -0.48848665 0.47522068 0.03634451
0.3160951 -0.043270417 0.101159476 0.42599186 0.31544963 -0.122309625 0.4106794 -0.40305707
-0.03171686 -0.123272344 -0.15704353 -0.47373325 -0.2107444 0.05602235 0.13309449 0.41691115
-0.35496184 0.19809781 -0.41163388 -0.30989566 0.34577245 0.2308422 0.25144908 0.056925476
-0.50842863 -0.35760516 0.22885205 -0.22566622 0.28699028 0.2059271 0.43791693 -0.18380338
0.06665259 -0.3435555 -0.17350699 -0.32399702 -0.43109572 -0.4814108 -0.18574183 -0.22999033
0.41171435 -0.20262893 -0.3000293 -0.04723558 -0.5459179 0.08649419 -0.06787509 -0.36525923
-0.13666281 -0.3427605 -0.5498995 -0.021834437 0.22247973 -0.024879657 0.20255263 0.47361016
-0.0052005323 0.16866402 -0.31531748 -0.36819977 -0.35894442 0.009619147 -0.2700651 0.25427186
-0.00010630708 0.4332969 0.14987865 -0.33571792 -0.44220066 0.31114727 0.029860113 -0.32739598
0.7539076 0.40599915 -0.22874032 -0.44803768 0.35529998 -0.37195083 0.1575826 -0.22476979
0.11595914 -0.31226158 0.084102 0.028156267 -0.21019554 0.101185985 0.11365911 0.24591784
-0.3433357 0.3448238 0.22277033 0.34211236 -0.115687594 -0.28293324 -0.36436352 -0.15623029
-0.35702088 -0.13557172 -0.25783095 0.2328758 -0.16929342 0.53285974 -0.40651548 0.18901041
00000000: 3a75 993e 2866 df3e 25a6 5d3e 5fad 02bf
00000010: 95b3 9a3e 51e6 f6be ed11 f1bd e4ac bebe
00000020: 03d5 253e eb6c 86be a5e2 75bb 08e3 b7be
00000030: 9dad 863d 28f9 b33e caac e83e 6b23 b73d
00000040: 6447 c83e 2ba4 c6be e8d1 6dbd 163c 143e
00000050: bca3 aa3e 0a65 4a3e 4c92 cabe 398b 3f3e
00000060: 98f8 263e 2cf2 5b3e 06ec 75bd ca1f f23e
00000070: 74b6 2bbd d6d5 c53e d07b 19bf ef4b 573e
00000080: c534 d73d 04fb 03bf aa14 453e b7d6 a1be
00000090: ab7e f93e b0ce 4b3d 9378 b2be bf1d ac3e
000000a0: 81ea 08bf 5e60 543e 0193 7e3e f1c5 f9be
000000b0: d7dc 0e3d f170 ae3e 75ad a8bd 6a5f 43be
000000c0: 0fc1 5c3e 5a1c a7be c1f3 c8bd 2f10 733e
000000d0: dc41 033e 877d 0dbd 3f74 123d 456e f43c
000000e0: a071 943e f5f3 9a3d dcc6 8f3e 8089 81be
000000f0: 6777 f63e 93c0 6b3c eb22 743e 1de2 adbe
00000100: 6398 aebe aee5 d33e e6fc 94be 5d12 f63e
00000110: 62a2 b0be a78e 98be f613 a53e f149 013f
00000120: 1037 bbbd e380 883e 01c1 26be 0b0c 67be
00000130: f0b6 84be 6050 783e a08c 183d db84 04bf
00000140: ccb0 a3be fe9b 003f 6d3e 8ebe 3ffe 973e
00000150: 6665 d2bc 4421 4bbe 5cf1 f13d d339 99be
00000160: d48f e8be 0aa6 af3e c689 87be 8102 e83e
00000170: e1cb b23e ed75 ad3d 2e81 29be 30c5 f6be
00000180: 0182 5f3e 07ab ffbe 670d 13be e839 3d3e
00000190: 16b7 b43e 28c5 f73e 4486 b2be 0758 ea3e
000001a0: 5127 a2bd 82fc 44be a09e f6be 8aaa 08be
000001b0: 4d6b 32be 1530 173f 52d6 b2bd 0d47 58be
000001c0: 2cf0 123e b2f2 7d3c 7d64 ca3e 4a06 d6be
000001d0: 393f 063f 4217 ab3e 7050 8abe a85b 97be
000001e0: e86a 1e3e 5659 f7be 84d0 a43e 79dd d1be
000001f0: 386d 5a3e c6f0 fdbe 0157 f53e d306 c6be
00000200: ec2d edbe cfce 06bf cbaf e2be f38d 573e
00000210: 5eb6 e0be dc6d ea3e 36da 0bbe 8f95 1abf
00000220: 0801 efbe 0e36 01be 2df8 c1bd b86c 5f3e
00000230: 0a97 853e dba1 6bbd 5bdc d73d 4ff7 39be
00000240: b70e 79bd 2748 38be ea5b 04bf 1a3c 9f3e
00000250: 584a e83e ec1a fabe 2050 f33e fbdd 143d
00000260: 38d7 a13e 523c 31bd b32c cf3d 9b1b da3e
00000270: 9d82 a13e 787d fabd 9244 d23e 7f5d cebe
00000280: 8ae9 01bd 3676 fcbd 05d0 20be 2a8d f2be
00000290: 61cd 57be b177 653d ec49 083e 6175 d53e
000002a0: 8fbd b5be 27da 4a3e adc1 d2be a5aa 9ebe
000002b0: 1609 b13e e661 6c3e efbd 803e b02a 693d
000002c0: 6128 02bf 0618 b7be 3158 6a3e 0c15 67be
000002d0: 64f0 923e 8ede 523e a636 e03e f436 3cbe
000002e0: 2781 883d 82e6 afbe d1ab 31be f0e2 a5be
000002f0: 94b8 dcbe 7a7b f6be 1b33 3ebe 9682 6bbe
00000300: 39cc d23e f57d 4fbe 719d 99be 187a 41bd
00000310: 47c1 0bbf de23 b13d 1802 8bbd 4203 bbbe
00000320: 56f1 0bbe 4e7e afbe 37c6 0cbf 22de b2bc
00000330: bad1 633e 6cd0 cbbc f569 4f3e 087d f23e
00000340: 3a69 aabb 43b6 2c3e 4b71 a1be ae84 bcbe
00000350: 90c7 b7be a099 1d3c f945 8abe ec2f 823e
00000360: 2ef1 deb8 17d9 dd3e ca79 193e 38e3 abbe
00000370: 2068 e2be b24e 9f3e 329d f43c 72a0 a7be
00000380: 1700 413f 1fdf cf3e e73a 6abe 3265 e5be
00000390: e1e9 b53e 5770 bebe 555d 213e 0d2a 66be
000003a0: fc7b ed3d c0e0 9fbe ab3d ac3d f9a7 e63c
000003b0: 803d 57be 993a cf3d 1cc6 e83d e3d1 7b3e
000003c0: b2c9 afbe bf8c b03e e81d 643e 5a29 af3e
000003d0: 9eed ecbd a0dc 90be db8d babe d5fa 1fbe
000003e0: 71cb b6be 50d3 0abe 6b02 84be fe76 6e3e
000003f0: 415b 2dbe 7f69 083f cc22 d0be f28b 413e

b1 f4 [128]
-0.29802132 -0.29892173 0.0563783 0.345109 -0.21389318 -0.15331611 -0.20365757 0.319603
0.35226202 0.40738466 -0.16363135 -0.12937437 0.3327938 -0.2204712 0.24879664 -0.21278897
0.12743413 -0.083399124 -0.17401116 -0.03303564 -0.32203364 -0.22630192 0.32675782 0.30807275
-0.14154121 -0.320222 -0.057289183 0.2232588 -0.2023596 -0.18141715 0.32774404 -0.18725432
-0.20618483 0.045304626 -0.18650024 -0.3207967 -0.2168293 0.38516983 -0.4258458 0.14833336
-0.15683286 0.08492263 0.15674156 -0.33455575 0.18895023 0.31346738 0.22421789 -0.058140185
0.35826316 -0.15924275 -0.0010635012 -0.1851704 -0.0758401 0.32706544 0.243678 -0.3348819
0.14610794 -0.22957511 0.33214292 -0.40855438 -0.35130358 -0.29577172 -0.18109751 0.12644908
0.3268574 -0.40683278 -0.36024174 0.28237903 -0.1072733 0.32615548 -0.4298312 -0.11911091
-0.3633961 -0.101583004 0.002903273 0.08984548 0.36675397 -0.16136381 0.3197415 0.18322156
-0.32385296 -0.24263963 -0.3407557 -0.44930166 -0.3698646 0.35308385 -0.23126274 0.253106
-0.21226177 0.157388 0.20490369 0.34403077 -0.3328854 -0.29220277 -0.17361054 -0.36549938
0.5090289 0.34245428 -0.40495244 -0.3989551 -0.19336613 -0.17320608 0.36561105 0.36234495
-0.13183506 -0.37998265 0.34995383 -0.35151738 -0.08867924 0.22232378 0.2768864 0.318083
0.13072689 0.3516608 0.3481696 0.32352906 -0.47654667 -0.42655793 -0.41260606 -0.16499574
-0.21442607 -0.14382209 -0.14021811 0.3383793 0.31812227 0.20954217 -0.35382336 0.327363
00000000: 4096 98be 450c 99be efec 663d 20b2 b03e
00000010: d006 5bbe e6fe 1cbe 9c8b 50be 01a3 a33e
00000020: b05b b43e b994 d03e fa8e 27be b77a 04be
00000030: f363 aa3e 34c3 61be 8cc4 7e3e 5ae5 59be
00000040: 187e 023e 29cd aabd fb2f 32be 6150 07bd
00000050: 98e1 a4be b1bb 67be cd4c a73e b6bb 9d3e
00000060: 2ef0 10be 23f4 a3be 10a8 6abd f49d 643e
00000070: 5b37 4fbe 6bc5 39be 11ce a73e 99bf 3fbe
00000080: 1e22 53be 5891 393d ebf9 3ebe 773f a4be
00000090: 8008 5ebe fb34 c53e 7608 dabe b3e4 173e
000000a0: cb98 20be eaeb ad3d dc80 203e e44a abbe
000000b0: 2b7c 413e cc7e a03e 6099 653e 6724 6ebd
000000c0: 456e b73e 8810 23be 2e65 8bba 4f9d 3dbe
000000d0: 0e52 9bbd 1f75 a73e ba86 793e a475 abbe
000000e0: 529d 153e bd15 6bbe a30e aa3e 0a2e d1be
000000f0: 10de b3be 646f 97be a071 39be de7b 013e
00000100: da59 a73e 634c d0be 9b71 b8be fc93 903e
00000110: 1bb2 dbbd dafd a63e d612 dcbe 6cf0 f3bd
00000120: 0e0f babe c00a d0bd d744 3e3b e800 b83d
00000130: 2dc7 bb3e 8e3c 25be 28b5 a33e 6f9e 3b3e
00000140: 0ed0 a5be 8676 78be 8877 aebe de0a e6be
00000150: e55e bdbe 68c7 b43e 24d0 6cbe 1c97 813e
00000160: 265b 59be 522a 213e 46d2 513e cd24 b03e
00000170: f56f aabe 9a9b 95be f6c6 31be bc22 bbbe
00000180: b84f 023f 2b56 af3e ed55 cfbe d843 ccbe
00000190: c501 46be ef5c 31be 5f31 bb3e 4785 b93e
000001a0: c5ff 06be 168d c2be 262d b33e 16fa b3be
000001b0: 769d b5bd d8a8 633e 0ec4 8d3e c6db a23e
000001c0: 45dd 053e e20c b43e 4943 b23e 9aa5 a53e
000001d0: edfd f3be cd65 dabe 1a41 d3be a5f4 28be
000001e0: 8292 5bbe 1946 13be 5695 0fbe 0d40 ad3e
000001f0: ece0 a23e 3992 563e 5628 b5be 209c a73e
