saved_models/model-epoch-78.pth (torch, 249162 bytes, 52 tensors)

embeddings f4 [99, 32]
0	0x3d8ee9b8	0.06978172
1	0xbe102844	-0.1407786
2	0xbdff917c	-0.12478921
3	0x3db37223	0.08762004
4	0xbd76c917	-0.060250368
5	0x3d90ff6a	0.07079966
6	0x3d6d4faf	0.05793732
7	0xbe102e6e	-0.14080212
8	0xbde482ee	-0.11157785
9	0xbd16a273	-0.036776017
10	0xbd1b5f28	-0.037932545
11	0xbe1bd334	-0.15217286
12	0x3e407f37	0.18798529
13	0xbd7f0f12	-0.06227023
14	0xbe3fab1d	-0.18717618
15	0xbc0a3765	-0.008436059
16	0xbd561a26	-0.05227103
17	0xbdb8032f	-0.08984982
18	0xbcc0126e	-0.023446288
19	0x3d1fb873	0.038994264
20	0x3e1b9b47	0.15195952
21	0x3e1efab0	0.15525317
22	0x3dec8802	0.11549379
23	0xbc260652	-0.010133343
24	0xbe142081	-0.14465524
25	0x3e39739b	0.18110506
26	0x3e37b178	0.17938793
27	0xbdc0575e	-0.09391664
28	0xbd19ef89	-0.037581954
29	0x3e1ac24f	0.15113185
30	0xbe0db84c	-0.13839835
31	0x3e4259e2	0.189796
32	0x3da3b1c9	0.07992894
33	0xbde53ae7	-0.11192875
34	0xbe2af248	-0.16693985
35	0xbda5b319	-0.08090801
36	0xbd441229	-0.04786888
37	0x3e2bd40d	0.1678011
38	0xbd0109f6	-0.03150364
39	0xbe0e1c41	-0.13877966
40	0xbda899ab	-0.08232435
41	0xbd440783	-0.047858726
42	0xbcc47e58	-0.023986027
43	0x3c72978d	0.01480664
44	0x3d6f1205	0.058366794
45	0xbca88003	-0.020568853
46	0x3e5056c9	0.20345606
47	0x3decbf70	0.11559951
48	0x3e39ca11	0.18143488
49	0x3e0fa5da	0.14028111
50	0x3e2177c3	0.15768342
51	0x3e4892cb	0.19587247
52	0xbe54277d	-0.20718189
53	0xbd5ada55	-0.053430874
54	0x3e35a609	0.17739119
55	0xbdcae376	-0.09906666
56	0xbe55da48	-0.20884049
57	0x3d0138b9	0.031548236
58	0x3e40fb2b	0.18845813
59	0xbda46cc8	-0.08028561
60	0xbe58cb9b	-0.2117142
61	0x3da33744	0.079695255
62	0xbdeeb07c	-0.116547555
63	0xbc834cde	-0.016027864
64	0x3dddbec3	0.108274005
65	0xbd92fa25	-0.071766175
66	0x3d48b5fc	0.04900168
67	0xbe1fcc8e	-0.15605375
68	0x3e1e56f1	0.15462853
69	0x3e10961b	0.1411976
70	0x3e156156	0.14587912
71	0xbd671206	-0.056413673
72	0xbe57f6ff	-0.21090315
73	0xbe4d692e	-0.20059654
74	0x3d634316	0.0554839
75	0x3d9ae6da	0.07563563
76	0x3e06e86a	0.13174596
77	0x3e28829f	0.16456078
78	0x3dbb3a77	0.09142011
79	0x3e31ac37	0.17350851
80	0xbd812b9e	-0.063071474
81	0x3e5275b5	0.20552714
82	0x388f481a	6.832201e-05
83	0xbe464122	-0.19360784
84	0x3e22be00	0.15892792
85	0xbd001558	-0.031270355
86	0xbe4ee458	-0.20204294
87	0x3dea5e25	0.11443738
88	0x3e3eddee	0.18639347
89	0x3e0f4099	0.13989486
90	0x3e3f3015	0.18670686
91	0x3e3e2629	0.18569244
92	0xbc11f670	-0.008908853
93	0xbd8d3a5a	-0.06895895
94	0x3d60fbf5	0.054927785
95	0xbd1b19a7	-0.03786626
96	0x3c2bb4f8	0.010480158
97	0x3e000c58	0.12504709
98	0xbd7902e7	-0.060793784
99	0x3de18882	0.11012365
100	0x3e5accc5	0.21367176
101	0xbe3ff0fd	-0.18744273
102	0xbe38516b	-0.17999808
103	0xbd48b984	-0.049005046
104	0xbdbc7e5f	-0.09203791
105	0x3e36bcc3	0.17845444
106	0xbe3848d5	-0.17996533
107	0x3e343043	0.17596535
108	0x3de56ade	0.11202024
109	0xbe521a53	-0.20517854
110	0x3e321930	0.17392421
111	0xbde98866	-0.11402969
112	0xbe403711	-0.18771006
113	0x3d6f8f1c	0.05848609
114	0xbdbab78b	-0.09117039
115	0x3e21afd9	0.15789737
116	0x3de1982f	0.11015355
117	0xbe0d5a85	-0.13804062
118	0xbbffa294	-0.0078013632
119	0xbe1eb2f4	-0.15497953
120	0xbc0d8ce1	-0.008639545
121	0xba7d9e61	-0.00096747844
122	0x3da79672	0.08182992
123	0xbd8944f9	-0.067026086
124	0xbd9f0e12	-0.077663556
125	0x3e300f82	0.17193416
126	0xbe46cc78	-0.19413936
127	0xbe5a9a51	-0.2134793
128	0xbdedf78d	-0.11619482
129	0x3e28a0ad	0.16467543
130	0x3e0724a1	0.13197567
131	0xbe46c823	-0.19412284
132	0xbd81390c	-0.06309709
133	0x3e52d843	0.2059031
134	0xbe57d1e1	-0.21076156
135	0xbcfb4fb4	-0.030677654
136	0x3e49bd1d	0.19701047
137	0x3ceada1c	0.028668456
138	0x3e50ab6d	0.20377894
139	0x3dec83b4	0.11548558
140	0xbe3ca287	-0.18421374
141	0x3e577cd3	0.2104371
142	0x3e365c78	0.17808712
143	0xbe119d9c	-0.1422028
144	0x3db8763e	0.09006928
145	0xbdd414bf	-0.103555195
146	0xbe2d9cfc	-0.16954416
147	0xbcb2829b	-0.021790793
148	0x3b525f10	0.0032100119
149	0xbe11de26	-0.14244899
150	0xbe20d5e0	-0.15706587
151	0xbc40f564	-0.011777256
152	0x3c6a69dc	0.014307465
153	0x3e36166b	0.1778199
154	0x3e527eb9	0.20556153
155	0xbc2d7b88	-0.010588534
156	0xbdf671db	-0.12033435
157	0x3e2d92dc	0.16950554
158	0x3dc2e668	0.09516603
159	0xbe37d41d	-0.17952009
160	0xbcd3f3fa	-0.025873173
161	0xbe15b029	-0.14617981
162	0x3e1df2dd	0.15424676
163	0xbd209706	-0.039206527
164	0xbdb58215	-0.08862702
165	0x3cc0fdbc	0.02355849
166	0xbe310e32	-0.17290571
167	0x3dad250b	0.08454331
168	0x3e256d09	0.16154875
169	0xbe3ed838	-0.18637168
170	0xbd7bff4d	-0.06152277
171	0x3dbefece	0.09325944
172	0x3d9032fb	0.07040974
173	0x3da58740	0.080824375
174	0x3e03fc21	0.12889148
175	0xbc2f338a	-0.01069344
176	0xbdb39789	-0.087691374
177	0xbd4620a1	-0.04837096
178	0xbd1c5c7e	-0.038174145
179	0x3cb3705f	0.021904169
180	0x3db7bd11	0.089716084
181	0xbe2c37cf	-0.16818164
182	0x3c98f00e	0.018669154
183	0xbe537253	-0.2064908
184	0x3deabf55	0.11462275
185	0x3e48f372	0.19624117
186	0xbe16846c	-0.14698952
187	0x3e5436e5	0.20724066
188	0x3df96006	0.12176518
189	0xbdc00b20	-0.09377122
190	0xbe34f50c	-0.17671603
191	0x3df83bf3	0.121208094
192	0x3e38acb5	0.18034633
193	0xbdd0dcb1	-0.101983435
194	0xbe1108d1	-0.1416352
195	0xbb501aa9	-0.0031754172
196	0xbdfd56df	-0.12370085
197	0xbde39d3e	-0.11113976
198	0x3e1acc4a	0.15116993
199	0x3e1f3ea6	0.15551242
200	0xbdb57d59	-0.08861799
201	0x3e380cf6	0.17973694
202	0x3d817252	0.06320633
203	0xbdbe0f7d	-0.09280298
204	0xbcd47208	-0.02593328
205	0xbde50fe9	-0.11184675
206	0xbe32ff3d	-0.17480178
207	0xbd80fffc	-0.06298825
208	0xbd392c2e	-0.04520815
209	0xbe4000cd	-0.18750305
210	0xbd9e0a3b	-0.07716795
211	0xbc9d31b4	-0.01918874
212	0x3e5668fd	0.20938487
213	0x3d90ef94	0.07076946
214	0x3dc5c4a9	0.096566506
215	0xbd3b9e2b	-0.045805138
216	0xbdbaafb4	-0.09115544
217	0xbc80cc8a	-0.015722532
218	0x3d011e22	0.031522878
219	0x3e259553	0.16170244
220	0xbe4dbe1a	-0.20092049
221	0xbe1646c6	-0.14675435
222	0xbe318c81	-0.17338754
223	0x3e4d2074	0.20031911
224	0x3e3eb223	0.18622641
225	0x3df8e191	0.121523984
226	0xbe229191	-0.15875842
227	0xbcb15aa0	-0.021649659
228	0x3d815b9c	0.06316301
229	0x3e2323e9	0.15931667
230	0xbbbacb0b	-0.005700474
231	0x3e3084fc	0.1723823
232	0x3d3edca5	0.04659714
233	0xbda84096	-0.08215444
234	0xbdbd1794	-0.09233013
235	0x3e2beaaf	0.16788743
236	0xbe3ebe3e	-0.18627259
237	0x3c8fd559	0.017557787
238	0x3e3b744a	0.1830608
239	0xbdd1dfe3	-0.10247781
240	0x3dcdaa33	0.100422285
241	0xbdf59094	-0.11990467
242	0x3e341da1	0.17589428
243	0xbdef0d57	-0.11672466
244	0xbe1bfe57	-0.15233742
245	0xbe04face	-0.129863
246	0xbe18fa39	-0.14939202
247	0x3dfa9dfe	0.12237166
248	0xbda3e70d	-0.08003054
249	0x3d53dbd9	0.051723335
250	0x3da3a559	0.07990522
251	0x3d99f43e	0.075172886
252	0x3e103a30	0.14084697
253	0xbe3967ee	-0.18106052
254	0xbcc52307	-0.024064554
255	0x3e47c3d8	0.19508302

_pos_embeds f4 [64, 32]
0	0x00000000	0.0
1	0x3f800000	1.0
2	0x00000000	0.0
3	0x3f800000	1.0
4	0x00000000	0.0
5	0x3f800000	1.0
6	0x00000000	0.0
7	0x3f800000	1.0
8	0x00000000	0.0
9	0x3f800000	1.0
10	0x00000000	0.0
11	0x3f800000	1.0
12	0x00000000	0.0
13	0x3f800000	1.0
14	0x00000000	0.0
15	0x3f800000	1.0
16	0x00000000	0.0
17	0x3f800000	1.0
18	0x00000000	0.0
19	0x3f800000	1.0
20	0x00000000	0.0
21	0x3f800000	1.0
22	0x00000000	0.0
23	0x3f800000	1.0
24	0x00000000	0.0
25	0x3f800000	1.0
26	0x00000000	0.0
27	0x3f800000	1.0
28	0x00000000	0.0
29	0x3f800000	1.0
30	0x00000000	0.0
31	0x3f800000	1.0
32	0x3f576aa4	0.84147096
33	0x3f0a5140	0.5403023
34	0x3f087dba	0.53316844
35	0x3f58940e	0.84600914
36	0x3e9f393e	0.3109836
37	0x3f734e6a	0.95041525
38	0x3e35233a	0.17689219
39	0x3f7bf683	0.9842302
40	0x3dcc7576	0.099833414
41	0x3f7eb898	0.9950042
42	0x3d6636b0	0.056204498
43	0x3f7f9868	0.9984193
44	0x3d01815c	0.031617507
45	0x3f7fdf3c	0.99950004
46	0x3c91ab42	0.017781857
47	0x3f7ff5a3	0.99984187
48	0x3c23d657	0.009999833
49	0x3f7ffcb9	0.99995
50	0x3bb8445c	0.0056233834
51	0x3f7ffef7	0.9999842
52	0x3b4f3e20	0.0031622723
53	0x3f7fffac	0.999995
54	0x3ae91520	0.0017782785
55	0x3f7fffe5	0.9999984
56	0x3a83126d	0.0009999998
57	0x3f7ffff8	0.9999995
58	0x3a136a16	0.0005623413
59	0x3f7ffffd	0.9999998
60	0x39a5cb5f	0.00031622776
61	0x3f7fffff	0.99999994
62	0x393a7753	0.00017782794
63	0x3f800000	1.0
64	0x3f68c7b7	0.9092974
65	0xbed51133	-0.41614684
66	0x3f66f20a	0.9021307
67	0x3edce8b2	0.43146282
68	0x3f17541b	0.5911271
69	0x3f4e7bec	0.8065784
70	0x3eb247f6	0.34820527
71	0x3f6ffaa5	0.9374183
72	0x3e4b6ff9	0.19866933
73	0x3f7ae5a5	0.9800666
74	0x3de5d988	0.112231314
75	0x3f7e61f3	0.9936821
76	0x3d8170c8	0.063203394
77	0x3f7f7cf9	0.9980007
78	0x3d11a55c	0.03555809
79	0x3f7fd68e	0.9993676
80	0x3ca3d43e	0.019998666
81	0x3f7ff2e5	0.9998
82	0x3c38439d	0.011246589
83	0x3f7ffbdb	0.99993676
84	0x3bcf3ddd	0.0063245133
85	0x3f7ffeb0	0.99998
86	0x3b691508	0.0035565514
87	0x3f7fff96	0.9999937
88	0x3b031269	0.0019999987
89	0x3f7fffde	0.999998
90	0x3a936a14	0.0011246824
91	0x3f7ffff5	0.99999934
92	0x3a25cb5f	0.0006324555
93	0x3f7ffffd	0.9999998
94	0x39ba7753	0.00035565588
95	0x3f7fffff	0.99999994
96	0x3e1081c3	0.14112
97	0xbf7d7026	-0.9899925
98	0x3f7e45d7	0.9932532
99	0xbded7fa8	-0.11596614
100	0x3f5009c2	0.8126489
101	0x3f152f57	0.5827536
102	0x3f022f6d	0.50853616
103	0x3f5c6d29	0.86104065
104	0x3e974e6d	0.29552022
105	0x3f7490ef	0.9553365
106	0x3e2beed8	0.1679033
107	0x3f7c5d9e	0.9858035
108	0x3dc1ffc1	0.09472609
109	0x3f7ed94f	0.99550337
110	0x3d5a694d	0.05332308
111	0x3f7fa2c3	0.9985773
112	0x3cf5b920	0.029995501
113	0x3f7fe283	0.99955004
114	0x3c8a31c7	0.016869439
115	0x3f7ff6ad	0.9998577
116	0x3c1b6e11	0.009486691
117	0x3f7ffd0d	0.999955
118	0x3baecfa8	0.005334813
119	0x3f7fff11	0.99998575
120	0x3b449b93	0.0029999956
121	0x3f7fffb5	0.9999955
122	0x3add1f1b	0.0016870232
123	0x3f7fffe8	0.99999857
124	0x3a78b10d	0.0009486832
125	0x3f7ffff8	0.9999995
126	0x3a0bd97e	0.0005334838
127	0x3f7ffffe	0.9999999
128	0xbf41bdcf	-0.7568025
129	0xbf275530	-0.6536436
130	0x3f4749ed	0.77847177
131	0xbf20af9d	-0.62767965
132	0x3f741dde	0.95358074
133	0x3e9a2eb1	0.30113748
134	0x3f271fbc	0.652828
135	0x3f41ebed	0.7575062
136	0x3ec761d7	0.38941833
137	0x3f6bcaa7	0.921061
138	0x3e6465c6	0.22304448
139	0x3f798d09	0.9748083
140	0x3e012e88	0.12615407
141	0x3f7df469	0.99201065
142	0x3d918dc8	0.07107121
143	0x3f7f5a47	0.9974713
144	0x3d23cbdb	0.039989334
145	0x3f7fcb94	0.9992001
146	0x3cb840a2	0.022491757
147	0x3f7fef6c	0.99974704
148	0x3c4f3ccd	0.012648773
149	0x3f7ffac2	0.99992
150	0x3be914a7	0.0071130577
151	0x3f7ffe58	0.9999747
152	0x3b831258	0.0039999895
153	0x3f7fff7a	0.999992
154	0x3b136a0e	0.0022493633
155	0x3f7fffd6	0.9999975
156	0x3aa5cb5c	0.0012649107
157	0x3f7ffff3	0.9999992
158	0x3a3a7752	0.0007113117
159	0x3f7ffffc	0.99999976
160	0xbf757c10	-0.9589243
161	0x3e913c2c	0.2836622
162	0x3ea5dad6	0.3239352
163	0xbf723240	-0.94607925
164	0x3f7ffc7f	0.99994653
165	0xbc2972d4	-0.010342319
166	0x3f46caab	0.77652997
167	0x3f214cf1	0.6300803
168	0x3ef57744	0.47942555
169	0x3f60a940	0.87758255
170	0x3e8e11ee	0.27748054
171	0x3f75f27c	0.96073127
172	0x3e213c1e	0.15745589
173	0x3f7cce81	0.987526
174	0x3db5db21	0.08879686
175	0x3f7efd1e	0.99604976
176	0x3d4cb6f5	0.04997917
177	0x3f7fae19	0.99875027
178	0x3ce64dfe	0.028113361
179	0x3f7fe619	0.99960476
180	0x3c818581	0.01581073
181	0x3f7ff7cf	0.999875
182	0x3c11acbb	0.00889128
183	0x3f7ffd69	0.9999605
184	0x3ba3d6de	0.0049999794
185	0x3f7fff2e	0.9999875
186	0x3b38448c	0.002811703
187	0x3f7fffbe	0.99999607
188	0x3acf3e31	0.0015811381
189	0x3f7fffeb	0.99999875
190	0x3a691526	0.0008891396
191	0x3f7ffff9	0.9999996
192	0xbe8f0f8c	-0.2794155
193	0x3f75cdb8	0.96017027
194	0xbe6be574	-0.23036748
195	0xbf791d53	-0.9731037
196	0x3f72784d	0.94714814
197	0xbea43f6f	-0.32079646
198	0x3f603089	0.8757406
199	0x3ef72f34	0.482782
200	0x3f108c69	0.5646425
201	0x3f534932	0.8253356
202	0x3ea97dfd	0.33103934
203	0x3f7190e2	0.943617
204	0x3e41206f	0.18860029
205	0x3f7b67e3	0.98205394
206	0x3dda19c1	0.106494434
207	0x3f7e8b51	0.9943133
208	0x3d759cd1	0.059964005
209	0x3f7f8a12	0.99820054
210	0x3d0a2cbf	0.03373408
211	0x3f7fdab3	0.99943084
212	0x3c9b6c46	0.018972527
213	0x3f7ff434	0.99982
214	0x3c2ecf04	0.010669474
215	0x3f7ffc45	0.9999431
216	0x3bc49b59	0.005999964
217	0x3f7ffed2	0.999982
218	0x3b5d1f06	0.0033740415
219	0x3f7fffa1	0.99999434
220	0x3af8b105	0.0018973654
221	0x3f7fffe2	0.9999982
222	0x3a8bd97d	0.0010669675
223	0x3f7ffff6	0.9999994
224	0x3f283046	0.6569866
225	0x3f40ffbd	0.75390226
226	0xbf36b66e	-0.71372116
227	0xbf334f60	-0.7004299
228	0x3f4ce86f	0.80042166
229	0xbf1974bb	-0.5994374
230	0x3f728444	0.9473307
231	0x3ea3f8b9	0.32025698
232	0x3f24eb73	0.64421767
233	0x3f43ccb3	0.7648422
234	0x3ec460df	0.38355157
235	0x3f6c6bc5	0.92351943
236	0x3e60d350	0.2195561
237	0x3f79c0ea	0.9755999
238	0x3dfe46ba	0.12415834
239	0x3f7e04e9	0.9922624
240	0x3d8f3e32	0.06994285
241	0x3f7f5f81	0.997551
242	0x3d213160	0.03935373
243	0x3f7fcd3b	0.9992253
244	0x3cb552a6	0.022134136
245	0x3f7feff2	0.999755
246	0x3c4bf12a	0.012447635
247	0x3f7ffaec	0.9999225
248	0x3be55fc7	0.006999943
249	0x3f7ffe65	0.9999755
250	0x3b80fcbe	0.003936379
251	0x3f7fff7e	0.99999225
252	0x3b1111ec	0.0022135926
253	0x3f7fffd7	0.99999756
254	0x3aa32866	0.0012447953
255	0x3f7ffff3	0.9999992

W f4 [32, 32]
0	0x3e04a17d	0.12952228
1	0x3d96efd5	0.07369963
2	0xbc3a4c6e	-0.011370761
3	0x3da61998	0.0811035
4	0xbe831b9a	-0.25606996
5	0xbe1e7a6b	-0.15476386
6	0xbdb93233	-0.09042778
7	0x3e2b169d	0.16707845
8	0xbe2e54a8	-0.17024481
9	0xbdcd3d8d	-0.100215055
10	0x3b84f9f8	0.004058119
11	0xbe3f4c3f	-0.1868143
12	0x3e53b926	0.20676097
13	0x3d24767f	0.04015207
14	0x3dbdd6e0	0.092695
15	0xbd8d1a9b	-0.0688984
16	0xbd65c972	-0.056100316
17	0x3db402a5	0.08789567
18	0x3e8307b6	0.2559182
19	0x3e364941	0.17801382
20	0xbe659a7d	-0.22422214
21	0x3d81779d	0.063216425
22	0x3db39df8	0.087703645
23	0x3e670095	0.22558816
24	0x3ddf4c5b	0.109032355
25	0xbe63f95b	-0.2226309
26	0x3d9ae976	0.075640604
27	0x3e4632f8	0.1935538
28	0x3e39ba7f	0.18137549
29	0xbe0c304c	-0.13690299
30	0xbe5365d5	-0.20644315
31	0x3e10245d	0.14076371
32	0xbb558470	-0.003258016
33	0xbe7a3f4f	-0.24438213
34	0xbd1a2cb9	-0.037640307
35	0x3e30adbb	0.17253773
36	0xbdef2dd7	-0.11678665
37	0x3d96a3dd	0.07355473
38	0xbd0528c0	-0.032509565
39	0x3e8d0192	0.2754026
40	0x3e024722	0.12722448
41	0x3d3078f9	0.04308412
42	0xbdad7d66	-0.084711835
43	0xbe4d7c1c	-0.20066875
44	0x3e88df6b	0.26732954
45	0xbe746dce	-0.23870012
46	0x3e83d7c0	0.25750542
47	0x3d3c708a	0.046005763
48	0xbe0bddd4	-0.1365884
49	0x3e91d1cf	0.28480384
50	0xbe833b20	-0.25631046
51	0x3dfabf57	0.122435264
52	0x3e4bbdf4	0.1989668
53	0x3e9f2d4f	0.31089255
54	0xbe2097e6	-0.15682945
55	0x3e6f8db4	0.23393899
56	0x3e365f3a	0.17809764
57	0x3df2ef21	0.118620165
58	0x3e212ec0	0.1574049
59	0xbc49494a	-0.01228554
60	0x3e84ae02	0.25914007
61	0x3e85b016	0.26110905
62	0xbe157ba1	-0.14597942
63	0x3e933625	0.28752246
64	0x3d0e7692	0.034781046
65	0x3df625b0	0.12018907
66	0xbe06a4ea	-0.13148847
67	0x3dd3641c	0.10321829
68	0x3e49408c	0.19653529
69	0x3e504362	0.20338205
70	0x3e8621a8	0.26197553
71	0xbe3b2e18	-0.18279302
72	0x3e5d9583	0.21639065
73	0xbdc5b0ca	-0.096528605
74	0xbe75b0a7	-0.23993169
75	0xbe88b2f5	-0.26699033
76	0xbe8c44a7	-0.27396128
77	0xbe1c7c58	-0.15281808
78	0xbe58fc61	-0.21190025
79	0x3e0bd4ee	0.13655445
80	0xbe336d7d	-0.17522235
81	0x3dc9d752	0.09855522
82	0x3e2f7b2d	0.17136832
83	0xbe761a24	-0.2403341
84	0x3e029b88	0.12754643
85	0xbe4a4a81	-0.19754983
86	0xbdc3d4f5	-0.09562103
87	0xbe14cb8d	-0.14530773
88	0xbdc2223e	-0.094791874
89	0xbe758801	-0.23977663
90	0xbe143f46	-0.14477262
91	0xbc0cd616	-0.008595964
92	0xbcacef69	-0.021110253
93	0xbd7c83fc	-0.061649308
94	0xbe991094	-0.2989546
95	0x3e03d620	0.12874651
96	0x3e047c39	0.12938012
97	0x3e340e57	0.17583595
98	0xbe70ee05	-0.23528297
99	0xbe3f43d0	-0.18678212
100	0xbd3403e7	-0.043949034
101	0x3dd75ae7	0.10515385
102	0x3dd28793	0.10279765
103	0x3d6e9ce0	0.058255076
104	0xbd4556d7	-0.04817852
105	0x3e04f5ff	0.12984465
106	0xbd88b9ec	-0.06676087
107	0xbcdad161	-0.026711168
108	0x3e85184a	0.25995094
109	0x3e92692a	0.2859586
110	0xbe7510c0	-0.23932171
111	0xbcd4cd42	-0.02597678
112	0x3e67a290	0.22620606
113	0xbe4f42d9	-0.20240344
114	0x3e468927	0.19388257
115	0xbd45ba12	-0.048273154
116	0xbe409f25	-0.18810709
117	0x3e8b997f	0.27265546
118	0x3e9b28fa	0.303047
119	0x3e0032cb	0.12519376
120	0x3e2e5529	0.17024674
121	0xbe186fbc	-0.14886373
122	0x3e387ff4	0.1801756
123	0x3e013239	0.12616815
124	0xbd3f7945	-0.04674651
125	0xbbc119f9	-0.0058929888
126	0x3dc7a166	0.09747581
127	0xbe9b3654	-0.30314887
128	0xbe20a130	-0.15686488
129	0xbe2c5561	-0.16829444
130	0xbe7a30ae	-0.24432632
131	0x3d2640d4	0.04058917
132	0x3d472bdd	0.048625816
133	0xbe4d56cd	-0.20052643
134	0xbd224b37	-0.03962251
135	0x3d886281	0.06659413
136	0x3e3cfcd0	0.18455815
137	0x3e6b8f54	0.23003894
138	0xbe9d6087	-0.30737707
139	0xbe19f3a6	-0.15034351
140	0xbe6b00d8	-0.2294954
141	0xbdf3366d	-0.11875615
142	0x3e22237a	0.15833846
143	0xbe7d6840	-0.247468
144	0x3c49953b	0.012303646
145	0x3d944666	0.0723999
146	0x3e273ad1	0.1633103
147	0xbe9936a6	-0.29924506
148	0xbe7882bd	-0.24268623
149	0x3e7f1ace	0.24912569
150	0x3df7a54b	0.12092074
151	0x3e4c1d37	0.1993302
152	0xbe2acd0f	-0.16679786
153	0x3de7c0e8	0.11316091
154	0xbe7f296c	-0.24918145
155	0xbe71c140	-0.23608875
156	0x3e0c4651	0.13698699
157	0x3e08ea19	0.13370551
158	0xbe76ac3c	-0.2408914
159	0xbe9b0c26	-0.30282706
160	0x3d8548e1	0.06508041
161	0x3dc399a3	0.09550788
162	0xbd356fb5	-0.044295985
163	0xbdc8b52e	-0.09800182
164	0x3d3b3379	0.045703385
165	0xbe800318	-0.2500236
166	0xbe5b775c	-0.2143225
167	0xbe0cde9d	-0.13756795
168	0xbe3c7329	-0.18403305
169	0xbe8f31c7	-0.27967665
170	0x3e8e6d1d	0.27817622
171	0x3e72fa02	0.23728183
172	0xbe04770b	-0.12936036
173	0x3e30dd3b	0.17271893
174	0xbdac89f5	-0.08424751
175	0x3e0c291b	0.13687555
176	0x3e8304a9	0.25589493
177	0x3e02fc45	0.12791546
178	0xbe883174	-0.2660023
179	0xbe67274e	-0.22573587
180	0x3dedbba1	0.11608053
181	0x3e30b228	0.17255461
182	0x3e3038e6	0.17209205
183	0x3e66dc51	0.22544982
184	0xbe83e66a	-0.2576173
185	0x3d127d3a	0.035763957
186	0x3e090ae9	0.13383068
187	0x3c4b8b95	0.012423416
188	0x3e223dbd	0.15843864
189	0xbe21cd64	-0.15801007
190	0xbd6e7e51	-0.058225933
191	0x3e094e32	0.13408735
192	0xbd082ad1	-0.033243958
193	0x3c1bb073	0.009502518
194	0xbe322431	-0.17396618
195	0x3d2b1453	0.04176743
196	0xbe4f3c9e	-0.20237967
197	0xbe53c43d	-0.20680328
198	0x3c61c24d	0.013779235
199	0xbe7d04c6	-0.24708852
200	0x3e8f6f90	0.28014803
201	0xbe391155	-0.18073018
202	0xbe97750a	-0.2958148
203	0x3e662e75	0.2247866
204	0x3e323ff8	0.17407215
205	0x3d33d8db	0.04390798
206	0xbe3269ff	-0.17423247
207	0x3e6ff97c	0.23435014
208	0xbe86b67d	-0.26311103
209	0x3e082e9e	0.13299033
210	0xbe462fbb	-0.19354145
211	0xbe846db8	-0.2586496
212	0xbe9e31f6	-0.30897492
213	0xbd1ba650	-0.038000405
214	0x3e20dfe7	0.15710412
215	0xbe0358de	-0.12826869
216	0x3d9472d5	0.07248465
217	0x3d9b36ec	0.07578835
218	0xbe7be1b6	-0.2459782
219	0xbe8a10cc	-0.2696594
220	0xbd35d6dc	-0.04439436
221	0xbe1608ac	-0.14651746
222	0x3d5b1f30	0.05349654
223	0x3d7780a5	0.06042542
224	0xb9ecaa24	-0.00045140192
225	0xbe8d9558	-0.27653003
226	0x3e609056	0.2193006
227	0xbe89a4d6	-0.26883572
228	0x3da9c65e	0.08289789
229	0xbdbd01ca	-0.09228857
230	0xbe0a0817	-0.13479649
231	0xbe2132b6	-0.15742001
232	0x3dc111d7	0.09427231
233	0x3e799ffc	0.24377435
234	0x3aeb118b	0.0017934305
235	0x3e065d30	0.13121486
236	0x3e85d444	0.26138508
237	0xbe678aed	-0.2261159
238	0xbd2689a4	-0.040658608
239	0x3e237e23	0.15966086
240	0x3e361eef	0.17785238
241	0xbdc75a9c	-0.09734079
242	0xbe0f1fcc	-0.13976973
243	0x3e92f2a1	0.28700736
244	0xbe15cbed	-0.14628573
245	0xbe4a7c9b	-0.19774096
246	0x3e889d89	0.2668269
247	0x3c4ae8e5	0.012384628
248	0xbe703572	-0.23457888
249	0x3e8468aa	0.25861102
250	0xbe5d6753	-0.21621446
251	0xbe019160	-0.12653112
252	0x3d977117	0.07394617
253	0xbd379c58	-0.044826835
254	0xbe4f876d	-0.20266505
255	0x3dcc2aa1	0.09969068

b f4 [32]
0	0x3bc2f59c	0.005949689
1	0x3c3f2f54	0.011668999
2	0xbc60ac35	-0.013712932
3	0x3bc025d9	0.005863887
4	0xb9fd2840	-0.0004828591
5	0xbc02a9a7	-0.007975019
6	0xbbf4bc26	-0.007468718
7	0x3cb084e7	0.021547748
8	0x3c00a7c9	0.007852503
9	0x3c501b5c	0.0127018355
10	0x3b7514fa	0.0037396536
11	0x3b8b641f	0.0042538787
12	0xbbb8140d	-0.0056176246
13	0x3c58f0a2	0.013240965
14	0xbbd78fe4	-0.0065784324
15	0x3c8c7f94	0.017150678
16	0x3cca9bcb	0.024732491
17	0xbb9eb3a0	-0.0048431903
18	0xbb67890c	-0.003532949
19	0xbb051f08	-0.0020312686
20	0xbc898960	-0.016789138
21	0xbb83a4ab	-0.0040174327
22	0xbca44f2c	-0.020057283
23	0x3c2615ad	0.010137004
24	0x3c6a1c12	0.014288919
25	0x3bfc736b	0.0077041886
26	0xbb426792	-0.0029663783
27	0xbbd33918	-0.006446015
28	0xbc5eafb7	-0.013591698
29	0x3c7e9034	0.01553731
30	0xbbdd7ee1	-0.00675951
31	0x3ca30252	0.019898567

W f4 [32, 32]
0	0xbe6fd364	-0.23420483
1	0xbd999247	-0.07498603
2	0xbe5f60c5	-0.21814258
3	0x3e1c34c1	0.15254499
4	0xbe02a320	-0.1275754
5	0x3c9b6ba1	0.01897222
6	0xbd14a74f	-0.03629237
7	0x3c975d2d	0.018477047
8	0xbe258c1e	-0.16166732
9	0xbe3133da	-0.17304936
10	0xbd7ebda8	-0.06219259
11	0x3e95ea5a	0.2928036
12	0x3dadddb5	0.08489553
13	0x3d6bdd83	0.057584297
14	0x3cc7b065	0.024376104
15	0xbd4d442d	-0.050113846
16	0x3dd0b93e	0.10191582
17	0x3e62de4a	0.22155109
18	0xbda7279f	-0.08161854
19	0xbe927bc8	-0.28610063
20	0xbe8fcae6	-0.28084487
21	0x3e0f5035	0.1399544
22	0xbce06511	-0.027391942
23	0xbdf69392	-0.120398656
24	0xbe008869	-0.12552036
25	0xbdde40b6	-0.108521864
26	0xbe1b7054	-0.15179569
27	0x3e725d78	0.23668468
28	0xbe6d4415	-0.23170502
29	0x3d59fbb0	0.053218544
30	0x3e59933a	0.21247569
31	0xbe571eea	-0.21007887
32	0x3e474fd2	0.19464043
33	0x3e62969d	0.22127767
34	0x3e4bd5cb	0.19905774
35	0xbe81ec20	-0.25375462
36	0x3e41253f	0.18861865
37	0xbd4b2e8a	-0.04960493
38	0x3b93e718	0.0045136325
39	0x3dd7f4ce	0.1054474
40	0x3e960091	0.29297307
41	0xbda3a8f7	-0.07991212
42	0x3e0bff3c	0.13671583
43	0x3e9f1f15	0.310784
44	0x3e5f5fbd	0.21813865
45	0x3dd5e929	0.104448624
46	0x3e8b534f	0.27211997
47	0x3e9b3dd8	0.3032062
48	0x3e213dfa	0.15746298
49	0x3da216a1	0.07914472
50	0x3e206ad7	0.15665756
51	0xbe5dfb38	-0.21677864
52	0xbe816ef3	-0.2527996
53	0x3d7984c0	0.060917616
54	0x3df74645	0.1207395
55	0x3e63c59a	0.22243348
56	0xbe346e04	-0.17620093
57	0x3d932329	0.07184441
58	0xbc834812	-0.016025577
59	0xbe6c3088	-0.23065388
60	0x3dd5f9db	0.10448047
61	0xbd867049	-0.065643854
62	0xbdfd5efb	-0.12371632
63	0xbe1e4263	-0.15455012
64	0x3e446aee	0.19181415
65	0xbdf47643	-0.11936619
66	0x3e7a953c	0.24470991
67	0x3dd38648	0.103283465
68	0x3d159c35	0.036525924
69	0x3e141c06	0.14463815
70	0x3e0b9c10	0.13633752
71	0xbe1cc5ae	-0.15309784
72	0xbe84610e	-0.25855297
73	0xbd8b2119	-0.06793422
74	0x3e6a0899	0.22854842
75	0x3e691284	0.2276097
76	0x3db52e36	0.08846705
77	0x3e987ed5	0.29784265
78	0xbe807671	-0.25090364
79	0x3e84ce79	0.25938776
80	0x3e48bc7f	0.19603156
81	0x3e807eec	0.25096834
82	0x3c3beffb	0.01147079
83	0x3e2bbb86	0.16770753
84	0x3dc3b9e4	0.0955694
85	0xbe790252	-0.24317291
86	0xbe866e00	-0.26255798
87	0x3e8aff19	0.2714775
88	0x3e82328a	0.25429183
89	0xbe0d8508	-0.13820279
90	0x3e4193f5	0.18904097
91	0xbe46768d	-0.19381161
92	0xbe8ddfaa	-0.27709705
93	0xbd3fdfcc	-0.04684429
94	0xbe9d5670	-0.3073001
95	0x3d6b870c	0.057501838
96	0xbdb7d2df	-0.08975767
97	0xbcae540e	-0.021280315
98	0xbd79bd17	-0.060971346
99	0x3e43af38	0.1910981
100	0x3d544595	0.05182417
101	0x3e68b814	0.2272647
102	0xbd31b572	-0.04338593
103	0xbe4be030	-0.1990974
104	0xbe8ec428	-0.2788403
105	0x3dcb65dc	0.099315375
106	0xbde26623	-0.11054637
107	0x3e914c8a	0.28378707
108	0x3e05d8a7	0.13070928
109	0xbe5ac063	-0.21362452
110	0x3dfba660	0.12287593
111	0x3c80db32	0.01572952
112	0xbe6d5cc2	-0.23179916
113	0xbc9f43e3	-0.01944155
114	0xbe891a7d	-0.2677802
115	0x3db17dc6	0.086665675
116	0x3e817e2f	0.25291583
117	0xbe40c9d3	-0.1882699
118	0xbe3fbb87	-0.1872388
119	0x3ca00d87	0.0195377
120	0xbe6ca5c6	-0.23110113
121	0x3e2f3128	0.17108595
122	0xbbe38598	-0.006943416
123	0xbe51bd2d	-0.20482321
124	0x3e70159f	0.23445748
125	0xbe5cf3db	-0.21577398
126	0xbe348ac2	-0.17631057
127	0xbe876954	-0.26447546
128	0x3e50cdeb	0.20391051
129	0x3cf06c55	0.029348532
130	0xbde72231	-0.11285818
131	0x3e6d1616	0.23152956
132	0xbe835237	-0.25648662
133	0xbe5903d1	-0.21192862
134	0x3c17f44d	0.009274554
135	0x3e0741cb	0.13208692
136	0x3e2162c2	0.1576033
137	0xbe380091	-0.17968966
138	0x3e204f2e	0.15655205
139	0x3d615afb	0.055018406
140	0x3e9021c8	0.28150773
141	0x3e743c9a	0.23851243
142	0xbc37c38f	-0.011216058
143	0x3d7550c7	0.05989149
144	0x3c838793	0.016055858
145	0x3d9a86d3	0.07545247
146	0x3e781f04	0.24230582
147	0xbe755f67	-0.23962174
148	0x3e93951e	0.28824705
149	0x3e063fed	0.13110323
150	0xbd1d5fee	-0.038421564
151	0xbe6c86c4	-0.23098284
152	0xbe347349	-0.17622103
153	0x3d9590ff	0.073030464
154	0x3e723aca	0.23655239
155	0xbe853d85	-0.26023498
156	0xbe73c6cf	-0.23806308
157	0x3df99901	0.12187386
158	0xbe80fdb1	-0.2519355
159	0x3e6788e4	0.22610813
160	0xbe5ba245	-0.2144862
161	0x3dea3f91	0.114379056
162	0x3e9002b9	0.28127077
163	0xbda37232	-0.079807654
164	0xbb95e490	-0.004574366
165	0xbdcf079a	-0.10108872
166	0x3e681a59	0.22666301
167	0x3e5184e6	0.20460853
168	0x3da0cb90	0.078513265
169	0xbdbdfbcb	-0.09276541
170	0x3e375a8a	0.17905632
171	0xba3b9354	-0.00071554375
172	0x3db0643f	0.086128704
173	0xbe85b601	-0.2611542
174	0xbe4d9928	-0.20077956
175	0x3e8c27d0	0.27374125
176	0x3db6771c	0.08909437
177	0x3e5208f2	0.20511225
178	0xbc4c64c2	-0.012475194
179	0xbe069fc8	-0.13146889
180	0x3e350af5	0.17679961
181	0x3e8492d7	0.2589328
182	0x3e148b31	0.14506222
183	0x3de08d7d	0.10964487
184	0x3e8ad5ad	0.27116147
185	0xbe60e9b5	-0.21964152
186	0xbbfe6816	-0.007763873
187	0xbe6635a0	-0.22481394
188	0x3d870f8b	0.065947615
189	0x3e37061e	0.17873427
190	0xbd7aa07a	-0.0611882
191	0x3db9a69e	0.09064983
192	0x3e644d30	0.2229507
193	0x3e8f79ba	0.28022557
194	0xbcc095f1	-0.023508998
195	0x3e1bf2b9	0.1522931
196	0x3e504128	0.20337355
197	0x3e2d1f41	0.16906454
198	0xbe6c62c8	-0.23084557
199	0x3bb62eec	0.0055597927
200	0xbca67fd8	-0.020324633
201	0x3e944694	0.28960097
202	0x3e97b777	0.2963216
203	0x3e6e0674	0.23244649
204	0xbda629cc	-0.08113441
205	0x3e47f725	0.19527872
206	0xbdc68811	-0.09693921
207	0x3e792540	0.24330616
208	0x3e5e43bd	0.21705528
209	0x3e31a67d	0.17348666
210	0xbe85edf3	-0.26158103
211	0xbe22c785	-0.15896423
212	0x39b6ec05	0.00034889593
213	0x3e3352e8	0.17512095
214	0x3d90be30	0.070675254
215	0xbcf42a06	-0.029805195
216	0xbd87394d	-0.06602726
217	0xbe894562	-0.26810747
218	0x3e153197	0.14569698
219	0x3e88a135	0.2668549
220	0x3e5c3234	0.21503526
221	0xbe820427	-0.25393793
222	0xbe2b28ac	-0.16714734
223	0xbe2d7cf8	-0.16942203
224	0x3e8d0989	0.27546337
225	0xbe51905e	-0.20465228
226	0xbe2325d0	-0.15932393
227	0x3e219bca	0.15782085
228	0x3e6a9791	0.2290938
229	0x3d27e9ae	0.04099434
230	0xbdf7ecf5	-0.12105743
231	0x3d9508a7	0.07277041
232	0x3c21270d	0.009835971
233	0xbcdc14a4	-0.026865311
234	0x3e31906f	0.17340253
235	0xbe87066c	-0.26372087
236	0xbd9b7472	-0.075905696
237	0xbe34fdbd	-0.17674918
238	0xbd832057	-0.06402653
239	0xbe9a2b5b	-0.30111203
240	0x3d8ed5db	0.069743834
241	0x3e9b1ced	0.30295506
242	0x3e69e4c6	0.22841176
243	0xbdb3d822	-0.087814584
244	0x3e182228	0.1485678
245	0xbe5f8500	-0.21828079
246	0x3d6720b5	0.056427676
247	0xbdc63d30	-0.09679639
248	0xbbf018bb	-0.007327167
249	0xbe9a042e	-0.30081314
250	0x3e12e086	0.14343461
251	0x3e817ac5	0.25288978
252	0x3d7730b7	0.060349192
253	0x3dff8f8b	0.124785505
254	0xbe95908c	-0.29211843
255	0x3e974e9a	0.29552156

b f4 [32]
0	0xbb21bb11	-0.002467815
1	0xbb96716e	-0.0045911586
2	0x3a03c5ac	0.0005026709
3	0x3bb99271	0.005663209
4	0xbc8733da	-0.016504217
5	0x3c1a14e8	0.0094043985
6	0x3c1590e3	0.009128782
7	0x3c08f273	0.008358586
8	0x3aab1872	0.001305355
9	0x3b606095	0.0034237255
10	0xbc458125	-0.012054716
11	0x3a2563cd	0.0006309122
12	0xbc0ad8b1	-0.008474515
13	0xbc1c3881	-0.009534956
14	0xba9887c8	-0.0011637146
15	0x3b3c8b9a	0.0028769732
16	0xbb4a0819	-0.003082758
17	0x3b5a2d09	0.0033291003
18	0x3b3b6d8d	0.0028599233
19	0xba4edd89	-0.00078912877
20	0x3b827a80	0.0039818883
21	0xbb600315	-0.0034181525
22	0x3bb2d9ce	0.0054580932
23	0x3b6211f5	0.0034495567
24	0xbc0de3c6	-0.008660262
25	0xbacfb993	-0.0015848152
26	0x3b63b1ec	0.00347435
27	0xbb32d03e	-0.0027284767
28	0xba77a42d	-0.00094467663
29	0x3bc49830	0.0059995875
30	0x3bff89fd	0.007798432
31	0xbbafcab7	-0.0053647417

W f4 [32, 32]
0	0x3dbe08bf	0.09279012
1	0x3d3f1056	0.04664644
2	0x3e0255cf	0.12728046
3	0x3d75f806	0.060050987
4	0xbd8724fa	-0.065988496
5	0x3da92e0a	0.082607344
6	0x3c8f5eab	0.017501196
7	0xbe767453	-0.24067812
8	0x3e363522	0.17793706
9	0x3ea1d462	0.31607348
10	0x3e2a9736	0.16659245
11	0x3c458c07	0.012057311
12	0xbe0c41f4	-0.13697034
13	0xbe55ec96	-0.20891032
14	0x3d9e013b	0.077150784
15	0xbe826439	-0.2546709
16	0xbdd18b04	-0.10231593
17	0xbe8029a8	-0.2503178
18	0xbd9716fb	-0.0737743
19	0x3e51664c	0.2044918
20	0xbe2d1df7	-0.16905962
21	0xbdbafedb	-0.09130641
22	0x3e647f73	0.22314243
23	0x3e1c172e	0.15243217
24	0x3e57a131	0.21057583
25	0x3cf52e92	0.029929433
26	0x3e3bf7b4	0.1835621
27	0xbda21b17	-0.07915323
28	0xbe5f257f	-0.21791647
29	0xbe989535	-0.29801336
30	0x3e197127	0.1498457
31	0xbc8a1c3a	-0.016859163
32	0x3e06ed1a	0.13176385
33	0x3c1dcb68	0.009631015
34	0xbdcc394d	-0.09971867
35	0x3e1a1aaf	0.15049241
36	0x3e941605	0.2892305
37	0x3e407ba1	0.1879716
38	0x3d630043	0.05542017
39	0x3e5e81d8	0.21729219
40	0xbe88c0f2	-0.26709706
41	0xbdde7413	-0.10861983
42	0xbd180e80	-0.037123203
43	0xbe7fd4ba	-0.24983492
44	0x3e07bfdc	0.13256782
45	0xbe26201d	-0.16223188
46	0xbb8ca82f	-0.00429251
47	0x3e540e44	0.20708567
48	0x3e8f0597	0.27933952
49	0x3deaf4cd	0.11472473
50	0x3d432721	0.047644738
51	0x3dcb74e5	0.09934405
52	0xbe43627a	-0.19080535
53	0x3e85263e	0.2600574
54	0xbe4e026c	-0.20118111
55	0xbc96b942	-0.018398885
56	0xbd8ebae5	-0.06969241
57	0x3e9b09d5	0.3028094
58	0x3e32a866	0.17447051
59	0x3caaef25	0.020865986
60	0xbd50c2f2	-0.050967164
61	0x3d7a46f1	0.06110281
62	0xbd8141f3	-0.06311407
63	0x3e5d481e	0.21609542
64	0x3e942906	0.28937548
65	0x3d6241bd	0.055238474
66	0x3e4a4039	0.19751061
67	0x3e860837	0.26178142
68	0x3e3e94e1	0.1861148
69	0xbe55e63f	-0.20888613
70	0x3dcadfd5	0.09905974
71	0xbe424a5f	-0.18973683
72	0xbe0ac49d	-0.13551565
73	0xbe34f2fd	-0.17670818
74	0x3e3e7d8b	0.18602578
75	0xbe9d2412	-0.30691582
76	0x3e308199	0.17236938
77	0x3cfbde70	0.030745715
78	0xbe9c66f7	-0.30547306
79	0xbd968e82	-0.073514
80	0xbe96ac57	-0.2942836
81	0x3d8fcc54	0.07021394
82	0xbe9b43a8	-0.30325055
83	0x3dae9c8b	0.08525952
84	0x3dedddbe	0.116145596
85	0x3ceae6d3	0.028674519
86	0x3dd40f77	0.10354512
87	0xbdadec14	-0.08492294
88	0x3e85f0c4	0.26160252
89	0x3db095d0	0.086223245
90	0x3d3c05ba	0.0459039
91	0x3e8f963f	0.28044316
92	0x3ca54596	0.020174783
93	0xbdcaed0a	-0.09908493
94	0xbe44a7df	-0.19204663
95	0x3e26ef24	0.16302162
96	0x3e7b5f57	0.24548088
97	0xbe918551	-0.28422025
98	0x3e4421a3	0.19153456
99	0xbdd714bf	-0.10502004
100	0xbdeeed89	-0.116664
101	0xbe8b86b1	-0.272512
102	0xbdde1fa2	-0.10845877
103	0xbd8cd66c	-0.06876835
104	0xbe50f4b1	-0.20405842
105	0xbe224f33	-0.15850525
106	0xbe2ed182	-0.17072108
107	0xbe57ff32	-0.21093443
108	0xbc6f921d	-0.014622238
109	0x3bb16972	0.0054141814
110	0xbe36b8f8	-0.17843997
111	0xbe4b2e9e	-0.19842002
112	0xbe56b3dc	-0.20967048
113	0xbd020bdd	-0.031749595
114	0xbdf0c383	-0.11756041
115	0xbe958d59	-0.29209402
116	0x3e29c4b7	0.16578947
117	0xbe42b6ca	-0.19015041
118	0xbd0d75a6	-0.034536026
119	0xbe8926bf	-0.26787373
120	0x3e18ec2c	0.14933842
121	0xbd299567	-0.041402247
122	0x3dd144a9	0.10218174
123	0x3e0db143	0.13837151
124	0xbe9d210b	-0.30689272
125	0xbe2df1d8	-0.16986787
126	0x3dfed44d	0.12442837
127	0xbe8b5597	-0.27213737
128	0x3e2901e1	0.16504623
129	0x3c4fbb86	0.012678986
130	0x3e266bf3	0.16252117
131	0x3e3b84e5	0.18312414
132	0x3dca5f5d	0.0988147
133	0xbcd99952	-0.026562367
134	0xbce2918e	-0.027657297
135	0xbd988afb	-0.074483834
136	0xbe1ac903	-0.15115742
137	0x3dc36c42	0.09542133
138	0xbe8c9d02	-0.27463537
139	0x3db24340	0.08704233
140	0xbd9c2a4f	-0.07625257
141	0xbc183d74	-0.009291995
142	0xbcca0205	-0.024659166
143	0xbe4d1668	-0.20028079
144	0x3e42914c	0.19000739
145	0xbd6e525c	-0.058184013
146	0x3d064881	0.03278399
147	0xbe89d45b	-0.26919827
148	0x3d2171a5	0.03941502
149	0x3e91fbb5	0.2851235
150	0x3e9ed6d7	0.31023285
151	0x3dbef86b	0.09324726
152	0xbdd47e93	-0.103757046
153	0x3d842a46	0.064533755
154	0x3db1cf2e	0.086820945
155	0xbe6a2c18	-0.22868383
156	0x3daf40e4	0.08557299
157	0xbe4950bb	-0.19659702
158	0xbe5541a6	-0.20825824
159	0x3e9b2775	0.3030354
160	0xbdde5830	-0.10856664
161	0xbdc68ac6	-0.09694438
162	0x3dc8f5ac	0.09812483
163	0x3e2693aa	0.16267267
164	0x3e2a1891	0.16610934
165	0xbe31e9cd	-0.17374344
166	0xbe411b9b	-0.18858187
167	0x3e45358d	0.19258709
168	0x3e4e7d0f	0.20164894
169	0xbd8e6a36	-0.06953852
170	0x3d8cfc37	0.06884044
171	0x3e9079a4	0.28217804
172	0x3e47eb31	0.19523312
173	0xbe3ed221	-0.18634845
174	0xbe2bb2a6	-0.16767368
175	0x3e8e711d	0.27820674
176	0xbddc1b59	-0.10747404
177	0x3e8e9fa2	0.27856165
178	0x3e6f3752	0.23360947
179	0x3e79f1bb	0.24408619
180	0x3e420342	0.18946555
181	0xbe829b24	-0.25508988
182	0x3e9a9c3d	0.30197325
183	0xbdcc07ce	-0.09962426
184	0x3ca78aa9	0.02045186
185	0x3e999e58	0.3000362
186	0xbd23e0de	-0.040009372
187	0xbe0aa89d	-0.13540883
188	0x3e01517a	0.12628737
189	0xbe53b394	-0.20673972
190	0xbdd67870	-0.104721904
191	0xbdf42e9b	-0.11922952
192	0xbe577c63	-0.21043544
193	0x3e730b15	0.23734696
194	0x3d88ea5f	0.06685328
195	0x3d94e007	0.07269292
196	0x3e918077	0.28418323
197	0xbe79bbb8	-0.24388015
198	0xbe1a2d21	-0.15056278
199	0x3ca7aef0	0.020469159
200	0x3e909212	0.28236443
201	0x3e99f038	0.30066085
202	0x3d904b10	0.07045567
203	0x3e167da0	0.1469636
204	0xbe714876	-0.23562798
205	0x3e94699c	0.28986824
206	0xbe948bdd	-0.29012957
207	0xbc6ad2a3	-0.014332446
208	0x3d424c6c	0.047436163
209	0xbd81cab7	-0.06337493
210	0x3e6bf097	0.23040996
211	0xbe5f160c	-0.21785754
212	0x3bfd9e78	0.007739838
213	0xbe39dd9c	-0.18150944
214	0x3e85aedc	0.2610997
215	0x3e61e799	0.22061004
216	0xbc03938c	-0.008030783
217	0x3e82aa80	0.25520706
218	0xbde7d5ce	-0.11320077
219	0x3e8e412b	0.27784094
220	0xbe2fbcf8	-0.1716193
221	0x3e2a479e	0.16628882
222	0xbe8e1dc3	-0.2775708
223	0xbd852f63	-0.06503179
224	0xbda3e05d	-0.08001778
225	0x3e055b3e	0.13023087
226	0x3c38134a	0.011235068
227	0xbdcfa145	-0.101381816
228	0x3e8ecb3b	0.27889428
229	0xbe5fb958	-0.21848047
230	0x3e638c34	0.22221452
231	0x3e610dba	0.21977893
232	0x3d36d95f	0.044640895
233	0x3dddc19c	0.10827944
234	0x3d077e2b	0.033079308
235	0xbdde6ad2	-0.10860218
236	0xbd3a7c9c	-0.045528993
237	0x3e9c88ff	0.3057327
238	0x3e95c5de	0.29252523
239	0xbcdceb53	-0.02696768
240	0x3d201deb	0.039091032
241	0xbe317cb4	-0.17332727
242	0xbdfc8ff9	-0.12332148
243	0xbdc1fe47	-0.09472328
244	0xbe581e3b	-0.21105282
245	0xbca10e36	-0.019660097
246	0xbe5e4c23	-0.21708731
247	0x3d33c823	0.043892037
248	0xbca8984c	-0.020580433
249	0x3e79011a	0.24316826
250	0x3e0dae57	0.13836037
251	0xbe4dae83	-0.20086102
252	0xbda1c712	-0.07899298
253	0xbe6fd8fd	-0.23422618
254	0xbe6b77fd	-0.2299499
255	0x3d77f56d	0.06053679

b f4 [32]
0	0x3bfb2492	0.0076642716
1	0x3b863449	0.0040955883
2	0xbbb48588	-0.005509082
3	0xbb57b058	-0.0032911506
4	0x3b294471	0.0025828148
5	0x3bcb10c3	0.0061970665
6	0x3b1b3d78	0.0023687761
7	0x3c11746a	0.008877853
8	0x3b3df40b	0.0028984572
9	0xbc4133c4	-0.011792127
10	0xbaf65f5a	-0.0018796728
11	0x3c6596cc	0.014013004
12	0xbacb3316	-0.0015502896
13	0x3bb83618	0.005621683
14	0xbbdae463	-0.006680058
15	0xbbd8a01d	-0.006610884
16	0x3b5aec37	0.0033404955
17	0xbaeda1ba	-0.0018129863
18	0x3abf8576	0.0014611918
19	0xbbc64602	-0.006050826
20	0xbcf0633d	-0.029344196
21	0xbc06cdb8	-0.008227758
22	0x3c124529	0.008927622
23	0xbb9b5857	-0.0047407555
24	0x3c2ae290	0.010429993
25	0x3a6c0668	0.000900364
26	0x3c6baef2	0.014384972
27	0x39015e9b	0.00012337642
28	0x3b9d923d	0.0048086927
29	0xbbc3e722	-0.005978481
30	0x3c3a76c5	0.011380856
31	0xba59b607	-0.0008305017

W f4 [32, 32]
0	0xbe0dc915	-0.13846238
1	0xbe69a72f	-0.22817682
2	0xbe5681a0	-0.20947886
3	0xbe172e56	-0.1476377
4	0xbd21e3c5	-0.03952386
5	0xbb49f6ea	-0.0030817338
6	0xbdc80275	-0.09766094
7	0x3e83aad9	0.25716284
8	0xbe26b5e3	-0.16280322
9	0xbd837dfa	-0.064205125
10	0xbe8f4295	-0.27980486
11	0xbc906e15	-0.017630616
12	0x3e8d0e1e	0.27549833
13	0x3e4688f0	0.19388175
14	0xbe25b4c2	-0.16182235
15	0x3dfde929	0.123979874
16	0x3d7d119b	0.061784368
17	0x3e8f7dc7	0.28025648
18	0xbe9dffdf	-0.30859277
19	0xbe7276af	-0.23678087
20	0x3e938459	0.2881191
21	0xbe4051cf	-0.18781208
22	0xbd4c0d2c	-0.04981725
23	0x3e8fafc0	0.28063774
24	0x3e3c9de4	0.18419605
25	0xbe384f85	-0.17999084
26	0xbe5835db	-0.21114294
27	0x3d8f81a3	0.07007148
28	0xbe340d73	-0.17583255
29	0xbe368ca6	-0.1782709
30	0xbdb3b191	-0.087741025
31	0xbdbf4ce7	-0.0934084
32	0xbe23544f	-0.1595013
33	0xbe2089e5	-0.15677603
34	0x3d548742	0.051886804
35	0xbe87a224	-0.2649089
36	0xbe1e068d	-0.15432186
37	0xbe6d7577	-0.2318934
38	0x3e2261db	0.15857641
39	0xbd94c209	-0.07263572
40	0xbd67e7ea	-0.056617655
41	0x3c12e863	0.008966538
42	0xbe033240	-0.12812138
43	0xbd8fad33	-0.07015457
44	0x3e7c71b8	0.24652755
45	0xbdc668f4	-0.09687987
46	0xbd320a2f	-0.043466743
47	0xbe8a4bd3	-0.27010974
48	0x3e650600	0.2236557
49	0xbe07b4dd	-0.13252588
50	0xbe03181c	-0.12802166
51	0xbe9ab7ef	-0.30218455
52	0x3e06fbb7	0.13181959
53	0x3e15babd	0.14622016
54	0xbe873ead	-0.26415005
55	0xbdd45d75	-0.10369388
56	0x3e9e172c	0.30877054
57	0x3e81675f	0.25274178
58	0xbe32a6e2	-0.17446473
59	0x3e100645	0.14064892
60	0xbe995f09	-0.2995532
61	0xbdd55a96	-0.104176685
62	0xbdfc3eb6	-0.12316649
63	0xbe9063da	-0.2820118
64	0xbdb43dee	-0.08800875
65	0x3dcfc3f8	0.101448
66	0xbde1367b	-0.109967194
67	0x3e735acd	0.23765106
68	0xbe3fa639	-0.18715753
69	0xbc9660d2	-0.018356714
70	0x3e19a671	0.15004899
71	0x3d68b04e	0.056808762
72	0x3e386409	0.1800691
73	0xbe850e08	-0.25987267
74	0xbe9dee25	-0.30845752
75	0xbdc500c2	-0.09619285
76	0x3d165f18	0.036711782
77	0x3e373909	0.17892851
78	0xbdbbc398	-0.09168166
79	0x3e662c61	0.22477867
80	0xbe831e8d	-0.25609246
81	0xba92e568	-0.0011207284
82	0x3d3ac4cf	0.045597848
83	0xbe027e99	-0.12743606
84	0x3e5f0983	0.21780972
85	0x3e8d1af8	0.27559638
86	0xbd731848	-0.05934933
87	0x3e6bf27a	0.23041716
88	0x3dbd85c9	0.09254033
89	0x3d3e2936	0.04642602
90	0x3e91ba59	0.28462484
91	0xbd5b0866	-0.053474806
92	0xbe4f61bb	-0.20252125
93	0xbdcd592f	-0.10026776
94	0xbc498199	-0.012298965
95	0xbe182fe1	-0.14862014
96	0xbded2448	-0.11579186
97	0xbe9131e7	-0.28358385
98	0xbdb548b7	-0.0885176
99	0x3e8bd6f3	0.2731243
100	0x3ea13122	0.31482798
101	0xbe78f5e9	-0.24312557
102	0x3d160380	0.03662443
103	0xbe602ed5	-0.21892865
104	0xbe115906	-0.14194116
105	0x39e684be	0.0004396792
106	0xbd9de172	-0.07709016
107	0xbdbe69a1	-0.09297491
108	0xbdd7510c	-0.10513505
109	0xbe84182f	-0.257997
110	0xbe8bf6b6	-0.27336663
111	0x3e83bca9	0.25729874
112	0x3c7fd69c	0.015615132
113	0x3e629e60	0.22130728
114	0x3e1e4d5f	0.15459202
115	0xbe63aced	-0.22233935
116	0xbe8ade4a	-0.27122718
117	0x3920cf6c	0.0001533606
118	0x3e12ef58	0.14349115
119	0x3c8547e5	0.016269634
120	0xbe39749c	-0.18110889
121	0x3dd9e1f3	0.106387995
122	0xbe6bd449	-0.23030199
123	0xbb8db3f3	-0.00432443
124	0x3d990d92	0.074732915
125	0xbdcada47	-0.09904914
126	0x3dfd48d3	0.12367406
127	0xbce62173	-0.028092122
128	0x3e45c21f	0.19312333
129	0x3e916de0	0.2840414
130	0x3e21f9fd	0.15818019
131	0x3dbd7548	0.09250885
132	0x3cbbc01b	0.022918751
133	0x3cf4841f	0.029848156
134	0x3e19f724	0.15035683
135	0xbcc09494	-0.023508348
136	0xbda65427	-0.081215195
137	0x3d3f2d20	0.046673894
138	0x3e066e04	0.13127905
139	0x3e3bf7ae	0.18356201
140	0xbe903ba0	-0.2817049
141	0xbb5eead3	-0.0034014478
142	0x3e39ff61	0.18163826
143	0xbe9fc654	-0.31206
144	0xbda80aa2	-0.08205153
145	0xbe77675a	-0.24160519
146	0xbe80ff73	-0.25194892
147	0xbe17bfed	-0.14819308
148	0xbe9b4b3e	-0.30330843
149	0xbd9b8d43	-0.07595303
150	0xbe0c1ed3	-0.13683634
151	0x3e836273	0.25661048
152	0x3e3f6373	0.1869028
153	0x3e85d808	0.2614138
154	0xbe58ab08	-0.21158993
155	0xbe5ba12b	-0.214482
156	0x3d9f197f	0.07768535
157	0x3e61a988	0.22037327
158	0xbe67aa5e	-0.22623584
159	0x3d9b5d2f	0.07586133
160	0xbe614b28	-0.22001326
161	0x3dcb0482	0.09912969
162	0x3e2b761d	0.16744275
163	0xbdce905b	-0.10086127
164	0x3e8a4ec3	0.27013215
165	0xbe62e914	-0.22159225
166	0xbcfab073	-0.030601716
167	0x3e2fff76	0.17187294
168	0xbe0e8c94	-0.13920814
169	0xbe5d7107	-0.21625148
170	0xbdc639f8	-0.096790254
171	0xbe9db718	-0.30803752
172	0x3e946f03	0.28990945
173	0xbe1b2940	-0.15152454
174	0x3da68109	0.0813008
175	0xbe925729	-0.28582123
176	0xbdf9fbca	-0.12206228
177	0xbe62ed57	-0.2216085
178	0xbda6936f	-0.081335895
179	0x3e6599ad	0.22421904
180	0xbe6b8406	-0.22999582
181	0x3e661538	0.22469032
182	0xbc5f75fc	-0.0136389695
183	0xbe79a940	-0.2438097
184	0x3df16a4a	0.11787851
185	0xbe2c11e0	-0.16803694
186	0xbccb5761	-0.024821939
187	0x3e0f68d2	0.1400483
188	0x3e7d1701	0.24715807
189	0x3db36005	0.08758549
190	0xbe8cd7f2	-0.27508503
191	0xbe35e8e4	-0.17764622
192	0x3d7c4e06	0.061597846
193	0xbcf08538	-0.029360399
194	0x3e8b37f2	0.2719112
195	0xbe65fd72	-0.22459963
196	0xbe35dd3b	-0.17760174
197	0xbd0c75ee	-0.034292154
198	0x3cb63462	0.022241775
199	0xbd526c8c	-0.05137305
200	0xbd49d4fa	-0.049275376
201	0x3e296e3c	0.16545957
202	0x3df42911	0.11921895
203	0xbd23af18	-0.039961904
204	0x3c808368	0.01568766
205	0x3e9ad604	0.30241406
206	0x3d1ad13d	0.0377972
207	0x3c68bf5b	0.014205779
208	0x3e8c987f	0.27460095
209	0x3e4ae1b8	0.19812667
210	0x3e34b885	0.17648514
211	0xbe3451d2	-0.17609337
212	0x3e713462	0.23555139
213	0x3e9952ef	0.29946086
214	0x3e91cd65	0.28477016
215	0xbe640e9d	-0.222712
216	0x3d59e779	0.053199265
217	0x3e910945	0.28327385
218	0xbe364af3	-0.17802028
219	0xbe81e335	-0.25368658
220	0x3e930271	0.287128
221	0xbe50f360	-0.2040534
222	0xbe829a0e	-0.2550816
223	0xbc63689f	-0.013879924
224	0x3e40bb9c	0.18821567
225	0xbe02a441	-0.1275797
226	0x3e676fc1	0.22601224
227	0xbc173bce	-0.009230567
228	0x3e9e9bfc	0.30978382
229	0xbc073e06	-0.008254534
230	0x3e9a7371	0.301662
231	0xbda0861d	-0.0783808
232	0xbdc5b780	-0.096541405
233	0x3e8a4390	0.2700467
234	0x3e43ab56	0.19108328
235	0x3d833974	0.06407443
236	0xbe200bd7	-0.15629517
237	0xbe7f7d23	-0.2495008
238	0xbe10dce6	-0.14146766
239	0xbdcdc241	-0.100468166
240	0xbd802b14	-0.062582165
241	0xb94cd574	-0.00019534474
242	0x3d8fff1d	0.07031081
243	0x3d8813e2	0.06644417
244	0xbe8d79c8	-0.27631974
245	0x3e963149	0.29334477
246	0xbe83d19e	-0.25745863
247	0x3e416862	0.18887475
248	0x3dc802c7	0.09766155
249	0x3e6ac836	0.22927937
250	0xbde09b7d	-0.10967157
251	0xbe07c018	-0.13256872
252	0xbe26b07f	-0.16278265
253	0xbe433a09	-0.19065107
254	0x3d61216e	0.05496352
255	0x3e47f778	0.19527996

b f4 [32]
0	0xbb9218af	-0.004458509
1	0xb9b5d408	-0.00034680986
2	0xb895511c	-7.1199815e-05
3	0xbc33e435	-0.010979702
4	0x3c396f55	0.0113180475
5	0x3a41cdd3	0.0007393036
6	0x3c41af83	0.01182163
7	0xbb79f285	-0.0038138938
8	0x3b5de81f	0.0033860279
9	0x3c0175ce	0.007901622
10	0xbbf14572	-0.007363015
11	0xbc3a11d2	-0.011356788
12	0x3c51dab7	0.012808493
13	0x3bfdb975	0.0077430555
14	0xb944d2bb	-0.0001877052
15	0xbcae25df	-0.021258293
16	0xbc32836e	-0.010895593
17	0xbc687ba1	-0.014189632
18	0x39ab5a91	0.0003268314
19	0xbbeae297	-0.007168125
20	0x3c4d3103	0.012523892
21	0xba80c962	-0.0009825642
22	0xbbaacd30	-0.0052124485
23	0x3c8cd402	0.017190937
24	0xbca7a162	-0.020462696
25	0xbb146fb1	-0.002264958
26	0x3bd01baf	0.0063509564
27	0xbc5fd325	-0.013661181
28	0x3b87db6a	0.0041460292
29	0x3b62c3f0	0.003460165
30	0x3a24ca4a	0.0006286247
31	0x3b9c0223	0.004760997

W1 f4 [32, 128]
0	0xbe0b4a23	-0.136025
1	0x3db3af78	0.087737024
2	0xbd0a54c5	-0.03377225
3	0xbdcc093d	-0.099626996
4	0xbe1cb383	-0.15302853
5	0x3e34f8d8	0.17673051
6	0xbe12a972	-0.14322451
7	0x3d3b6598	0.045751184
8	0x3dfb7b15	0.122793354
9	0x3d1161da	0.03549371
10	0xbd04b113	-0.032395434
11	0xbce005f3	-0.027346587
12	0x3dbf2246	0.09332709
13	0x3e15f669	0.1464478
14	0x3dbf9af8	0.0935573
15	0x3d9b4f8c	0.07583532
16	0x3e1e6532	0.1546829
17	0x3e48c14e	0.1960499
18	0xbced6b51	-0.028981837
19	0xbd179fd3	-0.037017655
20	0xbcfac6d2	-0.030612383
21	0xbe098861	-0.1343093
22	0xbcc80c49	-0.02441992
23	0x3dae27a2	0.08503653
24	0x3da4c67f	0.080456726
25	0xbe146949	-0.14493288
26	0xbe321a45	-0.17392834
27	0x3bf542b7	0.0074847597
28	0x3db0c0a5	0.08630494
29	0x3d2d610f	0.04232889
30	0xbe01fc83	-0.12693982
31	0xbd5f8b06	-0.054575942
32	0xbe08bf8b	-0.13354318
33	0xbdad2f4a	-0.08456285
34	0x3d3fa69f	0.04678976
35	0x3d10d6fa	0.035361268
36	0x3db1df8c	0.08685216
37	0xbe423eb3	-0.1896923
38	0xbe0c7be6	-0.13719139
39	0xbcaf08f5	-0.021366576
40	0x3d557ba8	0.05211988
41	0xbe13ca5c	-0.14432663
42	0xbd2e3f06	-0.042540573
43	0xbcc60f0b	-0.024177095
44	0x3d35e195	0.044404585
45	0xbe14ae23	-0.14519553
46	0xbe1b6f82	-0.15179256
47	0xbe4453f9	-0.19172658
48	0x3dcebb4e	0.10094319
49	0x3cd1eddc	0.025626116
50	0xbe1b051a	-0.15138665
51	0xbc8c975d	-0.01716202
52	0xbe469877	-0.19394098
53	0x3dd7f364	0.1054447
54	0xbd830d79	-0.06399054
55	0xbe36c32a	-0.17847887
56	0xbe120adb	-0.14261954
57	0xbe0e4952	-0.13895157
58	0xbe09b1f4	-0.1344679
59	0x3df16ce9	0.11788351
60	0xbe0a5ce0	-0.13511992
61	0xbe208a17	-0.15677677
62	0xbd6c8558	-0.057744354
63	0xbe3e900f	-0.18609641
64	0x3dd241e7	0.10266476
65	0xbe0ff681	-0.14058878
66	0x3cb4e78f	0.022083072
67	0x3e17a78e	0.14810011
68	0xbe265b9d	-0.16245885
69	0x3e45491e	0.19266173
70	0xbc81d081	-0.015846493
71	0xbdd4b2e0	-0.1038568
72	0xbde851d8	-0.113437355
73	0xbe2f9721	-0.17147495
74	0x3d857747	0.06516891
75	0x3e312edf	0.17303036
76	0xbcc2899a	-0.023747254
77	0x3da52c92	0.08065142
78	0x3e0e4d09	0.13896574
79	0xbe38bdbc	-0.18041128
80	0xbdf2b536	-0.118509695
81	0x3b8a8014	0.004226694
82	0x3dc03cbb	0.093865834
83	0xbd26bb22	-0.040705808
84	0xbcf1b275	-0.02950404
85	0xbdd5a864	-0.104325086
86	0xbe236530	-0.15956569
87	0x3dccc4d4	0.099984795
88	0xbca4aa52	-0.020100746
89	0xbe310462	-0.17286828
90	0x3dad2d5a	0.08455916
91	0xbd800247	-0.06250434
92	0xbdd7838d	-0.10523138
93	0x3dfa2002	0.12213136
94	0x3ca0f3e9	0.019647555
95	0xbbf797e0	-0.0075559467
96	0xbd11070a	-0.035407104
97	0x3e1a677c	0.15078539
98	0x3ddd13f2	0.1079482
99	0xbe3ff829	-0.1874701
100	0xbe162f88	-0.14666569
101	0x3d4d871c	0.05017768
102	0xbe404b78	-0.18778789
103	0xbc3d5711	-0.011556403
104	0x3d99a8e2	0.07502915
105	0xbdd817b9	-0.105514
106	0x3e2b96e0	0.16756773
107	0x3e14aee9	0.14519848
108	0x3c211b4b	0.009833167
109	0xbe113192	-0.14179066
110	0x3cdd6183	0.027024036
111	0xbdb0ea24	-0.08638409
112	0xbe34c892	-0.17654637
113	0xbdf514f3	-0.11966886
114	0x3d817e7a	0.063229516
115	0xbca8837c	-0.02057051
116	0x3e128fcc	0.14312667
117	0x3cd5e45f	0.026109872
118	0xbe195f1b	-0.14977686
119	0x3dbddcbc	0.09270617
120	0xbde26c86	-0.110558555
121	0xbdfd1685	-0.12357811
122	0x3e15fa51	0.1464627
123	0xbd2c4271	-0.04205555
124	0xbdb0be8f	-0.08630096
125	0xbda24669	-0.07923586
126	0x3db9c839	0.090713926
127	0x3d9e9ead	0.07745109
128	0xbd447aeb	-0.047968786
129	0xbe09bab2	-0.13450125
130	0x3db1cc45	0.086815394
131	0xbc818754	-0.0158116
132	0xbe43769c	-0.19088215
133	0x3dfaf542	0.122538105
134	0x3d8fd57d	0.070231415
135	0xbdae5f98	-0.08514327
136	0xbc69534e	-0.014241053
137	0x3c6f2688	0.014596589
138	0x3e2f5fa1	0.17126323
139	0xbaa06e4c	-0.0012239902
140	0x3e21a8b0	0.15787005
141	0xbe0330fa	-0.12811652
142	0x3c2ca5ca	0.010537574
143	0xbacc04b3	-0.0015565365
144	0x3d617fc5	0.05505349
145	0xbd9173ce	-0.07102166
146	0xbdca30c3	-0.09872582
147	0xbddd5722	-0.10807635
148	0x3d26c951	0.040719334
149	0x3e461ecc	0.19347686
150	0xbe241ad1	-0.16025855
151	0xbe0e9c91	-0.13926913
152	0xbca66d30	-0.020315737
153	0xbd14ded0	-0.036345303
154	0x3ddf5e28	0.10906631
155	0x3e4d9d97	0.20079647
156	0xbda909bb	-0.08253809
157	0xbcc327a5	-0.023822615
158	0xbd782d9e	-0.06059038
159	0xbdea13a4	-0.114295274
160	0x3dfb2d1e	0.12264465
161	0x3e2a707e	0.16644475
162	0xbe0b95aa	-0.13631311
163	0x3d89319e	0.06698917
164	0x3e2e9319	0.17048301
165	0xbdac7ea2	-0.08422591
166	0x3da8b7ff	0.082382195
167	0x3e1c939b	0.15290682
168	0xbb786951	-0.003790457
169	0xbdaf0e91	-0.085477
170	0xbe29402b	-0.16528384
171	0xbd94f900	-0.072740555
172	0x3dc1f09c	0.09469721
173	0xbe168454	-0.14698917
174	0xbe07c504	-0.13258749
175	0xbe48a9c2	-0.19596007
176	0x3be8a2dd	0.007099493
177	0xbe163547	-0.14668761
178	0x3e3c2f98	0.1837753
179	0xbd0de31a	-0.03464041
180	0x3c7c04d8	0.015382014
181	0xbcf7d95e	-0.030255016
182	0xbe0d6712	-0.1380885
183	0x3d2c7ba2	0.042110093
184	0xbdc1b0c0	-0.094575405
185	0xbccc2d51	-0.024923952
186	0x3c95ec43	0.018301135
187	0x3e42688f	0.18985198
188	0x3e1db4b8	0.1540097
189	0x3c67d7d0	0.014150575
190	0xbc30b6c6	-0.010785764
191	0xbb4fb9e2	-0.0031696488
192	0xbde57ded	-0.11205659
193	0xbcf86333	-0.03032074
194	0x3e1284ff	0.14308546
195	0x3e19097b	0.14945023
196	0xbd95e361	-0.0731876
197	0xbd2822a5	-0.041048665
198	0x3d8ee6c4	0.06977609
199	0x3de156d2	0.11002888
200	0xbc8d401a	-0.01724248
201	0xba1f1158	-0.0006067953
202	0x3bbfd922	0.0058547417
203	0x3e239f6f	0.15978788
204	0x3d8e2d60	0.06942248
205	0x3e17184b	0.14755361
206	0xbe249ed4	-0.16076213
207	0x3d9ebc67	0.07750779
208	0xbe2c3252	-0.1681607
209	0x3d1907f7	0.03736111
210	0x3df4295c	0.11921951
211	0xbdc2c221	-0.095096834
212	0x3e0131e1	0.12616684
213	0x3d72fafe	0.059321396
214	0xbd991f1b	-0.07476636
215	0xbdf38640	-0.118908405
216	0xbdcb8bb1	-0.099387534
217	0xbdd1e6ca	-0.10249098
218	0xbe1ddfce	-0.15417406
219	0x3e221b7e	0.158308
220	0x3df4be52	0.11950363
221	0xbe0a428f	-0.13501953
222	0x3ca0ec0b	0.019643804
223	0xbd57a4ac	-0.052647278
224	0x3e4575ef	0.1928327
225	0xbe0e0fe4	-0.1387325
226	0x3e153247	0.1456996
227	0xbddf62cc	-0.10907516
228	0xbe1a0254	-0.1503995
229	0xbcc08ae8	-0.023503736
230	0x3dea0d4e	0.11428319
231	0x3d8fc87c	0.07020661
232	0xbd8013d8	-0.06253785
233	0xbd9e94e2	-0.07743241
234	0x3dd6bd4c	0.10485324
235	0xbcfd2221	-0.030900063
236	0xbd9fa09c	-0.07794306
237	0xbe3d3eca	-0.18480983
238	0xbd86ba6b	-0.06578525
239	0x3de8af47	0.113615565
240	0x3dfd350d	0.12363634
241	0xbc891d2e	-0.016737547
242	0xbdc738c5	-0.09727625
243	0x3db184d1	0.08667911
244	0xbe39f30f	-0.18159126
245	0x3d8f9cef	0.070123546
246	0x3e2fec57	0.1718
247	0x3df3f974	0.11912814
248	0x3df64cd7	0.12026375
249	0x3d5d6c8d	0.0540586
250	0x3e07906e	0.1323869
251	0xbd8fedf8	-0.07027811
252	0x3d05baab	0.032648724
253	0xbc6cad2f	-0.014445587
254	0x3e3a165e	0.18172595
255	0x3d75e53b	0.060033064
