saved_models/model-epoch-0.pth (torch, 249104 bytes, 52 tensors)

embeddings f4 [99, 32]
00000000: 76fa 593e d4a6 4dbe d2be f03d c77e 133d
00000010: b0a0 69bd a282 cfbd f779 ae3d 2d0c 2fbe
00000020: 986b f8bd 8107 bb3d 5c7f a33c c133 35be
00000030: 5f3a 1f3e 6409 58be d4a9 60bc e49e 17be
00000040: 4ddb 4b3e 760b a2bd 6b53 293e 2f9b 3cbd
00000050: 9a6b 093d 3f6e 313e e494 adbd 4f4a abbd
00000060: 4ad8 54be e1eb 7bbd 4585 28be ab7b 013e
00000070: 2b1d 253e 9692 363e 12dc bfbd 2e68 1f3e
00000080: 41c2 5abc d9de c53d 0e16 da3d 300c 4ebc
00000090: f818 a23d 38c5 2c3e a2c5 e9bd 5105 4abe
000000a0: e6af a83d ffcf b2bd 8623 043c 8ecc 3bbe
000000b0: dd3f a4bc 6db5 06be ada8 2cbe 2000 693d
000000c0: 5903 323e 07f4 f4bd 0a2d ccbd b7bd 0e3e
000000d0: 1457 15be 6370 cbbd 4ded 343e 2cdd eb3d
000000e0: bcc2 fb3c da05 ca3d 3911 a3bd 1c33 533e
000000f0: 76d7 0ebe 3302 09bd 8c79 73bd dd37 463e
00000100: 9c69 2bbe 0078 46bd e72e 24be 9568 213e
00000110: 9356 e8bd 7d05 aebd 2b90 12be 8ea6 babc
00000120: 399a 53be f433 f2bd bf97 583d ad46 57be
00000130: ee82 60bd b53d ef3d e38f 0e3d 9eef 6e3d
00000140: 1285 c1bd df58 d13d 5af9 723c 5be6 d9bd
00000150: 64d1 493e 4d25 60bd b7c4 3d3d 3593 2b3d
00000160: bd3b b03c af87 17be f894 b3bb 38a6 20bc
00000170: 9035 e8bd b6a0 18bd 2db4 8f3c 4f6a 3abc
00000180: 8bc8 58be 00b9 1c3d e441 13be 5b87 4d3e
00000190: a9f9 193e 5d5a 9d3b 5880 ed3d 2a78 843d
000001a0: 13c2 503d d8cc c3bd 91ef 2c3b 9b75 4b3b
000001b0: 6912 2a3e 29dc 67bd 66fa cb3c ff5d ccbd
000001c0: c5f7 a3bd ba91 5abd f25c c13d c7e1 c83d
000001d0: c1df 4fbe 9799 81bd 04ac 15bb 9e23 dc3d
000001e0: d351 12be 5f5c dbbd 4cac 503e d3ce 41be
000001f0: 0648 263c 6d62 89bd 2017 02be 69cd 3fbe
00000200: 13c6 4cbe c093 183e 1b66 0a3d 0d2f 443d
00000210: 6f5b 423d aaa2 17be 30f4 1bbe 3f21 e13c
00000220: 58ea 57bd 0ce1 1e3e bfd4 ab3c 046e 1d3e
00000230: d1dd 463c e8f4 3fbe 6823 143d 29bd 19be
00000240: 8f06 0e3e a820 0fbe 114f 32be 517b 2ebe
00000250: 3d5f 12be 341a 1c3e 7213 593b 683b 2ebe
00000260: ef23 acbd 0f4d 713d f4ee 063e c8eb 2d3d
00000270: 8b86 083e e6e0 9dbd e229 503e adec 8f3d
00000280: 9166 99bd 9ef0 37bd 81d7 e33b 0ba8 16be
00000290: 570d 2bbe 1e73 2d3e d5fd bbbd e8ee 173e
000002a0: 67b9 383e 5fe9 6bbc 227b 273d bba6 363e
000002b0: 7cb7 023c a80b 2d3e f23e 3d3e 5123 e83c
000002c0: 508f 513d 3cb9 e83d 2862 2c3e 4fb8 313e
000002d0: 4f4b b43c 6ebe f9bd ebb6 303e 5a62 da3d
000002e0: 4ee7 9cbd 7078 4fbe b1da 03be 27a9 17bd
000002f0: 61b5 4c3e b484 75bd 42c4 42be 27f6 203e
00000300: fd14 323e f84a 5c3c edb6 1ebe b5ab 96bd
00000310: dd37 0dbe 0fb7 3f3e 9f8f 30be b856 6fbd
00000320: 205d 50be 7061 053d b367 9ebc 629a 973d
00000330: ebbf 4ebe e1e8 283d 51f5 4abe 284a 353e
00000340: 50ca 12bc da65 44be 940d 52bd 2bf9 4f3e
00000350: 4846 49bd 106e 46be 1b3f 37be 5b47 25be
00000360: 1b11 9cbd dcae ffbd a485 31be 8c73 ac3c
00000370: 48b7 2dbe 4fcb 3d3e aba5 c23d 27c9 06be
00000380: 16ed d43c e32e 0ebc 92cd 22be 683e 293e
00000390: 5bb7 d5bd 4547 f03c 7296 0abe 6ab3 31be
000003a0: 4f2d adbc fbc0 233e a888 fdbd 6802 573e
000003b0: 4fa4 f4bb b0cb d73d 15f0 f73d 012e ce3d
000003c0: 07cf 023b bd25 0e3d 1133 84bd 73bd 273e
000003d0: bcb6 493e 6eeb 55be 6a7b a2bd b141 2dbe
000003e0: 5bcc 343c 26ea 48be 8458 febd 2d8b 523e
000003f0: 0c32 e1bc 399b bfbc 7e4a 143e ea89 de3c
0.2128695 -0.20083171 0.11755146 0.036009576 -0.05703801 -0.10132338 0.08519357 -0.17094488
-0.12129897 0.09132291 0.01995819 -0.17695524 0.1554961 -0.21097332 -0.013712365 -0.14806706
0.19907875 -0.07912342 0.16535728 -0.046046432 0.033549882 0.17327212 -0.08475664 -0.083637826
-0.20785633 -0.06150425 -0.16457088 0.12644832 0.16124408 0.17829356 -0.09368147 0.15567085
-0.013351978 0.096616454 0.10648738 -0.012576148 0.07914919 0.16872108 -0.114146486 -0.1972859
0.08236675 -0.08731078 0.00806511 -0.1833975 -0.020049984 -0.13155146 -0.1686122 0.056884885
0.1738409 -0.11960607 -0.09969528 0.13939558 -0.14583999 -0.099335454 0.17668648 0.115167946
0.030732505 0.09864397 -0.07962269 0.20624965 -0.1394938 -0.033449363 -0.059442088 0.19357248
-0.16739506 -0.048454285 -0.16033517 0.15762551 -0.11344638 -0.084971406 -0.14312808 -0.022784498
-0.206643 -0.118263155 0.05287909 -0.21023054 -0.054812364 0.116816916 0.03480519 0.058333986
-0.09449209 0.10222029 0.014829958 -0.1063964 0.19708782 -0.054723073 0.04633018 0.041888434
0.02151286 -0.14797853 -0.005480405 -0.009805255 -0.11338341 -0.03726264 0.01754197 -0.011377885
-0.21170251 0.038262367 -0.14380604 0.20071165 0.15036644 0.004802032 0.11596745 0.06468232
0.050966334 -0.09560555 0.002638791 0.003104544 0.16608585 -0.056606445 0.024899673 -0.09978866
-0.08006243 -0.053361632 0.09441556 0.098086886 -0.20300199 -0.06328123 -0.0022838125 0.10748981
-0.14289026 -0.10710978 0.20378226 -0.18926553 0.010149008 -0.06708226 -0.12704134 -0.18730702
-0.19997434 0.14900112 0.03378878 0.047896434 0.04745048 -0.14808145 -0.15229869 0.027481673
-0.052713722 0.15515536 0.020975469 0.15373999 0.012137846 -0.18745768 0.03616658 -0.15013565
0.1386969 -0.13977301 -0.17412974 -0.17039229 -0.14294143 0.1524437 0.0033123163 -0.17014849
-0.08405291 0.05891138 0.13177091 0.042461187 0.13332574 -0.077089116 0.20328477 0.07027564
-0.07490266 -0.044907205 0.0069531803 -0.14712541 -0.16704307 0.16938445 -0.09179274 0.14837229
0.18039475 -0.014398902 0.040888913 0.1783704 0.007978316 0.16898978 0.18481043 0.028337153
0.051162064 0.11363456 0.16834319 0.17355464 0.022008566 -0.12194525 0.17257278 0.1066329
-0.07661305 -0.20260787 -0.12876393 -0.03702655 0.19991066 -0.05994101 -0.19020179 0.157189
0.17390819 0.013445608 -0.15499468 -0.07356969 -0.13790841 0.18722175 -0.17242287 -0.05843231
-0.20348024 0.032563627 -0.019336557 0.07402493 -0.20190398 0.041237716 -0.19820143 0.1770407
-0.008959368 -0.19179478 -0.05128248 0.20309894 -0.04913929 -0.19377923 -0.17895167 -0.16140501
-0.0762045 -0.12484524 -0.17336136 0.02105119 -0.16964447 0.18534587 0.09504255 -0.13162671
0.025991958 -0.008678171 -0.15898731 0.16527712 -0.10435363 0.029330859 -0.13533953 -0.17353597
-0.021139769 0.15991585 -0.12379581 0.20997012 -0.007465876 0.10536897 0.12106339 0.10067368
0.0019959824 0.03470396 -0.06455053 0.16380863 0.19698614 -0.2089059 -0.079336956 -0.1691959
0.01103505 -0.1962057 -0.12419227 0.20560904 -0.027489685 -0.023389446 0.14481542 0.027165372

_pos_embeds f4 [64, 32]
00000000: 0000 0000 0000 803f 0000 0000 0000 803f
00000010: 0000 0000 0000 803f 0000 0000 0000 803f
00000020: 0000 0000 0000 803f 0000 0000 0000 803f
00000030: 0000 0000 0000 803f 0000 0000 0000 803f
00000040: 0000 0000 0000 803f 0000 0000 0000 803f
00000050: 0000 0000 0000 803f 0000 0000 0000 803f
00000060: 0000 0000 0000 803f 0000 0000 0000 803f
00000070: 0000 0000 0000 803f 0000 0000 0000 803f
00000080: a46a 573f 4051 0a3f ba7d 083f 0e94 583f
00000090: 3e39 9f3e 6a4e 733f 3a23 353e 83f6 7b3f
000000a0: 7675 cc3d 98b8 7e3f b036 663d 6898 7f3f
000000b0: 5c81 013d 3cdf 7f3f 42ab 913c a3f5 7f3f
000000c0: 57d6 233c b9fc 7f3f 5c44 b83b f7fe 7f3f
000000d0: 203e 4f3b acff 7f3f 2015 e93a e5ff 7f3f
000000e0: 6d12 833a f8ff 7f3f 166a 133a fdff 7f3f
000000f0: 5fcb a539 ffff 7f3f 5377 3a39 0000 803f
00000100: b7c7 683f 3311 d5be 0af2 663f b2e8 dc3e
00000110: 1b54 173f ec7b 4e3f f647 b23e a5fa 6f3f
00000120: f96f 4b3e a5e5 7a3f 88d9 e53d f361 7e3f
00000130: c870 813d f97c 7f3f 5ca5 113d 8ed6 7f3f
00000140: 3ed4 a33c e5f2 7f3f 9d43 383c dbfb 7f3f
00000150: dd3d cf3b b0fe 7f3f 0815 693b 96ff 7f3f
00000160: 6912 033b deff 7f3f 146a 933a f5ff 7f3f
00000170: 5fcb 253a fdff 7f3f 5377 ba39 ffff 7f3f
00000180: c381 103e 2670 7dbf d745 7e3f a87f edbd
00000190: c209 503f 572f 153f 6d2f 023f 296d 5c3f
000001a0: 6d4e 973e ef90 743f d8ee 2b3e 9e5d 7c3f
000001b0: c1ff c13d 4fd9 7e3f 4d69 5a3d c3a2 7f3f
000001c0: 20b9 f53c 83e2 7f3f c731 8a3c adf6 7f3f
000001d0: 116e 1b3c 0dfd 7f3f a8cf ae3b 11ff 7f3f
000001e0: 939b 443b b5ff 7f3f 1b1f dd3a e8ff 7f3f
000001f0: 0db1 783a f8ff 7f3f 7ed9 0b3a feff 7f3f
00000200: cfbd 41bf 3055 27bf ed49 473f 9daf 20bf
00000210: de1d 743f b12e 9a3e bc1f 273f edeb 413f
00000220: d761 c73e a7ca 6b3f c665 643e 098d 793f
00000230: 882e 013e 69f4 7d3f c88d 913d 475a 7f3f
00000240: dbcb 233d 94cb 7f3f a240 b83c 6cef 7f3f
00000250: cd3c 4f3c c2fa 7f3f a714 e93b 58fe 7f3f
00000260: 5812 833b 7aff 7f3f 0e6a 133b d6ff 7f3f
00000270: 5ccb a53a f3ff 7f3f 5277 3a3a fcff 7f3f
00000280: 107c 75bf 2c3c 913e d6da a53e 4032 72bf
00000290: 7ffc 7f3f d472 29bc abca 463f f14c 213f
000002a0: 4477 f53e 40a9 603f ee11 8e3e 7cf2 753f
000002b0: 1e3c 213e 81ce 7c3f 21db b53d 1efd 7e3f
000002c0: f5b6 4c3d 19ae 7f3f fe4d e63c 19e6 7f3f
000002d0: 8185 813c cff7 7f3f bbac 113c 69fd 7f3f
000002e0: ded6 a33b 2eff 7f3f 8c44 383b beff 7f3f
000002f0: 313e cf3a ebff 7f3f 2615 693a f9ff 7f3f
00000300: 8c0f 8fbe b8cd 753f 74e5 6bbe 531d 79bf
00000310: 4d78 723f 6f3f a4be 8930 603f 342f f73e
00000320: 698c 103f 3249 533f fd7d a93e e290 713f
00000330: 6f20 413e e367 7b3f c119 da3d 518b 7e3f
00000340: d19c 753d 128a 7f3f bf2c 0a3d b3da 7f3f
00000350: 466c 9b3c 34f4 7f3f 04cf 2e3c 45fc 7f3f
00000360: 599b c43b d2fe 7f3f 061f 5d3b a1ff 7f3f
00000370: 05b1 f83a e2ff 7f3f 7dd9 8b3a f6ff 7f3f
00000380: 4630 283f bdff 403f 6eb6 36bf 604f 33bf
00000390: 6fe8 4c3f bb74 19bf 4484 723f b9f8 a33e
000003a0: 73eb 243f b3cc 433f df60 c43e c56b 6c3f
000003b0: 50d3 603e eac0 793f ba46 fe3d e904 7e3f
000003c0: 323e 8f3d 815f 7f3f 6031 213d 3bcd 7f3f
000003d0: a652 b53c f2ef 7f3f 2af1 4b3c ecfa 7f3f
000003e0: c75f e53b 65fe 7f3f befc 803b 7eff 7f3f
000003f0: ec11 113b d7ff 7f3f 6628 a33a f3ff 7f3f
0.0 1.0 0.0 1.0 0.0 1.0 0.0 1.0
0.0 1.0 0.0 1.0 0.0 1.0 0.0 1.0
0.0 1.0 0.0 1.0 0.0 1.0 0.0 1.0
0.0 1.0 0.0 1.0 0.0 1.0 0.0 1.0
0.84147096 0.5403023 0.53316844 0.84600914 0.3109836 0.95041525 0.17689219 0.9842302
0.099833414 0.9950042 0.056204498 0.9984193 0.031617507 0.99950004 0.017781857 0.99984187
0.009999833 0.99995 0.0056233834 0.9999842 0.0031622723 0.999995 0.0017782785 0.9999984
0.0009999998 0.9999995 0.0005623413 0.9999998 0.00031622776 0.99999994 0.00017782794 1.0
0.9092974 -0.41614684 0.9021307 0.43146282 0.5911271 0.8065784 0.34820527 0.9374183
0.19866933 0.9800666 0.112231314 0.9936821 0.063203394 0.9980007 0.03555809 0.9993676
0.019998666 0.9998 0.011246589 0.99993676 0.0063245133 0.99998 0.0035565514 0.9999937
0.0019999987 0.999998 0.0011246824 0.99999934 0.0006324555 0.9999998 0.00035565588 0.99999994
0.14112 -0.9899925 0.9932532 -0.11596614 0.8126489 0.5827536 0.50853616 0.86104065
0.29552022 0.9553365 0.1679033 0.9858035 0.09472609 0.99550337 0.05332308 0.9985773
0.029995501 0.99955004 0.016869439 0.9998577 0.009486691 0.999955 0.005334813 0.99998575
0.0029999956 0.9999955 0.0016870232 0.99999857 0.0009486832 0.9999995 0.0005334838 0.9999999
-0.7568025 -0.6536436 0.77847177 -0.62767965 0.95358074 0.30113748 0.652828 0.7575062
0.38941833 0.921061 0.22304448 0.9748083 0.12615407 0.99201065 0.07107121 0.9974713
0.039989334 0.9992001 0.022491757 0.99974704 0.012648773 0.99992 0.0071130577 0.9999747
0.0039999895 0.999992 0.0022493633 0.9999975 0.0012649107 0.9999992 0.0007113117 0.99999976
-0.9589243 0.2836622 0.3239352 -0.94607925 0.99994653 -0.010342319 0.77652997 0.6300803
0.47942555 0.87758255 0.27748054 0.96073127 0.15745589 0.987526 0.08879686 0.99604976
0.04997917 0.99875027 0.028113361 0.99960476 0.01581073 0.999875 0.00889128 0.9999605
0.0049999794 0.9999875 0.002811703 0.99999607 0.0015811381 0.99999875 0.0008891396 0.9999996
-0.2794155 0.96017027 -0.23036748 -0.9731037 0.94714814 -0.32079646 0.8757406 0.482782
0.5646425 0.8253356 0.33103934 0.943617 0.18860029 0.98205394 0.106494434 0.9943133
0.059964005 0.99820054 0.03373408 0.99943084 0.018972527 0.99982 0.010669474 0.9999431
0.005999964 0.999982 0.0033740415 0.99999434 0.0018973654 0.9999982 0.0010669675 0.9999994
0.6569866 0.75390226 -0.71372116 -0.7004299 0.80042166 -0.5994374 0.9473307 0.32025698
0.64421767 0.7648422 0.38355157 0.92351943 0.2195561 0.9755999 0.12415834 0.9922624
0.06994285 0.997551 0.03935373 0.9992253 0.022134136 0.999755 0.012447635 0.9999225
0.006999943 0.9999755 0.003936379 0.99999225 0.0022135926 0.99999756 0.0012447953 0.9999992

W f4 [32, 32]
00000000: 8315 0e3d 0f6f f5be 8f66 a23d 7026 353e
00000010: 869b 09be e63d 4c3c 8ccd b53e 3a3c debd
00000020: 7a1d 92be 5e46 30be 12ce 213e 14e2 1fbd
00000030: 05c8 573e 4d30 243e d16a ca3d 3c44 9e3e
00000040: 2624 36bd ba75 913e 36ff a83e 5bc5 773e
00000050: 24e6 963c 1111 073f 4033 963e df51 9d3d
00000060: 54df 423e 74bb f63e 5797 3a3e ad64 973e
00000070: d5f3 4b3d b48f 603e 837e 493e dade 013f
00000080: cf80 783e c0bb 363a ec7c 7fbe f249 2c3e
00000090: 9683 e2be c992 38bd bc28 7e3e a689 cb3e
000000a0: 3ee1 983e 3be2 dcbe ac12 a3be 5512 9c3d
000000b0: c4ff edbb d033 70bd 3024 debe 44d9 e4be
000000c0: 0816 84bd fd5b a8be 6e97 413c d7f7 1bbd
000000d0: 1622 cfbe 649b ebbe 5981 a5be 44e7 a6be
000000e0: db44 87be 51bd d2be 3786 c8bd a354 c2be
000000f0: f8d6 39be 439e b9be 3b79 08bf 050a e3be
00000100: 2d53 62bd 5844 f33e e8dc a5be 0e2e 33be
00000110: 1f05 f53e 5cfb e63e 4bef d6be 726e 87be
00000120: aa45 3f3d a0b0 75ba ec8a d53d d817 c5be
00000130: d39c 7a3e f76e 8ebe dd02 993e d2b5 593c
00000140: 1282 f73c 3fca e7bc ccd9 24bd ad14 5d3e
00000150: c508 013f 55ba d83e 52d2 8b3e deb9 863d
00000160: fabc 42bd 3e04 3a3e b300 b33d c327 a53d
00000170: 2aeb 70bd b601 043f f806 a93b e532 4c3e
00000180: 8a2f 493e b61a 823e 5ece a03e 2a2c 973d
00000190: adf4 9c3e 5633 6a3d 6a0f 483e 7590 5fbe
000001a0: 24b5 783e 2dda 18be 2eb5 e4be 4b52 4a3e
000001b0: d3da 68bd 7218 f5bc 6ad5 c33c e50c 0cbe
000001c0: 0056 373e 36fd 453e 6224 9abe 6f6b 0bbd
000001d0: b6cc 5a3e 2ebc bbbe 96a6 a2be b6ab f2bc
000001e0: ea83 a3bd d04c d6bd 5994 a9be 1366 0cbe
000001f0: 9092 513e 047b 12be 1337 cc3d 6229 8cbd
00000200: 6a2a 1bbe f2fc 04bd ec98 2bbe 097d a43d
00000210: de29 5fbe f495 9d3e fa26 ecbe f7fc 1cbe
00000220: 71a7 f23d 61b2 af3e f773 cdbe e539 0dbe
00000230: 10b7 993e e3aa a9be 8c9d cf3d 3600 2cbd
00000240: d3c9 24bc 9016 26be fd52 6b3e 2c32 013e
00000250: 4bf6 8a3e 3185 03bd 3418 053e 778e 5c3e
00000260: 9ddd 93bd 9007 803e 0dcb 64be fc3b a83d
00000270: d310 e0bd 17fe 1fbe 56e1 673e 4db9 a13e
00000280: 75fb 0abe 5bfe 1bbe a375 9dbe 63d6 373e
00000290: e083 e5be 684b 423e 3cff b2be b804 263e
000002a0: e4c5 8abd 6a47 693e 0c7f 66be 6927 b73d
000002b0: e91c bcbe 8691 ebbe cd43 da3c 839f a3be
000002c0: dc9d 02bf fad7 a1be a3c2 b5be 86b4 1bbc
000002d0: a4c1 12be a34d dabe 14aa bcbe c80e adbe
000002e0: f8f2 d6be 98c8 6cbe bd1b 79be 45b6 90bd
000002f0: 19ec 04bf d18f 88be 420e acbe 7e92 a3be
00000300: 5487 8e3e 9451 79bd a150 ae3d 4e8c f23e
00000310: 0e9b c33d 30f8 3b3e 4cb8 373d 1965 8c3e
00000320: 9fcc 70be 3ac0 cabd 64ac c13b 369b 3c3e
00000330: 57d8 bd3d 0fda b83d 0c74 213e 01a5 473e
00000340: e659 593e 1e74 343e 3878 3bbe 1e6a c13d
00000350: 400c a8be fc2c f0bd 37f7 d4bd 8eae 5f3e
00000360: 6c30 50be b3eb bebe 5336 0cbe f48a 8cbe
00000370: ce8d 603e 3125 2f3e d758 5cbd 5aa1 dfbd
00000380: b0ee 2dbe e04f 73bd 6234 c23d e9a1 2bbe
00000390: 09ef 38be 74e6 18be b6ec 81bd bae5 b7be
000003a0: 5a1c 503e 6f40 fb3d 0a2c 77be d86f 07be
000003b0: dc79 76be 189c 9e3e 347a 1fbe 6951 803e
000003c0: a1b4 163e 3e80 a4bd e0cc 87be 8d9c edbd
000003d0: 1441 aabd 7ea8 543d ee97 f43d cba6 8cbe
000003e0: 0697 d93d 9815 123d 586f 3fbe 1d9e 7d3d
000003f0: a907 b9bd fe09 9b3e c226 69be c11b a73d
0.034688484 -0.47936293 0.07929718 0.17690444 -0.13438234 0.01246593 0.35508382 -0.10851331
-0.28538114 -0.17214343 0.15801266 -0.039033964 0.21072395 0.1603405 0.09883655 0.30911434
-0.044468068 0.2841013 0.3300721 0.24196379 0.018420286 0.52760416 0.29335976 0.07681631
0.19030505 0.4818989 0.18221794 0.29568997 0.049793083 0.21929818 0.19677167 0.5073067
0.24267887 0.0006970726 -0.24949998 0.16825083 -0.44241017 -0.04506186 0.24820226 0.39753455
0.29859346 -0.4314135 -0.31850183 0.07620684 -0.0072631557 -0.058643162 -0.43386984 -0.4469701
-0.064495146 -0.3288268 0.011815889 -0.038078155 -0.40455693 -0.4601699 -0.32325247 -0.32598317
-0.2641972 -0.41160062 -0.097912244 -0.37955198 -0.1814841 -0.36253557 -0.53309983 -0.44343582
-0.055255104 0.4751308 -0.323951 -0.17498037 0.4785547 0.45113647 -0.4197944 -0.2645145
0.046697296 -0.00093723275 0.10426888 -0.38494754 0.24473886 -0.27819034 0.29884997 0.013287978
0.03021339 -0.02829468 -0.04024677 0.21589918 0.50404006 0.4232966 0.273089 0.0657842
-0.047543503 0.18165681 0.08740368 0.080642246 -0.05881802 0.5156511 0.0051583014 0.1994129
0.19647041 0.25411004 0.31407446 0.073814705 0.30655423 0.057177864 0.1953713 -0.2183245
0.2428785 -0.14926977 -0.4466948 0.19757955 -0.056849312 -0.029918883 0.023905475 -0.13676794
0.179039 0.19334874 -0.30105883 -0.034038004 0.21367154 -0.36667007 -0.3176772 -0.029622894
-0.07984145 -0.104638696 -0.33120993 -0.13710813 0.20466065 -0.14304739 0.09971442 -0.06843831
-0.15152898 -0.03246779 -0.16757554 0.08031661 -0.21793315 0.30778468 -0.46123487 -0.15330873
0.11848343 0.3431578 -0.40127537 -0.13791616 0.30022478 -0.3313819 0.101374716 -0.04199239
-0.010057884 -0.16219544 0.22980876 0.12616795 0.27141032 -0.032109443 0.12997514 0.21538721
-0.07220004 0.2500577 -0.22343083 0.08214566 -0.10940709 -0.15624271 0.22644553 0.31586686
-0.13572486 -0.15233748 -0.30753812 0.17952876 -0.44827175 0.18974078 -0.34960353 0.16212738
-0.06776026 0.22781149 -0.22509402 0.08943064 -0.36740807 -0.46009463 0.026643658 -0.31957635
-0.51022124 -0.3161009 -0.3550006 -0.009503489 -0.1433168 -0.42637357 -0.3684851 -0.3380034
-0.41982245 -0.23123395 -0.24326988 -0.07066015 -0.51922756 -0.26672223 -0.33604628 -0.31947702
0.27837622 -0.060868815 0.085114725 0.4737267 0.09551059 0.18356395 0.044853494 0.2742088
-0.23515557 -0.098999456 0.005910443 0.18418583 0.09269779 0.090259664 0.15766925 0.19496538
0.212257 0.1762242 -0.18307579 0.09444068 -0.32821846 -0.1172733 -0.10398715 0.21843931
-0.20330971 -0.372892 -0.13692598 -0.27449763 0.21929094 0.17104031 -0.05379566 -0.10919447
-0.16985583 -0.059402347 0.094826475 -0.16760983 -0.18059935 -0.14931661 -0.06343977 -0.35917455
0.20323315 0.12268149 -0.24137893 -0.13226259 -0.24069923 0.30978465 -0.1557396 0.2506211
0.14717342 -0.08032273 -0.26523495 -0.11602125 -0.08313194 0.0519185 0.11943041 -0.27471003
0.106245086 0.035665125 -0.18694818 0.061918367 -0.09034664 0.3028106 -0.22768691 0.081595905

b f4 [32]
00000000: 5f2e 893e e054 85be 5927 7c3e 471a 72bd
00000010: accf 073d 0c8f 58be 53e3 97bd 8e6d 0f3d
00000020: e736 adbd 2140 1d3d 1f12 a1bd f43a 5b3e
00000030: 379b 5cbe 1cfd c8bd 3560 81bd 9049 54be
00000040: db3f 49be d0fa 2a3e c71f 9fbd 096f f0bc
00000050: 9777 57be c367 46be c08d 95bd b686 5bbe
00000060: 31f4 b83d fb53 07be 1843 253e a89a 393e
00000070: 87e4 55be 18c7 d43c 9b0f 7ebd e1b8 8d3d
0.2679319 -0.26041317 0.24624385 -0.05910709 0.033157036 -0.21148318 -0.074164055 0.03501659
-0.084577374 0.038391236 -0.078647844 0.21409208 -0.21543585 -0.09813902 -0.06317178 -0.20731187
-0.19653265 0.1669724 -0.07769733 -0.02934982 -0.21041714 -0.1937552 -0.07302427 -0.21438107
0.09030951 -0.1321563 0.16138875 0.18125403 -0.20887958 0.025973842 -0.0620266 0.069200285

W f4 [32, 32]
00000000: 74b3 d83d 23f1 f0be 57fb a5bd 3a42 323b
00000010: 1aaf e63d 96d6 f33e b08e 87be ac69 89be
00000020: b8a0 9ebe 2c48 973d 45f9 453e 0568 56be
00000030: 0062 2d3e 760a 0c3e a41d b63e ce68 3d3e
00000040: b665 e6bc a952 d7bd 7144 be3e db12 993e
00000050: 1743 063e b41c 7b3d 5757 afbc f624 343e
00000060: 8f26 c03e 48f0 093e 73f5 42bc cd31 133e
00000070: c106 583e 369d ad3e d59e 333e fa37 423e
00000080: 46b1 9bbb a6c4 2f3d af27 093e 985b d3bc
00000090: bdf2 a13c e3f9 df3d 4552 02bf b854 32bd
000000a0: 681e 4c3e 98fd d33e 8eae 333c 5258 0fbe
000000b0: edb9 8dbe 8961 debe 2d4e 95be f946 f7be
000000c0: cdd0 093e 7f0a 08bc f7b4 7f3e 5544 383e
000000d0: 2fb9 79bd 8210 073e fe41 be3c f2d5 b3be
000000e0: 8015 36be 9abf fabd 547b 673e 1c4d f1bd
000000f0: 0974 e6bd 2303 b5be 3613 1f3e c235 86be
00000100: 6481 15bd 27c9 a03e e9ea 9b3d f85e d13e
00000110: 294e 853d 0b1f de3e 590c 19bd b81e b03c
00000120: 9239 c63e 6e8f b5be a7c9 bf3e 45e4 253e
00000130: 06cb 21bd 9ba3 ba3e d00a 2b3e 734d b53e
00000140: ba58 a43e fd8b c13e 90f4 7a3e 1641 ce3c
00000150: 2f59 aa3e 63e7 0ebd 39ca bf3d b949 733e
00000160: 6e1e 53bd 7e26 9f3e e7fa 283e 34e4 1d3d
00000170: 4605 f7bb 483b e13d f71b b33e a760 e63e
00000180: 2623 be3d 368a 50be 1c70 6fbc a2bf 8ebb
00000190: a1b2 af3e 4e7e c1be 334f f33e 9390 45be
000001a0: 2202 3fbe 3541 58be a0f8 103e 03bb 553e
000001b0: bfa7 f43e fa61 923e 676d 433d 61ce 903e
000001c0: 12b4 7fbe e6b7 a63e 2f0b 0f3e 01d7 b23d
000001d0: 6458 853d d834 563c a071 8fbe 1fc2 fe3e
000001e0: a941 9dbe 5a02 7a3e 15cd d9bd 6f36 91bc
000001f0: 21ab a8be b963 4e3e 2bd7 e43d 369f 023d
00000200: 80e8 bfbe 7dc1 813d b2d0 ec3e 1e53 ac3e
00000210: dddd 0ebf 00cf de3e 6d0a 84be bca7 7f3e
00000220: 7c79 f53e 5eca 81be 17d4 a1be 4c68 583e
00000230: 7e0d f43d 5be6 86be 9b02 d7bd 6cbd ffbe
00000240: 1f32 2f3d 79ef febd 3ef5 d5bd bb38 2bbd
00000250: 2ca2 3abe 823a 5b3d a297 4bbe fced 39be
00000260: 1755 dcbe 70b9 0d3d 08db 9abe 3d85 32be
00000270: db02 dcbe 4df1 12be ec83 f9bd 33d6 e23d
00000280: 92f8 9abe 3f28 8abd 8047 50bd a169 24be
00000290: c5fa 94be b685 c7bd 1255 9f3b 7cf8 1fbe
000002a0: 201a c8bd 8596 1fbe 8d43 a63d 2257 5e3e
000002b0: 67cc c93d 2744 1bbe eb67 263e 90ab 66bd
000002c0: c559 1c3e 308d 75be 401e 223e b7c0 0f3d
000002d0: 1b29 a9be 70f6 403e 66a6 babb f92f 863d
000002e0: bf81 a6bd 6ada a5be 9452 64bc d4fc b1be
000002f0: 3dbe b63d 143c 253d a03e aebe 8e79 80bd
00000300: 95bb 6abe f6c8 04bf 9b24 52bd 1747 f73e
00000310: f4ee 96bd d4ce 36bd c408 a0bc 1fde 53be
00000320: 8b8d a03e be39 873e 95d4 8cbe 1e96 06be
00000330: 1887 113e 88b7 69be af8e 033c be4a 93bd
00000340: 6755 943e 48c6 f43d 0968 62be e8ce 323e
00000350: b330 9e3d 29e1 85be d986 f43d cc93 f9bd
00000360: 41fa 463e 9f4e 153d f234 fb3d 129c c33d
00000370: c23b 8d3e f660 093e a45b 40be 7312 79bd
00000380: 039e 403d 6422 033d 5cfd 2a3d f9d1 b43e
00000390: fe27 4cbe 93f6 22be 82e2 0ebc 9b13 f03e
000003a0: cd23 c8be d659 dabd 2153 37be ea0e 69be
000003b0: 3928 c1be afd5 c1be 44fd d2bd 75cf 983c
000003c0: 4f71 a0be ac47 d7be 3efb 6abc 7ed9 d03c
000003d0: 2325 e5be 94c2 19be 6e16 7a3d 78ef acbc
000003e0: 7cb0 a1be c99e 47be b99c 7fbe d3b1 8cbe
000003f0: 9694 833d d43b 4fbe b8ca f2be a00c d8bd
0.10581103 -0.47058973 -0.0810458 0.0027200119 0.11263867 0.47624654 -0.2647605 -0.26838434
-0.30981994 0.073868126 0.1933337 -0.20938118 0.16931915 0.13675866 0.3556949 0.18497011
-0.028124671 -0.10513813 0.37161592 0.29897198 0.1311153 0.06130667 -0.021403952 0.17592224
0.37529418 0.13470566 -0.01189934 0.14374466 0.21096326 0.33909005 0.17541058 0.18966666
-0.0047513572 0.042912148 0.13394044 -0.025800511 0.019769067 0.10936334 -0.50906783 -0.043537825
0.19933474 0.41404414 0.01096691 -0.13998535 -0.27680913 -0.43433788 -0.29161206 -0.48296335
0.13458557 -0.008303284 0.24971376 0.17994817 -0.06096762 0.13189891 0.023224827 -0.35124165
-0.17781639 -0.12243576 0.2260564 -0.117822856 -0.11252601 -0.35353956 0.15534672 -0.2621289
-0.03650035 0.31403467 0.07613165 0.40892768 0.065090485 0.4338306 -0.03736529 0.021499023
0.38715798 -0.3546099 0.37458536 0.16200359 -0.03950026 0.36452946 0.16703343 0.35410652
0.32098943 0.37802115 0.24507356 0.02517752 0.33271167 -0.034888636 0.09364743 0.23758592
-0.051542692 0.31084055 0.16501962 0.03854771 -0.0075384704 0.10997635 0.34982273 0.44995615
0.09284048 -0.20365223 -0.014614131 -0.0043563405 0.3431597 -0.37791675 0.47521362 -0.19293432
-0.18653157 -0.21118625 0.14157343 0.2087212 0.4778423 0.28590375 0.047711756 0.28282455
-0.24971035 0.32562178 0.1396911 0.08732415 0.06511 0.013074122 -0.28016376 0.49757478
-0.30714157 0.2441496 -0.106348194 -0.017726151 -0.3294306 0.20155229 0.111738525 0.031890117
-0.3748207 0.06335733 0.46252972 0.33657163 -0.55807287 0.43517303 -0.25789204 0.2496633
0.47944248 -0.25349706 -0.31607124 0.21133536 0.11916636 -0.26347622 -0.10498544 -0.49949205
0.04277241 -0.124480195 -0.10447167 -0.04180215 -0.18225926 0.053522594 -0.19882062 -0.1815719
-0.43033668 0.034600675 -0.30245233 -0.17433639 -0.4297093 -0.14349861 -0.12183365 0.110760115
-0.3026777 -0.067459576 -0.050849438 -0.16055919 -0.29097572 -0.097423 0.004862436 -0.15622133
-0.09770608 -0.15584762 0.08118353 0.21712926 0.0985344 -0.15162717 0.16250579 -0.05631596
0.1526862 -0.2397964 0.15831852 0.035095897 -0.33039173 0.18844008 -0.005696106 0.06552119
-0.08130216 -0.323932 -0.013935704 -0.34763205 0.08923004 0.040340498 -0.34032154 -0.06273185
-0.2292312 -0.5186914 -0.05130444 0.48296425 -0.073697954 -0.04463084 -0.01953543 -0.20690201
0.3135799 0.2641124 -0.27505937 -0.13143203 0.1421169 -0.22823918 0.008029624 -0.0719199
0.28971407 0.11951882 -0.22109999 0.17461741 0.077241324 -0.26148346 0.11939783 -0.12186393
0.19431402 0.036451932 0.12265958 0.095512524 0.27584654 0.13415894 -0.18784958 -0.06080861
0.04702569 0.03201522 0.04174553 0.35316446 -0.19937131 -0.15914373 -0.008720996 0.46889958
-0.39089814 -0.10661666 -0.17902805 -0.22759596 -0.37726 -0.3785834 -0.10302213 0.01865361
-0.31336448 -0.4204687 -0.014342127 0.025494333 -0.44754896 -0.15015632 0.061056547 -0.021110281
-0.3157996 -0.19494165 -0.24962129 -0.2747942 0.06424825 -0.20237666 -0.47420287 -0.10549283

b f4 [32]
00000000: 59ff 4d3e 2704 bebd 1fbd 433e 7830 443e
00000010: daea 44be a7da 9cbd 96f8 d73c fd79 51be
00000020: 4065 4f3e c6cf 3b3d 54c2 b8bd 1db2 4fbe
00000030: 2b2b 763e 2b51 713d e725 333e 29dc ffbd
00000040: 8f27 63be d9f9 9cbd 0b79 4ebe f4c1 bc3d
00000050: a521 873d 12ba 3cbe 8593 53be fb6f 743e
00000060: 614d 3cbe 4998 3b3e 398e c13d 3390 653e
00000070: 00b7 4dbd 19a0 7fbd 37e2 9bbd 704a 523e
0.20116939 -0.09278136 0.19115113 0.19159114 -0.19230214 -0.07658892 0.026363652 -0.20456691
0.20253468 0.045852445 -0.0902144 -0.20282789 0.24039905 0.0589153 0.17494927 -0.12493164
-0.22183059 -0.07664842 -0.20163362 0.09216681 0.06598214 -0.18430355 -0.20661743 0.23870842
-0.18388893 0.18319811 0.09450955 0.22418289 -0.05022335 -0.06240854 -0.076115064 0.20536208

W f4 [32, 32]
00000000: ab1c fb3e fd27 cfbe 3f10 233e 51fc a03e
00000010: 48ed 3e3d 00f6 29bd 1d58 d33e 60df acbe
00000020: 279f e83e fa9a 50be 5d75 043f 9051 38bd
00000030: 492f 4d3d cb20 e83c 8a60 03be 1735 05be
00000040: d606 833c b9b3 61be 51cd 80bd 7e24 ffbc
00000050: 4e21 03bf b38d 253e 62ce d3bc 58dd 2fbc
00000060: cfa2 bcbe ae51 8fbe 1350 60bd 7d26 01be
00000070: ea8c 293d 2e1e c8be 2fef 84bd 7750 98bd
00000080: 08cf 9bbd c2a7 bcbe cf6c 08be 8d06 433e
00000090: cdd0 79be 440b c43d 02f5 79be 0cfe c13d
000000a0: 16a8 cd3d f9dc 2e3d 5546 5c3e 29b0 993e
000000b0: 420e 37bd f182 82bd 8430 333c 04dc 56be
000000c0: b582 efbd e842 76be 4973 623e 8bd5 4ebe
000000d0: 8236 aa3c 8a98 023e 8664 98be 323c 983e
000000e0: 7b58 bc3c 44c9 fc3c 9a35 0ebd 6bf1 77be
000000f0: dca6 2b3e 3d4b 293e d104 a8bd 9c82 fcbc
00000100: adc2 7f3c f096 253e b8c8 b5be 2cbd 8ebb
00000110: ca5b f7bb 3e56 eb3e 637a 01bf a6dc d1be
00000120: 9e1e b63e 818a 55be 4cd2 033f 9587 2fbe
00000130: 0972 fe3e 6f42 e93e 38dd 633e 5bfd d13e
00000140: 6d07 853e d937 0e3e 5406 283e 45ed 453e
00000150: 5d24 eb3d c880 0a3f 7f49 5f3e c28e 0a3f
00000160: 87d1 9a3e 92a7 663e a41a e5bc 8aa0 023f
00000170: 075b 743e 3ea3 ef3c f462 ff3b 3d8a f03e
00000180: d5a7 abbe 16b6 973c 6f20 47be 1868 28be
00000190: d652 a23e 3218 7c3e e739 31be bfe7 51be
000001a0: ad73 47bd 8669 f33c 307d d93c 449b fbbd
000001b0: dc2e 3b3e 5657 72be 6e6a dd3d 2f86 e73e
000001c0: 05e0 323e 39c2 643e 8ea8 fa3c 66ec 813e
000001d0: c076 4d3e 1f67 b83e 0a22 823e e517 c93e
000001e0: a606 da3e f1e9 f03d b87d 163d fd67 983e
000001f0: f4f4 e43e 2d40 1c3e 8bea f93c 6f7c c23e
00000200: 3db2 5b3e 9d74 acbd 8241 6cbc 9232 91bb
00000210: 660a fa3e e40d ab3d 64b5 ea3d 036c 5cbe
00000220: 77e8 a53e 6805 5cbe ba3d 3ebd 0f98 f43e
00000230: 3799 16be 1d1f a63d 46a8 31be 79f3 cdbe
00000240: 7fef ddbe 848c b5be 80df b2b9 072e fabe
00000250: 69f7 bbbe 1285 d0be bca3 113d 5ae7 72be
00000260: cd72 d73c 3871 96be 8be2 99be c7ea d83c
00000270: 9927 07be 46fb d2be 31ed 04bf 9d02 a8be
00000280: e58d b73d abf1 5abd d7ae 953e c2c5 bdbe
00000290: d9aa cd3c 6ebc 1c3e 683a bc3d 46cb 3bbe
000002a0: b5dd 46be 9a96 26be 2e11 dfbd 2fa9 603e
000002b0: 6059 263e e59c a63e 7e22 c73d dc96 0fbe
000002c0: 7713 483e 96ed 0b3e d3c7 2f3e 24fb b83e
000002d0: 360b 8e3e 4003 c53c 8c68 b33e 3117 7f3e
000002e0: 13b9 97bd d9a7 4fbe fed4 c73d ce7e 1f3e
000002f0: 7c1f d7bd 6dc3 6f3e 28a1 b33d c2be f7bd
00000300: 19e5 7ebe a648 b63c 286b e33e 13b8 f13e
00000310: 24ec e43e 0c3a bcbd df1c aa3e 9b37 b13e
00000320: 20aa dfbe 5673 c53c 1fed 3dbe a520 943e
00000330: 5fdf 39be 5e22 f9be 9467 c1bd a24f 0abe
00000340: f97f f5bd 7b01 01bc d7b0 113d bc68 1d3c
00000350: 702f 30bd 665a a4bd 0bb3 a3bd e665 2fbe
00000360: 986d adbd b768 e23d a753 d83d 77f5 b0be
00000370: c2bd 0f3d 9695 f5bc ccd2 54bd de7d 13be
00000380: 1cb0 90bd ba94 0abe c71d 00be fb41 8bbe
00000390: d90d f53d 1c74 36be 5e5b 30be fb68 ad3e
000003a0: fc52 ab3d 9c25 8cbd 99b5 87be 6759 c0be
000003b0: 41f9 b53e 866e 42be b551 d63e b4d8 ed3d
000003c0: 3a01 213e 5ee5 6e3e 6428 ec3e 1cec 183e
000003d0: 9513 dd3d 9e62 073e 77d4 383d 9093 44bd
000003e0: 00c4 46bd 676f be3e 7b4a c43e c6f8 463d
000003f0: ea04 913e c0be 91bc b7da 513e 65b6 c43e
0.4904531 -0.40460196 0.15924166 0.31442502 0.046613008 -0.04149437 0.41278163 -0.33764172
0.45433924 -0.20371619 0.5174158 -0.04499966 0.050093923 0.02833595 -0.12829795 -0.13008533
0.01599447 -0.22041215 -0.06289161 -0.03114533 -0.51222694 0.16167335 -0.025855247 -0.010733925
-0.36842963 -0.27992004 -0.054763865 -0.12612338 0.04139415 -0.39085525 -0.06490933 -0.074372225
-0.076078475 -0.3684674 -0.13322757 0.19045468 -0.24396057 0.09572461 -0.2440987 0.09472284
0.100418255 0.042691205 0.21511205 0.30017212 -0.04469133 -0.06372631 0.01093686 -0.20982367
-0.11694852 -0.2404896 0.2211429 -0.20198648 0.020777944 0.12753502 -0.29764193 0.29733425
0.02299141 0.03085769 -0.034719087 -0.24213187 0.1676287 0.16532607 -0.08204044 -0.030823998
0.015610379 0.1617086 -0.355047 -0.004356047 -0.007548784 0.45964235 -0.5057737 -0.40988654
0.35570234 -0.20853616 0.5149276 -0.17141564 0.49696377 0.45558497 0.22252357 0.41013607
0.25982228 0.13888492 0.16408664 0.19328792 0.11481545 0.54102755 0.2180538 0.5412408
0.30237982 0.2252486 -0.027966805 0.51026213 0.23862849 0.029252645 0.0077937786 0.46980467
-0.33526483 0.018519443 -0.19445966 -0.16445959 0.31703824 0.24618605 -0.17307244 -0.2049856
-0.0486943 0.029713403 0.026548952 -0.12285474 0.18279594 -0.23666129 0.108113155 0.4521956
0.17468269 0.22339715 0.030597951 0.2537567 0.20064831 0.36016175 0.25416595 0.39276043
0.42583197 0.11763371 0.03674099 0.29766837 0.44718134 0.15258856 0.030507347 0.3798556
0.21454711 -0.0842068 -0.014419915 -0.0044310773 0.48836058 0.08352259 0.11460379 -0.21525578
0.3240392 -0.21486437 -0.046445586 0.47772262 -0.14706884 0.08111403 -0.17349347 -0.40224817
-0.43346784 -0.35458767 -0.00034117326 -0.4886324 -0.36712196 -0.40726525 0.03555654 -0.23721066
0.026299858 -0.29383254 -0.3005565 0.026479138 -0.13198699 -0.4120733 -0.51924425 -0.32814494
0.08962611 -0.05345313 0.29234955 -0.3706494 0.02510588 0.15306255 0.091908276 -0.18339261
-0.19420512 -0.16268387 -0.10891949 0.21939538 0.16245031 0.32541576 0.09723376 -0.14022392
0.19538675 0.1366485 0.1716607 0.36129105 0.27742928 0.024049401 0.350407 0.2491119
-0.07408347 -0.20278873 0.09757422 0.15575716 -0.10504052 0.23414393 0.087709725 -0.12096931
-0.24892081 0.022251438 0.4441769 0.4721075 0.4471141 -0.09190759 0.33225152 0.34612736
-0.43684483 0.024102848 -0.18547486 0.28931156 -0.18151616 -0.48659033 -0.09443584 -0.1350694
-0.119872995 -0.007873888 0.03556904 0.00960749 -0.04301399 -0.08025055 -0.07993134 -0.17128715
-0.08468169 0.11055129 0.105628304 -0.34562275 0.035093077 -0.029978555 -0.051958844 -0.14403483
-0.0706484 -0.13533297 -0.12511359 -0.27198777 0.11965532 -0.1781773 -0.17222354 0.33869156
0.083654374 -0.06843111 -0.26505736 -0.3756821 0.35541728 -0.18987474 0.41859213 0.116135985
0.15723124 0.23329684 0.46124566 0.14933819 0.107947506 0.13221213 0.045124497 -0.04799229
-0.048526764 0.37194368 0.38338074 0.048577093 0.28324062 -0.017791152 0.2049359 0.38420406

b f4 [32]
00000000: 80d4 dbbd c2bc e23c 0c5a 6e3e 5df5 473e
00000010: fcd9 61be 848f aa3d 1100 4bbe 9ed9 5d3e
00000020: 2884 3e3e 7f8a bbbd 7a0d 9d3d 5248 843d
00000030: 604f be3d a71b 473e 865e ad3d 3426 43be
00000040: 7cd7 3cbe f853 4b3e c48b 3ebe d94a bbbd
00000050: 921b 40bd 8acf 4cbe 277c 563d ca65 4d3e
00000060: 00eb 663e 8026 0fbd 4e5b 2cbe 98df 44be
00000070: 332b bcbc 27e1 aabd 4915 553e e75c 56be
-0.107338905 0.027677897 0.23276538 0.19527192 -0.2205581 0.08328155 -0.19824244 0.21665046
0.18605101 -0.091572754 0.07668586 0.064591065 0.09292483 0.19444142 0.084652945 -0.19057542
-0.18441576 0.1985625 -0.18608004 -0.091451354 -0.046901293 -0.20001045 0.052364495 0.2005836
0.22550583 -0.034948826 -0.16831705 -0.19225919 -0.022969818 -0.08343726 0.20808901 -0.20933877

W f4 [32, 32]
00000000: 51fa 04be 9083 ee3e 4826 3b3e 97a8 c4bd
00000010: 8edc 943e 55a1 8f3e 878c 493e f9df b9be
00000020: a8eb 863b 9ab4 a73e 4c79 29be 8e82 8cbe
00000030: 4e76 013f 9c49 713e 2035 883d 2e8d 36be
00000040: 287c 8b3a 8b38 08bd 9e14 06bd 2a2a 8fbe
00000050: 2572 07be 564c 453e bcad 103e 39ac 9d3e
00000060: 1d90 f5bd 9ac6 c63d 064a 47be 065b 50be
00000070: 290b f93d d1f7 043f 4ea9 36be 5148 35bd
00000080: 4930 2abe c05e fbbe a9eb ac3e ec40 5bbd
00000090: 3802 aebe 4041 323e 20d3 1f3c 9b3a a83c
000000a0: 2692 ac3e 8835 f1be 993d ccbd 963e a73e
000000b0: 29f4 0abd f0bf 6f3e 544b c1bd 3a4a 92be
000000c0: 2bfd 1f3e ba4f efbe e78f a23e f16e f13e
000000d0: 7901 24be 6ca6 14be 8789 5a3e e206 bdbd
000000e0: 131b 073e 8fbd 2e3e ec2e f5bd d039 0a3d
000000f0: 19ed 8cbe a20f 49be 28a3 653e 0d3d fcbe
00000100: 1645 ad3e 98f4 02be 9f53 f73e b2d4 95be
00000110: f5f3 86be 4e32 c8be 5fef 413e 0e89 56be
00000120: c098 d5bd f46a eebd 368c dd3e 8b88 a1bd
00000130: 1909 a3be 00bb 9dbe 94a6 62be 8aef 44be
00000140: 4ce3 81bd dbbe a7be b35e 5e3e 8934 8dbe
00000150: ab27 023c 61b0 5d3c 40a3 cb3b f086 493e
00000160: 16e9 453d e370 fcbe 27e2 013f 3f45 0dbe
00000170: ee0b 31be d053 833c b418 fabd a14b f13d
00000180: 5fc4 b03e 4005 e7be 40e6 ac3e 9e7f 5bbe
00000190: 0232 b93d b624 cd3e eff1 1dbe 72e8 b23e
000001a0: 27b2 35bc 862b 36be bb6f 093e fab4 913d
000001b0: 6120 ab3d 8d8a aa3e a93e e4be 91ed a73d
000001c0: 6946 e53c f3a8 173e 98a3 623e b63d 6f3e
000001d0: fd2a a13e 7e6c 7f3e 5298 a9bd b05c 6a3e
000001e0: f443 3b3e d6fd 033d e448 45bb 3f38 693e
000001f0: 0590 13bc eadf a23d 3c4d eabd 1de3 8ebd
00000200: e3d3 9bbe 0e0a b33e b114 7cbe 61d7 a3be
00000210: 7cee fd3c 286a bb3d 04fa 163e 7cf2 f3be
00000220: 0493 7e3b 165b 6b3e 3005 e93d b340 3d3e
00000230: 96ee e3bb eaa2 4fbe 78d7 ab3e 3a9c b2bd
00000240: d6e2 a3be 38bd eb3e 1ade ee3e 77f0 a8be
00000250: 9fdb 8fbe 6b1a 40be 4d6f a73e 0159 9cbd
00000260: 03a1 13be d4b1 013b d65f aa3e 4008 2abe
00000270: 9529 acbe 9470 1a3e b726 8f3d e4d8 64be
00000280: 567a bd3e b287 713c d37f e83d 55c6 b9bc
00000290: 18d5 69bd c2e7 95bd 75ee 973e 71c2 3cbe
000002a0: 2485 e4be 9cfc 7b3d 4a28 40be a450 a4be
000002b0: 7944 babe 0d91 123e 2a8f 133e 51e1 28be
000002c0: 91e3 0cbf c4d2 febd d719 983e 29c0 80be
000002d0: 5c36 9bbe 3c8c 8ebd d77e e53e 3c26 e03d
000002e0: 577f 0fbf 6b08 ab3e f53d 82be 78e4 a6be
000002f0: 0e2b c7be cea7 c13e 999f cb3e 2694 c2bc
00000300: 00b3 b53d 8a20 c43c f086 853e 142c 863e
00000310: bc64 4b3e 2989 73be dc8a 08bd 637f c7be
00000320: c677 3abd 5064 6e3e b585 7ebd 32ba 6ebe
00000330: fce7 e8bd 25e5 69be 2c04 3bbe d5ce c9be
00000340: 1c63 c53e 9873 883e 7216 423e 716f ee3c
00000350: b4b9 4ebe 7430 2ebd f1f7 383e 7e4a a5be
00000360: 9d0b c6bc 74b7 943e 11f5 033f f7fc 8fbe
00000370: 1431 c03b b7e0 533e 8855 d53d c94f bfbd
00000380: 133c f6be 046c 93be 2756 65be 082d 033c
00000390: 11f7 d5bd 42fd 22bd 5c0a 083e 7589 ea3d
000003a0: 9c3f d33d d71d e2be 5eb7 01bf 738f 3fbd
000003b0: 82fc f33e f235 833d f5e8 36be e137 ef3e
000003c0: 3fab 4e3e f9ca b6bd 9334 6dbd 2fd6 a4bc
000003d0: 7ed7 ca3e 13a4 58be 0cb2 493c e07e 023a
000003e0: 1445 0ebe 1617 e1be f277 bcbd eb3a a23e
000003f0: 87d0 883c c520 fe3c 76cf 1fbd b740 1e3e
-0.12986113 0.4658475 0.18276322 -0.096024685 0.2907452 0.28052774 0.19682513 -0.3630369
0.004117448 0.32754976 -0.16550177 -0.27443355 0.50571144 0.23563236 0.06650758 -0.17827293
0.001064186 -0.03325705 -0.032734506 -0.27961856 -0.13227136 0.19267401 0.14128774 0.30795458
-0.11990378 0.09705849 -0.19461831 -0.20347223 0.12160332 0.5194064 -0.17838022 -0.04425842
-0.16619982 -0.49095726 0.33773544 -0.05352871 -0.33986068 0.17407703 0.009754926 0.020535758
0.33705252 -0.47111154 -0.09972686 0.32664937 -0.033924256 0.23413062 -0.09438196 -0.28572255
0.1562392 -0.46740514 0.31750414 0.47154954 -0.16016187 -0.1451661 0.21341525 -0.092298284
0.13193922 0.17064498 -0.1197184 0.03374654 -0.2752464 -0.1963487 0.2242552 -0.49265328
0.3384177 -0.12788618 0.48305985 -0.29263836 -0.26358 -0.3910088 0.18938969 -0.2095072
-0.104295254 -0.116414934 0.43271035 -0.07887372 -0.31842878 -0.30806732 -0.22133857 -0.19232002
-0.063421816 -0.327628 0.21715812 -0.27579144 0.007944028 0.013530822 0.0062145293 0.19680381
0.04831799 -0.49304876 0.50735706 -0.13795947 -0.17289707 0.016031176 -0.12211743 0.11782003
0.3452482 -0.45121193 0.33769417 -0.21435401 0.09042741 0.4006707 -0.15424322 0.34942967
-0.011089838 -0.1779004 0.13421528 0.07114597 0.08355785 0.3330883 -0.44579056 0.08199609
0.027987676 0.14810543 0.22132719 0.23363385 0.3147811 0.2494373 -0.08281006 0.2288692
0.18287641 0.0322245 -0.003010326 0.22775362 -0.009006505 0.079528645 -0.114405125 -0.06976912
-0.30435094 0.3496861 -0.24617268 -0.3200026 0.030997507 0.09151107 0.14743811 -0.47645938
0.0038844952 0.22983965 0.113779426 0.18481712 -0.006955932 -0.2027699 0.33562827 -0.08721204
-0.32009 0.460428 0.46653825 -0.3299596 -0.28097245 -0.18760078 0.32702103 -0.07634164
-0.1441689 0.0019789832 0.33276242 -0.1660471 -0.33625475 0.15082008 0.06989806 -0.22348362
0.37007397 0.014741825 0.113525055 -0.02267758 -0.057087988 -0.07319595 0.29674116 -0.18433549
-0.44632828 0.061520204 -0.18765369 -0.32092774 -0.36380365 0.14313145 0.14410082 -0.16492201
-0.5503474 -0.12442544 0.29707214 -0.25146607 -0.3031491 -0.06960341 0.44823334 0.10944793
-0.5605368 0.3340486 -0.25437894 -0.32596183 -0.38900036 0.37823337 0.397702 -0.023752283
0.08872032 0.023941297 0.26079512 0.26205504 0.19862646 -0.23782791 -0.03333555 -0.38964376
-0.04552438 0.23280454 -0.06213923 -0.23313215 -0.113723725 -0.22841318 -0.1826331 -0.39415613
0.38552177 0.2665069 0.18953875 0.029105874 -0.20188028 -0.042526677 0.18063332 -0.32283396
-0.02417546 0.29046214 0.51545817 -0.28122684 0.0058652256 0.2069119 0.104167044 -0.0934139
-0.48092708 -0.28793347 -0.22396146 0.008006342 -0.10447515 -0.039792307 0.13285202 0.11451999
0.10314867 -0.4416339 -0.5067042 -0.046767663 0.47653586 0.064067736 -0.17862304 0.4672232
0.20182513 -0.08925433 -0.057911467 -0.020121662 0.39617532 -0.2115634 0.012310516 0.00049780123
-0.13893539 -0.43962926 -0.09202565 0.31685576 0.016700996 0.031021485 -0.03901621 0.15454374

b f4 [32]
00000000: e4d0 1ebd 0382 3f3e 3b2b 7e3d 37c8 9cbd
00000010: 26f5 5a3e 965b 4dbe 4630 453e 5254 c9bd
00000020: 9805 4b3e ba3f 1ebd e63b 103d ea19 b93c
00000030: 1dd6 47be a9a3 43be dc60 993e 4834 863d
00000040: 4485 953d 13e5 903d b057 4ebe 392b 523e
00000050: 9441 163d 764d 5f3e 6738 673e 2aa9 54be
00000060: ee70 b9bd bf8b 78be 8fa8 72bc 9a19 52be
00000070: d88b cbbc aa07 53be 5339 b23d 54cb 9abd
-0.038773432 0.1870194 0.062052947 -0.076553755 0.21382579 -0.20054469 0.19256696 -0.09830536
0.19826353 -0.038634993 0.035213374 0.022595365 -0.19515271 -0.191054 0.2995671 0.065529406
0.07300809 0.070749424 -0.20150638 0.205243 0.036683634 0.21806893 0.2258011 -0.20767656
-0.09054743 -0.24272059 -0.014810695 -0.20517579 -0.024846956 -0.20608392 0.0870234 -0.07558313

W1 f4 [32, 128]
00000000: 962f f83d 6893 543e dad9 223e d57d bebe
00000010: a5e8 9e3d 8c39 b1be 147c a3bc bbef 92be
00000020: d460 b33c 2f6c 11be e605 e1bd 1dd7 00be
00000030: 3c26 9dbc da9c 593e 82e2 953e 646e 36bd
00000040: 64af 463e 9bb9 56be d863 8c3d 3925 893d
00000050: 64df 403e 475d ae3d c1ba 75be 6078 6a3d
00000060: 076c c03c ba0f 593d db82 6e3d 93c3 a33e
00000070: e330 e1bd fcc9 783e e57e d6be 7bfa 923d
00000080: e5c6 3b3d 490b 9dbe e2a7 103d 0cd4 3dbe
00000090: 3468 ac3e ea89 0a3e 5096 5cbe 8a86 2c3e
000000a0: 04e6 92be 4a0d 4c3e a418 d63d d2d8 b3be
000000b0: b44a d43a db9e 3d3e c119 02be 288b 4dbd
000000c0: 6edf 783d 8e13 1fbe 6850 e6bd 0d1a 8f3d
000000d0: 262a 3f3e 69ea c4bd b1f9 bdbd fe1c 033e
000000e0: 7730 373e 037c d63d 5256 063e 7658 d3bd
000000f0: 1469 973e 2e9e 403d e2b0 bd3d 8582 25be
00000100: bb17 20be 2a27 773e a979 20be e4b2 7b3e
00000110: 0c2d a9be 3b01 21be 9b88 183e 2564 aa3e
00000120: f693 463d 9cbc fd3d 9fe8 fbbd cfbf 45be
00000130: 5fff 1fbe 4e08 ce3d fa38 f5bc e5a9 b7be
00000140: d6da 46be 843d a13e 4f96 1ebe 83d6 2d3e
00000150: 4942 1b3d ef69 b1bd 8c70 133c 0cb7 68be
00000160: 942d a3be beef cb3d 404f f9bd da2e 933e
00000170: b97c 2e3e 293b e73d 727e 7dbe b93f 96be
00000180: d26d cb3d a3c4 afbe f70e b5bd 55d6 193d
00000190: 3a3f 543e d2b4 993e ba60 33be 35d2 983e
000001a0: b287 4e3d 2eb5 6bbd 33bd b9be 6e66 e9bc
000001b0: b4b9 ddbb b766 cb3e 3089 723d 21ad 9dbd
000001c0: 6d89 1d3d 5973 763d f109 743e 3d1e 17be
000001d0: 9f57 b93e 978c 0a3e 5374 20be 8e06 29be
000001e0: c703 ae3d 8154 9dbe daee 133e 00a8 7ebe
000001f0: c036 cb3d 98ac 6ebe a07a 9d3e bb48 27be
00000200: e15a 67be bc22 a9be 7dc2 99be f837 8f3d
00000210: cd25 98be 0f49 9e3e 48cf 00bb 8777 d1be
00000220: 088d a7be bcd2 c73c f436 de3c 6896 3abb
00000230: 1ab1 073e 9b00 9e3d 10e8 52bc 36eb 48bd
00000240: f763 0dbc 58c2 b4bd fc51 bdbe d5f4 483e
00000250: b6f0 8c3e 0efb 9abe 24f4 ab3e 81f5 a9bd
00000260: fa10 493e 0a88 143d 2424 e7bc 326a 943e
00000270: e36f 033e 6619 873c a400 8b3e cfc8 85be
00000280: dbab af3d 9567 a4bd 312c 94bc ec63 a9be
00000290: 60d4 85bd 8fbd a6bd ba6a 0c3d 45e9 7d3e
000002a0: 0828 80be ee94 a63d 50c5 5dbe 51c4 2abe
000002b0: 3b92 6b3e 8063 c33d 3cb4 c23d c516 a9bd
000002c0: 1278 b7be 6c70 73be 8c6e e4bc 3a66 96bd
000002d0: 8b74 c53d 182a 9d3d 2e6d 193e d883 6fbd
000002e0: 7438 693b 9453 54be 734f d4bc 9248 1cbe
000002f0: d01c 8ebe 2e50 a8be 9e98 2cbd 039d 12be
00000300: d8ff 8c3e 9219 17bd b8d9 13be d429 11be
00000310: 50e8 abbe 9c96 ecbc 188f 473d 39b4 47be
00000320: b7fd 77bc c9b5 65be 2cf0 bdbe 2080 8e3d
00000330: a898 ab3d 7692 4e3d 66b4 453d 59df a63e
00000340: a0b7 87bd dd8d 783d 0c60 25be af2e 6ebe
00000350: 4c55 96be 6210 a6bd cb90 09be 1084 003e
00000360: 0a38 623d a595 9a3e 5630 b83b 6a57 26be
00000370: 5c66 93be edce e73c efa8 a63d d65d 7dbe
00000380: 826b eb3e a331 853e 4bc4 a1bd 2a62 8abe
00000390: d82b 3f3e f9f3 6fbe 51ac 623c de8f 60bd
000003a0: 1805 b7bc f41d cabd 744b 17bd f8e3 0cbd
000003b0: 345c 83be f1dc 723c 1e94 a93c d8ee dc3d
000003c0: 9dba 48be 0866 583e 5f52 ba3d 6a64 4a3e
000003d0: bf76 36be 2ed4 aabd ca7e 51be a5a4 4bbd
000003e0: 547e 59be 2e87 15bd a528 e9bd f9a5 b13d
000003f0: a9e2 09bd a86a bc3e 1677 66be 42e1 3d3d
0.12118451 0.20759356 0.15903416 -0.37205377 0.07759217 -0.34614217 -0.019956626 -0.28698525
0.021896757 -0.14201425 -0.10987453 -0.12582059 -0.01918327 0.2125124 0.29274374 -0.04453887
0.19402844 -0.2096924 0.06854981 0.06696553 0.18835217 0.08513885 -0.23997022 0.057243705
0.023489011 0.052993514 0.058230262 0.3198515 -0.109956525 0.24295801 -0.41893688 0.071766816
0.045843977 -0.30672672 0.035316356 -0.1853792 0.3367325 0.13529173 -0.21541715 0.16848198
-0.28691113 0.19926944 0.104539186 -0.35126358 0.001619658 0.1851763 -0.12705137 -0.050181538
0.060759954 -0.15534803 -0.11245805 0.06987391 0.18668422 -0.09615023 -0.092761405 0.12804028
0.17889582 0.10472872 0.13118866 -0.10319607 0.29572356 0.047025852 0.09262253 -0.1616307
-0.15634052 0.24136034 -0.1567141 0.2457996 -0.3304218 -0.15723126 0.14895861 0.3327953
0.04848095 0.1238949 -0.12300228 -0.1931145 -0.1562476 0.10060178 -0.029934395 -0.35871807
-0.19419417 0.31492245 -0.15487026 0.16976361 0.03790501 -0.08662783 0.008999001 -0.22726077
-0.3187071 0.099578366 -0.12173319 0.28746682 0.17039765 0.11290581 -0.24755266 -0.29345492
0.09933056 -0.3432971 -0.08840745 0.03755792 0.20727244 0.30020767 -0.17517367 0.29847875
0.050422378 -0.057545833 -0.3627716 -0.028491225 -0.0067665223 0.39726803 0.059212863 -0.07699037
0.038461138 0.060168598 0.23831917 -0.14757629 0.36199662 0.13530193 -0.15669374 -0.16506407
0.08496814 -0.30728534 0.14446583 -0.24868774 0.09922552 -0.23308027 0.30757618 -0.16336338
-0.22593261 -0.33034313 -0.30031195 0.06993097 -0.2971634 0.30915114 -0.00196548 -0.40911505
-0.32724786 0.024392478 0.027125813 -0.0028470997 0.13251153 0.07714959 -0.012872711 -0.04905244
-0.0086297905 -0.08826131 -0.36976612 0.19624646 0.27527398 -0.30269665 0.33584702 -0.08298779
0.19635382 0.03626255 -0.028215475 0.2898727 0.1283565 0.016491603 0.27148926 -0.26129767
0.08577701 -0.08027569 -0.018087478 -0.33084047 -0.06534648 -0.08141624 0.03428147 0.24796017
-0.2503054 0.08133875 -0.216573 -0.16676451 0.23005001 0.095404625 0.09507033 -0.08256296
-0.35833794 -0.23773354 -0.027884744 -0.07343717 0.096413694 0.07674044 0.14983055 -0.058475345
0.0035586627 -0.20735008 -0.02591679 -0.15262058 -0.27756357 -0.32873672 -0.042137735 -0.14317708
0.27538943 -0.03688962 -0.14438522 -0.14176112 -0.33575678 -0.02888041 0.04872045 -0.19502343
-0.015136174 -0.22432627 -0.370973 0.06958032 0.08378726 0.050432645 0.048267744 0.32592276
-0.066268206 0.060682166 -0.1614992 -0.23259996 -0.2936195 -0.081085935 -0.1343414 0.12550378
0.055229224 0.30192295 0.0056209965 -0.16244283 -0.28789032 0.028296912 0.0813769 -0.24742827
0.4598046 0.26014432 -0.07898768 -0.27028018 0.18669069 -0.23432912 0.013835029 -0.054824702
-0.022341296 -0.09868994 -0.036937192 -0.034397095 -0.25656283 0.014823184 0.02070051 0.10787743
-0.19602437 0.21132672 0.09097742 0.19764867 -0.17818736 -0.08341251 -0.20458522 -0.049717564
-0.21239597 -0.03650587 -0.113847055 0.08674235 -0.033663426 0.36800122 -0.22506365 0.0463574

b1 f4 [128]
00000000: 3c2f e8bd 6b9a 2fbe d79b 943c 4509 503e
00000010: e425 aebd 789a 49bd 5446 9fbd bd5a 403e
00000020: 9fbc 513e 8f7f 5b3e 8a0a 7fbd 7a72 6abd
00000030: ebc4 453e 55c1 b3bd 4a2f 9b3d d20d a8bd
00000040: 4cd2 4cbb b6f2 dbbc aa03 96bd f14e 86bd
00000050: d6f7 44be 03b6 adbd 491d 4a3e 9b27 3b3e
00000060: 7137 96bd 9bf6 44be f4f7 923d 52dd b63d
00000070: f614 aabd 8ec0 82bd d238 423e 3291 87bd
00000080: b73a a8bd 6ae8 8c3d 5e9d 86bd e703 3ebe
00000090: cb4e adbd 2000 3a3e b5c5 79be 64d4 163d
000000a0: a259 6fbd 4a70 623d 8466 433e 6fc5 49be
000000b0: 4e7f 8f3d f26f 3e3e 29f5 c13d 5b00 87bc
000000c0: 727b d93d 91df d2bd b4a6 5abd 4819 60bd
000000d0: 5c29 44bd f85f 493e 4ef2 b33d 3cb8 4fbe
000000e0: 5187 543d d906 c4bd 0b82 4f3e 1d5d 6cbe
000000f0: 661d 4dbe 7bf5 3bbe a5a2 90bd 6189 e73d
00000100: bd2c 483e f951 6dbe 628c 57be a8bb b63d
00000110: 49ba 7ebd 4648 4e3e af12 7dbe c8fa c7bc
00000120: 1cfd 5fbe 31db b4bd 9cb2 c0bc 6461 253c
00000130: 76d4 583e 8f0c 8ebd 7b4f 433e be23 123e
00000140: e00a 42be be29 d3bd 44b4 4fbe 3755 7fbe
00000150: 0f08 58be e933 7a3e c110 bebd 2bed 313e
00000160: 2e4b a9bd 3522 f13d 9518 f63d 24d1 533e
00000170: ff0b 47be 7cad 44be c7fe 8fbd d91d 5dbe
00000180: 7015 6f3e da99 4c3e 7c7f 70be 73b6 61be
00000190: a331 acbd cf64 5fbd 21e8 5f3e e796 563e
000001a0: d365 26bd 78d5 5ebe 972d 483e 77cc 4dbe
000001b0: d5b1 18be 7b51 543e e761 313e dba5 473e
000001c0: a7b4 a63d 4452 483e b187 443e d623 493e
000001d0: 2525 86be f727 71be 0044 6bbe bc0b 73bd
000001e0: 0636 aabd 2c0a 89bd 2ea7 20bd af2b 513e
000001f0: aadf 393e 1669 d03d 5c72 4fbe 1d45 503e
-0.11337134 -0.1714875 0.018140716 0.20316036 -0.08503321 -0.04921958 -0.07777086 0.18784614
0.2048211 0.21435378 -0.06226591 -0.05723808 0.193134 -0.087771095 0.07577379 -0.08205761
-0.0031253276 -0.026849132 -0.073249176 -0.06558026 -0.19235167 -0.084819816 0.19737734 0.18276827
-0.07334793 -0.19234698 0.071761996 0.08928932 -0.08304779 -0.06384383 0.18966988 -0.06619491
-0.08214324 0.06880267 -0.06572984 -0.18556176 -0.08462294 0.1816411 -0.24391825 0.036823645
-0.05843509 0.05528287 0.19082075 -0.19704221 0.07006703 0.18597391 0.09470589 -0.016479662
0.106192484 -0.10296548 -0.053381637 -0.05471161 -0.047891006 0.19665515 0.0878645 -0.20285124
0.05188686 -0.095716186 0.20264451 -0.23082395 -0.20030746 -0.18355362 -0.07062272 0.113055
0.19548316 -0.23175801 -0.21049646 0.08922511 -0.062189374 0.20144758 -0.24714158 -0.024411574
-0.21873897 -0.0883087 -0.023522668 0.0100940205 0.21174797 -0.06935989 0.19073288 0.14271447
-0.18949461 -0.10310696 -0.2028361 -0.2493485 -0.21096824 0.24433865 -0.09280539 0.17375629
-0.082662925 0.117741026 0.120164074 0.2068525 -0.1943817 -0.19206804 -0.07031017 -0.21593417
0.23348022 0.19980565 -0.23486131 -0.22042255 -0.08407905 -0.054539498 0.21865894 0.20956002
-0.04062445 -0.2176112 0.19548641 -0.20097528 -0.14911588 0.20734207 0.17322503 0.19496863
0.081399255 0.19562632 0.19192387 0.19642577 -0.26200214 -0.23550402 -0.22975159 -0.059337363
-0.083110854 -0.06691393 -0.039221935 0.2042682 0.18151727 0.101762936 -0.20258468 0.20338865
