saved_models/model-epoch-46.pth (torch, 249162 bytes, 52 tensors)

embeddings f4 [99, 32]
0	0x3e59fa76	0.2128695
1	0xbe4da6d4	-0.20083171
2	0x3df0bed2	0.11755146
3	0x3d137ec7	0.036009576
4	0xbd69a0b0	-0.05703801
5	0xbdcf82a2	-0.10132338
6	0x3dae79f7	0.08519357
7	0xbe2f0c2d	-0.17094488
8	0xbdf86b98	-0.12129897
9	0x3dbb0781	0.09132291
10	0x3ca37f5c	0.01995819
11	0xbe3533c1	-0.17695524
12	0x3e1f3a5f	0.1554961
13	0xbe580964	-0.21097332
14	0xbc60a9d4	-0.013712365
15	0xbe179ee4	-0.14806706
16	0x3e4bdb4d	0.19907875
17	0xbda20b76	-0.07912342
18	0x3e29536b	0.16535728
19	0xbd3c9b2f	-0.046046432
20	0x3d096b9a	0.033549882
21	0x3e316e3f	0.17327212
22	0xbdad94e4	-0.08475664
23	0xbdab4a4f	-0.083637826
24	0xbe54d84a	-0.20785633
25	0xbd7bebe1	-0.06150425
26	0xbe288545	-0.16457088
27	0x3e017bab	0.12644832
28	0x3e251d2b	0.16124408
29	0x3e369296	0.17829356
30	0xbdbfdc12	-0.09368147
31	0x3e1f682e	0.15567085
32	0xbc5ac241	-0.013351978
33	0x3dc5ded9	0.096616454
34	0x3dda160e	0.10648738
35	0xbc4e0c30	-0.012576148
36	0x3da218f8	0.07914919
37	0x3e2cc538	0.16872108
38	0xbde9c5a2	-0.114146486
39	0xbe4a0551	-0.1972859
40	0x3da8afe6	0.08236675
41	0xbdb2cfff	-0.08731078
42	0x3c042386	0.00806511
43	0xbe3bcc8e	-0.1833975
44	0xbca43fdd	-0.020049984
45	0xbe06b56d	-0.13155146
46	0xbe2ca8ad	-0.1686122
47	0x3d690020	0.056884885
48	0x3e320359	0.1738409
49	0xbdf4f407	-0.11960607
50	0xbdcc2d0a	-0.09969528
51	0x3e0ebdb7	0.13939558
52	0xbe155714	-0.14583999
53	0xbdcb7063	-0.099335454
54	0x3e34ed4d	0.17668648
55	0x3debdd2c	0.115167946
56	0x3cfbc2bc	0.030732505
57	0x3dca05da	0.09864397
58	0xbda31139	-0.07962269
59	0x3e53331c	0.20624965
60	0xbe0ed776	-0.1394938
61	0xbd090233	-0.033449363
62	0xbd73798c	-0.059442088
63	0x3e4637dd	0.19357248
64	0xbe2b699c	-0.16739506
65	0xbd467800	-0.048454285
66	0xbe242ee7	-0.16033517
67	0x3e216895	0.15762551
68	0xbde85693	-0.11344638
69	0xbdae057d	-0.084971406
70	0xbe12902b	-0.14312808
71	0xbcbaa68e	-0.022784498
72	0xbe539a39	-0.206643
73	0xbdf233f4	-0.118263155
74	0x3d5897bf	0.05287909
75	0xbe5746ad	-0.21023054
76	0xbd6082ee	-0.054812364
77	0x3def3db5	0.116816916
78	0x3d0e8fe3	0.03480519
79	0x3d6eef9e	0.058333986
80	0xbdc18512	-0.09449209
81	0x3dd158df	0.10222029
82	0x3c72f95a	0.014829958
83	0xbdd9e65b	-0.1063964
84	0x3e49d164	0.19708782
85	0xbd60254d	-0.054723073
86	0x3d3dc4b7	0.04633018
87	0x3d2b9335	0.041888434
88	0x3cb03bbd	0.02151286
89	0xbe1787af	-0.14797853
90	0xbbb394f8	-0.005480405
91	0xbc20a638	-0.009805255
92	0xbde83590	-0.11338341
93	0xbd18a0b6	-0.03726264
94	0x3c8fb42d	0.01754197
95	0xbc3a6a4f	-0.011377885
96	0xbe58c88b	-0.21170251
97	0x3d1cb900	0.038262367
98	0xbe1341e4	-0.14380604
99	0x3e4d875b	0.20071165
100	0x3e19f9a9	0.15036644
101	0x3b9d5a5d	0.004802032
102	0x3ded8058	0.11596745
103	0x3d84782a	0.06468232
104	0x3d50c213	0.050966334
105	0xbdc3ccd8	-0.09560555
106	0x3b2cef91	0.002638791
107	0x3b4b759b	0.003104544
108	0x3e2a1269	0.16608585
109	0xbd67dc29	-0.056606445
110	0x3ccbfa66	0.024899673
111	0xbdcc5dff	-0.09978866
112	0xbda3f7c5	-0.08006243
113	0xbd5a91ba	-0.053361632
114	0x3dc15cf2	0.09441556
115	0x3dc8e1c7	0.098086886
116	0xbe4fdfc1	-0.20300199
117	0xbd819997	-0.06328123
118	0xbb15ac04	-0.0022838125
119	0x3ddc239e	0.10748981
120	0xbe1251d3	-0.14289026
121	0xbddb5c5f	-0.10710978
122	0x3e50ac4c	0.20378226
123	0xbe41ced3	-0.18926553
124	0x3c264806	0.010149008
125	0xbd89626d	-0.06708226
126	0xbe021720	-0.12704134
127	0xbe3fcd69	-0.18730702
128	0xbe4cc613	-0.19997434
129	0x3e1893c0	0.14900112
130	0x3d0a661b	0.03378878
131	0x3d442f0d	0.047896434
132	0x3d425b6f	0.04745048
133	0xbe17a2aa	-0.14808145
134	0xbe1bf430	-0.15229869
135	0x3ce1213f	0.027481673
136	0xbd57ea58	-0.052713722
137	0x3e1ee10c	0.15515536
138	0x3cabd4bf	0.020975469
139	0x3e1d6e04	0.15373999
140	0x3c46ddd1	0.012137846
141	0xbe3ff4e8	-0.18745768
142	0x3d142368	0.03616658
143	0xbe19bd29	-0.15013565
144	0x3e0e068f	0.1386969
145	0xbe0f20a8	-0.13977301
146	0xbe324f11	-0.17412974
147	0xbe2e7b51	-0.17039229
148	0xbe125f3d	-0.14294143
149	0x3e1c1a34	0.1524437
150	0x3b591372	0.0033123163
151	0xbe2e3b68	-0.17014849
152	0xbdac23ef	-0.08405291
153	0x3d714d0f	0.05891138
154	0x3e06eef4	0.13177091
155	0x3d2debc8	0.042461187
156	0x3e08868b	0.13332574
157	0xbd9de0e6	-0.077089116
158	0x3e5029e2	0.20328477
159	0x3d8fecad	0.07027564
160	0xbd996691	-0.07490266
161	0xbd37f09e	-0.044907205
162	0x3be3d781	0.0069531803
163	0xbe16a80b	-0.14712541
164	0xbe2b0d57	-0.16704307
165	0x3e2d731e	0.16938445
166	0xbdbbfdd5	-0.09179274
167	0x3e17eee8	0.14837229
168	0x3e38b967	0.18039475
169	0xbc6be95f	-0.014398902
170	0x3d277b22	0.040888913
171	0x3e36a6bb	0.1783704
172	0x3c02b77c	0.007978316
173	0x3e2d0ba8	0.16898978
174	0x3e3d3ef2	0.18481043
175	0x3ce82351	0.028337153
176	0x3d518f50	0.051162064
177	0x3de8b93c	0.11363456
178	0x3e2c6228	0.16834319
179	0x3e31b84f	0.17355464
180	0x3cb44b4f	0.022008566
181	0xbdf9be6e	-0.12194525
182	0x3e30b6eb	0.17257278
183	0x3dda625a	0.1066329
184	0xbd9ce74e	-0.07661305
185	0xbe4f7870	-0.20260787
186	0xbe03dab1	-0.12876393
187	0xbd17a927	-0.03702655
188	0x3e4cb561	0.19991066
189	0xbd7584b4	-0.05994101
190	0xbe42c442	-0.19020179
191	0x3e20f627	0.157189
192	0x3e3214fd	0.17390819
193	0x3c5c4af8	0.013445608
194	0xbe1eb6ed	-0.15499468
195	0xbd96abb5	-0.07356969
196	0xbe0d37dd	-0.13790841
197	0x3e3fb70f	0.18722175
198	0xbe308f9f	-0.17242287
199	0xbd6f56b8	-0.05843231
200	0xbe505d20	-0.20348024
201	0x3d056170	0.032563627
202	0xbc9e67b3	-0.019336557
203	0x3d979a62	0.07402493
204	0xbe4ebfeb	-0.20190398
205	0x3d28e8e1	0.041237716
206	0xbe4af551	-0.19820143
207	0x3e354a28	0.1770407
208	0xbc12ca50	-0.008959368
209	0xbe4465da	-0.19179478
210	0xbd520d94	-0.05128248
211	0x3e4ff92b	0.20309894
212	0xbd494648	-0.04913929
213	0xbe466e10	-0.19377923
214	0xbe373f1b	-0.17895167
215	0xbe25475b	-0.16140501
216	0xbd9c111b	-0.0762045
217	0xbdffaedc	-0.12484524
218	0xbe3185a4	-0.17336136
219	0x3cac738c	0.02105119
220	0xbe2db748	-0.16964447
221	0x3e3dcb4f	0.18534587
222	0x3dc2a5ab	0.09504255
223	0xbe06c927	-0.13162671
224	0x3cd4ed16	0.025991958
225	0xbc0e2ee3	-0.008678171
226	0xbe22cd92	-0.15898731
227	0x3e293e68	0.16527712
228	0xbdd5b75b	-0.10435363
229	0x3cf04745	0.029330859
230	0xbe0a9672	-0.13533953
231	0xbe31b36a	-0.17353597
232	0xbcad2d4f	-0.021139769
233	0x3e23c0fb	0.15991585
234	0xbdfd88a8	-0.12379581
235	0x3e570268	0.20997012
236	0xbbf4a44f	-0.007465876
237	0x3dd7cbb0	0.10536897
238	0x3df7f015	0.12106339
239	0x3dce2e01	0.10067368
240	0x3b02cf07	0.0019959824
241	0x3d0e25bd	0.03470396
242	0xbd843311	-0.06455053
243	0x3e27bd73	0.16380863
244	0x3e49b6bc	0.19698614
245	0xbe55eb6e	-0.2089059
246	0xbda27b6a	-0.079336956
247	0xbe2d41b1	-0.1691959
248	0x3c34cc5b	0.01103505
249	0xbe48ea26	-0.1962057
250	0xbdfe5884	-0.12419227
251	0x3e528b2d	0.20560904
252	0xbce1320c	-0.027489685
253	0xbcbf9b39	-0.023389446
254	0x3e144a7e	0.14481542
255	0x3cde89ea	0.027165372

_pos_embeds f4 [64, 32]
0	0x00000000	0.0
1	0x3f800000	1.0
2	0x00000000	0.0
3	0x3f800000	1.0
4	0x00000000	0.0
5	0x3f800000	1.0
6	0x00000000	0.0
7	0x3f800000	1.0
8	0x00000000	0.0
9	0x3f800000	1.0
10	0x00000000	0.0
11	0x3f800000	1.0
12	0x00000000	0.0
13	0x3f800000	1.0
14	0x00000000	0.0
15	0x3f800000	1.0
16	0x00000000	0.0
17	0x3f800000	1.0
18	0x00000000	0.0
19	0x3f800000	1.0
20	0x00000000	0.0
21	0x3f800000	1.0
22	0x00000000	0.0
23	0x3f800000	1.0
24	0x00000000	0.0
25	0x3f800000	1.0
26	0x00000000	0.0
27	0x3f800000	1.0
28	0x00000000	0.0
29	0x3f800000	1.0
30	0x00000000	0.0
31	0x3f800000	1.0
32	0x3f576aa4	0.84147096
33	0x3f0a5140	0.5403023
34	0x3f087dba	0.53316844
35	0x3f58940e	0.84600914
36	0x3e9f393e	0.3109836
37	0x3f734e6a	0.95041525
38	0x3e35233a	0.17689219
39	0x3f7bf683	0.9842302
40	0x3dcc7576	0.099833414
41	0x3f7eb898	0.9950042
42	0x3d6636b0	0.056204498
43	0x3f7f9868	0.9984193
44	0x3d01815c	0.031617507
45	0x3f7fdf3c	0.99950004
46	0x3c91ab42	0.017781857
47	0x3f7ff5a3	0.99984187
48	0x3c23d657	0.009999833
49	0x3f7ffcb9	0.99995
50	0x3bb8445c	0.0056233834
51	0x3f7ffef7	0.9999842
52	0x3b4f3e20	0.0031622723
53	0x3f7fffac	0.999995
54	0x3ae91520	0.0017782785
55	0x3f7fffe5	0.9999984
56	0x3a83126d	0.0009999998
57	0x3f7ffff8	0.9999995
58	0x3a136a16	0.0005623413
59	0x3f7ffffd	0.9999998
60	0x39a5cb5f	0.00031622776
61	0x3f7fffff	0.99999994
62	0x393a7753	0.00017782794
63	0x3f800000	1.0
64	0x3f68c7b7	0.9092974
65	0xbed51133	-0.41614684
66	0x3f66f20a	0.9021307
67	0x3edce8b2	0.43146282
68	0x3f17541b	0.5911271
69	0x3f4e7bec	0.8065784
70	0x3eb247f6	0.34820527
71	0x3f6ffaa5	0.9374183
72	0x3e4b6ff9	0.19866933
73	0x3f7ae5a5	0.9800666
74	0x3de5d988	0.112231314
75	0x3f7e61f3	0.9936821
76	0x3d8170c8	0.063203394
77	0x3f7f7cf9	0.9980007
78	0x3d11a55c	0.03555809
79	0x3f7fd68e	0.9993676
80	0x3ca3d43e	0.019998666
81	0x3f7ff2e5	0.9998
82	0x3c38439d	0.011246589
83	0x3f7ffbdb	0.99993676
84	0x3bcf3ddd	0.0063245133
85	0x3f7ffeb0	0.99998
86	0x3b691508	0.0035565514
87	0x3f7fff96	0.9999937
88	0x3b031269	0.0019999987
89	0x3f7fffde	0.999998
90	0x3a936a14	0.0011246824
91	0x3f7ffff5	0.99999934
92	0x3a25cb5f	0.0006324555
93	0x3f7ffffd	0.9999998
94	0x39ba7753	0.00035565588
95	0x3f7fffff	0.99999994
96	0x3e1081c3	0.14112
97	0xbf7d7026	-0.9899925
98	0x3f7e45d7	0.9932532
99	0xbded7fa8	-0.11596614
100	0x3f5009c2	0.8126489
101	0x3f152f57	0.5827536
102	0x3f022f6d	0.50853616
103	0x3f5c6d29	0.86104065
104	0x3e974e6d	0.29552022
105	0x3f7490ef	0.9553365
106	0x3e2beed8	0.1679033
107	0x3f7c5d9e	0.9858035
108	0x3dc1ffc1	0.09472609
109	0x3f7ed94f	0.99550337
110	0x3d5a694d	0.05332308
111	0x3f7fa2c3	0.9985773
112	0x3cf5b920	0.029995501
113	0x3f7fe283	0.99955004
114	0x3c8a31c7	0.016869439
115	0x3f7ff6ad	0.9998577
116	0x3c1b6e11	0.009486691
117	0x3f7ffd0d	0.999955
118	0x3baecfa8	0.005334813
119	0x3f7fff11	0.99998575
120	0x3b449b93	0.0029999956
121	0x3f7fffb5	0.9999955
122	0x3add1f1b	0.0016870232
123	0x3f7fffe8	0.99999857
124	0x3a78b10d	0.0009486832
125	0x3f7ffff8	0.9999995
126	0x3a0bd97e	0.0005334838
127	0x3f7ffffe	0.9999999
128	0xbf41bdcf	-0.7568025
129	0xbf275530	-0.6536436
130	0x3f4749ed	0.77847177
131	0xbf20af9d	-0.62767965
132	0x3f741dde	0.95358074
133	0x3e9a2eb1	0.30113748
134	0x3f271fbc	0.652828
135	0x3f41ebed	0.7575062
136	0x3ec761d7	0.38941833
137	0x3f6bcaa7	0.921061
138	0x3e6465c6	0.22304448
139	0x3f798d09	0.9748083
140	0x3e012e88	0.12615407
141	0x3f7df469	0.99201065
142	0x3d918dc8	0.07107121
143	0x3f7f5a47	0.9974713
144	0x3d23cbdb	0.039989334
145	0x3f7fcb94	0.9992001
146	0x3cb840a2	0.022491757
147	0x3f7fef6c	0.99974704
148	0x3c4f3ccd	0.012648773
149	0x3f7ffac2	0.99992
150	0x3be914a7	0.0071130577
151	0x3f7ffe58	0.9999747
152	0x3b831258	0.0039999895
153	0x3f7fff7a	0.999992
154	0x3b136a0e	0.0022493633
155	0x3f7fffd6	0.9999975
156	0x3aa5cb5c	0.0012649107
157	0x3f7ffff3	0.9999992
158	0x3a3a7752	0.0007113117
159	0x3f7ffffc	0.99999976
160	0xbf757c10	-0.9589243
161	0x3e913c2c	0.2836622
162	0x3ea5dad6	0.3239352
163	0xbf723240	-0.94607925
164	0x3f7ffc7f	0.99994653
165	0xbc2972d4	-0.010342319
166	0x3f46caab	0.77652997
167	0x3f214cf1	0.6300803
168	0x3ef57744	0.47942555
169	0x3f60a940	0.87758255
170	0x3e8e11ee	0.27748054
171	0x3f75f27c	0.96073127
172	0x3e213c1e	0.15745589
173	0x3f7cce81	0.987526
174	0x3db5db21	0.08879686
175	0x3f7efd1e	0.99604976
176	0x3d4cb6f5	0.04997917
177	0x3f7fae19	0.99875027
178	0x3ce64dfe	0.028113361
179	0x3f7fe619	0.99960476
180	0x3c818581	0.01581073
181	0x3f7ff7cf	0.999875
182	0x3c11acbb	0.00889128
183	0x3f7ffd69	0.9999605
184	0x3ba3d6de	0.0049999794
185	0x3f7fff2e	0.9999875
186	0x3b38448c	0.002811703
187	0x3f7fffbe	0.99999607
188	0x3acf3e31	0.0015811381
189	0x3f7fffeb	0.99999875
190	0x3a691526	0.0008891396
191	0x3f7ffff9	0.9999996
192	0xbe8f0f8c	-0.2794155
193	0x3f75cdb8	0.96017027
194	0xbe6be574	-0.23036748
195	0xbf791d53	-0.9731037
196	0x3f72784d	0.94714814
197	0xbea43f6f	-0.32079646
198	0x3f603089	0.8757406
199	0x3ef72f34	0.482782
200	0x3f108c69	0.5646425
201	0x3f534932	0.8253356
202	0x3ea97dfd	0.33103934
203	0x3f7190e2	0.943617
204	0x3e41206f	0.18860029
205	0x3f7b67e3	0.98205394
206	0x3dda19c1	0.106494434
207	0x3f7e8b51	0.9943133
208	0x3d759cd1	0.059964005
209	0x3f7f8a12	0.99820054
210	0x3d0a2cbf	0.03373408
211	0x3f7fdab3	0.99943084
212	0x3c9b6c46	0.018972527
213	0x3f7ff434	0.99982
214	0x3c2ecf04	0.010669474
215	0x3f7ffc45	0.9999431
216	0x3bc49b59	0.005999964
217	0x3f7ffed2	0.999982
218	0x3b5d1f06	0.0033740415
219	0x3f7fffa1	0.99999434
220	0x3af8b105	0.0018973654
221	0x3f7fffe2	0.9999982
222	0x3a8bd97d	0.0010669675
223	0x3f7ffff6	0.9999994
224	0x3f283046	0.6569866
225	0x3f40ffbd	0.75390226
226	0xbf36b66e	-0.71372116
227	0xbf334f60	-0.7004299
228	0x3f4ce86f	0.80042166
229	0xbf1974bb	-0.5994374
230	0x3f728444	0.9473307
231	0x3ea3f8b9	0.32025698
232	0x3f24eb73	0.64421767
233	0x3f43ccb3	0.7648422
234	0x3ec460df	0.38355157
235	0x3f6c6bc5	0.92351943
236	0x3e60d350	0.2195561
237	0x3f79c0ea	0.9755999
238	0x3dfe46ba	0.12415834
239	0x3f7e04e9	0.9922624
240	0x3d8f3e32	0.06994285
241	0x3f7f5f81	0.997551
242	0x3d213160	0.03935373
243	0x3f7fcd3b	0.9992253
244	0x3cb552a6	0.022134136
245	0x3f7feff2	0.999755
246	0x3c4bf12a	0.012447635
247	0x3f7ffaec	0.9999225
248	0x3be55fc7	0.006999943
249	0x3f7ffe65	0.9999755
250	0x3b80fcbe	0.003936379
251	0x3f7fff7e	0.99999225
252	0x3b1111ec	0.0022135926
253	0x3f7fffd7	0.99999756
254	0x3aa32866	0.0012447953
255	0x3f7ffff3	0.9999992

W f4 [32, 32]
0	0x3e1eb50b	0.1549875
1	0xbf20a91f	-0.6275806
2	0x3e7152e7	0.23566781
3	0x3bdded9f	0.0067727114
4	0xbe6a529a	-0.22883072
5	0xbe242303	-0.16028981
6	0x3ece6cf7	0.4031751
7	0xbe824b98	-0.25448298
8	0xbecf0f61	-0.4044142
9	0xbea046f1	-0.31304124
10	0x3eaa7d23	0.33298597
11	0xbd9503db	-0.07276126
12	0x3eea922d	0.45814648
13	0x3e9dc87b	0.30817017
14	0x3ea802c4	0.3281461
15	0x3f03e041	0.5151406
16	0x3e28d49e	0.16487357
17	0x3f02ac6d	0.5104435
18	0x3f0829ad	0.5318859
19	0x3ef2df89	0.4743617
20	0x3e5efa9e	0.2177529
21	0x3f43076b	0.76183194
22	0x3efbd93b	0.4918917
23	0x3e9f8b9f	0.3116121
24	0x3ec6f2a5	0.38856998
25	0x3f378501	0.7168732
26	0x3ec2c094	0.3803755
27	0x3f07dd4b	0.5307204
28	0x3e7dd323	0.24787574
29	0x3ee8a022	0.45434672
30	0x3eca1d9b	0.39475712
31	0x3f3e0b57	0.74236053
32	0x3e88d03d	0.26721373
33	0xbdfc215e	-0.12311052
34	0xbda61d67	-0.08111077
35	0x3e8ef50f	0.2792134
36	0xbf037914	-0.51356626
37	0xbe20e2cf	-0.1571152
38	0x3ef00ba8	0.46883893
39	0x3f1dbfeb	0.6162097
40	0x3f0a6b27	0.5406975
41	0xbf2c5286	-0.6731342
42	0xbef5de84	-0.48021328
43	0x3eaaa7a8	0.33331037
44	0xbe8fb5a9	-0.28068283
45	0xbd21162a	-0.039327778
46	0xbf3576dd	-0.70884496
47	0xbf3a7eba	-0.7284962
48	0xbeade199	-0.3396118
49	0xbf1c9608	-0.6116643
50	0xbe86d206	-0.2633211
51	0xbea4437d	-0.3208274
52	0xbf2e0071	-0.67969424
53	0xbf3e2c9f	-0.74286836
54	0xbf192f86	-0.5983814
55	0xbf1bd163	-0.60866374
56	0xbf0a103d	-0.5393103
57	0xbf31bbfd	-0.6942747
58	0xbebef934	-0.37299502
59	0xbf29878e	-0.66222465
60	0xbee9bc32	-0.45651394
61	0xbf252c4d	-0.6452072
62	0xbf4edb53	-0.8080341
63	0xbf39e21f	-0.7261066
64	0xbc955ec8	-0.018233672
65	0x3f228c8e	0.6349572
66	0xbefb3222	-0.49061686
67	0xbeb18f88	-0.34679818
68	0x3f4a5b7b	0.7904584
69	0x3f36b6ce	0.7137269
70	0xbf129044	-0.5725138
71	0xbe9f25da	-0.31083566
72	0x3e056e59	0.13030376
73	0x3df2fad8	0.11864251
74	0x3d920e4b	0.071316324
75	0xbf0e1dc2	-0.55514157
76	0x3edddd5a	0.4333294
77	0xbec5205b	-0.38501248
78	0x3ef53663	0.47893056
79	0x3e60ddb2	0.2195957
80	0x3e5580dd	0.20849939
81	0x3e282597	0.1642059
82	0x3e0cd4c9	0.13753046
83	0x3ecfbdbe	0.4057445
84	0x3f2e8153	0.68166083
85	0x3f1cc66a	0.61240256
86	0x3ee6bccf	0.45065925
87	0x3e826367	0.25466463
88	0x3e0520f0	0.13000846
89	0x3ebdaddf	0.37046716
90	0x3e87a6e2	0.2649451
91	0x3e89f2c9	0.26943043
92	0x3df31f00	0.11871147
93	0x3f3455ac	0.70443225
94	0x3e3b0d98	0.18266904
95	0x3ec6c112	0.38819176
96	0x3e0d6968	0.1380974
97	0x3ec8fdc8	0.3925612
98	0x3efd7b7d	0.49508277
99	0x3e6e1dac	0.23253506
100	0x3eceacbb	0.40366158
101	0xbbbc04f3	-0.0057378947
102	0x3ec4ed16	0.38462132
103	0xbec10e02	-0.37706
104	0x3e9714ec	0.2950815
105	0xbe068c57	-0.13139473
106	0xbf20f5f2	-0.6287528
107	0x3e97256c	0.29520738
108	0xbe22d87e	-0.15902898
109	0x3d67ce7d	0.056593407
110	0xbd99114a	-0.07474001
111	0xbe7077f3	-0.23483257
112	0x3da62653	0.081127785
113	0x3dc6ac15	0.09700791
114	0xbecc2abd	-0.39876357
115	0xbe053156	-0.13007101
116	0x3deda13a	0.11603017
117	0xbeecdc53	-0.46261844
118	0xbed4a1d1	-0.41529706
119	0xbe008ee9	-0.12554516
120	0xbe35b5e5	-0.17745169
121	0xbe4d5dbc	-0.20055288
122	0xbedb8d50	-0.4288125
123	0xbe6e9cbc	-0.23301977
124	0x3ddb4748	0.10706955
125	0xbe74b176	-0.23895821
126	0x3b0c65d3	0.0021422997
127	0xbe284b14	-0.1643489
128	0xbe8c1688	-0.2736094
129	0x3d9b915c	0.075960845
130	0xbeb43f7c	-0.35204685
131	0xbd0c4e79	-0.034254525
132	0xbe17c6ed	-0.14821978
133	0x3ed80215	0.42189088
134	0xbf16bae1	-0.58878905
135	0xbe4e5760	-0.20150518
136	0xbd3e2539	-0.046422217
137	0x3ef933bf	0.48672292
138	0xbf270ff6	-0.6525873
139	0xbe871c85	-0.26388946
140	0x3ec8a91b	0.39191517
141	0xbf058052	-0.52148926
142	0x3e4dc3e9	0.20094265
143	0x3a89a316	0.0010500874
144	0x3dbac043	0.09118702
145	0xbdbd333d	-0.092382886
146	0x3ea9be2b	0.331529
147	0x3e4dbff3	0.20092754
148	0x3ebf1de9	0.37327507
149	0x3d3446a0	0.044012666
150	0x3e6d7304	0.23188406
151	0x3e9576ed	0.29192296
152	0x3cf377ff	0.029720305
153	0x3ea7482d	0.32672253
154	0xbdf8dac7	-0.121511035
155	0x3e22a9d3	0.15885095
156	0xbbf598fe	-0.0074950447
157	0xbda2dddf	-0.07952475
158	0x3ea81c65	0.32834163
159	0x3ec90164	0.39258873
160	0xbe2e43c9	-0.17018045
161	0xbe7523f2	-0.23939493
162	0xbed95730	-0.4244933
163	0x3c495f4d	0.012290788
164	0xbf03c9ab	-0.51479596
165	0x3e553210	0.20819879
166	0xbefdad2d	-0.49546185
167	0x3ec29ca6	0.38010138
168	0x3d903eba	0.07043214
169	0x3eb19b26	0.3468868
170	0xbecc8032	-0.39941555
171	0x3e86a5c3	0.2629834
172	0xbf236a0c	-0.6383369
173	0xbf1b4f0b	-0.60667485
174	0xbe99fb1d	-0.30074397
175	0xbf09a85c	-0.5377252
176	0xbf5ae3b7	-0.85503715
177	0xbf0f024e	-0.5586289
178	0xbf344dc1	-0.70431143
179	0xbe851cee	-0.25998634
180	0xbefcd5a9	-0.4938176
181	0xbf2dec71	-0.67938906
182	0xbf381df8	-0.7192073
183	0xbf178195	-0.591821
184	0xbf4536d9	-0.77036816
185	0xbef879ea	-0.48530513
186	0xbf17e44f	-0.59332746
187	0xbea64dc3	-0.32481202
188	0xbf5e4d36	-0.86836565
189	0xbf0559a7	-0.52089924
190	0xbf2efcf1	-0.6835471
191	0xbf12db86	-0.57366216
192	0x3ed81865	0.42206112
193	0xbe0f75c0	-0.14009762
194	0x3d177ab9	0.03698227
195	0x3f259b65	0.6469024
196	0x3e5f808f	0.21826385
197	0x3e5b7ba1	0.2143388
198	0x3e3cf6d7	0.18453537
199	0x3e9b7ab6	0.3036706
200	0xbecca299	-0.39967802
201	0xbe785438	-0.24250877
202	0x3e26ad67	0.16277085
203	0x3e1a1088	0.15045369
204	0x3d2e530a	0.04255966
205	0x3e32bc4f	0.17454647
206	0x3da2d026	0.079498574
207	0x3dddcea8	0.10830432
208	0x3e03e61e	0.12880751
209	0x3daf2c93	0.08553424
210	0xbe893554	-0.267985
211	0x3b3192a6	0.0027095466
212	0xbed3bf91	-0.4135709
213	0xbe565776	-0.20931801
214	0xbe42066b	-0.18947761
215	0x3e0153f7	0.12629686
216	0xbe93e343	-0.28884324
217	0xbeee1d00	-0.465065
218	0xbe63cfcc	-0.22247237
219	0xbebbbd95	-0.36668077
220	0x3e08f3b2	0.13374212
221	0x3da17e4c	0.07885417
222	0xbe0eafd2	-0.13934258
223	0xbe4e36f6	-0.20138153
224	0xbe8bf1a5	-0.27332798
225	0xbea69e47	-0.3254263
226	0x3d6de156	0.058076225
227	0xbe91456c	-0.28373277
228	0xbebd31ea	-0.36952144
229	0xbe4b5ea4	-0.19860321
230	0xbe521a41	-0.20517828
231	0xbf001bb8	-0.50042295
232	0x3e9e25c3	0.30888185
233	0x3e7440e1	0.23852874
234	0xbe46c8ee	-0.19412586
235	0xbe3fa13e	-0.18713853
236	0xbe302862	-0.17202905
237	0x3ebacdef	0.3648524
238	0xbda86069	-0.08221514
239	0x3ea25ca6	0.3171131
240	0x3e635c10	0.22203088
241	0xbc391014	-0.011295337
242	0xbe4288ed	-0.18997546
243	0xbd3d7fc5	-0.04626443
244	0xbbfde0d3	-0.0077477484
245	0x3df9a669	0.12189943
246	0x3e478782	0.19485286
247	0xbe51920f	-0.20465873
248	0x3e3a09bb	0.18167774
249	0x3dd88d71	0.10573853
250	0xbde4624b	-0.111515604
251	0x3e072ab3	0.13199882
252	0xbc747277	-0.014919869
253	0x3ebeebdb	0.37289318
254	0xbe1bed4e	-0.15227243
255	0x3e1b51c9	0.15167917

b f4 [32]
0	0x3f00c3d6	0.5029882
1	0xbf0b07a1	-0.54308516
2	0x3edebb2e	0.43502182
3	0xbe1ebce9	-0.15501751
4	0x3de1094f	0.109881036
5	0xbeee6c94	-0.46567214
6	0xbe2a5813	-0.1663516
7	0x3dd73ec2	0.10510017
8	0xbe52f7d4	-0.20602351
9	0x3dd33166	0.103121564
10	0xbe550ad2	-0.20804909
11	0x3ebc44fa	0.36771375
12	0xbebe9763	-0.37224874
13	0xbe6cb5e1	-0.23116256
14	0xbe38ec99	-0.18059005
15	0xbeb99efe	-0.36254114
16	0xbea676c0	-0.32512474
17	0x3e457ee8	0.19286692
18	0xbe54cc55	-0.20781071
19	0x3d2420b9	0.04007027
20	0xbeb5f014	-0.35534728
21	0xbeb08209	-0.3447421
22	0xbe5a7153	-0.21332292
23	0xbeb68f0f	-0.3565602
24	0x3e67706c	0.2260148
25	0xbd1afcc7	-0.037838724
26	0x3e85e2ea	0.26149684
27	0x3eae870f	0.34087417
28	0xbed729a4	-0.42023957
29	0x3e9926d5	0.2991244
30	0xbe3badff	-0.18328093
31	0x3e45cfd0	0.19317555

W f4 [32, 32]
0	0x3d14f889	0.036369834
1	0xbf14bea3	-0.5810339
2	0x3d874762	0.06605412
3	0x3dec9d7e	0.11553477
4	0x3e8ab3e2	0.27090365
5	0x3f436386	0.76323736
6	0xbec4e0eb	-0.3845285
7	0xbec0ddfc	-0.3766936
8	0xbeadd2c9	-0.3394988
9	0x3e628f70	0.2212503
10	0x3d972cae	0.07381569
11	0xbe960b14	-0.29305327
12	0x3e81790c	0.25287664
13	0xbd08b6d1	-0.033377472
14	0x3ee458ae	0.44598907
15	0x3e883088	0.26599526
16	0x3d82b4d4	0.063821465
17	0xbc988e6f	-0.018622605
18	0x3eed97d9	0.46404913
19	0x3ec60238	0.38673568
20	0x3e651108	0.22369778
21	0x3e1904e0	0.14943266
22	0x3d91dd5b	0.07122298
23	0x3e873ffd	0.26416007
24	0x3eef948a	0.46793014
25	0x3e64546e	0.22297832
26	0x3da55650	0.080731034
27	0x3e6d98d8	0.23202837
28	0x3e9b6e62	0.30357653
29	0x3edad135	0.42737737
30	0x3e893635	0.2679917
31	0x3e8e5024	0.27795517
32	0x3d7d84d4	0.061894253
33	0x3e103882	0.14084056
34	0x3ba9be8f	0.005180187
35	0xbbaafa01	-0.005217791
36	0xbae794d1	-0.0017668252
37	0x3e6e13ba	0.23249713
38	0xbf3380d3	-0.70118445
39	0x3d7e8b10	0.06214434
40	0x3e94221c	0.28932273
41	0x3f13569d	0.57554036
42	0xbe0281f0	-0.1274488
43	0xbddd0ea8	-0.10793811
44	0xbec0231e	-0.37526792
45	0xbf15d965	-0.5853484
46	0xbebcfcae	-0.3691153
47	0xbf1a6169	-0.60304886
48	0x3d85ce3d	0.065334775
49	0xbdf14a81	-0.117817886
50	0x3e3bace0	0.18327665
51	0x3d975b25	0.07390431
52	0xbe018635	-0.12648852
53	0x3cdceaf4	0.026967503
54	0xbd2c02da	-0.041994907
55	0xbee96137	-0.45581982
56	0xbe78c12b	-0.24292438
57	0xbe6858eb	-0.2269017
58	0x3e24e086	0.16101274
59	0xbe639674	-0.22225362
60	0xbe35c1f8	-0.17749774
61	0xbeea7999	-0.45795897
62	0x3db95231	0.0904888
63	0xbebbabc3	-0.3665448
64	0xbe3758da	-0.17904988
65	0x3f04f415	0.5193494
66	0xbdd29a7e	-0.10283373
67	0x3ef9f53c	0.4881991
68	0x3e6a4b0b	0.22880189
69	0x3f14f88c	0.5819175
70	0x3ce9647b	0.028490296
71	0xbdddfe0f	-0.108394735
72	0x3f0721a7	0.52785724
73	0xbf0599a7	-0.5218758
74	0x3f059d91	0.5219355
75	0x3d9be94a	0.07612856
76	0x3dd4f1dd	0.10397694
77	0x3f033b2c	0.51262164
78	0x3e9ed164	0.31019127
79	0x3f000458	0.5000663
80	0x3eed9f99	0.46410826
81	0x3f060791	0.52355295
82	0x3ec6c01b	0.3881844
83	0x3e2eb048	0.17059433
84	0x3ef39e7d	0.47581854
85	0x3de24a56	0.11049335
86	0x3e726e59	0.23674907
87	0x3ec412ea	0.3829568
88	0x3dbb7ebf	0.09155034
89	0x3ee99425	0.45620838
90	0x3e9dbeee	0.3080973
91	0x3e3c5413	0.18391447
92	0x3e0ac3ce	0.13551256
93	0x3e82bc43	0.25534257
94	0x3efc53af	0.49282596
95	0x3f186713	0.5953228
96	0x3e242bcc	0.16032332
97	0xbe62de45	-0.22155102
98	0xbd5fcd25	-0.054639
99	0x3deae3bf	0.1146922
100	0x3f11c79b	0.569452
101	0xbf05e231	-0.52298266
102	0x3f1bb1f6	0.6081842
103	0xbea20d9f	-0.31651017
104	0xbeb36af4	-0.35042536
105	0xbeb734dd	-0.3578252
106	0x3e978e1a	0.29600602
107	0x3e810f85	0.25207153
108	0x3f3f41c9	0.74709755
109	0x3edc29be	0.43000597
110	0x3e016fe4	0.12640339
111	0x3eef2b0a	0.46712524
112	0xbe7cd991	-0.2469237
113	0x3f0c1a9b	0.54728097
114	0x3e03263f	0.12807558
115	0x3ea88773	0.3291584
116	0x3d4ae03b	0.04953025
117	0x3e86762b	0.2626203
118	0xbe980918	-0.29694438
119	0x3f3fece3	0.74970835
120	0xbea609f2	-0.32429463
121	0x3efe8624	0.49711716
122	0xbdfd299f	-0.12361454
123	0x3e7128a2	0.23550656
124	0xbeb18604	-0.34672558
125	0x3ee8e48d	0.4548687
126	0x3dc16dee	0.094447955
127	0x3e920a0f	0.285233
128	0xbef42d35	-0.4769074
129	0x3dcd76b6	0.10032408
130	0x3f2ed299	0.68290097
131	0x3f4aa351	0.7915545
132	0xbf3336e2	-0.7000562
133	0x3f3b00e4	0.73048234
134	0xbeca231d	-0.39479914
135	0x3ef43f50	0.47704554
136	0x3f4f9e80	0.81101227
137	0xbef2de4c	-0.47435224
138	0xbf33e251	-0.70267206
139	0x3f18f67e	0.5975112
140	0xbe936e7e	-0.28795236
141	0xbe9d7747	-0.30755064
142	0xbf011fcb	-0.5043914
143	0xbf680eba	-0.9064747
144	0xbeb52d09	-0.35385922
145	0xbf087c07	-0.5331425
146	0xbf000b9d	-0.5001772
147	0xbee65941	-0.4498997
148	0xbf13dfd6	-0.5776342
149	0xbeb56ba8	-0.35433698
150	0xbf18125c	-0.59403014
151	0xbf16dfbd	-0.5893515
152	0xbf534c85	-0.82538635
153	0xbebf0dee	-0.37315315
154	0xbf327fa1	-0.69725996
155	0xbf150353	-0.582082
156	0xbf52f835	-0.82409984
157	0xbf0d1e2f	-0.5512418
158	0xbf03f72c	-0.5154903
159	0xbe980e0b	-0.29698214
160	0xbef88c1c	-0.48544395
161	0x3c4f0206	0.01263476
162	0x3e5a8945	0.21341427
163	0xbe9a3174	-0.30115855
164	0xbed41823	-0.41424665
165	0x3d17993d	0.037011374
166	0xbe051466	-0.12996063
167	0x3bee93d0	0.007280804
168	0x3d52eccb	0.051495355
169	0xbcc7e471	-0.024400922
170	0xbd7aba67	-0.061212923
171	0x3ebb2cc0	0.3655758
172	0xbd48bb8c	-0.049006984
173	0xbe94cfd8	-0.29064822
174	0x3c70f073	0.014705765
175	0xbe4e37a8	-0.20138419
176	0x3ba65900	0.0050765276
177	0xbec5881e	-0.38580412
178	0x3c3116eb	0.010808687
179	0xbde39dc8	-0.11114079
180	0xbef4aa4b	-0.47786173
181	0x3d2c9861	0.042137507
182	0xbe1cd1f1	-0.15314461
183	0xbda57b4e	-0.08080159
184	0xbe6a3819	-0.22872962
185	0xbef0c605	-0.47026077
186	0xbe2533ff	-0.16133116
187	0xbefce8b7	-0.49396297
188	0xbd6e04e5	-0.058110137
189	0xbdd911e1	-0.10599113
190	0xbef9a204	-0.4875642
191	0xbe5614d1	-0.20906378
192	0xbea377ac	-0.3192724
193	0xbf2d4e84	-0.6769793
194	0x3d5aa1d9	0.053377006
195	0x3f5d2746	0.8638805
196	0xbd994bc9	-0.07485158
197	0x3e1601f6	0.14649186
198	0xbe1af730	-0.15133357
199	0xbeab967e	-0.33513254
200	0x3efc21b7	0.49244472
201	0x3ecf486c	0.4048494
202	0xbed8330a	-0.4222644
203	0xbda469a1	-0.080279596
204	0x3deebb1b	0.11656781
205	0xbe9cf2ff	-0.3065414
206	0x3b9edeb2	0.0048483247
207	0xbde3cf6a	-0.111235455
208	0x3e95b1c1	0.29237178
209	0x3dccb586	0.0999556
210	0xbe5de573	-0.21669559
211	0x3e2384d6	0.15968642
212	0x3da85298	0.082188785
213	0xbe8cd51b	-0.27506337
214	0x3dff0241	0.12451602
215	0xbe0a4471	-0.13502671
216	0x3e4c4610	0.19948602
217	0x3cbfdae2	0.023419801
218	0x3e02eab8	0.1278485
219	0x3da90125	0.082521714
220	0x3e8fe48f	0.28104064
221	0x3df82ddc	0.12118122
222	0xbe3b09b9	-0.18265428
223	0xbd971b31	-0.07378233
224	0x3e086d68	0.13322985
225	0x3e2c4310	0.16822457
226	0x3d8a2cca	0.06746824
227	0x3ed43cf4	0.41452754
228	0xbdb401e9	-0.08789427
229	0xbe658e34	-0.22417527
230	0x3df70346	0.12061171
231	0x3f00bd3c	0.5028875
232	0xbf184880	-0.59485626
233	0xbe1b4cbf	-0.15165995
234	0xbdd1dead	-0.1024755
235	0xbf07ee81	-0.53098303
236	0xbdd98301	-0.1062069
237	0xbeff0879	-0.49811152
238	0x3e461de6	0.19347343
239	0x3dbab1e7	0.091159634
240	0xbc75b278	-0.014996164
241	0xbe9b1cde	-0.3029546
242	0x3e915aa4	0.28389466
243	0x3e1ec6b9	0.15505494
244	0xbe190ec6	-0.14947042
245	0xbc8b4db8	-0.017004833
246	0x3eb7ce5e	0.35899633
247	0x3de7bdc9	0.113154955
248	0xbc93dbca	-0.01804914
249	0xbd771894	-0.060326174
250	0x3d43d6e9	0.047812376
251	0xbe0f6e15	-0.14006837
252	0x3eb8e581	0.36112598
253	0xbd8a7a41	-0.06761599
254	0xbe3695cf	-0.17830585
255	0x3cefda95	0.029279033

b f4 [32]
0	0x3e9433e1	0.2894583
1	0xbe49eda9	-0.19719566
2	0x3eac4bfa	0.33651716
3	0x3ee3cffb	0.44494614
4	0xbf199c7a	-0.6000439
5	0xbe64455f	-0.22292088
6	0x3c5b69c4	0.013391916
7	0xbd8eee1a	-0.06979008
8	0x3eb79cec	0.3586191
9	0x3e0740db	0.13208334
10	0xbe5dfec7	-0.21679221
11	0xbeb37d1d	-0.3505639
12	0x3ed6f997	0.41987297
13	0x3e2e8f11	0.17046763
14	0x3e8c1454	0.2735926
15	0xbe5eae88	-0.21746266
16	0xbec0e1ff	-0.3767242
17	0xbe53621b	-0.20642893
18	0xbeb0ee08	-0.34556603
19	0x3e62ff28	0.22167647
20	0x3e340ff6	0.17584214
21	0xbea5a7e6	-0.3235466
22	0xbeb6e1ab	-0.35719046
23	0x3ed1ee87	0.41002294
24	0xbe9724b7	-0.295202
25	0x3e78e5dd	0.24306436
26	0x3eb63d8c	0.35593832
27	0x3ef67aa4	0.48140442
28	0xbe1d7c49	-0.15379442
29	0xbde14281	-0.10999013
30	0xbe73f8f5	-0.23825438
31	0x3eaac401	0.33352664

W f4 [32, 32]
0	0x3f262d2a	0.64912665
1	0xbf2a62c4	-0.66556954
2	0xba0b5466	-0.00053150055
3	0x3ece50ae	0.4029593
4	0xbd850629	-0.064953156
5	0xbea070a8	-0.3133595
6	0x3f15f782	0.5858079
7	0xbee596dc	-0.4484166
8	0x3f084a85	0.5323871
9	0xbeccac45	-0.3997518
10	0x3f25141f	0.6448383
11	0x3dde0fc8	0.10842854
12	0xbded4793	-0.11585917
13	0x3e1f5f64	0.15563732
14	0xbe9720bb	-0.2951716
15	0xbe9e2190	-0.3088498
16	0xbe1aa9d7	-0.15103851
17	0xbecb0b29	-0.39656952
18	0xbe6b7bdc	-0.22996467
19	0xbe537c87	-0.20652972
20	0xbf2de71c	-0.6793077
21	0xbc5cead1	-0.013483719
22	0xbe458fec	-0.19293183
23	0xbe3e47d0	-0.18582082
24	0xbf09160f	-0.53549284
25	0xbee8f3ca	-0.45498496
26	0xbe631f6b	-0.22179954
27	0xbe9a347c	-0.30118167
28	0xbe009b81	-0.1255932
29	0xbf10df91	-0.56591135
30	0xbe6d5fce	-0.23181078
31	0xbe7f69e4	-0.24942738
32	0xbe728df4	-0.23686963
33	0xbebce1c7	-0.36891004
34	0xbe332418	-0.17494237
35	0x3e5882ec	0.21143693
36	0xbec6e3ed	-0.3884577
37	0x3ca4f3b5	0.02013574
38	0xbec3d7a3	-0.38250455
39	0x3df72bba	0.12068887
40	0x3e9dd9f3	0.30830345
41	0xbd6af58a	-0.05736307
42	0x3ea899b0	0.32929754
43	0x3ecd5f4a	0.40111762
44	0x3c295e25	0.010337387
45	0x3dde85fa	0.10865398
46	0x3d55c2c6	0.052187704
47	0xbdc93ee9	-0.09826452
48	0xbda2c3c1	-0.07947493
49	0xbe144b4d	-0.1448185
50	0x3e83d329	0.2574704
51	0xbde2fcd6	-0.11083381
52	0x3d6863a3	0.056735646
53	0x3e5e85da	0.21730748
54	0xbe860dc1	-0.26182368
55	0x3ec5fa46	0.38667506
56	0x3d708965	0.05872478
57	0x3df5e33a	0.12006231
58	0x3a6fe573	0.0009151317
59	0xbe1ca433	-0.15297012
60	0x3e4ffa4d	0.20310326
61	0x3e824a73	0.25447425
62	0xbd3fde2c	-0.04684274
63	0x3d6ee0bf	0.058319803
64	0xbdf87c43	-0.12133076
65	0x3de5dde1	0.11223961
66	0xbf04ec63	-0.519232
67	0xbe10ed2e	-0.14152977
68	0xbcb29ac8	-0.021802321
69	0x3f1c6696	0.61094034
70	0xbf2cfbf3	-0.67571944
71	0xbf2a0b41	-0.6642342
72	0x3ee5c722	0.4487849
73	0xbd82696b	-0.06367763
74	0x3f4abc8b	0.79193944
75	0xbf1813fc	-0.59405494
76	0x3f47f0cb	0.78101796
77	0x3f236c19	0.6383682
78	0x3eff0299	0.4980667
79	0x3f282875	0.6568673
80	0x3f0861dc	0.5327432
81	0x3ec81422	0.3907786
82	0x3edf53ab	0.4361852
83	0x3ee47b95	0.44625536
84	0x3ec5f609	0.38664272
85	0x3f4b569f	0.7942905
86	0x3efac374	0.48977244
87	0x3f4b6a88	0.7945943
88	0x3f12f333	0.5740234
89	0x3ef50ee8	0.47862935
90	0x3e796d42	0.24358085
91	0x3f437ea8	0.7636514
92	0x3f02907e	0.5100173
93	0x3e90b6d8	0.282645
94	0x3e8ecc95	0.2789046
95	0x3f39238b	0.7231986
96	0xbef14e7c	-0.4713019
97	0x3e833787	0.25628302
98	0xbe75a378	-0.2398814
99	0xbe6d92bc	-0.23200506
100	0x3eed2853	0.46319827
101	0x3edc574b	0.4303535
102	0xbead808e	-0.33887142
103	0xbed93088	-0.4241984
104	0xbe679930	-0.2261703
105	0x3e338073	0.17529468
106	0x3e6d8923	0.23196845
107	0xbe9b7009	-0.30358914
108	0x3ebea486	0.37234896
109	0xbb8d85f8	-0.004318949
110	0x3e97718c	0.29578817
111	0x3f25d687	0.6478047
112	0x3eb94621	0.36186317
113	0x3ed521c9	0.4162734
114	0x3e5ed9e7	0.2176281
115	0x3ee455f7	0.44596836
116	0x3ec6775f	0.38762948
117	0x3f0d5b97	0.5521788
118	0x3ee1db74	0.44112742
119	0x3f15aff9	0.5847164
120	0x3f1cdf1b	0.6127793
121	0x3e9e800c	0.30957067
122	0x3e6509ce	0.22367021
123	0x3efaacc2	0.4895993
124	0x3f225318	0.6340804
125	0x3eb0649f	0.34451768
126	0x3e5e91ff	0.2173538
127	0x3f126075	0.5717843
128	0x3ebd0739	0.36919573
129	0xbe29a69b	-0.16567461
130	0xbe4726ee	-0.19448444
131	0x3e1c9d2f	0.15294336
132	0x3f22b7a2	0.6356145
133	0x3e8f22ce	0.2795624
134	0x3e134dca	0.14385143
135	0xbe8ba2a6	-0.27272528
136	0x3f118d3e	0.56856143
137	0xbe98b39d	-0.29824534
138	0xbe8459a3	-0.25849637
139	0x3f30a4c9	0.6900144
140	0xbebde4d0	-0.37088633
141	0x3dd0b3dd	0.10190556
142	0xbec6a422	-0.38797098
143	0xbf231a07	-0.6371159
144	0xbf25392c	-0.6454036
145	0xbf14bf99	-0.58104855
146	0xbe589436	-0.21150288
147	0xbf367fdb	-0.7128884
148	0xbf13fa09	-0.578034
149	0xbf218051	-0.6308642
150	0xbe3377d1	-0.17526175
151	0xbeebd477	-0.46060535
152	0xbe3ce3c8	-0.18446267
153	0xbf0464c9	-0.51716286
154	0xbf02e193	-0.5112545
155	0xbe498e1a	-0.19683114
156	0xbeaf66d6	-0.34258145
157	0xbf22a807	-0.6353764
158	0xbf3acadd	-0.72965795
159	0xbf0d2b95	-0.55144626
160	0xbc52568d	-0.012838018
161	0x3d1be9ad	0.038064647
162	0x3ec113bf	0.37710378
163	0xbf0b32bc	-0.5437429
164	0x3e2b32fd	0.16718669
165	0x3e9cda40	0.30635262
166	0x3e67413d	0.2258348
167	0xbe8b4471	-0.27200654
168	0xbe9e6074	-0.30932963
169	0xbea4f62c	-0.32219064
170	0x3c510b91	0.012759105
171	0x3ddd178c	0.10795507
172	0x3e8d86d1	0.2764192
173	0x3ee2f63d	0.4432849
174	0x3e567981	0.20944788
175	0xbcd7cd88	-0.026343122
176	0x3e9d3ad3	0.30708942
177	0x3e7fac39	0.24968041
178	0x3e910035	0.2832047
179	0x3ef2ba37	0.47407696
180	0x3ec720d0	0.3889222
181	0x3e0c0aae	0.13675949
182	0x3eec7bd0	0.4618821
183	0x3eb93da0	0.3617983
184	0x3d191e66	0.037382506
185	0xbdb88b94	-0.090109974
186	0x3e560c3c	0.20903105
187	0x3e897021	0.2684336
188	0x3bd1cb94	0.006402442
189	0x3eb19251	0.34681943
190	0x3e4be864	0.19912869
191	0xbc07e30f	-0.008293881
192	0xbe21571a	-0.15755883
193	0x3d43b2f8	0.0477781
194	0x3f2955c8	0.66146517
195	0x3ec0756c	0.37589586
196	0x3f20ab27	0.6276116
197	0xbe635636	-0.22200856
198	0x3ee20613	0.4414526
199	0x3efca8a3	0.4934741
200	0xbf23e274	-0.64017415
201	0x3e6a2b90	0.2286818
202	0xbeb77d6d	-0.3583788
203	0x3e980976	0.29694718
204	0xbea30668	-0.31840825
205	0xbf2c8809	-0.67395073
206	0xbe634716	-0.22195086
207	0xbe948f85	-0.29015747
208	0xbe7a82f8	-0.24464023
209	0xbe1f95d1	-0.15584494
210	0xbdb4f02b	-0.08834871
211	0xbe0b96ed	-0.13631792
212	0xbe2aa959	-0.16666164
213	0xbe66f5e9	-0.22554745
214	0xbe505f0d	-0.20348759
215	0xbea1fd7b	-0.31638703
216	0xbe5531de	-0.20819804
217	0xbd0d41cf	-0.034486588
218	0xbc924659	-0.01785581
219	0xbefb3551	-0.49064115
220	0xbdb4eeb7	-0.08834594
221	0xbe3330ba	-0.17499056
222	0xbe338779	-0.17532147
223	0xbe93fdb7	-0.28904507
224	0xbe73da57	-0.23813759
225	0xbb1ca4f9	-0.0023902042
226	0xbbbcef0e	-0.005765802
227	0xbebce93d	-0.36896697
228	0x3e82b2a8	0.2552693
229	0x3b940a27	0.004517812
230	0xbe9e1099	-0.30872038
231	0x3ed61a79	0.41817072
232	0x3dea624d	0.11444531
233	0x3db5cbe2	0.08876778
234	0xbea83bbc	-0.32858074
235	0xbf058af9	-0.5216518
236	0x3f08c35a	0.5342308
237	0xbe87468c	-0.2642101
238	0x3f17003b	0.58984727
239	0x3eac9327	0.33706018
240	0x3ea75ebc	0.32689464
241	0x3edc9f41	0.4309025
242	0x3f21658c	0.63045573
243	0x3eaf6a35	0.34260717
244	0x3e8dd50d	0.27701607
245	0x3ea6088f	0.32428405
246	0x3e5b4832	0.21414259
247	0x3e132a47	0.14371596
248	0x3df6b6bb	0.12046572
249	0x3f10440a	0.5635382
250	0x3f0d66a4	0.5523474
251	0x3e75e643	0.24013619
252	0x3ee7827c	0.4521674
253	0x3e31ed3b	0.17375652
254	0x3ebf61db	0.37379345
255	0x3f136442	0.57574856

b f4 [32]
0	0xbe9095eb	-0.28239378
1	0x3def3f24	0.11681965
2	0x3ef8e9cc	0.48615873
3	0x3ec63f1c	0.38720024
4	0xbee3417b	-0.44385895
5	0x3e48a8f3	0.19595699
6	0xbeafbeaf	-0.34325168
7	0x3ed0feab	0.40819296
8	0x3ea0dea0	0.3141985
9	0xbe61064a	-0.21975055
10	0x3e4e29d8	0.2013315
11	0x3e0aa5ef	0.13539861
12	0x3e795dd2	0.24352196
13	0x3eaa646f	0.3327975
14	0x3e6a4ec4	0.22881609
15	0xbea65673	-0.3248783
16	0xbe9eea1b	-0.31037983
17	0x3eac8a80	0.33699417
18	0xbea93061	-0.33044723
19	0xbe7b2ab1	-0.24528004
20	0xbe15231b	-0.14564173
21	0xbea9bd59	-0.33152273
22	0x3e3916e7	0.18075143
23	0x3eaaa75f	0.3333082
24	0x3ec722e9	0.38893822
25	0xbcee8c16	-0.029119533
26	0xbe8a3a25	-0.26997486
27	0xbea527f4	-0.32257044
28	0xbb055d6b	-0.002034987
29	0xbe5478ab	-0.20749156
30	0x3eb144fe	0.3462295
31	0xbebc0093	-0.36719188

W f4 [32, 32]
0	0xbe6a859c	-0.2290253
1	0x3f1ba888	0.60804033
2	0x3d2a46f3	0.04157157
3	0x3e0f4f3c	0.1399507
4	0x3ee7c49b	0.45267186
5	0x3ee08ea2	0.4385882
6	0x3dea2510	0.1143285
7	0xbe8225d5	-0.2541949
8	0xbdb0f950	-0.086413026
9	0x3eef9ac9	0.4679778
10	0xbe9b3bf6	-0.30319184
11	0xbeac9b4a	-0.33712226
12	0x3f2eb1e3	0.68240184
13	0x3f05da52	0.52286255
14	0x3e01b04f	0.12664913
15	0xbce06b0c	-0.027394794
16	0xbd90b502	-0.070657745
17	0x3de582dc	0.112066
18	0xbe2ef36c	-0.17085046
19	0xbec80615	-0.3906714
20	0x3bc4e5a1	0.006008819
21	0x3effc029	0.49951294
22	0x3e303751	0.17208602
23	0x3f111479	0.56671864
24	0xbdba7868	-0.09104997
25	0x3e671bd4	0.2256921
26	0xbea38996	-0.31940907
27	0xbea7da84	-0.32783902
28	0x3e6888e5	0.22708471
29	0x3f383986	0.71962774
30	0xbe9b2da8	-0.3030827
31	0x3e476458	0.19471872
32	0xbd353e91	-0.04424912
33	0xbf2994cf	-0.6624269
34	0x3eeef25e	0.46669286
35	0x3d7c5399	0.061603162
36	0xbed49e9b	-0.41527256
37	0x3e9224d6	0.2854373
38	0x3e25ca02	0.16190341
39	0xbe1d15e0	-0.15340376
40	0x3eef7060	0.46765423
41	0xbf21f360	-0.63261986
42	0x3cf3b10b	0.029747507
43	0x3ee65e9b	0.44994053
44	0xbdbd4ae0	-0.09242797
45	0x3eb4dd58	0.35325122
46	0x3d6d7b64	0.057979003
47	0xbee42349	-0.4455817
48	0x3e94bb31	0.29049066
49	0xbf223d45	-0.6337474
50	0x3ee76b04	0.45198834
51	0x3f191ef8	0.5981288
52	0xbe48846a	-0.19581762
53	0xbd07cc6e	-0.033153944
54	0x3eb99198	0.36243892
55	0xbe79d51f	-0.24397705
56	0x3e85c6b2	0.26128155
57	0x3cb1d763	0.02170915
58	0x3c4ff26f	0.012692078
59	0x3e1fdf23	0.15612464
60	0xbeaa25af	-0.33231875
61	0xbda0e5cc	-0.0785633
62	0x3ebcbb26	0.36861533
63	0xbf25e1d0	-0.6479769
64	0x3ef98a3a	0.4873827
65	0xbe93980e	-0.28826946
66	0x3f221bd0	0.6332369
67	0xbeb16f71	-0.34655336
68	0xbeccd462	-0.40005785
69	0xbf0eef11	-0.55833536
70	0x3ead58f4	0.33856928
71	0xbec9412a	-0.3930753
72	0xbd492e61	-0.049116496
73	0xbe940451	-0.28909543
74	0x3f120ec0	0.57053757
75	0xbd415d62	-0.047208197
76	0xbee51966	-0.4474594
77	0xbf0411e4	-0.515898
78	0xbda833ee	-0.0821303
79	0xbebbae87	-0.3665659
80	0xbe37cbea	-0.17948881
81	0xbf01d5d2	-0.5071689
82	0x3eb9c265	0.36281124
83	0xbe6d262f	-0.23159097
84	0xbde62a4f	-0.112385385
85	0xbe81954b	-0.25309214
86	0x3e11295f	0.14175938
87	0x3d0fb3db	0.035083633
88	0xbe60a14b	-0.21936528
89	0xbefe0b80	-0.4961815
90	0x3f25a5f2	0.6470634
91	0xbe01aef6	-0.12664399
92	0xbe9d759f	-0.307538
93	0x3e3ccbe8	0.18437159
94	0x3c88dfed	0.016708339
95	0xbd17578c	-0.036948726
96	0x3ef2ce1b	0.4742287
97	0xbf162d84	-0.586632
98	0x3eefe092	0.4685102
99	0xbd86c52a	-0.06580575
100	0x3e594f74	0.21221715
101	0x3f0e9d6a	0.55708945
102	0xbea04142	-0.31299788
103	0x3efca8b4	0.4934746
104	0x3df4f225	0.11960248
105	0xbe9d623e	-0.30739015
106	0x3e8a64a6	0.27029914
107	0x3e6d5e07	0.231804
108	0x3e4db539	0.20088662
109	0x3f03cac1	0.5148125
110	0xbf19449e	-0.59870327
111	0x3e64548f	0.22297882
112	0x3e13c409	0.1443025
113	0x3d22e850	0.03977233
114	0x3e8b5a22	0.27217203
115	0x3ec7ee2b	0.39048895
116	0x3edfed76	0.43735856
117	0x3e759b6a	0.23985067
118	0xbe6cc9ee	-0.23123905
119	0x3ebbf411	0.36709645
120	0x3e9f8bcd	0.31161347
121	0xbd950d18	-0.07277888
122	0xbe004662	-0.12526849
123	0x3ec53dd8	0.38523746
124	0x3e0387bd	0.12844749
125	0xba655320	-0.00087480433
126	0xbe8532e7	-0.26015398
127	0x3d8b845d	0.06812356
128	0xbed3747d	-0.4129981
129	0x3efc877b	0.49322113
130	0xbec3bdb0	-0.38230658
131	0xbeba92a4	-0.36440003
132	0xbda50c89	-0.080590315
133	0xbc8f4e70	-0.017493457
134	0x3e9cc5a4	0.30619538
135	0xbf18c21d	-0.59671193
136	0xbdc7c30e	-0.097540006
137	0x3ebdb92c	0.37055337
138	0xbc7ae1aa	-0.015312592
139	0x3de15777	0.11003011
140	0xbdfd9363	-0.123816274
141	0xbe9f14f5	-0.31070676
142	0x3ef8d6dc	0.48601425
143	0xbe547301	-0.20746996
144	0xbed085f8	-0.4072721
145	0x3f1bc9f2	0.6085502
146	0x3f0adbde	0.5424174
147	0xbed91b01	-0.42403415
148	0xbed25538	-0.41080642
149	0xbe93669d	-0.28789225
150	0x3ef4d023	0.47815046
151	0xbe48046c	-0.19532937
152	0xbe5063a1	-0.20350505
153	0x3d8be45b	0.06830665
154	0x3f02f6d3	0.51157874
155	0xbe81e9ab	-0.25373587
156	0xbef000d5	-0.46875635
157	0x3d349174	0.044084027
158	0x3e73e42c	0.2381751
159	0xbea78eb5	-0.32726064
160	0x3eef87e0	0.46783352
161	0x3e278e1f	0.16362809
162	0x3e733e37	0.23754202
163	0xbe681502	-0.22664264
164	0xbe4124ed	-0.18861742
165	0x3d9323ae	0.0718454
166	0x3ee8c012	0.45459038
167	0xbeb32c79	-0.34994867
168	0xbf26fba3	-0.6522772
169	0x3e51d0c5	0.20489796
170	0xbda820dd	-0.08209393
171	0xbf0159bb	-0.5052754
172	0xbef5851e	-0.47953123
173	0x3e9205fb	0.28520188
174	0x3ea3ba46	0.31978053
175	0xbea9ac67	-0.33139345
176	0xbf5be600	-0.8589783
177	0x3c9c4a84	0.0190785
178	0x3eb90087	0.36133215
179	0xbed3e116	-0.41382664
180	0xbed2ea7f	-0.4119453
181	0x3d8f7a7d	0.07005785
182	0x3f1dd289	0.61649376
183	0xbd606c91	-0.054791037
184	0xbf488591	-0.78328806
185	0x3ef26d2e	0.47348922
186	0xbedc2ff6	-0.4300534
187	0xbef9fda9	-0.4882634
188	0xbf00f60a	-0.50375426
189	0x3f03f6d8	0.5154853
190	0x3f179c3b	0.59222764
191	0xbe3d59c9	-0.18491282
192	0x3e790f75	0.24322303
193	0xbd9f9e9c	-0.07793924
194	0x3ebfb90a	0.3744586
195	0x3ed9e5f4	0.42558253
196	0x3e21003b	0.15722744
197	0xbeb0dae5	-0.34542003
198	0x3d1fea5f	0.039041873
199	0xbeb621f6	-0.35572785
200	0x3e7c4ce5	0.24638708
201	0x3da8a9b8	0.08235496
202	0x3dffe792	0.124953404
203	0xbd99ff6a	-0.075194195
204	0xbe527810	-0.20553613
205	0xbe9a86f3	-0.30181083
206	0xbdc5ce31	-0.096584685
207	0xbed1e111	-0.40992025
208	0x3f3c0f08	0.73460436
209	0x3eaf3f8c	0.3422817
210	0x3ee9555b	0.45572934
211	0x3e0ae7b9	0.13564958
212	0xbeb1f7e4	-0.34759438
213	0x3cfab9fb	0.03060626
214	0x3e877d41	0.2646275
215	0xbeb18a5e	-0.34675878
216	0x3ecdcf1a	0.40197068
217	0x3edc79c9	0.43061665
218	0x3f5794a3	0.84211177
219	0xbe79536b	-0.24348228
220	0xbe3a9820	-0.18222094
221	0x3f314a2e	0.69253814
222	0x3e41ae87	0.18914233
223	0xbdcc128e	-0.099644765
224	0xbf2b9469	-0.6702333
225	0xbecfc892	-0.4058271
226	0xbec3a84d	-0.3821434
227	0x3e16964a	0.14705768
228	0x3d21a536	0.039464198
229	0xbe26341f	-0.1623082
230	0xbbb14ec1	-0.0054109995
231	0x3e8ef6a4	0.27922547
232	0x3e2a6280	0.16639137
233	0xbf0b73ae	-0.5447339
234	0xbf2b6d45	-0.6696361
235	0x3d89f425	0.0673602
236	0x3f1ee6ba	0.6207081
237	0xbd700477	-0.058598008
238	0xbea22164	-0.316661
239	0x3f1f06a6	0.6211952
240	0x3e965117	0.29358742
241	0xbe56392d	-0.20920248
242	0xbe5de77f	-0.2167034
243	0x3df28ad1	0.118428834
244	0x3f0abfc1	0.54198843
245	0xbead6352	-0.33864838
246	0xbdfdddf9	-0.123958535
247	0x3e18804f	0.14892696
248	0xbee7f74e	-0.45305866
249	0xbf1268ca	-0.57191145
250	0xbe793fea	-0.24340788
251	0x3eeb3b6d	0.45943776
252	0x3e286047	0.16442977
253	0xbdc8ccf3	-0.09804716
254	0xbe31763b	-0.17330258
255	0x3e9b2f33	0.30309448

b f4 [32]
0	0xbddf3ee2	-0.10900666
1	0x3ea18745	0.31548515
2	0x3e32db80	0.17466545
3	0xbe480c71	-0.19535996
4	0x3ebfa200	0.37428284
5	0xbeaaa99d	-0.3333253
6	0x3ea89ef8	0.32933784
7	0xbe75797e	-0.23972127
8	0x3eb0c304	0.34523785
9	0xbdc2f04d	-0.0951849
10	0x3dee4b9f	0.11635517
11	0x3c9db151	0.01924959
12	0xbea8f8f0	-0.33002424
13	0xbeadc0ed	-0.33936253
14	0x3f071381	0.52764136
15	0x3e3828c8	0.17984307
16	0x3e43ff4f	0.19140361
17	0x3e324c16	0.17411837
18	0xbeb5a792	-0.35479409
19	0x3eb6652d	0.35624066
20	0x3df260b4	0.11834851
21	0x3e9d07af	0.30669925
22	0x3ecd0e70	0.40050077
23	0xbebff4c1	-0.3749142
24	0xbe6cf2a9	-0.23139443
25	0xbede0c12	-0.43368584
26	0x3c82eee9	0.015983062
27	0xbec73880	-0.38910294
28	0xbdc21bda	-0.094779685
29	0xbeafaf6c	-0.34313524
30	0x3e5c6cec	0.21525925
31	0xbe542bf0	-0.20719886

W1 f4 [32, 128]
0	0x3e98a3ae	0.29812378
1	0x3eda966e	0.42692894
2	0x3e5eab51	0.2174504
3	0xbf02cfbb	-0.5109822
4	0x3e9a9442	0.30191237
5	0xbef6e6c6	-0.4822294
6	0xbde8007a	-0.11328216
7	0xbebef215	-0.3729407
8	0x3e25416a	0.16138235
9	0xbe874bd9	-0.26425055
10	0xbb842fec	-0.004034033
11	0xbeb55487	-0.35416052
12	0x3d7f6d4f	0.062360104
13	0x3eb3f41a	0.35147172
14	0x3eed0e80	0.46300125
15	0x3db76009	0.08953864
16	0x3ed214e5	0.41031566
17	0xbec5d765	-0.38640895
18	0xbd64905c	-0.055801734
19	0x3e04f77c	0.12985033
20	0x3eaaa22b	0.3332685
21	0x3e4a5ced	0.19762011
22	0xbecb1e67	-0.39671633
23	0x3e3f0118	0.18652761
24	0x3e28d910	0.16489053
25	0x3e5ae59a	0.21376649
26	0xbd6ffde6	-0.058591746
27	0x3ef2dfa8	0.4743626
28	0xbd2b6bb6	-0.041850768
29	0x3ec58aa6	0.38582343
30	0xbf1c1770	-0.6097326
31	0x3e574920	0.21023989
32	0x3ddb9084	0.107209235
33	0xbf058cf5	-0.5216821
34	0x3e45b54c	0.1930744
35	0xbea1c641	-0.31596568
36	0x3ef95d1e	0.48703855
37	0x3d56f93e	0.05248379
38	0xbeb27998	-0.34858394
39	0x3eb1c8e7	0.3472359
40	0xbf08ebe0	-0.53484917
41	0x3e4807ed	0.19534273
42	0x3e7fe8a8	0.24991095
43	0xbef9bf69	-0.48778847
44	0x3ce7cf91	0.028297218
45	0x3eae29d5	0.3401629
46	0xbdad0c12	-0.08449568
47	0xbe43179f	-0.1905198
48	0x3e5e1033	0.21685867
49	0xbea72622	-0.3264628
50	0xbdfc9c10	-0.12334454
51	0x3e7267c2	0.23672393
52	0x3deacc74	0.114647776
53	0xbd2f0388	-0.042727977
54	0x3d254412	0.04034812
55	0x3cf68188	0.030091062
56	0x3e958242	0.2920094
57	0x3d9af9c8	0.07567173
58	0x3e8f66d3	0.28008136
59	0xbe819e34	-0.25316012
60	0x3ef67688	0.48137307
61	0x3c418258	0.0118108615
62	0x3e7461ee	0.23865482
63	0xbeaee879	-0.34161738
64	0xbeaee47c	-0.34158695
65	0x3ed3e0dd	0.41382495
66	0xbe94fcd4	-0.29099143
67	0x3ef7c774	0.48394358
68	0xbeb09165	-0.34485927
69	0xbe98f2e7	-0.2987282
70	0x3ea516c1	0.32243922
71	0x3f01f4cb	0.5076415
72	0xbdb736fc	-0.08946034
73	0x3e88cfff	0.26721188
74	0xbe27161b	-0.16317026
75	0xbe6bf8c6	-0.23044118
76	0xbe8826c6	-0.26592082
77	0x3e7d1f51	0.24718978
78	0x3d16fb90	0.036861002
79	0xbf04d713	-0.5189068
80	0xbea41a16	-0.32051152
81	0x3f009aea	0.5023638
82	0xbe8e6112	-0.27808434
83	0x3e980724	0.29692948
84	0xbcd22f8c	-0.025657438
85	0xbe4b6a66	-0.19864807
86	0x3df1e62e	0.118114814
87	0xbe9b07e3	-0.30279455
88	0xbee8a3b2	-0.4543739
89	0x3eacbd5b	0.33738217
90	0xbe87ae5b	-0.2650021
91	0x3ee765be	0.4519481
92	0x3eb3b19d	0.35096446
93	0x3db6067d	0.08887956
94	0xbe2a698e	-0.16641828
95	0xbef5afbf	-0.47985646
96	0x3e62d4f3	0.22151546
97	0xbeff1b53	-0.49825534
98	0xbe130c2a	-0.14360109
99	0x3e3b0b0a	0.1826593
100	0x3eb4d058	0.35315204
101	0x3ef7cbb0	0.4839759
102	0xbeb268f3	-0.34845695
103	0x3ee9bd77	0.45652363
104	0xbda272c4	-0.07932046
105	0xbe450917	-0.19241749
106	0xbef68adc	-0.48152816
107	0xbe0889e6	-0.13333854
108	0xbe2f4f2c	-0.17120045
109	0x3f197657	0.599462
110	0xbdb2658a	-0.08710773
111	0xbe584741	-0.21120931
112	0x3e131b47	0.14365874
113	0x3c753111	0.014965312
114	0x3ecadbe4	0.39620888
115	0xbed93814	-0.42425597
116	0x3f064027	0.5244164
117	0x3eab798b	0.33491167
118	0xbe8a6a75	-0.27034345
119	0xbe979537	-0.2960603
120	0x3e1e3d1c	0.15452999
121	0xbef5757d	-0.479412
122	0x3ea49e4b	0.32152018
123	0xbed1a7b7	-0.4094827
124	0x3e5a8872	0.21341112
125	0xbf00f540	-0.5037422
126	0x3ef5017e	0.478527
127	0xbec884d9	-0.39163855
128	0xbeee427f	-0.46535107
129	0xbf083e1f	-0.5321979
130	0xbee2ca9f	-0.44295213
131	0x3e56e96e	0.20987484
132	0xbee0b622	-0.43888956
133	0x3ee9827a	0.45607358
134	0xbe0c1aac	-0.1368205
135	0xbf1a4af7	-0.6027064
136	0xbeefa0d8	-0.46802402
137	0xbdfaf027	-0.12252837
138	0xbdc25689	-0.094891615
139	0x3e593037	0.21209799
140	0x3e84bc1d	0.2592477
141	0xbd6b95b9	-0.057515834
142	0x3ddc0143	0.10742428
143	0xbe3a12ae	-0.18171188
144	0xbd7672bc	-0.060168013
145	0xbe399f8b	-0.18127267
146	0xbf05ff79	-0.52342945
147	0x3e9bf899	0.30463102
148	0x3ee8347e	0.45352548
149	0xbefa2863	-0.48858938
150	0x3ef31d29	0.47483185
151	0x3d04d26c	0.032427236
152	0x3ea13cd8	0.31491733
153	0xbd2d1bb8	-0.042262763
154	0x3dcac17b	0.09900185
155	0x3ed9de54	0.42552435
156	0x3ea213f5	0.3165585
157	0xbdf8c351	-0.12146629
158	0x3ed18725	0.4092342
159	0xbece5f00	-0.40306854
160	0xbd06bf7a	-0.03289745
161	0xbe026dac	-0.12737149
162	0xbe21054d	-0.15724678
163	0xbef29784	-0.47381222
164	0xbe5786d9	-0.21047534
165	0x3d651f61	0.05593813
166	0x3e0834d5	0.13301404
167	0x3ed2e098	0.41186976
168	0xbeb62214	-0.35572875
169	0x3e511a8b	0.20420282
170	0xbed2b752	-0.41155487
171	0xbe9eae5a	-0.30992395
172	0x3eaef289	0.34169415
173	0x3e6d6773	0.23183994
174	0x3e7bbac8	0.2458297
175	0x3d69bacd	0.057062913
176	0xbf026468	-0.5093446
177	0xbeb722f9	-0.3576887
178	0x3e630b2f	0.22172235
179	0xbe66d1dc	-0.22540992
180	0x3e9317c2	0.28729063
181	0x3e50b817	0.20382725
182	0x3ee11612	0.4396215
183	0xbe3a3173	-0.18182926
184	0x3d86ab98	0.06575698
185	0xbeafe5df	-0.34355065
186	0xbe33311c	-0.17499202
187	0xbea5bf4e	-0.32372516
188	0xbedcdbc0	-0.43136406
189	0xbef69a26	-0.4816448
190	0xbe3e6c70	-0.18596053
191	0xbe6f1820	-0.23349047
192	0x3ed29bb9	0.41134432
193	0xbe4f879e	-0.20266578
194	0xbe999e4b	-0.3000358
195	0xbd3b956b	-0.045796793
196	0xbf0b84e1	-0.5449963
197	0x3daf780f	0.08567821
198	0xbd8b1564	-0.06791189
199	0xbebb987c	-0.36639774
200	0xbe0c0256	-0.13672766
201	0xbeaef9c9	-0.34174946
202	0xbf0cb4af	-0.549632
203	0xbc61cc27	-0.013781584
204	0x3e6347df	0.22195385
205	0xbce30552	-0.027712498
206	0x3e4f08d4	0.20218211
207	0x3eee1406	0.46499652
208	0xbbfde346	-0.0077480404
209	0x3e2cccee	0.1687505
210	0xbea15a53	-0.31514224
211	0xbebc8328	-0.36818814
212	0xbeb7ccd5	-0.35898462
213	0x3bde59aa	0.006785591
214	0xbe8a46f1	-0.2700725
215	0x3e82a4e4	0.25516427
216	0x39b13e1e	0.00033806352
217	0x3ed9fc2b	0.425752
218	0x3e19bac9	0.15012659
219	0xbeaffb92	-0.3437162
220	0xbee1b96e	-0.44086784
221	0x3e9eb26f	0.3099551
222	0x3cea56c0	0.028605819
223	0xbea98bf0	-0.33114576
224	0x3f3f1c12	0.74652207
225	0x3ecf721a	0.4051674
226	0xbe6a4257	-0.22876869
227	0xbee53cf5	-0.4477307
228	0x3eb5d8b2	0.35516888
229	0xbebe71c0	-0.3719616
230	0x3e209d35	0.1568497
231	0xbe6aa9c8	-0.22916329
232	0x3ded9802	0.11601259
233	0xbe9fd866	-0.31219786
234	0x3daaf743	0.08347943
235	0x3ce31fff	0.027725218
236	0xbe51e248	-0.20496476
237	0x3dcaadd6	0.09896438
238	0x3de65bdb	0.11247989
239	0x3e7bb611	0.24581172
240	0xbeaf9784	-0.34295285
241	0x3eaf7fa4	0.3427707
242	0x3e63686d	0.22207804
243	0x3eaea247	0.34108183
244	0xbdecbda4	-0.115596086
245	0xbe917e61	-0.28416732
246	0xbeba8b56	-0.3643443
247	0xbe1ffc33	-0.1562355
248	0xbeb6cdc1	-0.35703853
249	0xbe0e1fa3	-0.13879256
250	0xbe840cd4	-0.25791037
251	0x3e6e5ea5	0.23278292
252	0xbe2bd18b	-0.16779153
253	0x3f0795cc	0.52962947
254	0xbecf7931	-0.4052215
255	0x3e3d4a5a	0.18485394
