saved_models/model-epoch-6.pth (torch, 21290 bytes, 19 tensors)

embeddings f4 [99, 8]
0	0x3fd1386b	1.6345342
1	0x3d2fe376	0.042941533
2	0x3fe2ba46	1.7713096
3	0x401159f2	2.2711148
4	0xbeebabd8	-0.46029544
5	0x3fb6c96d	1.428022
6	0xbf5e0bec	-0.8673694
7	0x3f949b3b	1.1609873
8	0x3f8cf80f	1.1013201
9	0xbfcef5ef	-1.6168803
10	0x3fa7a402	1.3096926
11	0x3fcdd726	1.6081283
12	0xbf46c711	-0.776475
13	0x3f9c3600	1.220398
14	0xbd94f034	-0.072723776
15	0x4035fe9a	2.8436646
16	0x3ffbfb12	1.9685996
17	0x3f842813	1.032473
18	0x3f8db234	1.1070008
19	0xbea1476a	-0.31499797
20	0xbf8fc782	-1.123276
21	0x3f5c07fb	0.8594968
22	0xbeb861d5	-0.3601214
23	0xbfca0d87	-1.5785378
24	0xc020c307	-2.5119035
25	0x3dc66939	0.096880384
26	0xbfe7a6e7	-1.809781
27	0xbff83b0b	-1.9393018
28	0x4031270f	2.768009
29	0xc0227126	-2.538156
30	0xbd5a4be2	-0.053295024
31	0x3fd23f2d	1.642553
32	0xbe17f3cd	-0.14839096
33	0x3fed495e	1.8538015
34	0x3f0a97b0	0.54137707
35	0xbf60d987	-0.8783192
36	0xbfb0200d	-1.3759781
37	0x3d047f0a	0.032347716
38	0xbf839d28	-1.0282335
39	0x3d1fc150	0.039002717
40	0x3fd077c4	1.628655
41	0x3ecc502a	0.3990491
42	0x3fc293d2	1.5201361
43	0x400c92d8	2.1964626
44	0xc00d59e8	-2.2086124
45	0x400a4786	2.1606154
46	0xbfb65de6	-1.4247406
47	0xbd6702b9	-0.05639908
48	0x3fbb2d98	1.4623289
49	0x3f853f60	1.0409966
50	0x3f288237	0.6582369
51	0x4013162e	2.2982287
52	0xbf00ee60	-0.5036373
53	0x3fd98ae1	1.6995507
54	0xc006958a	-2.1028771
55	0x3db2b3b3	0.08725681
56	0xbe3f453d	-0.18678756
57	0xbf9af4fa	-1.2106011
58	0x3fc2fc08	1.5233164
59	0x3fc828a8	1.5637407
60	0x3fbb7e14	1.4647851
61	0x3f8aeda7	1.0853776
62	0xc038ba01	-2.8863528
63	0x40261e91	2.5956156
64	0x3f99dbfd	1.202026
65	0xbddc18b6	-0.10746901
66	0xbefade97	-0.48997948
67	0xbdaa01a8	-0.08301097
68	0xbff95e59	-1.9481918
69	0x3ead95e2	0.33903414
70	0xbf4f7572	-0.8103858
71	0x3f244753	0.6417133
72	0x3f4b3990	0.7938471
73	0xbfeb553d	-1.8385388
74	0x3faa3b48	1.3299341
75	0xbf8a4323	-1.0801739
76	0x3f993b85	1.1971289
77	0x3f2067cf	0.626584
78	0xbfb5e48e	-1.4210374
79	0x3ed79841	0.42108348
80	0x3f1bb928	0.608294
81	0xbf898eb5	-1.0746676
82	0xbe6979e9	-0.22800411
83	0x3fd5c279	1.6699973
84	0xbfbd1bd6	-1.477412
85	0x401388bf	2.3052213
86	0xbf85914c	-1.0434966
87	0x3fe8519f	1.8149909
88	0xbfc753d8	-1.5572462
89	0xbf8d9ffd	-1.106445
90	0xc002130d	-2.0324128
91	0xbdc2010c	-0.09472856
92	0x3f1d2d6e	0.61397445
93	0xbf45be29	-0.77243286
94	0xbe6376fd	-0.22213359
95	0xbd8a38ee	-0.0674914
96	0x3f225698	0.6341338
97	0xc03f8451	-2.992451
98	0xbf969b62	-1.1766169
99	0x402238b5	2.5347111
100	0xc0422e17	-3.034063
101	0x402ee048	2.732439
102	0xbe8f3d67	-0.27976534
103	0x3fe584f0	1.7931194
104	0x3fbb2ab8	1.4622412
105	0xbf0e82da	-0.55668414
106	0x3f920d0a	1.1410229
107	0x400334d1	2.0500987
108	0xbf55020a	-0.83206236
109	0x3f892f03	1.0717472
110	0xbd832a23	-0.06404521
111	0x3fd8c1c5	1.6934134
112	0xbec8054b	-0.39066538
113	0xbd8ba11d	-0.06817839
114	0xbf094a07	-0.5362858
115	0xbeee9642	-0.46599013
116	0x3f0fb897	0.56141037
117	0xbf8c1b0a	-1.0945752
118	0x3f66dcca	0.9018065
119	0xbf441e35	-0.7660859
120	0x3fdd439a	1.7286255
121	0x3f36df78	0.71434736
122	0x3f95c5d3	1.1700996
123	0x40509e81	3.2596743
124	0xbfdf9cea	-1.7469761
125	0x3ff29c13	1.895388
126	0xbf53aa2d	-0.8268154
127	0x3ea090b6	0.31360406
128	0xbf6ace02	-0.9172059
129	0xbfcd61b5	-1.6045443
130	0x3e918d0e	0.2842793
131	0xbf619a98	-0.88126516
132	0x3ffcb8ba	1.9743874
133	0xc0261c1e	-2.5954661
134	0x4028f246	2.6397872
135	0x3f6c2b57	0.9225363
136	0x3f21527e	0.630165
137	0x3d44b0d6	0.048020206
138	0x3f70a318	0.9399886
139	0x3f0950ed	0.5363911
140	0x3fff2b73	1.9935135
141	0x3ff3d0d3	1.9048103
142	0xbfeca4bd	-1.8487774
143	0x3fa485b6	1.2853305
144	0x4004da7f	2.075836
145	0xbffbbb42	-1.9666522
146	0x4005febb	2.0936725
147	0x3fa6377b	1.2985681
148	0x3fcdc525	1.6075789
149	0x3f56afa6	0.8386177
150	0x3f30ce05	0.6906436
151	0x3fdee6d8	1.7414198
152	0x3fbd178a	1.4772809
153	0x4004b41e	2.0734935
154	0x3f9088d3	1.1291755
155	0x3f434972	0.76283944
156	0xc01112a8	-2.2667637
157	0x3fc87022	1.565922
158	0xbff65cd6	-1.9247081
159	0x3ec74f4d	0.3892769
160	0x3e0c9dc1	0.13732053
161	0x3d880c79	0.06643004
162	0xbc91af08	-0.017783657
163	0xbf82673c	-1.0187755
164	0x401bd9f0	2.4351768
165	0xbf9438c7	-1.1579827
166	0xbef12c93	-0.4710432
167	0xbf618037	-0.88086265
168	0x4016b573	2.3548248
169	0x3fbaf287	1.4605263
170	0x401caeda	2.448172
171	0x3fe708be	1.8049543
172	0xbffa0033	-1.9531311
173	0x3fadaf78	1.3569174
174	0xbfc2f741	-1.5231706
175	0x3fea3baf	1.8299464
176	0x3fe1d21b	1.7642244
177	0x3e812dc3	0.25230226
178	0x4021f650	2.5306587
179	0x40090701	2.1410525
180	0xbfbebf81	-1.4902192
181	0x3ffa7042	1.9565508
182	0xbfdab603	-1.7086796
183	0x3f0605f0	0.5235281
184	0xbfca096e	-1.5784128
185	0xbdd5f7e9	-0.10447676
186	0xbffedcf9	-1.9911186
187	0xbf082216	-0.5317701
188	0x3ed159f7	0.4088895
189	0xbf2440c6	-0.64161336
190	0xc014ff90	-2.3280983
191	0x3f1e8db0	0.6193495
192	0x3f31bb1a	0.6942612
193	0xbf44888f	-0.7677087
194	0x3fe90a33	1.8206238
195	0x3fbd5560	1.4791679
196	0x3f5964c1	0.84919363
197	0xbef55b11	-0.4792104
198	0xbe7d3d39	-0.24730386
199	0x3ee9ffa1	0.45702842
200	0xc0269c70	-2.6032982
201	0x3fff23e3	1.9932827
202	0xbfb45e28	-1.4091234
203	0xc0184e8c	-2.3797941
204	0x3fd6fe22	1.6796305
205	0xc00bd672	-2.1849637
206	0x3f9ef751	1.2419225
207	0xc003ebd8	-2.0612698
208	0x3f62b818	0.88562155
209	0xbf0df882	-0.5545732
210	0x3f81edd7	1.0150708
211	0x3f001938	0.5003848
212	0xbec44411	-0.3833318
213	0x3f18e524	0.5972464
214	0xbee6339d	-0.44961253
215	0xbf183739	-0.59459263
216	0x3fe88507	1.8165597
217	0x3f1635a4	0.586756
218	0x3f624c5f	0.88397783
219	0x404a687d	3.1626275
220	0xbfdde2e8	-1.7334871
221	0x3f230804	0.63684106
222	0xc00f68dd	-2.2407753
223	0x403a11fc	2.9073477
224	0x3fe5d847	1.7956628
225	0xbf9309fd	-1.1487423
226	0x40053b46	2.0817428
227	0x3f083fd8	0.5322242
228	0xbee3b934	-0.44477236
229	0x3f4dcce9	0.80390793
230	0xbfba59a9	-1.4558612
231	0x3fa9d932	1.3269408
232	0xbe22d350	-0.15900922
233	0x3f6a73ab	0.91582745
234	0x3cd60223	0.026124066
235	0xbf6cbf82	-0.9247972
236	0xbf261e60	-0.648901
237	0x3e576726	0.21035442
238	0xbff1da58	-1.8894758
239	0xbd91e929	-0.0712455
240	0x3fcea780	1.6144867
241	0x3faebca3	1.3651317
242	0x3f53ca37	0.8273043
243	0x3ec9a02a	0.39380008
244	0xc0000c58	-2.0007534
245	0x3f879438	1.0592108
246	0xbf05723c	-0.5212743
247	0x3fc0002b	1.5000051
248	0x3f3d461f	0.7393512
249	0x3f772814	0.9654553
250	0x3f5b6413	0.85699576
251	0x3ff77ae3	1.9334377
252	0xbfc513d0	-1.5396671
253	0x40011894	2.0171251
254	0xbff2aeef	-1.8959635
255	0x400f3bdb	2.2380283

_pos_embeds f4 [64, 8]
0	0x00000000	0.0
1	0x3f800000	1.0
2	0x00000000	0.0
3	0x3f800000	1.0
4	0x00000000	0.0
5	0x3f800000	1.0
6	0x00000000	0.0
7	0x3f800000	1.0
8	0x3f576aa4	0.84147096
9	0x3f0a5140	0.5403023
10	0x3dcc7576	0.099833414
11	0x3f7eb898	0.9950042
12	0x3c23d657	0.009999833
13	0x3f7ffcb9	0.99995
14	0x3a83126d	0.0009999998
15	0x3f7ffff8	0.9999995
16	0x3f68c7b7	0.9092974
17	0xbed51133	-0.41614684
18	0x3e4b6ff9	0.19866933
19	0x3f7ae5a5	0.9800666
20	0x3ca3d43e	0.019998666
21	0x3f7ff2e5	0.9998
22	0x3b031269	0.0019999987
23	0x3f7fffde	0.999998
24	0x3e1081c3	0.14112
25	0xbf7d7026	-0.9899925
26	0x3e974e6d	0.29552022
27	0x3f7490ef	0.9553365
28	0x3cf5b920	0.029995501
29	0x3f7fe283	0.99955004
30	0x3b449b93	0.0029999956
31	0x3f7fffb5	0.9999955
32	0xbf41bdcf	-0.7568025
33	0xbf275530	-0.6536436
34	0x3ec761d7	0.38941833
35	0x3f6bcaa7	0.921061
36	0x3d23cbdb	0.039989334
37	0x3f7fcb94	0.9992001
38	0x3b831258	0.0039999895
39	0x3f7fff7a	0.999992
40	0xbf757c10	-0.9589243
41	0x3e913c2c	0.2836622
42	0x3ef57744	0.47942555
43	0x3f60a940	0.87758255
44	0x3d4cb6f5	0.04997917
45	0x3f7fae19	0.99875027
46	0x3ba3d6de	0.0049999794
47	0x3f7fff2e	0.9999875
48	0xbe8f0f8c	-0.2794155
49	0x3f75cdb8	0.96017027
50	0x3f108c69	0.5646425
51	0x3f534932	0.8253356
52	0x3d759cd1	0.059964005
53	0x3f7f8a12	0.99820054
54	0x3bc49b59	0.005999964
55	0x3f7ffed2	0.999982
56	0x3f283046	0.6569866
57	0x3f40ffbd	0.75390226
58	0x3f24eb73	0.64421767
59	0x3f43ccb3	0.7648422
60	0x3d8f3e32	0.06994285
61	0x3f7f5f81	0.997551
62	0x3be55fc7	0.006999943
63	0x3f7ffe65	0.9999755
64	0x3f7d4695	0.98935825
65	0xbe14fdf6	-0.14550003
66	0x3f37a4a6	0.7173561
67	0x3f325b5f	0.6967067
68	0x3da3aa51	0.0799147
69	0x3f7f2e66	0.99680173
70	0x3c031213	0.007999915
71	0x3f7ffde7	0.999968
72	0x3ed30132	0.4121185
73	0xbf693fd5	-0.91113025
74	0x3f48881d	0.7833269
75	0x3f1f21d5	0.62161
76	0x3db8123f	0.08987855
77	0x3f7ef6c2	0.9959527
78	0x3c13743a	0.008999879
79	0x3f7ffd59	0.9999595
80	0xbf0b44f8	-0.5440211
81	0xbf56cd64	-0.8390715
82	0x3f576aa4	0.84147096
83	0x3f0a5140	0.5403023
84	0x3dcc7576	0.099833414
85	0x3f7eb898	0.9950042
86	0x3c23d657	0.009999833
87	0x3f7ffcb9	0.99995
88	0xbf7fff5c	-0.9999902
89	0x3b910572	0.004425698
90	0x3f64262a	0.89120734
91	0x3ee83dc0	0.45359612
92	0x3de0d372	0.1097783
93	0x3f7e73e8	0.9939561
94	0x3c34386a	0.010999778
95	0x3f7ffc09	0.9999395
96	0xbf095cd8	-0.53657293
97	0x3f5806d0	0.84385395
98	0x3f6e9a1d	0.9320391
99	0x3eb986f5	0.36235777
100	0x3df52bac	0.119712204
101	0x3f7e28b5	0.99280864
102	0x3c449a71	0.011999712
103	0x3f7ffb48	0.999928
104	0x3ed72022	0.42016703
105	0x3f684e6f	0.9074468
106	0x3f76abc0	0.9635582
107	0x3e88f59b	0.26749882
108	0x3e04bed0	0.12963414
109	0x3f7dd700	0.9915619
110	0x3c54fc6b	0.012999634
111	0x3f7ffa76	0.9999155
112	0x3f7d9872	0.9906074
113	0x3e0c04d7	0.13673721
114	0x3f7c466f	0.98544973
115	0x3e2e0bde	0.16996714
116	0x3e0ee464	0.13954312
117	0x3f7d7ecc	0.990216
118	0x3c655e56	0.013999542
119	0x3f7ff994	0.999902
120	0x3f267944	0.65028787
121	0xbf427ae8	-0.7596879
122	0x3f7f5bd5	0.997495
123	0x3d90deaa	0.0707372
124	0x3e19064f	0.14943813
125	0x3f7d201a	0.9887711
126	0x3c75c033	0.014999437
127	0x3f7ff8a1	0.9998875
128	0xbe936810	-0.2879033
129	0xbf75292c	-0.9576595
130	0x3f7fe40e	0.9995736
131	0xbcef33d6	-0.029199522
132	0x3e232450	0.15931821
133	0x3f7cbaed	0.98722726
134	0x3c831100	0.015999317
135	0x3f7ff79d	0.999872
136	0xbf761e25	-0.96139747
137	0xbe8ce236	-0.27516335
138	0x3f7dddbf	0.9916648
139	0xbe03efd0	-0.1288445
140	0x3e2d3e23	0.16918235
141	0x3f7c4f49	0.9855848
142	0x3c8b41de	0.016999181
143	0x3f7ff688	0.9998555
144	0xbf4040b3	-0.75098723
145	0x3f290a84	0.6603167
146	0x3f794e14	0.9738476
147	0xbe68a7aa	-0.22720209
148	0x3e375387	0.17902957
149	0x3f7bdd2e	0.9838437
150	0x3c9372b3	0.017999029
151	0x3f7ff562	0.999838
152	0x3e197969	0.1498772
153	0x3f7d1bbf	0.9887046
154	0x3f7240b9	0.9463001
155	0xbea58636	-0.32328957
156	0x3e41643a	0.1888589
157	0x3f7b64a1	0.9820042
158	0x3c9ba37e	0.018998858
159	0x3f7ff42c	0.9998195
160	0x3f69b6c8	0.9129453
161	0x3ed0f022	0.40808207
162	0x3f68c7b7	0.9092974
163	0xbed51133	-0.41614684
164	0x3e4b6ff9	0.19866933
165	0x3f7ae5a5	0.9800666
166	0x3ca3d43e	0.019998666
167	0x3f7ff2e5	0.9998
168	0x3f562f10	0.8366556
169	0xbf0c37fc	-0.54772925
170	0x3f5cfb4a	0.86320937
171	0xbf013d98	-0.5048461
172	0x3e557683	0.2084599
173	0x3f7a603c	0.9780309
174	0x3cac04f5	0.020998457
175	0x3f7ff18d	0.9997795
176	0xbc110515	-0.008851309
177	0xbf7ffd6f	-0.99996084
178	0x3f4ef99f	0.8084964
179	0xbf16a802	-0.5885011
180	0x3e5f7796	0.21822962
181	0x3f79d46a	0.97589743
182	0x3cb4359f	0.021998225
183	0x3f7ff024	0.999758
184	0xbf58a1e7	-0.84622043
185	0xbf0867bf	-0.53283304
186	0x3f3ee689	0.7457052
187	0xbf2a9111	-0.66627604
188	0x3e6972f1	0.22797753
189	0x3f794233	0.97366637
190	0x3cbc663e	0.022997972
191	0x3f7feeab	0.99973553
192	0xbf67d3fc	-0.9055784
193	0x3ed92dfe	0.42417902
194	0x3f2ceb28	0.6754632
195	0xbf3cc5d6	-0.73739374
196	0x3e736851	0.23770262
197	0x3f78a99b	0.971338
198	0x3cc496d1	0.023997696
199	0x3f7fed20	0.999712
200	0xbe078738	-0.13235176
201	0x3f7dbf78	0.99120283
202	0x3f193578	0.5984721
203	0xbf4d17bf	-0.8011436
204	0x3e7d5777	0.24740396
205	0x3f780aa5	0.9689124
206	0x3cccc757	0.024997396
207	0x3f7feb85	0.9996875
208	0x3f433708	0.76255846
209	0x3f259c81	0.6469193
210	0x3f03f7e6	0.5155014
211	0xbf5b5d10	-0.8568888
212	0x3e83a010	0.25708055
213	0x3f776555	0.96638995
214	0x3cd4f7cf	0.02599707
215	0x3f7fe9da	0.99966204
216	0x3f74d50e	0.95637596
217	0xbe959338	-0.29213881
218	0x3edad189	0.42737988
219	0xbf677146	-0.90407217
220	0x3e889106	0.26673144
221	0x3f76b9b1	0.9637709
222	0x3cdd2839	0.026996719
223	0x3f7fe81d	0.9996355
224	0x3e8ab42a	0.2709058
225	0xbf766d57	-0.9626059
226	0x3eab8391	0.33498815
227	0xbf71357c	-0.94222236
228	0x3e8d7e7d	0.27635565
229	0x3f7607bb	0.96105546
230	0x3ce55895	0.02799634
231	0x3f7fe650	0.99960804
232	0xbf29e3e9	-0.6636339
233	0xbf3f80b3	-0.74805754
234	0x3e74fdc7	0.23924933
235	0xbf7890b7	-0.9709582
236	0x3e926854	0.2859522
237	0x3f754f78	0.95824385
238	0x3ced88e2	0.028995935
239	0x3f7fe472	0.99957955
240	0xbf7cefa4	-0.9880316
241	0x3e1df418	0.15425146
242	0x3e1081c3	0.14112
243	0xbf7d7026	-0.9899925
244	0x3e974e6d	0.29552022
245	0x3f7490ef	0.9553365
246	0x3cf5b920	0.029995501
247	0x3f7fe283	0.99955004
248	0xbecede06	-0.40403765
249	0x3f6a2c8e	0.91474235
250	0x3d2a507c	0.041580662
251	0xbf7fc752	-0.99913514
252	0x3e9c30a5	0.30505863
253	0x3f73cc22	0.95233357
254	0x3cfde94d	0.030995036
255	0x3f7fe083	0.9995195

W f4 [8, 8]
0	0xbfa1198e	-1.2585924
1	0xbf507e88	-0.8144307
2	0xbf4b021b	-0.7930009
3	0x3fb24c55	1.3929545
4	0x3f6f8b0a	0.9357153
5	0x3f22dcf7	0.63618416
6	0xbf1217c0	-0.5706749
7	0x3f3b5351	0.73174006
8	0x407d9fab	3.9628704
9	0x4002ce72	2.0438504
10	0x3eae8ad3	0.3409029
11	0xc0378f79	-2.8681319
12	0xbfed1db1	-1.8524686
13	0xbfcec248	-1.615304
14	0x3f979e05	1.1845099
15	0xbfa8b42f	-1.3179988
16	0x40306bde	2.7565837
17	0x3ff17bcb	1.8865904
18	0x3dc58424	0.096443444
19	0xbfb9dd98	-1.452075
20	0xbfa9e57d	-1.3273159
21	0xbf97d087	-1.1860512
22	0x3f8f6f5a	1.1205857
23	0xbfcad9c7	-1.584771
24	0x404585df	3.0862958
25	0x3f11e8b9	0.5699573
26	0x3ec0a556	0.3762614
27	0xbf4255d9	-0.75912243
28	0xbde8671d	-0.11347792
29	0xbf2e1064	-0.6799376
30	0xbdf5f120	-0.120088816
31	0xbd8ef0ef	-0.06979548
32	0xc0377f6b	-2.867152
33	0xbf93a514	-1.1534753
34	0xbdfe363a	-0.12412687
35	0x4000e628	2.0140476
36	0x3faa7fe8	1.3320284
37	0x3f90f8e2	1.1325953
38	0xbfb36668	-1.4015627
39	0x3fa0261c	1.251163
40	0x3f4772d7	0.77909607
41	0xbf2b7b14	-0.6698468
42	0x3f231874	0.6370919
43	0x3efb494a	0.49079353
44	0x3ee00faa	0.4376195
45	0xbe990541	-0.2988682
46	0xbe065a79	-0.1312045
47	0x3f53bbb2	0.82708275
48	0x401cafd1	2.448231
49	0x400cc36a	2.1994271
50	0x3eecd8bd	0.46259108
51	0xc0000524	-2.0003138
52	0xbfc12d81	-1.5092012
53	0xbfbe53a3	-1.4869274
54	0x400ddfee	2.2167926
55	0xc01b4d61	-2.4265978
56	0xc00c2e08	-2.1903095
57	0xbe7765d0	-0.24159932
58	0xbe947942	-0.28998762
59	0x3f21998b	0.6312491
60	0x3ec7f61c	0.39054954
61	0x3f97d14f	1.1860751
62	0xbe6382cd	-0.22217865
63	0x3e390e1c	0.18071789

b f4 [8]
0	0x3f81b77c	1.013412
1	0xbf9af01e	-1.2104528
2	0xbfaf5917	-1.3699063
3	0xbe66c16c	-0.22534722
4	0x3f93e1a5	1.1553236
5	0x3e71f618	0.23629034
6	0xbff086a9	-1.8791095
7	0x3efa51bd	0.48890486

W f4 [8, 8]
0	0xbffc071b	-1.9689668
1	0x3ef4fc50	0.4784875
2	0x3efc9123	0.4932948
3	0xbfb7287f	-1.4309233
4	0x400871b9	2.131941
5	0xc0128d43	-2.289872
6	0x4073ef98	3.8114986
7	0xbd5eb79e	-0.05437433
8	0xbfa399d6	-1.2781322
9	0x3fb0fc34	1.3826966
10	0xc06ef399	-3.733618
11	0xbfb327b5	-1.3996493
12	0xbfabf8f1	-1.3435346
13	0xbff65e75	-1.9247576
14	0xbe9e11d9	-0.30872992
15	0xbf805975	-1.00273
16	0x3d842e93	0.06454196
17	0x3f0df83e	0.5545691
18	0x3fe6d6bc	1.8034282
19	0xbf718a80	-0.9435196
20	0x3fb28379	1.3946372
21	0xbf95d4c5	-1.1705557
22	0x4032cb2a	2.7936502
23	0xbf180ad0	-0.593915
24	0xbfbe29b4	-1.4856477
25	0x3f66779b	0.90026253
26	0xc047e696	-3.1234488
27	0xc0064dca	-2.0984979
28	0x3f2f8877	0.68567604
29	0xbfe66d0a	-1.8002026
30	0x407db9c3	3.964463
31	0xbfdb38ad	-1.7126671
32	0xbee28ff9	-0.44250467
33	0x3ffe6ccc	1.9876952
34	0xc03421f2	-2.8145719
35	0xbec122bc	-0.37721813
36	0xbfed555e	-1.8541677
37	0xbf9d8722	-1.2306864
38	0xc01a9aa7	-2.4156892
39	0xbfe0b891	-1.7556325
40	0x3f36616c	0.71242404
41	0xbeb434c1	-0.35196498
42	0xbefc07f5	-0.4922482
43	0x400e2e04	2.2215586
44	0xbf8e0e71	-1.1098157
45	0x4014a4d1	2.3225596
46	0xbfe36e6d	-1.7768074
47	0x3f20f778	0.6287761
48	0x3f71afbf	0.9440879
49	0xbdd4d2d0	-0.10391772
50	0xbfad21ad	-1.3525902
51	0xbd0d7056	-0.03453096
52	0xbf5de0ec	-0.8667133
53	0x3f51d92b	0.81972
54	0xc02d6dc3	-2.7098243
55	0xbf397109	-0.724381
56	0x3f5e1245	0.8674663
57	0xbecf1f24	-0.40453446
58	0xbf7fe492	-0.99958146
59	0x3f853ee8	1.0409822
60	0xbfdc2c16	-1.7200954
61	0x3fb4fb0f	1.4139117
62	0xbfd5e8a1	-1.6711618
63	0x3f68dec4	0.90964913

b f4 [8]
0	0x3ef424bd	0.4768428
1	0xbfed01c1	-1.851616
2	0x3f3f09e3	0.7462446
3	0xbfbf9f52	-1.4970496
4	0xbfc0c3e6	-1.5059783
5	0x3d0f43c3	0.034976732
6	0xbf3de7d4	-0.74181867
7	0xbeea2045	-0.45727745

W f4 [8, 8]
0	0x40aeed2a	5.4664507
1	0xbfbf32b8	-1.4937353
2	0x3fa86f54	1.3158975
3	0xc077261b	-3.8617008
4	0xc0438bc5	-3.0554059
5	0x40435cad	3.0525315
6	0xc0260896	-2.594274
7	0x400177d2	2.0229383
8	0xbbcdd4d3	-0.006281474
9	0x3f09a30a	0.537644
10	0x3fd25cf2	1.6434615
11	0xbf53120f	-0.8244943
12	0xc00e7ff0	-2.2265587
13	0x3ffd0523	1.9767193
14	0xbf96dd83	-1.178635
15	0x3e49dc35	0.19712909
16	0x407029d4	3.752553
17	0xbdcb755d	-0.09934495
18	0x3e94c74b	0.29058298
19	0xc0503d5a	-3.2537446
20	0xbfd7ca62	-1.6858637
21	0x400cd71a	2.2006288
22	0xbfd346d9	-1.6505996
23	0x3fec82b5	1.8477389
24	0x4045971e	3.0873485
25	0x3f8e9265	1.1138426
26	0x3fd0b14c	1.6304107
27	0xc065e13a	-3.5918717
28	0xc055184b	-3.3296077
29	0x4017b5c3	2.3704689
30	0xc00ffcb4	-2.2497988
31	0x400d465a	2.207419
32	0xc06bdcdd	-3.6853554
33	0x4000737f	2.0070493
34	0xbef2cc64	-0.47421563
35	0x3ed87963	0.4228011
36	0x3f3dfe1c	0.74215865
37	0xbf6cbbce	-0.9247407
38	0x3f035ecd	0.5131653
39	0xbfa7fc0c	-1.3123794
40	0xbf0d72bf	-0.55253214
41	0xbf3559a5	-0.7083991
42	0xbf6f695d	-0.93520147
43	0x3ff4f7d0	1.9138126
44	0x400ab7e4	2.1674738
45	0xbfff8f7e	-1.9965665
46	0x3fc19dca	1.5126278
47	0xbfd77796	-1.683337
48	0xbf8c4d99	-1.0961181
49	0xbf52f708	-0.8240819
50	0xbf571f96	-0.8403257
51	0x3ef2f427	0.47451898
52	0x3fde7e40	1.7382278
53	0xbf9f5257	-1.2447003
54	0x3fb15958	1.385539
55	0xbea7763f	-0.32707402
56	0xbf1cbe24	-0.6122763
57	0xbefddbac	-0.4958166
58	0xbf1c73a7	-0.6111397
59	0x400643b1	2.0978816
60	0x3fd555a8	1.6666765
61	0xbfd41ad3	-1.6570686
62	0x3f9730b3	1.1811737
63	0xbfd27f94	-1.6445184

b f4 [8]
0	0xbb10c8da	-0.0022092373
1	0xbbf19ced	-0.0073734433
2	0x3be2b646	0.0069187013
3	0x3bfc0945	0.0076915347
4	0x3c1b082e	0.009462399
5	0xbbe799df	-0.0070679034
6	0x3b9bbe53	0.004752913
7	0x3b8f0174	0.004364187

W f4 [8, 8]
0	0xbf8fa2f9	-1.122161
1	0x404a03ea	3.156489
2	0x401f5bb2	2.4899716
3	0xc00970ca	-2.147509
4	0xbff45f5e	-1.9091604
5	0xc04ec7f4	-3.2309542
6	0x4018e3c4	2.3889017
7	0x3f34887b	0.7052075
8	0x3f083343	0.5320322
9	0xbfeae822	-1.8352091
10	0xbfb12fcc	-1.3842711
11	0x3d692191	0.056916777
12	0x3fbbf0fa	1.4682915
13	0x3e555fca	0.20837322
14	0xbf760183	-0.96096057
15	0xbf0e2bcd	-0.55535585
16	0xbfe224f7	-1.7667531
17	0x4063d62e	3.5599475
18	0x403b4fae	2.9267383
19	0xc00677ab	-2.101054
20	0xc03a832a	-2.9142556
21	0xc01ad78d	-2.4194062
22	0x4038bbbd	2.8864586
23	0x3fdccdd2	1.7250311
24	0x3f9a3dd2	1.2050116
25	0xbe951520	-0.2911768
26	0xbf95a7e3	-1.169186
27	0x3f694bb3	0.9113113
28	0x3f52b302	0.82304394
29	0x4006d5d5	2.1068013
30	0xbfa22792	-1.2668326
31	0xbef52300	-0.47878265
32	0xbf49bd61	-0.78804594
33	0x3fde569a	1.7370179
34	0x3f8da7e9	1.1066867
35	0xbff2b670	-1.8961926
36	0xbfee17af	-1.8600978
37	0xc01a5428	-2.4113865
38	0x3ff9b583	1.9508518
39	0x3f41b78e	0.7567071
40	0x3f67777d	0.904167
41	0x400a1d48	2.1580372
42	0x3f5cb642	0.86215603
43	0xbf3b6a7d	-0.73209363
44	0xbf04a44f	-0.51813215
45	0xbfed37c1	-1.853264
46	0x3fd91b78	1.6961508
47	0x3fcd7461	1.6051141
48	0xbe88a4ad	-0.26688138
49	0xc065cc01	-3.5905764
50	0xc00d827c	-2.2110891
51	0x3f8a740b	1.0816664
52	0x4013c580	2.3089294
53	0x4001d99e	2.0289073
54	0xc0176f5b	-2.3661716
55	0xbf999c2f	-1.2000788
56	0x3e188173	0.14893131
57	0x3fc643f3	1.5489486
58	0x3ed702d4	0.41994345
59	0x3e8c37ed	0.27386418
60	0xbf9095ee	-1.1295755
61	0x3e78d211	0.24298884
62	0xbca2c603	-0.01986981
63	0x3edbc8b3	0.4292656

b f4 [8]
0	0xbfebe566	-1.8429382
1	0x3f4985cb	0.78719777
2	0xbfafb8fc	-1.3728328
3	0x3f912b0f	1.1341265
4	0xbf59c436	-0.8506502
5	0xbe83bed4	-0.25731528
6	0x3f942438	1.1573553
7	0xbe90efda	-0.28307992

weight f4 [8]
0	0x4031ccad	2.7781174
1	0xbe91a938	-0.28449416
2	0x402596ab	2.587321
3	0x406ec5b0	3.730816
4	0xbf5bcd97	-0.8586058
5	0xbe90173f	-0.28142735
6	0x401617e6	2.3452086
7	0x3ee407c1	0.44537166

bias f4 [8]
0	0xc04071c9	-3.006945
1	0x3e460185	0.19336517
2	0xc0070dcc	-2.110217
3	0x405f82b3	3.4923522
4	0x3f811265	1.0083739
5	0x3f800baa	1.000356
6	0x3f85dbdd	1.0457722
7	0x3fe1407b	1.7597803

W1 f4 [8, 32]
0	0x4009f429	2.1555274
1	0xbe6fda13	-0.23423032
2	0xc04aa468	-3.1662846
3	0xbeca760a	-0.39543182
4	0x3f23369a	0.6375519
5	0x3fb31c71	1.3993055
6	0xc06001a8	-3.500101
7	0x3fa81d2c	1.3133903
8	0x3f8517f1	1.0397931
9	0x3fc83697	1.564166
10	0x3e2f0ecd	0.1709549
11	0x3f8c819d	1.0977055
12	0x3fdf981a	1.7468293
13	0x3f793a2a	0.97354376
14	0xbf32840e	-0.6973275
15	0xbfb9c137	-1.451209
16	0x3fa90788	1.3205423
17	0x3fbf7d1e	1.4960058
18	0x40d868d6	6.7627974
19	0xbf7a9856	-0.97888696
20	0x3f9d6443	1.2296222
21	0x3fa1ecd2	1.2650397
22	0x3f8c6a4a	1.0969937
23	0x3fc82425	1.563603
24	0x3f97c364	1.1856503
25	0x4017c7b8	2.3715649
26	0x400f0b6d	2.2350724
27	0x3fecbe59	1.849559
28	0x40412c99	3.018347
29	0x3fb2edc8	1.3978815
30	0x3fb7628c	1.4326949
31	0x3e86c541	0.26322368
32	0x3ea36289	0.31911114
33	0x3f3e68e6	0.7437881
34	0xbfd622d3	-1.6729378
35	0x3faa643f	1.3311843
36	0x3f1f2b28	0.62175226
37	0x3e675641	0.22591497
38	0x3e95a0a4	0.29224122
39	0x3fd5395f	1.6658133
40	0x3e15affd	0.14617915
41	0x3f1368a0	0.5758152
42	0x3f8339c2	1.0252001
43	0x3e8707f4	0.26373255
44	0xbec4b2f0	-0.38417768
45	0xbd4eaf2d	-0.05046003
46	0x3f76050a	0.9610144
47	0xc082fc6b	-4.0933127
48	0x401ea4c5	2.4788067
49	0xbfcb6c12	-1.5892355
50	0x3f780c32	0.9689361
51	0x3e3a0717	0.18166767
52	0xbeffcc04	-0.4996034
53	0x3f90cbed	1.1312233
54	0x3ec972ac	0.393453
55	0x3ee2f773	0.44329414
56	0xbf185dd7	-0.5951819
57	0xbfc4c07a	-1.5371239
58	0xbe6db4b9	-0.23213471
59	0x3f9ee5ed	1.2413918
60	0x3e827383	0.25478753
61	0xbf8c4651	-1.0958959
62	0x3fc5ed42	1.546303
63	0xbff60ba0	-1.9222298
64	0x3e3e0257	0.1855558
65	0x40080893	2.1255233
66	0xc0356e1a	-2.834845
67	0xbeb48966	-0.35261077
68	0x3f3be657	0.73398346
69	0x3f919fa2	1.1376841
70	0xc073dbda	-3.8102937
71	0x3f29e4cb	0.66364735
72	0x3fdb9fd6	1.7158153
73	0x3f09da2d	0.53848535
74	0xbd28d800	-0.04122162
75	0x3eb777a1	0.35833457
76	0x3fb5d246	1.4204795
77	0x3d982030	0.07428014
78	0xbf0c5e05	-0.5483096
79	0xbef479f4	-0.47749293
80	0xbe85a529	-0.2610257
81	0x3f93a11e	1.1533544
82	0x40e334f6	7.100215
83	0xbf8d8589	-1.1056377
84	0x3fe5aea3	1.794392
85	0x3f5fc716	0.87413156
86	0x3ea71b6b	0.32638106
87	0x3f0dc655	0.55380756
88	0x402c72ea	2.6945138
89	0x3ffe4172	1.9863722
90	0x403978fd	2.8980095
91	0x3f9b8bdc	1.2152057
92	0x404bbfc5	3.1835797
93	0x3f988461	1.1915399
94	0x3fb3fa7a	1.4060814
95	0x3f9ec1ef	1.2402934
96	0xc011a1e0	-2.275505
97	0xbf39f454	-0.7263844
98	0x40278f76	2.6181312
99	0x3f2deb0a	0.67936766
100	0xbec9d311	-0.39418843
101	0xc009c106	-2.1524062
102	0x403eeebc	2.9833212
103	0xbfd37130	-1.6518917
104	0xbf15bc7d	-0.58490735
105	0xbfa22ce7	-1.2669953
106	0xbe1f96c4	-0.15584856
107	0xbfcb56b5	-1.5885836
108	0xbfede973	-1.8586868
109	0xbf964542	-1.1739886
110	0x3f7c5125	0.98561317
111	0x409f6886	4.981509
112	0xc091e107	-4.558719
113	0xbf4cd8d9	-0.80018383
114	0xc0422d69	-3.0340216
115	0x3f5021f0	0.81301785
116	0xbff6ac20	-1.9271278
117	0xbfd1c286	-1.6387489
118	0xbf96a3cf	-1.176874
119	0xbfd06082	-1.6279452
120	0xbf6a7b9b	-0.91594857
121	0xbff622a5	-1.9229323
122	0xbfed291b	-1.8528169
123	0xc017a8df	-2.369682
124	0xbf741971	-0.9535132
125	0xbf98c0d0	-1.1933842
126	0xbfd2ff45	-1.6484152
127	0xbfa7e13c	-1.3115611
128	0xbe5a2975	-0.21304877
129	0x3de65d75	0.11248294
130	0x402d00eb	2.703181
131	0x3e22f7bb	0.15914814
132	0x3e2e2977	0.17008005
133	0xbfac8dc4	-1.3480763
134	0x4048d18e	3.1377902
135	0x3d82add4	0.06380811
136	0xbf334d9e	-0.7004031
137	0xbeaf0b12	-0.34188133
138	0xbe05acdf	-0.13054226
139	0xbe7e5b70	-0.24839568
140	0x3ea1b400	0.31582642
141	0xbc14ffa2	-0.009094151
142	0x3edc3e81	0.43016437
143	0x3f2f0433	0.6836578
144	0xbf8a19bd	-1.0789105
145	0xbfac8bd0	-1.3480167
146	0xbe93daa7	-0.28877756
147	0x3ca13de8	0.01968284
148	0xbf19c9e1	-0.6007367
149	0xbe2d16ef	-0.1690328
150	0x3e2c8a74	0.1684969
151	0xbf037c42	-0.5136148
152	0xbe2ff374	-0.17182714
153	0xbfd026f2	-1.6261885
154	0xbf111719	-0.5667587
155	0xbf1bf0a3	-0.6091406
156	0xbeca42b5	-0.39504018
157	0xbf049bd3	-0.5180027
158	0xbf7c76a7	-0.9861855
159	0xbf67eaa8	-0.9059243
160	0xbd3625bd	-0.044469584
161	0xbfc7d6a4	-1.5612378
162	0xbfb8cb6b	-1.4437078
163	0xbef4582e	-0.47723526
164	0xbefd9de9	-0.49534538
165	0x3f499c15	0.7875379
166	0x3e57830a	0.21046081
167	0xbe9f17da	-0.31072885
168	0x3f94cd14	1.1625085
169	0x3e7f58aa	0.24936166
170	0xbe8f418b	-0.27979693
171	0xbe63efae	-0.222594
172	0x3e59b4b8	0.21260345
173	0xbe76075c	-0.24026245
174	0xbfdfaaad	-1.7473961
175	0x3fca1abd	1.578941
176	0xbeb31994	-0.34980452
177	0x3e5a4844	0.2131663
178	0x3fe06e61	1.7533685
179	0xbf826e64	-1.0189939
180	0x3f305c0d	0.6889046
181	0xbe9bc10b	-0.30420718
182	0xbedc5baf	-0.430387
183	0x3eedf5ea	0.4647668
184	0x3f29366a	0.66098654
185	0x3f5e3e8e	0.868142
186	0x3f17456f	0.5909032
187	0x3f1d036e	0.6133336
188	0x3fb33eba	1.4003518
189	0x3e0903c6	0.13380346
190	0xbd82b5d2	-0.06382336
191	0x3f9ec080	1.2402496
192	0xbea0cbcf	-0.31405494
193	0x3eb7ddbb	0.35911354
194	0x400209a2	2.031838
195	0x3f2ef23c	0.6833837
196	0xbf430372	-0.7617713
197	0xc0065617	-2.0990045
198	0x400370a0	2.053749
199	0xbfd0c8f3	-1.6311325
200	0xc04135d5	-3.0189106
201	0xc006a9e8	-2.1041203
202	0xbedc8d63	-0.4307662
203	0xbf3b9148	-0.73268557
204	0xbf8ade4e	-1.0849092
205	0xbfc6cd8d	-1.5531479
206	0x3f9ff0fb	1.2495416
207	0xbfb78873	-1.4338516
208	0x3e8ff6e1	0.2811804
209	0xbf876936	-1.0578983
210	0xc1077c29	-8.467813
211	0x3faf7407	1.3707284
212	0xbfd33822	-1.6501505
213	0xbf9902c9	-1.1953975
214	0x3e060b1a	0.13090172
215	0xbf2678f3	-0.65028304
216	0xc012ec39	-2.295668
217	0xbf316056	-0.6928762
218	0xc037127d	-2.8605034
219	0xbfc11d45	-1.5087057
220	0xc08beb03	-4.372438
221	0xbfb2b123	-1.3960308
222	0xbfa6de10	-1.3036518
223	0xbf6f5fa7	-0.9350533
224	0xbda04318	-0.07825297
225	0xc0196354	-2.3966875
226	0x3ffe5083	1.986832
227	0xbf3bacc2	-0.7331048
228	0xbec65f06	-0.38744372
229	0xbfe5db61	-1.7957574
230	0x3fe16894	1.761004
231	0xbfc96074	-1.573256
232	0xbd19fc8b	-0.03759436
233	0xbf9eb8a6	-1.24001
234	0xbe6ba19d	-0.2301087
235	0xbf40fce9	-0.7538591
236	0xbd208197	-0.039186087
237	0xbea57da1	-0.3232241
238	0xbf45b0f9	-0.77223164
239	0x40973621	4.7253575
240	0xc01e5814	-2.4741259
241	0x3ed39a64	0.41328728
242	0xbfeb75bb	-1.8395303
243	0xbef87596	-0.4852721
244	0xbfdc2286	-1.7198036
245	0xbf8eb97a	-1.1150353
246	0xbe3a99df	-0.1822276
247	0xbf2cf1ca	-0.6755644
248	0xbf39f810	-0.7264414
249	0xbf88d2b1	-1.0689298
250	0xbe07e402	-0.13270572
251	0xbf973cb1	-1.1815397
252	0xbebaf475	-0.3651463
253	0xbf831e5a	-1.0243638
254	0xbfe491e1	-1.7857019
255	0xbf067b64	-0.5253203

b1 f4 [32]
0	0xbed6f406	-0.4198305
1	0xbdbf8f90	-0.09353554
2	0x4004b7f3	2.0737274
3	0x3f4995a9	0.7874399
4	0xbf38dbc5	-0.7221034
5	0xc05826f7	-3.3773782
6	0x3fcff184	1.624558
7	0xc006c367	-2.1056764
8	0xbf478a82	-0.7794572
9	0xbf56e933	-0.83949584
10	0xbe864e3e	-0.2623157
11	0xbed11a40	-0.4084034
12	0xbf6a6de7	-0.9157395
13	0xbf4f4263	-0.80960673
14	0x3f97bc06	1.1854255
15	0x408192cd	4.04917
16	0xbfe6b1ed	-1.8023049
17	0xbfe3499c	-1.7756839
18	0x3f7a8b8f	0.978692
19	0x3f7d9996	0.9906248
20	0xbfed28c5	-1.8528067
21	0xbf20fcc3	-0.62885684
22	0xbe7c7908	-0.24655545
23	0xbebbdfc2	-0.3669415
24	0xbeeace32	-0.4586044
25	0xbfdbe6aa	-1.7179768
26	0xbf3df1a0	-0.74196815
27	0xbdd27621	-0.102764376
28	0xbe3b9618	-0.18318975
29	0xbfe1cd14	-1.764071
30	0xbfd02eca	-1.6264279
31	0xbfabddc3	-1.3427051

W2 f4 [32, 8]
0	0xbf4c7d8f	-0.7987909
1	0x3fab68bc	1.3391337
2	0xbf38c1b1	-0.7217055
3	0xbffcf8fb	-1.9763483
4	0xbf378ad3	-0.71696204
5	0x3f68e9e6	0.909819
6	0x3f7af086	0.9802326
7	0xbf501565	-0.81282645
8	0xbfadc8f2	-1.3576949
9	0x3f732d7f	0.94991297
10	0xbf6ccdcf	-0.9250154
11	0xc006df35	-2.1073735
12	0xc009348c	-2.1438322
13	0x3fd8bcd4	1.6932626
14	0xc0282b5d	-2.6276467
15	0xbf9553e5	-1.1666228
16	0xbf553941	-0.8329049
17	0x3ed019aa	0.4064458
18	0xbef40f2c	-0.47667825
19	0xc08363c0	-4.1059265
20	0x3eb86a96	0.3601882
21	0xbfb25c94	-1.3934503
22	0x40d3eb1c	6.62245
23	0x3caf2f1b	0.021384766
24	0xbf24f5a7	-0.64437336
25	0x3f07fb83	0.5311815
26	0x3f3a40fa	0.72755396
27	0xc05cbccb	-3.449023
28	0xbebb9381	-0.36635974
29	0xbf15d575	-0.58528835
30	0x3fdc1bc8	1.7195978
31	0xbe063a59	-0.13108195
32	0xc0099da1	-2.150246
33	0x3f2dff6c	0.6796787
34	0x3e1691a1	0.1470399
35	0xc02f2362	-2.7365346
36	0xbfafb719	-1.3727752
37	0xbee60773	-0.44927558
38	0xbfb32aba	-1.3997414
39	0x3dc4811b	0.095949374
40	0x40a62ea9	5.193196
41	0x3fdc1cf0	1.7196331
42	0x3f8b4292	1.0879691
43	0x3fec536c	1.8462958
44	0x3eca4318	0.39504313
45	0x3f0ca3a3	0.5493719
46	0xc010500c	-2.2548857
47	0xc008940d	-2.1340363
48	0xbf431c82	-0.76215374
49	0x3eec8057	0.46191666
50	0xbf40a85d	-0.752569
51	0xc0a0e7ae	-5.028281
52	0x3ee1a2f2	0.4406963
53	0xbf4cee02	-0.8005067
54	0x410641cf	8.391067
55	0xbebaf371	-0.36513856
56	0xbf8a2f19	-1.0795623
57	0x3e11744e	0.14204523
58	0x3ee74844	0.45172322
59	0xbe9463ca	-0.28982383
60	0xbfe2dd5e	-1.7723806
61	0xbe52f01a	-0.20599404
62	0x3f81bee0	1.0136375
63	0x3f2fef13	0.68724173
64	0xbfbcf99e	-1.4763677
65	0x3f8c084c	1.0940032
66	0x3eafc6c2	0.34331328
67	0xc059b820	-3.401863
68	0xc029cacb	-2.6530025
69	0x3ee88086	0.45410556
70	0xbff9a89b	-1.9504579
71	0x3e652ec6	0.22381124
72	0xbfc1e854	-1.5149026
73	0x3eef94cb	0.46793208
74	0x3ecfbf7e	0.40575784
75	0xbf238881	-0.63880163
76	0xbfb938ab	-1.4470419
77	0x3f0b78aa	0.54480994
78	0xbec8f1c0	-0.3924694
79	0x3cfaaa54	0.030598797
80	0xbfec859a	-1.8478272
81	0x3e1e3009	0.15448011
82	0x3ececb94	0.40389693
83	0xbf1893ed	-0.59600717
84	0xbed5da52	-0.41768128
85	0xbdb0ff46	-0.086424395
86	0x3f21582f	0.6302518
87	0x3ead6993	0.3386961
88	0xbf81ee23	-1.0150799
89	0xbde4149e	-0.11136745
90	0xbde4d62b	-0.11173662
91	0xbe68d71b	-0.22738306
92	0xbe8c0b94	-0.27352583
93	0xbf14f11c	-0.58180404
94	0x3e304d56	0.17217001
95	0x3e76936f	0.24079679
96	0xbea57986	-0.32319278
97	0x3f8fab23	1.1224102
98	0xbe2e1335	-0.16999514
99	0xbff886e4	-1.9416165
100	0xbf4f6aa6	-0.8102211
101	0x3fa30f3f	1.2739028
102	0xbf9c46b0	-1.2209072
103	0xbfb78614	-1.4337792
104	0xbf5071fa	-0.81423914
105	0x3fb35625	1.4010664
106	0xbfbcd8f3	-1.4753708
107	0xbf7ef084	-0.9958575
108	0xbfd20f6c	-1.6410956
109	0x3fe2f738	1.7731695
110	0xbf59d4d8	-0.850904
111	0xbf9daab5	-1.2317721
112	0xbf6f51ea	-0.93484366
113	0x3ef96b44	0.4871465
114	0x3e99c1be	0.30030626
115	0xc07ccd9f	-3.95005
116	0xbf0fecaf	-0.56220526
117	0xbf116b95	-0.5680478
118	0x400ac822	2.1684651
119	0xbf28a120	-0.6587086
120	0xc0465aa4	-3.0992823
121	0x3f9b769e	1.2145574
122	0xbfa5a592	-1.2941153
123	0xc100d4ff	-8.052001
124	0xc00994c9	-2.1497061
125	0x3f298494	0.66217923
126	0x40d6052e	6.6881323
127	0xbf3ef06f	-0.7458562
128	0x4024f4f6	2.5774512
129	0xbff89620	-1.9420815
130	0xbfa3706c	-1.2768683
131	0x4063564a	3.5521417
132	0xc011cdf5	-2.2781956
133	0x3e49022e	0.19629738
134	0xc0ab3aeb	-5.350942
135	0x400e6aa2	2.2252584
136	0xc006496a	-2.0982308
137	0x3f8a71b0	1.0815945
138	0xbf8594dc	-1.0436053
139	0xbfa96370	-1.3233471
140	0xc0022fcc	-2.0341673
141	0x3fcd88a0	1.605732
142	0xbedac28c	-0.42726552
143	0xbf5bbd42	-0.8583566
144	0xbde9cf9b	-0.11416551
145	0x3ec5418a	0.38526565
146	0xbf72259f	-0.94588655
147	0x40b84870	5.7588425
148	0xbf8e279e	-1.110584
149	0x3fb5729d	1.4175602
150	0xc1685f87	-14.523322
151	0xbefc36b1	-0.49260476
152	0xbf11759e	-0.56820095
153	0x3f2728d8	0.652967
154	0xbed246b3	-0.41069564
155	0xc030b690	-2.7611427
156	0xbe5a60ae	-0.21325943
157	0xbe77c7b6	-0.24197277
158	0x4089580c	4.291998
159	0xbe403899	-0.1877159
160	0xc009cf9c	-2.1532965
161	0x3f7f69d2	0.99770844
162	0xbf96ad19	-1.1771575
163	0xbfe9abc6	-1.8255546
164	0xc0004af4	-2.0045748
165	0x3f80a479	1.0050193
166	0x3ed761e3	0.4206687
167	0xbf390cc4	-0.72285104
168	0x3e13f61f	0.14449356
169	0xbe51e52f	-0.20497583
170	0x3e73ff16	0.23827776
171	0x3f365917	0.7122969
172	0xbedd00cf	-0.4316468
173	0x3d860347	0.06543594
174	0xc0071ff0	-2.1113243
175	0xbe06193a	-0.1309556
176	0xbe20c8f9	-0.15701665
177	0x3e7c4df8	0.24639118
178	0x3b678033	0.0035324215
179	0x3f6e3358	0.93047094
180	0xbe87d54e	-0.26529926
181	0x3f2843ff	0.65728754
182	0xbf684a69	-0.9073854
183	0xbdee6c6d	-0.11641774
184	0x3f34fa31	0.7069426
185	0xbf0383c4	-0.51372933
186	0xbe94ed62	-0.2908736
187	0x3fbfc0f8	1.4980764
188	0xbf5acbee	-0.8546742
189	0x3f12de6c	0.5737064
190	0xc0331cc4	-2.7986307
191	0x3ee3c873	0.44488868
192	0xc029bb05	-2.6520398
193	0x3f8538d5	1.0407969
194	0xbe74f10b	-0.23920076
195	0xc02c9bf6	-2.697019
196	0xc06668f4	-3.6001558
197	0x3fbc23fb	1.469848
198	0xbf45d6fa	-0.77281153
199	0xbea0ca0e	-0.31404155
200	0xbf8c32bf	-1.0952986
201	0x3f9eb512	1.2399008
202	0xbf50ef57	-0.81615204
203	0xbf25829c	-0.6465242
204	0xbff11cb4	-1.8836884
205	0x3f9ad8b1	1.2097379
206	0xbfa35d48	-1.2762842
207	0xbf532d06	-0.82490575
208	0xbf975fab	-1.182607
209	0x3f7a2566	0.97713315
210	0xbe29f9e8	-0.16599238
211	0x3f59658e	0.84920585
212	0xbf684dbf	-0.9074363
213	0x3f70fa77	0.9413218
214	0xc0448e20	-3.0711746
215	0xbce8be72	-0.028411124
216	0x3e96b483	0.29434595
217	0x3f5d5ede	0.8647288
218	0xbed1b9da	-0.40962106
219	0x4005a696	2.0882926
220	0xbf9060ad	-1.1279503
221	0x3f939a46	1.1531456
222	0xc0b5e639	-5.6843534
223	0xbedc95d5	-0.43083063
224	0xbeb8aef4	-0.3607098
225	0x3f9dafa2	1.2319224
226	0xbf1efdd7	-0.6210608
227	0x40022dcd	2.0340455
228	0xbffc6b0d	-1.9720169
229	0x3fabb70c	1.3415236
230	0xc11cb4ad	-9.79411
231	0xbf6ff435	-0.93732005
232	0xbf688fed	-0.90844613
233	0x3fb963d1	1.4483587
234	0xbfdb7c40	-1.7147293
235	0xbfd629cf	-1.6731509
236	0xc00428c6	-2.0649886
237	0x3f9eef02	1.2416689
238	0xbf81f184	-1.015183
239	0xbfc12007	-1.5087899
240	0xbee4def8	-0.44701362
241	0xbda7094c	-0.0815607
242	0x3f56f270	0.8396368
243	0xbd960c01	-0.07326508
244	0x3e229829	0.15878357
245	0x3f0fedb3	0.56222075
246	0xbfc47e3e	-1.5351026
247	0x3f348ced	0.70527536
248	0xc03211a2	-2.7823262
249	0x3f673d94	0.90328336
250	0xbfc41baa	-1.5320942
251	0xbfbb4c8b	-1.4632734
252	0xbff3b4c6	-1.9039543
253	0x3fd32e8f	1.6498584
254	0xbecc7bcf	-0.39938208
255	0xbf33df53	-0.7026264

b2 f4 [8]
0	0xbf1847b6	-0.5948442
1	0x3f35c7db	0.7100808
2	0xbe604239	-0.21900262
3	0xbf544875	-0.8292306
4	0xbf593293	-0.84842795
5	0x3f922331	1.141699
6	0xbecb9f34	-0.397699
7	0xbf42a148	-0.76027346

weight f4 [8]
0	0x3ea855e6	0.32878035
1	0x3ee16904	0.44025433
2	0x3e0875d7	0.13326202
3	0x3e88ad89	0.26694897
4	0x3e41e6e1	0.1893573
5	0xbdcef2dd	-0.10104916
6	0xbd3e8837	-0.046516623
7	0x3e310851	0.17288329

bias f4 [8]
0	0x3e3091b4	0.17243081
1	0xbdfec2d1	-0.12439502
2	0x3ca60636	0.020266633
3	0x3ed16d6b	0.40903792
4	0xba9cccc3	-0.0011962879
5	0xbc91534b	-0.017739912
6	0x3db5ea9d	0.088826396
7	0x3a5e8c80	0.0008489564

weight f4 [1, 8]
0	0xbd2d2add	-0.042277206
1	0x3d9905c4	0.07471803
2	0x3bfbd516	0.007685314
3	0xbbec79e4	-0.007216679
4	0x3cc86ef7	0.024466975
5	0xbbd12575	-0.006382639
6	0x3be22f41	0.0069026058
7	0x3cbcbb84	0.023038633
