saved_models/model-epoch-84.pth (torch, 249162 bytes, 52 tensors)

embeddings f4 [99, 32]
0	0x3d8ee9b8	0.06978172
1	0xbe102844	-0.1407786
2	0xbdff917c	-0.12478921
3	0x3db37223	0.08762004
4	0xbd76c917	-0.060250368
5	0x3d90ff6a	0.07079966
6	0x3d6d4faf	0.05793732
7	0xbe102e6e	-0.14080212
8	0xbde482ee	-0.11157785
9	0xbd16a273	-0.036776017
10	0xbd1b5f28	-0.037932545
11	0xbe1bd334	-0.15217286
12	0x3e407f37	0.18798529
13	0xbd7f0f12	-0.06227023
14	0xbe3fab1d	-0.18717618
15	0xbc0a3765	-0.008436059
16	0xbd561a26	-0.05227103
17	0xbdb8032f	-0.08984982
18	0xbcc0126e	-0.023446288
19	0x3d1fb873	0.038994264
20	0x3e1b9b47	0.15195952
21	0x3e1efab0	0.15525317
22	0x3dec8802	0.11549379
23	0xbc260652	-0.010133343
24	0xbe142081	-0.14465524
25	0x3e39739b	0.18110506
26	0x3e37b178	0.17938793
27	0xbdc0575e	-0.09391664
28	0xbd19ef89	-0.037581954
29	0x3e1ac24f	0.15113185
30	0xbe0db84c	-0.13839835
31	0x3e4259e2	0.189796
32	0x3da3b1c9	0.07992894
33	0xbde53ae7	-0.11192875
34	0xbe2af248	-0.16693985
35	0xbda5b319	-0.08090801
36	0xbd441229	-0.04786888
37	0x3e2bd40d	0.1678011
38	0xbd0109f6	-0.03150364
39	0xbe0e1c41	-0.13877966
40	0xbda899ab	-0.08232435
41	0xbd440783	-0.047858726
42	0xbcc47e58	-0.023986027
43	0x3c72978d	0.01480664
44	0x3d6f1205	0.058366794
45	0xbca88003	-0.020568853
46	0x3e5056c9	0.20345606
47	0x3decbf70	0.11559951
48	0x3e39ca11	0.18143488
49	0x3e0fa5da	0.14028111
50	0x3e2177c3	0.15768342
51	0x3e4892cb	0.19587247
52	0xbe54277d	-0.20718189
53	0xbd5ada55	-0.053430874
54	0x3e35a609	0.17739119
55	0xbdcae376	-0.09906666
56	0xbe55da48	-0.20884049
57	0x3d0138b9	0.031548236
58	0x3e40fb2b	0.18845813
59	0xbda46cc8	-0.08028561
60	0xbe58cb9b	-0.2117142
61	0x3da33744	0.079695255
62	0xbdeeb07c	-0.116547555
63	0xbc834cde	-0.016027864
64	0x3dddbec3	0.108274005
65	0xbd92fa25	-0.071766175
66	0x3d48b5fc	0.04900168
67	0xbe1fcc8e	-0.15605375
68	0x3e1e56f1	0.15462853
69	0x3e10961b	0.1411976
70	0x3e156156	0.14587912
71	0xbd671206	-0.056413673
72	0xbe57f6ff	-0.21090315
73	0xbe4d692e	-0.20059654
74	0x3d634316	0.0554839
75	0x3d9ae6da	0.07563563
76	0x3e06e86a	0.13174596
77	0x3e28829f	0.16456078
78	0x3dbb3a77	0.09142011
79	0x3e31ac37	0.17350851
80	0xbd812b9e	-0.063071474
81	0x3e5275b5	0.20552714
82	0x388f481a	6.832201e-05
83	0xbe464122	-0.19360784
84	0x3e22be00	0.15892792
85	0xbd001558	-0.031270355
86	0xbe4ee458	-0.20204294
87	0x3dea5e25	0.11443738
88	0x3e3eddee	0.18639347
89	0x3e0f4099	0.13989486
90	0x3e3f3015	0.18670686
91	0x3e3e2629	0.18569244
92	0xbc11f670	-0.008908853
93	0xbd8d3a5a	-0.06895895
94	0x3d60fbf5	0.054927785
95	0xbd1b19a7	-0.03786626
96	0x3c2bb4f8	0.010480158
97	0x3e000c58	0.12504709
98	0xbd7902e7	-0.060793784
99	0x3de18882	0.11012365
100	0x3e5accc5	0.21367176
101	0xbe3ff0fd	-0.18744273
102	0xbe38516b	-0.17999808
103	0xbd48b984	-0.049005046
104	0xbdbc7e5f	-0.09203791
105	0x3e36bcc3	0.17845444
106	0xbe3848d5	-0.17996533
107	0x3e343043	0.17596535
108	0x3de56ade	0.11202024
109	0xbe521a53	-0.20517854
110	0x3e321930	0.17392421
111	0xbde98866	-0.11402969
112	0xbe403711	-0.18771006
113	0x3d6f8f1c	0.05848609
114	0xbdbab78b	-0.09117039
115	0x3e21afd9	0.15789737
116	0x3de1982f	0.11015355
117	0xbe0d5a85	-0.13804062
118	0xbbffa294	-0.0078013632
119	0xbe1eb2f4	-0.15497953
120	0xbc0d8ce1	-0.008639545
121	0xba7d9e61	-0.00096747844
122	0x3da79672	0.08182992
123	0xbd8944f9	-0.067026086
124	0xbd9f0e12	-0.077663556
125	0x3e300f82	0.17193416
126	0xbe46cc78	-0.19413936
127	0xbe5a9a51	-0.2134793
128	0xbdedf78d	-0.11619482
129	0x3e28a0ad	0.16467543
130	0x3e0724a1	0.13197567
131	0xbe46c823	-0.19412284
132	0xbd81390c	-0.06309709
133	0x3e52d843	0.2059031
134	0xbe57d1e1	-0.21076156
135	0xbcfb4fb4	-0.030677654
136	0x3e49bd1d	0.19701047
137	0x3ceada1c	0.028668456
138	0x3e50ab6d	0.20377894
139	0x3dec83b4	0.11548558
140	0xbe3ca287	-0.18421374
141	0x3e577cd3	0.2104371
142	0x3e365c78	0.17808712
143	0xbe119d9c	-0.1422028
144	0x3db8763e	0.09006928
145	0xbdd414bf	-0.103555195
146	0xbe2d9cfc	-0.16954416
147	0xbcb2829b	-0.021790793
148	0x3b525f10	0.0032100119
149	0xbe11de26	-0.14244899
150	0xbe20d5e0	-0.15706587
151	0xbc40f564	-0.011777256
152	0x3c6a69dc	0.014307465
153	0x3e36166b	0.1778199
154	0x3e527eb9	0.20556153
155	0xbc2d7b88	-0.010588534
156	0xbdf671db	-0.12033435
157	0x3e2d92dc	0.16950554
158	0x3dc2e668	0.09516603
159	0xbe37d41d	-0.17952009
160	0xbcd3f3fa	-0.025873173
161	0xbe15b029	-0.14617981
162	0x3e1df2dd	0.15424676
163	0xbd209706	-0.039206527
164	0xbdb58215	-0.08862702
165	0x3cc0fdbc	0.02355849
166	0xbe310e32	-0.17290571
167	0x3dad250b	0.08454331
168	0x3e256d09	0.16154875
169	0xbe3ed838	-0.18637168
170	0xbd7bff4d	-0.06152277
171	0x3dbefece	0.09325944
172	0x3d9032fb	0.07040974
173	0x3da58740	0.080824375
174	0x3e03fc21	0.12889148
175	0xbc2f338a	-0.01069344
176	0xbdb39789	-0.087691374
177	0xbd4620a1	-0.04837096
178	0xbd1c5c7e	-0.038174145
179	0x3cb3705f	0.021904169
180	0x3db7bd11	0.089716084
181	0xbe2c37cf	-0.16818164
182	0x3c98f00e	0.018669154
183	0xbe537253	-0.2064908
184	0x3deabf55	0.11462275
185	0x3e48f372	0.19624117
186	0xbe16846c	-0.14698952
187	0x3e5436e5	0.20724066
188	0x3df96006	0.12176518
189	0xbdc00b20	-0.09377122
190	0xbe34f50c	-0.17671603
191	0x3df83bf3	0.121208094
192	0x3e38acb5	0.18034633
193	0xbdd0dcb1	-0.101983435
194	0xbe1108d1	-0.1416352
195	0xbb501aa9	-0.0031754172
196	0xbdfd56df	-0.12370085
197	0xbde39d3e	-0.11113976
198	0x3e1acc4a	0.15116993
199	0x3e1f3ea6	0.15551242
200	0xbdb57d59	-0.08861799
201	0x3e380cf6	0.17973694
202	0x3d817252	0.06320633
203	0xbdbe0f7d	-0.09280298
204	0xbcd47208	-0.02593328
205	0xbde50fe9	-0.11184675
206	0xbe32ff3d	-0.17480178
207	0xbd80fffc	-0.06298825
208	0xbd392c2e	-0.04520815
209	0xbe4000cd	-0.18750305
210	0xbd9e0a3b	-0.07716795
211	0xbc9d31b4	-0.01918874
212	0x3e5668fd	0.20938487
213	0x3d90ef94	0.07076946
214	0x3dc5c4a9	0.096566506
215	0xbd3b9e2b	-0.045805138
216	0xbdbaafb4	-0.09115544
217	0xbc80cc8a	-0.015722532
218	0x3d011e22	0.031522878
219	0x3e259553	0.16170244
220	0xbe4dbe1a	-0.20092049
221	0xbe1646c6	-0.14675435
222	0xbe318c81	-0.17338754
223	0x3e4d2074	0.20031911
224	0x3e3eb223	0.18622641
225	0x3df8e191	0.121523984
226	0xbe229191	-0.15875842
227	0xbcb15aa0	-0.021649659
228	0x3d815b9c	0.06316301
229	0x3e2323e9	0.15931667
230	0xbbbacb0b	-0.005700474
231	0x3e3084fc	0.1723823
232	0x3d3edca5	0.04659714
233	0xbda84096	-0.08215444
234	0xbdbd1794	-0.09233013
235	0x3e2beaaf	0.16788743
236	0xbe3ebe3e	-0.18627259
237	0x3c8fd559	0.017557787
238	0x3e3b744a	0.1830608
239	0xbdd1dfe3	-0.10247781
240	0x3dcdaa33	0.100422285
241	0xbdf59094	-0.11990467
242	0x3e341da1	0.17589428
243	0xbdef0d57	-0.11672466
244	0xbe1bfe57	-0.15233742
245	0xbe04face	-0.129863
246	0xbe18fa39	-0.14939202
247	0x3dfa9dfe	0.12237166
248	0xbda3e70d	-0.08003054
249	0x3d53dbd9	0.051723335
250	0x3da3a559	0.07990522
251	0x3d99f43e	0.075172886
252	0x3e103a30	0.14084697
253	0xbe3967ee	-0.18106052
254	0xbcc52307	-0.024064554
255	0x3e47c3d8	0.19508302

_pos_embeds f4 [64, 32]
0	0x00000000	0.0
1	0x3f800000	1.0
2	0x00000000	0.0
3	0x3f800000	1.0
4	0x00000000	0.0
5	0x3f800000	1.0
6	0x00000000	0.0
7	0x3f800000	1.0
8	0x00000000	0.0
9	0x3f800000	1.0
10	0x00000000	0.0
11	0x3f800000	1.0
12	0x00000000	0.0
13	0x3f800000	1.0
14	0x00000000	0.0
15	0x3f800000	1.0
16	0x00000000	0.0
17	0x3f800000	1.0
18	0x00000000	0.0
19	0x3f800000	1.0
20	0x00000000	0.0
21	0x3f800000	1.0
22	0x00000000	0.0
23	0x3f800000	1.0
24	0x00000000	0.0
25	0x3f800000	1.0
26	0x00000000	0.0
27	0x3f800000	1.0
28	0x00000000	0.0
29	0x3f800000	1.0
30	0x00000000	0.0
31	0x3f800000	1.0
32	0x3f576aa4	0.84147096
33	0x3f0a5140	0.5403023
34	0x3f087dba	0.53316844
35	0x3f58940e	0.84600914
36	0x3e9f393e	0.3109836
37	0x3f734e6a	0.95041525
38	0x3e35233a	0.17689219
39	0x3f7bf683	0.9842302
40	0x3dcc7576	0.099833414
41	0x3f7eb898	0.9950042
42	0x3d6636b0	0.056204498
43	0x3f7f9868	0.9984193
44	0x3d01815c	0.031617507
45	0x3f7fdf3c	0.99950004
46	0x3c91ab42	0.017781857
47	0x3f7ff5a3	0.99984187
48	0x3c23d657	0.009999833
49	0x3f7ffcb9	0.99995
50	0x3bb8445c	0.0056233834
51	0x3f7ffef7	0.9999842
52	0x3b4f3e20	0.0031622723
53	0x3f7fffac	0.999995
54	0x3ae91520	0.0017782785
55	0x3f7fffe5	0.9999984
56	0x3a83126d	0.0009999998
57	0x3f7ffff8	0.9999995
58	0x3a136a16	0.0005623413
59	0x3f7ffffd	0.9999998
60	0x39a5cb5f	0.00031622776
61	0x3f7fffff	0.99999994
62	0x393a7753	0.00017782794
63	0x3f800000	1.0
64	0x3f68c7b7	0.9092974
65	0xbed51133	-0.41614684
66	0x3f66f20a	0.9021307
67	0x3edce8b2	0.43146282
68	0x3f17541b	0.5911271
69	0x3f4e7bec	0.8065784
70	0x3eb247f6	0.34820527
71	0x3f6ffaa5	0.9374183
72	0x3e4b6ff9	0.19866933
73	0x3f7ae5a5	0.9800666
74	0x3de5d988	0.112231314
75	0x3f7e61f3	0.9936821
76	0x3d8170c8	0.063203394
77	0x3f7f7cf9	0.9980007
78	0x3d11a55c	0.03555809
79	0x3f7fd68e	0.9993676
80	0x3ca3d43e	0.019998666
81	0x3f7ff2e5	0.9998
82	0x3c38439d	0.011246589
83	0x3f7ffbdb	0.99993676
84	0x3bcf3ddd	0.0063245133
85	0x3f7ffeb0	0.99998
86	0x3b691508	0.0035565514
87	0x3f7fff96	0.9999937
88	0x3b031269	0.0019999987
89	0x3f7fffde	0.999998
90	0x3a936a14	0.0011246824
91	0x3f7ffff5	0.99999934
92	0x3a25cb5f	0.0006324555
93	0x3f7ffffd	0.9999998
94	0x39ba7753	0.00035565588
95	0x3f7fffff	0.99999994
96	0x3e1081c3	0.14112
97	0xbf7d7026	-0.9899925
98	0x3f7e45d7	0.9932532
99	0xbded7fa8	-0.11596614
100	0x3f5009c2	0.8126489
101	0x3f152f57	0.5827536
102	0x3f022f6d	0.50853616
103	0x3f5c6d29	0.86104065
104	0x3e974e6d	0.29552022
105	0x3f7490ef	0.9553365
106	0x3e2beed8	0.1679033
107	0x3f7c5d9e	0.9858035
108	0x3dc1ffc1	0.09472609
109	0x3f7ed94f	0.99550337
110	0x3d5a694d	0.05332308
111	0x3f7fa2c3	0.9985773
112	0x3cf5b920	0.029995501
113	0x3f7fe283	0.99955004
114	0x3c8a31c7	0.016869439
115	0x3f7ff6ad	0.9998577
116	0x3c1b6e11	0.009486691
117	0x3f7ffd0d	0.999955
118	0x3baecfa8	0.005334813
119	0x3f7fff11	0.99998575
120	0x3b449b93	0.0029999956
121	0x3f7fffb5	0.9999955
122	0x3add1f1b	0.0016870232
123	0x3f7fffe8	0.99999857
124	0x3a78b10d	0.0009486832
125	0x3f7ffff8	0.9999995
126	0x3a0bd97e	0.0005334838
127	0x3f7ffffe	0.9999999
128	0xbf41bdcf	-0.7568025
129	0xbf275530	-0.6536436
130	0x3f4749ed	0.77847177
131	0xbf20af9d	-0.62767965
132	0x3f741dde	0.95358074
133	0x3e9a2eb1	0.30113748
134	0x3f271fbc	0.652828
135	0x3f41ebed	0.7575062
136	0x3ec761d7	0.38941833
137	0x3f6bcaa7	0.921061
138	0x3e6465c6	0.22304448
139	0x3f798d09	0.9748083
140	0x3e012e88	0.12615407
141	0x3f7df469	0.99201065
142	0x3d918dc8	0.07107121
143	0x3f7f5a47	0.9974713
144	0x3d23cbdb	0.039989334
145	0x3f7fcb94	0.9992001
146	0x3cb840a2	0.022491757
147	0x3f7fef6c	0.99974704
148	0x3c4f3ccd	0.012648773
149	0x3f7ffac2	0.99992
150	0x3be914a7	0.0071130577
151	0x3f7ffe58	0.9999747
152	0x3b831258	0.0039999895
153	0x3f7fff7a	0.999992
154	0x3b136a0e	0.0022493633
155	0x3f7fffd6	0.9999975
156	0x3aa5cb5c	0.0012649107
157	0x3f7ffff3	0.9999992
158	0x3a3a7752	0.0007113117
159	0x3f7ffffc	0.99999976
160	0xbf757c10	-0.9589243
161	0x3e913c2c	0.2836622
162	0x3ea5dad6	0.3239352
163	0xbf723240	-0.94607925
164	0x3f7ffc7f	0.99994653
165	0xbc2972d4	-0.010342319
166	0x3f46caab	0.77652997
167	0x3f214cf1	0.6300803
168	0x3ef57744	0.47942555
169	0x3f60a940	0.87758255
170	0x3e8e11ee	0.27748054
171	0x3f75f27c	0.96073127
172	0x3e213c1e	0.15745589
173	0x3f7cce81	0.987526
174	0x3db5db21	0.08879686
175	0x3f7efd1e	0.99604976
176	0x3d4cb6f5	0.04997917
177	0x3f7fae19	0.99875027
178	0x3ce64dfe	0.028113361
179	0x3f7fe619	0.99960476
180	0x3c818581	0.01581073
181	0x3f7ff7cf	0.999875
182	0x3c11acbb	0.00889128
183	0x3f7ffd69	0.9999605
184	0x3ba3d6de	0.0049999794
185	0x3f7fff2e	0.9999875
186	0x3b38448c	0.002811703
187	0x3f7fffbe	0.99999607
188	0x3acf3e31	0.0015811381
189	0x3f7fffeb	0.99999875
190	0x3a691526	0.0008891396
191	0x3f7ffff9	0.9999996
192	0xbe8f0f8c	-0.2794155
193	0x3f75cdb8	0.96017027
194	0xbe6be574	-0.23036748
195	0xbf791d53	-0.9731037
196	0x3f72784d	0.94714814
197	0xbea43f6f	-0.32079646
198	0x3f603089	0.8757406
199	0x3ef72f34	0.482782
200	0x3f108c69	0.5646425
201	0x3f534932	0.8253356
202	0x3ea97dfd	0.33103934
203	0x3f7190e2	0.943617
204	0x3e41206f	0.18860029
205	0x3f7b67e3	0.98205394
206	0x3dda19c1	0.106494434
207	0x3f7e8b51	0.9943133
208	0x3d759cd1	0.059964005
209	0x3f7f8a12	0.99820054
210	0x3d0a2cbf	0.03373408
211	0x3f7fdab3	0.99943084
212	0x3c9b6c46	0.018972527
213	0x3f7ff434	0.99982
214	0x3c2ecf04	0.010669474
215	0x3f7ffc45	0.9999431
216	0x3bc49b59	0.005999964
217	0x3f7ffed2	0.999982
218	0x3b5d1f06	0.0033740415
219	0x3f7fffa1	0.99999434
220	0x3af8b105	0.0018973654
221	0x3f7fffe2	0.9999982
222	0x3a8bd97d	0.0010669675
223	0x3f7ffff6	0.9999994
224	0x3f283046	0.6569866
225	0x3f40ffbd	0.75390226
226	0xbf36b66e	-0.71372116
227	0xbf334f60	-0.7004299
228	0x3f4ce86f	0.80042166
229	0xbf1974bb	-0.5994374
230	0x3f728444	0.9473307
231	0x3ea3f8b9	0.32025698
232	0x3f24eb73	0.64421767
233	0x3f43ccb3	0.7648422
234	0x3ec460df	0.38355157
235	0x3f6c6bc5	0.92351943
236	0x3e60d350	0.2195561
237	0x3f79c0ea	0.9755999
238	0x3dfe46ba	0.12415834
239	0x3f7e04e9	0.9922624
240	0x3d8f3e32	0.06994285
241	0x3f7f5f81	0.997551
242	0x3d213160	0.03935373
243	0x3f7fcd3b	0.9992253
244	0x3cb552a6	0.022134136
245	0x3f7feff2	0.999755
246	0x3c4bf12a	0.012447635
247	0x3f7ffaec	0.9999225
248	0x3be55fc7	0.006999943
249	0x3f7ffe65	0.9999755
250	0x3b80fcbe	0.003936379
251	0x3f7fff7e	0.99999225
252	0x3b1111ec	0.0022135926
253	0x3f7fffd7	0.99999756
254	0x3aa32866	0.0012447953
255	0x3f7ffff3	0.9999992

W f4 [32, 32]
0	0x3e06451b	0.13112299
1	0x3d9fbde0	0.07799888
2	0xbc5f4a4a	-0.013628552
3	0x3da925d8	0.08259171
4	0xbe829709	-0.25505856
5	0xbe1fffa6	-0.15624866
6	0xbdba178f	-0.09086525
7	0x3e2b6a19	0.16739692
8	0xbe2e8950	-0.17044568
9	0xbdcebb8c	-0.100943655
10	0x3b9330b6	0.004491891
11	0xbe3fb742	-0.18722251
12	0x3e5408fb	0.20706551
13	0x3d237f9e	0.039916627
14	0x3dbe5747	0.092939906
15	0xbd8d1872	-0.06889428
16	0xbd64d785	-0.055869598
17	0x3db41f6e	0.08795057
18	0x3e83256a	0.25614482
19	0x3e365a8b	0.17807977
20	0xbe655f6d	-0.22399683
21	0x3d819bd2	0.063285485
22	0x3db413eb	0.087928616
23	0x3e6712ef	0.22565816
24	0x3ddfc23f	0.109257214
25	0xbe63e6ed	-0.2225606
26	0x3d9b5f53	0.07586541
27	0x3e46456e	0.19362423
28	0x3e39f566	0.18160018
29	0xbe0c1dd8	-0.1368326
30	0xbe532aed	-0.20621844
31	0x3e1036d7	0.1408342
32	0xbb79eac3	-0.0038134314
33	0xbe7953f1	-0.24348427
34	0xbd2091dd	-0.039201606
35	0x3e2f65c0	0.17128658
36	0xbdf1a5ca	-0.117992
37	0x3d93fe07	0.07226186
38	0xbd09c85e	-0.03363835
39	0x3e8dc1d9	0.27686957
40	0x3e058e08	0.13042462
41	0x3d2e1998	0.042504877
42	0xbdadb966	-0.084826276
43	0xbe4a2b30	-0.19743037
44	0x3e8819be	0.2658214
45	0xbe72fe86	-0.23729905
46	0x3e8306b7	0.2559106
47	0x3d3a9a4c	0.045557305
48	0xbe0d8305	-0.13819511
49	0x3e916eaa	0.28404742
50	0xbe840e0b	-0.25791964
51	0x3df90abf	0.12160253
52	0x3e4a17e9	0.19735684
53	0x3e9ebd39	0.3100374
54	0xbe223dff	-0.15843962
55	0x3e6eabbb	0.23307697
56	0x3e34b924	0.1764875
57	0x3df12a0f	0.117756
58	0x3e1f88b1	0.15579487
59	0xbc5774bc	-0.01315039
60	0x3e83db08	0.25753045
61	0x3e853eb4	0.260244
62	0xbe17217c	-0.14758867
63	0x3e92c4bc	0.2866572
64	0x3d10ea4e	0.0353797
65	0x3df49603	0.11942675
66	0xbe0680e8	-0.13135111
67	0x3dd76781	0.10517789
68	0x3e4881d5	0.19580777
69	0x3e4ffa66	0.20310363
70	0x3e8796dc	0.26482284
71	0xbe3c2878	-0.18374813
72	0x3e59f7d0	0.21285939
73	0xbdc5dc47	-0.09661155
74	0xbe7508d0	-0.23929143
75	0xbe89b0b1	-0.26892617
76	0xbe8b6d7e	-0.27231973
77	0xbe1d04d4	-0.15333873
78	0xbe578fc6	-0.21050939
79	0x3e0cae44	0.13738352
80	0xbe3213c8	-0.17390358
81	0x3dcbf5ab	0.09958967
82	0x3e30cf2f	0.17266534
83	0xbe75033b	-0.23927014
84	0x3e03edc1	0.12883665
85	0xbe4931cc	-0.19647902
86	0xbdc131a7	-0.094332986
87	0xbe13b257	-0.144235
88	0xbdbf7f51	-0.093504556
89	0xbe746ea0	-0.23870325
90	0xbe12ede4	-0.1434856
91	0xbbf67eb6	-0.0075224293
92	0xbca264c9	-0.019823449
93	0xbd781e40	-0.060575724
94	0xbe9867f1	-0.297668
95	0x3e04ef90	0.12982011
96	0x3e043324	0.12910134
97	0x3e32f307	0.1747552
98	0xbe6eef34	-0.23333436
99	0xbe3ead62	-0.18620828
100	0xbd33ac3e	-0.043865435
101	0x3dd3cd5a	0.10341902
102	0x3dd49c71	0.10381401
103	0x3d6d408e	0.057922892
104	0xbd4ac307	-0.0495024
105	0x3e05d61a	0.13069955
106	0xbd8a2e2b	-0.06747087
107	0xbce0693c	-0.02739393
108	0x3e851e6c	0.25999773
109	0x3e920c73	0.28525123
110	0xbe74f45b	-0.23921339
111	0xbcd747f6	-0.02627943
112	0x3e67c0da	0.22632161
113	0xbe4f699a	-0.20255128
114	0x3e46a7d9	0.19399966
115	0xbd462f2c	-0.04838483
116	0xbe408058	-0.1879896
117	0x3e8b8c37	0.27255413
118	0x3e9b3862	0.30316454
119	0x3e00190d	0.12509556
120	0x3e2e73fb	0.1703643
121	0xbe188936	-0.14896092
122	0x3e389ec5	0.18029316
123	0x3e0118d1	0.12607123
124	0xbd3efdfa	-0.04662893
125	0xbbc44605	-0.0059897923
126	0x3dc7df06	0.09759335
127	0xbe9b4305	-0.3032457
128	0xbe2204a4	-0.15822083
129	0xbe2d8127	-0.16943799
130	0xbe796da0	-0.24358225
131	0x3d21a468	0.03946343
132	0x3d42b2b6	0.047533713
133	0xbe4b9105	-0.1987954
134	0xbd250613	-0.040288996
135	0x3d85c73b	0.06532141
136	0x3e3c6a62	0.18399957
137	0x3e6c9f00	0.23107529
138	0xbe9d879c	-0.30767524
139	0xbe1b6976	-0.15176949
140	0xbe69e1ac	-0.22839993
141	0xbdf60b9d	-0.12013934
142	0x3e237ca2	0.15965512
143	0xbe7ccf5e	-0.2468848
144	0x3c6000b0	0.013672039
145	0x3d961774	0.07328692
146	0x3e28a563	0.1646934
147	0xbe98b8ff	-0.2982864
148	0xbe7716fb	-0.2412986
149	0x3e800dc8	0.25010514
150	0x3dfa7d8a	0.12230976
151	0x3e4d1fa3	0.200316
152	0xbe2960d8	-0.16540849
153	0x3de9c6cf	0.11414873
154	0xbe7dbd36	-0.2477921
155	0xbe70be22	-0.2351003
156	0x3e0db27a	0.13837615
157	0x3e09ed44	0.13469416
158	0xbe75402f	-0.23950265
159	0xbe9a8a8d	-0.3018383
160	0x3d882229	0.066471405
161	0x3dc534f3	0.0962924
162	0xbd3c4ad7	-0.04596981
163	0xbdc654da	-0.09684153
164	0x3d3690a8	0.04457155
165	0xbe7fcb18	-0.24979818
166	0xbe5b578e	-0.21420118
167	0xbe0da16c	-0.13831109
168	0xbe3d6581	-0.18495752
169	0xbe8f5006	-0.2799074
170	0x3e8ed357	0.27895615
171	0x3e71ca0c	0.23612231
172	0xbe030c5e	-0.12797686
173	0x3e30d704	0.17269522
174	0xbda9e6b6	-0.08295958
175	0x3e0d1d95	0.13780816
176	0x3e83a8e5	0.25714794
177	0x3e0417b1	0.12899663
178	0xbe878eb1	-0.26476052
179	0xbe6604dd	-0.22462793
180	0x3df044e4	0.1173189
181	0x3e31d660	0.17366934
182	0x3e317d39	0.17332925
183	0x3e680113	0.2265666
184	0xbe83444f	-0.25638053
185	0x3d1710e0	0.036881328
186	0x3e0a4f0f	0.13506721
187	0x3c5ddb00	0.013540983
188	0x3e2381d0	0.15967488
189	0xbe20a86b	-0.15689246
190	0xbd696e66	-0.05699005
191	0x3e0a732c	0.13520497
192	0xbd0badf6	-0.03410145
193	0x3c14858b	0.009065042
194	0xbe329c0e	-0.17442343
195	0x3d27ddaf	0.0409829
196	0xbe505011	-0.20343043
197	0xbe530117	-0.20605884
198	0x3c51959a	0.012792015
199	0xbe7db320	-0.24775362
200	0x3e900473	0.28128394
201	0xbe38c5b3	-0.18044166
202	0xbe975ef6	-0.29564637
203	0x3e663050	0.22479367
204	0x3e32dfb0	0.17468143
205	0x3d349a07	0.044092204
206	0xbe31c4c1	-0.17360212
207	0x3e70bcda	0.23509541
208	0xbe866322	-0.26247507
209	0x3e08f534	0.13374788
210	0xbe458890	-0.19290376
211	0xbe840ae5	-0.25789562
212	0xbe9dde4d	-0.30833665
213	0xbd189142	-0.037247904
214	0x3e218744	0.15774256
215	0xbe0293b9	-0.12751664
216	0x3d95c18d	0.073123075
217	0x3d9cc120	0.07654023
218	0xbe7b3a5f	-0.24533986
219	0xbe89ae40	-0.26890755
220	0xbd33398c	-0.043756053
221	0xbe154394	-0.1457656
222	0x3d5dbc5f	0.054134723
223	0x3d7a94f9	0.061177228
224	0xb8b9318a	-8.830715e-05
225	0xbe8dc85c	-0.27691925
226	0x3e612f5e	0.21990725
227	0xbe8914af	-0.26773593
228	0x3da6d564	0.0814617
229	0xbdbc44d0	-0.091928124
230	0xbe0962b4	-0.13416559
231	0xbe225f84	-0.15856749
232	0x3dbd0ea2	0.092313066
233	0x3e7a3f17	0.2443813
234	0x3ae25d80	0.0017270297
235	0x3e05134e	0.12995645
236	0x3e8673c7	0.26260206
237	0xbe680593	-0.22658376
238	0xbd2225b2	-0.03958673
239	0x3e23f326	0.16010723
240	0x3e372a43	0.17887215
241	0xbdc5c095	-0.09655873
242	0xbe0e18bb	-0.13876621
243	0x3e9361d3	0.2878557
244	0xbe14c633	-0.14528732
245	0xbe4999cc	-0.19687575
246	0x3e89202f	0.26782367
247	0x3c5929f5	0.013254632
248	0xbe6f3052	-0.23358276
249	0x3e84dae7	0.2594826
250	0xbe5c6246	-0.21521863
251	0xbe00accd	-0.12565918
252	0x3d997b02	0.07494165
253	0xbd3409db	-0.04395471
254	0xbe4e8299	-0.20167007
255	0x3dcdf3e6	0.100562856

b f4 [32]
0	0x3bc54496	0.006020139
1	0x3c310289	0.010803827
2	0xbc4f151b	-0.012639309
3	0x3bbcfa2a	0.0057671266
4	0x3a049dd7	0.00050589204
5	0xbbe0b3b9	-0.006857362
6	0xbbdc1995	-0.006716917
7	0x3cb7aa04	0.022419937
8	0x3c012cc5	0.007884209
9	0x3c5725fd	0.013131616
10	0x3b6a7890	0.0035777427
11	0x3b388a5b	0.0028158638
12	0xbb82b7bf	-0.0039891894
13	0x3c64a6ac	0.013955753
14	0xbbb548dc	-0.005532367
15	0x3c8eb82f	0.01742181
16	0x3cca7b3a	0.024716962
17	0xbba94c1d	-0.005166544
18	0xbb5e588f	-0.0033927297
19	0xbb89951d	-0.004198684
20	0xbc63d5a6	-0.013905918
21	0xbb014f03	-0.0019730933
22	0xbc945c09	-0.018110292
23	0x3c3e5fa3	0.011619481
24	0x3c70e635	0.014703323
25	0x3c0867ba	0.008325512
26	0xbb5aedae	-0.0033405828
27	0xbc085f2e	-0.008323474
28	0xbc6adc74	-0.014334787
29	0x3c81d50a	0.015848655
30	0xbbc93c95	-0.006141255
31	0x3ca3d4a9	0.019998865

W f4 [32, 32]
0	0xbe71242c	-0.23548955
1	0xbd94002e	-0.07226597
2	0xbe5fb811	-0.2184756
3	0x3e1c160f	0.1524279
4	0xbe032b35	-0.12809451
5	0x3ca03672	0.019557212
6	0xbd12ca37	-0.03583738
7	0x3c867dc2	0.016417388
8	0xbe2723e3	-0.16322283
9	0xbe302c82	-0.17204478
10	0xbd8038c2	-0.06260826
11	0x3e95621f	0.29176423
12	0x3daf6659	0.08564443
13	0x3d687c74	0.056759313
14	0x3cce23a3	0.025163477
15	0xbd4b5854	-0.049644783
16	0x3dd2580a	0.10270698
17	0x3e6380ed	0.2221715
18	0xbda58873	-0.08082666
19	0xbe9226c8	-0.28545213
20	0xbe8f6317	-0.28005287
21	0x3e0ffc2f	0.14061044
22	0xbcd9e814	-0.026599921
23	0xbdf53a69	-0.119740315
24	0xbdff719b	-0.124728404
25	0xbddce72b	-0.10786279
26	0xbe1aa0c5	-0.15100391
27	0x3e730a52	0.23734406
28	0xbe6c7499	-0.23091353
29	0x3d5caf16	0.053877912
30	0x3e5a6296	0.2132667
31	0xbe567210	-0.20941949
32	0x3e48aeda	0.1959795
33	0x3e642eb2	0.22283438
34	0x3e4a2f9e	0.19744727
35	0xbe81e654	-0.2537104
36	0x3e401f18	0.18761861
37	0xbd4e2968	-0.050332457
38	0x3b889ce6	0.0041690944
39	0x3dda2360	0.106512785
40	0x3e962c65	0.29330745
41	0xbda67d60	-0.08129382
42	0x3e0d0215	0.13770325
43	0x3e9f3a2d	0.31099072
44	0x3e5fa305	0.21839531
45	0x3dd85f69	0.10565073
46	0x3e8b6611	0.27226308
47	0x3e9b7eec	0.3037027
48	0x3e215be0	0.15757704
49	0x3da2da0b	0.07951745
50	0x3e20867b	0.156763
51	0xbe5da1d3	-0.21643762
52	0xbe81617d	-0.2526969
53	0x3d7ae079	0.06124923
54	0x3df77bb9	0.12084145
55	0x3e641bc0	0.22276211
56	0xbe345361	-0.17609932
57	0x3d93cf04	0.072172195
58	0xbc827310	-0.015924007
59	0xbe6bdaae	-0.23032638
60	0x3dd62f16	0.104582
61	0xbd85c4a0	-0.06531644
62	0xbdfd29c9	-0.123614855
63	0xbe1dec8f	-0.15422271
64	0x3e43fc4c	0.19139212
65	0xbdef8384	-0.116950065
66	0x3e78ddd6	0.24303374
67	0x3dd36743	0.1032243
68	0x3d138d1c	0.036023244
69	0x3e148941	0.14505483
70	0x3e0be197	0.13660274
71	0xbe1c06ab	-0.15236919
72	0xbe84424e	-0.25831836
73	0xbd8cd32a	-0.06876214
74	0x3e6a3b88	0.22874272
75	0x3e69792f	0.22800134
76	0x3db471f7	0.088107996
77	0x3e98c03b	0.2983416
78	0xbe80ab2c	-0.25130594
79	0x3e84a392	0.25906044
80	0x3e48504d	0.19561882
81	0x3e804e7b	0.25059876
82	0x3c352039	0.011055046
83	0x3e2b5830	0.1673286
84	0x3dc2df71	0.09515274
85	0xbe79665c	-0.24355453
86	0xbe86a4a6	-0.26297492
87	0x3e8accf4	0.27109492
88	0x3e81fbe2	0.25387484
89	0xbe0de95c	-0.13858551
90	0x3e4126af	0.18862413
91	0xbe46dae8	-0.19419444
92	0xbe8e1646	-0.27751368
93	0xbd41713f	-0.04722714
94	0xbe9d8cfd	-0.30771628
95	0x3d69f599	0.057118986
96	0xbdbac08f	-0.09118759
97	0xbcb80871	-0.022464963
98	0xbd7507d1	-0.059821907
99	0x3e4350d7	0.19073807
100	0x3d59767e	0.05309152
101	0x3e6a04f7	0.22853456
102	0xbd2fdf93	-0.042937826
103	0xbe4be81b	-0.1991276
104	0xbe8f3b01	-0.27974704
105	0x3dcc4288	0.09973627
106	0xbde36df4	-0.11104956
107	0x3e910ac6	0.28328532
108	0x3e05c52a	0.13063493
109	0xbe5b7544	-0.21431452
110	0x3dfbac3a	0.12288709
111	0x3c7b4cf9	0.015338176
112	0xbe6d546a	-0.23176733
113	0xbca19533	-0.019724464
114	0xbe891585	-0.2677423
115	0x3db0f95e	0.08641313
116	0x3e818364	0.25295556
117	0xbe41099a	-0.18851319
118	0xbe3fb0fa	-0.18719855
119	0x3c9e153a	0.019297231
120	0xbe6c9b29	-0.23106064
121	0x3e2ef25a	0.17084637
122	0xbbe2322e	-0.0069029545
123	0xbe51fbe7	-0.2050625
124	0x3e70203b	0.23449795
125	0xbe5d328e	-0.21601316
126	0xbe348026	-0.1762701
127	0xbe8788ae	-0.26471466
128	0x3e4f9798	0.20272672
129	0x3cf18800	0.029483795
130	0xbde8e2e0	-0.11371398
131	0x3e6dcacd	0.23221894
132	0xbe82e8e4	-0.25568306
133	0xbe57e3da	-0.21083012
134	0x3c3ed587	0.011647589
135	0x3e05d77d	0.13070484
136	0x3e1f3bc4	0.15550143
137	0xbe36ff8f	-0.17870925
138	0x3e1fe149	0.15613283
139	0x3d5b1292	0.053484507
140	0x3e90690d	0.28205147
141	0x3e7358b1	0.23764302
142	0xbc2c216d	-0.010506016
143	0x3d751612	0.0598355
144	0x3c89aac8	0.016805068
145	0x3d9ad634	0.07560387
146	0x3e78e657	0.24306618
147	0xbe7528b4	-0.23941308
148	0x3e93f93c	0.28901088
149	0x3e067b2a	0.13132921
150	0xbd1a3e09	-0.037656818
151	0xbe6c4a19	-0.23075141
152	0xbe33aac7	-0.17545615
153	0x3d960b2e	0.07326351
154	0x3e73033d	0.23731704
155	0xbe851ee7	-0.2600014
156	0xbe72fe7c	-0.2372989
157	0x3dfa1391	0.12210763
158	0xbe8099ab	-0.2511724
159	0x3e67c62f	0.22634195
160	0xbe59d165	-0.21271284
161	0x3de67a1e	0.11253761
162	0x3e9054c8	0.28189683
163	0xbda320e2	-0.07965256
164	0xbb9fc861	-0.004876182
165	0xbdd1ca99	-0.102437206
166	0x3e673fea	0.22582975
167	0x3e52bf0c	0.20580691
168	0x3da68476	0.08130734
169	0xbdc1908f	-0.094514005
170	0x3e383881	0.17990305
171	0x3aa03d92	0.0012225381
172	0x3daebd0c	0.085321516
173	0xbe85010e	-0.25977367
174	0xbe4ead61	-0.20183326
175	0x3e8c1ee9	0.27367333
176	0x3db4311c	0.08798429
177	0x3e51a194	0.20471793
178	0xbc5ed81e	-0.013601331
179	0xbe071d4c	-0.1319477
180	0x3e33e277	0.17566858
181	0x3e8450c9	0.25842884
182	0x3e136254	0.14392978
183	0x3ddf813e	0.10913323
184	0x3e8a4136	0.27002877
185	0xbe617079	-0.22015561
186	0xbc11c1d9	-0.008896315
187	0xbe66bc9a	-0.22532883
188	0x3d84be29	0.06481583
189	0x3e367f15	0.17821915
190	0xbd7f41f0	-0.062318742
191	0x3db89882	0.090134636
192	0x3e6407d3	0.2226861
193	0x3e8fa161	0.2805281
194	0xbcc84cc5	-0.024450669
195	0x3e1aea1b	0.15128367
196	0x3e509e9d	0.20373006
197	0x3e2c1111	0.16803385
198	0xbe6d0a92	-0.23148564
199	0x3bb39077	0.005479868
200	0xbc9bf3c5	-0.019037137
201	0x3e94a1a7	0.2902958
202	0x3e977fbc	0.2958964
203	0x3e6e6ce9	0.23283733
204	0xbda68ceb	-0.08132347
205	0x3e47daef	0.1951711
206	0xbdc6bb04	-0.09703639
207	0x3e790a52	0.24320343
208	0x3e5e312a	0.21698442
209	0x3e3191d2	0.17340782
210	0xbe85f62c	-0.26164377
211	0xbe22da16	-0.15903506
212	0x39974d69	0.0002885864
213	0x3e3340fd	0.1750526
214	0x3d909efe	0.07061575
215	0xbcf4b7a0	-0.029872715
216	0xbd87585d	-0.06608651
217	0xbe894e35	-0.2681748
218	0x3e152217	0.14563785
219	0x3e889867	0.26678774
220	0x3e5c22ba	0.21497622
221	0xbe820cf5	-0.2540051
222	0xbe2b381b	-0.16720621
223	0xbe2d8e97	-0.16948925
224	0x3e8c7f99	0.274411
225	0xbe513342	-0.2042971
226	0xbe22dcd4	-0.15904552
227	0x3e20aab5	0.1569012
228	0x3e6a932a	0.22907701
229	0x3d2965ab	0.041356724
230	0xbdf97cc0	-0.12181997
231	0x3d907e7b	0.07055374
232	0x3c102f1d	0.008800295
233	0xbcd28eba	-0.025702823
234	0x3e313898	0.17306745
235	0xbe87a7a9	-0.26495102
236	0xbd992fc1	-0.074798115
237	0xbe35f305	-0.17768486
238	0xbd80d850	-0.06291258
239	0xbe99affd	-0.3001708
240	0x3d911d93	0.07085719
241	0x3e9ba24b	0.30397257
242	0x3e6b088b	0.22952478
243	0xbdb1bb84	-0.08678344
244	0x3e1945e5	0.14968069
245	0xbe5e75bf	-0.21724604
246	0x3d6baf79	0.05754039
247	0xbdc41e13	-0.09576049
248	0xbbcba444	-0.0062146503
249	0xbe997c5e	-0.29977697
250	0x3e140412	0.14454678
251	0x3e82029e	0.25392622
252	0x3d7bbe5b	0.061460834
253	0x3e00d76e	0.1258218
254	0xbe94fef9	-0.2910078
255	0x3e97d673	0.296558

b f4 [32]
0	0xbaed089c	-0.0018084231
1	0xbb8bb76e	-0.00426381
2	0x38fb446c	0.00011981357
3	0x3bb1bc47	0.0054240557
4	0xbc854970	-0.01627037
5	0x3c11a3e7	0.008889175
6	0x3c147738	0.009061627
7	0x3c19ed6a	0.009394983
8	0x3a52ca53	0.0008041013
9	0x3b56f13b	0.0032797593
10	0xbc640393	-0.013916868
11	0x3a816a23	0.000987355
12	0xbc2e0862	-0.010622116
13	0xbc124c01	-0.008929254
14	0xbb1a9bd5	-0.0023591418
15	0x3b55d75e	0.003262959
16	0xbb759667	-0.003747368
17	0x3b820f13	0.003969082
18	0x3af9196c	0.0019004769
19	0xbb272548	-0.00255044
20	0x3b441382	0.0029918854
21	0xbb2de222	-0.002653249
22	0x3bc7eb34	0.0061010364
23	0x3b6a910d	0.0035792023
24	0xbc3120e5	-0.010811065
25	0xbb4af948	-0.0030971337
26	0x3b075ecf	0.0020655876
27	0xbac7f7b3	-0.0015256315
28	0xba265600	-0.00063452125
29	0x3c02b07e	0.007976649
30	0x3c0f016c	0.008728366
31	0xbb9bbfbc	-0.004753081

W f4 [32, 32]
0	0x3dbceafc	0.09224507
1	0x3d3887ad	0.045051266
2	0x3e04d85a	0.12973157
3	0x3d7182f7	0.05896279
4	0xbd86d2ac	-0.06583151
5	0x3dabe200	0.083927155
6	0x3ca561c5	0.020188222
7	0xbe782eda	-0.24236622
8	0x3e336517	0.17519031
9	0x3ea300f1	0.31836656
10	0x3e2a0827	0.16604672
11	0x3c215fb9	0.009849482
12	0xbe0b0019	-0.13574256
13	0xbe576b4a	-0.21037021
14	0x3da10520	0.07862306
15	0xbe8206df	-0.25395867
16	0xbdce676e	-0.100783214
17	0xbe7f4ef8	-0.24932468
18	0xbd93ea19	-0.07222385
19	0x3e527d0a	0.20555511
20	0xbe2b861c	-0.16750377
21	0xbdb8c689	-0.090222426
22	0x3e6617b9	0.22469987
23	0x3e1d3504	0.15352255
24	0x3e593994	0.2121337
25	0x3cfe2178	0.031021819
26	0x3e3d900f	0.18511985
27	0xbd9fde09	-0.07806022
28	0xbe5d8d42	-0.21635917
29	0xbe9805ea	-0.29692012
30	0x3e1b092c	0.15140218
31	0xbc81276f	-0.015765874
32	0x3e058738	0.13039863
33	0x3c1eaeb3	0.009685206
34	0xbdcab93d	-0.09898613
35	0x3e1770ca	0.1478912
36	0x3e94f44a	0.29092628
37	0x3e43bb48	0.19114411
38	0x3d5f53c1	0.054523233
39	0x3e5f42c0	0.21802807
40	0xbe879e16	-0.26487797
41	0xbdda644e	-0.10663663
42	0xbd1e631c	-0.038668737
43	0xbe7e24e5	-0.24818762
44	0x3e06949b	0.13142626
45	0xbe25d16a	-0.16193166
46	0xbbab8427	-0.0052342596
47	0x3e537b3c	0.20652479
48	0x3e8e91f0	0.27845716
49	0x3de9b796	0.11411969
50	0x3d3f9d3c	0.04678081
51	0x3dca353b	0.09873434
52	0xbe444371	-0.19166352
53	0x3e84d63b	0.25944695
54	0xbe4ee2e3	-0.20203738
55	0xbc9bba05	-0.0190096
56	0xbd907b75	-0.070547976
57	0x3e9ab9c6	0.3021986
58	0x3e31c838	0.17361534
59	0x3ca5ee35	0.020255188
60	0xbd54433f	-0.051821943
61	0x3d77c678	0.06049201
62	0xbd8301c1	-0.06396819
63	0x3e5ca802	0.21548465
64	0x3e93ccf1	0.28867295
65	0x3d6a6ae5	0.05723085
66	0x3e4a9f61	0.1978736
67	0x3e865a0b	0.26240572
68	0x3e3e189b	0.18564074
69	0xbe55ec7d	-0.20890994
70	0x3dc3fbd9	0.095695205
71	0xbe41bdb5	-0.18920024
72	0xbe060c91	-0.13090731
73	0xbe34c355	-0.17652638
74	0x3e3d2b14	0.18473464
75	0xbe9afeb9	-0.30272463
76	0x3e2d8a73	0.16947345
77	0x3cfc2452	0.030779038
78	0xbe9df662	-0.30852038
79	0xbd9a0eea	-0.07522376
80	0xbe983eaa	-0.2973531
81	0x3d8b9552	0.0681559
82	0xbe9cd69e	-0.3063249
83	0x3daa35c0	0.08311033
84	0x3de7913b	0.113069974
85	0x3cd912ce	0.026498225
86	0x3dcdc2d1	0.10046924
87	0xbdb2657e	-0.08710764
88	0x3e845da5	0.25852695
89	0x3dac1b06	0.08403592
90	0x3d2f6d42	0.042828806
91	0x3e8e7770	0.278255
92	0x3c8c16d7	0.017100735
93	0xbdcf6868	-0.10127336
94	0xbe47cd38	-0.19511878
95	0x3e24b173	0.16083317
96	0x3e7c0433	0.24610977
97	0xbe9216ba	-0.28532964
98	0x3e46ae08	0.19402325
99	0xbdd574b2	-0.104226485
100	0xbdef85f6	-0.11695473
101	0xbe89a744	-0.26885426
102	0xbdda7101	-0.10666085
103	0xbd93c7bb	-0.0721583
104	0xbe5593a7	-0.20857106
105	0xbe1fbcd2	-0.15599373
106	0xbe2f834c	-0.1713993
107	0xbe5bc9cc	-0.21463698
108	0xbc597b1d	-0.013273981
109	0x3b6b9685	0.003594787
110	0xbe34f73d	-0.17672439
111	0xbe4ace06	-0.19805154
112	0xbe54d8fc	-0.20785898
113	0xbcfddb56	-0.030988377
114	0xbdecfecd	-0.11572037
115	0xbe951bc5	-0.2912275
116	0x3e2ba964	0.16763836
117	0xbe41cb55	-0.18925221
118	0xbd05e028	-0.032684475
119	0xbe88afbb	-0.26696572
120	0x3e1ad1bd	0.15119071
121	0xbd25da01	-0.040491108
122	0x3dd50fca	0.10403402
123	0x3e0ea05f	0.13928364
124	0xbe9c2e51	-0.30504087
125	0xbe2d02ab	-0.16895549
126	0x3e014f65	0.12627943
127	0xbe8addf8	-0.27122474
128	0x3e29b1ec	0.16571778
129	0x3c488f15	0.012241145
130	0x3e266f32	0.16253355
131	0x3e3c9d61	0.1841941
132	0x3dcac409	0.09900672
133	0xbcf1a0ab	-0.029495558
134	0xbce90b1c	-0.02844768
135	0xbd938f95	-0.072051205
136	0xbe1ab9ae	-0.15109894
137	0x3dbd4c22	0.09243037
138	0xbe8bff40	-0.27343178
139	0x3db296d5	0.08720175
140	0xbd9bd0ff	-0.07608222
141	0xbc0eaa35	-0.008707573
142	0xbccb2664	-0.02479858
143	0xbe4cf1a2	-0.2001405
144	0x3e425645	0.18978222
145	0xbd6e5452	-0.058185883
146	0x3d054142	0.032532938
147	0xbe89da2f	-0.26924273
148	0x3d2061fa	0.039155938
149	0x3e91f424	0.28506577
150	0x3e9eb489	0.30997112
151	0x3dbed801	0.09318543
152	0xbdd50825	-0.10401944
153	0x3d84092b	0.06447061
154	0x3db14586	0.08655839
155	0xbe6a3cc3	-0.22874741
156	0x3daeb73a	0.085310414
157	0xbe49616e	-0.19666073
158	0xbe558674	-0.20852071
159	0x3e9b1f1b	0.3029717
160	0xbddefc61	-0.10887981
161	0xbdc544c1	-0.096322544
162	0x3dca7484	0.09885505
163	0x3e28c75f	0.16482304
164	0x3e29cf08	0.16582882
165	0xbe339fa8	-0.17541373
166	0xbe41261f	-0.18862198
167	0x3e46c157	0.19409691
168	0x3e4ffcd2	0.20311287
169	0xbd910d69	-0.07082636
170	0x3d8c5228	0.068516076
171	0x3e915050	0.28381586
172	0x3e46585a	0.19369641
173	0xbe3e9340	-0.18610859
174	0xbe2d5b59	-0.16929378
175	0x3e8db5df	0.2767782
176	0xbddf7565	-0.10911063
177	0x3e8dd620	0.27702427
178	0x3e6d891f	0.23196839
179	0x3e7858c7	0.24252616
180	0x3e4054b4	0.18782312
181	0xbe836876	-0.25665635
182	0x3e99c4ea	0.30033046
183	0xbdcf3e0d	-0.10119257
184	0x3c9a158d	0.018809104
185	0x3e98d0b7	0.29846737
186	0xbd2a9b36	-0.041651927
187	0xbe0c43f1	-0.13697793
188	0x3dff45ff	0.124645226
189	0xbe554eed	-0.20830889
190	0xbdd9d4fa	-0.10636325
191	0xbdf76551	-0.120798714
192	0xbe57366a	-0.21016851
193	0x3e7233a8	0.23652518
194	0x3d8997c8	0.06718403
195	0x3d8e68f4	0.06953612
196	0x3e91929b	0.28432164
197	0xbe767783	-0.24069028
198	0xbe18f534	-0.14937288
199	0x3ca22169	0.019791322
200	0x3e8f5e9e	0.28001875
201	0x3e9a841b	0.30178913
202	0x3d915020	0.07095361
203	0x3e142f85	0.14471252
204	0xbe6f607d	-0.23376651
205	0x3e946b30	0.28988028
206	0xbe937e8d	-0.28807488
207	0xbc50077f	-0.0126971
208	0x3d4ae748	0.049536973
209	0xbd7c168a	-0.061544932
210	0x3e6e1ac8	0.23252404
211	0xbe5d29eb	-0.21598022
212	0x3c21835a	0.009857977
213	0xbe37edd6	-0.17961821
214	0x3e86c4a6	0.26321906
215	0x3e63d880	0.22250557
216	0xbbc1b279	-0.005911168
217	0x3e83a31f	0.2571039
218	0xbde37e95	-0.11108128
219	0x3e8f39d6	0.27973813
220	0xbe2d9178	-0.16950023
221	0x3e2c3904	0.16818625
222	0xbe8d0818	-0.27545238
223	0xbd814c94	-0.06313434
224	0xbda0de60	-0.07854915
225	0x3e077399	0.13227691
226	0x3c1a77c6	0.00942797
227	0xbdcdc3bc	-0.10047099
228	0x3e8ebb3f	0.27877232
229	0xbe5ffed4	-0.21874553
230	0x3e605d8e	0.21910688
231	0x3e636416	0.22206149
232	0x3d3cf67a	0.046133496
233	0x3ddc995e	0.1077144
234	0x3d089d1c	0.033352956
235	0xbddd4649	-0.108044215
236	0xbd3a4f12	-0.045485564
237	0x3e9cc25c	0.30617034
238	0x3e95c5f1	0.2925258
239	0xbcdb1343	-0.026742583
240	0x3d2013e2	0.03908146
241	0xbe314ef5	-0.17315276
242	0xbdfc967e	-0.123333916
243	0xbdc1aa30	-0.09456289
244	0xbe5821b7	-0.21106611
245	0xbc9fc6dd	-0.019504005
246	0xbe5e4fb3	-0.2171009
247	0x3d346a67	0.044046786
248	0xbca8b4ee	-0.020594086
249	0x3e79298e	0.24332258
250	0x3e0daac0	0.13834667
251	0xbe4d8618	-0.20070684
252	0xbda1ce3b	-0.079006635
253	0xbe6fb094	-0.23407203
254	0xbe6b7b92	-0.22996357
255	0x3d78970d	0.06069093

b f4 [32]
0	0x3c0f7bf8	0.008757584
1	0x3b6460fa	0.0034847842
2	0xbbfc3c75	-0.0076976367
3	0xbb1be1e3	-0.0023785762
4	0x3b2516e0	0.0025190637
5	0x3b97a56e	0.004627875
6	0x3b8bcc0a	0.0042662667
7	0x3c13fae3	0.009031984
8	0x3b4475bb	0.00299774
9	0xbc4aaefe	-0.012370823
10	0xba6b3436	-0.00089723186
11	0x3c80b9a6	0.015713524
12	0xbab8a8be	-0.0014088375
13	0x3bb424a5	0.0054975324
14	0xbbd206f7	-0.0064095217
15	0xbc070090	-0.00823988
16	0x3b0eba5e	0.0021778564
17	0x39e0a53a	0.00042847713
18	0x3b830cc8	0.0039993264
19	0xbbe65d49	-0.0070301634
20	0xbcf83485	-0.03029848
21	0xbbfd2ae9	-0.0077260626
22	0x3bf313f5	0.0074181505
23	0xbb87e3d5	-0.0041470327
24	0x3c1eae8a	0.009685168
25	0x3a4458e9	0.0007490055
26	0x3c787c6f	0.015166386
27	0xbb1dbbfa	-0.0024068342
28	0x3baa6ae7	0.005200732
29	0xbb8afc18	-0.0042414777
30	0x3c256b45	0.010096376
31	0x3931c23d	0.00016952395

W f4 [32, 32]
0	0xbe0d8ced	-0.1382329
1	0xbe6a5309	-0.22883238
2	0xbe57494c	-0.21024054
3	0xbe17acdc	-0.14812034
4	0xbd23908c	-0.039932773
5	0xbb3f99a0	-0.0029235855
6	0xbdca866a	-0.09888919
7	0x3e84f237	0.25966045
8	0xbe266981	-0.16251184
9	0xbd835405	-0.0641251
10	0xbe8fb8ff	-0.28070828
11	0xbc948406	-0.01812936
12	0x3e8d1a4f	0.27559134
13	0x3e46e263	0.19422297
14	0xbe266c16	-0.16252169
15	0x3e00dcdb	0.1258425
16	0x3d812369	0.06305582
17	0x3e8fc81a	0.28082353
18	0xbe9e5261	-0.30922225
19	0xbe737020	-0.23773241
20	0x3e9396a6	0.28825873
21	0xbe3f77af	-0.18698
22	0xbd4ff4f6	-0.050770722
23	0x3e902efe	0.28160852
24	0x3e3df55d	0.1855063
25	0xbe373b42	-0.17893699
26	0xbe582ec4	-0.2111159
27	0x3d8eb895	0.069688
28	0xbe33ab01	-0.17545702
29	0xbe353110	-0.17694497
30	0xbdb56fe2	-0.088592306
31	0xbdbefda7	-0.09325724
32	0xbe23f52d	-0.16011496
33	0xbe203f96	-0.15649256
34	0x3d52c2ca	0.051455297
35	0xbe877272	-0.26454502
36	0xbe1e0564	-0.15431744
37	0xbe6db949	-0.23215212
38	0x3e22c749	0.15896334
39	0xbd949268	-0.07254487
40	0xbd695933	-0.056969833
41	0x3c1a830c	0.009430658
42	0xbe038c1f	-0.1284642
43	0xbd8cfe79	-0.06884474
44	0x3e7ca74b	0.24673192
45	0xbdc3df90	-0.095641255
46	0xbd3015bd	-0.04298948
47	0xbe8b1b5c	-0.2716931
48	0x3e653d2e	0.2238662
49	0xbe07eadb	-0.13273184
50	0xbe0383f4	-0.12843305
51	0xbe9aa110	-0.30201006
52	0x3e06d80c	0.13168353
53	0x3e17ccce	0.1482422
54	0xbe86df2d	-0.26342145
55	0xbdd5faf3	-0.104482554
56	0x3e9e4010	0.3090825
57	0x3e81259d	0.2522401
58	0xbe3327eb	-0.17495696
59	0x3e0ff3e6	0.14057884
60	0xbe99beba	-0.30028325
61	0xbdd13d81	-0.10216809
62	0xbdfa81fc	-0.12231824
63	0xbe907fde	-0.28222555
64	0xbdb5079c	-0.08839342
65	0x3dce8725	0.100843705
66	0xbde0f950	-0.109850526
67	0x3e73520b	0.23761766
68	0xbe3f535e	-0.18684146
69	0xbc9afd65	-0.018919656
70	0x3e1acac7	0.15116416
71	0x3d6884ba	0.056767203
72	0x3e3856ce	0.18001863
73	0xbe853629	-0.26017883
74	0xbe9e1f69	-0.3088334
75	0xbdc59e8c	-0.09649381
76	0x3d1450c7	0.036209848
77	0x3e36bd53	0.17845659
78	0xbdbaa90e	-0.09114276
79	0x3e6631ce	0.22479936
80	0xbe83311a	-0.256234
81	0xba915378	-0.0011087498
82	0x3d38f4fe	0.045155518
83	0xbe0289d3	-0.12747888
84	0x3e5eb54a	0.21748844
85	0x3e8d3074	0.2757603
86	0xbd71ef17	-0.059065904
87	0x3e6bd5e6	0.23030815
88	0x3dbc7451	0.09201873
89	0x3d3cbaf7	0.04607674
90	0x3e91cc08	0.28475976
91	0xbd593fcd	-0.05303936
92	0xbe4ef2a7	-0.20209752
93	0xbdce3dc6	-0.10070376
94	0xbc3f239a	-0.011666203
95	0xbe18fc29	-0.14939941
96	0xbdef224e	-0.11676465
97	0xbe912467	-0.28348085
98	0xbdb507de	-0.08839391
99	0x3e8c6b74	0.2742573
100	0x3ea23d17	0.31687233
101	0xbe79b9b5	-0.24387248
102	0x3d157c54	0.03649552
103	0xbe5fa2d9	-0.21839465
104	0xbe105c7f	-0.14097784
105	0x3aa42a9f	0.0012524909
106	0xbd9fefa2	-0.07809378
107	0xbdbe8aa4	-0.09303787
108	0xbdd654c4	-0.104653865
109	0xbe837fc7	-0.25683424
110	0xbe8c1042	-0.27356154
111	0x3e842b30	0.258142
112	0x3c87c242	0.016572122
113	0x3e627842	0.22116187
114	0x3e1dd994	0.1541503
115	0xbe64f6f5	-0.22359832
116	0xbe8ae425	-0.27127185
117	0x3b378a50	0.0028006025
118	0x3e132704	0.14370352
119	0x3c884be3	0.016637748
120	0xbe38eb1b	-0.18058436
121	0x3dd88343	0.10571911
122	0xbe6bc3e4	-0.23023945
123	0xbbba6e2b	-0.0056894026
124	0x3d98539d	0.07437823
125	0xbdc72c29	-0.0972522
126	0x3dfe3d97	0.12414091
127	0xbce59532	-0.028025243
128	0x3e43f8c9	0.19137873
129	0x3e910e88	0.283314
130	0x3e226b2a	0.15861192
131	0x3dbebfac	0.09313902
132	0x3cc44271	0.023957463
133	0x3ced0d4d	0.028937006
134	0x3e1b7e1a	0.15184823
135	0xbcc80ddb	-0.02442067
136	0xbda94880	-0.082657814
137	0x3d3be4ae	0.045872383
138	0x3e078b92	0.13236836
139	0x3e3d0594	0.18459159
140	0xbe8fbe85	-0.28075042
141	0xbb64d066	-0.0034914254
142	0x3e3b2400	0.18275452
143	0xbea07d33	-0.3134552
144	0xbda9d136	-0.08291857
145	0xbe782d90	-0.2423613
146	0xbe80a3f3	-0.25125083
147	0xbe16ea2f	-0.14737771
148	0xbe9b25dc	-0.30302322
149	0xbd9afdea	-0.075679615
150	0xbe0b5fa0	-0.13610697
151	0x3e82f6cf	0.25578925
152	0x3e3e1647	0.18563186
153	0x3e858907	0.26081106
154	0xbe57d2d0	-0.21076512
155	0xbe5a32ea	-0.21308485
156	0x3da0539d	0.07828448
157	0x3e61fd4c	0.22069281
158	0xbe66b2b8	-0.22529113
159	0x3d99691a	0.0749075
160	0xbe60ab07	-0.21940242
161	0x3dccb25a	0.09994955
162	0x3e2b7b94	0.1674636
163	0xbdcf2855	-0.101151146
164	0x3e8a27c6	0.2698347
165	0xbe624232	-0.22095564
166	0xbcfd59a2	-0.03092653
167	0x3e2f99e0	0.17148542
168	0xbe0da1a3	-0.13831191
169	0xbe5c375b	-0.21505491
170	0xbdc68462	-0.09693219
171	0xbe9de9f0	-0.30842543
172	0x3e942637	0.28935406
173	0xbe1a7aa6	-0.15085849
174	0x3da5b2da	0.08090754
175	0xbe927712	-0.28606468
176	0xbdf92898	-0.12165946
177	0xbe6168c6	-0.22012624
178	0xbda73d96	-0.081660435
179	0x3e65f76a	0.22457662
180	0xbe6bddc3	-0.23033814
181	0x3e659e6b	0.22423713
182	0xbc63956c	-0.013890605
183	0xbe79c51a	-0.24391595
184	0x3df20daa	0.118190125
185	0xbe2b5738	-0.1673249
186	0xbccfd87e	-0.025371786
187	0x3e0f88c9	0.14017023
188	0x3e7cd923	0.24692206
189	0x3db0a5b8	0.08625358
190	0xbe8d0c2c	-0.2754835
191	0xbe35adfc	-0.17742151
192	0x3d7d09c9	0.06177691
193	0xbcf6630c	-0.030076526
194	0x3e8ad350	0.27114344
195	0xbe66f164	-0.2255302
196	0xbe3664b8	-0.17811859
197	0xbd115171	-0.03547806
198	0x3ca40d1b	0.02002578
199	0xbd443c8b	-0.0479093
200	0xbd47b576	-0.04875704
201	0x3e2978e9	0.1655003
202	0x3df34408	0.1187821
203	0xbd27e018	-0.040985197
204	0x3c832725	0.016009877
205	0x3e9a016c	0.3007921
206	0x3d130e63	0.035902392
207	0x3c86c531	0.01645145
208	0x3e8d1ee8	0.27562642
209	0x3e4a5a05	0.19760902
210	0x3e34d8b4	0.1766079
211	0xbe36feff	-0.17870711
212	0x3e718489	0.23585714
213	0x3e98aeee	0.2982096
214	0x3e9126e2	0.28349978
215	0xbe62a0e5	-0.22131689
216	0x3d6076f3	0.05480094
217	0x3e9101bc	0.28321636
218	0xbe36b31f	-0.17841767
219	0xbe83e167	-0.25757906
220	0x3e929a4e	0.2863335
221	0xbe50bf8a	-0.20385566
222	0xbe835e84	-0.25658047
223	0xbc48e0e1	-0.012260647
224	0x3e3f6710	0.18691659
225	0xbe02dbfd	-0.12779231
226	0x3e675745	0.22591884
227	0xbc075a1f	-0.008261233
228	0x3ea020a2	0.31274897
229	0xbc146317	-0.009056828
230	0x3e9ab0ca	0.30213004
231	0xbd9da7c4	-0.076980144
232	0xbdc46d5f	-0.095911734
233	0x3e8a392f	0.26996753
234	0x3e429470	0.19001937
235	0x3d8359ff	0.0641365
236	0xbe1e4694	-0.15456611
237	0xbe7f18fd	-0.24911876
238	0xbe103391	-0.14082171
239	0xbdca789d	-0.098862864
240	0xbd7c7b95	-0.061641295
241	0xbac3e6b9	-0.001494608
242	0x3d909571	0.07059754
243	0x3d860634	0.06544152
244	0xbe8cd919	-0.27509382
245	0x3e96f825	0.29486194
246	0xbe832051	-0.25610593
247	0x3e4118f5	0.18857177
248	0x3dc94865	0.09828261
249	0x3e697b22	0.22800878
250	0xbddea86e	-0.10871969
251	0xbe090e72	-0.13384417
252	0xbe2638b9	-0.16232575
253	0xbe40fa4c	-0.1884548
254	0x3d68712f	0.056748565
255	0x3e467edb	0.19384329

b f4 [32]
0	0xbb85ccad	-0.004083237
1	0xb9d67f1a	-0.0004091196
2	0xbaaeabfe	-0.0013326404
3	0xbc4271df	-0.011867969
4	0x3c1c4409	0.009537705
5	0x3a28cc32	0.0006439119
6	0x3c610a77	0.013735405
7	0xbbbbaf49	-0.0057276827
8	0x3b8278fe	0.0039817085
9	0x3c014faa	0.007892529
10	0xbc0a1842	-0.008428635
11	0xbc34cdb3	-0.011035371
12	0x3c5c7b58	0.013457142
13	0x3c08c69a	0.008348132
14	0xb87d07ac	-6.0327046e-05
15	0xbcb4ab81	-0.022054436
16	0xbc18c05d	-0.009323207
17	0xbc650721	-0.01397875
18	0xb862e2c5	-5.4093794e-05
19	0xbc0f7865	-0.008756732
20	0x3c5ef6eb	0.0136086745
21	0xbb060987	-0.0020452456
22	0xbb99eb1f	-0.004697218
23	0x3c8a72e0	0.01690048
24	0xbca2f467	-0.01989193
25	0xbaf905f6	-0.0018998969
26	0x3bf99097	0.0076161134
27	0xbc6ddfd1	-0.014518694
28	0x3b70754b	0.0036691006
29	0x3b960696	0.004578422
30	0xb9ad3805	-0.0003303887
31	0x3bc28715	0.005936513

W1 f4 [32, 128]
0	0xbe0c51f9	-0.13703145
1	0x3db23cac	0.087029785
2	0xbd07c776	-0.033149205
3	0xbdcdd686	-0.10050683
4	0xbe1cdd12	-0.15318707
5	0x3e352faf	0.17693971
6	0xbe1145dd	-0.14186807
7	0x3d408afd	0.04700755
8	0x3dfb2f01	0.12264825
9	0x3d125099	0.035721395
10	0xbcecc24d	-0.028901244
11	0xbcea449c	-0.028597169
12	0x3dbe5f77	0.09295552
13	0x3e17dcdf	0.1483035
14	0x3dbdc670	0.092663646
15	0x3d98ff86	0.07470612
16	0x3e1ec145	0.15503414
17	0x3e495eb3	0.19665031
18	0xbcf13674	-0.02944491
19	0xbd0c6601	-0.034276966
20	0xbd0544e4	-0.032536402
21	0xbe0897bd	-0.13339134
22	0xbcc09341	-0.023507716
23	0x3db1e66b	0.08686527
24	0x3da64617	0.08118837
25	0xbe161b65	-0.14658888
26	0xbe335492	-0.1751273
27	0x3c09834f	0.008393123
28	0x3dab2da6	0.08358316
29	0x3d30f4ea	0.04320232
30	0xbe01fdae	-0.12694427
31	0xbd4db00a	-0.050216712
32	0xbe08d8d3	-0.13363962
33	0xbdada0d9	-0.08477945
34	0x3d428bcf	0.047496613
35	0x3d0e835f	0.034793254
36	0x3dae15bc	0.08500239
37	0xbe4368ba	-0.19082919
38	0xbe0bf11c	-0.13666195
39	0xbcaf542d	-0.021402443
40	0x3d518b09	0.051157985
41	0xbe13936e	-0.14411709
42	0xbd2c2fb7	-0.042037692
43	0xbcc0193d	-0.023449535
44	0x3d38c5be	0.045110457
45	0xbe1446c9	-0.14480127
46	0xbe1dd4bc	-0.15413183
47	0xbe4416ec	-0.19149369
48	0x3dd1ed58	0.10250348
49	0x3cc58794	0.0241125
50	0xbe1ac92f	-0.15115808
51	0xbc793ef6	-0.015212765
52	0xbe45de94	-0.19323188
53	0x3dd8cf16	0.105863735
54	0xbd81f26d	-0.06345067
55	0xbe3687a3	-0.17825179
56	0xbe12b99e	-0.1432862
57	0xbe0bdb6c	-0.13657922
58	0xbe076b55	-0.13224538
59	0x3df31840	0.1186986
60	0xbe086268	-0.13318789
61	0xbe1fe256	-0.15613684
62	0xbd6c71c4	-0.057725683
63	0xbe400e1f	-0.18755387
64	0x3dd0d2e8	0.10196477
65	0xbe11e6c4	-0.14248186
66	0x3caab5cf	0.020838646
67	0x3e1679d2	0.14694908
68	0xbe279ae6	-0.16367683
69	0x3e44c545	0.19215877
70	0xbc7d7976	-0.015470853
71	0xbdd6a4f2	-0.104806796
72	0xbde856e5	-0.11344699
73	0xbe307b97	-0.17234646
74	0x3d86252c	0.06550059
75	0x3e2f0571	0.1709192
76	0xbcc0e414	-0.023546256
77	0x3da2f008	0.079559386
78	0x3e0ecdfc	0.13945764
79	0xbe38138e	-0.1797621
80	0xbdf40289	-0.11914546
81	0x3b9f6124	0.004863875
82	0x3dc14700	0.0943737
83	0xbd207a0d	-0.039178897
84	0xbcf34fb8	-0.029701099
85	0xbdd0b1ee	-0.101901874
86	0xbe23da7c	-0.16001314
87	0x3dcaf8f9	0.09910769
88	0xbcb6796e	-0.022274699
89	0xbe2fe972	-0.17178896
90	0x3dabc846	0.083878085
91	0xbd81a89a	-0.06330986
92	0xbdd7b23d	-0.10532043
93	0x3df9c226	0.12195234
94	0x3cae8dfa	0.021307934
95	0xbbf25dae	-0.0073964214
96	0xbd0ccaa4	-0.03437294
97	0x3e1a918d	0.15094586
98	0x3dda8eb3	0.10671749
99	0xbe41a28b	-0.18909661
100	0xbe151dfb	-0.14562218
101	0x3d4aa7aa	0.049476303
102	0xbe3fb5bd	-0.18721671
103	0xbc2fc3ff	-0.010727881
104	0x3d9a2bb8	0.0752787
105	0xbdd8e83a	-0.10591169
106	0x3e29ac69	0.16569676
107	0x3e148fad	0.14507933
108	0x3bf0c5bd	0.007347791
109	0xbe101dcd	-0.14073868
110	0x3cdfcf5a	0.027320553
111	0xbdb2bbb7	-0.0872721
112	0xbe331659	-0.17488994
113	0xbdf61ddb	-0.12017413
114	0x3d8103f7	0.06299584
115	0xbcbb15db	-0.02283757
116	0x3e13ed1f	0.14445923
117	0x3cd098ff	0.02546358
118	0xbe181127	-0.14850293
119	0x3dbd0ad3	0.0923058
120	0xbde182f9	-0.11011309
121	0xbdf8f2d0	-0.12155688
122	0x3e161624	0.14656883
123	0xbd2cd833	-0.04219837
124	0xbdaf1280	-0.085484505
125	0xbd9f871a	-0.077894405
126	0x3dbb5997	0.09147947
127	0x3d9b0dd6	0.07570998
128	0xbd48a148	-0.048981935
129	0xbe09ce56	-0.13457617
130	0x3dae92cd	0.08524094
131	0xbc89600b	-0.01676943
132	0xbe42c7f6	-0.19021592
133	0x3dfb3770	0.12266433
134	0x3d8da53b	0.06916281
135	0xbdb0bd17	-0.08629816
136	0xbc6753aa	-0.014119068
137	0x3c6aadbc	0.014323648
138	0x3e2e8b7e	0.170454
139	0xbb1863b4	-0.0023252787
140	0x3e232e83	0.15935712
141	0xbe021e48	-0.12706864
142	0x3c1b4e5c	0.009479132
143	0xbaecdc32	-0.0018070994
144	0x3d61c0be	0.055115454
145	0xbd8e625a	-0.06952353
146	0xbdca1845	-0.0986791
147	0xbdd78cbc	-0.1052489
148	0x3d2f520a	0.042802848
149	0x3e465067	0.19366609
150	0xbe26319b	-0.1622986
151	0xbe10219b	-0.1407532
152	0xbca70beb	-0.020391425
153	0xbd143724	-0.0361854
154	0x3de41ccb	0.11138304
155	0x3e4eedce	0.20207903
156	0xbdaea946	-0.0852838
157	0xbcb4c5f6	-0.022067051
158	0xbd714b75	-0.058909852
159	0xbde841a2	-0.113406435
160	0x3e004732	0.12527159
161	0x3e2add84	0.16686064
162	0xbe0c0fed	-0.1367795
163	0x3d86c281	0.065800674
164	0x3e31026f	0.17286085
165	0xbdaf4b70	-0.085593104
166	0x3da737c6	0.08164935
167	0x3e1b8ed3	0.15191202
168	0xbb9c0f79	-0.0047625867
169	0xbdad6f0d	-0.08468447
170	0xbe27c6a1	-0.16384365
171	0xbd96ccd8	-0.073632896
172	0x3dc48afc	0.09596822
173	0xbe15b192	-0.14618519
174	0xbe07452e	-0.13209984
175	0xbe467a06	-0.19382486
176	0x3be0ebe4	0.006864058
177	0xbe14fdb2	-0.14549902
178	0x3e39f577	0.18160044
179	0xbd0b5795	-0.03401907
180	0x3c7e051b	0.015504147
181	0xbd098a0a	-0.03357891
182	0xbe0e681b	-0.139069
183	0x3d2dd5fa	0.042440392
184	0xbdc4ccdf	-0.096093886
185	0xbcd1769a	-0.025569249
186	0x3c7f428a	0.015579829
187	0x3e437c77	0.19090448
188	0x3e1c0a7c	0.15238374
189	0x3c615df0	0.013755307
190	0xbc23c669	-0.009996035
191	0xbc03c44e	-0.008042408
192	0xbde36a41	-0.11104251
193	0xbd01ebb6	-0.031718932
194	0x3e0f23c7	0.13978492
195	0x3e18903d	0.14898773
196	0xbd960ef4	-0.07327071
197	0xbd2358a0	-0.03987944
198	0x3d8fb9ff	0.07017898
199	0x3de0da9e	0.10979198
200	0xbc97fe0c	-0.018553756
201	0x3ab4a0a6	0.0013780787
202	0x3bc3aa75	0.005971248
203	0x3e249181	0.1607113
204	0x3d90198c	0.07036123
205	0x3e16b507	0.14717494
206	0xbe248061	-0.16064598
207	0x3d9f1b22	0.07768847
208	0xbe29b4e5	-0.16572912
209	0x3d1702f8	0.036868066
210	0x3df3ea67	0.11909943
211	0xbdc666aa	-0.0968755
212	0x3e020e82	0.12700847
213	0x3d745f1d	0.05966102
214	0xbd9954a1	-0.07486845
215	0xbdf419c4	-0.11918977
216	0xbdc96764	-0.09834173
217	0xbdcf2d56	-0.10116069
218	0xbe1d56d1	-0.15365149
219	0x3e22a44d	0.15882988
220	0x3dee8406	0.11646275
221	0xbe09df9f	-0.13464211
222	0x3cabfa97	0.020993514
223	0xbd559f4a	-0.052153863
224	0x3e467fa4	0.19384629
225	0xbe0b7fca	-0.13622966
226	0x3e179e41	0.14806463
227	0xbddfa789	-0.10920627
228	0xbe176c0c	-0.1478731
229	0xbcc72e09	-0.024313943
230	0x3deb11e6	0.11478023
231	0x3d8fac3a	0.070152715
232	0xbd79a66a	-0.06094972
233	0xbda09b2c	-0.07842097
234	0x3dd99999	0.106249996
235	0xbd001122	-0.03126634
236	0xbd9f234e	-0.07770406
237	0xbe3c8b96	-0.18412623
238	0xbd89745f	-0.06711649
239	0x3de78de0	0.113063574
240	0x3e00412e	0.12524864
241	0xbc74f48e	-0.0149508845
242	0xbdc67458	-0.096901596
243	0x3db3293a	0.08748098
244	0xbe396eaf	-0.18108629
245	0x3d91a9e3	0.071124814
246	0x3e3116ee	0.17293903
247	0x3df4e8c9	0.11958463
248	0x3dfb32b6	0.12265532
249	0x3d59d58f	0.05318218
250	0x3e09b153	0.1344655
251	0xbd8d3165	-0.06894187
252	0x3d0ef47c	0.034901127
253	0xbc7379c3	-0.014860573
254	0x3e3998bb	0.18124668
255	0x3d6eeb13	0.058329653
