saved_models/model-epoch-99.pth (torch, 249162 bytes, 52 tensors)

embeddings f4 [99, 32]
00000000: b8e9 8e3d 4428 10be 7c91 ffbd 2372 b33d
00000010: 17c9 76bd 6aff 903d af4f 6d3d 6e2e 10be
00000020: ee82 e4bd 73a2 16bd 285f 1bbd 34d3 1bbe
00000030: 377f 403e 120f 7fbd 1dab 3fbe 6537 0abc
00000040: 261a 56bd 2f03 b8bd 6e12 c0bc 73b8 1f3d
00000050: 479b 1b3e b0fa 1e3e 0288 ec3d 5206 26bc
00000060: 8120 14be 9b73 393e 78b1 373e 5e57 c0bd
00000070: 89ef 19bd 4fc2 1a3e 4cb8 0dbe e259 423e
00000080: c9b1 a33d e73a e5bd 48f2 2abe 19b3 a5bd
00000090: 2912 44bd 0dd4 2b3e f609 01bd 411c 0ebe
000000a0: ab99 a8bd 8307 44bd 587e c4bc 8d97 723c
000000b0: 0512 6f3d 0380 a8bc c956 503e 70bf ec3d
000000c0: 11ca 393e daa5 0f3e c377 213e cb92 483e
000000d0: 7d27 54be 55da 5abd 09a6 353e 76e3 cabd
000000e0: 48da 55be b938 013d 2bfb 403e c86c a4bd
000000f0: 9bcb 58be 4437 a33d 7cb0 eebd de4c 83bc
00000100: c3be dd3d 25fa 92bd fcb5 483d 8ecc 1fbe
00000110: f156 1e3e 1b96 103e 5661 153e 0612 67bd
00000120: fff6 57be 2e69 4dbe 1643 633d dae6 9a3d
00000130: 6ae8 063e 9f82 283e 773a bb3d 37ac 313e
00000140: 9e2b 81bd b575 523e 1a48 8f38 2241 46be
00000150: 00be 223e 5815 00bd 58e4 4ebe 255e ea3d
00000160: eedd 3e3e 9940 0f3e 1530 3f3e 2926 3e3e
00000170: 70f6 11bc 5a3a 8dbd f5fb 603d a719 1bbd
00000180: f8b4 2b3c 580c 003e e702 79bd 8288 e13d
00000190: c5cc 5a3e fdf0 3fbe 6b51 38be 84b9 48bd
000001a0: 5f7e bcbd c3bc 363e d548 38be 4330 343e
000001b0: de6a e53d 531a 52be 3019 323e 6688 e9bd
000001c0: 1137 40be 1c8f 6f3d 8bb7 babd d9af 213e
000001d0: 2f98 e13d 855a 0dbe 94a2 ffbb f4b2 1ebe
000001e0: e18c 0dbc 619e 7dba 7296 a73d f944 89bd
000001f0: 120e 9fbd 820f 303e 78cc 46be 519a 5abe
00000200: 8df7 edbd ada0 283e a124 073e 23c8 46be
00000210: 0c39 81bd 43d8 523e e1d1 57be b44f fbbc
00000220: 1dbd 493e 1cda ea3c 6dab 503e b483 ec3d
00000230: 87a2 3cbe d37c 573e 785c 363e 9c9d 11be
00000240: 3e76 b83d bf14 d4bd fc9c 2dbe 9b82 b2bc
00000250: 105f 523b 26de 11be e0d5 20be 64f5 40bc
00000260: dc69 6a3c 6b16 363e b97e 523e 887b 2dbc
00000270: db71 f6bd dc92 2d3e 68e6 c23d 1dd4 37be
00000280: faf3 d3bc 29b0 15be ddf2 1d3e 0697 20bd
00000290: 1582 b5bd bcfd c03c 320e 31be 0b25 ad3d
000002a0: 096d 253e 38d8 3ebe 4dff 7bbd cefe be3d
000002b0: fb32 903d 4087 a53d 21fc 033e 8a33 2fbc
000002c0: 8997 b3bd a120 46bd 7e5c 1cbd 5f70 b33c
000002d0: 11bd b73d cf37 2cbe 0ef0 983c 5372 53be
000002e0: 55bf ea3d 72f3 483e 6c84 16be e536 543e
000002f0: 0660 f93d 200b c0bd 0cf5 34be f33b f83d
00000300: b5ac 383e b1dc d0bd d108 11be a91a 50bb
00000310: df56 fdbd 3e9d e3bd 4acc 1a3e a63e 1f3e
00000320: 597d b5bd f60c 383e 5272 813d 7d0f bebd
00000330: 0872 d4bc e90f e5bd 3dff 32be fcff 80bd
00000340: 2e2c 39bd cd00 40be 3b0a 9ebd b431 9dbc
00000350: fd68 563e 94ef 903d a9c4 c53d 2b9e 3bbd
00000360: b4af babd 8acc 80bc 221e 013d 5395 253e
00000370: 1abe 4dbe c646 16be 818c 31be 7420 4d3e
00000380: 23b2 3e3e 91e1 f83d 9191 22be a05a b1bc
00000390: 9c5b 813d e923 233e 0bcb babb fc84 303e
000003a0: a5dc 3e3d 9640 a8bd 9417 bdbd afea 2b3e
000003b0: 3ebe 3ebe 59d5 8f3c 4a74 3b3e e3df d1bd
000003c0: 33aa cd3d 9490 f5bd a11d 343e 570d efbd
000003d0: 57fe 1bbe cefa 04be 39fa 18be fe9d fa3d
000003e0: 0de7 a3bd d9db 533d 59a5 a33d 3ef4 993d
000003f0: 303a 103e ee67 39be 0723 c5bc d8c3 473e
0.06978172 -0.1407786 -0.12478921 0.08762004 -0.060250368 0.07079966 0.05793732 -0.14080212
-0.11157785 -0.036776017 -0.037932545 -0.15217286 0.18798529 -0.06227023 -0.18717618 -0.008436059
-0.05227103 -0.08984982 -0.023446288 0.038994264 0.15195952 0.15525317 0.11549379 -0.010133343
-0.14465524 0.18110506 0.17938793 -0.09391664 -0.037581954 0.15113185 -0.13839835 0.189796
0.07992894 -0.11192875 -0.16693985 -0.08090801 -0.04786888 0.1678011 -0.03150364 -0.13877966
-0.08232435 -0.047858726 -0.023986027 0.01480664 0.058366794 -0.020568853 0.20345606 0.11559951
0.18143488 0.14028111 0.15768342 0.19587247 -0.20718189 -0.053430874 0.17739119 -0.09906666
-0.20884049 0.031548236 0.18845813 -0.08028561 -0.2117142 0.079695255 -0.116547555 -0.016027864
0.108274005 -0.071766175 0.04900168 -0.15605375 0.15462853 0.1411976 0.14587912 -0.056413673
-0.21090315 -0.20059654 0.0554839 0.07563563 0.13174596 0.16456078 0.09142011 0.17350851
-0.063071474 0.20552714 6.832201e-05 -0.19360784 0.15892792 -0.031270355 -0.20204294 0.11443738
0.18639347 0.13989486 0.18670686 0.18569244 -0.008908853 -0.06895895 0.054927785 -0.03786626
0.010480158 0.12504709 -0.060793784 0.11012365 0.21367176 -0.18744273 -0.17999808 -0.049005046
-0.09203791 0.17845444 -0.17996533 0.17596535 0.11202024 -0.20517854 0.17392421 -0.11402969
-0.18771006 0.05848609 -0.09117039 0.15789737 0.11015355 -0.13804062 -0.0078013632 -0.15497953
-0.008639545 -0.00096747844 0.08182992 -0.067026086 -0.077663556 0.17193416 -0.19413936 -0.2134793
-0.11619482 0.16467543 0.13197567 -0.19412284 -0.06309709 0.2059031 -0.21076156 -0.030677654
0.19701047 0.028668456 0.20377894 0.11548558 -0.18421374 0.2104371 0.17808712 -0.1422028
0.09006928 -0.103555195 -0.16954416 -0.021790793 0.0032100119 -0.14244899 -0.15706587 -0.011777256
0.014307465 0.1778199 0.20556153 -0.010588534 -0.12033435 0.16950554 0.09516603 -0.17952009
-0.025873173 -0.14617981 0.15424676 -0.039206527 -0.08862702 0.02355849 -0.17290571 0.08454331
0.16154875 -0.18637168 -0.06152277 0.09325944 0.07040974 0.080824375 0.12889148 -0.01069344
-0.087691374 -0.04837096 -0.038174145 0.021904169 0.089716084 -0.16818164 0.018669154 -0.2064908
0.11462275 0.19624117 -0.14698952 0.20724066 0.12176518 -0.09377122 -0.17671603 0.121208094
0.18034633 -0.101983435 -0.1416352 -0.0031754172 -0.12370085 -0.11113976 0.15116993 0.15551242
-0.08861799 0.17973694 0.06320633 -0.09280298 -0.02593328 -0.11184675 -0.17480178 -0.06298825
-0.04520815 -0.18750305 -0.07716795 -0.01918874 0.20938487 0.07076946 0.096566506 -0.045805138
-0.09115544 -0.015722532 0.031522878 0.16170244 -0.20092049 -0.14675435 -0.17338754 0.20031911
0.18622641 0.121523984 -0.15875842 -0.021649659 0.06316301 0.15931667 -0.005700474 0.1723823
0.04659714 -0.08215444 -0.09233013 0.16788743 -0.18627259 0.017557787 0.1830608 -0.10247781
0.100422285 -0.11990467 0.17589428 -0.11672466 -0.15233742 -0.129863 -0.14939202 0.12237166
-0.08003054 0.051723335 0.07990522 0.075172886 0.14084697 -0.18106052 -0.024064554 0.19508302

_pos_embeds f4 [64, 32]
00000000: 0000 0000 0000 803f 0000 0000 0000 803f
00000010: 0000 0000 0000 803f 0000 0000 0000 803f
00000020: 0000 0000 0000 803f 0000 0000 0000 803f
00000030: 0000 0000 0000 803f 0000 0000 0000 803f
00000040: 0000 0000 0000 803f 0000 0000 0000 803f
00000050: 0000 0000 0000 803f 0000 0000 0000 803f
00000060: 0000 0000 0000 803f 0000 0000 0000 803f
00000070: 0000 0000 0000 803f 0000 0000 0000 803f
00000080: a46a 573f 4051 0a3f ba7d 083f 0e94 583f
00000090: 3e39 9f3e 6a4e 733f 3a23 353e 83f6 7b3f
000000a0: 7675 cc3d 98b8 7e3f b036 663d 6898 7f3f
000000b0: 5c81 013d 3cdf 7f3f 42ab 913c a3f5 7f3f
000000c0: 57d6 233c b9fc 7f3f 5c44 b83b f7fe 7f3f
000000d0: 203e 4f3b acff 7f3f 2015 e93a e5ff 7f3f
000000e0: 6d12 833a f8ff 7f3f 166a 133a fdff 7f3f
000000f0: 5fcb a539 ffff 7f3f 5377 3a39 0000 803f
00000100: b7c7 683f 3311 d5be 0af2 663f b2e8 dc3e
00000110: 1b54 173f ec7b 4e3f f647 b23e a5fa 6f3f
00000120: f96f 4b3e a5e5 7a3f 88d9 e53d f361 7e3f
00000130: c870 813d f97c 7f3f 5ca5 113d 8ed6 7f3f
00000140: 3ed4 a33c e5f2 7f3f 9d43 383c dbfb 7f3f
00000150: dd3d cf3b b0fe 7f3f 0815 693b 96ff 7f3f
00000160: 6912 033b deff 7f3f 146a 933a f5ff 7f3f
00000170: 5fcb 253a fdff 7f3f 5377 ba39 ffff 7f3f
00000180: c381 103e 2670 7dbf d745 7e3f a87f edbd
00000190: c209 503f 572f 153f 6d2f 023f 296d 5c3f
000001a0: 6d4e 973e ef90 743f d8ee 2b3e 9e5d 7c3f
000001b0: c1ff c13d 4fd9 7e3f 4d69 5a3d c3a2 7f3f
000001c0: 20b9 f53c 83e2 7f3f c731 8a3c adf6 7f3f
000001d0: 116e 1b3c 0dfd 7f3f a8cf ae3b 11ff 7f3f
000001e0: 939b 443b b5ff 7f3f 1b1f dd3a e8ff 7f3f
000001f0: 0db1 783a f8ff 7f3f 7ed9 0b3a feff 7f3f
00000200: cfbd 41bf 3055 27bf ed49 473f 9daf 20bf
00000210: de1d 743f b12e 9a3e bc1f 273f edeb 413f
00000220: d761 c73e a7ca 6b3f c665 643e 098d 793f
00000230: 882e 013e 69f4 7d3f c88d 913d 475a 7f3f
00000240: dbcb 233d 94cb 7f3f a240 b83c 6cef 7f3f
00000250: cd3c 4f3c c2fa 7f3f a714 e93b 58fe 7f3f
00000260: 5812 833b 7aff 7f3f 0e6a 133b d6ff 7f3f
00000270: 5ccb a53a f3ff 7f3f 5277 3a3a fcff 7f3f
00000280: 107c 75bf 2c3c 913e d6da a53e 4032 72bf
00000290: 7ffc 7f3f d472 29bc abca 463f f14c 213f
000002a0: 4477 f53e 40a9 603f ee11 8e3e 7cf2 753f
000002b0: 1e3c 213e 81ce 7c3f 21db b53d 1efd 7e3f
000002c0: f5b6 4c3d 19ae 7f3f fe4d e63c 19e6 7f3f
000002d0: 8185 813c cff7 7f3f bbac 113c 69fd 7f3f
000002e0: ded6 a33b 2eff 7f3f 8c44 383b beff 7f3f
000002f0: 313e cf3a ebff 7f3f 2615 693a f9ff 7f3f
00000300: 8c0f 8fbe b8cd 753f 74e5 6bbe 531d 79bf
00000310: 4d78 723f 6f3f a4be 8930 603f 342f f73e
00000320: 698c 103f 3249 533f fd7d a93e e290 713f
00000330: 6f20 413e e367 7b3f c119 da3d 518b 7e3f
00000340: d19c 753d 128a 7f3f bf2c 0a3d b3da 7f3f
00000350: 466c 9b3c 34f4 7f3f 04cf 2e3c 45fc 7f3f
00000360: 599b c43b d2fe 7f3f 061f 5d3b a1ff 7f3f
00000370: 05b1 f83a e2ff 7f3f 7dd9 8b3a f6ff 7f3f
00000380: 4630 283f bdff 403f 6eb6 36bf 604f 33bf
00000390: 6fe8 4c3f bb74 19bf 4484 723f b9f8 a33e
000003a0: 73eb 243f b3cc 433f df60 c43e c56b 6c3f
000003b0: 50d3 603e eac0 793f ba46 fe3d e904 7e3f
000003c0: 323e 8f3d 815f 7f3f 6031 213d 3bcd 7f3f
000003d0: a652 b53c f2ef 7f3f 2af1 4b3c ecfa 7f3f
000003e0: c75f e53b 65fe 7f3f befc 803b 7eff 7f3f
000003f0: ec11 113b d7ff 7f3f 6628 a33a f3ff 7f3f
0.0 1.0 0.0 1.0 0.0 1.0 0.0 1.0
0.0 1.0 0.0 1.0 0.0 1.0 0.0 1.0
0.0 1.0 0.0 1.0 0.0 1.0 0.0 1.0
0.0 1.0 0.0 1.0 0.0 1.0 0.0 1.0
0.84147096 0.5403023 0.53316844 0.84600914 0.3109836 0.95041525 0.17689219 0.9842302
0.099833414 0.9950042 0.056204498 0.9984193 0.031617507 0.99950004 0.017781857 0.99984187
0.009999833 0.99995 0.0056233834 0.9999842 0.0031622723 0.999995 0.0017782785 0.9999984
0.0009999998 0.9999995 0.0005623413 0.9999998 0.00031622776 0.99999994 0.00017782794 1.0
0.9092974 -0.41614684 0.9021307 0.43146282 0.5911271 0.8065784 0.34820527 0.9374183
0.19866933 0.9800666 0.112231314 0.9936821 0.063203394 0.9980007 0.03555809 0.9993676
0.019998666 0.9998 0.011246589 0.99993676 0.0063245133 0.99998 0.0035565514 0.9999937
0.0019999987 0.999998 0.0011246824 0.99999934 0.0006324555 0.9999998 0.00035565588 0.99999994
0.14112 -0.9899925 0.9932532 -0.11596614 0.8126489 0.5827536 0.50853616 0.86104065
0.29552022 0.9553365 0.1679033 0.9858035 0.09472609 0.99550337 0.05332308 0.9985773
0.029995501 0.99955004 0.016869439 0.9998577 0.009486691 0.999955 0.005334813 0.99998575
0.0029999956 0.9999955 0.0016870232 0.99999857 0.0009486832 0.9999995 0.0005334838 0.9999999
-0.7568025 -0.6536436 0.77847177 -0.62767965 0.95358074 0.30113748 0.652828 0.7575062
0.38941833 0.921061 0.22304448 0.9748083 0.12615407 0.99201065 0.07107121 0.9974713
0.039989334 0.9992001 0.022491757 0.99974704 0.012648773 0.99992 0.0071130577 0.9999747
0.0039999895 0.999992 0.0022493633 0.9999975 0.0012649107 0.9999992 0.0007113117 0.99999976
-0.9589243 0.2836622 0.3239352 -0.94607925 0.99994653 -0.010342319 0.77652997 0.6300803
0.47942555 0.87758255 0.27748054 0.96073127 0.15745589 0.987526 0.08879686 0.99604976
0.04997917 0.99875027 0.028113361 0.99960476 0.01581073 0.999875 0.00889128 0.9999605
0.0049999794 0.9999875 0.002811703 0.99999607 0.0015811381 0.99999875 0.0008891396 0.9999996
-0.2794155 0.96017027 -0.23036748 -0.9731037 0.94714814 -0.32079646 0.8757406 0.482782
0.5646425 0.8253356 0.33103934 0.943617 0.18860029 0.98205394 0.106494434 0.9943133
0.059964005 0.99820054 0.03373408 0.99943084 0.018972527 0.99982 0.010669474 0.9999431
0.005999964 0.999982 0.0033740415 0.99999434 0.0018973654 0.9999982 0.0010669675 0.9999994
0.6569866 0.75390226 -0.71372116 -0.7004299 0.80042166 -0.5994374 0.9473307 0.32025698
0.64421767 0.7648422 0.38355157 0.92351943 0.2195561 0.9755999 0.12415834 0.9922624
0.06994285 0.997551 0.03935373 0.9992253 0.022134136 0.999755 0.012447635 0.9999225
0.006999943 0.9999755 0.003936379 0.99999225 0.0022135926 0.99999756 0.0012447953 0.9999992

W f4 [32, 32]
00000000: 7d02 063e 0a1d 9c3d 4f79 48bc 41ce a63d
00000010: afd7 82be ccb5 20be bd43 bcbd c2f6 2a3e
00000020: 82e0 2cbe fff5 ccbd 96ae 5b3b 8cab 3ebe
00000030: 86ee 523e f458 223d 258b bc3d b9eb 8ebd
00000040: c935 68bd 7f59 b23d d2bb 823e af7b 353e
00000050: 3f31 66be c8c1 7f3d 1d71 b23d e635 663e
00000060: bf1f de3d cfc3 64be f6bc 993d 9a68 453e
00000070: 4824 393e aafa 0cbe fdfb 53be 005a 0f3e
00000080: 38d0 4ebb f4ce 78be 1f0a 21bd 2acc 2f3e
00000090: d844 f0bd 1b67 953d 0c5e 07bd e95a 8e3e
000000a0: b18d 043e 1dac 263d 3101 aabd 5f1a 4bbe
000000b0: c8bf 883e 66d2 71be 2392 833e f6af 3f3d
000000c0: 067b 0cbe c607 923e 4b8c 83be 6b62 fb3d
000000d0: 061a 4b3e 2152 9f3e 543c 21be ecd4 6f3e
000000e0: a9ba 353e 017c f33d 228a 203e 1be6 44bc
000000f0: b65b 843e 24d3 853e 3220 16be 2e59 933e
00000100: 0cd7 0c3d feb2 f63d 924f 07be c1fc d73d
00000110: cfac 493e b057 503e 65ec 873e db22 3cbe
00000120: d036 5c3e d422 c5bd 50d4 76be aeb5 88be
00000130: 910d 8dbe 18c6 1dbe 7f56 5abe 5877 093e
00000140: b9b9 34be c660 c53d ed32 2e3e 9d43 78be
00000150: 8854 013e 1a6e 4cbe 3462 c6bd 48ed 16be
00000160: 36af c4bd 28a9 77be b685 15be 5ae5 2ebc
00000170: 7622 b7bc c783 82bd b8b3 99be 3cb5 013e
00000180: 62bf 033e d421 343e ced2 6fbe 6e19 3fbe
00000190: 5ac1 30bd 7c91 d33d a15e d53d 2f2a 713d
000001a0: eb91 49bd dce9 043e 92eb 89bd 6d78 d7bc
000001b0: bb70 843e 474a 923e 306d 76be 130e e0bc
000001c0: 5b43 663e c3be 50be 2d29 453e 16b2 4bbd
000001d0: 57ff 41be 49da 8a3e d178 9a3e 8268 fd3d
000001e0: d9f4 2c3e 49ee 19be ac1f 373e 3967 ff3d
000001f0: 3bfa 44bd acec f0bb 18e1 c43d a3f5 9bbe
00000200: 411a 20be bbe3 2dbe 7d53 79be 46a4 1e3d
00000210: 1644 423d 226a 4bbe 181a 29bd 28b2 843d
00000220: 02b7 3c3e 11e2 6d3e 2f51 9ebe 1992 1bbe
00000230: 0190 6abe abd3 fabd 2612 233e 733c 7ebe
00000240: 4f96 5a3c aee2 933d d554 283e fb3a 99be
00000250: 9f65 77be 4f1e 7f3e 72e1 f93d 7924 4c3e
00000260: aeae 29be ced1 e73d 010b 7ebe 6db8 71be
00000270: b864 0d3e 0af3 083e e88d 75be a107 9bbe
00000280: 9fa0 883d 6141 c33d 099d 3abd d1c1 cbbd
00000290: 6982 353d c6d1 7fbe 4cd3 5bbe 4386 0dbe
000002a0: e1b9 3bbe 8224 8fbe 721e 8e3e 2fc5 733e
000002b0: 2cbf 05be 727f 303e 152b afbd 63e5 0a3e
000002c0: 035c 823e c798 013e 27da 88be dc90 68be
000002d0: d618 eb3d 0147 2f3e 84e7 2e3e b570 653e
000002e0: 178f 84be 33ce 0c3d 93b9 073e c1ce 343c
000002f0: 71ec 203e 3839 23be 19c3 73bd 61e2 073e
00000300: 1672 0ebd d6c0 233c 79c5 32be 4095 253d
00000310: d80d 51be d883 52be 249f 473c f9ff 7ebe
00000320: 7e7e 903e 961b 37be ebdb 97be 6af1 653e
00000330: 7c72 333e 12ce 323d afe8 30be 1644 713e
00000340: 14ed 85be 3bb6 093e d897 44be a2a3 83be
00000350: 3c65 9dbe 8b47 15bd d079 223e 1ec0 01be
00000360: eaa6 973d 1e69 9e3d ae47 7abe 3244 89be
00000370: ca6e 2fbd 6d6f 14be ea86 613d 9ce5 7d3d
00000380: 3609 a5b9 5817 8ebe e3f0 603e bcb1 89be
00000390: c40f a63d ccba bcbd b85c 0abe b0cc 21be
000003a0: 6037 c03d 8455 7a3e 2370 b13a 7073 063e
000003b0: 76a4 853e 118e 67be 9cc3 27bd 9037 233e
000003c0: efd2 353e 25f6 c7bd 2e6b 0fbe 54cc 923e
000003d0: 1f17 16be a4c8 4abe f177 883e 8b2a 463c
000003e0: 9c80 70be bc42 843e 70b2 5dbe 37dd 01be
000003f0: e9da 963d 9dcb 38bd 79d2 4fbe ff92 cb3d
0.13086887 0.07622726 -0.0122359535 0.081448086 -0.2555518 -0.1569435 -0.091926076 0.16695693
-0.16882518 -0.100078575 0.003352081 -0.18620127 0.20598802 0.039635614 0.09206227 -0.06978554
-0.05669192 0.08708476 0.2553392 0.17722963 -0.22479723 0.062440664 0.08712981 0.22481498
0.10845899 -0.2234032 0.075067446 0.19278184 0.18080246 -0.13767496 -0.20701595 0.13999176
-0.0031557214 -0.24297696 -0.039316293 0.17167726 -0.11731881 0.072950564 -0.033048674 0.27803734
0.12944676 0.040691484 -0.083010085 -0.19834279 0.26708817 -0.23615417 0.2569743 0.04679867
-0.13718805 0.28521556 -0.25692973 0.12274631 0.19834146 0.31117347 -0.1574567 0.23421067
0.17746986 0.11888886 0.15677693 -0.012017752 0.2585122 0.2613765 -0.14660719 0.28778976
0.034384772 0.12045859 -0.13213947 0.10546256 0.19694827 0.2034595 0.26547542 -0.18372671
0.21505284 -0.096257836 -0.24104428 -0.2670111 -0.27549413 -0.15407598 -0.21322058 0.13424432
-0.17648973 0.09637599 0.17011614 -0.24244542 0.12629902 -0.19963875 -0.096866995 -0.14738953
-0.09603731 -0.24185622 -0.14601788 -0.010674799 -0.0223553 -0.06372791 -0.30019927 0.12666792
0.12865975 0.1759103 -0.2342026 -0.18662044 -0.043153144 0.10330483 0.1041844 0.05887812
-0.049211424 0.12979835 -0.067343846 -0.02630254 0.25867257 0.28572294 -0.24065089 -0.027350461
0.22486632 -0.2038527 0.19253989 -0.049730383 -0.1894506 0.27119663 0.301703 0.12373449
0.16890277 -0.15032305 0.17883176 0.1247086 -0.0480902 -0.0073524322 0.09613246 -0.30460843
-0.15635015 -0.16981404 -0.24348255 0.038730882 0.047428213 -0.19864705 -0.04128465 0.06479293
0.18429187 0.23230769 -0.30921313 -0.1519245 -0.22906496 -0.12247404 0.15924892 -0.24827747
0.0133415 0.0722097 0.16438611 -0.2992781 -0.24159859 0.24913906 0.122012034 0.19935788
-0.16570541 0.11319314 -0.24808885 -0.23605509 0.13807952 0.13373962 -0.23979914 -0.30279258
0.06671261 0.095339544 -0.045559917 -0.09949077 0.044313822 -0.24982366 -0.21467322 -0.13820748
-0.18332626 -0.2795754 0.27757603 0.23805688 -0.13061208 0.17236117 -0.08553139 0.13564067
0.25460824 0.12655936 -0.26728937 -0.2271151 0.114793465 0.1711693 0.17080504 0.22406276
-0.2589042 0.034376334 0.13254385 0.011035622 0.15715195 -0.15939796 -0.05951223 0.1326995
-0.03477677 0.009994706 -0.17458142 0.04042554 -0.20415437 -0.20558107 0.012183938 -0.24902333
0.28221506 -0.17881617 -0.29659972 0.22455373 0.17524141 0.043653555 -0.17276262 0.23561129
-0.2615744 0.13448422 -0.19198549 -0.2571078 -0.30741298 -0.03644518 0.1586678 -0.12670943
0.07404883 0.07734893 -0.24441406 -0.2680984 -0.042830266 -0.1449563 0.055060305 0.06198655
-0.00031478115 -0.27752185 0.21966891 -0.26893413 0.08108476 -0.09215316 -0.13511932 -0.15800738
0.09385562 0.24446684 0.0013537448 0.13129973 0.26102036 -0.22612788 -0.040958032 0.15939164
0.17756246 -0.09763745 -0.1400573 0.28671515 -0.14657257 -0.19803101 0.26654008 0.012095104
-0.2348656 0.25832164 -0.216501 -0.12682043 0.073659725 -0.045116056 -0.20295133 0.09940147

b f4 [32]
00000000: c1aa a93b b290 433c 065d 81bc 1053 903b
00000010: e425 ebb9 ce66 19bc 5494 c1bb 5826 ae3c
00000020: 5c71 f03b d6a3 5b3c 7ad1 cb3a 8cc3 1c3b
00000030: aecd bbbb bfd5 453c f26e acbb 0457 913c
00000040: 4652 cf3c f8ba a1bb aca9 a7bb fc6d 8fbb
00000050: eb59 7fbc 1a6c 4cbb 6421 92bc f10d 4f3c
00000060: 48fb 633c aa8d 0a3c b61c 9cbb 1b3d 05bc
00000070: 9a51 87bc d6a1 693c ac83 c4bb 0ae8 b23c
0.005177826 0.0119363535 -0.015791427 0.004404433 -0.00044850924 -0.009362889 -0.0059075747 0.021258518
0.0073377322 0.013405761 0.00155501 0.0023920266 -0.005731306 0.012074887 -0.005262249 0.017741688
0.025307786 -0.0049356185 -0.005116662 -0.004377125 -0.015585403 -0.0031192363 -0.017838188 0.012637601
0.013914891 0.008456627 -0.004764165 -0.008132244 -0.016518403 0.014259776 -0.005997142 0.02183916

W f4 [32, 32]
00000000: d04a 71be f2ea 93bd fcc4 5ebe bd73 1c3e
00000010: 4fcd 04be 77a4 923c 4ceb 0fbd 69b8 833c
00000020: af0d 27be 946b 30be 4468 81bd fbc5 953e
00000030: 9bf6 ac3d 9c94 673d 1a03 c53c ef6c 51bd
00000040: f019 d03d 091a 623e 98c3 a7bd f6d5 92be
00000050: a3f1 8fbe 6ca0 0e3e 9ecf e2bc 67f0 f7bd
00000060: a9d5 00be ab9c dfbd 90bd 1bbe a5af 713e
00000070: 4791 6dbe 8344 573d 1646 593e b0cc 57be
00000080: 0b9b 493e a4a2 633e aaa6 493e 3f68 82be
00000090: d67e 403e d331 4cbd e6ae a53b 9eae dd3d
000000a0: 6027 963e 9989 abbd d91f 0e3e fa82 9f3e
000000b0: 1b6a 5f3e 05eb da3d e42f 8b3e 5980 9b3e
000000c0: 37e2 203e b182 a23d d908 203e 4ad9 5dbe
000000d0: eca0 81be b0f4 793d 367d f63d bbdf 633e
000000e0: bdd2 34be 4f56 933d 3c6e 86bc 2f17 6cbe
000000f0: 5730 d53d a13d 86bd 7328 febd 1829 1ebe
00000100: 36d1 433e 3bf9 efbd 9c4d 783e d14a d23d
00000110: 8ab7 143d e916 153e 05a4 0c3e f323 1abe
00000120: 49eb 83be f740 90bd b7f2 6a3e 4053 6a3e
00000130: 684d b33d dca3 993e 0501 81be 547a 843e
00000140: a29e 473e 1c12 803e 16ea 293c f1d6 2a3e
00000150: 9e77 c13d 11ea 79be aefe 86be ba8a 8a3e
00000160: daa1 813e 076e 0ebe a472 403e a45f 47be
00000170: 4370 8ebe 5984 43bd dfe6 9dbe 7ae2 673d
00000180: 56c2 bbbd 87b6 b5bc 8405 72bd 3aee 433e
00000190: 6c4d 563d 2a55 693e 67f9 2fbd e64f 4dbe
000001a0: 6e53 8fbe d0c3 cf3d b23f e5bd 70d1 903e
000001b0: a5e4 053e 9f21 5cbe 5656 fc3d 8a1b 7a3c
000001c0: 08f2 6cbe 42d7 a0bc 5fe2 88be fc3f b13d
000001d0: 23b7 813e d2e2 40be 1a49 3fbe 0854 9f3c
000001e0: 2c33 6cbe 871a 2f3e dc31 d5bb 99d3 51be
000001f0: 3c88 703e 3a0a 5dbe 3318 34be 7f74 87be
00000200: b784 4f3e c4ab f13c 893f e7bd 5679 6e3e
00000210: 0550 83be c86f 5abe 2442 533c 270a 053e
00000220: 8e0b 1f3e e921 36be 3238 1f3e 8ee2 5b3d
00000230: 431e 903e c5ef 723e 0f6e 34bc 92e1 723d
00000240: 40ae 853c 78ba 993d 6568 783e f3b5 75be
00000250: 8aba 933e 2bee 053e 0b33 1cbd 03d7 6cbe
00000260: f827 34be 6bf1 943d 2286 723e 5565 85be
00000270: 837b 73be d4f9 f83d 14d8 80be 5139 673e
00000280: 0690 5abe 1fde e83d 78e2 8f3e 44a8 a3bd
00000290: 0d54 6fbb 1a72 cfbd ecc8 653e 4ec3 513e
000002a0: 6902 a63d acaa c0bd f999 383e 52dc 9c38
000002b0: 7d54 b13d 9b03 85be ca50 4dbe c5a3 8c3e
000002c0: efef b63d bdd2 523e 46d6 48bc 78e3 05be
000002d0: c442 353e f2ee 843e a9c2 143e 52fb e13d
000002e0: 5cf1 8a3e 3733 60be 3a7e f7bb 407f 65be
000002f0: 0c7e 873d 77bc 373e b1c3 79bd 3d13 bb3d
00000300: 2dec 633e 8fa3 8f3e 5c44 c5bc 55f2 1c3e
00000310: bc96 503e f062 2b3e 1b2d 6ebe bb31 a83b
00000320: db46 8fbc b3c2 933e f1fe 973e 5f82 6f3e
00000330: 9002 a7bd 31eb 483e 2393 c7bd 3738 793e
00000340: 3ab9 5d3e b08c 313e da33 86be b9ec 22be
00000350: 6017 43b9 4c2a 333e 87a5 8f3d 2577 f5bc
00000360: fa51 88bd 5a5a 89be 50a5 143e 2a8c 883e
00000370: 0ea6 5b3e 3519 82be 98b4 2bbe 1aa7 2dbe
00000380: 29f0 8c3e b121 53be 07b9 22be 97b5 213e
00000390: 167c 693e 5412 263d bf83 f7bd 64b6 913d
000003a0: 80f0 f63b 2413 debc 5ef6 323e d48a 87be
000003b0: c1c0 99bd 3b22 35be 78b6 81bd 9ed4 99be
000003c0: c22d 903d cf6f 9b3e 168e 6a3e 8d91 b2bd
000003d0: a9ca 183e 80e2 5ebe 91c1 693d a5f8 c4bd
000003e0: 7b15 dbbb 12b3 99be 8c88 133e dfcb 813e
000003f0: 78d0 793d e969 003e a43c 95be b09f 973e
-0.23563695 -0.07222547 -0.21754831 0.15278526 -0.12968944 0.017900689 -0.035136506 0.016079145
-0.16313814 -0.17228538 -0.06318715 0.2925261 0.08445474 0.05653821 0.02404933 -0.051129278
0.10161197 0.22080244 -0.081916034 -0.28678864 -0.28114042 0.13928384 -0.02768689 -0.121064
-0.12581505 -0.10918554 -0.15209031 0.2360216 -0.2319995 0.052555572 0.21218142 -0.21074176
0.1968805 0.22230011 0.19692484 -0.25470158 0.18798384 -0.049852204 0.00505625 0.10824321
0.29326916 -0.08375854 0.13879336 0.31154615 0.2181782 0.10689358 0.27184975 0.3037136
0.15711294 0.07935084 0.15628375 -0.2166492 -0.25318086 0.061024368 0.12035601 0.22253315
-0.17658515 0.071941964 -0.016409986 -0.23055719 0.10409611 -0.065547235 -0.12410059 -0.15445364
0.19122776 -0.11717459 0.24248356 0.10268176 0.03630785 0.14559521 0.13734443 -0.15052776
-0.25765446 -0.07043641 0.22944151 0.2288332 0.087549984 0.30007827 -0.2519609 0.2587458
0.19494107 0.25013816 0.010370752 0.16683556 0.09446643 -0.24405695 -0.2636618 0.27058965
0.25318795 -0.1390916 0.18793732 -0.19470078 -0.27820024 -0.04773364 -0.30840203 0.05661247
-0.09167926 -0.022181762 -0.05908729 0.19133845 0.05231993 0.22786394 -0.042962458 -0.2005001
-0.2799334 0.1014477 -0.111937895 0.28284788 0.13075502 -0.214972 0.12321155 0.015265355
-0.23139203 -0.019633893 -0.26735207 0.08654782 0.25335035 -0.18836525 -0.1868023 0.019449249
-0.23066396 0.17099963 -0.006506188 -0.20490874 0.2348947 -0.21585932 -0.17587356 -0.26456067
0.2026547 0.02950085 -0.11291415 0.23288473 -0.25646988 -0.21331704 0.012894187 0.12992154
0.15531752 -0.17786373 0.1554878 0.053682856 0.28148088 0.23724277 -0.011012568 0.059297152
0.01631844 0.07506269 0.24258573 -0.2399519 0.28853256 0.13079135 -0.038134616 -0.23128895
-0.17593372 0.07272609 0.2368398 -0.26053873 -0.23777585 0.12157026 -0.25164855 0.22580458
-0.21344003 0.11370491 0.2810247 -0.079910785 -0.0036518604 -0.10129185 0.22439927 0.20484659
0.081059285 -0.09407553 0.18027486 7.4796975e-05 0.08658693 -0.25979313 -0.2005035 0.27468696
0.089324825 0.20588203 -0.012258118 -0.13075054 0.1770125 0.2596355 0.14527382 0.11034264
0.27137268 -0.21894537 -0.007552889 -0.22411823 0.066158384 0.17942987 -0.06097764 0.09134529
0.22258063 0.28054473 -0.024080448 0.15326817 0.2037 0.1673696 -0.23259394 0.0051328815
-0.017489841 0.2885948 0.29686692 0.23389576 -0.08154786 0.19620968 -0.09744861 0.2433785
0.2165269 0.17338824 -0.26211435 -0.15910615 -0.00018605357 0.17496604 0.07013994 -0.02996404
-0.06656261 -0.26826745 0.14516187 0.26669437 0.21450064 -0.25409856 -0.1676811 -0.16958275
0.27526978 -0.20618321 -0.15890895 0.15791927 0.22801241 0.040544823 -0.120856754 0.071148664
0.007535994 -0.027108736 0.17476794 -0.26473105 -0.07507468 -0.17688839 -0.06333631 -0.30045027
0.070399776 0.3035874 0.22905764 -0.08719168 0.14921059 -0.2176609 0.057069365 -0.09617738
-0.0066859103 -0.30019432 0.14407557 0.25350854 0.060989827 0.12540402 -0.29147828 0.2961402

b f4 [32]
00000000: b32c 4dbb 1c48 93bb 88c0 cab9 35c7 b63b
00000010: 69b0 89bc d679 253c fdee 123c d414 133c
00000020: 0b35 4eba 3c74 573b 8135 6cbc f995 983a
00000030: 683d 4cbc 99ae e7bb a18c 5cbb caac 0d3b
00000040: eb90 4cbb 0898 8e3b e1e9 ba3a 41c9 2dbb
00000050: 91df 313b 7c49 3abb 429b c13b 5dab 8b3b
00000060: ccfb 19bc 45f8 37ba ab10 723b 3b80 5cbb
00000070: 40c6 89ba 152b f23b 18dd 123c 194e 8cbb
-0.003130716 -0.00449468 -0.0003867189 0.0055779465 -0.016807752 0.010099849 0.008968112 0.008977134
-0.00078661804 0.0032875678 -0.014417053 0.0011641375 -0.012465812 -0.007070374 -0.0033653157 0.0021617883
-0.0031214308 0.0043516196 0.0014260375 -0.0026517662 0.0027141313 -0.0028425148 0.0059084008 0.0042623715
-0.009398412 -0.0007017891 0.0036936204 -0.0033645767 -0.0010511354 0.0073903897 0.008963846 -0.004281771

W f4 [32, 32]
00000000: 9457 bd3d a308 3b3d f64a 043e 63c7 6f3d
00000010: 3944 85bd d040 ac3d ae85 aa3c 957c 77be
00000020: 7de6 343e 3509 a33e 56b4 283e 830c 3d3c
00000030: 53c4 0cbe 3143 58be 897c 9d3d c3de 82be
00000040: 0bee d1bd a884 80be f46f 97bd dbc0 503e
00000050: e848 2dbe d53f bcbd fb54 643e 3978 1b3e
00000060: e776 573e af3a f03c 7ccd 3b3e c357 a3bd
00000070: b44f 5fbe 58e4 98be fe46 193e 680e 8fbc
00000080: 5343 063e d717 203c 7ce6 c8bd 22ad 173e
00000090: 4c22 953e afb4 433e a657 653d 61ee 5e3e
000000a0: 6b01 88be 6b70 dbbd d662 19bd 965a 7ebe
000000b0: 4d5c 073e a53a 24be 8da1 97bb cdba 543e
000000c0: 9ddb 8e3e d1d6 eb3d 2bdc 413d ff39 cc3d
000000d0: d8b4 43be 6955 853e a454 4ebe ddd0 93bc
000000e0: 405f 8fbd 2438 9b3e 4556 323e 3dd3 ad3c
000000f0: 670b 52bd d4b8 7b3d 0ae6 81bd 91a4 5d3e
00000100: 6767 933e 9587 653d 3060 4a3e 2a34 863e
00000110: 9157 3d3e 4465 54be d3a4 c13d 917a 42be
00000120: d6b9 07be 65a1 33be 9677 3d3e e436 9cbe
00000130: d964 2f3e a8dd f93c c0e9 9cbe 24ee 97bd
00000140: ed2a 97be b353 8e3d d8c0 9bbe d11e ad3d
00000150: a7ea eb3d 55ea e43c ef1c d23d 9b6b afbd
00000160: 3474 853e 2116 af3d 6b21 383d 5036 8f3e
00000170: a97d 9d3c c26c ccbd b5a0 45be 4a2f 263e
00000180: 8f94 7b3e b005 92be c697 463e 8274 d5bd
00000190: 797f f0bd b596 89be f979 dcbd a405 95bd
000001a0: 8634 53be 9a45 1ebe dc32 31be 1628 5abe
000001b0: c639 73bc f412 1b3b fa7a 36be 734f 4cbe
000001c0: b954 56be 61eb 04bd 26f1 efbd c8da 95be
000001d0: 0a31 2a3e df48 43be 88c0 0bbd 6a6e 89be
000001e0: c359 193e 57cf 2bbd f71f d23d 0d23 0d3e
000001f0: 38ea 9cbe f47f 2ebe 8faf ff3d a59c 8bbe
00000200: 587b 283e 735d 443c 307d 263e a542 3c3e
00000210: 7223 cb3d 1a87 ecbc 888f f4bc a2b0 92bd
00000220: 6022 1cbe d38f bc3d 03d7 8bbe 2f1a ae3d
00000230: 237e 99bd e081 15bc adb7 c0bc 967b 4cbe
00000240: 35ac 433e 4da8 6bbd 27a2 0a3d 637d 89be
00000250: 93c5 253d 2453 923e 1061 9f3e b856 c03d
00000260: e555 d2bd c188 853d b2f7 b33d d77c 69be
00000270: 2869 b13d 74a1 48be ac2d 54be 187f 9b3e
00000280: d310 e0bd fa8c c6bd 254e ca3d a170 293e
00000290: 79f3 293e a467 33be 9e73 41be 8a5f 463e
000002a0: e83d 4f3e eac8 90bd 59e3 8c3d 45df 903e
000002b0: fa0d 473e e0e9 3ebe 3ba1 2cbe 58f8 8d3e
000002c0: 0000 debd d721 8e3e f043 6e3e 38f4 783e
000002d0: 8f0f 413e 2e1a 83be 5822 9a3e 3804 cebd
000002e0: 4eec 9f3c 381f 993e f2af 27bd e0a6 0bbe
000002f0: ca5d 003e e0b1 54be 985f d8bd 2b2b f6bd
00000300: 7323 57be b47c 723e 0efb 873d 90a4 8e3d
00000310: 4a48 913e 95eb 76be 0acc 18be ea2b 9e3c
00000320: 3a09 903e 09be 9a3e 0922 903d 0e5c 153e
00000330: 8a42 70be 7166 943e 4cf1 93be 23c9 5abc
00000340: 0c51 473d eb0b 7fbd 4735 6d3e 38eb 5dbe
00000350: 9e2b 133c 40b0 38be ea51 863e b815 633e
00000360: e360 debb b341 833e 6e49 e5bd 62d8 8e3e
00000370: d576 2ebe 1676 2b3e c07a 8dbe 7ad2 82bd
00000380: 991e a0bd 34fd 073e ee5e 203c 7871 cebd
00000390: 2a07 8f3e 070d 60be db26 613e 6a8d 633e
000003a0: 26ca 383d bc47 db3d 54fd 0b3d 0551 debd
000003b0: 8c16 37bd 342e 9d3e 0923 963e 2c25 d4bc
000003c0: 0bdf 223d 7878 30be bc35 fbbd d702 c0bd
000003d0: 2672 57be c530 99bc 60a0 5dbe 48b4 373d
000003e0: 1c3b a3bc f4fb 793e e959 0e3e b4b3 4cbe
000003f0: 0d70 a0bd 37de 6ebe a2cc 6abe 61e0 7b3d
0.0924522 0.045662533 0.1291922 0.05853976 -0.06507153 0.084107995 0.020815697 -0.24168618
0.1766605 0.31842962 0.16475043 0.011538628 -0.13746767 -0.21119381 0.07689769 -0.2556058
-0.10250481 -0.2510121 -0.073944 0.20386069 -0.16922343 -0.091918625 0.22298042 0.1518258
0.21041451 0.029324858 0.18340105 -0.079757236 -0.21807748 -0.29861712 0.14968488 -0.017462924
0.1311162 0.009771309 -0.098095864 0.14812139 0.2912773 0.19111894 0.05599179 0.21770622
-0.26563582 -0.107148014 -0.037447773 -0.24839243 0.13218804 -0.16037996 -0.0046274127 0.20774384
0.27901927 0.11515582 0.04732911 0.099719994 -0.19111955 0.26041725 -0.20149475 -0.01804393
-0.07000589 0.3031627 0.17415722 0.02121889 -0.051280405 0.061455563 -0.063427046 0.21644808
0.28789827 0.056037504 0.19763255 0.26211673 0.18490435 -0.20741755 0.09455266 -0.18992068
-0.13254485 -0.17542036 0.1850265 -0.30510628 0.17128314 0.030501202 -0.30647087 -0.074184686
-0.29524937 0.06949558 -0.30420566 0.084531434 0.11519366 0.02794377 0.10259425 -0.08565446
0.26065218 0.08549143 0.044953745 0.27971125 0.019224958 -0.099816814 -0.19299586 0.16228977
0.2456839 -0.28519964 0.19393834 -0.10422613 -0.117430635 -0.26872793 -0.10765452 -0.072764665
-0.20625505 -0.15456238 -0.17304558 -0.21304354 -0.014845317 0.002366242 -0.1782035 -0.19952182
-0.20930757 -0.032451037 -0.11715917 -0.2926848 0.1662027 -0.19070767 -0.03411916 -0.26842052
0.14975648 -0.04194578 0.10260003 0.13782902 -0.30647445 -0.17040998 0.12484657 -0.27267948
0.16453302 0.011985171 0.16258693 0.18384798 0.0991887 -0.028873015 -0.029853597 -0.07162596
-0.15247488 0.0920712 -0.27312478 0.08501088 -0.07494762 -0.009125203 -0.023525083 -0.1996902
0.1910866 -0.05753355 0.033846047 -0.26853475 0.040471625 0.28579056 0.3112874 0.0939154
-0.10270289 0.06520224 0.087874785 -0.22801529 0.08662635 -0.1959284 -0.20720547 0.30370402
-0.10940709 -0.09694858 0.09878186 0.16546871 0.16596784 -0.17520005 -0.1889176 0.19372383
0.20238459 -0.07069571 0.068793006 0.2829534 0.19438925 -0.18643904 -0.1685838 0.27728534
-0.10839844 0.27760193 0.23268104 0.24311912 0.18853591 -0.2560591 0.30104327 -0.100593984
0.019521859 0.2990663 -0.04093928 -0.13637877 0.12535778 -0.20770979 -0.10565108 -0.120199524
-0.21009617 0.23680383 0.06639682 0.069649816 0.28375465 -0.24113305 -0.14921585 0.01930805
0.2813204 0.3022311 0.07037742 0.14585897 -0.23462883 0.28984407 -0.28895032 -0.013353619
0.048661277 -0.062267225 0.23164855 -0.2167176 0.008982567 -0.18035984 0.2623437 0.22176254
-0.006786452 0.25636062 -0.11195646 0.27899462 -0.17037518 0.16744265 -0.27632713 -0.063878015
-0.07818336 0.13280183 0.009788258 -0.10080236 0.27935153 -0.2187997 0.21987478 0.22221914
0.04511466 0.107070416 0.03417714 -0.10855297 -0.044699237 0.30699313 0.29323605 -0.025896631
0.03976349 -0.17233455 -0.122661084 -0.09375542 -0.21039638 -0.018700013 -0.2164321 0.044849664
-0.019925646 0.24412519 0.13901486 -0.19990426 -0.07833872 -0.23326956 -0.22929624 0.06149328

b f4 [32]
00000000: 205c e73b cec2 913b 3981 ccbb 8f35 7bbb
00000010: 5016 553b e547 ab3b 94db 663b 3820 213c
00000020: d1db 3e3b 7b03 43bc fd6b 01ba 3e05 843c
00000030: 9161 13bb 5453 ab3b c1a4 babb 4a92 0cbc
00000040: 749c 8a3b 55da a7ba 4888 683a e79d a7bb
00000050: 5807 05bd eb68 00bc 0d24 043c 7ba0 b1bb
00000060: a94a 2c3c 00a4 4f37 a81c 793c 0eed d0ba
00000070: b0ed bc3b 250f 98bb 4c95 243c 5051 ae37
0.0070605427 0.0044482714 -0.0062409905 -0.0038331484 0.003251452 0.0052270764 0.0035226094 0.009834342
0.002912272 -0.011902685 -0.0004937051 0.01611578 -0.0022488574 0.0052284393 -0.0056959097 -0.0085798
0.0042300764 -0.0012806157 0.0008870405 -0.005115259 -0.032477707 -0.007837514 0.008065236 -0.005420742
0.010515847 1.2376346e-05 0.015204586 -0.0015939788 0.0057656392 -0.0046404772 0.010045361 2.078028e-05

W f4 [32, 32]
00000000: 6658 0dbe 0b77 6abe ecc3 58be 3957 18be
00000010: af23 24bd 5d8a 33bb e42d cabd 6ad0 853e
00000020: df56 26be 2520 84bd 6f4a 90be ca47 9abc
00000030: 2b25 8d3e 9eda 463e f6d3 25be 5f60 023e
00000040: 9250 823d b72f 8f3e c393 9ebe 4899 74be
00000050: 2597 933e 994b 3fbe 8c75 4dbd e47d 903e
00000060: c5ce 3e3e b4f0 37be 643e 58be 39a8 8c3d
00000070: 0cba 33be 750c 34be aa82 b4bd f0a8 bebd
00000080: 6137 23be 7dd6 1ebe 3e38 533d b072 87be
00000090: 4a53 1ebe e9f3 6bbe 7452 213e 5d3b 96bd
000000a0: e798 67bd 4893 373c ab3a 03be fac2 8abd
000000b0: f1a7 7c3e 0d67 c0bd b83c 35bd a9fe 8bbe
000000c0: 95f4 653e 33e1 05be 2ddf 03be 4240 9abe
000000d0: 77ae 063e 2e0a 193e f996 87be 6f23 d6bd
000000e0: 38ba 9e3e a85d 823e 8067 34be cd43 103e
000000f0: a618 9abe 6ff1 cebd ea12 febd abf4 8fbe
00000100: 76ab b5bd 40cf cd3d 2c07 e2bd 078e 733e
00000110: ca38 3fbe 8026 a1bc 41df 1a3e fead 6c3d
00000120: eb54 383e 2f4b 85be 227a 9ebe 22bd c5bd
00000130: 3033 143d 7553 363e ccb7 babd 4643 673e
00000140: 2f3c 83be 1026 87ba 41e4 373d ba8b 02be
00000150: badc 5e3e ac65 8d3e a522 72bd 0d2a 6c3e
00000160: dc4f bc3d 535e 3d3d cddd 913e 328c 5abd
00000170: 6b8a 4ebe f509 cebd 6b76 3cbc 1459 19be
00000180: 573d eebd d3b3 90be de0d b4bd 9559 8c3e
00000190: 0b30 a23e 3c30 7abe 2345 123d 27fc 5fbe
000001a0: 9540 0fbe a012 383b 43bd a1bd 4346 bfbd
000001b0: 6e8e d9bd 373b 83be 5fb7 8cbe 6c54 843e
000001c0: faf6 8f3c c8df 633e 593b 1c3e 3a70 65be
000001d0: fdd1 8bbe 6d29 2c3b a344 113e 2ac4 963c
000001e0: f96b 38be a8d3 da3d 5434 6dbe e497 cebb
000001f0: 570a 973d 04c6 c9bd 6824 fb3d 2e1e d3bc
00000200: 5feb 433e dd55 913e a74b 223e 7403 be3d
00000210: fd0b bf3c 8cb6 f53c 4994 1b3e d974 c9bc
00000220: ce37 a9bd 7bdc 3d3d 4495 073e 3be6 3c3e
00000230: 04fe 8fbe 81f8 18bb 0f03 3b3e 4d96 a0be
00000240: d1d6 a9bd 62df 77be 26d1 80be f6ef 16be
00000250: 4b7b 9bbe e82e 99bd 3cb8 0bbe 4316 833e
00000260: 48f4 3d3e f7b5 853e 8f9d 58be e189 59be
00000270: 77e0 9e3d e8d9 623e 7d2d 67be 5f0e 9a3d
00000280: 8189 61be d612 cb3d f454 2c3e dd64 cbbd
00000290: 949e 8a3e a9cd 62be 83b5 f7bc 61b7 2e3e
000002a0: c29a 0ebe 3e06 5dbe 448c c4bd 841d 9dbe
000002b0: c5b3 943e db0b 1bbe df1d a73d 21e7 92be
000002c0: 0bec fbbd 8173 62be 3cba a4bd 1ca3 673e
000002d0: 0f7d 6abe 3af6 643e 4b08 53bc 5bcc 7abe
000002e0: dd9e ef3d e557 2cbe eca2 c3bc fcbf 103e
000002f0: 5985 7e3e d8cf ad3d 1f8a 8cbe e2ce 36be
00000300: 382d 7b3d c0d5 f3bc 1786 8b3e 03a5 65be
00000310: b782 35be c1b0 0ebd 5452 a73c 285c 4cbd
00000320: 6e00 4abd 31c4 293e c7fe f53d 6205 21bd
00000330: 2337 8b3c 9df3 993e e310 163d 7d66 6f3c
00000340: 8df7 8c3e 3d41 4a3e a0d1 353e 1bc1 35be
00000350: 5d8c 723e dc44 983e 238f 913e d4fc 63be
00000360: 4ca9 603d f30d 913e d8cd 36be b59e 83be
00000370: c9b5 923e 9f9b 50be 4549 83be 1c62 4bbc
00000380: 3241 423e 116f 00be edb1 633e be13 0fbc
00000390: 0bb4 9e3e 3b81 06bc f973 993e 33ba 95bd
000003a0: 25bf bcbd eaa8 8b3e 19c2 3d3e 655d 813d
000003b0: daae 21be 9a1c 7dbe 32f4 12be f85c c0bd
000003c0: 4b09 6bbd cd94 d43a c0ae 883d 916a 833d
000003d0: 61bb 8ebe c9c9 973e 14c7 84be 85dd 453e
000003e0: da1e d13d 5d16 6c3e b541 e5bd 45f0 0abe
000003f0: 6c9b 29be 5282 3fbe ed3e 5c3d 71a9 4a3e
-0.13803253 -0.22896974 -0.21168488 -0.14877023 -0.040073093 -0.0027395703 -0.09872034 0.2613557
-0.16244076 -0.064514436 -0.28181788 -0.01883306 0.2756742 0.19419333 -0.16194138 0.12732075
0.06363024 0.2796609 -0.30972108 -0.23886597 0.28826252 -0.18681182 -0.05016093 0.28221047
0.18633564 -0.17962915 -0.2111755 0.068680234 -0.1755144 -0.17582877 -0.08813985 -0.09309566
-0.15939094 -0.15511508 0.05156731 -0.26454687 -0.1546146 -0.23042263 0.1575411 -0.073355414
-0.056542303 0.011204548 -0.12815349 -0.0677547 0.2467344 -0.093946554 -0.04424736 -0.27342728
0.22456582 -0.13074188 -0.12878104 -0.3012715 0.1315249 0.1494529 -0.2648237 -0.10455977
0.3100145 0.2546208 -0.17617607 0.14088364 -0.3009693 -0.101046436 -0.12405951 -0.28116354
-0.08870594 0.100492954 -0.11036524 0.23784648 -0.18674007 -0.019671679 0.15124227 0.05778312
0.18001144 -0.26033923 -0.30952555 -0.09655215 0.03618163 0.17805274 -0.09117088 0.22584257
-0.25631854 -0.0010311026 0.044895414 -0.12748614 0.21763888 0.27616632 -0.05911507 0.23062916
0.091949195 0.046232533 0.28489533 -0.053356357 -0.2016999 -0.10060493 -0.011502842 -0.14975387
-0.116327934 -0.28262195 -0.087917075 0.27412096 0.3167728 -0.24432462 0.035710465 -0.21873532
-0.1398948 0.0028087273 -0.07897427 -0.09339573 -0.106228694 -0.25631115 -0.2748365 0.2584566
0.017573822 0.22253335 0.15257014 -0.22406092 -0.27308646 0.002626981 0.14186339 0.018404085
-0.18009938 0.106849015 -0.23164493 -0.006304728 0.07375019 -0.098522216 0.12262803 -0.025771227
0.19132756 0.2838582 0.15849172 0.092780024 0.023321146 0.029994272 0.15193285 -0.02459185
-0.08262597 0.046352845 0.13240534 0.18447201 -0.28123486 -0.002334148 0.18262886 -0.3136467
-0.08292926 -0.24206308 -0.25159568 -0.14739975 -0.30367503 -0.0747965 -0.13644499 0.25602922
0.18550217 0.2611539 -0.21153854 -0.21244003 0.07757657 0.22153437 -0.22575946 0.07522272
-0.2202511 0.09915702 0.16829282 -0.099313475 0.2707411 -0.22148766 -0.030237919 0.17062141
-0.13926223 -0.21584412 -0.09597066 -0.3068658 0.29043403 -0.15141241 0.08159994 -0.28691962
-0.12300881 -0.22114374 -0.08043334 0.22620815 -0.22899269 0.22359553 -0.012880395 -0.24492018
0.11700223 -0.16830404 -0.023881398 0.14135736 0.24855556 0.08486909 -0.27449128 -0.17852357
0.06132242 -0.02976501 0.2725074 -0.22426228 -0.17725645 -0.034836534 0.020425 -0.049892575
-0.049316816 0.16578747 0.120114855 -0.039311774 0.016994065 0.30068675 0.0366372 0.014611837
0.27532616 0.19751449 0.17755747 -0.17749445 0.23686357 0.29740036 0.28429517 -0.22264415
0.054848954 0.28330955 -0.1785196 -0.2570702 0.28654316 -0.20371865 -0.25641838 -0.012413528
0.18970183 -0.12542368 0.22235842 -0.008732734 0.30996737 -0.008209522 0.29971293 -0.07310905
-0.092161454 0.2727731 0.18531074 0.06316642 -0.15789357 -0.24717942 -0.14350966 -0.093927324
-0.05738191 0.0016218662 0.06673956 0.0641681 -0.27877334 0.29646137 -0.25933135 0.19322784
0.102109626 0.23055406 -0.11194173 -0.13568218 -0.16563195 -0.18702057 0.05377095 0.197912

b f4 [32]
00000000: 5652 84bb 8677 0e39 a79d b3ba c335 2fbc
00000010: 3cb9 0e3c a066 4bba a659 513c 60d8 8fba
00000020: 65e9 713b 80a4 e43b 9fb8 0cbc 0929 39bc
00000030: d96c 5d3c 4154 0d3c 5756 82ba cef5 b6bc
00000040: c64c 4abc 3d6d 6cbc c89b 2f38 c400 02bc
00000050: b12a 563c 162c 5cbb 2e4c e6bb 37ec 6f3c
00000060: 2150 adbc c642 a0ba 64b9 d23b a63e 80bc
00000070: edfa 1b3b b96a b03b 5f6c b63a 5711 e63b
-0.0040381355 0.00013586701 -0.00137036 -0.01069397 0.0087111555 -0.0007759128 0.0127777215 -0.0010974519
0.0036912796 0.0069776177 -0.008588939 -0.011301287 0.013514721 0.008626045 -0.0009943944 -0.022334006
-0.012347406 -0.014430341 4.1868334e-05 -0.007934753 0.013071702 -0.0033595613 -0.0070281243 0.01464372
-0.021156373 -0.0012226931 0.0064307917 -0.015654873 0.0023800686 0.005383816 0.0013917795 0.00702111

W1 f4 [32, 128]
00000000: b3b1 0bbe fafa b43d 1712 04bd f1ad cebd
00000010: 0f8e 1cbe e830 353e b48e 10be 4c36 433d
00000020: 5bec f93d ce11 173d 8de0 f3bc 1eba e7bc
00000030: ab8d bd3d ab9a 183e 2239 bf3d ee56 993d
00000040: e378 1f3e a980 493e 84d7 f2bc bad2 08bd
00000050: 68b4 06bd 318d 09be 9121 cfbc 0133 af3d
00000060: cf54 a63d c9fe 15be ad15 32be 1a28 093c
00000070: 9e4e ab3d 8afe 323d 6b95 01be 01cd 52bd
00000080: b62a 0abe 1163 adbd c52e 473d cbd8 083d
00000090: 6fd7 af3d 6423 43be 97f5 0bbe 5168 b5bc
000000a0: 201e 4f3d 75e4 12be cc21 2ebd 96a3 b9bc
000000b0: b677 373d 1657 14be 9823 1ebe b8a8 44be
000000c0: 6f5c d23d cf44 b23c dd24 1bbe 9abc 72bc
000000d0: 376c 45be ca5c d93d 3afa 82bd 224d 36be
000000e0: 7285 13be cf3a 0abe 8ddc 05be cf87 ee3d
000000f0: 205f 08be f506 20be bd95 6abd 7934 40be
00000100: 890a cd3d 5d2f 14be 4368 a53c 9545 153e
00000110: c366 29be 6094 453e c0d6 71bc 6ce1 d6bd
00000120: 90e1 ecbd d031 31be e49b 863d 4350 323e
00000130: ed21 bdbc 640f a13d 520c 0f3e 885f 38be
00000140: 1871 f3bd 6fb1 b23b 6bc2 c33d 2e38 1bbd
00000150: 0c0f f1bc 3e3e cfbd b185 23be a373 cb3d
00000160: 2c6d b3bc 0046 2ebe 4691 ac3d c217 82bd
00000170: 21c6 dabd 310b f93d 4083 a33c c608 f1bb
00000180: 9c52 10bd 0c9c 1a3e 8c2b da3d 1657 42be
00000190: 5b91 13be 2c85 4a3d dc8e 3fbe 4deb 22bc
000001a0: 4c59 9c3d adf2 d7bd cd38 293e b1db 133e
000001b0: 6b75 f53b 22c1 0fbe 3684 d73c 37ae b3bd
000001c0: fac6 31be b263 f5bd 5fdd 813d 709b b0bc
000001d0: ddf2 143e ee01 d03c 4836 17be f183 b83d
000001e0: 0862 e1bd 95d5 fabd 9ee1 133e 4270 29bd
000001f0: 4b62 b0bd 1b8b 9fbd 2969 b93d deec 993d
00000200: 2ff8 42bd 64ff 08be 1f44 af3d 71c3 85bc
00000210: 8842 41be 28a3 fc3d 63f6 8d3d d29e aebd
00000220: e6d8 65bc e361 833c 966b 2d3e 09a5 14bb
00000230: 91c9 263e 745a 01be 5ec9 e43b b5fe 12bb
00000240: bc23 613d 030e 8bbd 0ce7 c9bd 793b dbbd
00000250: 85e6 273d 35c9 463e cad4 23be 2f99 10be
00000260: 889d a1bc 2821 15bd a3f8 e73d 4ddf 4d3e
00000270: e980 acbd e259 cabc da8a 6ebd 81c9 e4bd
00000280: 11c1 003e 0263 2a3e 79b9 0cbe 465e 863d
00000290: cc8c 333e a515 acbd 8dd4 a53d d6d7 1b3e
000002a0: b65e 55bb f82b afbd 56e2 27be 5158 99bd
000002b0: 352d c93d 1480 15be 0bb5 07be 7cab 46be
000002c0: 885f 033c 6cfd 13be 4220 383e 6a99 0bbd
000002d0: f59a 943c 968b 04bd 5a2e 0dbe a881 303d
000002e0: ff96 c6bd 29c6 c4bc 4025 7f3c b3c2 433e
000002f0: c35e 1c3e 15bc 793c 8a1b 0fbc 3277 cdbb
00000300: 12af e2bd 9c9a f7bc d2fb 0c3e c6cc 163e
00000310: e84b 95bd c773 23bd 1a3e 913d b045 e33d
00000320: 068c 94bc dae6 013b ff08 db3b 4b04 233e
00000330: 5492 8f3d 2d3e 163e 901d 23be f28c 9a3d
00000340: c9e2 29be 54e2 103d 1d99 f03d 020f c5bd
00000350: f870 013e cd77 773d 228f 9cbd 5717 f4bd
00000360: bb2d ccbd e76c d2bd 04f6 1cbe 121d 223e
00000370: dbd8 f03d d33b 09be bacd 983c f5dc 50bd
00000380: 12f8 473e 8c38 0cbe 7eeb 163e ea11 debd
00000390: 847f 16be e909 c2bc 9c77 e53d 1694 973d
000003a0: 01f8 78bd 933b a1bd b0cb dc3d ea63 03bd
000003b0: 0dc4 9ebd 6a55 3bbe 82d9 8abd fcc0 e53d
000003c0: 4c83 003e 6b5a 76bc ade5 c1bd 56cc af3d
000003d0: 2663 39be 8a55 913d 23cb 313e 968a f73d
000003e0: 24cf f93d 1e06 5e3d d485 083e 9965 8cbd
000003f0: f210 0f3d 585e 8cbc 0768 383e ce22 733d
-0.13642006 0.088369325 -0.032243814 -0.100917704 -0.15288566 0.17694438 -0.14116937 0.047659203
0.12203284 0.036882214 -0.02977016 -0.02828699 0.09255537 0.14902751 0.09337069 0.07487284
0.15573458 0.19677986 -0.029643781 -0.03340409 -0.032886893 -0.13432766 -0.02528456 0.0855465
0.08121645 -0.14647974 -0.17391081 0.008371377 0.083646044 0.04369978 -0.12654655 -0.05146504
-0.13492855 -0.08466161 0.048628587 0.033409875 0.085860126 -0.19056469 -0.13667904 -0.022144469
0.05056584 -0.14344962 -0.0425127 -0.022661012 0.0447919 -0.14486346 -0.15443265 -0.19204986
0.102715366 0.021761326 -0.15150781 -0.014815474 -0.19279562 0.10613401 -0.06395383 -0.17802861
-0.14406374 -0.13498996 -0.13072415 0.11646997 -0.13317537 -0.15627654 -0.057271708 -0.18770017
0.10011775 -0.14471193 0.020191317 0.14577325 -0.16543107 0.19294882 -0.014760673 -0.104922146
-0.1156646 -0.17304158 0.065727025 0.1741343 -0.023087466 0.07864264 0.13969544 -0.18005192
-0.11886805 0.0054532806 0.09558567 -0.037895374 -0.02942612 -0.10119294 -0.15968968 0.09934165
-0.021902643 -0.1701889 0.08426146 -0.06352188 -0.10682321 0.12160338 0.019960046 -0.007355782
-0.035235032 0.1509859 0.10652837 -0.18978533 -0.14410917 0.04944341 -0.1870684 -0.009943795
0.076342195 -0.105443336 0.16525574 0.14439274 0.007490804 -0.14038518 0.02630816 -0.08773463
-0.1736106 -0.11981906 0.06341051 -0.021558493 0.1454577 0.025391545 -0.147668 0.09009541
-0.11005026 -0.12247769 0.14441535 -0.041366823 -0.08612498 -0.07790204 0.09053261 0.07515882
-0.047599968 -0.13378674 0.08557915 -0.016328545 -0.18873036 0.12335807 0.0693176 -0.08526386
-0.014028763 0.016037887 0.16935572 -0.0022681376 0.16287829 -0.12632161 0.0069820127 -0.002242965
0.05496572 -0.06789782 -0.09858522 -0.10704703 0.040991325 0.19412692 -0.15999141 -0.14120935
-0.019728437 -0.036408573 0.113267206 0.20104714 -0.08423025 -0.024701063 -0.058237888 -0.11171246
0.12573649 0.16639331 -0.13742627 0.0656095 0.17534178 -0.08402566 0.080971815 0.15219054
-0.0032557673 -0.08553308 -0.16394934 -0.07487548 0.09823076 -0.14599639 -0.13252656 -0.19401354
0.008018382 -0.14452142 0.17981055 -0.034081854 0.018140296 -0.032359682 -0.13787213 0.0430924
-0.09696769 -0.024020271 0.015572846 0.1911724 0.15270524 0.015242596 -0.008734593 -0.0062703127
-0.11068548 -0.03022509 0.13767937 0.14726552 -0.072898686 -0.039905336 0.07091923 0.11097276
-0.018133175 0.0019821436 0.006684422 0.15919606 0.07010332 0.14672156 -0.15929246 0.075464144
-0.16590418 0.035372093 0.11747954 -0.09622003 0.1264075 0.060416985 -0.07644488 -0.11918514
-0.0996966 -0.10274678 -0.15328223 0.15831402 0.11760112 -0.13401727 0.018652786 -0.05099197
0.19528225 -0.13693446 0.1473827 -0.108432606 -0.14697081 -0.023686366 0.11204454 0.07401292
-0.06078339 -0.07872691 0.10781038 -0.032077707 -0.077522375 -0.18294302 -0.067797676 0.112184495
0.12550086 -0.015036206 -0.09467635 0.08583896 -0.18104228 0.070963934 0.17362647 0.1208698
0.12197712 0.054205053 0.13332301 -0.06855316 0.03492827 -0.01713483 0.18008433 0.059359364

b1 f4 [128]
00000000: dc2c 6a3c 9f08 faba 2475 7e3b 7204 ffbb
00000010: e4d7 50bc ed73 4ebc 4399 4e3c c4e5 d0bb
00000020: 34d3 f73b deef 553c ef2d 433c 47f6 b83b
00000030: 8873 dfbb 5335 92bb aee0 903b a3ca d13c
00000040: 6235 00bc bbdb 79bb 92c4 d3ba b3bb a63c
00000050: 460e 92bb 80d7 b139 a6e4 8dbc 476c 053b
00000060: ea47 87bc 183d f43b 64c5 a737 cdfc d63c
00000070: e480 94bc c8b1 293b f2af 5c3b 3346 dc3b
00000080: 709e fc3a b05b 5ebc 767a 28bc 7604 65bc
00000090: 33f5 91bc a280 f0bb 3252 02bc 5dd9 20bb
000000a0: c605 acba 51a1 ac3b bc84 99bc 48f5 d9ba
000000b0: 7816 0f3c 2d0d a43a e318 b63b a1d5 193c
000000c0: 5236 003c ad97 39bb 892a 6ebb 3198 9b3a
000000d0: f355 eb3b a1b5 8d3a 8479 16bc ef7d 09bc
000000e0: 9590 25bc e6e7 b7bb 96f8 1a3b e3f0 efbb
000000f0: e8d1 8ebb 1285 323b e03e 663c 6a7c 93bc
00000100: fe36 53ba 348c a5bb 0c44 f2bb 9ed4 eebc
00000110: d0c1 883b 9a83 1539 26d7 823c 7460 35bb
00000120: 7d3a 28bc 0bcc 4dbc 8697 8cbc 670f a9bb
00000130: c103 1fba df46 fdbb 2534 893b d7e8 ae3a
00000140: eb33 b63b d02e 9ebc 06c3 bb3b a5e1 c9bb
00000150: c37a 343c 724f 293c be97 03bb 0c59 08bc
00000160: 9f27 ffbb 0a86 8cbb c859 b9bb a9b0 e6bb
00000170: d8e7 2fbc 8f46 c8bc 7de1 d5bb 9980 a93a
00000180: dd47 883b d3c2 eb3b 3963 0bbc 46dc c53b
00000190: cc2d 7f3b 4ef5 8d3b b829 c13b dcca 903b
000001a0: 1d9d a73b 29ac 4e3b 02f5 1cbc 2479 8ebc
000001b0: bbf5 7ebb d6c5 a038 dde2 4fbb c25e d3bb
000001c0: 2bf4 113c 47f7 5fbc 5d5b b23b b3cd 103c
000001d0: 4959 98bc da19 94bc f239 b8bb 6079 7cb9
000001e0: 56e7 b23c 055a 32bb 7cf5 54bc f25f 60bb
000001f0: 77d5 633c 9e81 843b ecd3 cd3b 88c2 d13b
0.014292922 -0.0019076056 0.0038827145 -0.0077825123 -0.012746785 -0.012600881 0.012609783 -0.0063750464
0.007563019 0.013057677 0.011912807 0.005644593 -0.0068191923 -0.004461923 0.004421315 0.02560932
-0.007825227 -0.0038125354 -0.0016156605 0.020353174 -0.004457268 0.0003392063 -0.017320942 0.0020358728
-0.016513783 0.007453572 1.9999869e-05 0.026243592 -0.018127866 0.002589332 0.0033674208 0.0067222356
0.0019273292 -0.013571665 -0.010283103 -0.013978114 -0.017817115 -0.007339553 -0.007954167 -0.002454362
-0.0013124279 0.005268254 -0.01874005 -0.0016628886 0.008733384 0.0012516134 0.005557166 0.009389312
0.007825451 -0.0028319166 -0.003634127 0.0011870918 0.007181877 0.0010811576 -0.009184245 -0.008391841
-0.010105272 -0.0056123612 0.0023646704 -0.007322417 -0.004358519 0.002723996 0.0140530765 -0.018003661
-0.00080572057 -0.005052114 -0.0073933657 -0.029154118 0.004173495 0.00014258773 0.015971731 -0.0027675899
-0.010267851 -0.012560855 -0.017162096 -0.005159307 -0.0006065928 -0.0077293958 0.0041871243 0.0013344538
0.0055603883 -0.019309431 0.0057300357 -0.006160932 0.011015597 0.010333883 -0.002007946 -0.008322012
-0.0077867056 -0.0042884396 -0.0056564547 -0.0070401025 -0.010736428 -0.024447707 -0.0065271244 0.0012932002
0.0041589574 0.0071948557 -0.008507543 0.0060382215 0.003893721 0.004332221 0.005894866 0.004418714
0.005115165 0.003153572 -0.009579899 -0.017391749 -0.003890379 7.666244e-05 -0.0031720914 -0.006450505
0.008908312 -0.013669795 0.0054430203 0.008838105 -0.018597262 -0.018078733 -0.005622142 -0.00024077808
0.021838825 -0.00272143 -0.012997981 -0.0034236875 0.013905874 0.004043772 0.0062813666 0.0064013638
