saved_models/model-epoch-92.pth (torch, 249162 bytes, 52 tensors)

embeddings f4 [99, 32]
00000000: b8e9 8e3d 4428 10be 7c91 ffbd 2372 b33d
00000010: 17c9 76bd 6aff 903d af4f 6d3d 6e2e 10be
00000020: ee82 e4bd 73a2 16bd 285f 1bbd 34d3 1bbe
00000030: 377f 403e 120f 7fbd 1dab 3fbe 6537 0abc
00000040: 261a 56bd 2f03 b8bd 6e12 c0bc 73b8 1f3d
00000050: 479b 1b3e b0fa 1e3e 0288 ec3d 5206 26bc
00000060: 8120 14be 9b73 393e 78b1 373e 5e57 c0bd
00000070: 89ef 19bd 4fc2 1a3e 4cb8 0dbe e259 423e
00000080: c9b1 a33d e73a e5bd 48f2 2abe 19b3 a5bd
00000090: 2912 44bd 0dd4 2b3e f609 01bd 411c 0ebe
000000a0: ab99 a8bd 8307 44bd 587e c4bc 8d97 723c
000000b0: 0512 6f3d 0380 a8bc c956 503e 70bf ec3d
000000c0: 11ca 393e daa5 0f3e c377 213e cb92 483e
000000d0: 7d27 54be 55da 5abd 09a6 353e 76e3 cabd
000000e0: 48da 55be b938 013d 2bfb 403e c86c a4bd
000000f0: 9bcb 58be 4437 a33d 7cb0 eebd de4c 83bc
00000100: c3be dd3d 25fa 92bd fcb5 483d 8ecc 1fbe
00000110: f156 1e3e 1b96 103e 5661 153e 0612 67bd
00000120: fff6 57be 2e69 4dbe 1643 633d dae6 9a3d
00000130: 6ae8 063e 9f82 283e 773a bb3d 37ac 313e
00000140: 9e2b 81bd b575 523e 1a48 8f38 2241 46be
00000150: 00be 223e 5815 00bd 58e4 4ebe 255e ea3d
00000160: eedd 3e3e 9940 0f3e 1530 3f3e 2926 3e3e
00000170: 70f6 11bc 5a3a 8dbd f5fb 603d a719 1bbd
00000180: f8b4 2b3c 580c 003e e702 79bd 8288 e13d
00000190: c5cc 5a3e fdf0 3fbe 6b51 38be 84b9 48bd
000001a0: 5f7e bcbd c3bc 363e d548 38be 4330 343e
000001b0: de6a e53d 531a 52be 3019 323e 6688 e9bd
000001c0: 1137 40be 1c8f 6f3d 8bb7 babd d9af 213e
000001d0: 2f98 e13d 855a 0dbe 94a2 ffbb f4b2 1ebe
000001e0: e18c 0dbc 619e 7dba 7296 a73d f944 89bd
000001f0: 120e 9fbd 820f 303e 78cc 46be 519a 5abe
00000200: 8df7 edbd ada0 283e a124 073e 23c8 46be
00000210: 0c39 81bd 43d8 523e e1d1 57be b44f fbbc
00000220: 1dbd 493e 1cda ea3c 6dab 503e b483 ec3d
00000230: 87a2 3cbe d37c 573e 785c 363e 9c9d 11be
00000240: 3e76 b83d bf14 d4bd fc9c 2dbe 9b82 b2bc
00000250: 105f 523b 26de 11be e0d5 20be 64f5 40bc
00000260: dc69 6a3c 6b16 363e b97e 523e 887b 2dbc
00000270: db71 f6bd dc92 2d3e 68e6 c23d 1dd4 37be
00000280: faf3 d3bc 29b0 15be ddf2 1d3e 0697 20bd
00000290: 1582 b5bd bcfd c03c 320e 31be 0b25 ad3d
000002a0: 096d 253e 38d8 3ebe 4dff 7bbd cefe be3d
000002b0: fb32 903d 4087 a53d 21fc 033e 8a33 2fbc
000002c0: 8997 b3bd a120 46bd 7e5c 1cbd 5f70 b33c
000002d0: 11bd b73d cf37 2cbe 0ef0 983c 5372 53be
000002e0: 55bf ea3d 72f3 483e 6c84 16be e536 543e
000002f0: 0660 f93d 200b c0bd 0cf5 34be f33b f83d
00000300: b5ac 383e b1dc d0bd d108 11be a91a 50bb
00000310: df56 fdbd 3e9d e3bd 4acc 1a3e a63e 1f3e
00000320: 597d b5bd f60c 383e 5272 813d 7d0f bebd
00000330: 0872 d4bc e90f e5bd 3dff 32be fcff 80bd
00000340: 2e2c 39bd cd00 40be 3b0a 9ebd b431 9dbc
00000350: fd68 563e 94ef 903d a9c4 c53d 2b9e 3bbd
00000360: b4af babd 8acc 80bc 221e 013d 5395 253e
00000370: 1abe 4dbe c646 16be 818c 31be 7420 4d3e
00000380: 23b2 3e3e 91e1 f83d 9191 22be a05a b1bc
00000390: 9c5b 813d e923 233e 0bcb babb fc84 303e
000003a0: a5dc 3e3d 9640 a8bd 9417 bdbd afea 2b3e
000003b0: 3ebe 3ebe 59d5 8f3c 4a74 3b3e e3df d1bd
000003c0: 33aa cd3d 9490 f5bd a11d 343e 570d efbd
000003d0: 57fe 1bbe cefa 04be 39fa 18be fe9d fa3d
000003e0: 0de7 a3bd d9db 533d 59a5 a33d 3ef4 993d
000003f0: 303a 103e ee67 39be 0723 c5bc d8c3 473e
0.06978172 -0.1407786 -0.12478921 0.08762004 -0.060250368 0.07079966 0.05793732 -0.14080212
-0.11157785 -0.036776017 -0.037932545 -0.15217286 0.18798529 -0.06227023 -0.18717618 -0.008436059
-0.05227103 -0.08984982 -0.023446288 0.038994264 0.15195952 0.15525317 0.11549379 -0.010133343
-0.14465524 0.18110506 0.17938793 -0.09391664 -0.037581954 0.15113185 -0.13839835 0.189796
0.07992894 -0.11192875 -0.16693985 -0.08090801 -0.04786888 0.1678011 -0.03150364 -0.13877966
-0.08232435 -0.047858726 -0.023986027 0.01480664 0.058366794 -0.020568853 0.20345606 0.11559951
0.18143488 0.14028111 0.15768342 0.19587247 -0.20718189 -0.053430874 0.17739119 -0.09906666
-0.20884049 0.031548236 0.18845813 -0.08028561 -0.2117142 0.079695255 -0.116547555 -0.016027864
0.108274005 -0.071766175 0.04900168 -0.15605375 0.15462853 0.1411976 0.14587912 -0.056413673
-0.21090315 -0.20059654 0.0554839 0.07563563 0.13174596 0.16456078 0.09142011 0.17350851
-0.063071474 0.20552714 6.832201e-05 -0.19360784 0.15892792 -0.031270355 -0.20204294 0.11443738
0.18639347 0.13989486 0.18670686 0.18569244 -0.008908853 -0.06895895 0.054927785 -0.03786626
0.010480158 0.12504709 -0.060793784 0.11012365 0.21367176 -0.18744273 -0.17999808 -0.049005046
-0.09203791 0.17845444 -0.17996533 0.17596535 0.11202024 -0.20517854 0.17392421 -0.11402969
-0.18771006 0.05848609 -0.09117039 0.15789737 0.11015355 -0.13804062 -0.0078013632 -0.15497953
-0.008639545 -0.00096747844 0.08182992 -0.067026086 -0.077663556 0.17193416 -0.19413936 -0.2134793
-0.11619482 0.16467543 0.13197567 -0.19412284 -0.06309709 0.2059031 -0.21076156 -0.030677654
0.19701047 0.028668456 0.20377894 0.11548558 -0.18421374 0.2104371 0.17808712 -0.1422028
0.09006928 -0.103555195 -0.16954416 -0.021790793 0.0032100119 -0.14244899 -0.15706587 -0.011777256
0.014307465 0.1778199 0.20556153 -0.010588534 -0.12033435 0.16950554 0.09516603 -0.17952009
-0.025873173 -0.14617981 0.15424676 -0.039206527 -0.08862702 0.02355849 -0.17290571 0.08454331
0.16154875 -0.18637168 -0.06152277 0.09325944 0.07040974 0.080824375 0.12889148 -0.01069344
-0.087691374 -0.04837096 -0.038174145 0.021904169 0.089716084 -0.16818164 0.018669154 -0.2064908
0.11462275 0.19624117 -0.14698952 0.20724066 0.12176518 -0.09377122 -0.17671603 0.121208094
0.18034633 -0.101983435 -0.1416352 -0.0031754172 -0.12370085 -0.11113976 0.15116993 0.15551242
-0.08861799 0.17973694 0.06320633 -0.09280298 -0.02593328 -0.11184675 -0.17480178 -0.06298825
-0.04520815 -0.18750305 -0.07716795 -0.01918874 0.20938487 0.07076946 0.096566506 -0.045805138
-0.09115544 -0.015722532 0.031522878 0.16170244 -0.20092049 -0.14675435 -0.17338754 0.20031911
0.18622641 0.121523984 -0.15875842 -0.021649659 0.06316301 0.15931667 -0.005700474 0.1723823
0.04659714 -0.08215444 -0.09233013 0.16788743 -0.18627259 0.017557787 0.1830608 -0.10247781
0.100422285 -0.11990467 0.17589428 -0.11672466 -0.15233742 -0.129863 -0.14939202 0.12237166
-0.08003054 0.051723335 0.07990522 0.075172886 0.14084697 -0.18106052 -0.024064554 0.19508302

_pos_embeds f4 [64, 32]
00000000: 0000 0000 0000 803f 0000 0000 0000 803f
00000010: 0000 0000 0000 803f 0000 0000 0000 803f
00000020: 0000 0000 0000 803f 0000 0000 0000 803f
00000030: 0000 0000 0000 803f 0000 0000 0000 803f
00000040: 0000 0000 0000 803f 0000 0000 0000 803f
00000050: 0000 0000 0000 803f 0000 0000 0000 803f
00000060: 0000 0000 0000 803f 0000 0000 0000 803f
00000070: 0000 0000 0000 803f 0000 0000 0000 803f
00000080: a46a 573f 4051 0a3f ba7d 083f 0e94 583f
00000090: 3e39 9f3e 6a4e 733f 3a23 353e 83f6 7b3f
000000a0: 7675 cc3d 98b8 7e3f b036 663d 6898 7f3f
000000b0: 5c81 013d 3cdf 7f3f 42ab 913c a3f5 7f3f
000000c0: 57d6 233c b9fc 7f3f 5c44 b83b f7fe 7f3f
000000d0: 203e 4f3b acff 7f3f 2015 e93a e5ff 7f3f
000000e0: 6d12 833a f8ff 7f3f 166a 133a fdff 7f3f
000000f0: 5fcb a539 ffff 7f3f 5377 3a39 0000 803f
00000100: b7c7 683f 3311 d5be 0af2 663f b2e8 dc3e
00000110: 1b54 173f ec7b 4e3f f647 b23e a5fa 6f3f
00000120: f96f 4b3e a5e5 7a3f 88d9 e53d f361 7e3f
00000130: c870 813d f97c 7f3f 5ca5 113d 8ed6 7f3f
00000140: 3ed4 a33c e5f2 7f3f 9d43 383c dbfb 7f3f
00000150: dd3d cf3b b0fe 7f3f 0815 693b 96ff 7f3f
00000160: 6912 033b deff 7f3f 146a 933a f5ff 7f3f
00000170: 5fcb 253a fdff 7f3f 5377 ba39 ffff 7f3f
00000180: c381 103e 2670 7dbf d745 7e3f a87f edbd
00000190: c209 503f 572f 153f 6d2f 023f 296d 5c3f
000001a0: 6d4e 973e ef90 743f d8ee 2b3e 9e5d 7c3f
000001b0: c1ff c13d 4fd9 7e3f 4d69 5a3d c3a2 7f3f
000001c0: 20b9 f53c 83e2 7f3f c731 8a3c adf6 7f3f
000001d0: 116e 1b3c 0dfd 7f3f a8cf ae3b 11ff 7f3f
000001e0: 939b 443b b5ff 7f3f 1b1f dd3a e8ff 7f3f
000001f0: 0db1 783a f8ff 7f3f 7ed9 0b3a feff 7f3f
00000200: cfbd 41bf 3055 27bf ed49 473f 9daf 20bf
00000210: de1d 743f b12e 9a3e bc1f 273f edeb 413f
00000220: d761 c73e a7ca 6b3f c665 643e 098d 793f
00000230: 882e 013e 69f4 7d3f c88d 913d 475a 7f3f
00000240: dbcb 233d 94cb 7f3f a240 b83c 6cef 7f3f
00000250: cd3c 4f3c c2fa 7f3f a714 e93b 58fe 7f3f
00000260: 5812 833b 7aff 7f3f 0e6a 133b d6ff 7f3f
00000270: 5ccb a53a f3ff 7f3f 5277 3a3a fcff 7f3f
00000280: 107c 75bf 2c3c 913e d6da a53e 4032 72bf
00000290: 7ffc 7f3f d472 29bc abca 463f f14c 213f
000002a0: 4477 f53e 40a9 603f ee11 8e3e 7cf2 753f
000002b0: 1e3c 213e 81ce 7c3f 21db b53d 1efd 7e3f
000002c0: f5b6 4c3d 19ae 7f3f fe4d e63c 19e6 7f3f
000002d0: 8185 813c cff7 7f3f bbac 113c 69fd 7f3f
000002e0: ded6 a33b 2eff 7f3f 8c44 383b beff 7f3f
000002f0: 313e cf3a ebff 7f3f 2615 693a f9ff 7f3f
00000300: 8c0f 8fbe b8cd 753f 74e5 6bbe 531d 79bf
00000310: 4d78 723f 6f3f a4be 8930 603f 342f f73e
00000320: 698c 103f 3249 533f fd7d a93e e290 713f
00000330: 6f20 413e e367 7b3f c119 da3d 518b 7e3f
00000340: d19c 753d 128a 7f3f bf2c 0a3d b3da 7f3f
00000350: 466c 9b3c 34f4 7f3f 04cf 2e3c 45fc 7f3f
00000360: 599b c43b d2fe 7f3f 061f 5d3b a1ff 7f3f
00000370: 05b1 f83a e2ff 7f3f 7dd9 8b3a f6ff 7f3f
00000380: 4630 283f bdff 403f 6eb6 36bf 604f 33bf
00000390: 6fe8 4c3f bb74 19bf 4484 723f b9f8 a33e
000003a0: 73eb 243f b3cc 433f df60 c43e c56b 6c3f
000003b0: 50d3 603e eac0 793f ba46 fe3d e904 7e3f
000003c0: 323e 8f3d 815f 7f3f 6031 213d 3bcd 7f3f
000003d0: a652 b53c f2ef 7f3f 2af1 4b3c ecfa 7f3f
000003e0: c75f e53b 65fe 7f3f befc 803b 7eff 7f3f
000003f0: ec11 113b d7ff 7f3f 6628 a33a f3ff 7f3f
0.0 1.0 0.0 1.0 0.0 1.0 0.0 1.0
0.0 1.0 0.0 1.0 0.0 1.0 0.0 1.0
0.0 1.0 0.0 1.0 0.0 1.0 0.0 1.0
0.0 1.0 0.0 1.0 0.0 1.0 0.0 1.0
0.84147096 0.5403023 0.53316844 0.84600914 0.3109836 0.95041525 0.17689219 0.9842302
0.099833414 0.9950042 0.056204498 0.9984193 0.031617507 0.99950004 0.017781857 0.99984187
0.009999833 0.99995 0.0056233834 0.9999842 0.0031622723 0.999995 0.0017782785 0.9999984
0.0009999998 0.9999995 0.0005623413 0.9999998 0.00031622776 0.99999994 0.00017782794 1.0
0.9092974 -0.41614684 0.9021307 0.43146282 0.5911271 0.8065784 0.34820527 0.9374183
0.19866933 0.9800666 0.112231314 0.9936821 0.063203394 0.9980007 0.03555809 0.9993676
0.019998666 0.9998 0.011246589 0.99993676 0.0063245133 0.99998 0.0035565514 0.9999937
0.0019999987 0.999998 0.0011246824 0.99999934 0.0006324555 0.9999998 0.00035565588 0.99999994
0.14112 -0.9899925 0.9932532 -0.11596614 0.8126489 0.5827536 0.50853616 0.86104065
0.29552022 0.9553365 0.1679033 0.9858035 0.09472609 0.99550337 0.05332308 0.9985773
0.029995501 0.99955004 0.016869439 0.9998577 0.009486691 0.999955 0.005334813 0.99998575
0.0029999956 0.9999955 0.0016870232 0.99999857 0.0009486832 0.9999995 0.0005334838 0.9999999
-0.7568025 -0.6536436 0.77847177 -0.62767965 0.95358074 0.30113748 0.652828 0.7575062
0.38941833 0.921061 0.22304448 0.9748083 0.12615407 0.99201065 0.07107121 0.9974713
0.039989334 0.9992001 0.022491757 0.99974704 0.012648773 0.99992 0.0071130577 0.9999747
0.0039999895 0.999992 0.0022493633 0.9999975 0.0012649107 0.9999992 0.0007113117 0.99999976
-0.9589243 0.2836622 0.3239352 -0.94607925 0.99994653 -0.010342319 0.77652997 0.6300803
0.47942555 0.87758255 0.27748054 0.96073127 0.15745589 0.987526 0.08879686 0.99604976
0.04997917 0.99875027 0.028113361 0.99960476 0.01581073 0.999875 0.00889128 0.9999605
0.0049999794 0.9999875 0.002811703 0.99999607 0.0015811381 0.99999875 0.0008891396 0.9999996
-0.2794155 0.96017027 -0.23036748 -0.9731037 0.94714814 -0.32079646 0.8757406 0.482782
0.5646425 0.8253356 0.33103934 0.943617 0.18860029 0.98205394 0.106494434 0.9943133
0.059964005 0.99820054 0.03373408 0.99943084 0.018972527 0.99982 0.010669474 0.9999431
0.005999964 0.999982 0.0033740415 0.99999434 0.0018973654 0.9999982 0.0010669675 0.9999994
0.6569866 0.75390226 -0.71372116 -0.7004299 0.80042166 -0.5994374 0.9473307 0.32025698
0.64421767 0.7648422 0.38355157 0.92351943 0.2195561 0.9755999 0.12415834 0.9922624
0.06994285 0.997551 0.03935373 0.9992253 0.022134136 0.999755 0.012447635 0.9999225
0.006999943 0.9999755 0.003936379 0.99999225 0.0022135926 0.99999756 0.0012447953 0.9999992

W f4 [32, 32]
00000000: b260 063e 7567 9f3d 2baf 61bc 6874 a93d
00000010: 8eb9 82be f179 20be 7b3d babd cba1 2b3e
00000020: f8d2 2ebe 0822 cfbd ed10 963b 81e5 3fbe
00000030: 531a 543e e7f0 223d d86f be3d 7939 8dbd
00000040: caab 64bd cc0a b43d af2a 833e ac51 363e
00000050: 0455 65be ee8a 813d a528 b43d 980a 673e
00000060: f4d6 df3d 37ef 63be 0474 9b3d 2a3d 463e
00000070: bfff 393e 1d26 0cbe 9420 53be 932e 103e
00000080: 6522 80bb 5b98 79be 24e1 22bd c509 2f3e
00000090: eaab f1bd 5b79 933d 2879 0abd 42ce 8d3e
000000a0: 3c2c 063e cebd 2a3d db9d abbd e5cb 49be
000000b0: 3851 883e a4d4 71be 772d 833e a890 3d3d
000000c0: 213e 0dbe 45bd 913e e0ec 83be 3133 fa3d
000000d0: 7659 4a3e f905 9f3e b1fc 21be 633c 6f3e
000000e0: 5efa 343e d44a f23d e1c9 1f3e ee6f 4ebc
000000f0: 9cfb 833e d386 853e 55e0 16be db0c 933e
00000100: 3585 113d 491d f33d 58c4 06be 0e2a d73d
00000110: ee3c 493e 3df2 4f3e feb4 873e fe1a 3cbe
00000120: f858 5a3e 2e3c c6bd 034a 75be c668 89be
00000130: c3e0 8bbe fc15 1dbe b166 58be 36d1 0b3e
00000140: bfe5 32be 6e16 ca3d b6fe 2f3e 8af3 75be
00000150: c11d 033e ff21 4abe 59d1 c2bd 7aa2 14be
00000160: e91e c1bd c05e 75be acbd 13be 0741 0abc
00000170: b6e2 a8bc a7de 7bbd c9cf 98be 73ff 033e
00000180: 482f 043e bfb9 323e 73d9 6ebe 2e21 3fbe
00000190: 7cd1 32bd c2a9 d33d 0d5c d53d 7d73 6c3d
000001a0: 2727 4bbd 9110 063e 4fb1 8abd 9c75 debc
000001b0: 24ed 843e 0110 923e 4a52 75be 52b3 d9bc
000001c0: 4f64 673e d7be 4fbe b84b 463e 6588 47bd
000001d0: 56dc 40be ef60 8b3e 640a 9b3e d784 ff3d
000001e0: 0818 2e3e dadf 18be d742 383e 27c2 003e
000001f0: ac6d 40bd 231b cfbb 3b27 c73d 5a6e 9bbe
00000200: 23de 21be 6d93 2dbe a0c3 79be 89f8 213d
00000210: e067 433d b147 4bbe 9161 26bd 3498 853d
00000220: f29b 3c3e 74c2 6c3e efa0 9dbe 1b5c 1bbe
00000230: 0af8 69be 7887 f6bd 2271 233e 6ef5 7cbe
00000240: d67c 5f3c 3adf 953d 299e 283e aec5 98be
00000250: e41d 77be 8201 803e eb6f fa3d 5607 4d3e
00000260: 9e67 29be 6496 e93d fcc3 7dbe 53d6 70be
00000270: b4ab 0d3e 17d5 093e f446 75be a096 9abe
00000280: 4e30 883d 0515 c63d 1c76 3cbd 050c c6bd
00000290: 97a1 363d 7e01 80be 1e91 5bbe 9c60 0dbe
000002a0: a4f3 3cbe c27f 8fbe fcdc 8e3e 425e 723e
000002b0: a5a3 03be 9a14 313e 7c3c abbd 74c4 0c3e
000002c0: 7d51 833e c598 033e 9fe6 87be e58c 66be
000002d0: 7ce4 ee3d b94b 313e efcc 303e 9d75 673e
000002e0: 769c 83be 0fe2 143d c29e 093e 7e1e 553c
000002f0: 88d1 223e 3b34 21be 4c2f 6cbd 60e7 093e
00000300: 02c9 0cbd 04e5 253c 1b6b 32be 0fbb 283d
00000310: b75d 50be 2b48 53be 7a3f 4d3c 9b92 7dbe
00000320: 2f4b 903e 3baf 38be 1855 97be 5b8d 663e
00000330: 5cdb 323e 8811 363d a9c5 31be d205 713e
00000340: f862 86be 402b 093e d087 45be 4df2 83be
00000350: dadd 9dbe 1dd2 17bd 3188 213e 6464 02be
00000360: 71c3 953d 901f 9d3d 6e39 7bbe ac96 89be
00000370: be35 33bd 6c14 15be 2cc0 5d3d 9651 7b3d
00000380: 232f b8b9 2d96 8dbe 470b 613e 8ed1 88be
00000390: e537 a63d 1442 bcbd 7245 09be af8a 22be
000003a0: f74d bc3d 3e41 7a3e 4229 f13a 2fc9 043e
000003b0: f9a5 863e 0c11 68be cfd8 20bd 5c30 243e
000003c0: 8b78 373e dc1d c5bd edcb 0dbe d18b 933e
000003d0: d679 14be 4a45 49be 4546 893e d773 5e3c
000003e0: 2ee4 6ebe 3805 853e 2616 5cbe 2558 00be
000003f0: 3313 9a3d 2db7 32bd 8c36 4ebe 3f9d ce3d
0.13122824 0.07783405 -0.013774673 0.08274156 -0.25532192 -0.15671517 -0.09093758 0.16760938
-0.17072666 -0.10113913 0.0045796544 -0.18739893 0.20713167 0.039780524 0.09298676 -0.06895728
-0.055827893 0.08791122 0.25618502 0.17804593 -0.22395712 0.06325327 0.08796815 0.22562635
0.10929671 -0.22259222 0.075904876 0.1935927 0.18163966 -0.13686414 -0.20617896 0.14080267
-0.00391035 -0.24374525 -0.039765492 0.1709357 -0.11800368 0.07200881 -0.03380695 0.27696425
0.13102812 0.041684918 -0.08379718 -0.19706686 0.26624465 -0.23616272 0.25620624 0.046280533
-0.13793232 0.28464714 -0.2576666 0.12216795 0.19760689 0.31059244 -0.1581905 0.2336288
0.17673633 0.118306786 0.15604354 -0.012599928 0.257779 0.26079425 -0.14734013 0.28720745
0.035527427 0.1187082 -0.13160837 0.10506068 0.19652149 0.2030725 0.26505274 -0.18369672
0.21323001 -0.09679447 -0.23954014 -0.26837748 -0.27319917 -0.15340418 -0.21132924 0.13654026
-0.17470454 0.098675594 0.17187008 -0.24018684 0.12804319 -0.19739531 -0.09512586 -0.14515105
-0.09429724 -0.23961926 -0.14427823 -0.008438355 -0.020615917 -0.061491635 -0.29846027 0.12890415
0.12908661 0.17453669 -0.23325138 -0.18665001 -0.04365681 0.10335113 0.10417948 0.057727326
-0.049597885 0.13092257 -0.067721 -0.02715569 0.25962174 0.28527835 -0.23957172 -0.026574764
0.22596858 -0.20287643 0.19364822 -0.04871406 -0.18834051 0.27222392 0.30281365 0.12476509
0.17001355 -0.14929143 0.17994247 0.12574063 -0.04697959 -0.0063203736 0.097242795 -0.3035763
-0.15807395 -0.1695077 -0.24391031 0.039543662 0.047706485 -0.19851567 -0.04062039 0.06523171
0.18418863 0.23121053 -0.30786845 -0.15171854 -0.22848526 -0.12037557 0.15961125 -0.24702999
0.013640603 0.07317968 0.16466583 -0.29838318 -0.24132496 0.2500115 0.12228378 0.2002233
-0.16543433 0.11405638 -0.24781793 -0.23519258 0.13835031 0.13460194 -0.23952848 -0.30193043
0.066498384 0.09671978 -0.046011075 -0.09670261 0.044587698 -0.25001138 -0.21442077 -0.13806385
-0.18452317 -0.2802716 0.27902973 0.23668769 -0.12855394 0.17293015 -0.08361146 0.13746816
0.25648108 0.12851246 -0.26543137 -0.22514684 0.11664674 0.17314042 0.17265676 0.2260346
-0.25705308 0.0363484 0.13439468 0.013007758 0.15900242 -0.1574258 -0.057662293 0.13467169
-0.034371383 0.010125402 -0.1742367 0.041194018 -0.2034825 -0.20632999 0.012527341 -0.24762957
0.2818236 -0.18035595 -0.2955711 0.2251486 0.17466491 0.044450313 -0.17360558 0.23537377
-0.26247382 0.13395405 -0.1929009 -0.25770798 -0.30833322 -0.037065614 0.15774609 -0.12733608
0.07312668 0.07672036 -0.24533626 -0.26872766 -0.043752424 -0.14558572 0.054138348 0.061357103
-0.00035130334 -0.27653638 0.21976958 -0.26722378 0.0811613 -0.09192291 -0.13405398 -0.15873216
0.09194558 0.2443895 0.0018399137 0.1296737 0.26298502 -0.22662753 -0.039269265 0.16034073
0.17917077 -0.09624836 -0.13847323 0.2881761 -0.14499602 -0.19655338 0.26811424 0.013577423
-0.23329231 0.25980544 -0.21492824 -0.12533624 0.07523193 -0.04363172 -0.20137995 0.10088586

b f4 [32]
00000000: 443c c43b bb06 3a3c b716 5ebc 0225 b23b
00000010: 91e4 d839 ea2d f2bb bf34 d6bb 5f4f ba3c
00000020: 7b6e 023c b117 5b3c 0357 153b f0a8 133b
00000030: 44ad 82bb 740e 563c e570 b5bb 9d69 963c
00000040: 8e22 ca3c 4dd2 96bb 162e 94bb a016 87bb
00000050: 089f 60bc 38a8 39bb 553e 97bc 4544 493c
00000060: 69fc 703c 64cb 0c3c 139e 84bb d69f 0bbc
00000070: 8a2e 62bc 799a 783c de4a d2bb fdf2 ac3c
0.0059886295 0.011354144 -0.01355522 0.0054365406 0.00041369026 -0.0073907273 -0.0065370495 0.022742925
0.007960911 0.013372348 0.0022787459 0.0022531115 -0.00398794 0.013064969 -0.0055371397 0.018360907
0.02467468 -0.0046027065 -0.0045220954 -0.00412257 -0.013709791 -0.0028329026 -0.01846234 0.012284343
0.014708617 0.008593414 -0.004047164 -0.008521995 -0.013805041 0.015173548 -0.0064176163 0.02111196

W f4 [32, 32]
00000000: 9724 71be 8865 93bd f979 5fbe 6ec3 1b3e
00000010: b452 03be 576e a13c 3f5f 13bd f54d 863c
00000020: 0b5e 27be c8da 2fbe 749b 80bd 623c 953e
00000030: b6e2 af3d 1a5e 673d aa50 d03c 3fab 4abd
00000040: 24e6 d23d 86ba 633e 92f9 a4bd a408 92be
00000050: 4e3f 8fbe 4239 103e 54ab d7bc cfbf f4bd
00000060: 68e2 febd 6e6c dcbd 2f59 1abe b647 733e
00000070: 092d 6cbe b1a4 5d3d 19aa 5a3e aa34 56be
00000080: 9f8a 483e c813 643e e764 4a3e 8c1b 82be
00000090: 8070 403e 9313 4dbd 3dfa 903b d40a db3d
000000a0: 1f3b 963e 8faf a7bd f99b 0d3e 6b42 9f3e
000000b0: 94dd 5f3e 44eb d93d 9f7b 8b3e dcb0 9b3e
000000c0: 0583 213e 4e7c a33d 71ac 203e 8455 5dbe
000000d0: b24e 81be 070c 7c3d a9c6 f73d 3466 643e
000000e0: f12d 34be a363 943d cc47 81bc 6e90 6bbe
000000f0: e379 d63d 1d30 85bd 08df fcbd 55a2 1dbe
00000100: b392 433e 1bb2 eebd 0402 793e 3d60 d33d
00000110: 7372 153d 74b8 143e 6540 0c3e a542 1bbe
00000120: 2e4a 84be d1f8 8dbd fcad 6a3e 3c86 693e
00000130: 4b83 b43d 1909 993e e6ab 80be c5b1 843e
00000140: 644c 483e 3056 803e 2cd6 343c a464 2b3e
00000150: bcd5 c23d c75a 79be 1ba7 86be 9cd2 8a3e
00000160: 6af9 813e 1ede 0dbe ba21 413e afcf 46be
00000170: c218 8ebe 6744 41bd 758f 9dbe 6d22 6a3d
00000180: fa3f babd 614a b7bc 6807 76bd f84f 433e
00000190: 33cd 583d d13a 6a3e 22fe 31bd 08d8 4bbe
000001a0: 2d8e 8fbe a037 cd3d 5900 e5bd e3cb 903e
000001b0: 2785 053e 4d77 5cbe 3d6f fb3d 7285 703c
000001c0: 5f6a 6dbe a4c8 a5bc 3d1f 89be 4a02 b03d
000001d0: 107a 813e d481 41be 64c3 3fbe 9a5b 9a3c
000001e0: 7cad 6cbe 787b 2e3e ca7b e4bb ad72 52be
000001f0: f20d 703e 4ba9 5dbe 6b92 34be 0ac4 87be
00000200: 26ca 4f3e 3239 f33c 26d9 e9bd 26aa 6d3e
00000210: e9c9 82be 5bcf 57be 5336 3a3c 17f0 053e
00000220: 936a 1e3e eb84 36be aa3c 1f3e dd76 583d
00000230: c953 903e d872 723e 15c7 2cbc f6cf 723d
00000240: 3c9d 893c 1ff2 993d 3de7 783e 5a91 75be
00000250: 19fa 933e 6915 063e 3a36 1abd f4ae 6cbe
00000260: c2a8 33be 0c42 953d 4b05 733e 2251 85be
00000270: 70fc 72be ac4a f93d a398 80be bf61 673e
00000280: ecf2 59be 3a79 e63d a343 903e b26d a2bd
00000290: ceb3 a4bb 1c91 d2bd 2b29 673e 6300 523e
000002a0: bad7 a73d 3881 c1bd f995 383e 1fd1 be3a
000002b0: 792b af3d 25ba 84be 2a82 4ebe c556 8c3e
000002c0: 2281 b43d 3f01 523e 3467 5cbc 54c2 06be
000002d0: 3a09 343e 917d 843e ff88 133e 6f33 e03d
000002e0: 8854 8a3e 8617 61be 3458 0fbc af63 66be
000002f0: 4b0b 853d fdd7 363e d3a7 7ebd 474a b93d
00000300: 036d 633e 1acc 8f3e a0ca c7bc 9996 1b3e
00000310: 5f5e 503e 9352 2b3e 9bca 6cbe ce9a a13b
00000320: 1720 94bc 8177 943e e9fc 973e 8cfd 6e3e
00000330: 97b4 a5bd d21d 493e 5323 c6bd 16e4 793e
00000340: a174 5e3e 0747 323e acd5 85be 352f 22be
00000350: 47dd 0b3a bde8 333e e91e 913d 8281 efbc
00000360: a1d8 86bd f6fa 88be e661 153e 95eb 883e
00000370: 7962 5c3e c8b9 81be 78f8 2abe 46e8 2cbe
00000380: 5e45 8c3e 3e06 51be 7c76 22be b48c 203e
00000390: fd6c 6a3e 644f 293d 9b72 f9bd 16c3 8f3d
000003a0: 51d4 0b3c ef7e d1bc a915 323e 87d0 87be
000003b0: 4012 98bd 6661 35be aac1 7fbd 6c4e 99be
000003c0: 450c 923d fef4 9b3e 9f7e 6b3e 097e b0bd
000003d0: 94bb 193e ead8 5dbe aa85 6d3d 99e5 c2bd
000003e0: 99f4 bcbb 552e 99be 8679 143e 9e50 823e
000003f0: e593 7d3d 6973 013e 53c4 94be 7224 983e
-0.23549114 -0.071971 -0.21823873 0.1521127 -0.12824517 0.019705934 -0.035979506 0.016394595
-0.16344468 -0.17173302 -0.0627965 0.2914763 0.085881636 0.056486227 0.025429089 -0.04947972
0.10297802 0.22239122 -0.08055414 -0.28522217 -0.27977985 0.14084342 -0.026326813 -0.11950647
-0.12445527 -0.10762869 -0.15073083 0.23757824 -0.23064055 0.05411214 0.2135395 -0.20918527
0.1958413 0.22273171 0.19765054 -0.25411642 0.18792915 -0.050067496 0.004424362 0.10695425
0.2934198 -0.08187782 0.1382903 0.3110536 0.21861869 0.106405765 0.27242753 0.3040837
0.15772636 0.079826936 0.15690781 -0.21614653 -0.25255352 0.061534908 0.12098438 0.22304612
-0.1759565 0.07245567 -0.015781306 -0.23004314 0.10472467 -0.065033175 -0.12347227 -0.15393956
0.1909893 -0.11655065 0.24317175 0.1032109 0.0364861 0.14523488 0.1369644 -0.15162142
-0.25837845 -0.069322236 0.22917932 0.22805113 0.08814105 0.29889753 -0.25131148 0.25916877
0.1956039 0.25065756 0.011037391 0.1673761 0.09513423 -0.24351035 -0.26299366 0.27113807
0.253856 -0.13854262 0.18860522 -0.19415163 -0.27753264 -0.047184374 -0.30773512 0.057161737
-0.09094234 -0.022374334 -0.060065657 0.19073474 0.05293007 0.22873999 -0.04345525 -0.19906628
-0.2803816 0.10020375 -0.11181707 0.28280553 0.13039075 -0.21529885 0.122770764 0.014680253
-0.23185109 -0.020237274 -0.26781645 0.085941866 0.2528844 -0.18897182 -0.1872688 0.018842507
-0.23113054 0.17039287 -0.0069727646 -0.20551558 0.2344282 -0.21646611 -0.17633979 -0.26516753
0.20291957 0.029690359 -0.11418371 0.23209438 -0.2554467 -0.21075194 0.011365491 0.13079868
0.15470342 -0.17824142 0.15550485 0.05284773 0.28188923 0.23676622 -0.010545512 0.05928036
0.016798608 0.07516884 0.2430696 -0.23981228 0.28901747 0.13094105 -0.03764937 -0.23113614
-0.17544845 0.07287988 0.23732488 -0.26038462 -0.2372911 0.12172446 -0.25116453 0.22595881
-0.21284074 0.11253591 0.28176603 -0.07931079 -0.005026317 -0.10281584 0.22574298 0.2050796
0.081954435 -0.09448475 0.1802596 0.0014558173 0.085532136 -0.25923267 -0.20166841 0.2740995
0.08813693 0.20508288 -0.01345234 -0.13160068 0.17581645 0.2587705 0.14407729 0.1094731
0.27017617 -0.2198163 -0.008749057 -0.22498964 0.064962946 0.1785583 -0.06217177 0.090473704
0.22209553 0.28085405 -0.024388611 0.15194167 0.203485 0.16730718 -0.23124163 0.0049317842
-0.018081708 0.28997424 0.29685143 0.23338908 -0.080910854 0.19640282 -0.09674706 0.24403414
0.21724178 0.17409907 -0.2613958 -0.1583832 0.0005335402 0.17569251 0.07085974 -0.029236559
-0.065842874 -0.26753968 0.14588127 0.26742235 0.2152194 -0.25337052 -0.16696346 -0.1688548
0.27396673 -0.20412537 -0.1586551 0.15678674 0.22893138 0.04133548 -0.121800624 0.070196316
0.008534507 -0.025573222 0.17391075 -0.2652628 -0.07425356 -0.17712936 -0.06244055 -0.29942644
0.071312465 0.30460352 0.22997521 -0.08617789 0.15012962 -0.21664777 0.0579888 -0.095164485
-0.005766463 -0.2991816 0.14499483 0.2545213 0.06190862 0.12641682 -0.29056033 0.29715306

b f4 [32]
00000000: cd54 ceba 9c6f 82bb c574 2a39 ede4 a23b
00000010: ec6c 88bc 1232 173c 45dc 1e3c e2ac 233c
00000020: 73d3 403a b001 793b 12a4 68bc 4883 683a
00000030: 9d84 2fbc 5dd5 12bc 3d9c 5ebb ce3b 463b
00000040: 3c52 6abb 19d0 7e3b 5320 963a 065c 1ebb
00000050: eab6 263b 23bd 17bb 179d c13b f0b0 5e3b
00000060: 2d65 35bc d912 11bb 1b45 173b 9faa 20bb
00000070: eb51 96ba a9c4 023c 3d67 153c 1f29 92bb
-0.0015741825 -0.00398059 0.00016255963 0.0049711377 -0.0166535 0.009228246 0.009696071 0.009989949
0.0007355727 0.003799539 -0.014199274 0.000886966 -0.01071277 -0.008962003 -0.0033967637 0.0030248049
-0.0035754582 0.003888136 0.0011453725 -0.0024163737 0.0025438615 -0.0023153506 0.005908619 0.0033979975
-0.0110714855 -0.0022136478 0.0023081962 -0.002451576 -0.0011468505 0.007981458 0.009118852 -0.0044604684

W f4 [32, 32]
00000000: c890 bd3d de3a 383d 7211 053e 8724 703d
00000010: 1612 87bd 6012 ad3d 4d5d a53c 3cd3 77be
00000020: ff20 343e 37ff a23e 5e60 293e ec7f 2e3c
00000030: c4e0 0bbe 28ea 57be 2a42 9f3d 1076 82be
00000040: e429 d0bd a318 80be 52ac 95bd 249a 513e
00000050: 2e67 2cbe 9f8c babd ab36 653e ed51 1c3e
00000060: 8b58 583e a308 f73c 14af 3c3e 41a4 a1bd
00000070: 2d6e 5ebe 7877 98be 6428 1a3e 5440 88bc
00000080: 1896 053e 3f80 163c 8144 c9bd 8f01 173e
00000090: b599 943e 0517 443e b450 5f3d 4301 5f3e
000000a0: 7349 87be 3232 dabd 25a1 1dbd 50a5 7dbe
000000b0: 5f7d 063e 9713 25be 5179 afbb 4eb9 533e
000000c0: 2b81 8e3e 84fd e93d f414 3f3d c76d ca3d
000000d0: ad65 44be 63e3 843e 2905 4fbe 5dec 9abc
000000e0: 0ac0 90bd 85c6 9a3e f2a5 313e dab9 a63c
000000f0: 59cc 54bd 392c 783d 3d46 83bd 6ec1 5c3e
00000100: fec6 933e 1428 683d e51f 4a3e ca63 863e
00000110: 0bd8 3d3e 2981 55be 8cef c23d aea0 42be
00000120: 44aa 05be c037 34be 1194 3d3e 521b 9bbe
00000130: 1442 2e3e 2f04 003d 4995 9dbe 1296 98bd
00000140: 80dc 97be 9c22 8d3d 2474 9cbe ecc7 ab3d
00000150: 701b e93d 2161 df3c 1e4d cf3d 79d1 b0bd
00000160: 35c0 843e 29af ad3d ae81 323d 7cdc 8e3e
00000170: 2b3f 923c 34d4 cdbd 4a08 47be 8d7b 253e
00000180: aee5 7b3e 8628 92be 2c59 473e e52b d4bd
00000190: a9f1 eebd 8c35 89be 2461 dabd 2e4a 94bd
000001a0: 96aa 55be e725 1fbe a64d 30be c1ad 5bbe
000001b0: 52eb 62bc 69ee 303b ab7e 35be 7f8a 4bbe
000001c0: da5b 55be 52aa 01bd af01 eebd 6c71 95be
000001d0: 6428 2b3e 7375 42be 8ee3 07bd 9c04 89be
000001e0: f250 1a3e 8880 28bd 3f0e d43d c6f6 0d3e
000001f0: ae6e 9cbe 3fac 2dbe bcce 003e c032 8bbe
00000200: f08a 293e e12a 4e3c ccea 253e 0c14 3d3e
00000210: f1f1 ca3d 36bd f2bc 7807 ecbc a2eb 93bd
00000220: 3210 1bbe 6b7f bc3d cdb2 8bbe 2b30 b13d
00000230: ce31 9abd b876 08bc 4ac0 c4bc b845 4cbe
00000240: e020 433e 9a79 6bbd a168 083d a27d 89be
00000250: 5188 233d 0651 923e 4419 9f3e ef4b c03d
00000260: 4475 d3bd 3a7d 853d 54d8 b23d b682 69be
00000270: e249 b03d 60a7 48be 38bd 54be 247c 9b3e
00000280: 23d0 dfbd 4c73 c5bd e9e1 c83d b9cd 283e
00000290: a2bc 293e 5396 33be 677b 40be cd56 463e
000002a0: 7e04 4f3e 1897 90bd c487 8d3d 17e3 903e
000002b0: 4b41 473e 273c 3ebe 8c77 2cbe f62c 8e3e
000002c0: f3b1 ddbd 094d 8e3e 266a 6e3e d545 793e
000002d0: 8635 413e 15f2 82be 4635 9a3e b464 cdbd
000002e0: 291b a13c 0747 993e 9218 27bd 4c57 0bbe
000002f0: 9983 003e 4b62 54be fc13 d8bd 0c8c f5bd
00000300: 3ece 56be d6fc 713e 3bb0 8a3d 36d0 8d3d
00000310: 7d6a 913e 7284 76be bff2 18be 6897 a23c
00000320: a7be 8f3e 5576 9a3e 8551 913d 74c6 143e
00000330: 70aa 6fbe 1a96 943e d5a8 93be 10ef 51bc
00000340: f98a 493d 12d4 7cbd fac2 6d3e 8b5d 5dbe
00000350: ff02 1c3c b122 38be 9998 863e 3ea3 633e
00000360: d7b5 ccbb 7188 833e c82e e4bd 211f 8f3e
00000370: 8ce9 2dbe 9803 2c3e 2134 8dbe 76b7 81bd
00000380: 3ae9 9fbd dc1b 083e 76fe 153c 6b42 cdbd
00000390: f4a9 8e3e 8055 60be 0036 603e d6d7 633e
000003a0: 8f7d 3a3d 36d1 db3d b736 0a3d 6c23 debd
000003b0: a79b 38bd cae9 9c3e 30f9 953e d2f3 d7bc
000003c0: 68a3 213d 47ea 30be 7dd0 fbbd 21e1 c0bd
000003d0: 04bf 57be 2aa3 9cbc 15ed 5dbe 2afc 353d
000003e0: 55a0 a5bc 008e 793e 4c0d 0e3e a521 4dbe
000003f0: 3a09 a1bd 214c 6fbe 2519 6bbe bf28 7a3d
0.092561305 0.044978015 0.12994936 0.058628585 -0.065952465 0.084507704 0.02018609 -0.24201673
0.17590712 0.31835338 0.16540667 0.010650616 -0.1365996 -0.21085417 0.07776292 -0.254807
-0.1016424 -0.25018796 -0.07308258 0.20468956 -0.16836235 -0.091088526 0.22384135 0.15265627
0.21127526 0.030155485 0.18426162 -0.07892657 -0.21721716 -0.29778647 0.1505447 -0.016632237
0.13045537 0.00918585 -0.09827519 0.14746688 0.2902352 0.19149406 0.054520324 0.21777825
-0.26423225 -0.10654105 -0.038483758 -0.24770093 0.13133763 -0.16120754 -0.005355038 0.20676157
0.27832922 0.114253074 0.04665084 0.098842196 -0.19179411 0.25954732 -0.20216812 -0.018911535
-0.070678785 0.30229583 0.1734846 0.020352293 -0.051952694 0.06058905 -0.06409881 0.21558163
0.28862756 0.056678846 0.1973873 0.26248008 0.18539445 -0.20850052 0.09518346 -0.19006607
-0.13053232 -0.17599392 0.18513514 -0.3029428 0.17017394 0.03125399 -0.30777958 -0.07450499
-0.29660416 0.06891367 -0.30557358 0.083877414 0.113821864 0.027267994 0.10122131 -0.08633704
0.25927892 0.08480675 0.043580703 0.2790259 0.017852386 -0.1005024 -0.19436756 0.16160412
0.24599335 -0.28546542 0.1946761 -0.10359935 -0.11667187 -0.26798666 -0.10663059 -0.07240711
-0.20865855 -0.15541802 -0.1721712 -0.21453 -0.01385005 0.0026997572 -0.17724101 -0.19877051
-0.2083582 -0.03165657 -0.11621415 -0.29188097 0.16714627 -0.18990116 -0.033175997 -0.2676133
0.1506994 -0.041138202 0.1035428 0.13863668 -0.30553192 -0.16960238 0.12578863 -0.27187157
0.16556907 0.012583465 0.16202849 0.18464679 0.09909428 -0.029631238 -0.028812155 -0.07222678
-0.15142897 0.092039905 -0.27284852 0.086517654 -0.07529031 -0.008329086 -0.024017472 -0.1994847
0.1905551 -0.057489015 0.033302907 -0.26853663 0.039924923 0.2857744 0.31073964 0.09389483
-0.10325101 0.06518026 0.087326676 -0.22803769 0.08607842 -0.19595098 -0.20775306 0.3036815
-0.10928371 -0.09641132 0.09808714 0.16484727 0.16575864 -0.17537813 -0.18797074 0.1936905
0.20216557 -0.07060069 0.06910661 0.28298256 0.19458501 -0.18577634 -0.16842479 0.27768677
-0.10824957 0.27793148 0.2328268 0.24343045 0.18868074 -0.2557532 0.3011877 -0.10028973
0.019666271 0.29937002 -0.040794916 -0.1360752 0.125502 -0.20740621 -0.10550687 -0.119896024
-0.20977113 0.23631606 0.067718945 0.06924479 0.28401557 -0.24073961 -0.1493635 0.019847587
0.28075144 0.30168405 0.07095627 0.14528829 -0.2340486 0.29020768 -0.28839746 -0.012813345
0.0492048 -0.061725684 0.23218909 -0.21617715 0.009522199 -0.17981984 0.26288298 0.2223024
-0.006247263 0.25690034 -0.11141735 0.27953437 -0.16983622 0.16798246 -0.27578834 -0.063338205
-0.07808156 0.13291878 0.0091549065 -0.10022434 0.2786404 -0.21907616 0.218956 0.22250304
0.0455299 0.10733263 0.033743586 -0.108466 -0.045070317 0.30647117 0.29291677 -0.02636138
0.039462477 -0.1727687 -0.12295625 -0.0941794 -0.2106896 -0.019120771 -0.21672471 0.044429936
-0.020218054 0.24370575 0.1387226 -0.20032366 -0.07863088 -0.23368885 -0.2295881 0.061074015

b f4 [32]
00000000: 344a 013c 73bc 6a3b 1df9 e2bb b246 46bb
00000010: 929a 533b bb39 b53b fc1d 853b b341 1a3c
00000020: 6851 513b 6201 43bc 5221 28ba 09f0 813c
00000030: 5c57 fdba 24b2 a33b 0c81 bdbb e13a 0abc
00000040: 4881 493b 0d26 17b8 e5b2 493b 90b8 d1bb
00000050: cfea fdbc 6eaa 0bbc a5cd f83b 29b2 8dbb
00000060: f861 243c 8c29 d139 ea4f 703c 2cec e6ba
00000070: 8a97 9f3b f997 8abb 26a1 203c e9f6 b9b9
0.007891227 0.003581789 -0.0069266693 -0.003025454 0.0032288176 0.0055305636 0.0040624123 0.009415078
0.003193939 -0.011902185 -0.00064136565 0.015861528 -0.0019328403 0.0049956013 -0.005783206 -0.008436889
0.0030747224 -3.6036643e-05 0.0030776795 -0.0064001754 -0.030995755 -0.00852452 0.007592874 -0.004324217
0.010033123 0.0003989454 0.0146674905 -0.0017617992 0.00487036 -0.0042295423 0.009804046 -0.00035469912

W f4 [32, 32]
00000000: cf0c 0dbe 4634 6abe 102e 58be 2a3b 18be
00000010: a7fc 25bd 7755 27bb 6b13 ccbd c85e 853e
00000020: 2411 26be c020 83bd 9114 90be 88ba 99bc
00000030: 4dec 8c3e cd5e 473e 5dfc 26be a2c2 013e
00000040: 3d75 813d 7ad6 8f3e f58f 9ebe 3147 74be
00000050: 2b7f 933e c506 3fbe 751c 52bd 2889 903e
00000060: 051e 3e3e a3ef 36be c269 58be bf4d 8d3d
00000070: 046d 33be ab25 35be fd2d b6bd eb0b bebd
00000080: 4ff8 23be 1dfc 1fbe 40b5 523d a537 87be
00000090: e2a1 1dbe 327c 6dbe 02a4 223e 42c2 94bd
000000a0: 5e64 68bd 7ab1 223c 3985 03be 00aa 8bbd
000000b0: b6ed 7c3e 9012 c3bd 4ddf 30bd 1e53 8bbe
000000c0: 0cdb 653e a658 07be 619f 03be 278d 9abe
000000d0: 44eb 063e e36e 183e b907 87be 17ec d5bd
000000e0: fba5 9e3e d86e 813e 6078 33be 3fec 0f3e
000000f0: c9e9 99be f87f cfbd 8047 fbbd 8762 90be
00000100: 1ed5 b4bd 754b ce3d 55bd e2bd 2424 733e
00000110: be47 40be d397 9abc 63d0 1a3e dc50 6b3d
00000120: eda5 383e 4533 85be f58f 9ebe 7f1f c6bd
00000130: dd67 103d 1993 373e 1e2a bbbd cab6 663e
00000140: 4013 83be 3418 88ba 9a84 363d 77c1 02be
00000150: 24d4 5d3e c3d0 8d3e 56e5 72bd 2b26 6c3e
00000160: 2d97 bc3d dbfe 3c3d ec94 913e 76af 58bd
00000170: 3da3 4fbe 508a cdbd 3b4c 41bc 40cf 18be
00000180: 49c0 efbd 9919 91be caaa b4bd dd77 8c3e
00000190: b048 a23e 150a 7abe 39be 143d 3342 5fbe
000001a0: f001 10be a9fd dd3a 3b19 a1bd a770 bebd
000001b0: ddc8 d7bd 105d 83be 9c3d 8cbe 158f 843e
000001c0: f940 8b3c 9bd8 623e 6d12 1d3e ef1d 65be
000001d0: 153a 8bbe b696 653b e2af 123e 4c74 913c
000001e0: 7787 38be 0514 d93d ae76 6cbe 3e74 c5bb
000001f0: dac7 973d 3250 c6bd e292 fd3d d7be ddbc
00000200: d532 443e 9106 913e 7d5a 223e c4f5 be3d
00000210: a4a7 c43c 9524 ef3c 06dc 1b3e 2c5b c7bc
00000220: 8a4f a9bd 375d 3b3d e567 073e a57c 3d3e
00000230: adb9 8fbe 4e7e 61bb ac71 3b3e f87c a0be
00000240: ba58 aabd 027f 78be ecc5 80be aa45 16be
00000250: c12c 9bbe ee0d 9bbd 141f 0bbe 4c06 833e
00000260: 18b2 3d3e 9160 853e 4d32 58be 1541 59be
00000270: 3a6b a03d edd2 613e 157b 66be 4bbb 993d
00000280: 1f27 61be e037 cc3d 01f4 2b3e 0e81 cdbd
00000290: 547f 8a3e e984 62be 3b73 fabc 1416 2f3e
000002a0: 02f3 0dbe 3a73 5cbe 367f c5bd 85b5 9dbe
000002b0: e281 943e eaf2 1abe 276a a63d d0b3 92be
000002c0: 76d0 f9bd fab6 61be 29fd a5bd fe67 663e
000002d0: 061f 6bbe 7103 653e 896a 5cbc c262 7abe
000002e0: c353 f13d 72d1 2bbe 6e3e cabc d6fe 0f3e
000002f0: d06b 7d3e cb51 af3d 35d1 8cbe c869 36be
00000300: d87f 7a3d e6bc fabc cd56 8b3e eba0 66be
00000310: 7dba 35be bf35 12bd 3f14 a83c 0a3e 47bd
00000320: dc4e 4abd e02f 293e 6c3e f53d 3fdf 25bd
00000330: 2409 893c a99f 993e c0b5 153d aa82 813c
00000340: 44ed 8c3e bf15 4a3e 3d9c 353e 4dab 36be
00000350: 2f36 723e 4047 983e a672 913e e230 63be
00000360: aec6 5f3d dde5 903e 323c 36be 78ef 83be
00000370: 8bd0 923e 9ff2 50be 1d2e 83be ae42 4ebc
00000380: 599c 3f3e 1b8d 02be c8c0 663e 1c24 ffbb
00000390: 8215 a03e 4bae 1abc d168 9a3e 8b05 9cbd
000003a0: 3339 c3bd b86d 8a3e c985 413e 6225 843d
000003b0: c7b1 1ebe 230b 7fbe e4cd 10be c111 c8bd
000003c0: 6776 79bd 711d 87ba 6b01 8f3d 6d71 863d
000003d0: 2912 8dbe ab31 973e 3679 83be d549 423e
000003e0: 35e9 ca3d cb09 6a3e e2ab dfbd 2b00 09be
000003f0: 9b70 26be d871 40be 7d3f 663d 964e 473e
-0.13774417 -0.22871503 -0.21111321 -0.1486632 -0.04052415 -0.0025533119 -0.09964641 0.26048875
-0.16217476 -0.06402731 -0.2814069 -0.018765703 0.27524033 0.19469757 -0.16307206 0.12671903
0.063211896 0.2809332 -0.30969205 -0.23855282 0.2880796 -0.18654926 -0.05129667 0.28229642
0.18566139 -0.17864852 -0.21134093 0.068995945 -0.17522055 -0.1769015 -0.0889549 -0.09279617
-0.16012691 -0.15623517 0.051442385 -0.2640964 -0.15393785 -0.23191908 0.15882877 -0.07263614
-0.056736343 0.009930009 -0.12843789 -0.06819534 0.24700055 -0.09525025 -0.043181706 -0.2721185
0.22446841 -0.1321741 -0.12853767 -0.30185816 0.13175684 0.1488605 -0.2637308 -0.10445421
0.30986008 0.2527988 -0.17526388 0.14054964 -0.30061176 -0.1013183 -0.12269497 -0.2820017
-0.088297114 0.10072986 -0.110712685 0.23744255 -0.18777367 -0.018871224 0.15118556 0.05745016
0.18032046 -0.26015678 -0.30969205 -0.09673976 0.0352553 0.17927207 -0.091388926 0.22530666
-0.25600624 -0.001038319 0.044560052 -0.12769113 0.21662956 0.27698335 -0.059300743 0.23061435
0.09208522 0.046141487 0.2843393 -0.052901708 -0.20277114 -0.10036147 -0.01179796 -0.1492281
-0.11706597 -0.28339842 -0.08821638 0.27435198 0.3169608 -0.24417908 0.036314223 -0.21802597
-0.14063239 0.0016936559 -0.078661405 -0.092988305 -0.105363585 -0.2565694 -0.27390754 0.25890413
0.016998755 0.22152941 0.1533906 -0.223747 -0.2719275 0.0035032458 0.14324906 0.01775565
-0.18020426 0.105995215 -0.23092148 -0.00602582 0.074111655 -0.09683265 0.12381531 -0.027068539
0.19160016 0.28325322 0.15854831 0.0932422 0.024005719 0.029192248 0.15220651 -0.024335466
-0.08267124 0.045743193 0.13223226 0.1850458 -0.28071347 -0.003440756 0.18305081 -0.31345344
-0.083177045 -0.242672 -0.25151002 -0.14675012 -0.30307582 -0.07571016 -0.13586074 0.25590742
0.18524969 0.26050237 -0.21112938 -0.21216233 0.07832952 0.22053118 -0.2250789 0.075064264
-0.2198758 0.09971595 0.16792299 -0.10034381 0.2705027 -0.22121014 -0.030572524 0.17098266
-0.13862231 -0.2152833 -0.09643404 -0.3080255 0.29005343 -0.15131727 0.08125716 -0.2865281
-0.12197964 -0.22042456 -0.08104927 0.22500607 -0.22961053 0.22364594 -0.013453134 -0.24451736
0.117835544 -0.16779116 -0.024687972 0.14062056 0.24748158 0.08560523 -0.27503362 -0.1781379
0.061157078 -0.030607652 0.2721466 -0.22522323 -0.17746921 -0.035695788 0.020517467 -0.04864315
-0.049391612 0.16522169 0.11974797 -0.040496107 0.016727991 0.30004624 0.036550283 0.015809376
0.2752477 0.19734858 0.17735381 -0.17838784 0.23653482 0.2974186 0.28407782 -0.22186616
0.054632835 0.28300372 -0.177964 -0.25768638 0.2867473 -0.20405053 -0.2562112 -0.01258914
0.18711986 -0.1274914 0.22534478 -0.007786287 0.3126641 -0.009440969 0.30158094 -0.07618245
-0.09532394 0.27036834 0.18898691 0.06452443 -0.15497504 -0.24906592 -0.14141041 -0.09769011
-0.060903933 -0.0010308457 0.06982692 0.06564603 -0.27552918 0.2953008 -0.25678414 0.18973477
0.09907762 0.22855298 -0.10921456 -0.1337897 -0.16253893 -0.18793428 0.05621289 0.19463572

b f4 [32]
00000000: 36db 75bb 788f 9ab8 26d9 69ba 7b75 3ebc
00000010: 4c82 233c 616b 8fb9 3c3b 5c3c be4a a2bb
00000020: dc58 753b bb0b 003c 6f46 05bc 62dc 3dbc
00000030: 7e03 5b3c 2f62 113c 6570 9738 52d3 b5bc
00000040: d052 29bc de50 6cbc 1250 8739 5719 16bc
00000050: c501 603c c189 d5ba 9629 aebb 4d92 883c
00000060: 7193 a0bc cf24 1ebb f15f 083c ed6b 6fbc
00000070: 704e 633b 69b5 a33b d5ce bf39 a5c4 c43b
-0.0037514693 -7.3700154e-05 -0.0008920602 -0.011624689 0.009979796 -0.0002735509 0.013441857 -0.0049527576
0.0037436998 0.007815297 -0.008134468 -0.011588188 0.013367532 0.008873506 7.221176e-05 -0.022195492
-0.010334685 -0.014423577 0.00025808864 -0.009161315 0.013672297 -0.0016291664 -0.005315016 0.016671324
-0.019601556 -0.0024130826 0.008323655 -0.014613134 0.0034684204 0.004995991 0.0003658446 0.006004887

W1 f4 [32, 128]
00000000: 1f19 0cbe 3e1e b33d 3238 08bd 7e71 cebd
00000010: 0090 1cbe 2efe 343e 93c0 10be e7cc 3e3d
00000020: 9172 fb3d f654 133d 3fdd f4bc c3cd e7bc
00000030: 59bf be3d e2aa 173e 9f2e bd3d efea 983d
00000040: 08e2 1e3e 5637 493e 86b7 f1bc c04e 0bbd
00000050: db7c 05bd b60e 08be 8b04 c1bc 47d9 b03d
00000060: 70f6 a63d 8deb 15be 638a 32be bcad f73b
00000070: 801b ac3d bc32 333d 22e2 01be b53a 50bd
00000080: 80fc 08be 8daa adbd 8d37 433d 289c 0c3d
00000090: deca ae3d 1e8d 43be d5c6 0bbe 2cfd b3bc
000000a0: 7c10 513d 07a9 13be 45b2 2cbd 2d9d bdbc
000000b0: 9f43 363d 5144 14be b668 1ebe 2f02 45be
000000c0: a009 d23d 7949 bf3c 4bba 1abe 67a5 7ebc
000000d0: f9ef 45be cce7 d83d 5213 83bd f2ed 35be
000000e0: 2444 13be 2ca1 0bbe 3161 07be a636 f13d
000000f0: 2945 08be 25f3 1fbe 53a4 6dbd e6c9 40be
00000100: dcfb d03d 9c1a 12be fea3 a93c f45c 163e
00000110: ebda 27be 1904 453e 8840 80bc a635 d6bd
00000120: 29ba e9bd 86d1 30be f833 863d 6724 2f3e
00000130: 7371 bdbc 98ed a33d d376 0e3e 5f92 38be
00000140: ee10 f4bd 28f2 a53b 8763 c13d 8e4e 1fbd
00000150: 1255 f1bc 5eef d0bd ff4c 24be 5fb3 ca3d
00000160: 8c5c b5bc b153 2fbe 4e02 ac3d f191 81bd
00000170: f859 d7bd 6caa fa3d c85a aa3c 5509 f2bb
00000180: 4cb4 0dbd d2a8 1a3e 4918 db3d 9e53 41be
00000190: 991e 15be 9a76 4b3d b200 40be 75a3 34bc
000001a0: 4ab2 9b3d adf8 d8bd a7b0 293e 6380 143e
000001b0: f57b f13b 2b4f 10be 21a7 dd3c 5e02 b3bd
000001c0: 9e9a 32be 8cfc f5bd 6bcf 803d ffd7 babc
000001d0: 170d 143e c635 d23c 2c7a 17be 83ed bc3d
000001e0: 3472 e2bd 26ab f9bd edae 153e d0c8 2bbd
000001f0: 53d4 afbd caa1 a0bd 2106 bb3d 4a64 9a3d
00000200: 2114 48bd 5ee6 09be da6e ad3d 4dc4 88bc
00000210: d57c 42be dda8 fa3d e4cb 8d3d d0e9 afbd
00000220: 24c6 5cbc 3679 783c 38ea 2e3e 69c4 0fbb
00000230: b7b1 233e 93b8 01be f19b 153c 30ef 27bb
00000240: 263f 623d f961 8dbd fdc9 c9bd 7000 d8bd
00000250: b53a 2f3d 03bb 463e 6d23 26be f135 0fbe
00000260: dd10 aabc be1d 13bd d1ca e33d 7777 4e3e
00000270: 0022 afbd a4db bbbc ab94 71bd ad5b e6bd
00000280: 3ce6 003e 0f2b 2a3e 8512 0cbe 346e 863d
00000290: b1f9 303e 9264 aebd 5432 a73d b5b7 1b3e
000002a0: ce1d 97bb f30f afbd 8555 27be 2c47 96bd
000002b0: 50cb c53d f991 15be ddea 06be 0cec 46be
000002c0: a1ff f73b ba4a 14be cd44 393e 7017 0bbd
000002d0: e50c 833c 0d1e 09bd 9414 0ebe 7131 303d
000002e0: 6662 c4bd d0a1 d9bc e898 783c bd6a 433e
000002f0: 72d4 1b3e 26df 5c3c d316 1abc 7f9d 02bc
00000300: 5350 e2bd 68c8 ffbc 7452 0e3e 11f3 173e
00000310: cd2c 95bd ebb2 23bd cc40 903d e6f7 e13d
00000320: 7dd5 9fbc e497 af3a 0ac5 c63b 5ccc 233e
00000330: c862 8f3d 13f1 163e 23ea 23be 09a5 9d3d
00000340: fcac 29be 91b1 143d 1d77 f23d bfe3 c5bd
00000350: 5a3b 023e 7417 753d 66ce 9abd 90ce f3bd
00000360: b71c cabd e7b7 d0bd 8a98 1dbe e57b 223e
00000370: 0d08 ef3d 2c79 09be 7495 a73c dfac 53bd
00000380: de91 463e bd46 0bbe d0fb 173e de79 debd
00000390: 1287 17be ccca c8bc e43f e93d 0703 913d
000003a0: fc7d 78bd 58cd a1bd afda d93d eeb1 01bd
000003b0: 0b01 9fbd 986a 3cbe 982e 8abd c8fd e63d
000003c0: 6070 003e 52d4 71bc c974 c5bd 4551 b33d
000003d0: ca6b 39be 91dc 913d 6765 313e e26d f63d
000003e0: d995 fc3d 7c3d 593d 34c7 093e d238 8cbd
000003f0: 0235 103d 580c 82bc 488c 393e 6cd9 703d
-0.13681458 0.087460026 -0.033256717 -0.10080241 -0.15289307 0.17675087 -0.14135961 0.04658213
0.12277711 0.035969697 -0.029890655 -0.028296357 0.093138404 0.1481128 0.09237408 0.07466685
0.15515912 0.19650015 -0.029506456 -0.03401065 -0.032589775 -0.13286862 -0.023561737 0.08635192
0.08152473 -0.14640637 -0.17435603 0.0075585525 0.08403683 0.043749556 -0.12683919 -0.050837237
-0.13377571 -0.084797956 0.0476604 0.03432861 0.085347876 -0.190968 -0.13650067 -0.021971308
0.05104111 -0.14419948 -0.0421622 -0.023146236 0.044498082 -0.14479186 -0.15469632 -0.19239114
0.10255742 0.023350464 -0.15110128 -0.015542365 -0.19329824 0.10591087 -0.064001694 -0.1776655
-0.14381462 -0.13635701 -0.1322067 0.117780015 -0.13307633 -0.15620096 -0.05801804 -0.18827018
0.10204288 -0.14267963 0.02070808 0.14683896 -0.16392104 0.19239844 -0.01565577 -0.104594514
-0.1141246 -0.17267427 0.06552881 0.1710373 -0.023125386 0.08004302 0.13912515 -0.18024586
-0.119172916 0.0050642677 0.094428115 -0.038893275 -0.02945951 -0.10201906 -0.16044997 0.098974936
-0.022138856 -0.1712177 0.08398877 -0.06326664 -0.10515207 0.12239537 0.020795241 -0.0073863664
-0.034595773 0.15103462 0.106979914 -0.18879554 -0.14562453 0.049673654 -0.18750265 -0.011025299
0.07602365 -0.10594306 0.16571294 0.145021 0.007369513 -0.140927 0.027057232 -0.08740686
-0.17441794 -0.1201106 0.06289562 -0.022808073 0.14458118 0.025660407 -0.14792699 0.09224989
-0.11056939 -0.12190847 0.1461751 -0.041939557 -0.085854195 -0.07843359 0.09132028 0.0753866
-0.04884732 -0.13466784 0.08468409 -0.016695166 -0.18992932 0.12239239 0.06923655 -0.08589518
-0.013474975 0.015165618 0.17081535 -0.0021937138 0.15985762 -0.12668066 0.009131418 -0.0025624745
0.055236004 -0.069034524 -0.09852979 -0.105469584 0.042780597 0.19407277 -0.16224451 -0.13985421
-0.020759994 -0.035917036 0.111226685 0.2016276 -0.08551407 -0.022931881 -0.05897967 -0.112479545
0.12587827 0.16617988 -0.1367894 0.06563988 0.1728275 -0.08515276 0.08163896 0.15206797
-0.0046117073 -0.08547964 -0.16341217 -0.07337794 0.096579194 -0.14606465 -0.1317553 -0.19425982
0.007568315 -0.14481631 0.18092652 -0.0339579 0.01599736 -0.033475924 -0.13875037 0.0430159
-0.095890805 -0.026566416 0.015173174 0.19083686 0.1521776 0.013480937 -0.009404856 -0.00797212
-0.11050477 -0.03122349 0.13898641 0.14838816 -0.07283936 -0.03996555 0.07043609 0.11033611
-0.019510979 0.0013396707 0.0060659694 0.15995926 0.07001263 0.147404 -0.16007285 0.076974936
-0.16569895 0.036302153 0.11839125 -0.0966258 0.12717953 0.05983682 -0.07558899 -0.11904633
-0.09868758 -0.101913266 -0.1539022 0.15867575 0.116714574 -0.1342513 0.020457007 -0.051678535
0.19391581 -0.13601203 0.14842153 -0.10863088 -0.14797619 -0.024510764 0.11389139 0.070806555
-0.060667023 -0.07900494 0.10637414 -0.031663828 -0.07763871 -0.18400037 -0.06747168 0.11278874
0.12542868 -0.014760094 -0.096414156 0.08755735 -0.18107525 0.07122148 0.17323838 0.12032677
0.12333269 0.05303715 0.13454896 -0.06846775 0.035206802 -0.015875027 0.1811992 0.0588011

b1 f4 [128]
00000000: 153b 493c 3911 adba 7e10 223b ec97 26bc
00000010: e7bd 4abc feaf 59bc 3bdc 3b3c fdea c9bb
00000020: 1895 f33b 7169 463c 3718 463c 0541 853b
00000030: 3d55 07bc bd51 d9bb dafd 923b 32d0 d63c
00000040: 8c1b 0abc 67ee 51bb e7cd fdba 9cbc 9a3c
00000050: 641c 1ebb 38a3 c839 2fc6 79bc 6768 833a
00000060: 967c 82bc 5f61 c63b 0da5 ffb9 a35a e83c
00000070: cf37 96bc e78c 963b 3bc0 1b3b 64e3 fe3b
00000080: 5f74 743b e246 44bc 0b03 2bbc c14e 60bc
00000090: f25d 92bc 6ccd f2bb dee8 f2bb 793f a1bb
000000a0: 9d44 30bb f5f7 bc3b fe6d 98bc 406a 40ba
000000b0: cff9 103c ecac 313b 5156 e23b 436f 0d3c
000000c0: b1ab 053c e4d0 a4ba 028f 8fbb aad2 363b
000000d0: 1f51 083c 34ee 3fba 7c1b 09bc 807b 0dbc
000000e0: a335 30bc ae1b b5bb 72d4 3d3b df9c c1bb
000000f0: 16cf a4bb ba04 4d3b acb1 7d3c 851c 9abc
00000100: df0e a839 c72b d2bb 7554 05bc 3b64 e3bc
00000110: 1f15 5c3b ba34 9f39 7719 893c cd4d 18bb
00000120: a7a7 1abc 3877 36bc d6e2 8ebc dbbb a9bb
00000130: 577e 7cba 1026 c9bb 3f77 b33b dede 223b
00000140: 9250 833b a525 a2bc bd7d ac3b 4b39 e9bb
00000150: c87d 303c eb18 133c b91b 6439 c533 0cbc
00000160: 12f2 01bc fcd8 adbb 4ba2 d1bb 4bee a1bb
00000170: 063d 2ebc bc27 c5bc abf3 bdbb 8bfc 3d39
00000180: 5912 103b a113 e03b fc2d e4bb f907 e03b
00000190: 9649 9a3b 7055 2f3b 95a8 053c 203a 163b
000001a0: b0cb 873b 59ac 433b e88c 01bc 6b23 95bc
000001b0: 8dc9 bfbb bc55 f23a 6fba bfba 7cd2 c7bb
000001c0: 6ced 183c 1f2d 53bc 1636 ab3b ffef 2c3c
000001d0: 00f5 9ebc 8097 89bc 9317 cebb 834d 5a3a
000001e0: 89ad bb3c 9742 43bb 569a 32bc 16c2 8fbb
000001f0: d6c5 583c 5d88 703b e34c e03b a8d9 dc3b
0.012282153 -0.0013203985 0.0024729068 -0.010168057 -0.012374378 -0.013286589 0.011466081 -0.006162046
0.007433545 0.0121101 0.012090734 0.004066589 -0.0082600685 -0.0066320584 0.004485828 0.026222322
-0.008429419 -0.0032032968 -0.0019363732 0.018888764 -0.002412581 0.0003826858 -0.015245005 0.0010025621
-0.015928548 0.006054088 -0.00048760363 0.028363531 -0.018337158 0.0045944336 0.0023765701 0.007778572
0.0037300808 -0.01197979 -0.010437737 -0.013690651 -0.017867062 -0.007409742 -0.007413014 -0.0049208966
-0.0026896365 0.0057668635 -0.018607136 -0.0007340051 0.0088486215 0.0027111126 0.0069072624 0.008632484
0.00815861 -0.0012574461 -0.0043810615 0.0027896562 0.008320122 -0.0007321567 -0.008368369 -0.008635402
-0.0107549755 -0.0055269813 0.0028965739 -0.005908593 -0.0050295694 0.0031283335 0.015484255 -0.018812427
0.00032054537 -0.00641391 -0.008137812 -0.027757755 0.0033581925 0.00030366128 0.016735775 -0.0023239732
-0.0094393855 -0.011136822 -0.017442148 -0.005179865 -0.0009631863 -0.0061385706 0.0054768617 0.0024852077
0.0040074075 -0.019793341 0.0052640126 -0.0071174256 0.010772176 0.008978109 0.00021754102 -0.008557265
-0.007931249 -0.0053054076 -0.0063975207 -0.004941737 -0.010634666 -0.024066798 -0.0057968698 0.00018118524
0.0021983592 0.0068382774 -0.0069634896 0.006836888 0.004708479 0.0026753806 0.008157869 0.0022922829
0.0041441545 0.0029857366 -0.00790713 -0.018205365 -0.005852884 0.0018488686 -0.0014627705 -0.0060980897
0.00933395 -0.012889176 0.0052249534 0.010555266 -0.019403934 -0.016795874 -0.0062894314 0.000832759
0.022909896 -0.002979433 -0.010901054 -0.0043871505 0.0132307615 0.0036702373 0.006845103 0.006739814
