saved_models/model-epoch-10.pth (torch, 21314 bytes, 19 tensors)

embeddings f4 [99, 8]
0	0x3fce31e5	1.6108977
1	0x3cb03b02	0.021512512
2	0x3fe1dee8	1.764615
3	0x40139265	2.3058102
4	0xbeefabda	-0.468108
5	0x3fb98434	1.449347
6	0xbf578ebf	-0.8420219
7	0x3f93e19a	1.1553223
8	0x3f8fbff0	1.123045
9	0xbfcce3f4	-1.6007066
10	0x3f9c402e	1.2207086
11	0x3fad371d	1.3532444
12	0xbf43b5c4	-0.7644923
13	0x3faeab63	1.3646053
14	0x3d5928f1	0.05301756
15	0x40390c92	2.8913922
16	0x3ffd1399	1.9771606
17	0x3f83a809	1.0285655
18	0x3f8d4de3	1.1039394
19	0xbe86129a	-0.26186067
20	0xbf90809c	-1.1289248
21	0x3f5d0e0b	0.8634955
22	0xbec6d88d	-0.3883709
23	0xbfc9b654	-1.5758767
24	0xc0214d1c	-2.5203314
25	0x3da2c057	0.07946842
26	0xbfe32f84	-1.7748876
27	0xbfba7b5e	-1.4568899
28	0x402d8ee4	2.7118464
29	0xc026c0a7	-2.6055086
30	0xbe32a012	-0.17443874
31	0x3fca4dbb	1.5804971
32	0xbe1d5658	-0.15364969
33	0x3fe77d5e	1.8085134
34	0x3f0bb9cb	0.5458037
35	0xbf54a083	-0.8305742
36	0xbfb3918d	-1.4028794
37	0x3d5b7371	0.05357689
38	0xbf853be0	-1.0408897
39	0x3d1e0521	0.03857911
40	0x3fd12d6f	1.634199
41	0x3ee204f6	0.4414441
42	0x3fc3d492	1.5299246
43	0x401365ba	2.303084
44	0xc0105031	-2.2548945
45	0x4007eb55	2.1237385
46	0xbfc00754	-1.5002236
47	0xbd7fd175	-0.062455613
48	0x3fbb1a24	1.4617352
49	0x3f848fd9	1.0356399
50	0x3f2849b9	0.6573749
51	0x40127f25	2.2890103
52	0xbf009d81	-0.5024033
53	0x3fda1513	1.7037681
54	0xc005f6bd	-2.0931847
55	0x3db11b5b	0.08647796
56	0xbe2bb386	-0.16767702
57	0xbf9479b9	-1.1599647
58	0x3ff838aa	1.9392292
59	0x3fe07114	1.7534509
60	0x3fa25b1b	1.2684053
61	0x3f4cbdfc	0.79977393
62	0xc042060b	-3.0316188
63	0x4024a911	2.572819
64	0x3f9f053a	1.242347
65	0xbda584d0	-0.080819726
66	0xbeebaed5	-0.46031824
67	0xbddbe137	-0.10736316
68	0xbffb5d4c	-1.9637847
69	0x3ea84d8c	0.32871664
70	0xbf585037	-0.844974
71	0x3f25fec2	0.64841855
72	0x3f4d0c48	0.80096865
73	0xbfe6aa67	-1.8020753
74	0x3f94bbb0	1.1619778
75	0xbf969b6d	-1.1766182
76	0x3f90a234	1.12995
77	0x3f33ca11	0.70230204
78	0xbfb98ebf	-1.4496688
79	0x3ed87d13	0.42282924
80	0x3f194330	0.59868145
81	0xbf8965f4	-1.0734239
82	0xbe2ffb18	-0.17185628
83	0x3fed2df2	1.8529646
84	0xbfc73b94	-1.5565057
85	0x4005aedd	2.0887978
86	0xbf9285b9	-1.1447059
87	0x3fe654b0	1.7994595
88	0xbfd825eb	-1.6886572
89	0xbf86b922	-1.0525248
90	0xbffab2bd	-1.9585797
91	0xbe7b9a94	-0.24570686
92	0x3f83015c	1.023479
93	0xbf83a48f	-1.0284594
94	0x3dd20100	0.10254097
95	0xbe463622	-0.19356588
96	0x3f1f03cb	0.6211516
97	0xc03e88d6	-2.9771018
98	0xbf9af582	-1.2106173
99	0x402618ea	2.5952706
100	0xc043cb3c	-3.0592794
101	0x402c5726	2.692819
102	0xbea6c54b	-0.32572398
103	0x3fe6748b	1.8004316
104	0x3fb5ce27	1.4203538
105	0xbf1ea536	-0.6197084
106	0x3f9c0d4c	1.2191558
107	0x4019dbb4	2.4040346
108	0xbf4fd017	-0.81176895
109	0x3f62d407	0.8860478
110	0xbdd6f339	-0.1049561
111	0x3fd3ca8c	1.6546187
112	0xbec8515c	-0.39124572
113	0xbd1ba456	-0.03799852
114	0xbf0951fd	-0.5364073
115	0xbee88cb9	-0.45419863
116	0x3f0d2c24	0.5514548
117	0xbf8d50ed	-1.1040322
118	0x3f5c6cc7	0.8610348
119	0xbf4223d2	-0.7583591
120	0x3fddc4c9	1.7325679
121	0x3f33d4f4	0.70246816
122	0x3f971f83	1.1806492
123	0x40516e9d	3.2723763
124	0xbfdf99eb	-1.7468847
125	0x3ff16251	1.8858129
126	0xbf525468	-0.82160044
127	0x3e9cc10d	0.30616036
128	0xbf662462	-0.89899266
129	0xbfcf7180	-1.6206512
130	0x3e65c51f	0.22438477
131	0xbf924433	-1.1427063
132	0x40013e2c	2.0194197
133	0xc0227aee	-2.538753
134	0x402c87f2	2.6957974
135	0x3f7004cd	0.93757325
136	0x3f20156b	0.6253268
137	0x3d60fb25	0.05492701
138	0x3f706eab	0.93918866
139	0x3f0dc639	0.5538059
140	0x3ffdd73d	1.983131
141	0x3ff335f0	1.9000835
142	0xbfee76d8	-1.8630018
143	0x3fa4701c	1.2846713
144	0x40095706	2.1459365
145	0xbffbd626	-1.9674728
146	0x4003cd68	2.059412
147	0x3fad9e16	1.3563869
148	0x3fa0cb32	1.256201
149	0x3f78b48f	0.9715051
150	0x3ed80c5f	0.42196938
151	0x3fe0340d	1.7515885
152	0x3fbcf4e7	1.4762238
153	0x40042569	2.0647833
154	0x3f907bfb	1.1287836
155	0x3f4dff2d	0.8046749
156	0xc0114e88	-2.2704182
157	0x3fc866e1	1.5656396
158	0xbff6b859	-1.9275008
159	0x3ec6cb62	0.38827044
160	0x3daa646a	0.08319934
161	0x3e81e5df	0.2537069
162	0x3d956515	0.072946705
163	0xbf886139	-1.065467
164	0x402c7f10	2.6952553
165	0xbfb120d2	-1.3838141
166	0xbed83c42	-0.42233473
167	0xbf6877af	-0.9080762
168	0x4017689a	2.3657594
169	0x3fbbc198	1.4668455
170	0x401c5fbb	2.443343
171	0x3fdd17bf	1.7272872
172	0xbff9889b	-1.9494814
173	0x3fada012	1.3564475
174	0xbfc2d31b	-1.5220674
175	0x3fec444f	1.8458346
176	0x3fe24149	1.7676173
177	0x3e8053eb	0.25064024
178	0x4020c404	2.5119638
179	0x40026046	2.037126
180	0xbfbb14e4	-1.461575
181	0x3ffd2f54	1.9780068
182	0xbfd4990e	-1.6609209
183	0x3f088fcc	0.53344417
184	0xbfca71d6	-1.581599
185	0xbda164fd	-0.0788059
186	0xbff322eb	-1.8995031
187	0xbd864feb	-0.06558212
188	0x3e9b3c7f	0.30319592
189	0xbf3a4300	-0.72758484
190	0xc01c79a2	-2.4449239
191	0x3f0e93d9	0.5569435
192	0x3f15b502	0.5847932
193	0xbf3d1c2f	-0.7387113
194	0x3ff23eea	1.892545
195	0x3f99821c	1.1992831
196	0x3fa91d3a	1.3212044
197	0xbf4d3bb3	-0.8016922
198	0x3ee6b668	0.4506104
199	0x3eedb06a	0.46423656
200	0xc026e624	-2.6077967
201	0x40058e7f	2.0868223
202	0xbfaeba4a	-1.3650601
203	0xc0031139	-2.0479262
204	0x3fd32e96	1.6498592
205	0xc00dd6e4	-2.216241
206	0x3f988dc6	1.1918266
207	0xc0048ab3	-2.0709655
208	0x3f661541	0.8987618
209	0xbefd65bf	-0.4949169
210	0x3f72def3	0.94871444
211	0x3ee4e3d1	0.4470506
212	0xbf05e5a0	-0.52303505
213	0x3f2fa04a	0.68603957
214	0xbf190506	-0.5977329
215	0xbf11166d	-0.56674844
216	0x3fe867a0	1.8156624
217	0x3f1b684f	0.6070604
218	0x3f6155bb	0.8802144
219	0x4050e862	3.2641835
220	0xbfdffae9	-1.7498447
221	0x3f1f239d	0.62163717
222	0xc012fc4d	-2.2966492
223	0x403a8c1e	2.914802
224	0x3fe5befa	1.7948906
225	0xbf93700d	-1.151857
226	0x40060128	2.0938206
227	0x3f24f8a4	0.64441895
228	0xbeff05b8	-0.4980905
229	0x3f461c94	0.77387357
230	0xbfc0ef67	-1.507306
231	0x3fa91494	1.3209405
232	0xbe240a5a	-0.16019574
233	0x3f7076bf	0.9393119
234	0x3cc2ddae	0.023787346
235	0xbf686b16	-0.907884
236	0xbf272c08	-0.6530156
237	0x3e51724d	0.20453759
238	0xbff2e30d	-1.897554
239	0xbd819d35	-0.06328813
240	0x3fce9353	1.613871
241	0x3fabfaef	1.3435954
242	0x3f51befe	0.81932056
243	0x3eaabfb0	0.3334937
244	0xbffe4eea	-1.9867833
245	0x3f8a111c	1.0786471
246	0xbf001efa	-0.50047266
247	0x3fc1245a	1.5089219
248	0x3f3dfcb6	0.7421373
249	0x3f783e54	0.96970105
250	0x3f5cdca7	0.8627419
251	0x3ffa8485	1.9571692
252	0xbfc61352	-1.5474646
253	0x400075d9	2.0071929
254	0xbff400e8	-1.9062777
255	0x400d5f73	2.2089508

_pos_embeds f4 [64, 8]
0	0x00000000	0.0
1	0x3f800000	1.0
2	0x00000000	0.0
3	0x3f800000	1.0
4	0x00000000	0.0
5	0x3f800000	1.0
6	0x00000000	0.0
7	0x3f800000	1.0
8	0x3f576aa4	0.84147096
9	0x3f0a5140	0.5403023
10	0x3dcc7576	0.099833414
11	0x3f7eb898	0.9950042
12	0x3c23d657	0.009999833
13	0x3f7ffcb9	0.99995
14	0x3a83126d	0.0009999998
15	0x3f7ffff8	0.9999995
16	0x3f68c7b7	0.9092974
17	0xbed51133	-0.41614684
18	0x3e4b6ff9	0.19866933
19	0x3f7ae5a5	0.9800666
20	0x3ca3d43e	0.019998666
21	0x3f7ff2e5	0.9998
22	0x3b031269	0.0019999987
23	0x3f7fffde	0.999998
24	0x3e1081c3	0.14112
25	0xbf7d7026	-0.9899925
26	0x3e974e6d	0.29552022
27	0x3f7490ef	0.9553365
28	0x3cf5b920	0.029995501
29	0x3f7fe283	0.99955004
30	0x3b449b93	0.0029999956
31	0x3f7fffb5	0.9999955
32	0xbf41bdcf	-0.7568025
33	0xbf275530	-0.6536436
34	0x3ec761d7	0.38941833
35	0x3f6bcaa7	0.921061
36	0x3d23cbdb	0.039989334
37	0x3f7fcb94	0.9992001
38	0x3b831258	0.0039999895
39	0x3f7fff7a	0.999992
40	0xbf757c10	-0.9589243
41	0x3e913c2c	0.2836622
42	0x3ef57744	0.47942555
43	0x3f60a940	0.87758255
44	0x3d4cb6f5	0.04997917
45	0x3f7fae19	0.99875027
46	0x3ba3d6de	0.0049999794
47	0x3f7fff2e	0.9999875
48	0xbe8f0f8c	-0.2794155
49	0x3f75cdb8	0.96017027
50	0x3f108c69	0.5646425
51	0x3f534932	0.8253356
52	0x3d759cd1	0.059964005
53	0x3f7f8a12	0.99820054
54	0x3bc49b59	0.005999964
55	0x3f7ffed2	0.999982
56	0x3f283046	0.6569866
57	0x3f40ffbd	0.75390226
58	0x3f24eb73	0.64421767
59	0x3f43ccb3	0.7648422
60	0x3d8f3e32	0.06994285
61	0x3f7f5f81	0.997551
62	0x3be55fc7	0.006999943
63	0x3f7ffe65	0.9999755
64	0x3f7d4695	0.98935825
65	0xbe14fdf6	-0.14550003
66	0x3f37a4a6	0.7173561
67	0x3f325b5f	0.6967067
68	0x3da3aa51	0.0799147
69	0x3f7f2e66	0.99680173
70	0x3c031213	0.007999915
71	0x3f7ffde7	0.999968
72	0x3ed30132	0.4121185
73	0xbf693fd5	-0.91113025
74	0x3f48881d	0.7833269
75	0x3f1f21d5	0.62161
76	0x3db8123f	0.08987855
77	0x3f7ef6c2	0.9959527
78	0x3c13743a	0.008999879
79	0x3f7ffd59	0.9999595
80	0xbf0b44f8	-0.5440211
81	0xbf56cd64	-0.8390715
82	0x3f576aa4	0.84147096
83	0x3f0a5140	0.5403023
84	0x3dcc7576	0.099833414
85	0x3f7eb898	0.9950042
86	0x3c23d657	0.009999833
87	0x3f7ffcb9	0.99995
88	0xbf7fff5c	-0.9999902
89	0x3b910572	0.004425698
90	0x3f64262a	0.89120734
91	0x3ee83dc0	0.45359612
92	0x3de0d372	0.1097783
93	0x3f7e73e8	0.9939561
94	0x3c34386a	0.010999778
95	0x3f7ffc09	0.9999395
96	0xbf095cd8	-0.53657293
97	0x3f5806d0	0.84385395
98	0x3f6e9a1d	0.9320391
99	0x3eb986f5	0.36235777
100	0x3df52bac	0.119712204
101	0x3f7e28b5	0.99280864
102	0x3c449a71	0.011999712
103	0x3f7ffb48	0.999928
104	0x3ed72022	0.42016703
105	0x3f684e6f	0.9074468
106	0x3f76abc0	0.9635582
107	0x3e88f59b	0.26749882
108	0x3e04bed0	0.12963414
109	0x3f7dd700	0.9915619
110	0x3c54fc6b	0.012999634
111	0x3f7ffa76	0.9999155
112	0x3f7d9872	0.9906074
113	0x3e0c04d7	0.13673721
114	0x3f7c466f	0.98544973
115	0x3e2e0bde	0.16996714
116	0x3e0ee464	0.13954312
117	0x3f7d7ecc	0.990216
118	0x3c655e56	0.013999542
119	0x3f7ff994	0.999902
120	0x3f267944	0.65028787
121	0xbf427ae8	-0.7596879
122	0x3f7f5bd5	0.997495
123	0x3d90deaa	0.0707372
124	0x3e19064f	0.14943813
125	0x3f7d201a	0.9887711
126	0x3c75c033	0.014999437
127	0x3f7ff8a1	0.9998875
128	0xbe936810	-0.2879033
129	0xbf75292c	-0.9576595
130	0x3f7fe40e	0.9995736
131	0xbcef33d6	-0.029199522
132	0x3e232450	0.15931821
133	0x3f7cbaed	0.98722726
134	0x3c831100	0.015999317
135	0x3f7ff79d	0.999872
136	0xbf761e25	-0.96139747
137	0xbe8ce236	-0.27516335
138	0x3f7dddbf	0.9916648
139	0xbe03efd0	-0.1288445
140	0x3e2d3e23	0.16918235
141	0x3f7c4f49	0.9855848
142	0x3c8b41de	0.016999181
143	0x3f7ff688	0.9998555
144	0xbf4040b3	-0.75098723
145	0x3f290a84	0.6603167
146	0x3f794e14	0.9738476
147	0xbe68a7aa	-0.22720209
148	0x3e375387	0.17902957
149	0x3f7bdd2e	0.9838437
150	0x3c9372b3	0.017999029
151	0x3f7ff562	0.999838
152	0x3e197969	0.1498772
153	0x3f7d1bbf	0.9887046
154	0x3f7240b9	0.9463001
155	0xbea58636	-0.32328957
156	0x3e41643a	0.1888589
157	0x3f7b64a1	0.9820042
158	0x3c9ba37e	0.018998858
159	0x3f7ff42c	0.9998195
160	0x3f69b6c8	0.9129453
161	0x3ed0f022	0.40808207
162	0x3f68c7b7	0.9092974
163	0xbed51133	-0.41614684
164	0x3e4b6ff9	0.19866933
165	0x3f7ae5a5	0.9800666
166	0x3ca3d43e	0.019998666
167	0x3f7ff2e5	0.9998
168	0x3f562f10	0.8366556
169	0xbf0c37fc	-0.54772925
170	0x3f5cfb4a	0.86320937
171	0xbf013d98	-0.5048461
172	0x3e557683	0.2084599
173	0x3f7a603c	0.9780309
174	0x3cac04f5	0.020998457
175	0x3f7ff18d	0.9997795
176	0xbc110515	-0.008851309
177	0xbf7ffd6f	-0.99996084
178	0x3f4ef99f	0.8084964
179	0xbf16a802	-0.5885011
180	0x3e5f7796	0.21822962
181	0x3f79d46a	0.97589743
182	0x3cb4359f	0.021998225
183	0x3f7ff024	0.999758
184	0xbf58a1e7	-0.84622043
185	0xbf0867bf	-0.53283304
186	0x3f3ee689	0.7457052
187	0xbf2a9111	-0.66627604
188	0x3e6972f1	0.22797753
189	0x3f794233	0.97366637
190	0x3cbc663e	0.022997972
191	0x3f7feeab	0.99973553
192	0xbf67d3fc	-0.9055784
193	0x3ed92dfe	0.42417902
194	0x3f2ceb28	0.6754632
195	0xbf3cc5d6	-0.73739374
196	0x3e736851	0.23770262
197	0x3f78a99b	0.971338
198	0x3cc496d1	0.023997696
199	0x3f7fed20	0.999712
200	0xbe078738	-0.13235176
201	0x3f7dbf78	0.99120283
202	0x3f193578	0.5984721
203	0xbf4d17bf	-0.8011436
204	0x3e7d5777	0.24740396
205	0x3f780aa5	0.9689124
206	0x3cccc757	0.024997396
207	0x3f7feb85	0.9996875
208	0x3f433708	0.76255846
209	0x3f259c81	0.6469193
210	0x3f03f7e6	0.5155014
211	0xbf5b5d10	-0.8568888
212	0x3e83a010	0.25708055
213	0x3f776555	0.96638995
214	0x3cd4f7cf	0.02599707
215	0x3f7fe9da	0.99966204
216	0x3f74d50e	0.95637596
217	0xbe959338	-0.29213881
218	0x3edad189	0.42737988
219	0xbf677146	-0.90407217
220	0x3e889106	0.26673144
221	0x3f76b9b1	0.9637709
222	0x3cdd2839	0.026996719
223	0x3f7fe81d	0.9996355
224	0x3e8ab42a	0.2709058
225	0xbf766d57	-0.9626059
226	0x3eab8391	0.33498815
227	0xbf71357c	-0.94222236
228	0x3e8d7e7d	0.27635565
229	0x3f7607bb	0.96105546
230	0x3ce55895	0.02799634
231	0x3f7fe650	0.99960804
232	0xbf29e3e9	-0.6636339
233	0xbf3f80b3	-0.74805754
234	0x3e74fdc7	0.23924933
235	0xbf7890b7	-0.9709582
236	0x3e926854	0.2859522
237	0x3f754f78	0.95824385
238	0x3ced88e2	0.028995935
239	0x3f7fe472	0.99957955
240	0xbf7cefa4	-0.9880316
241	0x3e1df418	0.15425146
242	0x3e1081c3	0.14112
243	0xbf7d7026	-0.9899925
244	0x3e974e6d	0.29552022
245	0x3f7490ef	0.9553365
246	0x3cf5b920	0.029995501
247	0x3f7fe283	0.99955004
248	0xbecede06	-0.40403765
249	0x3f6a2c8e	0.91474235
250	0x3d2a507c	0.041580662
251	0xbf7fc752	-0.99913514
252	0x3e9c30a5	0.30505863
253	0x3f73cc22	0.95233357
254	0x3cfde94d	0.030995036
255	0x3f7fe083	0.9995195

W f4 [8, 8]
0	0xbfba94f6	-1.4576709
1	0xbf51aea0	-0.8190708
2	0xbf834047	-1.0253991
3	0x3fc66d43	1.5502094
4	0x3f6e76e0	0.9315014
5	0x3f07e6d1	0.5308657
6	0xbf34e417	-0.7066054
7	0x3f415e95	0.75534946
8	0x407b9e0b	3.9315212
9	0x4002e9f4	2.0455294
10	0x3e923c18	0.28561473
11	0xc035db75	-2.8415196
12	0xbfed1d84	-1.8524632
13	0xbfd160b0	-1.6357632
14	0x3f94b403	1.1617435
15	0xbfa83a4d	-1.3142792
16	0x4032531a	2.786322
17	0x3ff1a8aa	1.8879597
18	0x3e0e33de	0.13886973
19	0xbfbd231c	-1.477634
20	0xbfa9d243	-1.3267292
21	0xbf95b2af	-1.1695155
22	0x3f9277dd	1.1442829
23	0xbfcb4fbe	-1.588371
24	0x4042f39d	3.046119
25	0x3f0de77f	0.5543136
26	0x3eab7e37	0.33494732
27	0xbf3658b8	-0.71229124
28	0xbdf7154a	-0.120646074
29	0xbf39d0da	-0.7258431
30	0xbe306f5c	-0.1722998
31	0xbd78fa26	-0.060785435
32	0xc0375a29	-2.864878
33	0xbf93f162	-1.1558039
34	0xbded22b3	-0.11578884
35	0x4000c4c7	2.0120103
36	0x3faa7aa6	1.3318679
37	0x3f91375d	1.134502
38	0xbfb32479	-1.3995506
39	0x3fa01af6	1.2508228
40	0x3f266e22	0.650118
41	0xbf31070c	-0.6915138
42	0x3f05eb94	0.5231259
43	0x3f1a953a	0.6038395
44	0x3edb3480	0.42813492
45	0xbed2c976	-0.41169327
46	0xbe6a76e5	-0.22896917
47	0x3f58ea94	0.8473294
48	0x4026e8f3	2.607968
49	0x400f0e11	2.2352335
50	0x3f176dd9	0.5915199
51	0xc00958ab	-2.1460369
52	0xbfbf276f	-1.4933909
53	0xbfaabd55	-1.333903
54	0x4015347c	2.3313284
55	0xc01d40fd	-2.4570916
56	0xc00b2a8b	-2.1744716
57	0xbe6d109f	-0.23150872
58	0xbe8b8a9a	-0.27254182
59	0x3f1b9ca0	0.60785866
60	0x3eca73c5	0.3954145
61	0x3f9aef68	1.2104311
62	0xbe473898	-0.19455183
63	0x3e33ec80	0.17570686

b f4 [8]
0	0x3f8b5cb9	1.0887672
1	0xbf994675	-1.1974627
2	0xbfb0da81	-1.3816682
3	0xbe492ac9	-0.19645227
4	0x3f93b913	1.1540855
5	0x3e9a3dcf	0.3012528
6	0xbffc35bc	-1.9703898
7	0x3ef252be	0.47328752

W f4 [8, 8]
0	0xbffd0c4d	-1.9769379
1	0x3ef78d48	0.48349977
2	0x3eedc655	0.46440378
3	0xbfb6518c	-1.4243636
4	0x4008922c	2.1339216
5	0xc0131791	-2.2983134
6	0x4073db9a	3.8102784
7	0xbd6f6ea0	-0.05845511
8	0xbfa3a9fa	-1.2786248
9	0x3fafd7af	1.3737696
10	0xc06eeb73	-3.7331207
11	0xbfb308fa	-1.3987114
12	0xbfab57ad	-1.3386132
13	0xbff65e91	-1.9247609
14	0xbe9e3aa5	-0.30904117
15	0xbf806beb	-1.0032934
16	0x3d5e3eab	0.054258984
17	0x3f0e37ad	0.55553705
18	0x3fdd704b	1.7299894
19	0xbf706db9	-0.93917423
20	0x3fb2d696	1.3971736
21	0xbf97805f	-1.1836051
22	0x403288f1	2.7896082
23	0xbf1a212c	-0.60206866
24	0xbfbff2eb	-1.4996008
25	0x3f6339db	0.88760155
26	0xc04b678c	-3.178195
27	0xc00618bb	-2.0952594
28	0x3f33db26	0.7025627
29	0xbfe76655	-1.8078104
30	0x407ceba9	3.9518836
31	0xbfdbee56	-1.7182109
32	0xbedb6445	-0.42849937
33	0x3ffaeeda	1.9604142
34	0xc032e706	-2.7953506
35	0xbec4675b	-0.38360104
36	0xbfed9dec	-1.8563819
37	0xbf9bbbf1	-1.216673
38	0xc01a9ee8	-2.4159489
39	0xbfe081a8	-1.7539568
40	0x3f36dbc2	0.71429074
41	0xbeadadfd	-0.33921805
42	0xbef6cd33	-0.4820343
43	0x400e35fe	2.2220454
44	0xbf8e3ecb	-1.1112913
45	0x4014cd2a	2.3250222
46	0xbfe33b26	-1.7752426
47	0x3f21c1a6	0.6318611
48	0x3f731e9c	0.9496858
49	0xbda96676	-0.08271496
50	0xbfac205e	-1.3447378
51	0xbd144330	-0.036196887
52	0xbf5edf8e	-0.8705987
53	0x3f538cb8	0.82636595
54	0xc02d4cad	-2.707805
55	0xbf3917b9	-0.7230182
56	0x3f5e7c13	0.8690807
57	0xbeca0490	-0.39456606
58	0xbf7d3b67	-0.98918766
59	0x3f8555f6	1.0416858
60	0xbfdc3c0b	-1.7205824
61	0x3fb55045	1.4165121
62	0xbfd5bdad	-1.669851
63	0x3f69b345	0.9128917

b f4 [8]
0	0x3ef42b79	0.47689417
1	0xbfecf75e	-1.851299
2	0x3f3ee49d	0.74567586
3	0xbfbfb9b9	-1.4978553
4	0xbfc0cc55	-1.5062357
5	0x3d0fb038	0.035080165
6	0xbf3dd3a9	-0.7415109
7	0xbeea11e8	-0.45716786

W f4 [8, 8]
0	0x40af0be7	5.470203
1	0xbfc134a9	-1.5094196
2	0x3fa903c9	1.320428
3	0xc076eda4	-3.8582544
4	0xc04384db	-3.0549839
5	0x40434974	3.0513582
6	0xc02600bd	-2.593795
7	0x40017301	2.0226443
8	0x3b972c86	0.004613462
9	0x3f09924c	0.53738856
10	0x3fcd1211	1.6021138
11	0xbf568f38	-0.83812284
12	0xc00e8cc7	-2.2273424
13	0x3ffd9e2f	1.9813899
14	0xbf96ff4d	-1.1796662
15	0x3e4a597d	0.197607
16	0x406ebce9	3.7302802
17	0xbdec78ec	-0.115465015
18	0x3e97bd58	0.29636645
19	0xc04fe565	-3.2483761
20	0xbfd7c3a5	-1.6856581
21	0x400cc43c	2.1994772
22	0xbfd33d43	-1.650307
23	0x3fec7bd2	1.8475287
24	0x4046eb95	3.1081288
25	0x3f8d424d	1.1035858
26	0x3fcff9da	1.6248124
27	0xc06668ee	-3.6001544
28	0xc0552cce	-3.3308597
29	0x4017dff7	2.3730447
30	0xc01012b3	-2.2511413
31	0x400d5551	2.2083323
32	0xc06a5c82	-3.6618962
33	0x400078c3	2.0073707
34	0xbefd2432	-0.49441677
35	0x3ed4233f	0.4143314
36	0x3f3de0ae	0.7417096
37	0xbf6bee25	-0.92160255
38	0x3f0331a2	0.5124761
39	0xbfa7f0d0	-1.3120365
40	0xbf0e26fc	-0.55528235
41	0xbf35ca40	-0.71011734
42	0xbf6f04de	-0.933668
43	0x3ff5139d	1.914661
44	0x400ab9ce	2.1675906
45	0xbfff9af1	-1.9969159
46	0x3fc1a248	1.5127649
47	0xbfd77b28	-1.6834459
48	0xbf8bafaf	-1.0912989
49	0xbf4ef07e	-0.8083571
50	0xbf5bfc16	-0.8593153
51	0x3eec6a9a	0.4617508
52	0x3fde25e2	1.7355311
53	0xbf9e9bb9	-1.2391273
54	0x3fb105ee	1.3829935
55	0xbea71b3e	-0.32637972
56	0xbf1d5dea	-0.61471426
57	0xbefd9f8e	-0.49535793
58	0xbf1d1646	-0.6136211
59	0x400634da	2.0969758
60	0x3fd56102	1.667023
61	0xbfd41b52	-1.6570837
62	0x3f973987	1.1814431
63	0xbfd27ec7	-1.6444939

b f4 [8]
0	0xbb10c6e8	-0.0022091214
1	0xbbf196ae	-0.0073726987
2	0x3be2a626	0.006916779
3	0x3bfbb34d	0.0076812864
4	0x3c1afb15	0.009459277
5	0xbbe7955f	-0.007067367
6	0x3b9bc075	0.0047531673
7	0x3b8ef61f	0.004362836

W f4 [8, 8]
0	0xbfa2f360	-1.2730522
1	0x40500d54	3.2508135
2	0x402b6aeb	2.6784008
3	0xbffe89d1	-1.9885808
4	0xc0025033	-2.036145
5	0xc04f5c86	-3.2400222
6	0x401f3bef	2.488033
7	0x3f10a6f3	0.56504744
8	0x3f0cf9d7	0.55068725
9	0xbfec1b2f	-1.8445796
10	0xbfb3ee4f	-1.4057101
11	0x3d373181	0.044724945
12	0x3fbe1698	1.4850645
13	0x3e53f3ba	0.20698443
14	0xbf77bb2e	-0.9676999
15	0xbf09b66c	-0.5379398
16	0xbfea7d0a	-1.8319409
17	0x406425da	3.5648103
18	0x403ce114	2.9512377
19	0xc006a413	-2.1037643
20	0xc03b3b0d	-2.9254792
21	0xc01b5082	-2.4267888
22	0x4039b02c	2.9013777
23	0x3fdd27d0	1.7277775
24	0x3fe2d401	1.7720948
25	0xbf4f9c07	-0.81097454
26	0xc0031505	-2.048158
27	0xbee38f08	-0.44445062
28	0x3fba2894	1.4543633
29	0x4006c8d2	2.106007
30	0xbfe1e950	-1.7649326
31	0x3f046e07	0.5173039
32	0xbf91d9e6	-1.1394622
33	0x40048840	2.070816
34	0x3fd7cf75	1.6860186
35	0xbf9a420f	-1.205141
36	0xc011224d	-2.2677186
37	0xc019f7c2	-2.405747
38	0x4010f753	2.2650955
39	0x3e4ef80e	0.20211813
40	0x3f3a837f	0.728569
41	0x402dc119	2.7149107
42	0x3fb40ef6	1.4067066
43	0xbf00d5ce	-0.5032624
44	0xbf8714b6	-1.0553195
45	0xbfe8d63b	-1.8190378
46	0x3fffd7f6	1.9987781
47	0x3fabd650	1.3424778
48	0xbf4abe99	-0.7919708
49	0xc0571587	-3.360689
50	0xbfddc193	-1.7324699
51	0x3fa5708d	1.2924973
52	0x3ff3944e	1.9029634
53	0x40023fda	2.0351472
54	0xc00ccd60	-2.200035
55	0xbfb9c0e6	-1.4511993
56	0x3e0240c1	0.12720014
57	0x3fc8682b	1.565679
58	0x3ee92268	0.45534062
59	0x3e9a40c5	0.3012754
60	0xbf93c37b	-1.1544031
61	0x3e79b2f2	0.24384668
62	0xbc09751a	-0.008389736
63	0x3ec959a5	0.39326206

b f4 [8]
0	0xbfef0c50	-1.8675632
1	0x3f4a9b8c	0.79143596
2	0xbfb087ad	-1.3791405
3	0x3fa1dbaf	1.2645167
4	0xbf6a06c8	-0.914166
5	0xbe8ce087	-0.2751505
6	0x3f8e6c99	1.1126891
7	0xbe919e88	-0.28441262

weight f4 [8]
0	0x402b4b40	2.676468
1	0xbf863f7c	-1.0488124
2	0x40153a10	2.3316689
3	0x40943291	4.6311727
4	0x3ef8e9fc	0.48616016
5	0xbc074635	-0.008256485
6	0x3ffee09e	1.9912298
7	0x3e8ea760	0.27862072

bias f4 [8]
0	0xc0386f31	-2.8817866
1	0xbe833092	-0.25622994
2	0xbffcdd5d	-1.9755055
3	0x4084fc31	4.155785
4	0xbc1c986e	-0.009557826
5	0x3f9d5b1c	1.2293429
6	0x3f4752ac	0.7786052
7	0x401925dc	2.3929358

W1 f4 [8, 32]
0	0x3faa755b	1.3317064
1	0xbeb1a56c	-0.3469652
2	0xc0023496	-2.0344596
3	0xbdcc9379	-0.09989066
4	0x3f1bcb05	0.6085666
5	0x3fad923e	1.3560255
6	0xc08fa89f	-4.4893336
7	0x3f04bf23	0.5185415
8	0x3f76f895	0.96473056
9	0x3fb52b12	1.4153769
10	0x3e08e680	0.13369179
11	0x3f1c2cb3	0.61005706
12	0x3f762449	0.96149117
13	0xbea1b89d	-0.3158616
14	0xbe7c2d4c	-0.24626654
15	0xc0413f31	-3.019482
16	0x3fd0c839	1.6311103
17	0x3fb23f61	1.3925592
18	0x41137412	9.2158375
19	0x3e8b4963	0.27204427
20	0x3f4e94d8	0.8069587
21	0x3f7ae50c	0.9800575
22	0x3f7a3fe6	0.9775375
23	0x3fd7bfde	1.6855428
24	0x3f865e0a	1.0497448
25	0x40116ec5	2.2723858
26	0x4013a327	2.306833
27	0x4033d64b	2.8099544
28	0x404f09ca	3.2349725
29	0x3f8c900b	1.0981458
30	0x3f9ef3cc	1.2418151
31	0x3e0833bd	0.13300987
32	0x3e9c4036	0.3051774
33	0x3f46fdfb	0.77731293
34	0xc00fbc10	-2.2458534
35	0x3fdc7313	1.7222618
36	0x3f20b209	0.6277166
37	0x3e57f7e5	0.21090658
38	0xbe90f400	-0.28311157
39	0x3fc6c23d	1.5528027
40	0x3e1f29aa	0.15543237
41	0x3f12a7a6	0.5728706
42	0x3f8228dd	1.016872
43	0x3e4b5872	0.19857958
44	0xbeae87d2	-0.34087998
45	0x3f44b58c	0.7683952
46	0x3fda12e1	1.7037011
47	0xc0713158	-3.7686367
48	0x40261613	2.5950973
49	0xbfbfe900	-1.4992981
50	0x3f9bb790	1.2165394
51	0xbe8295a5	-0.25504795
52	0xbf0815b6	-0.5315813
53	0x3f8b6827	1.089116
54	0x3ecf86e6	0.40532607
55	0x3f0605af	0.5235242
56	0xbf1539a8	-0.582911
57	0xbfc2d226	-1.5220382
58	0xbe5bf91b	-0.21481745
59	0x3fb5bd0d	1.4198319
60	0x3e9892c8	0.29799485
61	0xbf88c4ce	-1.068506
62	0x3fc43fde	1.5331991
63	0xbfe8d646	-1.8190391
64	0xbdc1f323	-0.09470203
65	0x3fefce44	1.8734822
66	0xbfce54cb	-1.6119627
67	0xbe58e782	-0.21182063
68	0x3f30ebe0	0.69109917
69	0x3f8f6fbc	1.1205974
70	0xc086df8f	-4.21479
71	0x3dfabd8e	0.12243186
72	0x3fd231c8	1.6421442
73	0x3eda0fa0	0.42590046
74	0xbdbdb831	-0.09263647
75	0x3e4fa845	0.20279033
76	0x3f55a64f	0.8345689
77	0xbd8d9122	-0.069124475
78	0xbe9cae70	-0.30601835
79	0xc00ae792	-2.170384
80	0xbe2390dd	-0.1597323
81	0x3f81d6ed	1.0143715
82	0x41049ad4	8.2878
83	0x3eab8980	0.33503342
84	0x3fbaaf2b	1.4584707
85	0x3f3f33f2	0.7468864
86	0x3e8e6ac1	0.27815822
87	0x3f1818c2	0.5941278
88	0x40240a46	2.563127
89	0x3ff197e5	1.887448
90	0x403b6c1e	2.928474
91	0x3fce870c	1.6134963
92	0x40531e84	3.2987375
93	0x3f6fb6ec	0.9363849
94	0x3fa23278	1.2671652
95	0x3f8a0dd8	1.0785475
96	0xbfbcfaca	-1.4764035
97	0xbf2c2eab	-0.6725871
98	0x40264062	2.5976796
99	0x3cbe226e	0.023209777
100	0xbec4e269	-0.38453987
101	0xc0072765	-2.1117795
102	0x40840cce	4.126563
103	0xbf9552eb	-1.166593
104	0xbf1066ca	-0.56406844
105	0xbf9758ab	-1.1823934
106	0xbdb11359	-0.086462684
107	0xbf851336	-1.0396488
108	0xbfa9018c	-1.3203597
109	0xbe8529b9	-0.26008394
110	0x3b13f4d9	0.002257636
111	0x40bceef4	5.904169
112	0xc0a5a1af	-5.175987
113	0xbf4cb50a	-0.79963744
114	0xc08a0387	-4.3129306
115	0x3e0d57cc	0.13803023
116	0xbfcbbf3f	-1.5917739
117	0xbfac5bb9	-1.3465492
118	0xbf8e54b1	-1.1119596
119	0xbff13ee1	-1.8847314
120	0xbf5f3aea	-0.8719927
121	0xbfedfda4	-1.859303
122	0xbff364d4	-1.9015145
123	0xc054ed8d	-3.326999
124	0xbf8bbc83	-1.0916904
125	0xbf81f9f2	-1.0154402
126	0xbfc68162	-1.5508235
127	0xbfa71cf3	-1.305571
128	0xbe2da773	-0.16958408
129	0x3e8f27d8	0.27960086
130	0xbd914b98	-0.070944965
131	0x3ebe76fb	0.3720015
132	0x3e968c11	0.29403737
133	0xbfab916b	-1.3403753
134	0x4023ef89	2.561495
135	0x3ec840b1	0.39111856
136	0xbec4eeca	-0.38463432
137	0xbea0c03b	-0.3139666
138	0xbdfe3871	-0.12413109
139	0xbe7c4552	-0.24635819
140	0x3eed5167	0.46351168
141	0xbcb4fdef	-0.022093741
142	0x3f4894c0	0.78351974
143	0x40471a5e	3.1109843
144	0xbf8603d3	-1.0469917
145	0xbf907fd3	-1.1289009
146	0xbef8ef68	-0.48620152
147	0xbfa60b7b	-1.2972254
148	0xbeedf650	-0.46476984
149	0xbe1ac23a	-0.15113154
150	0x3e394814	0.18093902
151	0xbf00b0d1	-0.502698
152	0x3e492471	0.19642808
153	0xbfc26b51	-1.5189
154	0xbf11cab1	-0.5694991
155	0xbf21f0a0	-0.6325779
156	0xbee1a1aa	-0.44068652
157	0xbe9af462	-0.30264574
158	0xbf4dd497	-0.8040251
159	0xbf238eae	-0.63889587
160	0xbbce7059	-0.006300014
161	0xbfc7cdd1	-1.5609685
162	0xbfb8d971	-1.4441358
163	0xbf9037e6	-1.1267059
164	0xbef7c20d	-0.48390236
165	0x3f69dc38	0.9135165
166	0x40479561	3.1184924
167	0x3f9be85e	1.2180288
168	0x3f9c574d	1.2214142
169	0x3e8c4355	0.2739512
170	0xbe876b55	-0.26449075
171	0xbe21da41	-0.15805914
172	0x3e8d8a51	0.2764459
173	0xbf633f63	-0.88768595
174	0xc0371b38	-2.8610363
175	0x4026d88b	2.6069667
176	0xbf0209a0	-0.50795937
177	0x3d3ec48c	0.04657416
178	0x3eb9eb30	0.36312246
179	0xbfcb2f29	-1.5873767
180	0x3f589465	0.8460143
181	0xbe805ec9	-0.25072315
182	0xbee08d76	-0.43857926
183	0x3ed0e7cc	0.40801847
184	0x3f2ef3a8	0.6834054
185	0x3f6402c3	0.89066714
186	0x3ec3c8aa	0.38239032
187	0x3ea58359	0.32326773
188	0x3f46550f	0.7747354
189	0x3e3b9c90	0.18321443
190	0x3d8d686d	0.06904683
191	0x3f84212d	1.0322624
192	0xbda77c35	-0.081779875
193	0x3ece8d0c	0.40341985
194	0x3fac3f65	1.3456846
195	0x3f23003c	0.6367223
196	0xbf3dbd6e	-0.7411717
197	0xc005f469	-2.0930426
198	0x400bba70	2.1832542
199	0xbfb13ead	-1.3847252
200	0xc03ed776	-2.9819007
201	0xc002156f	-2.0325582
202	0xbeb00ce5	-0.34384838
203	0xbf1bd391	-0.608697
204	0xbf55e1b5	-0.83547527
205	0xbfc808ad	-1.5627648
206	0x3f96b781	1.1774751
207	0xbea6cf38	-0.3257997
208	0x3e837439	0.25674608
209	0xbf808958	-1.0041914
210	0xc10ed2e8	-8.926491
211	0x3f20a403	0.6275026
212	0xbfc322d6	-1.5245006
213	0xbf8e41ec	-1.1113868
214	0x3e25e99e	0.16202399
215	0xbf2b5d78	-0.66939497
216	0xc00ee9ba	-2.2330155
217	0xbf29b0aa	-0.6628519
218	0xc037d979	-2.8726485
219	0xbfd9707b	-1.6987451
220	0xc08d9e8b	-4.4256034
221	0xbfa62eaf	-1.2982997
222	0xbf9ee328	-1.2413073
223	0xbf600d71	-0.8752051
224	0xbc4b27a5	-0.012399589
225	0xc01701c8	-2.3594837
226	0x3fffdb68	1.9988832
227	0xbf8c3177	-1.0952595
228	0xbec4ef19	-0.38463667
229	0xbfe40a21	-1.7815591
230	0x400180cb	2.023486
231	0xbfbcd088	-1.4751139
232	0xbd04d6ca	-0.0324314
233	0xbf9c608a	-1.2216961
234	0xbe56b775	-0.20968421
235	0xbf2e501b	-0.6809098
236	0x3d9b01eb	0.07568725
237	0xbf29faa3	-0.66398066
238	0xbfd23846	-1.6423423
239	0x40a12aa5	5.0364556
240	0xc0252d66	-2.580896
241	0x3edbd2ca	0.42934257
242	0xc0029923	-2.0405967
243	0xbf705fc1	-0.9389611
244	0xbfc75ff5	-1.5576159
245	0xbf897e62	-1.0741694
246	0xbe33cad3	-0.1755784
247	0xbf3c5ef4	-0.73582387
248	0xbf375b64	-0.71623826
249	0xbf530471	-0.8242865
250	0xbe11610b	-0.14197175
251	0xbfac40d2	-1.3457282
252	0xbec8baa8	-0.39204907
253	0xbf5eddc8	-0.8705716
254	0xbfe1ca3d	-1.7639843
255	0xbef79046	-0.4835226

b1 f4 [32]
0	0xbebf284b	-0.3733543
1	0xbd8173e5	-0.06320933
2	0x3fecdc21	1.8504678
3	0x3f215559	0.63020855
4	0xbf36906e	-0.7131413
5	0xc05783e3	-3.3674247
6	0x3ff8d20f	1.9439105
7	0xbff74afb	-1.9319757
8	0xbf436607	-0.76327556
9	0xbf50a62c	-0.8150356
10	0xbe811396	-0.25210255
11	0xbebdc5b4	-0.37064898
12	0xbf510440	-0.8164711
13	0xbfa75250	-1.3071995
14	0x3f6df6db	0.92954797
15	0x40970d54	4.720377
16	0xbfedb3c8	-1.857049
17	0xbfdfe2cc	-1.7491088
18	0x3f1ebe76	0.6200937
19	0x3ed55b91	0.41671422
20	0xbfe10e09	-1.7582408
21	0xbf18ca3f	-0.59683603
22	0xbe74e969	-0.23917164
23	0xbec54c97	-0.38534996
24	0xbedbf7b8	-0.42962432
25	0xbfd8c281	-1.6934358
26	0xbf418df2	-0.75607216
27	0xbe63e553	-0.22255449
28	0xbe6a42a5	-0.22876985
29	0xbfd9009f	-1.6953315
30	0xbfcb12aa	-1.5865071
31	0xbfa82321	-1.313572

W2 f4 [32, 8]
0	0xbf87b1e4	-1.0601163
1	0x3fb2db4d	1.3973175
2	0xbf30e0ea	-0.6909319
3	0xbfe9ece0	-1.8275414
4	0xbf19a072	-0.60010445
5	0x3f631465	0.88702995
6	0x3f4399b5	0.76406413
7	0xbf4a28a8	-0.78968287
8	0xbfcce6a6	-1.6007888
9	0x3f7d6f18	0.9899764
10	0xbf794024	-0.97363496
11	0xbfae3e14	-1.3612695
12	0xbfffa438	-1.997199
13	0x3fddb402	1.7320559
14	0xc0418677	-3.023832
15	0xbf8901bb	-1.0703653
16	0xbe0871be	-0.13324639
17	0xbfb5b01f	-1.4194373
18	0xbeeee99a	-0.466626
19	0xc0e8681a	-7.2627077
20	0xbe61b4b2	-0.22041586
21	0xbf59fd29	-0.85151917
22	0x410df18f	8.871474
23	0x3d06bae2	0.03289307
24	0xbf3a74d4	-0.72834516
25	0xbf578a81	-0.84195715
26	0x3ec987f9	0.3936155
27	0xc0a27eb1	-5.0779653
28	0xc0050571	-2.078457
29	0x3f8864e1	1.0655786
30	0x402277ed	2.5385697
31	0x3f8ab13b	1.0835336
32	0xc00ddedd	-2.2167275
33	0x3f3901cf	0.72268385
34	0x3e14c273	0.14527301
35	0xc026317b	-2.59677
36	0xbfa76b08	-1.3079538
37	0xbee15a10	-0.44014025
38	0xbfb88520	-1.4415627
39	0x3de2076a	0.1103657
40	0x4085ddb2	4.1833124
41	0x4001ae0e	2.0262485
42	0x3f89f254	1.0777078
43	0x402d9ddc	2.71276
44	0x3f0ba6ae	0.5455121
45	0x3f1af32a	0.6052729
46	0xc0770ea6	-3.860269
47	0xc0040140	-2.0625763
48	0x3df7ee3f	0.12105989
49	0xbf9acec5	-1.2094351
50	0xbf011e63	-0.5043699
51	0xc10998cf	-8.599807
52	0x3d36462e	0.044500522
53	0xbf6de602	-0.9292909
54	0x4138bb89	11.545785
55	0xbe8f8ec4	-0.2803861
56	0xbfffe3d5	-1.9991404
57	0x3f36f71f	0.71470827
58	0x3dc3e97d	0.09566019
59	0x3fbbd15c	1.4673266
60	0xbfb720fd	-1.4306942
61	0xbe11f5e3	-0.14253955
62	0x3ed5cc44	0.41757405
63	0x3f328795	0.6973813
64	0xbfcc84b4	-1.5977998
65	0x3fae2a39	1.3606635
66	0x3ea7bb50	0.32760096
67	0xc0469f78	-3.1034832
68	0xc01def2a	-2.4677224
69	0x3ecfc1ef	0.40577647
70	0xc0016323	-2.0216758
71	0x3e624d27	0.22099744
72	0xbffb41e8	-1.9629488
73	0x3f1d924f	0.61551374
74	0x3ed2ce22	0.41172892
75	0xbd89e1e1	-0.06732536
76	0xbf977811	-1.1833516
77	0x3f0deaec	0.5543659
78	0xbf3d28a4	-0.7389014
79	0x3d89418f	0.067019574
80	0xbfefeaf5	-1.8743578
81	0x3e31b946	0.17355832
82	0x3eb91ac2	0.36153227
83	0xbf0479db	-0.51748437
84	0xbe8a18cd	-0.26972046
85	0xbd8fc8f7	-0.07020753
86	0x3f132ec3	0.5749323
87	0x3ea60f7b	0.32433686
88	0xbf9ee838	-1.2414618
89	0xbc96901f	-0.01837927
90	0xbdf69ff7	-0.120422296
91	0x3f23873b	0.6387822
92	0xbe0b30da	-0.13592854
93	0xbef7c687	-0.48393652
94	0xbe8ac54d	-0.27103654
95	0x3e4fba71	0.20285966
96	0xbf3daff1	-0.7409659
97	0x3fa4d8b7	1.2878636
98	0xbe2b3453	-0.16719179
99	0xbfc1b451	-1.5133153
100	0xbf171186	-0.59011114
101	0x3f90d462	1.1314814
102	0xbfe8015f	-1.8125418
103	0xbface980	-1.3508759
104	0xbf8701bd	-1.0547405
105	0x3fd5e925	1.6711775
106	0xbf6fd974	-0.9369118
107	0xbf632e92	-0.88742936
108	0xbfaff4fb	-1.3746637
109	0x3e83d805	0.25750747
110	0xbdf74cfc	-0.120752305
111	0xbf2ea90d	-0.682267
112	0xbf264197	-0.6494383
113	0xbf3c679d	-0.735956
114	0x3ea76935	0.32697454
115	0xc0bfc787	-5.9931064
116	0xc0081040	-2.1259918
117	0x3f1dafe6	0.61596525
118	0x4055e951	3.3423655
119	0x3f3280f7	0.69728035
120	0xbf9fb9bf	-1.247856
121	0x3e59825c	0.21241134
122	0xbf507d2d	-0.81441003
123	0xc13befb3	-11.74602
124	0xbfe0db97	-1.7567014
125	0xbedf703c	-0.43640316
126	0x4126fa9a	10.436182
127	0xbf26e5e0	-0.6519451
128	0x3fee0042	1.8593829
129	0xbfe301ce	-1.7734926
130	0xbf99bba2	-1.2010386
131	0x409634db	4.693952
132	0xc0092f90	-2.143528
133	0x3ebc9c05	0.36837783
134	0xc0cb04c3	-6.3443313
135	0x4017d960	2.3726425
136	0xc02027b4	-2.5024233
137	0x3f9058de	1.127712
138	0xbf83fe47	-1.0311974
139	0xbf9e362a	-1.236028
140	0xbfed9d4a	-1.8563626
141	0x3fc9ec8e	1.5775316
142	0xbf2bdfab	-0.67138165
143	0xbf5e4584	-0.8682482
144	0xbe5a4dbd	-0.21318717
145	0x3eda7fb0	0.42675543
146	0xbf6d520b	-0.9270331
147	0x40c032f6	6.006221
148	0xbf843bb2	-1.0330718
149	0x3fb4cc4c	1.4124846
150	0xc16c74ff	-14.7785635
151	0xbef6e005	-0.48217788
152	0xbf04be71	-0.5185309
153	0xbe7467ae	-0.23867676
154	0x3ce2de02	0.027693752
155	0xc035930a	-2.8370996
156	0xbe172084	-0.14758497
157	0xbef3c248	-0.47609162
158	0x40a49ae3	5.143907
159	0xbeb13294	-0.346089
160	0xc0355d92	-2.833836
161	0x3f989dec	1.1923194
162	0xbf982411	-1.1886007
163	0xbfb05de3	-1.3778652
164	0xbfcf3057	-1.6186627
165	0x3f773f06	0.9658054
166	0xbc5df7a7	-0.013547814
167	0xbf358947	-0.70912594
168	0xbea8326c	-0.3285097
169	0x3cd15418	0.025552794
170	0x3e6a8d83	0.22905545
171	0x402063f6	2.5061011
172	0xbe5705c9	-0.209983
173	0x3e25e85c	0.1620192
174	0xc04db3ae	-3.2140918
175	0xbd51605f	-0.051117297
176	0xbedb8395	-0.42873827
177	0x3eaaf386	0.3338892
178	0x3d134122	0.035950787
179	0x3f9f349f	1.2437934
180	0xbd0869f9	-0.03330419
181	0x3f1bfaf0	0.60929775
182	0xbf98684d	-1.190683
183	0xbdd67ae7	-0.104726605
184	0x3ec92fc7	0.39294264
185	0xbed90234	-0.42384493
186	0xbe82ad66	-0.25522918
187	0x3ff2b666	1.8961914
188	0xbf37e1c3	-0.7182886
189	0x3f208b2f	0.6271238
190	0xc04979d8	-3.1480618
191	0x3efd906f	0.49524257
192	0xc038d1bb	-2.887801
193	0x3f916f8b	1.1362165
194	0xbe89da6e	-0.2692446
195	0xbff97f2b	-1.9491934
196	0xc05564d9	-3.3342803
197	0x3faf364f	1.3688449
198	0xbf7d245a	-0.98883593
199	0xbea2d316	-0.3180167
200	0xc001e34b	-2.0294979
201	0x3fb3db61	1.4051324
202	0xbf49eac9	-0.7887388
203	0xbe87204e	-0.26391834
204	0xbfc6a7f1	-1.5520002
205	0x3f97db28	1.1863756
206	0xbffc10d3	-1.9692634
207	0xbf4db181	-0.80348974
208	0xbfab546f	-1.3385142
209	0x3f895ca8	1.0731401
210	0xbe1f2f0f	-0.15545295
211	0x3f9964a2	1.1983836
212	0xbf4abb7d	-0.79192334
213	0x3f6e30d2	0.93043244
214	0xc054f751	-3.327595
215	0xbc2ac63e	-0.010423241
216	0x3df62240	0.120182514
217	0x3f6d17cb	0.9261443
218	0xbebf75e9	-0.37394646
219	0x4018fcd5	2.3904316
220	0xbf8415ad	-1.0319115
221	0x3f99bec0	1.2011337
222	0xc0c1de61	-6.058396
223	0xbec2cbf9	-0.38046244
224	0xbeee7d36	-0.46579903
225	0x3fa5d545	1.295571
226	0xbf1c23ff	-0.60992426
227	0x40120f30	2.282177
228	0xbff0b7d3	-1.8806099
229	0x3fa7b2a1	1.3101388
230	0xc1215d5b	-10.085292
231	0xbf6e62ba	-0.93119395
232	0xbfe3965a	-1.7780259
233	0x3fc6924f	1.55134
234	0xbfd69ed4	-1.676722
235	0xbfba0f98	-1.4536009
236	0xbfe4d742	-1.7878191
237	0x3f99b110	1.200716
238	0xbff145cf	-1.8849429
239	0xbfbf07d9	-1.492427
240	0xbf6a8bfd	-0.91619855
241	0x3e52284b	0.20523183
242	0x3f5384ee	0.8262471
243	0x3f8b098f	1.0862292
244	0x3ed2a7fd	0.4114379
245	0x3f1fd9e8	0.62441874
246	0xc022bbf6	-2.5427222
247	0x3f425af5	0.7592004
248	0xc04f7866	-3.2417235
249	0x3f754cf2	0.95820534
250	0xbfc202bb	-1.5157083
251	0xbfaddf0c	-1.3583694
252	0xbfd4e01a	-1.663089
253	0x3fce6ed2	1.612757
254	0xbf3bf037	-0.73413414
255	0xbf389dab	-0.7211558

b2 f4 [8]
0	0xbe061476	-0.13093743
1	0x3f167020	0.5876484
2	0xbe6032ed	-0.21894427
3	0xbfa95913	-1.3230308
4	0xbf85c80c	-1.0451674
5	0x3f8c854e	1.0978181
6	0x3daf488c	0.08558759
7	0xbf555494	-0.8333218

weight f4 [8]
0	0x3dd95b4f	0.10613119
1	0xbd0e0f4c	-0.034682557
2	0x3cc35214	0.023842849
3	0x3e1a3947	0.15060912
4	0xbdb48e28	-0.08816177
5	0xbdd2596e	-0.102709636
6	0x3d58c65a	0.052923538
7	0xbab47f85	-0.0013770914

bias f4 [8]
0	0x3cb9ca07	0.022679342
1	0xbc9b5c05	-0.018964777
2	0x3b1ca314	0.0023900913
3	0x3e46aa28	0.19400847
4	0xbc30e906	-0.010797745
5	0xbcbdca82	-0.023167852
6	0x3d5de035	0.0541689
7	0x384b8e3e	4.8531445e-05

weight f4 [1, 8]
0	0xbc518fe4	-0.012790654
1	0x3c191879	0.009344214
2	0x3851ae84	4.9992013e-05
3	0x3c6d6661	0.014489741
4	0xbb53531b	-0.003224558
5	0x3c5e26cc	0.013559055
6	0xbd540b34	-0.051768497
7	0xb9f32674	-0.00046377222
