saved_models/model-epoch-50.pth (torch, 249162 bytes, 52 tensors)

embeddings f4 [99, 32]
0	0x3e59fa76	0.2128695
1	0xbe4da6d4	-0.20083171
2	0x3df0bed2	0.11755146
3	0x3d137ec7	0.036009576
4	0xbd69a0b0	-0.05703801
5	0xbdcf82a2	-0.10132338
6	0x3dae79f7	0.08519357
7	0xbe2f0c2d	-0.17094488
8	0xbdf86b98	-0.12129897
9	0x3dbb0781	0.09132291
10	0x3ca37f5c	0.01995819
11	0xbe3533c1	-0.17695524
12	0x3e1f3a5f	0.1554961
13	0xbe580964	-0.21097332
14	0xbc60a9d4	-0.013712365
15	0xbe179ee4	-0.14806706
16	0x3e4bdb4d	0.19907875
17	0xbda20b76	-0.07912342
18	0x3e29536b	0.16535728
19	0xbd3c9b2f	-0.046046432
20	0x3d096b9a	0.033549882
21	0x3e316e3f	0.17327212
22	0xbdad94e4	-0.08475664
23	0xbdab4a4f	-0.083637826
24	0xbe54d84a	-0.20785633
25	0xbd7bebe1	-0.06150425
26	0xbe288545	-0.16457088
27	0x3e017bab	0.12644832
28	0x3e251d2b	0.16124408
29	0x3e369296	0.17829356
30	0xbdbfdc12	-0.09368147
31	0x3e1f682e	0.15567085
32	0xbc5ac241	-0.013351978
33	0x3dc5ded9	0.096616454
34	0x3dda160e	0.10648738
35	0xbc4e0c30	-0.012576148
36	0x3da218f8	0.07914919
37	0x3e2cc538	0.16872108
38	0xbde9c5a2	-0.114146486
39	0xbe4a0551	-0.1972859
40	0x3da8afe6	0.08236675
41	0xbdb2cfff	-0.08731078
42	0x3c042386	0.00806511
43	0xbe3bcc8e	-0.1833975
44	0xbca43fdd	-0.020049984
45	0xbe06b56d	-0.13155146
46	0xbe2ca8ad	-0.1686122
47	0x3d690020	0.056884885
48	0x3e320359	0.1738409
49	0xbdf4f407	-0.11960607
50	0xbdcc2d0a	-0.09969528
51	0x3e0ebdb7	0.13939558
52	0xbe155714	-0.14583999
53	0xbdcb7063	-0.099335454
54	0x3e34ed4d	0.17668648
55	0x3debdd2c	0.115167946
56	0x3cfbc2bc	0.030732505
57	0x3dca05da	0.09864397
58	0xbda31139	-0.07962269
59	0x3e53331c	0.20624965
60	0xbe0ed776	-0.1394938
61	0xbd090233	-0.033449363
62	0xbd73798c	-0.059442088
63	0x3e4637dd	0.19357248
64	0xbe2b699c	-0.16739506
65	0xbd467800	-0.048454285
66	0xbe242ee7	-0.16033517
67	0x3e216895	0.15762551
68	0xbde85693	-0.11344638
69	0xbdae057d	-0.084971406
70	0xbe12902b	-0.14312808
71	0xbcbaa68e	-0.022784498
72	0xbe539a39	-0.206643
73	0xbdf233f4	-0.118263155
74	0x3d5897bf	0.05287909
75	0xbe5746ad	-0.21023054
76	0xbd6082ee	-0.054812364
77	0x3def3db5	0.116816916
78	0x3d0e8fe3	0.03480519
79	0x3d6eef9e	0.058333986
80	0xbdc18512	-0.09449209
81	0x3dd158df	0.10222029
82	0x3c72f95a	0.014829958
83	0xbdd9e65b	-0.1063964
84	0x3e49d164	0.19708782
85	0xbd60254d	-0.054723073
86	0x3d3dc4b7	0.04633018
87	0x3d2b9335	0.041888434
88	0x3cb03bbd	0.02151286
89	0xbe1787af	-0.14797853
90	0xbbb394f8	-0.005480405
91	0xbc20a638	-0.009805255
92	0xbde83590	-0.11338341
93	0xbd18a0b6	-0.03726264
94	0x3c8fb42d	0.01754197
95	0xbc3a6a4f	-0.011377885
96	0xbe58c88b	-0.21170251
97	0x3d1cb900	0.038262367
98	0xbe1341e4	-0.14380604
99	0x3e4d875b	0.20071165
100	0x3e19f9a9	0.15036644
101	0x3b9d5a5d	0.004802032
102	0x3ded8058	0.11596745
103	0x3d84782a	0.06468232
104	0x3d50c213	0.050966334
105	0xbdc3ccd8	-0.09560555
106	0x3b2cef91	0.002638791
107	0x3b4b759b	0.003104544
108	0x3e2a1269	0.16608585
109	0xbd67dc29	-0.056606445
110	0x3ccbfa66	0.024899673
111	0xbdcc5dff	-0.09978866
112	0xbda3f7c5	-0.08006243
113	0xbd5a91ba	-0.053361632
114	0x3dc15cf2	0.09441556
115	0x3dc8e1c7	0.098086886
116	0xbe4fdfc1	-0.20300199
117	0xbd819997	-0.06328123
118	0xbb15ac04	-0.0022838125
119	0x3ddc239e	0.10748981
120	0xbe1251d3	-0.14289026
121	0xbddb5c5f	-0.10710978
122	0x3e50ac4c	0.20378226
123	0xbe41ced3	-0.18926553
124	0x3c264806	0.010149008
125	0xbd89626d	-0.06708226
126	0xbe021720	-0.12704134
127	0xbe3fcd69	-0.18730702
128	0xbe4cc613	-0.19997434
129	0x3e1893c0	0.14900112
130	0x3d0a661b	0.03378878
131	0x3d442f0d	0.047896434
132	0x3d425b6f	0.04745048
133	0xbe17a2aa	-0.14808145
134	0xbe1bf430	-0.15229869
135	0x3ce1213f	0.027481673
136	0xbd57ea58	-0.052713722
137	0x3e1ee10c	0.15515536
138	0x3cabd4bf	0.020975469
139	0x3e1d6e04	0.15373999
140	0x3c46ddd1	0.012137846
141	0xbe3ff4e8	-0.18745768
142	0x3d142368	0.03616658
143	0xbe19bd29	-0.15013565
144	0x3e0e068f	0.1386969
145	0xbe0f20a8	-0.13977301
146	0xbe324f11	-0.17412974
147	0xbe2e7b51	-0.17039229
148	0xbe125f3d	-0.14294143
149	0x3e1c1a34	0.1524437
150	0x3b591372	0.0033123163
151	0xbe2e3b68	-0.17014849
152	0xbdac23ef	-0.08405291
153	0x3d714d0f	0.05891138
154	0x3e06eef4	0.13177091
155	0x3d2debc8	0.042461187
156	0x3e08868b	0.13332574
157	0xbd9de0e6	-0.077089116
158	0x3e5029e2	0.20328477
159	0x3d8fecad	0.07027564
160	0xbd996691	-0.07490266
161	0xbd37f09e	-0.044907205
162	0x3be3d781	0.0069531803
163	0xbe16a80b	-0.14712541
164	0xbe2b0d57	-0.16704307
165	0x3e2d731e	0.16938445
166	0xbdbbfdd5	-0.09179274
167	0x3e17eee8	0.14837229
168	0x3e38b967	0.18039475
169	0xbc6be95f	-0.014398902
170	0x3d277b22	0.040888913
171	0x3e36a6bb	0.1783704
172	0x3c02b77c	0.007978316
173	0x3e2d0ba8	0.16898978
174	0x3e3d3ef2	0.18481043
175	0x3ce82351	0.028337153
176	0x3d518f50	0.051162064
177	0x3de8b93c	0.11363456
178	0x3e2c6228	0.16834319
179	0x3e31b84f	0.17355464
180	0x3cb44b4f	0.022008566
181	0xbdf9be6e	-0.12194525
182	0x3e30b6eb	0.17257278
183	0x3dda625a	0.1066329
184	0xbd9ce74e	-0.07661305
185	0xbe4f7870	-0.20260787
186	0xbe03dab1	-0.12876393
187	0xbd17a927	-0.03702655
188	0x3e4cb561	0.19991066
189	0xbd7584b4	-0.05994101
190	0xbe42c442	-0.19020179
191	0x3e20f627	0.157189
192	0x3e3214fd	0.17390819
193	0x3c5c4af8	0.013445608
194	0xbe1eb6ed	-0.15499468
195	0xbd96abb5	-0.07356969
196	0xbe0d37dd	-0.13790841
197	0x3e3fb70f	0.18722175
198	0xbe308f9f	-0.17242287
199	0xbd6f56b8	-0.05843231
200	0xbe505d20	-0.20348024
201	0x3d056170	0.032563627
202	0xbc9e67b3	-0.019336557
203	0x3d979a62	0.07402493
204	0xbe4ebfeb	-0.20190398
205	0x3d28e8e1	0.041237716
206	0xbe4af551	-0.19820143
207	0x3e354a28	0.1770407
208	0xbc12ca50	-0.008959368
209	0xbe4465da	-0.19179478
210	0xbd520d94	-0.05128248
211	0x3e4ff92b	0.20309894
212	0xbd494648	-0.04913929
213	0xbe466e10	-0.19377923
214	0xbe373f1b	-0.17895167
215	0xbe25475b	-0.16140501
216	0xbd9c111b	-0.0762045
217	0xbdffaedc	-0.12484524
218	0xbe3185a4	-0.17336136
219	0x3cac738c	0.02105119
220	0xbe2db748	-0.16964447
221	0x3e3dcb4f	0.18534587
222	0x3dc2a5ab	0.09504255
223	0xbe06c927	-0.13162671
224	0x3cd4ed16	0.025991958
225	0xbc0e2ee3	-0.008678171
226	0xbe22cd92	-0.15898731
227	0x3e293e68	0.16527712
228	0xbdd5b75b	-0.10435363
229	0x3cf04745	0.029330859
230	0xbe0a9672	-0.13533953
231	0xbe31b36a	-0.17353597
232	0xbcad2d4f	-0.021139769
233	0x3e23c0fb	0.15991585
234	0xbdfd88a8	-0.12379581
235	0x3e570268	0.20997012
236	0xbbf4a44f	-0.007465876
237	0x3dd7cbb0	0.10536897
238	0x3df7f015	0.12106339
239	0x3dce2e01	0.10067368
240	0x3b02cf07	0.0019959824
241	0x3d0e25bd	0.03470396
242	0xbd843311	-0.06455053
243	0x3e27bd73	0.16380863
244	0x3e49b6bc	0.19698614
245	0xbe55eb6e	-0.2089059
246	0xbda27b6a	-0.079336956
247	0xbe2d41b1	-0.1691959
248	0x3c34cc5b	0.01103505
249	0xbe48ea26	-0.1962057
250	0xbdfe5884	-0.12419227
251	0x3e528b2d	0.20560904
252	0xbce1320c	-0.027489685
253	0xbcbf9b39	-0.023389446
254	0x3e144a7e	0.14481542
255	0x3cde89ea	0.027165372

_pos_embeds f4 [64, 32]
0	0x00000000	0.0
1	0x3f800000	1.0
2	0x00000000	0.0
3	0x3f800000	1.0
4	0x00000000	0.0
5	0x3f800000	1.0
6	0x00000000	0.0
7	0x3f800000	1.0
8	0x00000000	0.0
9	0x3f800000	1.0
10	0x00000000	0.0
11	0x3f800000	1.0
12	0x00000000	0.0
13	0x3f800000	1.0
14	0x00000000	0.0
15	0x3f800000	1.0
16	0x00000000	0.0
17	0x3f800000	1.0
18	0x00000000	0.0
19	0x3f800000	1.0
20	0x00000000	0.0
21	0x3f800000	1.0
22	0x00000000	0.0
23	0x3f800000	1.0
24	0x00000000	0.0
25	0x3f800000	1.0
26	0x00000000	0.0
27	0x3f800000	1.0
28	0x00000000	0.0
29	0x3f800000	1.0
30	0x00000000	0.0
31	0x3f800000	1.0
32	0x3f576aa4	0.84147096
33	0x3f0a5140	0.5403023
34	0x3f087dba	0.53316844
35	0x3f58940e	0.84600914
36	0x3e9f393e	0.3109836
37	0x3f734e6a	0.95041525
38	0x3e35233a	0.17689219
39	0x3f7bf683	0.9842302
40	0x3dcc7576	0.099833414
41	0x3f7eb898	0.9950042
42	0x3d6636b0	0.056204498
43	0x3f7f9868	0.9984193
44	0x3d01815c	0.031617507
45	0x3f7fdf3c	0.99950004
46	0x3c91ab42	0.017781857
47	0x3f7ff5a3	0.99984187
48	0x3c23d657	0.009999833
49	0x3f7ffcb9	0.99995
50	0x3bb8445c	0.0056233834
51	0x3f7ffef7	0.9999842
52	0x3b4f3e20	0.0031622723
53	0x3f7fffac	0.999995
54	0x3ae91520	0.0017782785
55	0x3f7fffe5	0.9999984
56	0x3a83126d	0.0009999998
57	0x3f7ffff8	0.9999995
58	0x3a136a16	0.0005623413
59	0x3f7ffffd	0.9999998
60	0x39a5cb5f	0.00031622776
61	0x3f7fffff	0.99999994
62	0x393a7753	0.00017782794
63	0x3f800000	1.0
64	0x3f68c7b7	0.9092974
65	0xbed51133	-0.41614684
66	0x3f66f20a	0.9021307
67	0x3edce8b2	0.43146282
68	0x3f17541b	0.5911271
69	0x3f4e7bec	0.8065784
70	0x3eb247f6	0.34820527
71	0x3f6ffaa5	0.9374183
72	0x3e4b6ff9	0.19866933
73	0x3f7ae5a5	0.9800666
74	0x3de5d988	0.112231314
75	0x3f7e61f3	0.9936821
76	0x3d8170c8	0.063203394
77	0x3f7f7cf9	0.9980007
78	0x3d11a55c	0.03555809
79	0x3f7fd68e	0.9993676
80	0x3ca3d43e	0.019998666
81	0x3f7ff2e5	0.9998
82	0x3c38439d	0.011246589
83	0x3f7ffbdb	0.99993676
84	0x3bcf3ddd	0.0063245133
85	0x3f7ffeb0	0.99998
86	0x3b691508	0.0035565514
87	0x3f7fff96	0.9999937
88	0x3b031269	0.0019999987
89	0x3f7fffde	0.999998
90	0x3a936a14	0.0011246824
91	0x3f7ffff5	0.99999934
92	0x3a25cb5f	0.0006324555
93	0x3f7ffffd	0.9999998
94	0x39ba7753	0.00035565588
95	0x3f7fffff	0.99999994
96	0x3e1081c3	0.14112
97	0xbf7d7026	-0.9899925
98	0x3f7e45d7	0.9932532
99	0xbded7fa8	-0.11596614
100	0x3f5009c2	0.8126489
101	0x3f152f57	0.5827536
102	0x3f022f6d	0.50853616
103	0x3f5c6d29	0.86104065
104	0x3e974e6d	0.29552022
105	0x3f7490ef	0.9553365
106	0x3e2beed8	0.1679033
107	0x3f7c5d9e	0.9858035
108	0x3dc1ffc1	0.09472609
109	0x3f7ed94f	0.99550337
110	0x3d5a694d	0.05332308
111	0x3f7fa2c3	0.9985773
112	0x3cf5b920	0.029995501
113	0x3f7fe283	0.99955004
114	0x3c8a31c7	0.016869439
115	0x3f7ff6ad	0.9998577
116	0x3c1b6e11	0.009486691
117	0x3f7ffd0d	0.999955
118	0x3baecfa8	0.005334813
119	0x3f7fff11	0.99998575
120	0x3b449b93	0.0029999956
121	0x3f7fffb5	0.9999955
122	0x3add1f1b	0.0016870232
123	0x3f7fffe8	0.99999857
124	0x3a78b10d	0.0009486832
125	0x3f7ffff8	0.9999995
126	0x3a0bd97e	0.0005334838
127	0x3f7ffffe	0.9999999
128	0xbf41bdcf	-0.7568025
129	0xbf275530	-0.6536436
130	0x3f4749ed	0.77847177
131	0xbf20af9d	-0.62767965
132	0x3f741dde	0.95358074
133	0x3e9a2eb1	0.30113748
134	0x3f271fbc	0.652828
135	0x3f41ebed	0.7575062
136	0x3ec761d7	0.38941833
137	0x3f6bcaa7	0.921061
138	0x3e6465c6	0.22304448
139	0x3f798d09	0.9748083
140	0x3e012e88	0.12615407
141	0x3f7df469	0.99201065
142	0x3d918dc8	0.07107121
143	0x3f7f5a47	0.9974713
144	0x3d23cbdb	0.039989334
145	0x3f7fcb94	0.9992001
146	0x3cb840a2	0.022491757
147	0x3f7fef6c	0.99974704
148	0x3c4f3ccd	0.012648773
149	0x3f7ffac2	0.99992
150	0x3be914a7	0.0071130577
151	0x3f7ffe58	0.9999747
152	0x3b831258	0.0039999895
153	0x3f7fff7a	0.999992
154	0x3b136a0e	0.0022493633
155	0x3f7fffd6	0.9999975
156	0x3aa5cb5c	0.0012649107
157	0x3f7ffff3	0.9999992
158	0x3a3a7752	0.0007113117
159	0x3f7ffffc	0.99999976
160	0xbf757c10	-0.9589243
161	0x3e913c2c	0.2836622
162	0x3ea5dad6	0.3239352
163	0xbf723240	-0.94607925
164	0x3f7ffc7f	0.99994653
165	0xbc2972d4	-0.010342319
166	0x3f46caab	0.77652997
167	0x3f214cf1	0.6300803
168	0x3ef57744	0.47942555
169	0x3f60a940	0.87758255
170	0x3e8e11ee	0.27748054
171	0x3f75f27c	0.96073127
172	0x3e213c1e	0.15745589
173	0x3f7cce81	0.987526
174	0x3db5db21	0.08879686
175	0x3f7efd1e	0.99604976
176	0x3d4cb6f5	0.04997917
177	0x3f7fae19	0.99875027
178	0x3ce64dfe	0.028113361
179	0x3f7fe619	0.99960476
180	0x3c818581	0.01581073
181	0x3f7ff7cf	0.999875
182	0x3c11acbb	0.00889128
183	0x3f7ffd69	0.9999605
184	0x3ba3d6de	0.0049999794
185	0x3f7fff2e	0.9999875
186	0x3b38448c	0.002811703
187	0x3f7fffbe	0.99999607
188	0x3acf3e31	0.0015811381
189	0x3f7fffeb	0.99999875
190	0x3a691526	0.0008891396
191	0x3f7ffff9	0.9999996
192	0xbe8f0f8c	-0.2794155
193	0x3f75cdb8	0.96017027
194	0xbe6be574	-0.23036748
195	0xbf791d53	-0.9731037
196	0x3f72784d	0.94714814
197	0xbea43f6f	-0.32079646
198	0x3f603089	0.8757406
199	0x3ef72f34	0.482782
200	0x3f108c69	0.5646425
201	0x3f534932	0.8253356
202	0x3ea97dfd	0.33103934
203	0x3f7190e2	0.943617
204	0x3e41206f	0.18860029
205	0x3f7b67e3	0.98205394
206	0x3dda19c1	0.106494434
207	0x3f7e8b51	0.9943133
208	0x3d759cd1	0.059964005
209	0x3f7f8a12	0.99820054
210	0x3d0a2cbf	0.03373408
211	0x3f7fdab3	0.99943084
212	0x3c9b6c46	0.018972527
213	0x3f7ff434	0.99982
214	0x3c2ecf04	0.010669474
215	0x3f7ffc45	0.9999431
216	0x3bc49b59	0.005999964
217	0x3f7ffed2	0.999982
218	0x3b5d1f06	0.0033740415
219	0x3f7fffa1	0.99999434
220	0x3af8b105	0.0018973654
221	0x3f7fffe2	0.9999982
222	0x3a8bd97d	0.0010669675
223	0x3f7ffff6	0.9999994
224	0x3f283046	0.6569866
225	0x3f40ffbd	0.75390226
226	0xbf36b66e	-0.71372116
227	0xbf334f60	-0.7004299
228	0x3f4ce86f	0.80042166
229	0xbf1974bb	-0.5994374
230	0x3f728444	0.9473307
231	0x3ea3f8b9	0.32025698
232	0x3f24eb73	0.64421767
233	0x3f43ccb3	0.7648422
234	0x3ec460df	0.38355157
235	0x3f6c6bc5	0.92351943
236	0x3e60d350	0.2195561
237	0x3f79c0ea	0.9755999
238	0x3dfe46ba	0.12415834
239	0x3f7e04e9	0.9922624
240	0x3d8f3e32	0.06994285
241	0x3f7f5f81	0.997551
242	0x3d213160	0.03935373
243	0x3f7fcd3b	0.9992253
244	0x3cb552a6	0.022134136
245	0x3f7feff2	0.999755
246	0x3c4bf12a	0.012447635
247	0x3f7ffaec	0.9999225
248	0x3be55fc7	0.006999943
249	0x3f7ffe65	0.9999755
250	0x3b80fcbe	0.003936379
251	0x3f7fff7e	0.99999225
252	0x3b1111ec	0.0022135926
253	0x3f7fffd7	0.99999756
254	0x3aa32866	0.0012447953
255	0x3f7ffff3	0.9999992

W f4 [32, 32]
0	0x3e1f1460	0.15535116
1	0xbf20fbdc	-0.62884307
2	0x3e6ff2b5	0.23432429
3	0xba689a6c	-0.00088731083
4	0xbe673e93	-0.22582464
5	0xbe251fed	-0.1612546
6	0x3ecca5e0	0.39970303
7	0xbe7e01e2	-0.24805406
8	0xbec1543d	-0.3775958
9	0xbeb220eb	-0.3479074
10	0x3eaea65e	0.34111303
11	0xbd2eec5a	-0.04270587
12	0x3ee18261	0.44044784
13	0x3ea34d5a	0.31894952
14	0x3e99307b	0.299198
15	0x3f036eaf	0.51340765
16	0x3e08d055	0.13360722
17	0x3f00b86c	0.50281405
18	0x3f000501	0.50007635
19	0x3eede4de	0.46463674
20	0x3e3e417f	0.18579672
21	0x3f405d48	0.75142336
22	0x3eeb7848	0.45990205
23	0x3e9a1ac7	0.30098554
24	0x3eb692e8	0.35658956
25	0x3f34c80c	0.7061775
26	0x3eb265c8	0.34843278
27	0x3f051eeb	0.520003
28	0x3e5d30ca	0.21600643
29	0x3ee32271	0.44362214
30	0x3eb9ddbe	0.36301988
31	0x3f3b4c5b	0.73163384
32	0x3e8c41f8	0.2739408
33	0xbdee3fdc	-0.11633274
34	0xbce0fe53	-0.027465021
35	0x3e8e20e2	0.27759463
36	0xbef414f1	-0.47672227
37	0xbe2ea409	-0.17054762
38	0x3edd70c7	0.43250105
39	0x3f1eaded	0.6198414
40	0x3f1945c6	0.5987209
41	0xbf3673d7	-0.7127051
42	0xbeea1f02	-0.45726782
43	0x3eba9211	0.36439565
44	0xbe975140	-0.29554176
45	0x3b8b8400	0.004257679
46	0xbf39fb0b	-0.72648686
47	0xbf3b3cc3	-0.7313959
48	0xbeb73906	-0.35785693
49	0xbf1ecbcd	-0.62029725
50	0xbe903fc4	-0.2817365
51	0xbea9571a	-0.33074266
52	0xbf32baa7	-0.6981606
53	0xbf40ce84	-0.7531512
54	0xbf1deaae	-0.6168622
55	0xbf1e7aa9	-0.61905915
56	0xbf0ecb7e	-0.55779254
57	0xbf346792	-0.70470536
58	0xbec86f0f	-0.3914723
59	0xbf2c33df	-0.6726665
60	0xbef33098	-0.47498012
61	0xbf27d8da	-0.65565264
62	0xbf539432	-0.82648003
63	0xbf3c8ebd	-0.736553
64	0xbc9246f9	-0.017856108
65	0x3f223270	0.6335821
66	0xbefa9ebb	-0.48949227
67	0xbeb258e3	-0.3483344
68	0x3f4e5e0e	0.80612266
69	0x3f3678bc	0.71277976
70	0xbf127a86	-0.57218206
71	0xbe989e35	-0.29808202
72	0x3e12a170	0.14319396
73	0x3de56593	0.11201014
74	0x3da544aa	0.08069737
75	0xbf0c75b3	-0.54867095
76	0x3edc32ca	0.430075
77	0xbebff41c	-0.37490928
78	0x3ef36338	0.47536635
79	0x3e602112	0.21887615
80	0x3e51ce2c	0.20488805
81	0x3e26112f	0.16217493
82	0x3e091f06	0.13390741
83	0x3ece9477	0.40347645
84	0x3f2d93ab	0.6780345
85	0x3f1c2d87	0.6100697
86	0x3ee4e164	0.4470321
87	0x3e812f0e	0.25231212
88	0x3e016a25	0.12638147
89	0x3ebc78b9	0.36810854
90	0x3e85cb98	0.26131892
91	0x3e88bd63	0.2670699
92	0x3debb29f	0.11508679
93	0x3f33baec	0.70207095
94	0x3e375824	0.17904717
95	0x3ec58b92	0.38583046
96	0x3e11e8a0	0.14248896
97	0x3ecb2bd3	0.39681873
98	0x3f00741b	0.5017716
99	0x3e6e2ecd	0.2326004
100	0x3eed36af	0.46330783
101	0xbc1ca02a	-0.00955967
102	0x3ec0e0b5	0.37671438
103	0xbea27e69	-0.31737068
104	0x3eaa7ad5	0.33296838
105	0xbe31e040	-0.17370701
106	0xbf122d0b	-0.5709998
107	0x3ea1325c	0.31483734
108	0xbe2f64cb	-0.17128293
109	0x3db729b7	0.08943503
110	0xbdb57cd3	-0.08861699
111	0xbe74d816	-0.23910555
112	0x3d8910ae	0.066926345
113	0x3db40fd3	0.08792081
114	0xbed37bdf	-0.41305444
115	0xbe0f6367	-0.14002763
116	0x3dd04ed3	0.101712845
117	0xbef21499	-0.4728134
118	0xbedbf758	-0.42962146
119	0xbe0b1260	-0.13581228
120	0xbe4460fa	-0.19177619
121	0xbe57e71b	-0.21084253
122	0xbee2e25c	-0.44313323
123	0xbe7927f8	-0.24331653
124	0x3dbdf729	0.09275658
125	0xbe7f3d49	-0.24925722
126	0xbc472b75	-0.012156357
127	0xbe32d713	-0.17464857
128	0xbe8dda18	-0.27705455
129	0x3d9729e8	0.0738104
130	0xbeb5e705	-0.35527816
131	0xbd0d8fe4	-0.034561053
132	0xbe1e4ad4	-0.15458232
133	0x3ed8a240	0.42311287
134	0xbf1538d0	-0.58289814
135	0xbe5e6dba	-0.21721545
136	0xbd877d60	-0.0661571
137	0x3f008bb5	0.50213176
138	0xbf2e205e	-0.6801814
139	0xbe8aa80c	-0.27081335
140	0x3eca2afe	0.39485925
141	0xbf08ed09	-0.53486687
142	0x3e51a754	0.20473987
143	0xb90e2542	-0.00013556055
144	0x3dc2dfef	0.09515368
145	0xbdbab042	-0.0911565
146	0x3eabcc3a	0.3355425
147	0x3e4f7773	0.2026041
148	0x3ec12dcf	0.37730262
149	0x3d3ba6ae	0.045813255
150	0x3e7193ee	0.23591587
151	0x3e9667dd	0.29376116
152	0x3d0a40b2	0.033753105
153	0x3ea83aa9	0.32857254
154	0xbdf09891	-0.1174785
155	0x3e248fc0	0.16070461
156	0xbb62fd1b	-0.0034635726
157	0xbd9f1163	-0.07766988
158	0x3eaa2c86	0.33237094
159	0x3ec9f48e	0.39444393
160	0xbdecd851	-0.115646966
161	0xbe7b107d	-0.24518009
162	0xbed77b46	-0.42086238
163	0x3bcbd5ee	0.0062205708
164	0xbef759c1	-0.48310664
165	0x3e480d1a	0.19536248
166	0xbf02f89b	-0.5116059
167	0x3ed6f3d3	0.41982898
168	0x3de76258	0.112980545
169	0x3e988844	0.29791462
170	0xbec2205c	-0.37915313
171	0x3eb3f180	0.35145187
172	0xbf31ae9d	-0.69407064
173	0xbf1135e1	-0.5672284
174	0xbec96f48	-0.39342713
175	0xbf0c383e	-0.5477332
176	0xbf75603b	-0.9584996
177	0xbf169c38	-0.5883212
178	0xbf4f927d	-0.810829
179	0xbe97b195	-0.29627672
180	0xbf19ea51	-0.60123163
181	0xbf37c168	-0.7177949
182	0xbf53ac8a	-0.8268515
183	0xbf218293	-0.63089865
184	0xbf60c47e	-0.87799823
185	0xbf064be2	-0.5245954
186	0xbf336797	-0.7007994
187	0xbeba746c	-0.36416948
188	0xbf79bb6c	-0.9755161
189	0xbf0f6e62	-0.56027806
190	0xbf4a451f	-0.7901172
191	0xbf1cf0b1	-0.61304766
192	0x3ed81b6a	0.42208415
193	0xbe0d5e2a	-0.13805452
194	0x3d1d3cdb	0.038388114
195	0x3f25a46a	0.64704
196	0x3e5ed171	0.21759583
197	0x3e5b5841	0.21420385
198	0x3e3d6c72	0.184984
199	0x3e9a2f53	0.3011423
200	0xbece14fd	-0.40250388
201	0xbe7623b8	-0.24037063
202	0x3e23fc94	0.1601432
203	0x3e141f8e	0.14465162
204	0x3d377c25	0.044796128
205	0x3e29f784	0.16598326
206	0x3da75324	0.08170155
207	0x3dddb017	0.10824602
208	0x3e061f9a	0.13097993
209	0x3db0eb5e	0.08638643
210	0xbe8819f4	-0.265823
211	0x3b7435da	0.0037263543
212	0xbed2a4a3	-0.41141233
213	0xbe55412b	-0.20825641
214	0xbe3fd0f1	-0.18732049
215	0x3e026dce	0.127372
216	0xbe92c8a7	-0.2866871
217	0xbeed8f86	-0.46398562
218	0xbe619aeb	-0.22031753
219	0xbebb2fee	-0.36560005
220	0x3e0b27ff	0.13589476
221	0x3da3b51c	0.07993528
222	0xbe0c7c83	-0.13719372
223	0xbe4d1b84	-0.20030028
224	0xbe8c9f23	-0.27465162
225	0xbea74eaf	-0.32677218
226	0x3d5da59b	0.05411301
227	0xbe91ae69	-0.28453377
228	0xbeba51c4	-0.36390507
229	0xbe4cb53d	-0.19991012
230	0xbe54baf5	-0.20774443
231	0xbefcb238	-0.4935472
232	0x3ea73df1	0.32664445
233	0x3e54b7e4	0.20773274
234	0xbe44ce06	-0.19219217
235	0xbe08f229	-0.13373627
236	0xbe39163c	-0.18074888
237	0x3ebd8d02	0.37021643
238	0xbdbe02db	-0.092778884
239	0x3ea084de	0.3135137
240	0x3e580e72	0.2109926
241	0xbc884c35	-0.0166379
242	0xbe4dfb4e	-0.20115396
243	0xbd555b45	-0.052088995
244	0xbc9b6503	-0.018969065
245	0x3ded6bf5	0.11592857
246	0x3e3c06a8	0.18361914
247	0xbe57bb44	-0.2106753
248	0x3e2e8858	0.17044199
249	0x3dcc337d	0.09970758
250	0xbdfb63ab	-0.122748695
251	0x3e00fc86	0.1259633
252	0xbcd6308f	-0.026146201
253	0x3ebbd495	0.36685625
254	0xbe2768ee	-0.16348621
255	0x3e152321	0.14564182

b f4 [32]
0	0x3efc0992	0.49226052
1	0xbf0db449	-0.5535322
2	0x3edd85ab	0.43266043
3	0xbe294903	-0.16531758
4	0x3de4d610	0.11173642
5	0xbf014ba6	-0.50506055
6	0xbe293c9d	-0.16527028
7	0x3dcae154	0.09906259
8	0xbe52f787	-0.20602237
9	0x3dd33208	0.10312277
10	0xbe550a6c	-0.20804757
11	0x3ebc4538	0.3677156
12	0xbebe9766	-0.37224883
13	0xbe6cb5d0	-0.23116231
14	0xbe38eca3	-0.1805902
15	0xbeb99ef3	-0.3625408
16	0xbea60a0c	-0.3242954
17	0x3e4ebeba	0.20189944
18	0xbe55ffda	-0.20898381
19	0x3dce9377	0.100867204
20	0xbeb610bf	-0.3555965
21	0xbeaf6c1d	-0.3426217
22	0xbe5e8859	-0.217317
23	0xbeb500c8	-0.3535216
24	0x3e665b40	0.22495747
25	0xbd0ef1fb	-0.03489874
26	0x3e8547e4	0.2603141
27	0x3ead29d5	0.33820978
28	0xbed546b0	-0.41655493
29	0x3e98092a	0.29694492
30	0xbe3b1789	-0.18270697
31	0x3e44debf	0.19225596

W f4 [32, 32]
0	0x3d1527dd	0.03641497
1	0xbf14ba20	-0.58096504
2	0x3d873c40	0.06603289
3	0x3decd0e7	0.115632825
4	0x3e8ab363	0.27089986
5	0x3f43608a	0.7631918
6	0xbec4da5b	-0.38447842
7	0xbec0dd7c	-0.3766898
8	0xbeadd1ea	-0.33949214
9	0x3e628a3f	0.22123049
10	0x3d973b8b	0.07384404
11	0xbe96092e	-0.2930388
12	0x3e817778	0.2528646
13	0xbd08876a	-0.033332266
14	0x3ee456ee	0.44597572
15	0x3e882f4a	0.2659858
16	0x3d82ada8	0.063807786
17	0xbc98a5e2	-0.018633787
18	0x3eed960c	0.4640354
19	0x3ec600b1	0.38672403
20	0x3e650d6b	0.223684
21	0x3e1901cf	0.14942096
22	0x3d91d620	0.07120919
23	0x3e873e77	0.26414844
24	0x3eef92bb	0.46791634
25	0x3e64515a	0.22296658
26	0x3da54f14	0.080717236
27	0x3e6d95c4	0.23201662
28	0x3e9b6c95	0.3035628
29	0x3edacfaa	0.4273656
30	0x3e893467	0.26797792
31	0x3e8e4e99	0.2779434
32	0x3d7d7374	0.061877683
33	0x3e10371d	0.14083524
34	0x3ba9fc70	0.0051875636
35	0xbbab65ca	-0.00523064
36	0xbae6e3d6	-0.0017615508
37	0x3e6e14ab	0.23250072
38	0xbf338176	-0.70119417
39	0x3d7e8a43	0.062143575
40	0x3e9421da	0.28932077
41	0x3f135722	0.5755483
42	0xbe028250	-0.12745023
43	0xbddd14b0	-0.107949615
44	0xbec02247	-0.37526152
45	0xbf15d9a0	-0.58535194
46	0xbebcfb5e	-0.36910528
47	0xbf1a612d	-0.6030453
48	0x3d85d434	0.06534615
49	0xbdf14794	-0.117812306
50	0x3e3baffc	0.18328851
51	0x3d975e6a	0.07391055
52	0xbe01830f	-0.12647651
53	0x3cdcf870	0.026973933
54	0xbd2bf642	-0.041982897
55	0xbee9605c	-0.4558133
56	0xbe78be03	-0.24291234
57	0xbe685733	-0.22689514
58	0x3e24e3ab	0.16102473
59	0xbe6394bc	-0.22224706
60	0xbe35bed8	-0.17748582
61	0xbeea78bf	-0.45795247
62	0x3db95865	0.09050063
63	0xbebbaae9	-0.36653832
64	0xbe375ef0	-0.1790731
65	0x3f04eef5	0.5192712
66	0xbdd292f6	-0.10281937
67	0x3ef9ee99	0.48814848
68	0x3e6a4c13	0.22880583
69	0x3f14f985	0.58193237
70	0x3ce944ef	0.028475253
71	0xbdddfee9	-0.10839636
72	0x3f0720dd	0.5278452
73	0xbf05982e	-0.5218533
74	0x3f059d69	0.52193314
75	0x3d9bd506	0.0760899
76	0x3dd4f631	0.1039852
77	0x3f033adf	0.51261705
78	0x3e9ed2ef	0.31020305
79	0x3f000497	0.50007004
80	0x3eeda14b	0.4641212
81	0x3f0607f3	0.5235588
82	0x3ec6c1d7	0.38819763
83	0x3e2eb200	0.17060089
84	0x3ef3a03b	0.47583184
85	0x3de24dde	0.11050008
86	0x3e7271da	0.23676243
87	0x3ec413ce	0.3829636
88	0x3dbb85bd	0.09156368
89	0x3ee9950b	0.45621523
90	0x3e9dc0af	0.30811068
91	0x3e3c55de	0.1839213
92	0x3e0ac74e	0.13552591
93	0x3e82bd28	0.2553494
94	0x3efc556c	0.49283922
95	0x3f186784	0.5953295
96	0x3e242748	0.1603061
97	0xbe62f401	-0.22163393
98	0xbd5f9ba0	-0.054591775
99	0x3deaddce	0.11468087
100	0x3f11c976	0.5694803
101	0xbf05e17e	-0.522972
102	0x3f1bb19b	0.6081788
103	0xbea20e3a	-0.3165148
104	0xbeb36b6f	-0.35042903
105	0xbeb733ec	-0.357818
106	0x3e978dd0	0.29600382
107	0x3e810ae3	0.25203618
108	0x3f3f448b	0.74713963
109	0x3edc2921	0.4300013
110	0x3e01818b	0.12647073
111	0x3eef2c54	0.46713507
112	0xbe7cccd1	-0.24687506
113	0x3f0c1c37	0.5473055
114	0x3e0331ff	0.12812041
115	0x3ea88bcf	0.32919165
116	0x3d4b0e1b	0.049574
117	0x3e867afa	0.262657
118	0xbe980366	-0.29690093
119	0x3f3fef5e	0.7497462
120	0xbea60447	-0.32425138
121	0x3efe8b2a	0.4971555
122	0xbdfd1303	-0.12357142
123	0x3e7132b1	0.23554493
124	0xbeb18063	-0.34668264
125	0x3ee8e996	0.45490712
126	0x3dc1844d	0.094490625
127	0x3e920f1b	0.2852715
128	0xbef425d5	-0.47685114
129	0x3dcdc255	0.100468315
130	0x3f2ed07a	0.6828686
131	0x3f4aad38	0.7917056
132	0xbf33380d	-0.700074
133	0x3f3afd62	0.7304288
134	0xbeca20d2	-0.39478165
135	0x3ef43fd5	0.4770495
136	0x3f4f9ee6	0.81101835
137	0xbef2e70a	-0.47441894
138	0xbf33e0a1	-0.7026463
139	0x3f18f8d4	0.5975468
140	0xbe9372fb	-0.2879866
141	0xbe9d70c4	-0.30750096
142	0xbf012281	-0.50443274
143	0xbf681073	-0.906501
144	0xbeb532b6	-0.35390252
145	0xbf087e40	-0.5331764
146	0xbf000e7e	-0.50022113
147	0xbee65deb	-0.4499353
148	0xbf13e2b8	-0.5776782
149	0xbeb57066	-0.35437316
150	0xbf18153e	-0.59407413
151	0xbf16e220	-0.5893879
152	0xbf534f69	-0.82543045
153	0xbebf12b2	-0.3731895
154	0xbf328283	-0.69730395
155	0xbf1505b6	-0.5821184
156	0xbf52fb0f	-0.82414335
157	0xbf0d2092	-0.55127823
158	0xbf03fa01	-0.5155335
159	0xbe9812d0	-0.29701853
160	0xbef8922c	-0.4854902
161	0x3c4dfc42	0.01257235
162	0x3e5a918f	0.21344589
163	0xbe9a3313	-0.30117092
164	0xbed417d4	-0.4142443
165	0x3d17b53d	0.037038077
166	0xbe051559	-0.12996425
167	0x3bee8505	0.0072790408
168	0x3d52eae1	0.05149353
169	0xbcc7d036	-0.024391275
170	0xbd7abc2b	-0.061214607
171	0x3ebb2a6c	0.36555803
172	0xbd48b45f	-0.04900014
173	0xbe94d051	-0.29065183
174	0x3c711d31	0.014716432
175	0xbe4e36c8	-0.20138085
176	0x3ba6be56	0.005088608
177	0xbec5876d	-0.38579884
178	0x3c314b8e	0.010821236
179	0xbde39aae	-0.11113487
180	0xbef4a8a0	-0.477849
181	0x3d2c9ece	0.042143635
182	0xbe1cce9c	-0.1531319
183	0xbda5780f	-0.0807954
184	0xbe6a34c2	-0.22871688
185	0xbef0c535	-0.47025457
186	0xbe2530aa	-0.16131845
187	0xbefce7e8	-0.4939568
188	0xbd6df78f	-0.05809742
189	0xbdd90e9e	-0.10598491
190	0xbef9a05b	-0.48755154
191	0xbe561332	-0.2090576
192	0xbea3605b	-0.3190945
193	0xbf2d4d10	-0.67695713
194	0x3d5a6f63	0.053328883
195	0x3f5d2c8a	0.86396086
196	0xbd996416	-0.07489793
197	0x3e15f539	0.14644326
198	0xbe1af47d	-0.15132327
199	0xbeab954c	-0.33512342
200	0x3efc2270	0.49245024
201	0x3ecf3ebb	0.40477547
202	0xbed82f9a	-0.42223817
203	0xbda45647	-0.080242686
204	0x3deea899	0.11653251
205	0xbe9ced9d	-0.30650035
206	0x3b9d9229	0.0048086834
207	0xbde3dfca	-0.11126669
208	0x3e95ac6e	0.29233116
209	0x3dcca237	0.099918775
210	0xbe5df029	-0.21673645
211	0x3e237ae8	0.15964854
212	0x3da83d23	0.08214786
213	0xbe8cda1d	-0.27510157
214	0x3dfeeccd	0.1244751
215	0xbe0a4e7b	-0.135065
216	0x3e4c3b5a	0.19944516
217	0x3cbf8a81	0.023381473
218	0x3e02e008	0.12780774
219	0x3da8ed09	0.08248336
220	0x3e8fdf3d	0.28100005
221	0x3df819c3	0.12114289
222	0xbe3b1444	-0.1826945
223	0xbd972f4a	-0.073820665
224	0x3e0866bb	0.13320439
225	0x3e2c35c9	0.16817392
226	0x3d8a5460	0.067543745
227	0x3ed43905	0.41449752
228	0xbdb3fb57	-0.08788174
229	0xbe657d40	-0.2241106
230	0x3df6fcc7	0.12059932
231	0x3f00bc8d	0.50287706
232	0xbf1848c9	-0.5948606
233	0xbe1b3be6	-0.15159568
234	0xbdd1e8d4	-0.102494866
235	0xbf07f1dc	-0.53103423
236	0xbdd95ae6	-0.106130406
237	0xbeff0ce9	-0.49814537
238	0x3e463a80	0.19358253
239	0x3dbac5e3	0.09119775
240	0xbc73c2ec	-0.014878016
241	0xbe9b1512	-0.30289513
242	0x3e916a77	0.2840154
243	0x3e1ed7f8	0.15512073
244	0xbe18eeef	-0.14934896
245	0xbc8abfd3	-0.016937172
246	0x3eb7de4c	0.35911787
247	0x3de7e193	0.11322322
248	0xbc92dd82	-0.017927889
249	0xbd76d0ce	-0.060257725
250	0x3d445568	0.047933012
251	0xbe0f5c20	-0.13999987
252	0x3eb8f52f	0.3612456
253	0xbd8a5657	-0.06754749
254	0xbe3676f9	-0.17818822
255	0x3cf06a50	0.029347569

b f4 [32]
0	0x3e943256	0.28944653
1	0xbe49ebf1	-0.19718911
2	0x3eac4cdf	0.33652398
3	0x3ee3d506	0.4449846
4	0xbf199edd	-0.6000803
5	0xbe6443c0	-0.2229147
6	0x3c5ac8f1	0.013353572
7	0xbd8eca2d	-0.06972156
8	0x3eb88fd4	0.36047232
9	0x3e062d65	0.13103254
10	0xbe5de3b8	-0.21668899
11	0xbeb37897	-0.3505294
12	0x3ed6f9f9	0.4198759
13	0x3e2efe49	0.1708919
14	0x3e8c3e0d	0.2739109
15	0xbe655e34	-0.22399217
16	0xbec0dc21	-0.37667945
17	0xbe535090	-0.20636201
18	0xbeb109fa	-0.34577924
19	0x3e62f307	0.2216302
20	0x3e3416dc	0.17586845
21	0xbea5b0cf	-0.32361457
22	0xbeb6d9e8	-0.35713124
23	0x3ed1e045	0.40991417
24	0xbe9724b7	-0.295202
25	0x3e78e5d7	0.24306427
26	0x3eb63d94	0.35593855
27	0x3ef67aac	0.48140466
28	0xbe1d7c5e	-0.15379474
29	0xbde1426e	-0.109989986
30	0xbe73f8fe	-0.23825452
31	0x3eaac401	0.33352664

W f4 [32, 32]
0	0x3f262986	0.6490711
1	0xbf2a4edc	-0.6652658
2	0xba21dd97	-0.0006174682
3	0x3ece43c5	0.4028608
4	0xbd8496f2	-0.06474103
5	0xbea0541e	-0.31314176
6	0x3f15eb80	0.5856247
7	0xbee59552	-0.44840485
8	0x3f084889	0.5323568
9	0xbecc7ce2	-0.39939028
10	0x3f24fe2f	0.64450353
11	0x3dddb346	0.10825209
12	0xbdeceb63	-0.11568334
13	0x3e1f2942	0.15543082
14	0xbe97081a	-0.29498369
15	0xbe9e0bca	-0.3086837
16	0xbe1a77e6	-0.150848
17	0xbecaf352	-0.39638764
18	0xbe6b49bb	-0.22977345
19	0xbe534c22	-0.20634511
20	0xbf2dda91	-0.6791163
21	0xbc59e14a	-0.013298342
22	0xbe455dbc	-0.19274038
23	0xbe3e1728	-0.18563521
24	0xbf090983	-0.5353014
25	0xbee8db75	-0.45479932
26	0xbe62ed44	-0.22160822
27	0xbe9a1c27	-0.30099604
28	0xbe006964	-0.12540203
29	0xbf10d367	-0.56572574
30	0xbe6d2dc8	-0.23161995
31	0xbe7f3936	-0.24924168
32	0xbe72a7f1	-0.23696877
33	0xbebcd6d1	-0.36882642
34	0xbe3331fe	-0.1749954
35	0x3e587a6c	0.2114045
36	0xbec6de69	-0.3884156
37	0x3ca52e92	0.020163808
38	0xbec3dc94	-0.38254225
39	0x3df73119	0.120699115
40	0x3e9dd99c	0.30830085
41	0xbd6abf6e	-0.057311468
42	0x3ea89769	0.32928017
43	0x3ecd56ae	0.40105194
44	0x3c2a0c52	0.010378914
45	0x3dde7529	0.1086219
46	0x3d55ff00	0.05224514
47	0xbdc93322	-0.09824206
48	0xbda2a334	-0.07941285
49	0xbe144232	-0.14478377
50	0x3e83db7b	0.25753388
51	0xbde2e8d6	-0.11079566
52	0x3d68a6ac	0.056799576
53	0x3e5e9023	0.21734671
54	0xbe86055c	-0.26175964
55	0x3ec5ff74	0.38671458
56	0x3d70cc85	0.058788795
57	0x3df5f801	0.120101936
58	0x3a80538a	0.0009790522
59	0xbe1c99ca	-0.15293041
60	0x3e500b02	0.20316699
61	0x3e824fa6	0.25451392
62	0xbd3f9bb1	-0.04677934
63	0x3d6f0a5a	0.05835948
64	0xbdf8c68f	-0.12147247
65	0x3de68a9d	0.11256907
66	0xbf04f544	-0.51936746
67	0xbe115904	-0.14194113
68	0xbcadca32	-0.021214578
69	0x3f1c6caa	0.6110331
70	0xbf2d07a1	-0.67589766
71	0xbf2a0768	-0.6641755
72	0x3ee5c4e7	0.44876787
73	0xbd80cdfd	-0.06289289
74	0x3f4aa9a5	0.79165107
75	0xbf185ed9	-0.59519726
76	0x3f480604	0.7813418
77	0x3f2355ae	0.6380261
78	0x3eff3441	0.49844554
79	0x3f2832b5	0.6570237
80	0x3f087b7e	0.53313434
81	0x3ec8317b	0.3910025
82	0x3edf8760	0.4365797
83	0x3ee49b2d	0.4464964
84	0x3ec629dc	0.3870381
85	0x3f4b66c1	0.79453665
86	0x3efaf750	0.4901681
87	0x3f4b7ac6	0.7948421
88	0x3f130d21	0.5744191
89	0x3ef52f74	0.47887766
90	0x3e79d4db	0.24397604
91	0x3f438eef	0.76389974
92	0x3f02aa57	0.5104117
93	0x3e90d769	0.28289345
94	0x3e8f001f	0.2792978
95	0x3f3933d3	0.723447
96	0xbef1462c	-0.4712385
97	0x3e82fb46	0.2558233
98	0xbe755a5d	-0.23960252
99	0xbe6d6d80	-0.23186302
100	0x3eed1cdd	0.46311083
101	0x3edc47e9	0.43023613
102	0xbead4104	-0.33838665
103	0xbed93267	-0.42421266
104	0xbe67970b	-0.22616212
105	0x3e333656	0.17501196
106	0x3e6d97ca	0.23202434
107	0xbe9b6626	-0.3035137
108	0x3ebe9d6f	0.37229487
109	0xbb86844f	-0.004105128
110	0x3e9768d6	0.2957217
111	0x3f25d42e	0.64776886
112	0x3eb93cfe	0.36179346
113	0x3ed51b6b	0.4162248
114	0x3e5ec75d	0.21755739
115	0x3ee44f33	0.44591674
116	0x3ec66e10	0.38755846
117	0x3f0d5828	0.5521264
118	0x3ee1d224	0.44105637
119	0x3f15ac84	0.5846636
120	0x3f1cda73	0.6127083
121	0x3e9e791d	0.30951777
122	0x3e64f72b	0.22359912
123	0x3efaa5d2	0.48954636
124	0x3f224e71	0.6340094
125	0x3eb05daf	0.34446475
126	0x3e5e7f65	0.21728285
127	0x3f125cfc	0.5717313
128	0x3ebd2769	0.3694413
129	0xbe2a85f3	-0.1665266
130	0xbe47061e	-0.19435927
131	0x3e1cf7a9	0.1532885
132	0x3f2287fd	0.6348875
133	0x3e8ecaa7	0.27888986
134	0x3e14605d	0.14489885
135	0xbe8ba770	-0.27276182
136	0x3f118f17	0.5685896
137	0xbe99091c	-0.29889762
138	0xbe843095	-0.25818315
139	0x3f30b742	0.6902963
140	0xbebe06eb	-0.37114653
141	0x3dd1bbd7	0.10240906
142	0xbec6cbdc	-0.38827407
143	0xbf2327a2	-0.6373235
144	0xbf254dbb	-0.6457173
145	0xbf14d078	-0.581306
146	0xbe58e73d	-0.2118196
147	0xbf36916e	-0.7131566
148	0xbf140ed7	-0.57835144
149	0xbf219219	-0.6311355
150	0xbe33cb24	-0.17557961
151	0xbeebf82a	-0.46087772
152	0xbe3d3711	-0.18478037
153	0xbf0476a7	-0.5174355
154	0xbf02f65e	-0.51157176
155	0xbe49d597	-0.19710384
156	0xbeaf905b	-0.34289822
157	0xbf22b9e9	-0.63564926
158	0xbf3adf90	-0.7299738
159	0xbf0d3d77	-0.5517191
160	0xbc53d7a9	-0.012929835
161	0x3d1db5f5	0.038503606
162	0x3ec0ff8c	0.37694967
163	0xbf0b432a	-0.5439936
164	0x3e2b5ca1	0.16734554
165	0x3e9d30c0	0.30701256
166	0x3e66d5ef	0.22542547
167	0xbe8b4005	-0.2719728
168	0xbe9e63ec	-0.3093561
169	0xbea4b384	-0.3216821
170	0x3c5011a5	0.012699519
171	0x3ddc8a0e	0.10768519
172	0x3e8d95e5	0.27653423
173	0x3ee2e756	0.4431712
174	0x3e56a298	0.20960462
175	0xbcd74f10	-0.026282817
176	0x3e9d50fb	0.30725846
177	0x3e7fc418	0.24977148
178	0x3e9116df	0.28337762
179	0x3ef2c747	0.47417662
180	0x3ec737a2	0.38909632
181	0x3e0c257f	0.13686179
182	0x3eec92ae	0.46205658
183	0x3eb94b23	0.36190137
184	0x3d19d566	0.03755703
185	0xbdb85563	-0.09000661
186	0x3e5639f9	0.20920552
187	0x3e897db2	0.2685371
188	0x3bd7820c	0.006576782
189	0x3eb19fe3	0.34692296
190	0x3e4c1608	0.19930279
191	0xbc063115	-0.008190413
192	0xbe219a58	-0.15781534
193	0x3d45a0b8	0.048248976
194	0x3f29476a	0.66124594
195	0x3ebfb0ee	0.37439674
196	0x3f20cf06	0.6281589
197	0xbe632625	-0.2218252
198	0x3ee1d179	0.44105127
199	0x3efcb05c	0.49353302
200	0xbf23e5a6	-0.6402229
201	0x3e6ab55f	0.2292075
202	0xbeb78a59	-0.35847738
203	0x3e979eb4	0.29613268
204	0xbea2e843	-0.31817827
205	0xbf2c9349	-0.6741224
206	0xbe62f35e	-0.2216315
207	0xbe9480f9	-0.29004648
208	0xbe7a2846	-0.24429426
209	0xbe1f68a2	-0.15567258
210	0xbdb4367a	-0.08799453
211	0xbe0b651b	-0.13612787
212	0xbe2a4bd7	-0.16630493
213	0xbe66c2ae	-0.22535202
214	0xbe50015a	-0.20313016
215	0xbea1e3a4	-0.3161899
216	0xbe54d426	-0.20784053
217	0xbd0c7286	-0.034288906
218	0xbc8f5902	-0.017498497
219	0xbefb1b64	-0.49044335
220	0xbdb433a3	-0.087989114
221	0xbe32fcd9	-0.17479266
222	0xbe332a31	-0.17496563
223	0xbe93e3c8	-0.2888472
224	0xbe73c3c4	-0.23805147
225	0xbb543d54	-0.0032385187
226	0xbbb8824c	-0.005630767
227	0xbebcdb7d	-0.36886206
228	0x3e828d72	0.2549854
229	0x3b8f1bae	0.0043673133
230	0xbe9dfd57	-0.30857345
231	0x3ed616e9	0.41814354
232	0x3dea7bef	0.1144942
233	0x3db54f17	0.08852976
234	0xbea81c65	-0.32834163
235	0xbf057c98	-0.5214324
236	0x3f08b5e7	0.5340256
237	0xbe8726f9	-0.2639692
238	0x3f16f282	0.5896379
239	0x3eac7ae5	0.3368751
240	0x3ea74330	0.32668447
241	0x3edc8552	0.43070465
242	0x3f2157c0	0.6302452
243	0x3eaf5000	0.34240723
244	0x3e8db97a	0.2768057
245	0x3ea5ee46	0.3240835
246	0x3e5b1107	0.21393214
247	0x3e12f5ac	0.14351529
248	0x3df6486f	0.12025534
249	0x3f1036e2	0.56333745
250	0x3f0d58d9	0.55213696
251	0x3e75b1a1	0.23993541
252	0x3ee766f1	0.45195726
253	0x3e31b898	0.17355573
254	0x3ebf465a	0.3735836
255	0x3f13571a	0.5755478

b f4 [32]
0	0xbe907d95	-0.2822081
1	0x3def53f6	0.11685936
2	0x3ef90a5d	0.4864072
3	0x3ec6382c	0.3871473
4	0xbee3653d	-0.44413176
5	0x3e48c412	0.19606045
6	0xbeafa4bf	-0.3430538
7	0x3ed0e45b	0.4079922
8	0x3ea0ddc0	0.31419182
9	0xbe6107ba	-0.21975604
10	0x3e4e2c7a	0.20134154
11	0x3e0ab4bc	0.13545507
12	0x3e795472	0.2434862
13	0x3eaa643b	0.33279595
14	0x3e6a174c	0.2286045
15	0xbea655dc	-0.3248738
16	0xbe9ef33c	-0.31044948
17	0x3eac855e	0.336955
18	0xbea92cb2	-0.33041912
19	0xbe7aec47	-0.24504195
20	0xbe154963	-0.14578776
21	0xbea9c50e	-0.33158153
22	0x3e379244	0.1792689
23	0x3eaaafde	0.333373
24	0x3ec739ca	0.38911277
25	0xbceb4896	-0.028721135
26	0xbe8a991a	-0.27069932
27	0xbea55aca	-0.3229583
28	0xba8302f6	-0.0009995389
29	0xbe54727d	-0.20746799
30	0x3eb171e3	0.346572
31	0xbebc2b89	-0.36751965

W f4 [32, 32]
0	0xbe744152	-0.23853043
1	0x3f1c5d70	0.61080074
2	0x3d20a880	0.039223194
3	0x3e0ff5d9	0.14058627
4	0x3ee4b94f	0.4467263
5	0x3ee2bf7a	0.4428671
6	0x3dd9fab3	0.1064352
7	0xbe8a5518	-0.27018046
8	0xbdc38fa2	-0.0954888
9	0x3ef1854e	0.47172016
10	0xbe9c9c58	-0.3058803
11	0xbeac64db	-0.33670697
12	0x3f2bf7e6	0.6717514
13	0x3f07b073	0.53003615
14	0x3df0b347	0.117529444
15	0xbd3d81a5	-0.046266217
16	0xbdb0a3e9	-0.086250134
17	0x3df0ac0a	0.11751564
18	0xbe32cdc0	-0.174613
19	0xbec7da34	-0.39033663
20	0xbca35b72	-0.019941065
21	0x3f008ef5	0.50218135
22	0x3e23871d	0.1596951
23	0x3f08cd69	0.5343843
24	0xbdd2a1c5	-0.10284761
25	0x3e6a181f	0.22860764
26	0xbea46608	-0.32109094
27	0xbea8a64d	-0.32939377
28	0x3e577caa	0.2104365
29	0x3f34e43e	0.7066077
30	0xbe9cd0a8	-0.30627942
31	0x3e38464a	0.17995563
32	0xbd2b6b43	-0.04185034
33	0xbf2a0e23	-0.6642782
34	0x3eef502e	0.4674086
35	0x3d6863ce	0.056735806
36	0xbed1f20e	-0.41004986
37	0x3e92a4cf	0.28641364
38	0x3e28961a	0.16463509
39	0xbe179808	-0.14804089
40	0x3ef06d63	0.46958455
41	0xbf228b6a	-0.6349398
42	0x3cfa8eee	0.030585732
43	0x3ee4ea8c	0.44710195
44	0xbdab6a2d	-0.08369861
45	0x3eb53233	0.3538986
46	0x3d75b614	0.059988096
47	0xbee24273	-0.44191322
48	0x3e95f9f9	0.29292277
49	0xbf2313d0	-0.63702106
50	0x3ee80ee3	0.45323858
51	0x3f187efe	0.59568775
52	0xbe3b80ae	-0.18310806
53	0xbd06325b	-0.032762866
54	0x3eba7623	0.36418256
55	0xbe76441a	-0.24049416
56	0x3e86d665	0.26335445
57	0x3c94babf	0.018155454
58	0x3c61438d	0.0137490155
59	0x3e1dfa02	0.15427402
60	0xbea41d00	-0.32053375
61	0xbd9e2e08	-0.077236235
62	0x3ebd804b	0.37011942
63	0xbf253d32	-0.645465
64	0x3efc9fc1	0.49340633
65	0xbe957413	-0.2919012
66	0x3f225a3c	0.63418937
67	0xbeb208b9	-0.3477228
68	0xbecaa6e2	-0.39580446
69	0xbf0f08ee	-0.55873
70	0x3eaf2a0e	0.34211773
71	0xbec77123	-0.38953504
72	0xbd25303a	-0.040329196
73	0xbe96a3d1	-0.29421857
74	0x3f126103	0.5717928
75	0xbd465705	-0.048422832
76	0xbee2e8f4	-0.44318354
77	0xbf047f74	-0.5175698
78	0xbda2a2b6	-0.07941191
79	0xbeb9ec11	-0.36312917
80	0xbe2641aa	-0.16235986
81	0xbf047883	-0.51746386
82	0x3ebab6a3	0.36467466
83	0xbe6e7e74	-0.23290426
84	0xbddae0ae	-0.106873855
85	0xbe80a180	-0.25123215
86	0x3e144264	0.14478451
87	0x3d231534	0.039815143
88	0xbe5c51b0	-0.21515536
89	0xbf023f27	-0.5087761
90	0x3f2598ad	0.6468609
91	0xbe007d60	-0.12547827
92	0xbe99f931	-0.3007293
93	0x3e450b59	0.1924261
94	0x3cad478e	0.021152284
95	0xbd0ae20d	-0.033906985
96	0x3ef29767	0.47381136
97	0xbf164b00	-0.5870819
98	0x3eefe6ff	0.46855924
99	0xbd88b176	-0.06674473
100	0x3e59ba87	0.21262561
101	0x3f0e8acf	0.55680555
102	0xbea0cbbf	-0.31405446
103	0x3efca2a3	0.49342832
104	0x3df3d198	0.11905211
105	0xbe9da0e1	-0.30786803
106	0x3e8a6339	0.27028826
107	0x3e6c1bf6	0.23057541
108	0x3e4e2699	0.20131911
109	0x3f03b635	0.514499
110	0xbf195f84	-0.5991137
111	0x3e645638	0.22298515
112	0x3e11743a	0.14204493
113	0x3d21f44b	0.039539617
114	0x3e8a7a02	0.2704621
115	0x3ec79a6e	0.38985008
116	0x3ee021f2	0.43775898
117	0x3e74ec86	0.23918352
118	0xbe6d0647	-0.23146926
119	0x3ebbe6be	0.3669948
120	0x3e9e5766	0.30926055
121	0xbd975998	-0.073901355
122	0xbe008b5e	-0.12553164
123	0x3ec4a6ab	0.38408408
124	0x3e03c0d1	0.12866522
125	0xbb0257f7	-0.0019888857
126	0xbe857717	-0.2606742
127	0x3d8b77d8	0.06809968
128	0xbed41145	-0.41419426
129	0x3efd0c98	0.4942367
130	0xbec35b43	-0.38155565
131	0xbeb90a2c	-0.36140573
132	0xbda88efe	-0.082303986
133	0xbc83cd45	-0.016089091
134	0x3e9c466f	0.30522487
135	0xbf189a6e	-0.5961064
136	0xbdca3f9e	-0.09875415
137	0x3ebec21d	0.37257472
138	0xbc6f3eaa	-0.014602343
139	0x3de7df33	0.11321869
140	0xbe000ecf	-0.12505649
141	0xbe9e2edf	-0.30895135
142	0x3ef8be0c	0.48582494
143	0xbe53cdd0	-0.2068398
144	0xbed114db	-0.40836224
145	0x3f1cc3c3	0.6123621
146	0x3f0bf7b4	0.5467484
147	0xbed7d424	-0.42154038
148	0xbed2f5a2	-0.41203028
149	0xbe926039	-0.28589037
150	0x3ef4ca68	0.47810674
151	0xbe4770f4	-0.19476682
152	0xbe4cde32	-0.20006636
153	0x3d861431	0.0654682
154	0x3f0486c2	0.51768124
155	0xbe812ed1	-0.2523103
156	0xbef0b850	-0.4701562
157	0x3d34fa1a	0.044183828
158	0x3e734def	0.23760198
159	0xbea6d637	-0.32585308
160	0x3eee071e	0.46489805
161	0x3e27f0ee	0.16400501
162	0x3e723649	0.2365352
163	0xbe638c4a	-0.22221485
164	0xbe43833b	-0.19093029
165	0x3d935866	0.07194595
166	0x3ee7d622	0.45280558
167	0xbeb34a9d	-0.35017863
168	0xbf2883b8	-0.65825987
169	0x3e523eb7	0.20531736
170	0xbdaad7fe	-0.083419785
171	0xbf00d150	-0.50319386
172	0xbef69ef4	-0.48168147
173	0x3e9223bb	0.28542885
174	0x3ea260ef	0.3171458
175	0xbea9c1f0	-0.33155775
176	0xbf5fa5fc	-0.8736265
177	0x3ca2362e	0.019801226
178	0x3eb76d4e	0.3582558
179	0xbed331fe	-0.4124908
180	0xbed437a2	-0.41448694
181	0x3d901f28	0.070371926
182	0x3f1d1ee6	0.6137527
183	0xbd6262ce	-0.05527001
184	0xbf49f60d	-0.7889107
185	0x3ef29894	0.47382033
186	0xbedc62cc	-0.43044126
187	0xbef959c0	-0.48701286
188	0xbf01928f	-0.50614256
189	0x3f03f507	0.5154576
190	0x3f15d263	0.5852415
191	0xbe3dcf77	-0.18536173
192	0x3e7abb8c	0.24485606
193	0xbda6c277	-0.0814256
194	0x3ec09869	0.3761628
195	0x3edac9e4	0.42732155
196	0x3e1a787c	0.15085024
197	0xbeb283ec	-0.34866273
198	0x3d17a8d7	0.037026253
199	0xbeb64391	-0.35598424
200	0x3e80b02a	0.25134403
201	0x3da422b6	0.08014433
202	0x3e01ad27	0.12663709
203	0xbd94bf14	-0.07263008
204	0xbe58fa38	-0.21189201
205	0xbe9dcce6	-0.30820388
206	0xbdc5def0	-0.096616626
207	0xbed182e9	-0.4092019
208	0x3f3fa38e	0.7485894
209	0x3eabad5f	0.3353071
210	0x3eea6d67	0.45786592
211	0x3e0cca33	0.13749008
212	0xbeb4a969	-0.352855
213	0x3c9befd2	0.019035254
214	0x3e8832b3	0.2660118
215	0xbeaf9792	-0.34295326
216	0x3edb64cb	0.42850336
217	0x3eda7595	0.42667833
218	0x3f583411	0.8445445
219	0xbe7846cc	-0.24245757
220	0xbe436f87	-0.19085513
221	0x3f2d7f6f	0.67772573
222	0x3e42afcf	0.19012378
223	0xbdc0814c	-0.093996614
224	0xbf2b8419	-0.6699844
225	0xbed8bdbd	-0.4233226
226	0xbec45d07	-0.38352224
227	0x3e022eba	0.12713137
228	0x3d1f5b00	0.038905144
229	0xbe2bbf10	-0.16772103
230	0xbbdce9e8	-0.006741751
231	0x3e8c5b7d	0.2741355
232	0x3e29b2bb	0.16572087
233	0xbf0d806a	-0.5527407
234	0xbf2bac03	-0.67059344
235	0x3d33f1c9	0.043931756
236	0x3f1ec7c3	0.6202356
237	0xbd80b382	-0.062842384
238	0xbea2d08b	-0.3179973
239	0x3f1dc5aa	0.61629736
240	0x3e950928	0.29108548
241	0xbe58fef2	-0.21191004
242	0xbe5e7121	-0.21722843
243	0x3de9988e	0.114060506
244	0x3f0a996c	0.54140353
245	0xbeaf0ca3	-0.3418933
246	0xbe00c0ba	-0.1257352
247	0x3e13e4bd	0.14442725
248	0xbeef8ccc	-0.46787107
249	0xbf12c2a4	-0.5732825
250	0xbe798005	-0.24365242
251	0x3ee9b6a9	0.4564717
252	0x3e27f3f6	0.16401657
253	0xbdcd9865	-0.100388326
254	0xbe33add9	-0.17546786
255	0x3e99391f	0.29926392

b f4 [32]
0	0xbdde8226	-0.108646676
1	0x3ea15fe6	0.31518477
2	0x3e3216ef	0.17391561
3	0xbe47fb78	-0.19529521
4	0x3ebfb66d	0.37443867
5	0xbeaa67f3	-0.33282432
6	0x3ea93b77	0.3305318
7	0xbe753175	-0.23944648
8	0x3eb09bef	0.34493968
9	0xbdc56ee3	-0.096402906
10	0x3dee4001	0.116333015
11	0x3c96b328	0.018395975
12	0xbea8dc15	-0.3298041
13	0xbeadf42f	-0.3397536
14	0x3f0781ca	0.5293242
15	0x3e390eca	0.18072048
16	0x3e43fd06	0.1913949
17	0x3e316d4b	0.17326848
18	0xbeb59243	-0.3546315
19	0x3eb79a2b	0.35859808
20	0x3df2b370	0.11850631
21	0x3e9d5291	0.30727056
22	0x3ecd0e43	0.40049943
23	0xbec02e68	-0.37535405
24	0xbe6ca857	-0.23111092
25	0xbedd86c9	-0.43266895
26	0x3c81249f	0.015764533
27	0xbec3ca67	-0.38240358
28	0xbdc2381f	-0.094833605
29	0xbeaf322c	-0.34217966
30	0x3e5c5d41	0.21519949
31	0xbe52d221	-0.2058797

W1 f4 [32, 128]
0	0x3e993d13	0.29929408
1	0x3edbf894	0.42963088
2	0x3e5dc4dc	0.21657127
3	0xbf02d53e	-0.5110663
4	0x3e9a904e	0.3018822
5	0xbef6e23a	-0.48219472
6	0xbdeded49	-0.11617524
7	0xbebdfc8a	-0.37106735
8	0x3e255360	0.16145086
9	0xbe86d85a	-0.26336938
10	0xbb8b67cd	-0.0042543174
11	0xbeb8c70b	-0.36089358
12	0x3d80f36b	0.06296428
13	0x3eb3f83f	0.35150334
14	0x3eea0f7c	0.4571494
15	0x3db8302a	0.089935616
16	0x3ecd8fd9	0.4014881
17	0xbec7162d	-0.38884106
18	0xbd688886	-0.056770824
19	0x3e047c2b	0.12937991
20	0x3eaaa0c2	0.33325773
21	0x3e4a62b9	0.19764222
22	0xbecac73d	-0.39605132
23	0x3e3f6641	0.1869135
24	0x3e27a9f8	0.16373432
25	0x3e5b8b76	0.21439919
26	0xbd74c755	-0.05976041
27	0x3ef27271	0.47352937
28	0xbd2b53d1	-0.04182798
29	0x3ec5ce15	0.3863379
30	0xbf1ac783	-0.6046068
31	0x3e5747dd	0.21023507
32	0x3dd8a246	0.10577826
33	0xbf0513a4	-0.51983094
34	0x3e4568da	0.19278279
35	0xbea1d5ee	-0.31608528
36	0x3ef97332	0.487207
37	0x3d4fa6e3	0.050696265
38	0xbeb27afb	-0.34859452
39	0x3eae88a8	0.34088635
40	0xbf090758	-0.5352683
41	0x3e5122ce	0.20423433
42	0x3e7f2003	0.24914555
43	0xbef9c393	-0.48782024
44	0x3cddcef0	0.027076215
45	0x3eaebbdc	0.341277
46	0xbdb09354	-0.086218506
47	0xbe439896	-0.19101176
48	0x3e5cefbf	0.21575831
49	0xbea72738	-0.3264711
50	0xbda3c8d8	-0.07997292
51	0x3e73489e	0.2375817
52	0x3e02b8bc	0.12765783
53	0xbd2cdb78	-0.04220149
54	0x3d1ee3fa	0.038791634
55	0x3cfc36e5	0.030787895
56	0x3e953863	0.29144582
57	0x3d9b0026	0.07568388
58	0x3e8ed485	0.27896515
59	0xbe81952f	-0.2530913
60	0x3ef67416	0.48135442
61	0x3c4c07f7	0.012453071
62	0x3e746c72	0.23869494
63	0xbeae8aa7	-0.34090158
64	0xbeae77f0	-0.3407588
65	0x3ed3dd4e	0.4137978
66	0xbe94febf	-0.29100606
67	0x3ef5899c	0.4795655
68	0xbeb09df0	-0.34495497
69	0xbe98c368	-0.29836583
70	0x3ea5130c	0.32241094
71	0x3f015c9a	0.50531924
72	0xbdb7d19c	-0.08975527
73	0x3e88dd94	0.2673155
74	0xbe26f2c8	-0.16303551
75	0xbe712952	-0.23550919
76	0xbe86995d	-0.26288882
77	0x3e79097f	0.24320029
78	0x3d1b02e7	0.037844565
79	0xbf04ba08	-0.5184636
80	0xbea45d83	-0.32102594
81	0x3f009db7	0.50240654
82	0xbe8e4c49	-0.27792576
83	0x3e9804ad	0.29691067
84	0xbcd2450a	-0.025667686
85	0xbe4b253b	-0.19838421
86	0x3df1f3df	0.11814093
87	0xbe99f074	-0.30066264
88	0xbee8a122	-0.45435435
89	0x3eabab91	0.33529332
90	0xbe86ffd1	-0.26367047
91	0x3ee7487d	0.45172492
92	0x3eb32a0a	0.3499301
93	0x3db4b84a	0.08824213
94	0xbe304818	-0.17215002
95	0xbef68af9	-0.48152903
96	0x3e5f710b	0.21820466
97	0xbeff1b70	-0.4982562
98	0xbe130fb1	-0.14361455
99	0x3e3c0897	0.18362652
100	0x3eb4cc76	0.3531224
101	0x3ef7ca5f	0.48396584
102	0xbeb21af2	-0.34786183
103	0x3ee9f896	0.4569747
104	0xbda25a2b	-0.079273544
105	0xbe44fbdc	-0.19236702
106	0xbef682bd	-0.4814662
107	0xbe088de1	-0.13335373
108	0xbe2b093f	-0.16702746
109	0x3f177b51	0.5917254
110	0xbdb26242	-0.087101474
111	0xbe580400	-0.21095276
112	0x3e12c659	0.14333476
113	0x3c8080d4	0.01568643
114	0x3eca6c3f	0.3953571
115	0xbed8d3fa	-0.42349225
116	0x3f0644a0	0.52448463
117	0x3eab0622	0.33403116
118	0xbe8a6017	-0.27026436
119	0xbe976aa2	-0.29573542
120	0x3e1e4f58	0.15459955
121	0xbef75d28	-0.4831326
122	0x3ea4cf0e	0.3218922
123	0xbed16cf2	-0.4090343
124	0x3e5abf17	0.21361957
125	0xbf017538	-0.50569487
126	0x3ef54193	0.47901592
127	0xbec7f6e8	-0.39055562
128	0xbeed7a6c	-0.46382463
129	0xbf06bfff	-0.5263671
130	0xbee2b7d4	-0.44280875
131	0x3e576974	0.21036321
132	0xbee0b288	-0.4388621
133	0x3eea37da	0.45745736
134	0xbe0bf085	-0.1366597
135	0xbf1b30b8	-0.60621214
136	0xbeef2ff3	-0.4671627
137	0xbe040c48	-0.1289531
138	0xbdc1906d	-0.09451375
139	0x3e605fdb	0.21911566
140	0x3e858097	0.2607467
141	0xbd6b9b19	-0.05752096
142	0x3dd76d66	0.10518913
143	0xbe3a5142	-0.1819506
144	0xbd7fa93c	-0.062417254
145	0xbe377a45	-0.17917736
146	0xbf056bd3	-0.5211765
147	0x3ea0daac	0.31416833
148	0x3ee84e52	0.45372254
149	0xbefa2012	-0.48852593
150	0x3ef3508e	0.47522396
151	0x3d0f883f	0.035042044
152	0x3ea19a42	0.31563002
153	0xbd2fa260	-0.042879462
154	0x3dcdfea5	0.10058335
155	0x3eda01ce	0.42579502
156	0x3ea1d3a2	0.31606776
157	0xbdfa4c00	-0.12221527
158	0x3ed248d8	0.410712
159	0xbece5d37	-0.40305492
160	0xbd035210	-0.032060683
161	0xbdf73079	-0.12069792
162	0xbe20ed3c	-0.15715498
163	0xbef28b4b	-0.47371897
164	0xbe57b4ed	-0.21065111
165	0x3d6537fc	0.055961594
166	0x3e084a7e	0.13309667
167	0x3ed3d887	0.41376135
168	0xbeb5e3be	-0.35525316
169	0x3e4c5376	0.19953713
170	0xbed291ab	-0.4112676
171	0xbe9eabc8	-0.30990434
172	0x3eb12fec	0.34606874
173	0x3e6c5ebd	0.23083015
174	0x3e7fb3e5	0.24970968
175	0x3d6b60dc	0.05746542
176	0xbf024dd2	-0.50899994
177	0xbeb712c2	-0.357565
178	0x3e565be7	0.20933495
179	0xbe672533	-0.22572784
180	0x3e92e95e	0.2869367
181	0x3e52f77b	0.20602219
182	0x3edeccac	0.43515527
183	0xbe3cdc2e	-0.18443367
184	0x3d858825	0.06520108
185	0xbeafe710	-0.34355974
186	0xbe3188de	-0.17337367
187	0xbea5cf8a	-0.32384902
188	0xbedcc243	-0.4311696
189	0xbef6983a	-0.48163015
190	0xbe3e5d75	-0.18590339
191	0xbe6a2707	-0.2286645
192	0x3ed2c2b9	0.41164187
193	0xbe4f7e8b	-0.20263116
194	0xbe999c8c	-0.30002248
195	0xbd4012b6	-0.046892844
196	0xbf0bc33c	-0.5459478
197	0x3db143b4	0.086554915
198	0xbd8b03c7	-0.0678783
199	0xbebaffc0	-0.36523247
200	0xbe0d62b8	-0.1380719
201	0xbeb07407	-0.34463522
202	0xbf0cbdf0	-0.5497732
203	0xbc71f60f	-0.014768138
204	0x3e641aa6	0.2227579
205	0xbcce70d5	-0.025200287
206	0x3e4f41db	0.20239966
207	0x3ef3f0d9	0.4764469
208	0xbbb335ab	-0.005469044
209	0x3e2cb564	0.1686607
210	0xbea167da	-0.31524545
211	0xbebc8535	-0.3682038
212	0xbeb7cc6c	-0.3589815
213	0x3c0c419f	0.008560567
214	0xbe8a461e	-0.2700662
215	0x3e827676	0.25481004
216	0x3940c75a	0.00018384811
217	0x3ee21472	0.44156224
218	0x3e192140	0.1495409
219	0xbeabc16f	-0.33546016
220	0xbee21fe1	-0.44164947
221	0x3e9a7691	0.30168584
222	0x3cf03b79	0.029325234
223	0xbea7e3e5	-0.32791057
224	0x3f4092b3	0.75223845
225	0x3ecf8b84	0.4053613
226	0xbe6a3ad6	-0.22874007
227	0xbee53d0d	-0.4477314
228	0x3eb5a03c	0.35473812
229	0xbebe720a	-0.3719638
230	0x3e210e8f	0.1572821
231	0xbe6790e6	-0.22613868
232	0x3ded8955	0.1159846
233	0xbe9fe6df	-0.31230828
234	0x3dab4add	0.083638884
235	0x3ce3ffb1	0.027831884
236	0xbe659f73	-0.22424106
237	0x3dceed38	0.1010384
238	0x3de84fcc	0.11343345
239	0x3e7bc610	0.24587274
240	0xbeaf7725	-0.34270588
241	0x3eb01edd	0.34398547
242	0x3e6393b3	0.22224312
243	0x3eaf455f	0.34232613
244	0xbded0082	-0.115723625
245	0xbe90d959	-0.28290823
246	0xbeba8c00	-0.36434937
247	0xbe1ffcc6	-0.15623769
248	0xbeb6cb57	-0.3570201
249	0xbe0ad493	-0.13557653
250	0xbe840288	-0.2578318
251	0x3e6e4ad9	0.2327074
252	0xbe2e0e95	-0.1699775
253	0x3f089ef0	0.5336752
254	0xbed00ea0	-0.40636158
255	0x3e4238e1	0.1896701
