saved_models/model-epoch-98.pth (torch, 249162 bytes, 52 tensors)

embeddings f4 [99, 32]
0.06978172 -0.1407786 -0.12478921 0.08762004 -0.060250368 0.07079966 0.05793732 -0.14080212
-0.11157785 -0.036776017 -0.037932545 -0.15217286 0.18798529 -0.06227023 -0.18717618 -0.008436059
-0.05227103 -0.08984982 -0.023446288 0.038994264 0.15195952 0.15525317 0.11549379 -0.010133343
-0.14465524 0.18110506 0.17938793 -0.09391664 -0.037581954 0.15113185 -0.13839835 0.189796
0.07992894 -0.11192875 -0.16693985 -0.08090801 -0.04786888 0.1678011 -0.03150364 -0.13877966
-0.08232435 -0.047858726 -0.023986027 0.01480664 0.058366794 -0.020568853 0.20345606 0.11559951
0.18143488 0.14028111 0.15768342 0.19587247 -0.20718189 -0.053430874 0.17739119 -0.09906666
-0.20884049 0.031548236 0.18845813 -0.08028561 -0.2117142 0.079695255 -0.116547555 -0.016027864
0.108274005 -0.071766175 0.04900168 -0.15605375 0.15462853 0.1411976 0.14587912 -0.056413673
-0.21090315 -0.20059654 0.0554839 0.07563563 0.13174596 0.16456078 0.09142011 0.17350851
-0.063071474 0.20552714 6.832201e-05 -0.19360784 0.15892792 -0.031270355 -0.20204294 0.11443738
0.18639347 0.13989486 0.18670686 0.18569244 -0.008908853 -0.06895895 0.054927785 -0.03786626
0.010480158 0.12504709 -0.060793784 0.11012365 0.21367176 -0.18744273 -0.17999808 -0.049005046
-0.09203791 0.17845444 -0.17996533 0.17596535 0.11202024 -0.20517854 0.17392421 -0.11402969
-0.18771006 0.05848609 -0.09117039 0.15789737 0.11015355 -0.13804062 -0.0078013632 -0.15497953
-0.008639545 -0.00096747844 0.08182992 -0.067026086 -0.077663556 0.17193416 -0.19413936 -0.2134793
-0.11619482 0.16467543 0.13197567 -0.19412284 -0.06309709 0.2059031 -0.21076156 -0.030677654
0.19701047 0.028668456 0.20377894 0.11548558 -0.18421374 0.2104371 0.17808712 -0.1422028
0.09006928 -0.103555195 -0.16954416 -0.021790793 0.0032100119 -0.14244899 -0.15706587 -0.011777256
0.014307465 0.1778199 0.20556153 -0.010588534 -0.12033435 0.16950554 0.09516603 -0.17952009
-0.025873173 -0.14617981 0.15424676 -0.039206527 -0.08862702 0.02355849 -0.17290571 0.08454331
0.16154875 -0.18637168 -0.06152277 0.09325944 0.07040974 0.080824375 0.12889148 -0.01069344
-0.087691374 -0.04837096 -0.038174145 0.021904169 0.089716084 -0.16818164 0.018669154 -0.2064908
0.11462275 0.19624117 -0.14698952 0.20724066 0.12176518 -0.09377122 -0.17671603 0.121208094
0.18034633 -0.101983435 -0.1416352 -0.0031754172 -0.12370085 -0.11113976 0.15116993 0.15551242
-0.08861799 0.17973694 0.06320633 -0.09280298 -0.02593328 -0.11184675 -0.17480178 -0.06298825
-0.04520815 -0.18750305 -0.07716795 -0.01918874 0.20938487 0.07076946 0.096566506 -0.045805138
-0.09115544 -0.015722532 0.031522878 0.16170244 -0.20092049 -0.14675435 -0.17338754 0.20031911
0.18622641 0.121523984 -0.15875842 -0.021649659 0.06316301 0.15931667 -0.005700474 0.1723823
0.04659714 -0.08215444 -0.09233013 0.16788743 -0.18627259 0.017557787 0.1830608 -0.10247781
0.100422285 -0.11990467 0.17589428 -0.11672466 -0.15233742 -0.129863 -0.14939202 0.12237166
-0.08003054 0.051723335 0.07990522 0.075172886 0.14084697 -0.18106052 -0.024064554 0.19508302
00000000: b8e9 8e3d 4428 10be 7c91 ffbd 2372 b33d
00000010: 17c9 76bd 6aff 903d af4f 6d3d 6e2e 10be
00000020: ee82 e4bd 73a2 16bd 285f 1bbd 34d3 1bbe
00000030: 377f 403e 120f 7fbd 1dab 3fbe 6537 0abc
00000040: 261a 56bd 2f03 b8bd 6e12 c0bc 73b8 1f3d
00000050: 479b 1b3e b0fa 1e3e 0288 ec3d 5206 26bc
00000060: 8120 14be 9b73 393e 78b1 373e 5e57 c0bd
00000070: 89ef 19bd 4fc2 1a3e 4cb8 0dbe e259 423e
00000080: c9b1 a33d e73a e5bd 48f2 2abe 19b3 a5bd
00000090: 2912 44bd 0dd4 2b3e f609 01bd 411c 0ebe
000000a0: ab99 a8bd 8307 44bd 587e c4bc 8d97 723c
000000b0: 0512 6f3d 0380 a8bc c956 503e 70bf ec3d
000000c0: 11ca 393e daa5 0f3e c377 213e cb92 483e
000000d0: 7d27 54be 55da 5abd 09a6 353e 76e3 cabd
000000e0: 48da 55be b938 013d 2bfb 403e c86c a4bd
000000f0: 9bcb 58be 4437 a33d 7cb0 eebd de4c 83bc
00000100: c3be dd3d 25fa 92bd fcb5 483d 8ecc 1fbe
00000110: f156 1e3e 1b96 103e 5661 153e 0612 67bd
00000120: fff6 57be 2e69 4dbe 1643 633d dae6 9a3d
00000130: 6ae8 063e 9f82 283e 773a bb3d 37ac 313e
00000140: 9e2b 81bd b575 523e 1a48 8f38 2241 46be
00000150: 00be 223e 5815 00bd 58e4 4ebe 255e ea3d
00000160: eedd 3e3e 9940 0f3e 1530 3f3e 2926 3e3e
00000170: 70f6 11bc 5a3a 8dbd f5fb 603d a719 1bbd
00000180: f8b4 2b3c 580c 003e e702 79bd 8288 e13d
00000190: c5cc 5a3e fdf0 3fbe 6b51 38be 84b9 48bd
000001a0: 5f7e bcbd c3bc 363e d548 38be 4330 343e
000001b0: de6a e53d 531a 52be 3019 323e 6688 e9bd
000001c0: 1137 40be 1c8f 6f3d 8bb7 babd d9af 213e
000001d0: 2f98 e13d 855a 0dbe 94a2 ffbb f4b2 1ebe
000001e0: e18c 0dbc 619e 7dba 7296 a73d f944 89bd
000001f0: 120e 9fbd 820f 303e 78cc 46be 519a 5abe
00000200: 8df7 edbd ada0 283e a124 073e 23c8 46be
00000210: 0c39 81bd 43d8 523e e1d1 57be b44f fbbc
00000220: 1dbd 493e 1cda ea3c 6dab 503e b483 ec3d
00000230: 87a2 3cbe d37c 573e 785c 363e 9c9d 11be
00000240: 3e76 b83d bf14 d4bd fc9c 2dbe 9b82 b2bc
00000250: 105f 523b 26de 11be e0d5 20be 64f5 40bc
00000260: dc69 6a3c 6b16 363e b97e 523e 887b 2dbc
00000270: db71 f6bd dc92 2d3e 68e6 c23d 1dd4 37be
00000280: faf3 d3bc 29b0 15be ddf2 1d3e 0697 20bd
00000290: 1582 b5bd bcfd c03c 320e 31be 0b25 ad3d
000002a0: 096d 253e 38d8 3ebe 4dff 7bbd cefe be3d
000002b0: fb32 903d 4087 a53d 21fc 033e 8a33 2fbc
000002c0: 8997 b3bd a120 46bd 7e5c 1cbd 5f70 b33c
000002d0: 11bd b73d cf37 2cbe 0ef0 983c 5372 53be
000002e0: 55bf ea3d 72f3 483e 6c84 16be e536 543e
000002f0: 0660 f93d 200b c0bd 0cf5 34be f33b f83d
00000300: b5ac 383e b1dc d0bd d108 11be a91a 50bb
00000310: df56 fdbd 3e9d e3bd 4acc 1a3e a63e 1f3e
00000320: 597d b5bd f60c 383e 5272 813d 7d0f bebd
00000330: 0872 d4bc e90f e5bd 3dff 32be fcff 80bd
00000340: 2e2c 39bd cd00 40be 3b0a 9ebd b431 9dbc
00000350: fd68 563e 94ef 903d a9c4 c53d 2b9e 3bbd
00000360: b4af babd 8acc 80bc 221e 013d 5395 253e
00000370: 1abe 4dbe c646 16be 818c 31be 7420 4d3e
00000380: 23b2 3e3e 91e1 f83d 9191 22be a05a b1bc
00000390: 9c5b 813d e923 233e 0bcb babb fc84 303e
000003a0: a5dc 3e3d 9640 a8bd 9417 bdbd afea 2b3e
000003b0: 3ebe 3ebe 59d5 8f3c 4a74 3b3e e3df d1bd
000003c0: 33aa cd3d 9490 f5bd a11d 343e 570d efbd
000003d0: 57fe 1bbe cefa 04be 39fa 18be fe9d fa3d
000003e0: 0de7 a3bd d9db 533d 59a5 a33d 3ef4 993d
000003f0: 303a 103e ee67 39be 0723 c5bc d8c3 473e

_pos_embeds f4 [64, 32]
0.0 1.0 0.0 1.0 0.0 1.0 0.0 1.0
0.0 1.0 0.0 1.0 0.0 1.0 0.0 1.0
0.0 1.0 0.0 1.0 0.0 1.0 0.0 1.0
0.0 1.0 0.0 1.0 0.0 1.0 0.0 1.0
0.84147096 0.5403023 0.53316844 0.84600914 0.3109836 0.95041525 0.17689219 0.9842302
0.099833414 0.9950042 0.056204498 0.9984193 0.031617507 0.99950004 0.017781857 0.99984187
0.009999833 0.99995 0.0056233834 0.9999842 0.0031622723 0.999995 0.0017782785 0.9999984
0.0009999998 0.9999995 0.0005623413 0.9999998 0.00031622776 0.99999994 0.00017782794 1.0
0.9092974 -0.41614684 0.9021307 0.43146282 0.5911271 0.8065784 0.34820527 0.9374183
0.19866933 0.9800666 0.112231314 0.9936821 0.063203394 0.9980007 0.03555809 0.9993676
0.019998666 0.9998 0.011246589 0.99993676 0.0063245133 0.99998 0.0035565514 0.9999937
0.0019999987 0.999998 0.0011246824 0.99999934 0.0006324555 0.9999998 0.00035565588 0.99999994
0.14112 -0.9899925 0.9932532 -0.11596614 0.8126489 0.5827536 0.50853616 0.86104065
0.29552022 0.9553365 0.1679033 0.9858035 0.09472609 0.99550337 0.05332308 0.9985773
0.029995501 0.99955004 0.016869439 0.9998577 0.009486691 0.999955 0.005334813 0.99998575
0.0029999956 0.9999955 0.0016870232 0.99999857 0.0009486832 0.9999995 0.0005334838 0.9999999
-0.7568025 -0.6536436 0.77847177 -0.62767965 0.95358074 0.30113748 0.652828 0.7575062
0.38941833 0.921061 0.22304448 0.9748083 0.12615407 0.99201065 0.07107121 0.9974713
0.039989334 0.9992001 0.022491757 0.99974704 0.012648773 0.99992 0.0071130577 0.9999747
0.0039999895 0.999992 0.0022493633 0.9999975 0.0012649107 0.9999992 0.0007113117 0.99999976
-0.9589243 0.2836622 0.3239352 -0.94607925 0.99994653 -0.010342319 0.77652997 0.6300803
0.47942555 0.87758255 0.27748054 0.96073127 0.15745589 0.987526 0.08879686 0.99604976
0.04997917 0.99875027 0.028113361 0.99960476 0.01581073 0.999875 0.00889128 0.9999605
0.0049999794 0.9999875 0.002811703 0.99999607 0.0015811381 0.99999875 0.0008891396 0.9999996
-0.2794155 0.96017027 -0.23036748 -0.9731037 0.94714814 -0.32079646 0.8757406 0.482782
0.5646425 0.8253356 0.33103934 0.943617 0.18860029 0.98205394 0.106494434 0.9943133
0.059964005 0.99820054 0.03373408 0.99943084 0.018972527 0.99982 0.010669474 0.9999431
0.005999964 0.999982 0.0033740415 0.99999434 0.0018973654 0.9999982 0.0010669675 0.9999994
0.6569866 0.75390226 -0.71372116 -0.7004299 0.80042166 -0.5994374 0.9473307 0.32025698
0.64421767 0.7648422 0.38355157 0.92351943 0.2195561 0.9755999 0.12415834 0.9922624
0.06994285 0.997551 0.03935373 0.9992253 0.022134136 0.999755 0.012447635 0.9999225
0.006999943 0.9999755 0.003936379 0.99999225 0.0022135926 0.99999756 0.0012447953 0.9999992
00000000: 0000 0000 0000 803f 0000 0000 0000 803f
00000010: 0000 0000 0000 803f 0000 0000 0000 803f
00000020: 0000 0000 0000 803f 0000 0000 0000 803f
00000030: 0000 0000 0000 803f 0000 0000 0000 803f
00000040: 0000 0000 0000 803f 0000 0000 0000 803f
00000050: 0000 0000 0000 803f 0000 0000 0000 803f
00000060: 0000 0000 0000 803f 0000 0000 0000 803f
00000070: 0000 0000 0000 803f 0000 0000 0000 803f
00000080: a46a 573f 4051 0a3f ba7d 083f 0e94 583f
00000090: 3e39 9f3e 6a4e 733f 3a23 353e 83f6 7b3f
000000a0: 7675 cc3d 98b8 7e3f b036 663d 6898 7f3f
000000b0: 5c81 013d 3cdf 7f3f 42ab 913c a3f5 7f3f
000000c0: 57d6 233c b9fc 7f3f 5c44 b83b f7fe 7f3f
000000d0: 203e 4f3b acff 7f3f 2015 e93a e5ff 7f3f
000000e0: 6d12 833a f8ff 7f3f 166a 133a fdff 7f3f
000000f0: 5fcb a539 ffff 7f3f 5377 3a39 0000 803f
00000100: b7c7 683f 3311 d5be 0af2 663f b2e8 dc3e
00000110: 1b54 173f ec7b 4e3f f647 b23e a5fa 6f3f
00000120: f96f 4b3e a5e5 7a3f 88d9 e53d f361 7e3f
00000130: c870 813d f97c 7f3f 5ca5 113d 8ed6 7f3f
00000140: 3ed4 a33c e5f2 7f3f 9d43 383c dbfb 7f3f
00000150: dd3d cf3b b0fe 7f3f 0815 693b 96ff 7f3f
00000160: 6912 033b deff 7f3f 146a 933a f5ff 7f3f
00000170: 5fcb 253a fdff 7f3f 5377 ba39 ffff 7f3f
00000180: c381 103e 2670 7dbf d745 7e3f a87f edbd
00000190: c209 503f 572f 153f 6d2f 023f 296d 5c3f
000001a0: 6d4e 973e ef90 743f d8ee 2b3e 9e5d 7c3f
000001b0: c1ff c13d 4fd9 7e3f 4d69 5a3d c3a2 7f3f
000001c0: 20b9 f53c 83e2 7f3f c731 8a3c adf6 7f3f
000001d0: 116e 1b3c 0dfd 7f3f a8cf ae3b 11ff 7f3f
000001e0: 939b 443b b5ff 7f3f 1b1f dd3a e8ff 7f3f
000001f0: 0db1 783a f8ff 7f3f 7ed9 0b3a feff 7f3f
00000200: cfbd 41bf 3055 27bf ed49 473f 9daf 20bf
00000210: de1d 743f b12e 9a3e bc1f 273f edeb 413f
00000220: d761 c73e a7ca 6b3f c665 643e 098d 793f
00000230: 882e 013e 69f4 7d3f c88d 913d 475a 7f3f
00000240: dbcb 233d 94cb 7f3f a240 b83c 6cef 7f3f
00000250: cd3c 4f3c c2fa 7f3f a714 e93b 58fe 7f3f
00000260: 5812 833b 7aff 7f3f 0e6a 133b d6ff 7f3f
00000270: 5ccb a53a f3ff 7f3f 5277 3a3a fcff 7f3f
00000280: 107c 75bf 2c3c 913e d6da a53e 4032 72bf
00000290: 7ffc 7f3f d472 29bc abca 463f f14c 213f
000002a0: 4477 f53e 40a9 603f ee11 8e3e 7cf2 753f
000002b0: 1e3c 213e 81ce 7c3f 21db b53d 1efd 7e3f
000002c0: f5b6 4c3d 19ae 7f3f fe4d e63c 19e6 7f3f
000002d0: 8185 813c cff7 7f3f bbac 113c 69fd 7f3f
000002e0: ded6 a33b 2eff 7f3f 8c44 383b beff 7f3f
000002f0: 313e cf3a ebff 7f3f 2615 693a f9ff 7f3f
00000300: 8c0f 8fbe b8cd 753f 74e5 6bbe 531d 79bf
00000310: 4d78 723f 6f3f a4be 8930 603f 342f f73e
00000320: 698c 103f 3249 533f fd7d a93e e290 713f
00000330: 6f20 413e e367 7b3f c119 da3d 518b 7e3f
00000340: d19c 753d 128a 7f3f bf2c 0a3d b3da 7f3f
00000350: 466c 9b3c 34f4 7f3f 04cf 2e3c 45fc 7f3f
00000360: 599b c43b d2fe 7f3f 061f 5d3b a1ff 7f3f
00000370: 05b1 f83a e2ff 7f3f 7dd9 8b3a f6ff 7f3f
00000380: 4630 283f bdff 403f 6eb6 36bf 604f 33bf
00000390: 6fe8 4c3f bb74 19bf 4484 723f b9f8 a33e
000003a0: 73eb 243f b3cc 433f df60 c43e c56b 6c3f
000003b0: 50d3 603e eac0 793f ba46 fe3d e904 7e3f
000003c0: 323e 8f3d 815f 7f3f 6031 213d 3bcd 7f3f
000003d0: a652 b53c f2ef 7f3f 2af1 4b3c ecfa 7f3f
000003e0: c75f e53b 65fe 7f3f befc 803b 7eff 7f3f
000003f0: ec11 113b d7ff 7f3f 6628 a33a f3ff 7f3f

W f4 [32, 32]
0.13149634 0.07784014 -0.013531084 0.083024025 -0.2549316 -0.15779921 -0.090862095 0.1678242
-0.17016888 -0.10166416 0.0053012776 -0.18691114 0.20718154 0.0407346 0.0929032 -0.06846344
-0.055942647 0.0882085 0.25606126 0.17829245 -0.22408362 0.06348482 0.08784076 0.22585328
0.109169066 -0.22236675 0.07577719 0.1938177 0.18151198 -0.13663928 -0.20630667 0.1410274
-0.0034292429 -0.24347778 -0.04049581 0.17027508 -0.11801971 0.07182255 -0.033963762 0.27713147
0.13034756 0.04123938 -0.08325124 -0.19793367 0.2669349 -0.23610258 0.25686714 0.046760242
-0.13728173 0.2851722 -0.25701928 0.12270265 0.19825317 0.3111298 -0.15754457 0.23416701
0.17738214 0.11884521 0.15668924 -0.012061403 0.25842455 0.26133284 -0.14669481 0.28774607
0.035016213 0.118211396 -0.13164212 0.105326355 0.19651449 0.2022548 0.26522702 -0.18413548
0.2136782 -0.09616284 -0.24026287 -0.2680717 -0.27378303 -0.15370952 -0.2117315 0.13596617
-0.17506291 0.09815521 0.17152436 -0.24068347 0.12770142 -0.19788428 -0.09546642 -0.14563756
-0.09463737 -0.24010506 -0.14461821 -0.008923895 -0.020955844 -0.06197709 -0.2988001 0.12841871
0.12919329 0.17454056 -0.23373598 -0.18740818 -0.044140678 0.104516245 0.10376463 0.05784929
-0.04880399 0.13186058 -0.069115594 -0.02633887 0.25848025 0.2847524 -0.2404301 -0.027638223
0.22518758 -0.20384829 0.19289042 -0.049649645 -0.18909109 0.27129996 0.30206534 0.1238448
0.169266 -0.15021053 0.17919524 0.12482181 -0.04772668 -0.0072390046 0.09649591 -0.30449492
-0.15776819 -0.1688956 -0.24406298 0.039265893 0.047682784 -0.19937523 -0.040324498 0.06475429
0.18350679 0.23117974 -0.30787304 -0.15234572 -0.22827365 -0.12100437 0.15982057 -0.24715406
0.013845143 0.07314079 0.16486853 -0.298402 -0.24112289 0.24999845 0.12248564 0.20021203
-0.1652325 0.114045635 -0.2476162 -0.23520313 0.13855201 0.13459142 -0.23932685 -0.30194086
0.06719717 0.09720634 -0.046563447 -0.097243465 0.04460398 -0.2512728 -0.2140545 -0.13824254
-0.18467757 -0.28020108 0.27944687 0.23659034 -0.12803654 0.17340516 -0.08314651 0.13820605
0.2569296 0.12922682 -0.26498792 -0.22444627 0.11708859 0.17383635 0.17309813 0.22672904
-0.25661182 0.037042364 0.13483578 0.01370157 0.15944345 -0.15673204 -0.057221435 0.13536541
-0.034525927 0.010738773 -0.17415929 0.041025043 -0.20309015 -0.20722051 0.012944402 -0.24778326
0.2816461 -0.1805131 -0.29463947 0.22493932 0.17560786 0.045275517 -0.17285444 0.23663759
-0.26177207 0.13509537 -0.19221358 -0.2566115 -0.3076504 -0.03598324 0.15842745 -0.12625813
0.07380756 0.07779687 -0.24465558 -0.26765156 -0.043071866 -0.14450975 0.05481873 0.062432993
-0.00024573487 -0.27628106 0.21992938 -0.26685724 0.080841966 -0.09136168 -0.1349453 -0.15873908
0.09256958 0.24483119 0.0015534585 0.12981948 0.26304552 -0.22663076 -0.0390831 0.16056547
0.17938557 -0.095936775 -0.13825008 0.2885049 -0.14477035 -0.19622013 0.26834068 0.013911995
-0.23306568 0.26014042 -0.21470153 -0.12500112 0.07545863 -0.043296568 -0.20115338 0.101221
00000000: faa6 063e a76a 9f3d 7bb1 5dbc 8008 aa3d
00000010: 6586 82be 1e96 21be e815 babd 1bda 2b3e
00000020: c040 2ebe 4d35 d0bd 57b6 ad3b a265 3fbe
00000030: 6627 543e 53d9 263d 0844 be3d 8f36 8cbd
00000040: 1e24 65bd a8a6 b43d 761a 833e 4c92 363e
00000050: 2d76 65be 5404 823d dbe5 b33d 1546 673e
00000060: 0894 df3d 1cb4 63be 1231 9b3d 2678 463e
00000070: 47de 393e 2beb 0bbe 0e42 53be 7d69 103e
00000080: 26bd 60bb 3d52 79be efde 25bd 975c 2e3e
00000090: 51b4 f1bd b317 933d 961d 0bbd 2de4 8d3e
000000a0: d579 053e a0ea 283d a07f aabd 20af 4abe
000000b0: b1ab 883e e0c4 71be 1784 833e ab87 3f3d
000000c0: 9593 0cbe 1702 923e 0898 83be 874b fb3d
000000d0: e102 4b3e 684c 9f3e 5d53 21be 7ac9 6f3e
000000e0: aaa3 353e 1e65 f33d 2573 203e 319d 45bc
000000f0: 3950 843e 6bcd 853e 2a37 16be 7453 933e
00000100: 296d 0f3d d118 f23d 31cd 06be 58b5 d73d
00000110: 183b 493e e21b 4f3e d6cb 873e 038e 3cbe
00000120: 75ce 5a3e 06f1 c4bd 7807 76be b240 89be
00000130: 4a2d 8cbe 0766 1dbe 24d0 58be b73a 0b3e
00000140: b143 33be 9905 c93d 15a4 2f3e ba75 76be
00000150: 29c4 023e 2da2 4abe e683 c3bd 0322 15be
00000160: 3dd1 c1bd 1ade 75be cc16 14be 8735 12bc
00000170: 97ab abbc b0db 7dbd 54fc 98be 3280 033e
00000180: 3f4b 043e c3ba 323e 7c58 6fbe eee7 3fbe
00000190: dbcc 34bd 9d0c d63d 8d82 d43d 61f3 6c3d
000001a0: b1e6 47bd 7606 073e 7a8c 8dbd 9dc4 d7bc
000001b0: 8657 843e 11cb 913e 4f33 76be 8e69 e2bc
000001c0: 9397 663e 9bbd 50be 1185 453e 6d5d 4bbd
000001d0: 18a1 41be d4e7 8a3e 4fa8 9a3e 58a2 fd3d
000001e0: 1154 2d3e cad0 19be f57e 373e 94a2 ff3d
000001f0: 0d7d 43bd 2c35 edbb a69f c53d c2e6 9bbe
00000200: fc8d 21be f8f2 2cbe a5eb 79be 46d5 203d
00000210: 064f 433d 0529 4cbe 4d2b 25bd e69d 843d
00000220: 34e9 3b3e 62ba 6c3e 89a1 9dbe 8400 1cbe
00000230: 91c0 69be 24d1 f7bd 01a8 233e f415 7dbe
00000240: bdd6 623c d7ca 953d 4cd3 283e 26c8 98be
00000250: ebe8 76be 98ff 7f3e c0d9 fa3d 6204 4d3e
00000260: b532 29be c290 e93d 1a8f 7dbe 17d9 70be
00000270: 94e0 0d3e 55d2 093e 1912 75be fe97 9abe
00000280: ab9e 893d 1e14 c73d 50b9 3ebd 9527 c7bd
00000290: aab2 363d d4a6 80be 1a31 5bbe 748f 0dbe
000002a0: 1e1c 3dbe 8476 8fbe a913 8f3e bd44 723e
000002b0: 031c 03be 1f91 313e b848 aabd e385 0d3e
000002c0: 478c 833e 0954 043e 7fac 87be 3ed5 65be
000002d0: 25cc ef3d 2802 323e a340 313e a82b 683e
000002e0: a062 83be bcb9 173d 6412 0a3e 8d7c 603c
000002f0: 2545 233e 5d7e 20be 0661 6abd 3b9d 0a3e
00000300: 0f6b 0dbd aef1 2f3c d056 32be e009 283d
00000310: ddf6 4fbe 9d31 54be c214 543c e5ba 7dbe
00000320: eb33 903e 6dd8 38be fcda 96be 7e56 663e
00000330: 8cd2 333e d272 393d c100 31be 2051 723e
00000340: fd06 86be 7156 0a3e a3d3 44be 9562 83be
00000350: 5a84 9dbe 2963 13bd ce3a 223e d049 01be
00000360: 6b28 973d f753 9f3d fe86 7abe a009 89be
00000370: 206c 30bd 5dfa 13be 9b89 603d bdb9 7f3d
00000380: fad5 80b9 b674 8dbe 2b35 613e 83a1 88be
00000390: 7990 a53d d51b bbbd 1a2f 0abe 7f8c 22be
000003a0: 1f95 bd3d 07b5 7a3e 6b9d cb3a 66ef 043e
000003b0: e7ad 863e e511 68be 9a15 20bd 466b 243e
000003c0: dab0 373e 807a c4bd 6e91 0dbe eab6 933e
000003d0: ae3e 14be eeed 48be f363 893e 23ef 633c
000003e0: c5a8 6ebe 2031 853e b8da 5bbe 4b00 00be
000003f0: 0e8a 9a3d be57 31bd 27fb 4dbe f54c cf3d

b f4 [32]
0.006213425 0.011892702 -0.014040645 0.0045179618 0.0004032153 -0.0066969795 -0.005461183 0.02307809
0.007844588 0.0136252055 0.0016307763 0.0022607243 -0.004836074 0.012968704 -0.0054879887 0.019177778
0.025182428 -0.0044776364 -0.0051863506 -0.004584997 -0.014343731 -0.0024386945 -0.018026227 0.013022735
0.014678706 0.009159454 -0.0048965374 -0.008700862 -0.014737228 0.015529844 -0.0064462735 0.022372102
00000000: fd99 cb3b 9cd9 423c bc0a 66bc 690b 943b
00000010: a466 d339 5672 dbbb b9f3 b2bb 430e bd3c
00000020: 9686 003c 413c 5f3c c6bf d53a a928 143b
00000030: ee77 9ebb b07a 543c 96d4 b3bb b71a 9d3c
00000040: 614b ce3c 23b9 92bb 43f2 a9bb be3d 96bb
00000050: f801 6bbc 81d2 1fbb bdab 93bc 4f5d 553c
00000060: f57e 703c 8911 163c 2273 a0bb 0f8e 0ebc
00000070: 6a74 71bc e370 7e3c 433b d3bb b345 b73c

W f4 [32, 32]
-0.23592195 -0.072102636 -0.21845165 0.15201996 -0.12808143 0.018683987 -0.03519126 0.017199391
-0.16284113 -0.17226169 -0.06317327 0.29244402 0.08466575 0.056553483 0.024274725 -0.050841793
0.101841226 0.22108127 -0.08168559 -0.28651267 -0.28090957 0.13955893 -0.027455978 -0.120789155
-0.12558413 -0.10891078 -0.15185943 0.23629631 -0.2317687 0.0528303 0.21241207 -0.21046703
0.19683392 0.22283545 0.1968959 -0.25434875 0.18820018 -0.050001994 0.0053865397 0.108913995
0.29360113 -0.084035985 0.13899516 0.31177196 0.21817224 0.10733835 0.27182376 0.3038381
0.15708265 0.07942999 0.15625225 -0.21658108 -0.25321275 0.0610893 0.12032403 0.22259709
-0.17661716 0.07200559 -0.016441995 -0.23049366 0.1040641 -0.06548373 -0.12413259 -0.15439014
0.19132687 -0.11633943 0.24291454 0.10332721 0.036403276 0.14535552 0.13760129 -0.15027311
-0.25759232 -0.0707006 0.22938325 0.2290437 0.08732655 0.30021134 -0.25219646 0.25853002
0.19470254 0.24991082 0.010131333 0.16660568 0.094226755 -0.24428757 -0.26390153 0.2703588
0.25294822 -0.1393225 0.18769768 -0.1949317 -0.27843982 -0.04796457 -0.3086413 0.05638154
-0.091737494 -0.022591976 -0.059185386 0.19076051 0.052474484 0.22879727 -0.0437857 -0.2009761
-0.28072077 0.10172311 -0.11219604 0.2820688 0.13106337 -0.21561183 0.12359503 0.0151822865
-0.23099202 -0.019577542 -0.26694742 0.08664028 0.2537564 -0.18826209 -0.18639584 0.019555721
-0.23025736 0.17110716 -0.0060996325 -0.2048009 0.23530114 -0.21575138 -0.1754673 -0.26445267
0.20248185 0.030066764 -0.11417752 0.23197441 -0.2553704 -0.21253404 0.012410941 0.130277
0.15507808 -0.17773709 0.1550366 0.053466413 0.28121436 0.23666692 -0.011202963 0.058808938
0.016149804 0.0746375 0.24242373 -0.24035694 0.2883726 0.13039263 -0.03829388 -0.2316857
-0.17609273 0.07232999 0.23668092 -0.26093465 -0.2379346 0.12117441 -0.2518071 0.22540875
-0.21343166 0.11280076 0.28190938 -0.07901782 -0.0052466975 -0.101770304 0.22410801 0.20377822
0.08081495 -0.09346738 0.18017493 -0.00015899437 0.086788684 -0.2598411 -0.20027411 0.27485952
0.08955891 0.20608751 -0.012022836 -0.13053772 0.17724814 0.25985035 0.14550953 0.11055814
0.27160835 -0.21872969 -0.0073172715 -0.2239025 0.06639386 0.17964564 -0.060742427 0.091561064
0.2226963 0.28123426 -0.02435039 0.15368046 0.2028889 0.16748944 -0.2322888 0.004275356
-0.017945299 0.29031307 0.29674193 0.23300521 -0.080675304 0.19615273 -0.096462384 0.24411431
0.21753807 0.17424552 -0.26109612 -0.15821967 0.0008342174 0.175861 0.07116072 -0.029066464
-0.06554189 -0.26736906 0.14618212 0.26759303 0.21552002 -0.25319985 -0.1666633 -0.16868399
0.2742909 -0.20560779 -0.15900049 0.15676026 0.22880842 0.04138367 -0.12157805 0.07150189
0.008433647 -0.026114002 0.17399009 -0.26505437 -0.074576974 -0.17719994 -0.062766425 -0.2998538
0.07098645 0.3042063 0.22964919 -0.08656816 0.14980362 -0.21703607 0.057662826 -0.09555212
-0.006092392 -0.29956895 0.14466897 0.254134 0.06158295 0.12602946 -0.2908857 0.29676563
00000000: 8695 71be 8caa 93bd cab1 5fbe 1fab 1b3e
00000010: c727 03be 290f 993c b624 10bd bde5 8c3c
00000020: d3bf 26be 5e65 30be fd60 81bd 39bb 953e
00000030: 3d65 ad3d a0a4 673d cadb c63c 7c3f 50bd
00000040: 2292 d03d 2163 623e c64a a7bd cab1 92be
00000050: 61d3 8fbe 89e8 0e3e 5ceb e0bc 4e60 f7bd
00000060: 2099 00be 9d0c dfbd 0a81 1bbe a9f7 713e
00000070: c654 6dbe 9664 583d 8d82 593e ab84 57be
00000080: d58e 493e fa2e 643e 149f 493e 003a 82be
00000090: 8cb7 403e e4ce 4cbd 9281 b03b 4d0e df3d
000000a0: e352 963e 0f1b acbd bf54 0e3e 93a0 9f3e
000000b0: 8b68 5f3e 35d4 db3d 7c2c 8b3e ab90 9b3e
000000c0: 46da 203e 31ac a23d 9700 203e 6ec7 5dbe
000000d0: 1aa5 81be c638 7a3d 726c f63d 7ef0 633e
000000e0: 21db 34be ab77 933d 5db1 86bc 8806 6cbe
000000f0: 8f1f d53d 551c 86bd 3a39 febd 7318 1ebe
00000100: 31eb 433e 5e43 eebd 97be 783e 379d d33d
00000110: 9a1b 153d 14d8 143e 5ae7 0c3e 32e1 19be
00000120: 24e3 83be 7acb 90bd 71e3 6a3e 6f8a 6a3e
00000130: 43d8 b23d 4db5 993e e51f 81be 0c5e 843e
00000140: 1a60 473e 9fe8 7f3e e4fd 253c ae9a 2a3e
00000150: f5f9 c03d 8526 7abe 1a1e 87be 786c 8a3e
00000160: 6e82 813e 8faa 0ebe d233 403e 2d9c 47be
00000170: aa8f 8ebe 7f76 44bd 3c06 9ebe 54f0 663d
00000180: dee0 bbbd cf12 b9bc 606c 72bd b956 433e
00000190: 7cef 563d d549 6a3e a258 33bd aecc 4dbe
000001a0: a2ba 8fbe 3554 d03d 0ac7 e5bd 526b 903e
000001b0: 7a35 063e 59c9 5cbe 641f fd3d 20bf 783c
000001c0: 2c89 6cbe 1561 a0bc 55ad 88be 7670 b13d
000001d0: 5cec 813e c7c7 40be 8dde 3ebe 5233 a03c
000001e0: 96c8 6bbe b736 2f3e 6ddf c7bb 54b7 51be
000001f0: c8f2 703e eeed 5cbe b3ad 33be 5766 87be
00000200: 6757 4f3e 934e f63c e7d5 e9bd b38a 6d3e
00000210: e9bf 82be 86a2 59be 4257 4b3c 5567 053e
00000220: cacc 1e3e b600 36be eac1 1e3e 99ff 5a3d
00000230: 54fb 8f3e d058 723e a28c 37bc a4e1 703d
00000240: 984c 843c 8cdb 983d ed3d 783e 2120 76be
00000250: 93a5 933e a585 053e 0bda 1cbd 043f 6dbe
00000260: a751 34be bf21 943d 7c5c 723e 3a99 85be
00000270: 21a5 73be 4a2a f83d dcec 80be 8dd1 663e
00000280: d48d 5abe 1604 e73d 6d56 903e 18d4 a1bd
00000290: 7dec abbb f36c d0bd 927c 653e 3dab 503e
000002a0: 4f82 a53d d36b bfbd c77f 383e bab7 26b9
000002b0: 44be b13d e509 85be a814 4dbe 63ba 8c3e
000002c0: a96a b73d 9b08 533e 6efb 44bc aeab 05be
000002d0: 8980 353e 1b0b 853e 7300 153e 4e6c e23d
000002e0: 4010 8b3e adfa 5fbe b9c5 efbb b246 65be
000002f0: 81f9 873d 07f5 373e 0dcd 78bd 5e84 bb3d
00000300: 800a 643e f0fd 8f3e 787a c7bc 695e 1d3e
00000310: 1cc2 4f3e 5a82 2b3e 1ddd 6dbe 4918 8c3b
00000320: 0502 93bc eaa3 943e 8fee 973e eb98 6e3e
00000330: 1839 a5bd 43dc 483e 128e c5bd 1af9 793e
00000340: 4dc2 5e3e 6b6d 323e 64ae 85be 5604 22be
00000350: 62af 5a3a e814 343e b6bc 913d cb1c eebc
00000360: d43a 86bd 99e4 88be c4b0 153e f401 893e
00000370: 48b1 5c3e 69a3 81be c9a9 2abe 7fbb 2cbe
00000380: db6f 8c3e d98a 52be 06d1 22be c385 203e
00000390: c14c 6a3e ec81 293d eafd f8bd 956f 923d
000003a0: 482d 0a3c 08ed d5bc 752a 323e 35b5 87be
000003b0: d0bb 98bd e773 35be af8b 80bd 7086 99be
000003c0: 5861 913d eec0 9b3e 2829 6b3e a64a b1bd
000003d0: 1f66 193e b43e 5ebe db2f 6c3d d4b0 c3bd
000003e0: b0a2 c7bb 1a61 99be 1a24 143e da1d 823e
000003f0: 673e 7c3d de0d 013e f8ee 94be aaf1 973e

b f4 [32]
-0.0028559922 -0.004431196 -0.00061765057 0.005685938 -0.017203575 0.010315635 0.009866885 0.0096025765
0.00017215827 0.0037421987 -0.014756936 0.00087868574 -0.011776804 -0.008686918 -0.0040022177 0.0015108397
-0.0035076032 0.00436333 0.00097420916 -0.0030680394 0.002356195 -0.0021299347 0.005864699 0.003244155
-0.010448911 -0.0010872243 0.0030288026 -0.003532536 -0.0014469174 0.008006346 0.00968503 -0.0039597903
00000000: 992b 3bbb 9133 91bb d4e9 21ba 1b51 ba3b
00000010: 83ee 8cbc e902 293c b7a8 213c 2054 1d3c
00000020: 6285 3439 ad3f 753b 13c7 71bc 9a57 663a
00000030: 7ff3 40bc 9353 0ebc 0925 83bb 5e07 c63a
00000040: d1df 65bb 44fa 8e3b 1262 7f3a 2911 49bb
00000050: 646a 1a3b 6096 0bbb a92c c03b e49b 543b
00000060: e931 2bbc 3281 8eba e07e 463b 1f82 67bb
00000070: 7ea6 bdba 0d2d 033c f6ad 1e3c 21c1 81bb

W f4 [32, 32]
0.092541315 0.04491753 0.13007309 0.059402127 -0.06620654 0.08539217 0.019804556 -0.24161129
0.17656492 0.3184687 0.16495673 0.011231448 -0.13713618 -0.21107014 0.077240065 -0.2552891
-0.10216009 -0.25068167 -0.073598616 0.20419408 -0.16887784 -0.09158438 0.22332606 0.15216032
0.21076012 0.029659448 0.1837466 -0.079422615 -0.21773204 -0.29828247 0.15003009 -0.017128294
0.1302188 0.009142476 -0.09802704 0.14680752 0.29104733 0.19193324 0.054671668 0.21725656
-0.2642499 -0.10554856 -0.03896542 -0.24781394 0.13141848 -0.1614874 -0.005168797 0.2068524
0.2785429 0.114412844 0.04687264 0.09901948 -0.19156979 0.25972974 -0.20194302 -0.01872742
-0.07045347 0.30248046 0.17370994 0.020537082 -0.051727418 0.060773883 -0.06387369 0.21576644
0.28852683 0.05607098 0.19711082 0.2613602 0.18586624 -0.20872602 0.09527258 -0.1902894
-0.13134795 -0.17543843 0.18530934 -0.30400786 0.17107154 0.031210715 -0.3067704 -0.073925525
-0.2955699 0.069631025 -0.3045322 0.08463172 0.11486528 0.028033348 0.10226531 -0.085568234
0.2603231 0.08557661 0.04462467 0.27979612 0.018895987 -0.09973208 -0.19332463 0.16237448
0.24537638 -0.28589883 0.19507857 -0.102382615 -0.116508886 -0.26754433 -0.10667584 -0.07240317
-0.20723708 -0.15517128 -0.17297667 -0.21323968 -0.014979241 0.002145603 -0.17839794 -0.1997709
-0.20952001 -0.032710537 -0.11737719 -0.29294777 0.16598292 -0.19097173 -0.03433946 -0.26868495
0.149536 -0.042210307 0.10237955 0.13756447 -0.3066949 -0.17067456 0.12462622 -0.272944
0.16506457 0.01287068 0.16185932 0.18380986 0.09935444 -0.029025327 -0.030166512 -0.072241515
-0.15236787 0.09210604 -0.27279738 0.08464852 -0.07438667 -0.008833403 -0.022937372 -0.1991837
0.19167852 -0.056988806 0.03443895 -0.26798046 0.041064784 0.28634757 0.31188062 0.09447326
-0.10210972 0.06576036 0.08846785 -0.22745709 0.08721922 -0.19537018 -0.20661296 0.30426228
-0.10877856 -0.09654253 0.09757648 0.16460256 0.16550964 -0.17590877 -0.18750477 0.19332324
0.20162219 -0.07072284 0.06943178 0.28270772 0.1948316 -0.18560417 -0.16822118 0.2779231
-0.10805846 0.27814838 0.23301408 0.24364147 0.1888668 -0.255544 0.30137345 -0.10008114
0.019851796 0.29957846 -0.040609457 -0.13586684 0.12568747 -0.20719792 -0.10532155 -0.11968769
-0.20979512 0.23606223 0.06795364 0.069692925 0.28350085 -0.24059689 -0.14951503 0.019698488
0.2812647 0.3018718 0.07083915 0.14566055 -0.23424372 0.29034775 -0.28859577 -0.012896594
0.04900659 -0.06183787 0.231991 -0.21629632 0.009324113 -0.17994107 0.2626849 0.22218055
-0.006445315 0.25677836 -0.11161538 0.2794123 -0.17003419 0.16786031 -0.27598625 -0.06346036
-0.078016035 0.13300553 0.008883445 -0.10098444 0.27902755 -0.2195006 0.21886186 0.22283529
0.045425 0.10709604 0.034240138 -0.10885884 -0.04439904 0.30703083 0.29361105 -0.025646938
0.040159885 -0.17203447 -0.12225818 -0.09344096 -0.20999146 -0.018381152 -0.21602656 0.045169905
-0.01951997 0.24444586 0.13942052 -0.19958346 -0.07793321 -0.2329487 -0.228891 0.061814144
00000000: 4d86 bd3d 72fb 373d e131 053e a54f 733d
00000010: 4b97 87bd 17e2 ae3d 2a3d a23c f368 77be
00000020: 6fcd 343e 540e a33e 6bea 283e 1b04 383c
00000030: 6d6d 0cbe c522 58be 0a30 9e3d 41b5 82be
00000040: 4f39 d1bd 5959 80be dfba 96bd 4118 513e
00000050: 50ee 2cbe 9790 bbbd 96af 643e eacf 1b3e
00000060: 80d1 573e 5ff8 f23c 1228 3c3e 53a8 a2bd
00000070: 26f5 5ebe 7bb8 98be 7da1 193e a350 8cbc
00000080: 1458 053e 53ca 153c 67c2 c8bd b654 163e
00000090: 2804 953e 268a 443e 66ef 5f3d 8178 5e3e
000000a0: c34b 87be d829 d8bd 349a 1fbd f0c2 7dbe
000000b0: 9192 063e f45c 25be 035f a9bb 1ed1 533e
000000c0: 2d9d 8e3e 4851 ea3d 86fd 3f3d baca ca3d
000000d0: df2a 44be 4cfb 843e 27ca 4ebe 3f6a 99bc
000000e0: e949 90bd b8de 9a3e 05e1 313e 623d a83c
000000f0: 21e0 53bd 09ee 783d 36d0 82bd e1f1 5c3e
00000100: cab9 933e afaa 653d 6bd7 493e 01d1 853e
00000110: b853 3e3e 46bc 55be 451e c33d 39db 42be
00000120: 1480 06be 22a6 33be bbc1 3d3e eba6 9bbe
00000130: 612d 2f3e 9dad ff3c 0311 9dbe 4466 97bd
00000140: f054 97be b69a 8e3d a5eb 9bbe 6553 ad3d
00000150: 7d3e eb3d 31a6 e53c 7a70 d13d 663e afbd
00000160: 1249 853e ca42 af3d 5cc8 363d 7041 8f3e
00000170: c2cb 9a3c 5540 ccbd e4f6 45be 7f45 263e
00000180: f243 7b3e 5561 92be adc2 473e faad d1bd
00000190: 369c eebd 92fb 88be dd78 dabd 1d48 94bd
000001a0: f535 54be 38e5 1ebe cc20 31be 815b 5abe
000001b0: 7e6b 75bc 3f9d 0c3b f3ad 36be be90 4cbe
000001c0: 6a8c 56be 7cfb 05bd 7463 f0bd 40fd 95be
000001d0: 6df7 293e 188e 43be 89a7 0cbd 1391 89be
000001e0: f71f 193e b7e4 2cbd 5fac d13d b3dd 0c3e
000001f0: 1d07 9dbe 50c5 2ebe 083c ff3d 51bf 8bbe
00000200: b006 293e 8bdf 523c 73be 253e a738 3c3e
00000210: 577a cb3d 86c6 edbc c31f f7bc 5cf3 93bd
00000220: 5306 1cbe 17a2 bc3d 19ac 8bbe 345c ad3d
00000230: 0a58 98bd fab9 10bc 28e7 bbbc d0f6 4bbe
00000240: 6047 443e 186d 69bd db0f 0d3d bc34 89be
00000250: 8c33 283d 269c 923e d1ae 9f3e 327b c13d
00000260: e71e d1bd 5ead 863d a22e b53d 83ea 68be
00000270: fe9f b23d 1f0f 48be 5992 53be 44c8 9b3e
00000280: 4bc7 debd 17b8 c5bd 2dd6 c73d 938d 283e
00000290: 5c7b 293e 6e21 34be 4001 40be 87f6 453e
000002a0: 0c76 4e3e 23d7 90bd 4032 8e3d 11bf 903e
000002b0: ef81 473e 050f 3ebe 2c42 2cbe f04b 8e3e
000002c0: c14d ddbd 7769 8e3e 3e9b 6e3e 267d 793e
000002d0: 4c66 413e aad6 82be 9f4d 9a3e 57f7 ccbd
000002e0: 3ca0 a23c 5962 993e 1a56 26bd ad20 0bbe
000002f0: 37b4 003e b12b 54be d3b2 d7bd d21e f5bd
00000300: 88d4 56be 4cba 713e 472b 8b3d 2abb 8e3d
00000310: 0627 913e 085f 76be 781a 19be b95e a13c
00000320: ed01 903e f18e 9a3e 1e14 913d 0a28 153e
00000330: 96dd 6fbe 76a8 943e d3c2 93be 3c4c 53bc
00000340: 22bb 483d b549 7dbd 0c8f 6d3e c87c 5dbe
00000350: 2ac4 183c 7942 38be a37e 863e 4c83 633e
00000360: 3933 d3bb 7478 833e 9b96 e4bd 210f 8f3e
00000370: 711d 2ebe 93e3 2b3e 124e 8dbe 81f7 81bd
00000380: dfc6 9fbd 9a32 083e de8b 113c eed0 cebd
00000390: b3dc 8e3e c4c4 60be 531d 603e ef2e 643e
000003a0: 910f 3a3d 2b55 db3d 633f 0c3d 62f1 debd
000003b0: c5db 35bd 2533 9d3e 3054 963e 8719 d2bc
000003c0: b17e 243d ce29 30be 7f62 fabd f95d bfbd
000003d0: 0008 57be 1294 96bc 1136 5dbe 1404 393d
000003e0: 58e8 9fbc 0450 7a3e 41c4 0e3e 9b5f 4cbe
000003f0: 729b 9fbd 1b8a 6ebe 6762 6abe d430 7d3d

b f4 [32]
0.0073951725 0.0037666492 -0.0061563016 -0.004097724 0.0038096944 0.0057388963 0.0039402596 0.010155214
0.0033291858 -0.012062839 -0.00088174676 0.016701728 -0.0026247788 0.0049811252 -0.0054579466 -0.008719629
0.0038632704 5.4666176e-05 0.0015675285 -0.0055419216 -0.03186173 -0.008831239 0.008079949 -0.0053803707
0.009914563 0.00024422523 0.014799022 -0.00097035436 0.0049654637 -0.0042220177 0.009506343 -0.0006253801
00000000: 3453 f23b e3d9 763b cdba c9bb 3346 86bb
00000010: 11ac 793b 5a0d bc3b 4b1d 813b 0e62 263c
00000020: 782e 5a3b 37a3 45bc 0625 67ba 10d2 883c
00000030: 7b04 2cbb b538 a33b 93d8 b2bb c6dc 0ebc
00000040: ec2e 7d3b 5c49 6538 8775 cd3a 0299 b5bb
00000050: 7281 02bd e7b0 10bc c361 043c d24d b0bb
00000060: b170 223c 5b0b 8039 9977 723c 615f 7eba
00000070: 54b5 a23b da58 8abb 7ec0 1b3c 8cf0 23ba

W f4 [32, 32]
-0.13727768 -0.22850533 -0.21261355 -0.14925915 -0.041490864 -0.002416044 -0.100440145 0.26191983
-0.16189378 -0.06408951 -0.28255686 -0.019448675 0.2744938 0.19473793 -0.16349527 0.12803172
0.06372162 0.28048488 -0.3104121 -0.23993859 0.28742954 -0.1867617 -0.05156048 0.2831081
0.1864862 -0.17849235 -0.21179098 0.0677606 -0.17544214 -0.17648555 -0.08932827 -0.092182696
-0.16065066 -0.15627915 0.052138496 -0.26351836 -0.15341058 -0.23236683 0.15888543 -0.07331395
-0.057448316 0.009856109 -0.1274527 -0.06687766 0.24771154 -0.095210314 -0.043010645 -0.27383804
0.22421192 -0.13227367 -0.12808505 -0.30102155 0.13216883 0.14956592 -0.26368836 -0.10504566
0.30977282 0.25300992 -0.17533271 0.14104156 -0.3007062 -0.10024993 -0.12265332 -0.2820174
-0.08780563 0.10079843 -0.11175405 0.23674162 -0.18879762 -0.018752737 0.1508395 0.058393545
0.18098958 -0.25990245 -0.31088072 -0.0975466 0.03416775 0.1797076 -0.09197709 0.22650135
-0.25566405 -0.00068927073 0.043751404 -0.12811367 0.2157744 0.27737197 -0.059765276 0.23125942
0.092262164 0.04642197 0.2836469 -0.053167187 -0.2032175 -0.10076737 -0.012124947 -0.14871807
-0.11780824 -0.28389052 -0.08719977 0.27463716 0.31809068 -0.24508893 0.036454704 -0.2184866
-0.14081118 0.0015570619 -0.07821546 -0.092631154 -0.1049989 -0.2569887 -0.27398193 0.25824013
0.017085815 0.2214183 0.15349884 -0.22390766 -0.27191815 0.0028779514 0.14278007 0.018006066
-0.18048683 0.10573544 -0.23048896 -0.006254032 0.0746135 -0.09738613 0.12368608 -0.02692585
0.19047631 0.28278515 0.15918599 0.09389313 0.02426909 0.028716711 0.15295258 -0.024737692
-0.083418384 0.045462467 0.1328911 0.18561774 -0.2803934 -0.0038898378 0.18362506 -0.3138061
-0.08367248 -0.2430884 -0.2508438 -0.14649354 -0.30296245 -0.07606189 -0.13528448 0.25545955
0.1848933 0.2602043 -0.21065746 -0.2118165 0.078189306 0.2205506 -0.22454378 0.074388534
-0.21998167 0.09984502 0.16798486 -0.09966705 0.27086365 -0.22093539 -0.03054589 0.17085679
-0.13858585 -0.21501622 -0.09632488 -0.30751154 0.29059905 -0.15072095 0.0812765 -0.2866897
-0.122053675 -0.22001638 -0.08086741 0.22570261 -0.22899017 0.22440656 -0.013352413 -0.24475582
0.11771339 -0.16775595 -0.024330625 0.1410119 0.24801134 0.085866235 -0.2749081 -0.17848258
0.060537867 -0.030959785 0.27310368 -0.22434232 -0.17693092 -0.035842374 0.020898033 -0.049648486
-0.05006173 0.16505262 0.12078815 -0.03937771 0.017474694 0.29937446 0.037139524 0.014685484
0.27492434 0.19730009 0.17802039 -0.17755327 0.23726417 0.2963084 0.28454602 -0.22273055
0.054734576 0.28328806 -0.17788312 -0.25740144 0.28696293 -0.20404898 -0.25618383 -0.012870702
0.18781924 -0.12684403 0.22435334 -0.00839576 0.31205347 -0.009710998 0.30030766 -0.07433428
-0.09403942 0.27108526 0.18767186 0.06361222 -0.15612866 -0.24881397 -0.14293048 -0.095515385
-0.05917094 -0.0002579321 0.068864584 0.06447424 -0.27711594 0.29579005 -0.25877166 0.19198163
0.100581266 0.2294553 -0.11001486 -0.13507482 -0.16394635 -0.1873967 0.054455608 0.196669
00000000: 8592 0cbe 4dfd 69be 5eb7 59be 64d7 18be
00000010: 53f2 29bd 7e56 1ebb 90b3 cdbd 5b1a 863e
00000020: 7cc7 25be 5c41 83bd 4bab 90be d452 9fbc
00000030: 748a 8c3e 6169 473e 4e6b 27be bf1a 033e
00000040: 7b80 823d b79b 8f3e 56ee 9ebe 76b2 75be
00000050: f729 933e 763e 3fbe 1531 53bd 8bf3 903e
00000060: 3df6 3e3e b3c6 36be bcdf 58be 12c6 8a3d
00000070: 1ba7 33be a1b8 34be bdf1 b6bd 48ca bcbd
00000080: 9b81 24be a407 20be 2d8f 553d e1eb 86be
00000090: aa17 1dbe 92f1 6dbe ddb2 223e a025 96bd
000000a0: ed4e 6bbd 847b 213c f682 02be 28f7 88bd
000000b0: 18a8 7d3e a0fd c2bd ee2b 30bd 8034 8cbe
000000c0: cf97 653e c072 07be ba28 03be 7f1f 9abe
000000d0: 4457 073e cf27 193e 2902 87be 2e22 d7bd
000000e0: 8b9a 9e3e 848a 813e 6b8a 33be 336d 103e
000000f0: 2af6 99be d64f cdbd aa31 fbbd 9664 90be
00000100: 70d3 b3bd 686f ce3d 4fdf e4bd 656c 723e
00000110: 2a54 41be 579f 99bc ab75 1a3e 122e 6f3d
00000120: 5555 393e ef11 85be c22b 9fbe 83c6 c7bd
00000130: 7cf3 0b3d 4505 383e 7c5e bcbd f8ef 673e
00000140: 66e6 82be 2db0 34ba ac34 333d 3b30 03be
00000150: f7f3 5c3e b303 8e3e 6fcc 74bd 45cf 6c3e
00000160: f2f3 bc3d f724 3e3d 2b3a 913e d6c5 59bd
00000170: 4018 50be 1f5f cebd b7a7 46bc 8d49 18be
00000180: 7245 f1bd 195a 91be cb95 b2bd 3e9d 8c3e
00000190: c8dc a23e 98f8 7abe 8751 153d f4ba 5fbe
000001a0: ce30 10be 5416 cc3a 6d2f a0bd 67b5 bdbd
000001b0: aa09 d7bd 0694 83be 5c47 8cbe 0d38 843e
000001c0: 8df7 8b3c 7bbb 623e cd2e 1d3e 0d48 65be
000001d0: db38 8bbe 039c 3c3b f034 123e 7581 933c
000001e0: 8ad1 38be d38b d83d 4c05 6cbe 9fee ccbb
000001f0: f6ce 983d 6172 c7bd 214f fd3d 9a93 dcbc
00000200: 390c 433e 37c9 903e a701 233e 0b4b c03d
00000210: f8cf c63c 4f3f eb3c 9a9f 1c3e b3a6 cabc
00000220: 42d7 aabd da36 3a3d 9b14 083e 9412 3e3e
00000230: b98f 8fbe a6ec 7ebb 3508 3c3e 31ab a0be
00000240: 7a5c abbd 2aec 78be 996e 80be 6702 16be
00000250: e51d 9bbe 56c6 9bbd 0488 0abe 98cb 823e
00000260: ab54 3d3e 7f39 853e 97b6 57be 6de6 58be
00000270: b721 a03d 04d8 613e ceee 65be 0459 983d
00000280: e042 61be 8c7b cc3d 3904 2c3e 3d1e ccbd
00000290: a4ae 8a3e e33c 62be 603b fabc 15f5 2e3e
000002a0: 73e9 0dbe 362d 5cbe fb45 c5bd 2772 9dbe
000002b0: 66c9 943e 9856 1abe 4b74 a63d fec8 92be
000002c0: 47f7 f9bd f94b 61be d09d a5bd 961e 673e
000002d0: 667c 6abe d5ca 653e 14c4 5abc 45a1 7abe
000002e0: b813 f13d 37c8 2bbe 0551 c7bc 6c65 103e
000002f0: aff6 7d3e a3da af3d c1c0 8cbe 23c4 36be
00000300: 8ef6 773d 609f fdbc 3fd4 8b3e feb9 65be
00000310: 612d 35be 74cf 12bd 5a32 ab3c 365c 4bbd
00000320: 870d 4dbd 8e03 293e c75f f73d 864a 21bd
00000330: 1727 8f3c 9c47 993e 9d1f 183d 629b 703c
00000340: e2c2 8c3e 0909 4a3e fa4a 363e 86d0 35be
00000350: 61f5 723e bcb5 973e 04b0 913e 7a13 64be
00000360: 5d31 603d 220b 913e fe26 36be 1fca 83be
00000370: ceec 923e 37f2 50be 872a 83be a3df 52bc
00000380: b053 403e 67e3 01be e2bc 653e 5f8e 09bc
00000390: 79c5 9f3e e11a 1fbc edc1 993e 923c 98bd
000003a0: bd97 c0bd b0cb 8a3e 0d2d 403e 2047 823d
000003b0: 31e0 1fbe 17c9 7ebe 5e5c 12be 929d c3bd
000003c0: 3a5d 72bd 0f3b 87b9 e008 8d3d 120b 843d
000003d0: 24e2 8dbe cb71 973e b87d 84be d596 443e
000003e0: 8dfd cd3d 55f6 6a3e 794f e1bd 0e51 0abe
000003f0: 8de1 27be ece4 3fbe d80c 5f3d 9963 493e

b f4 [32]
-0.0030488006 0.00013691309 -0.0007726194 -0.011259506 0.008773627 -0.00077547657 0.013338435 -0.0031681377
0.003581392 0.0072279824 -0.008030883 -0.011680126 0.013570187 0.008403259 0.00028093494 -0.022183303
-0.011172182 -0.014334475 -0.0002878075 -0.008827112 0.01388125 -0.0026885858 -0.0065816585 0.015501831
-0.02034318 -0.0022089344 0.0071250023 -0.014320304 0.0026220102 0.005821851 0.00064123434 0.006162621
00000000: 63ce 47bb 5490 0f39 9c89 4aba cb79 38bc
00000010: 42bf 0f3c 5a49 4bba 7489 5a3c 88a0 4fbb
00000020: cab5 6a3b b6d8 ec3b f793 03bc 005e 3fbc
00000030: 7d55 5e3c d3ad 093c 734a 9339 c2b9 b5bc
00000040: 870b 37bc 25db 6abc dee4 96b9 979f 10bc
00000050: 2f6e 633c fc32 30bb f4aa d7bb 64fb 7d3c
00000060: bea6 a6bc c5c3 10bb da78 e93b b59f 6abc
00000070: 08d6 2b3b 3ac5 be3b 8218 283a d0ef c93b

W1 f4 [32, 128]
-0.13708265 0.087669455 -0.031802017 -0.101189025 -0.1537942 0.17650168 -0.1405396 0.04656281
0.12276295 0.036108088 -0.02912959 -0.02936034 0.09428863 0.14866 0.0919047 0.07357846
0.15571406 0.19656634 -0.029518412 -0.033825483 -0.03178278 -0.13387276 -0.02413391 0.08581266
0.0822043 -0.14612906 -0.17471166 0.007461173 0.0837527 0.04387212 -0.12705573 -0.052225187
-0.13359633 -0.08513686 0.048089843 0.034088735 0.08535714 -0.19002089 -0.13702331 -0.022048894
0.049823925 -0.14469765 -0.04256209 -0.02348582 0.04429394 -0.14396448 -0.15459019 -0.19236562
0.10331002 0.02207443 -0.15210669 -0.015462682 -0.19260757 0.104967475 -0.06480125 -0.17708331
-0.14356315 -0.134973 -0.13251016 0.117493145 -0.13370904 -0.15729906 -0.05720544 -0.18866348
0.1011312 -0.14414749 0.020111581 0.14599973 -0.16439404 0.19246939 -0.015180299 -0.10506374
-0.11444485 -0.17269401 0.06527739 0.17193946 -0.023251856 0.078881115 0.13967726 -0.18001014
-0.11822301 0.005207933 0.09405381 -0.03754642 -0.029935975 -0.10240958 -0.15944976 0.099039786
-0.022693858 -0.17070737 0.08409674 -0.063298196 -0.10646207 0.12252247 0.020791765 -0.0076933266
-0.034134798 0.15100019 0.10669656 -0.18914413 -0.14596148 0.04932043 -0.18680158 -0.010258824
0.07661134 -0.106094815 0.16580334 0.14411812 0.0075752903 -0.13951579 0.026524983 -0.08787685
-0.17353539 -0.119775675 0.06252188 -0.02287214 0.14457701 0.026470037 -0.14705297 0.091517344
-0.11041469 -0.12224029 0.14569929 -0.041988753 -0.08499132 -0.07891249 0.091973275 0.07497994
-0.047406733 -0.13481632 0.085627064 -0.016182175 -0.19029595 0.12247701 0.06893684 -0.08555662
-0.0138115445 0.015664175 0.16912071 -0.0024563738 0.16157025 -0.126287 0.008414339 -0.0027126183
0.055794656 -0.06838876 -0.09844033 -0.10665831 0.042139728 0.19453955 -0.16147602 -0.1416331
-0.020514436 -0.03597518 0.11142428 0.19985169 -0.08484607 -0.023917967 -0.057357777 -0.11162641
0.12573802 0.16581017 -0.136837 0.06545418 0.17323591 -0.08322112 0.08181 0.15346342
-0.003804152 -0.08551196 -0.16337022 -0.074518785 0.09775829 -0.14663732 -0.13169695 -0.19444802
0.008090999 -0.1438284 0.18064886 -0.03413494 0.01729466 -0.032360867 -0.13791534 0.04340313
-0.09637151 -0.024288693 0.015544036 0.19122395 0.15229684 0.014288641 -0.009041658 -0.008196532
-0.10984015 -0.031153632 0.13889848 0.14777721 -0.0734956 -0.040007472 0.07030351 0.11142773
-0.019386088 0.001619057 0.006260205 0.15974948 0.07016972 0.14734928 -0.15975472 0.075377315
-0.16700834 0.03596516 0.118285455 -0.09671338 0.12729958 0.060444586 -0.075014725 -0.119167864
-0.0992268 -0.10224764 -0.15368067 0.15861735 0.11680012 -0.13439661 0.018849615 -0.05199313
0.1935853 -0.13626285 0.14792527 -0.10852879 -0.14793898 -0.024483712 0.113323316 0.072930925
-0.060393263 -0.0794913 0.107347265 -0.032357015 -0.077889465 -0.18362825 -0.06875952 0.11318592
0.12627241 -0.014939015 -0.09616568 0.08626512 -0.18147884 0.07255663 0.17349094 0.12052646
0.12172959 0.05376051 0.13350117 -0.06826754 0.03446559 -0.016919805 0.18097489 0.059797015
00000000: 655f 0cbe 0b8c b33d d542 02bd 313c cfbd
00000010: 3a7c 1dbe dbbc 343e 9de9 0fbe a5b8 3e3d
00000020: 246b fb3d 13e6 133d 2ea1 eebc 1985 f0bc
00000030: 661a c13d 543a 183e 8838 bc3d 4eb0 963d
00000040: 8273 1f3e b048 493e 99d0 f1bc 978c 0abd
00000050: a92e 02bd f115 09be 7ab4 c5bc 8cbe af3d
00000060: ba5a a83d dba2 15be 9de7 32be db7c f43b
00000070: 8986 ab3d 41b3 333d e61a 02be 14ea 55bd
00000080: 7acd 08be 3c5c aebd dbf9 443d a1a0 0b3d
00000090: b9cf ae3d d694 42be d74f 0cbe e29f b4bc
000000a0: 2c14 4c3d 9f2b 14be 9655 2ebd 5665 c0bc
000000b0: 906d 353d 6d6b 13be e44c 1ebe 7efb 44be
000000c0: 3494 d33d 6fd5 b43c dbc1 1bbe 3057 7dbc
000000d0: eb3a 45be 30f9 d63d 85b6 84bd 5455 35be
000000e0: 3802 13be 5d36 0abe beb0 07be 3fa0 f03d
000000f0: 06eb 08be 0113 21be 4050 6abd 0031 41be
00000100: e01d cf3d 669b 13be 0bc1 a43c f480 153e
00000110: e956 28be b216 453e cab6 78bc a82b d7bd
00000120: 1062 eabd b3d6 30be 27b0 853d e610 303e
00000130: ad7a bebc 6c8c a13d 8e07 0f3e 9454 38be
00000140: e81e f2bd 4fa7 aa3b 499f c03d 46ca 19bd
00000150: 4a3c f5bc 1dbc d1bd cc46 23be 5fd5 ca3d
00000160: 78e8 b9bc eacd 2ebe e93a ac3d 7ca2 81bd
00000170: c908 dabd 10ed fa3d 7e53 aa3c 4d18 fcbb
00000180: eed0 0bbd cb9f 1a3e ba83 da3d 00af 41be
00000190: ed76 15be 3804 4a3d ea48 3fbe a014 28bc
000001a0: 68e6 9c3d 3d48 d9bd 5ac8 293e b393 133e
000001b0: 243a f83b 3add 0ebe ec4a d93c c7f8 b3bd
000001c0: 43b3 31be f34c f5bd 790b 803d 5b5e bbbc
000001d0: ff0b 143e b1d7 d83c 0e95 16be 726d bb3d
000001e0: 1921 e2bd 1e59 fabd 3232 153e 66fc 2bbd
000001f0: ee0f aebd df9c a1bd 7c5c bc3d 158f 993d
00000200: 902d 42bd 4a0d 0abe 3e5d af3d 7b90 84bc
00000210: f1dc 42be 3ad5 fa3d c22e 8d3d 4f38 afbd
00000220: d149 62bc 2852 803c fb2d 2d3e 1dfb 20bb
00000230: ac72 253e 6151 01be 4cdc 093c 2fc6 31bb
00000240: f088 643d 680f 8cbd 159b c9bd ac6f dabd
00000250: b59a 2c3d 6035 473e f859 25be 4408 11be
00000260: e40d a8bc b65a 13bd 6a32 e43d eca5 4c3e
00000270: c7c3 adbd 9def c3bc fdef 6abd 639c e4bd
00000280: 78c1 003e 24ca 293e 001f 0cbe d70c 863d
00000290: c164 313e d66f aabd 008c a73d 8425 1d3e
000002a0: 144f 79bb e520 afbd 864a 27be 4e9d 98bd
000002b0: 8035 c83d 1828 16be 91db 06be 621d 47be
000002c0: 1c90 043c c147 13be 04fc 383e 14d1 0bbd
000002d0: 88ad 8d3c d48c 04bd ae39 0dbe 7bc7 313d
000002e0: 6d5e c5bd 15f9 c6bc 6aac 7e3c 36d0 433e
000002f0: b4f3 1b3e e71a 6a3c 7623 14bc bf4a 06bc
00000300: dff3 e0bd e735 ffbc 673b 0e3e e952 173e
00000310: dc84 96bd e0de 23bd 49fb 8f3d 3934 e43d
00000320: 93cf 9ebc 8a36 d43a 6822 cd3b 5e95 233e
00000330: 24b5 8f3d bbe2 163e be96 23be 6c5f 9a3d
00000340: 3c04 2bbe 3450 133d a53f f23d aa11 c6bd
00000350: d25a 023e be94 773d 52a1 99bd 480e f4bd
00000360: 6c37 cbbd 3667 d1bd 775e 1dbe 966c 223e
00000370: e734 ef3d 449f 09be 826a 9a3c c0f6 54bd
00000380: 3a3b 463e 7d88 0bbe b979 173e 5844 debd
00000390: 517d 17be 1192 c8bc 0e16 e83d cf5c 953d
000003a0: ed5e 77bd 56cc a2bd e2d8 db3d ca88 04bd
000003b0: 8384 9fbd 0b09 3cbe cbd1 8cbd 05ce e73d
000003c0: 8e4d 013e c5c2 74bc 83f2 c4bd c4ab b03d
000003d0: 97d5 39be 9298 943d 9ca7 313e 94d6 f63d
000003e0: 5d4d f93d fb33 5c3d 88b4 083e dacf 8bbd
000003f0: ca2b 0d3d 679b 8abc 7b51 393e b7ed 743d

b1 f4 [128]
0.012949566 -0.0021126107 0.0036630272 -0.00891661 -0.012819632 -0.013216477 0.011660803 -0.0068951054
0.007186301 0.013032008 0.011588119 0.004964704 -0.0062476513 -0.00598733 0.004180142 0.025986128
-0.0080725495 -0.0036871135 -0.0018259987 0.018666003 -0.0030441298 0.000955528 -0.016073797 0.001473771
-0.01606293 0.006126358 -0.0004209121 0.026146034 -0.018303568 0.0037461938 0.0031770994 0.006715179
0.0034842761 -0.013484763 -0.010915717 -0.013708178 -0.017831191 -0.007530582 -0.0079843085 -0.0037781312
-0.0009801256 0.0054357774 -0.018120749 -0.0015812216 0.008620771 0.0026306703 0.006173558 0.009652386
0.008092018 -0.0021525295 -0.004535887 0.00221174 0.007191746 0.0010851099 -0.009453082 -0.008817063
-0.010666812 -0.0054955576 0.0018790682 -0.006835267 -0.0047734147 0.003217205 0.01463378 -0.018622784
0.00024167058 -0.005769709 -0.007532765 -0.027746879 0.0036972102 -0.0004515147 0.01604871 -0.002120361
-0.009943094 -0.012569461 -0.017979067 -0.0058221593 -0.00017740292 -0.0061356258 0.0044741845 0.0021269538
0.004839957 -0.019110948 0.005758341 -0.0065835183 0.01106577 0.009630983 -0.0006020658 -0.0084601855
-0.0075303214 -0.00511919 -0.0058433595 -0.006023731 -0.010143984 -0.023647206 -0.0051966514 0.0014885422
0.003264914 0.006799782 -0.007337727 0.006993734 0.0033759584 0.004159378 0.0070128227 0.0030809292
0.0050273454 0.0026511026 -0.008261081 -0.018408552 -0.005077574 0.0008766317 -0.0031261973 -0.0060628867
0.00868515 -0.013529479 0.0060837115 0.009394494 -0.019425128 -0.016190853 -0.006409266 0.00084811647
0.021367168 -0.0035754493 -0.011791051 -0.0032109066 0.013251001 0.0036458892 0.006229839 0.0063420236
00000000: 6b2a 543c ba73 0abb 660f 703b f916 12bc
00000010: 6f09 52bc ec89 58bc f40c 3f3c 56f0 e1bb
00000020: 107b eb3b 3484 553c 18dc 3d3c f5ae a23b
00000030: 19b9 ccbb 5d31 c4bb 93f9 883b dce0 d43c
00000040: ba42 04bc 80a3 71bb 5956 efba 72e9 983c
00000050: 0680 47bb 667c 7a3a 32ad 83bc 8c2b c13a
00000060: 6896 83bc 9ebf c83b dead dcb9 3530 d63c
00000070: 5df1 95bc b482 753b e236 503b 010b dc3b
00000080: 7458 643b 32ef 5cbc d6d7 32bc 4498 60bc
00000090: b812 92bc 1ac3 f6bb 9ed0 02bc 869a 77bb
000000a0: 8f77 80ba 9b1e b23b f771 94bc fe40 cfba
000000b0: 223e 0d3c 5367 2c3b 8f4b ca3b 0b25 1e3c
000000c0: 6294 043c 7411 0dbb c7a1 94bb d7f2 103b
000000d0: bda8 eb3b 3f3a 8e3a 1ae1 1abc 7175 10bc
000000e0: dac3 2ebc 1414 b4bb 114b f63a 60fa dfbb
000000f0: 4e6a 9cbb bed7 523b 86c2 6f3c cf8e 98bc
00000100: f468 7d39 d40f bdbb 6ad5 f6bb 6c4d e3bc
00000110: e54c 723b 47b9 ecb9 9678 833c c1f5 0abb
00000120: 5ce8 22bc 24f0 4dbc d648 93bc d0c7 bebb
00000130: 3c05 3ab9 5c0d c9bb 2e9c 923b 5d64 0b3b
00000140: 8198 9e3b 908e 9cbc 77b0 bc3b 8eba d7bb
00000150: 344d 353c 45cb 1d3c f4d3 1dba 979c 0abc
00000160: eac0 f6bb e1be a7bb a779 bfbb b862 c5bb
00000170: f432 26bc c9b7 c1bc ac48 aabb 301b c33a
00000180: 2bf8 553b b5d0 de3b 5171 f0bb b12b e53b
00000190: 2f3f 5d3b 644b 883b d2cb e53b 6ae9 493b
000001a0: 6ebc a43b 1fbe 2d3b 7c59 07bc 88cd 96bc
000001b0: c761 a6bb c2cd 653a e3e0 4cbb 2eab c6bb
000001c0: 294c 0e3c bfaa 5dbc df59 c73b 5deb 193c
000001d0: 7221 9fbc aea2 84bc d204 d2bb 2254 5e3a
000001e0: 330a af3c 1652 6abb 412f 41bc 136e 52bb
000001f0: ba1a 593c dfef 6e3b ad23 cc3b c0d0 cf3b
