saved_models/model-epoch-24.pth (torch, 21314 bytes, 19 tensors)

embeddings f4 [99, 8]
2.0379593 0.92377216 1.7336961 0.65552354 -0.31063026 1.3266257 0.3516981 1.6335659
0.983008 -0.93220305 1.3927145 0.82000905 0.6167281 0.78354657 1.3197094 3.4196975
1.4580246 1.550982 2.221539 -0.049920585 0.14258087 -0.015176923 0.7146394 -1.6855401
-1.3370436 -2.6400173 1.1039017 1.8176512 3.0626073 0.41964555 -1.499743 3.5669413
1.0693754 1.0604244 1.5886045 -0.32634583 -1.3167781 1.292825 -0.89165086 1.146689
1.3424475 0.53830665 1.018727 2.1230106 -2.9576256 1.5046977 -1.8515486 -0.6490808
1.2921063 -0.4933256 -0.19269538 4.1605563 -0.95741844 2.15051 -3.079906 -0.71242553
-0.4377005 -3.0611668 1.3282535 3.4164634 0.6852979 1.4927186 -4.0597515 1.9873675
1.878225 1.0549765 0.30225718 -1.6408206 -1.6334343 0.57415456 0.10076737 1.387998
0.39083168 -2.0622807 -0.010393146 -0.0024682693 0.18171775 1.317621 -2.415366 -0.14457573
0.019250322 -2.3940918 -0.83103794 3.422041 -1.5005851 2.784385 -1.8773203 1.4349642
-3.1693141 0.768759 -1.9929394 -2.9385521 2.1592329 -3.1675038 1.6735117 -0.34785393
0.59360194 -2.9010425 -1.4224906 2.8998337 -2.6350148 2.2809043 -0.009092117 1.7531986
0.9842686 -3.295215 0.8850356 4.673922 1.1281482 0.31537014 0.34332067 0.7253262
-1.6588495 0.34105447 -1.2152063 -0.007538491 2.1434655 -2.2544425 2.0551836 -1.9590098
1.817111 -0.60371906 0.606414 4.354989 -2.4273355 2.9017918 -2.3919492 -0.012513513
-0.46376023 -0.45060417 0.5967807 -1.8249408 1.2705778 -2.7525349 2.603555 1.1180674
1.0255482 -0.08695469 1.524502 0.1368397 1.7103164 1.9884791 -1.8201524 1.5512348
3.5599067 -1.7630093 2.3770285 0.62338066 0.12899102 1.7638474 0.43750688 3.3045604
1.4925244 2.6948574 0.9517743 0.08684804 -3.0773516 1.6527704 -2.4392383 0.19436997
-0.74243444 -1.180392 -1.2555201 -1.9544153 4.555828 -2.1105826 1.5052592 -1.3413512
2.5046084 1.9476359 1.6006181 0.4255833 -2.9535713 1.613684 -1.9070221 1.9109898
1.7345495 0.58637357 2.5798223 1.6973475 -1.5909756 1.9682597 -1.6284426 0.59442514
-1.3229786 -2.009187 -1.1524745 2.6018069 0.6635836 0.19030185 -3.1748738 0.62681234
-2.0608435 -2.4088674 -1.0522573 3.1092145 4.2697845 -3.9492137 2.4851048 -2.9575012
-2.7974896 3.4963696 -1.3362018 -2.2247574 1.4409345 -2.5009775 1.4163706 -2.0080175
0.46089676 0.8488187 1.6069263 -0.27272725 0.95918673 -0.87423784 0.8868134 -0.4843283
0.8477301 0.6473888 1.7988391 4.178844 0.2537313 0.43523377 -1.3062385 3.169435
0.67286456 -1.0068333 2.7496943 2.2664366 0.44756866 0.41016847 -1.7623781 1.7485857
-0.42234066 -1.1312792 1.0487171 1.7649078 0.8417756 0.7515924 -1.5881869 0.17518431
1.5483863 1.1838619 0.69381666 0.48140305 -1.7473282 1.002167 -0.7364574 1.3701504
0.83836615 -0.14175907 1.0305717 2.7766244 -1.2828397 2.1805987 -2.2062259 2.0446255
00000000: ed6d 0240 557c 6c3f c1e9 dd3f 64d0 273f
00000010: ee0a 9fbe dfce a93f c611 b43e b018 d13f
00000020: 6aa6 7b3f dca4 6ebf 7844 b23f 1dec 513f
00000030: e5e1 1d3f 8296 483f 3dec a83f 53dc 5a40
00000040: 8da0 ba3f 9486 c63f b22d 0e40 8779 4cbd
00000050: b800 123e a1a8 78bc 9cf2 363f c7bf d7bf
00000060: 3f24 abbf 0bf6 28c0 a74c 8d3f cba8 e83f
00000070: c201 4440 c8db d63e 94f7 bfbf c448 6440
00000080: 4be1 883f fdbb 873f 6457 cb3f cd16 a7be
00000090: 2f8c a8bf 4a7b a53f 3b43 64bf b5c6 923f
000000a0: 52d5 ab3f 77ce 093f a565 823f 68df 0740
000000b0: bd49 3dc0 ef99 c03f 8bff ecbf 292a 26bf
000000c0: bd63 a53f 2c95 fcbe f051 45be 4723 8540
000000d0: 6019 75bf f5a1 0940 2e1d 45c0 8561 36bf
000000e0: 481a e0be 28ea 43c0 3604 aa3f 56a7 5a40
000000f0: af6f 2f3f 6711 bf3f 7ce9 81c0 0f62 fe3f
00000100: ad69 f03f 7809 873f 74c1 9a3e 6906 d2bf
00000110: 6014 d1bf cbfb 123f 1f5f ce3d eba9 b13f
00000120: 171b c83e 68fc 03c0 0448 2abc b0c2 21bb
00000130: 3814 3a3e cea7 a83f 5b95 1ac0 a90b 14be
00000140: dab2 9d3c cd38 19c0 e7be 54bf b802 5b40
00000150: 2c13 c0bf 5d33 3240 084c f0bf e8ac b73f
00000160: 0bd6 4ac0 64cd 443f a318 ffbf 3d11 3cc0
00000170: df30 0a40 62b8 4ac0 a235 d63f e919 b2be
00000180: 4cf6 173f aeaa 39c0 2c14 b6bf e096 3940
00000190: 15a4 28c0 56fa 1140 1af7 14bc d068 e03f
000001a0: 07f9 7b3f cde4 52c0 b191 623f c590 9540
000001b0: 2967 903f 3278 a13e bac7 af3e faae 393f
000001c0: 2e55 d4bf b19e ae3e e18b 9bbf 7205 f7bb
000001d0: 8a2e 0940 c948 10c0 2188 0340 d5c0 fabf
000001e0: 1897 e83f 558d 1abf f33d 1b3f 125c 8b40
000001f0: 7759 1bc0 f5b6 3940 b215 19c0 7a05 4dbc
00000200: fb71 edbe 97b5 e6be 9fc6 183f a997 e9bf
00000210: 4ba2 a23f 8829 30c0 a5a0 2640 d51c 8f3f
00000220: 2a45 833f 4d15 b2bd e222 c33f b51f 0c3e
00000230: a6eb da3f 7c86 fe3f c1fa e8bf dd8e c63f
00000240: 83d5 6340 4aaa e1bf 3c21 1840 e095 1f3f
00000250: 3916 043e c0c5 e13f e700 e03e eb7d 5340
00000260: 0a0b bf3f 8b78 2c40 7ba7 733f 63dd b13d
00000270: 54f3 44c0 fb8d d33f 7b1c 1cc0 ec08 473e
00000280: 2f10 3ebf 1617 97bf e2b4 a0bf 482a fabf
00000290: 58c9 9140 c913 07c0 55ac c03f 65b1 abbf
000002a0: 814b 2040 224c f93f 0ee1 cc3f 0ee6 d93e
000002b0: 5007 3dc0 338d ce3f 4d19 f4bf 509b f43f
000002c0: b805 de3f 941c 163f cf1b 2540 af42 d93f
000002d0: 17a5 cbbf efef fb3f cf70 d0bf 3f2c 183f
000002e0: 5d57 a9bf 8596 00c0 4984 93bf 0184 2640
000002f0: 9de0 293f 7dde 423e 2231 4bc0 c676 203f
00000300: dce4 03c0 e22a 1ac0 5eb0 86bf 5ffd 4640
00000310: 13a2 8840 ebbf 7cc0 f50b 1f40 b347 3dc0
00000320: 120a 33c0 85c4 5f40 a908 abbf 6d62 0ec0
00000330: 8b70 b83f 0410 20c0 a24b b53f 5c83 00c0
00000340: a9fa eb3e 2f4c 593f c3af cd3f e8a2 8bbe
00000350: 438d 753f 0dce 5fbf 3406 633f e1f9 f7be
00000360: d704 593f 46bb 253f 5c40 e63f 17b9 8540
00000370: 12e9 813e f6d6 de3e d332 a7bf 06d8 4a40
00000380: da40 2c3f eadf 80bf fefa 2f40 4c0d 1140
00000390: b827 e53e 9a01 d23e 9b95 e1bf a8d1 df3f
000003a0: 093d d8be c2cd 90bf 5d3c 863f 80e8 e13f
000003b0: 9b7e 573f 5c68 403f b549 cbbf 8463 333e
000003c0: 8631 c63f c988 973f f89d 313f 767a f63e
000003d0: 73a8 dfbf 0247 803f 7988 3cbf 1761 af3f
000003e0: 2a9f 563f 4a29 11be c6e9 833f 37b4 3140
000003f0: 1734 a4bf ee8e 0b40 ce32 0dc0 25db 0240

_pos_embeds f4 [64, 8]
0.0 1.0 0.0 1.0 0.0 1.0 0.0 1.0
0.84147096 0.5403023 0.099833414 0.9950042 0.009999833 0.99995 0.0009999998 0.9999995
0.9092974 -0.41614684 0.19866933 0.9800666 0.019998666 0.9998 0.0019999987 0.999998
0.14112 -0.9899925 0.29552022 0.9553365 0.029995501 0.99955004 0.0029999956 0.9999955
-0.7568025 -0.6536436 0.38941833 0.921061 0.039989334 0.9992001 0.0039999895 0.999992
-0.9589243 0.2836622 0.47942555 0.87758255 0.04997917 0.99875027 0.0049999794 0.9999875
-0.2794155 0.96017027 0.5646425 0.8253356 0.059964005 0.99820054 0.005999964 0.999982
0.6569866 0.75390226 0.64421767 0.7648422 0.06994285 0.997551 0.006999943 0.9999755
0.98935825 -0.14550003 0.7173561 0.6967067 0.0799147 0.99680173 0.007999915 0.999968
0.4121185 -0.91113025 0.7833269 0.62161 0.08987855 0.9959527 0.008999879 0.9999595
-0.5440211 -0.8390715 0.84147096 0.5403023 0.099833414 0.9950042 0.009999833 0.99995
-0.9999902 0.004425698 0.89120734 0.45359612 0.1097783 0.9939561 0.010999778 0.9999395
-0.53657293 0.84385395 0.9320391 0.36235777 0.119712204 0.99280864 0.011999712 0.999928
0.42016703 0.9074468 0.9635582 0.26749882 0.12963414 0.9915619 0.012999634 0.9999155
0.9906074 0.13673721 0.98544973 0.16996714 0.13954312 0.990216 0.013999542 0.999902
0.65028787 -0.7596879 0.997495 0.0707372 0.14943813 0.9887711 0.014999437 0.9998875
-0.2879033 -0.9576595 0.9995736 -0.029199522 0.15931821 0.98722726 0.015999317 0.999872
-0.96139747 -0.27516335 0.9916648 -0.1288445 0.16918235 0.9855848 0.016999181 0.9998555
-0.75098723 0.6603167 0.9738476 -0.22720209 0.17902957 0.9838437 0.017999029 0.999838
0.1498772 0.9887046 0.9463001 -0.32328957 0.1888589 0.9820042 0.018998858 0.9998195
0.9129453 0.40808207 0.9092974 -0.41614684 0.19866933 0.9800666 0.019998666 0.9998
0.8366556 -0.54772925 0.86320937 -0.5048461 0.2084599 0.9780309 0.020998457 0.9997795
-0.008851309 -0.99996084 0.8084964 -0.5885011 0.21822962 0.97589743 0.021998225 0.999758
-0.84622043 -0.53283304 0.7457052 -0.66627604 0.22797753 0.97366637 0.022997972 0.99973553
-0.9055784 0.42417902 0.6754632 -0.73739374 0.23770262 0.971338 0.023997696 0.999712
-0.13235176 0.99120283 0.5984721 -0.8011436 0.24740396 0.9689124 0.024997396 0.9996875
0.76255846 0.6469193 0.5155014 -0.8568888 0.25708055 0.96638995 0.02599707 0.99966204
0.95637596 -0.29213881 0.42737988 -0.90407217 0.26673144 0.9637709 0.026996719 0.9996355
0.2709058 -0.9626059 0.33498815 -0.94222236 0.27635565 0.96105546 0.02799634 0.99960804
-0.6636339 -0.74805754 0.23924933 -0.9709582 0.2859522 0.95824385 0.028995935 0.99957955
-0.9880316 0.15425146 0.14112 -0.9899925 0.29552022 0.9553365 0.029995501 0.99955004
-0.40403765 0.91474235 0.041580662 -0.99913514 0.30505863 0.95233357 0.030995036 0.9995195
00000000: 0000 0000 0000 803f 0000 0000 0000 803f
00000010: 0000 0000 0000 803f 0000 0000 0000 803f
00000020: a46a 573f 4051 0a3f 7675 cc3d 98b8 7e3f
00000030: 57d6 233c b9fc 7f3f 6d12 833a f8ff 7f3f
00000040: b7c7 683f 3311 d5be f96f 4b3e a5e5 7a3f
00000050: 3ed4 a33c e5f2 7f3f 6912 033b deff 7f3f
00000060: c381 103e 2670 7dbf 6d4e 973e ef90 743f
00000070: 20b9 f53c 83e2 7f3f 939b 443b b5ff 7f3f
00000080: cfbd 41bf 3055 27bf d761 c73e a7ca 6b3f
00000090: dbcb 233d 94cb 7f3f 5812 833b 7aff 7f3f
000000a0: 107c 75bf 2c3c 913e 4477 f53e 40a9 603f
000000b0: f5b6 4c3d 19ae 7f3f ded6 a33b 2eff 7f3f
000000c0: 8c0f 8fbe b8cd 753f 698c 103f 3249 533f
000000d0: d19c 753d 128a 7f3f 599b c43b d2fe 7f3f
000000e0: 4630 283f bdff 403f 73eb 243f b3cc 433f
000000f0: 323e 8f3d 815f 7f3f c75f e53b 65fe 7f3f
00000100: 9546 7d3f f6fd 14be a6a4 373f 5f5b 323f
00000110: 51aa a33d 662e 7f3f 1312 033c e7fd 7f3f
00000120: 3201 d33e d53f 69bf 1d88 483f d521 1f3f
00000130: 3f12 b83d c2f6 7e3f 3a74 133c 59fd 7f3f
00000140: f844 0bbf 64cd 56bf a46a 573f 4051 0a3f
00000150: 7675 cc3d 98b8 7e3f 57d6 233c b9fc 7f3f
00000160: 5cff 7fbf 7205 913b 2a26 643f c03d e83e
00000170: 72d3 e03d e873 7e3f 6a38 343c 09fc 7f3f
00000180: d85c 09bf d006 583f 1d9a 6e3f f586 b93e
00000190: ac2b f53d b528 7e3f 719a 443c 48fb 7f3f
000001a0: 2220 d73e 6f4e 683f c0ab 763f 9bf5 883e
000001b0: d0be 043e 00d7 7d3f 6bfc 543c 76fa 7f3f
000001c0: 7298 7d3f d704 0c3e 6f46 7c3f de0b 2e3e
000001d0: 64e4 0e3e cc7e 7d3f 565e 653c 94f9 7f3f
000001e0: 4479 263f e87a 42bf d55b 7f3f aade 903d
000001f0: 4f06 193e 1a20 7d3f 33c0 753c a1f8 7f3f
00000200: 1068 93be 2c29 75bf 0ee4 7f3f d633 efbc
00000210: 5024 233e edba 7c3f 0011 833c 9df7 7f3f
00000220: 251e 76bf 36e2 8cbe bfdd 7d3f d0ef 03be
00000230: 233e 2d3e 494f 7c3f de41 8b3c 88f6 7f3f
00000240: b340 40bf 840a 293f 144e 793f aaa7 68be
00000250: 8753 373e 2edd 7b3f b372 933c 62f5 7f3f
00000260: 6979 193e bf1b 7d3f b940 723f 3686 a5be
00000270: 3a64 413e a164 7b3f 7ea3 9b3c 2cf4 7f3f
00000280: c8b6 693f 22f0 d03e b7c7 683f 3311 d5be
00000290: f96f 4b3e a5e5 7a3f 3ed4 a33c e5f2 7f3f
000002a0: 102f 563f fc37 0cbf 4afb 5c3f 983d 01bf
000002b0: 8376 553e 3c60 7a3f f504 ac3c 8df1 7f3f
000002c0: 1505 11bc 6ffd 7fbf 9ff9 4e3f 02a8 16bf
000002d0: 9677 5f3e 6ad4 793f 9f35 b43c 24f0 7f3f
000002e0: e7a1 58bf bf67 08bf 89e6 3e3f 1191 2abf
000002f0: f172 693e 3342 793f 3e66 bc3c abee 7f3f
00000300: fcd3 67bf fe2d d93e 28eb 2c3f d6c5 3cbf
00000310: 5168 733e 9ba9 783f d196 c43c 20ed 7f3f
00000320: 3887 07be 78bf 7d3f 7835 193f bf17 4dbf
00000330: 7757 7d3e a50a 783f 57c7 cc3c 85eb 7f3f
00000340: 0837 433f 819c 253f e6f7 033f 105d 5bbf
00000350: 10a0 833e 5565 773f cff7 d43c dae9 7f3f
00000360: 0ed5 743f 3893 95be 89d1 da3e 4671 67bf
00000370: 0691 883e b1b9 763f 3928 dd3c 1de8 7f3f
00000380: 2ab4 8a3e 576d 76bf 9183 ab3e 7c35 71bf
00000390: 7d7e 8d3e bb07 763f 9558 e53c 50e6 7f3f
000003a0: e9e3 29bf b380 3fbf c7fd 743e b790 78bf
000003b0: 5468 923e 784f 753f e288 ed3c 72e4 7f3f
000003c0: a4ef 7cbf 18f4 1d3e c381 103e 2670 7dbf
000003d0: 6d4e 973e ef90 743f 20b9 f53c 83e2 7f3f
000003e0: 06de cebe 8e2c 6a3f 7c50 2a3d 52c7 7fbf
000003f0: a530 9c3e 22cc 733f 4de9 fd3c 83e0 7f3f

W f4 [8, 8]
-0.7474728 0.021123279 3.4086194 0.34574944 -0.8817082 2.2486296 0.7059496 -0.32153505
2.9915419 0.9295518 0.6628892 -2.7045946 -0.8486912 -1.7191874 1.3181437 -0.78758925
5.369199 4.5629597 1.2156014 -3.4855144 -3.3021247 0.6719363 2.8390281 -3.858743
2.0756822 0.47164482 1.4799845 -0.43066847 -0.44544977 0.07581966 -0.18085238 -0.18926309
-5.0762177 -3.3167837 -2.6238687 4.779661 3.6398032 -0.65519035 -3.4798255 3.4280157
-1.782683 -3.129514 -0.8437782 2.6770816 2.1964087 -2.0200303 -1.9590958 2.695901
6.1311784 5.598162 2.8741508 -5.3162823 -3.7571452 1.0159999 4.551487 -5.1219482
-1.1658461 -0.1776386 -1.4774871 0.4088431 0.7568446 0.392536 -0.2364133 0.33630735
00000000: 615a 3fbf ba0a ad3c d226 5a40 1206 b13e
00000010: a1b7 61bf 8ce9 0f40 1db9 343f 3ea0 a4be
00000020: 6c75 3f40 1bf7 6d3f 1bb3 293f 1418 2dc0
00000030: d443 59bf 550e dcbf efb8 a83f 739f 49bf
00000040: 7ad0 ab40 c403 9240 d498 9b3f ab12 5fc0
00000050: 0356 53c0 0404 2c3f a3b2 3540 a5f5 76c0
00000060: fad7 0440 6e7b f13e 2270 bd3f 9480 dcbe
00000070: fe11 e4be 5747 9b3d 5e31 39be 2fce 41be
00000080: 6070 a2c0 2f46 54c0 77ed 27c0 fcf2 9840
00000090: 89f2 6840 8eba 27bf 76b5 5ec0 9c64 5b40
000000a0: f52e e4bf f549 48c0 d901 58bf 4e55 2b40
000000b0: f691 0c40 2d48 01c0 a7c3 fabf a489 2c40
000000c0: 9d32 c440 2524 b340 16f2 3740 fc1e aac0
000000d0: 1175 70c0 490c 823f c8a5 9140 00e7 a3c0
000000e0: 723a 95bf e5e6 35be 4c1e bdbf e253 d13e
000000f0: 91c0 413f 7bfa c83e 5416 72be 7a30 ac3e

b f4 [8]
0.07403541 -0.9894602 -3.48624 -0.32044852 3.1093478 2.236191 -4.7265286 0.6256721
00000000: e19f 973d 434d 7dbf 8e1e 5fc0 d411 a4be
00000010: 8eff 4640 c11d 0f40 b93f 97c0 0c2c 203f

W f4 [8, 8]
-2.410832 4.0877867 -0.31051645 -1.935961 2.0833704 -4.2272973 2.537705 -2.1494637
-0.054567885 0.29831222 -5.6342278 -1.5622598 -2.859306 -1.2112993 -1.4207613 -0.7359454
-0.47492278 3.4840677 0.8707448 -1.7727953 1.1667665 -3.329977 1.2840875 -2.6791925
-0.91394305 2.1640887 -5.707532 -3.4444735 -0.7847463 -2.862914 1.7243581 -3.1957603
0.07343475 -2.0187168 -3.476084 -0.40784413 -2.8449798 0.12923153 -1.958506 -0.065274194
0.1887991 -0.8700066 1.1159927 3.1098378 0.25058317 2.5293307 -0.6426683 1.3120292
-0.11669901 -0.038638767 0.2844849 0.32942393 0.7963562 0.062788785 -1.5013855 -0.31431943
0.55780506 -1.1745428 0.30556995 1.9887445 -0.58513105 1.9874597 -0.6989202 1.7664561
00000000: 124b 1ac0 26cf 8240 03fc 9ebe 92cd f7bf
00000010: f155 0540 0546 87c0 c269 2240 d090 09c0
00000020: 9382 5fbd 61bc 983e 984b b4c0 21f8 c7bf
00000030: dffe 36c0 db0b 9bbf 82db b5bf eb66 3cbf
00000040: 1429 f3be f7fa 5e40 22e9 5e3f f5ea e2bf
00000050: 9b58 953f 581e 55c0 fb5c a43f e477 2bc0
00000060: 2cf8 69bf 6e80 0a40 1aa4 b6c0 4172 5cc0
00000070: 22e5 48bf fc39 37c0 c4b7 dc3f 5687 4cc0
00000080: f564 963d a832 01c0 2978 5ec0 f2d0 d0be
00000090: 2614 36c0 4555 043e 53b0 fabf 7aae 85bd
000000a0: 8d54 413e c1b8 5ebf d9d8 8e3f 9507 4740
000000b0: 704c 803e 8ee0 2140 e985 24bf 93f0 a73f
000000c0: e4ff eebd af43 1ebd 01a8 913e 41aa a83e
000000d0: 00de 4b3f 6897 803d 662d c0bf 7aee a0be
000000e0: 50cc 0e3f 6b57 96bf aa73 9c3e 2e8f fe3f
000000f0: 26cb 15bf 1465 fe3f 6fec 32bf 3c1b e23f

b f4 [8]
-0.072008334 -2.0721295 -0.19826044 -3.0194178 -1.4932443 0.50782484 -0.48361683 0.030009339
00000000: 1b79 93bd c59d 04c0 c904 4bbe 243e 41c0
00000010: a122 bfbf cf00 023f a09c f7be 25d6 f53c

W f4 [8, 8]
6.140355 -0.9911192 0.46128243 -5.0075374 -3.4591901 3.4820638 -2.6977925 2.0297644
1.4353265 3.0380416 0.957632 -2.44462 -3.9490955 3.1088543 -1.5503676 0.2154286
3.9626803 -1.0665723 -0.8842202 -3.9940896 -1.8033637 2.4316869 -1.6931835 1.8523655
3.3674157 2.85961 0.81737334 -4.999561 -4.518732 3.3158226 -2.5800016 2.2264948
-1.2859983 4.259121 -1.0413852 -0.5673018 -0.6944342 0.02402782 0.1814688 -1.2960472
-1.4860146 -0.42726025 0.19124879 2.9679184 2.8820338 -2.636647 1.7097095 -1.6952268
0.19019979 0.1840879 -0.5970001 0.4610801 1.2663636 -1.0637056 1.3072184 -0.32427564
-1.5727205 0.22858608 0.46286565 3.1351826 2.059668 -2.0509279 1.2728693 -1.6508899
00000000: ca7d c440 fdb9 7dbf 362d ec3e bf3d a0c0
00000010: 5f63 5dc0 22da 5e40 a2a8 2cc0 a9e7 0140
00000020: c7b8 b73f 466f 4240 5f27 753f a774 1cc0
00000030: fbbd 7cc0 78f7 4640 7272 c6bf 5199 5c3e
00000040: 8e9c 7d40 7185 88bf 415c 62bf 2a9f 7fc0
00000050: 9fd4 e6bf c2a0 1b40 3dba d8bf 501a ed3f
00000060: bd83 5740 da03 3740 613f 513f 67fc 9fc0
00000070: 7499 90c0 7036 5440 bf1e 25c0 e47e 0e40
00000080: 989b a4bf b84a 8840 1c4c 85bf b13a 11bf
00000090: 71c6 31bf fed5 c43c f5d2 393e e0e4 a5bf
000000a0: ba35 bebf dbc1 dabe b9d6 433e 60f2 3d40
000000b0: 3e73 3840 d3be 28c0 c3d7 da3f 31fd d8bf
000000c0: bcc3 423e 8a81 3c3e 00d5 18bf b112 ec3e
000000d0: 3418 a23f 8127 88bf ef52 a73f 7507 a6be
000000e0: e84e c9bf 7812 6a3e bafc ec3e d5a6 4840
000000f0: 9ad1 0340 6742 03c0 62ed a23f 5c50 d3bf

b f4 [8]
-0.0022149945 -0.0073744827 0.0069196415 0.0076650903 0.009463655 -0.007064919 0.0047539105 0.0043488233
00000000: 7129 11bb a5a5 f1bb 29be e23b 702b fb3b
00000010: 720d 1b3c d680 e7bb b1c6 9b3b 9380 8e3b

W f4 [8, 8]
-2.8278575 5.2844825 5.290967 -1.5149266 -4.462435 -4.898247 4.8669043 0.09971117
1.1837521 -1.2217598 -1.1250062 -0.6995603 0.9403023 -1.0158414 -0.531824 0.36223334
-1.1994776 4.711123 4.2872305 -2.8381171 -4.3560634 -4.6867566 4.3610706 2.5221896
2.1939352 -2.9211385 -5.0240264 -1.0099624 4.1453137 3.5551639 -4.171467 0.70056814
-4.2140417 3.2487245 2.184078 -0.32617143 -2.9415717 -1.6048436 3.2405224 -0.82976645
2.1578429 1.9355397 1.1501833 0.49064496 -0.7372125 -2.1420355 1.4424642 0.6217453
-1.5865844 -2.1871862 -0.35441482 0.020641586 0.43287125 0.38259482 -1.0618914 -0.04498857
-1.5233308 4.253009 4.1138115 0.22118871 -4.6317563 -2.7395048 3.1861708 0.3597575
00000000: 9efb 34c0 7b1a a940 9a4f a940 1de9 c1bf
00000010: 44cc 8ec0 70be 9cc0 aebd 9b40 5f35 cc3d
00000020: 3085 973f a062 9cbf 3400 90bf 6216 33bf
00000030: a7b7 703f 1707 82bf 9e25 08bf a676 b93e
00000040: 7b88 99bf 85c1 9640 fe30 8940 b6a3 35c0
00000050: df64 8bc0 e9f9 95c0 e48d 8b40 8e6b 2140
00000060: 6f69 0c40 eff3 3ac0 d3c4 a0c0 7346 81bf
00000070: 69a6 8440 ce87 6340 a87c 85c0 6f58 333f
00000080: 6ed9 86c0 1aeb 4f40 efc7 0b40 f1ff a6be
00000090: b642 3cc0 846b cdbf b864 4f40 936b 54bf
000000a0: 191a 0a40 c4bf f73f 3539 933f d135 fb3e
000000b0: f5b9 3cbf 1c17 09c0 aba2 b83f b32a 1f3f
000000c0: 3315 cbbf dcfa 0bc0 dc75 b5be 8b18 a93c
000000d0: 4da1 dd3e 78e3 c33e 0fec 87bf ef45 38bd
000000e0: 81fc c2bf a618 8840 58a4 8340 4b7f 623e
000000f0: 5937 94c0 0c54 2fc0 39ea 4b40 2332 b83e

b f4 [8]
-3.9253862 -0.29924047 -2.7119293 2.908562 -0.53584343 -0.10994071 0.023888618 -2.1491427
00000000: 8739 7bc0 0c36 99be 4090 2dc0 e125 3a40
00000010: 092d 09bf 9828 e1bd 10b2 c33c 8e8b 09c0

weight f4 [8]
2.8624413 -1.9216083 0.5884729 8.2825775 -0.6972011 -0.40098614 0.89618456 -3.4592655
00000000: 3d32 3740 43f7 f5bf 29a6 163f 7085 0441
00000010: c57b 32bf 0e4e cdbe 5a6c 653f 9b64 5dc0

bias f4 [8]
-4.6544323 -2.6815197 -0.8761838 6.2594905 2.2750103 1.439749 1.4759814 7.28726
00000000: 1cf1 94c0 059e 2bc0 954d 60bf bf4d c840
00000010: c599 1140 b249 b83f f5ec bc3f 3c31 e940

W1 f4 [8, 32]
-0.040799707 0.089177005 -0.91538393 -2.356332 0.46867946 0.61922204 -6.412097 -1.5406103
-0.16293916 1.2612851 1.0685709 0.7954493 -0.47746345 -0.69356155 0.29257107 -11.248684
1.6387033 -0.22350925 10.539952 -0.20765679 -2.5499945 0.6448107 0.06969897 0.8508367
0.09852322 1.5488877 1.0320827 -0.17344587 3.2824254 -1.1642584 1.0702536 0.47810316
1.5271586 1.1931581 -4.184411 -2.806736 1.6969639 0.28752327 -2.3485858 0.47224286
-0.2274858 2.0210414 2.4237318 0.103083454 0.14193851 0.8322348 -0.05553409 -8.770336
4.4395123 -0.030206475 1.4905515 -1.0247653 -3.708272 1.8480232 0.49232316 2.3145406
0.4137899 -1.1435847 0.15274861 -0.54218537 1.0522796 -0.9694223 2.9984586 -0.09180718
-0.41168633 1.4093175 -0.25122502 -1.4417881 -0.6657156 1.457206 -5.6945314 -0.58427036
0.9224428 1.1498244 1.3769412 -0.09749538 0.04117405 0.11435517 1.2097535 -10.035631
-0.021856258 -0.15522668 9.960832 0.5400234 -1.8653907 0.94060624 0.79478127 0.6374847
0.90942276 1.5262808 2.1376193 -0.43388203 3.8397782 0.25612935 1.6338719 0.8081199
0.027154667 -1.7158754 1.6012245 1.5787159 -0.26882914 -1.4736267 7.522935 0.79867184
-0.39449385 -0.9962827 -1.2157108 0.11957348 -2.2212043 -0.35556 -0.3917133 14.388154
-4.409863 -1.056344 -6.877344 -0.4116247 2.0138698 0.52385145 -0.00029085745 0.1039333
-0.49233335 -1.0500624 -0.72331 -1.7733562 -1.664799 -0.6357884 -0.011936946 -1.4115524
-0.4277354 -0.85628474 3.949307 3.0255568 -1.2908809 -0.45891 3.59281 2.3417773
0.35205007 -2.0911126 0.0017441369 -0.8015626 -2.2202132 0.025681447 2.9437993 8.742037
-2.201933 -2.275405 -0.20245023 -0.3556762 2.5591526 -1.1696125 1.3397683 -2.7495654
-0.25145832 -2.4563568 0.45268762 1.5301765 0.7296281 -0.31293902 -1.7857316 -1.0821661
-0.62105715 -3.786796 0.011289162 0.18980129 -0.68642247 0.98206186 6.2980633 4.443404
1.4772886 -1.1390543 -1.5765439 -1.7121682 -0.66582924 -1.217066 -1.8101032 8.773242
-2.0129938 -2.2636755 -2.4626343 -0.9228416 3.0549026 -1.8604316 -0.33987585 -1.1216137
0.45874584 0.07181722 1.6350019 1.4652623 -0.821784 0.11687262 -0.6951336 -0.5041075
0.20091061 0.061392464 2.2503345 3.016037 -0.8267762 -3.208494 1.1747744 -0.35687932
-2.1498423 -3.1801493 -1.2874947 -0.61816674 0.49508882 -1.3508064 1.6494863 5.688932
-1.5432944 0.76659787 -7.8778973 0.68462855 2.0512075 -1.4478265 0.9008792 -2.1993232
-2.3380873 -0.8519968 -3.4099588 1.3818457 -5.188186 0.052476995 -2.9207404 -1.4805455
0.224087 -3.235123 2.1952558 1.8671564 -0.66804963 -2.0578797 4.7803617 -0.27618253
-0.06187924 -2.5230653 -1.5090054 -0.18949986 -0.19028306 -0.6911321 -1.3336612 12.111945
-3.6853426 0.86063045 -2.9616854 -0.64177483 2.0669582 -0.50216997 -0.25366822 -0.29370648
-0.62601244 0.74385846 -0.63963056 0.096018605 -1.3241187 -0.13158149 -2.4713712 -1.2315745
00000000: 981d 27bd 6fa2 b63d 9a56 6abf 25ce 16c0
00000010: c1f6 ef3e 5685 1e3f e62f cdc0 b832 c5bf
00000020: 86d9 26be ca71 a13f eec6 883f 91a2 4b3f
00000030: 1776 f4be 408d 31bf e0cb 953e 9cfa 33c1
00000040: 08c1 d13f 9cdf 64be a5a3 2841 fba3 54be
00000050: 1c33 23c0 5012 253f 55be 8e3d 6fd0 593f
00000060: 8bc6 c93d f441 c63f 491b 843f cb9b 31be
00000070: 4213 5240 6b06 95bf 12fe 883f f0c9 f43e
00000080: ef79 c33f 68b9 983f b2e6 85c0 90a1 33c0
00000090: 1d36 d93f 4036 933e 3b4f 16c0 d1c9 f13e
000000a0: 0af2 68be be58 0140 6c1e 1b40 6b1d d33d
000000b0: 5458 113e 570d 553f b777 63bd 4c53 0cc1
000000c0: 7c10 8e40 9273 f7bc 64ca be3f 822b 83bf
000000d0: 5454 6dc0 068c ec3f c811 fc3e 6f21 1440
000000e0: 45dc d33e fc60 92bf 226a 1c3e a9cc 0abf
000000f0: 19b1 863f 0f2c 78bf bfe6 3f40 6705 bcbd
00000100: 8dc8 d2be 8464 b43f 91a0 80be 838c b8bf
00000110: 566c 2abf ba85 ba3f 9a39 b6c0 be92 15bf
00000120: 3625 6c3f 722d 933f 9c3f b03f a8ab c7bd
00000130: 1fa6 283d 0b33 ea3d 34d9 9a3f f291 20c1
00000140: e50b b3bc bef3 1ebe 915f 1f41 f93e 0a3f
00000150: 1fc5 eebf 92cb 703f c976 4b3f 3332 233f
00000160: eecf 683f 2b5d c33f c1ce 0840 c925 debe
00000170: edbe 7540 6323 833e b722 d13f f2e0 4e3f
00000180: 7773 de3c cea1 dbbf edf4 cc3f 5d13 ca3f
00000190: f9a3 89be cd9f bcbf e2bb f040 c275 4c3f
000001a0: 19fb c9be 620c 7fbf 699c 9bbf f1e2 f43d
000001b0: 3628 0ec0 f60b b6be a58e c8be e135 6641
000001c0: 991d 8dc0 4836 87bf 3413 dcc0 79c0 d2be
000001d0: 3ee3 0040 211b 063f 3a7e 98b9 fbda d43d
000001e0: 1e13 fcbe 7268 86bf d82a 39bf 56fd e2bf
000001f0: 2218 d5bf 07c3 22bf 2e93 43bc c0ad b4bf
00000200: 2200 dbbe 7a35 5bbf 72c1 7c40 b9a2 4140
00000210: 963b a5bf 40f6 eabe 99f0 6540 aedf 1540
00000220: e83f b43e cad4 05c0 869b e43a 3533 4dbf
00000230: f917 0ec0 e661 d23c 3567 3c40 62df 0b41
00000240: 78ec 0cc0 3ca0 11c0 1d4f 4fbe 311b b6be
00000250: 28c9 2340 ddb5 95bf 877d ab3f e1f8 2fc0
00000260: 25bf 80be f334 1dc0 acc6 e73e d3dc c33f
00000270: e8c8 3a3f 8b39 a0be da92 e4bf 6b84 8abf
00000280: 9afd 1ebf de5a 72c0 2df6 383c 455b 423e
00000290: 62b9 2fbf 6868 7b3f bc89 c940 5e30 8e40
000002a0: cb17 bd3f 88cc 91bf 31cc c9bf 5428 dbbf
000002b0: c973 2abf d2c8 9bbf 76b1 e7bf 335f 0c41
000002c0: e4d4 00c0 0fe0 10c0 cd9b 1dc0 593f 6cbf
000002d0: 8683 4340 9f22 eebf 3504 aebe 0a91 8fbf
000002e0: bce0 ea3e e814 933d be47 d13f b78d bb3f
000002f0: 7060 52bf ea5a ef3d 47f4 31bf 300d 01bf
00000300: 83bb 4d3e aa76 7b3d 7b05 1040 c006 4140
00000310: 9ba7 53bf f757 4dc0 025f 963f e3b8 b6be
00000320: 0497 09c0 9187 4bc0 a0cc a4bf 2d40 1ebf
00000330: 487c fd3e 39e7 acbf 5e22 d33f bb0b b640
00000340: ac8a c5bf c23f 443f bc17 fcc0 d143 2f3f
00000350: fc46 0340 6152 b9bf 05a0 663f b6c1 0cc0
00000360: 39a3 15c0 761c 5abf c43c 5ac0 52e0 b03f
00000370: 9f05 a6c0 1ef2 563d 69ed 3ac0 8482 bdbf
00000380: 1077 653e 410c 4fc0 127f 0c40 fbfe ee3f
00000390: 4d05 2bbf 4db4 03c0 b9f8 9840 cc67 8dbe
000003a0: 1675 7dbd e779 21c0 1727 c1bf 400c 42be
000003b0: 90d9 42be 09ee 30bf 69b5 aabf 87ca 4141
000003c0: a7dc 6bc0 4752 5c3f 418c 3dc0 5b4b 24bf
000003d0: 0b49 0440 368e 00bf cde0 81be b260 96be
000003e0: 5a42 20bf 826d 3e3f d4be 23bf 67a5 c43d
000003f0: b97c a9bf 4cbd 06be f22a 1ec0 3ca4 9dbf

b1 f4 [32]
-0.47464278 -1.4020878 1.9369868 1.8041183 -1.3801514 -4.1926403 4.354633 -1.6611886
-0.93935806 -2.602823 -1.9103357 -1.2697695 -1.9750599 -1.7233571 0.636253 11.2182865
-2.3587253 -2.7458797 -0.63027495 -0.21430166 1.4242374 -1.0157945 -0.61068016 -1.2235982
-1.1834141 -2.37698 -1.3529632 0.75569856 -1.3733585 -1.8339424 -1.8641789 -2.47572
00000000: 6104 f3be 9d77 b3bf 2fef f73f 59ed e63f
00000010: cda8 b0bf 1c2a 86c0 2759 8b40 d4a1 d4bf
00000020: c579 70bf a794 26c0 e185 f4bf cf87 a2bf
00000030: c3ce fcbf f796 dcbf 7ae1 223f 1a7e 3341
00000040: 5bf5 16c0 7ebc 2fc0 b359 21bf e571 5bbe
00000050: 694d b63f 8e05 82bf 8955 1cbf de9e 9cbf
00000060: 1d7a 97bf 7120 18c0 e62d adbf 7675 413f
00000070: 36ca afbf a0be eabf 6a9d eebf 3272 1ec0

W2 f4 [32, 8]
0.46536767 0.71551317 0.18138495 0.9393223 0.22798572 0.16289042 -1.39222 0.31562424
1.9617865 -0.82141757 -0.5861171 2.0938413 -2.0314324 1.4161243 -2.6105492 -0.90879786
-3.1624782 -0.9762171 -1.9901538 -13.839552 -0.50567603 -1.9636486 11.679653 -0.94486034
-3.7328076 2.5575671 0.6053354 -2.896317 1.6996634 -1.3104838 4.6559386 4.5382357
0.7002226 3.7295442 1.4581223 -4.8540792 2.8352647 0.59975946 -3.6995223 2.4513001
4.396595 2.2015908 1.9944198 6.9017124 -1.0251098 1.9174173 -6.1565514 -0.11138715
-2.5150723 -1.8057606 -1.6891772 -18.080265 -0.7589042 -1.8974295 15.278028 -1.475538
-0.7078084 -0.14800562 -1.0165541 5.6981254 -0.57120883 -2.0328193 -2.6980968 0.66783404
-0.631436 0.20115378 -1.3614473 -6.286494 -0.6699458 2.0805163 -2.3124626 -0.5631368
3.9712849 0.56482387 1.400294 4.7012568 -0.3474869 2.4544654 -1.8502289 2.2473938
1.0161825 0.6539525 -0.4070777 -0.11057495 -1.1721683 1.722782 -0.056685083 0.27772367
-0.013015106 0.3565667 0.4972257 3.2342966 0.29372233 -0.68304586 -3.08861 1.8400378
1.0455893 1.6635519 3.082408 0.6980425 3.6135874 0.7232092 -3.8793955 4.286077
-1.6800872 0.20242052 -1.0358961 4.15563 -0.025947535 -1.3298163 -0.17077099 0.6029867
-0.9537028 0.21451595 -0.91739154 -9.246907 -1.8226991 1.3205565 2.7440186 -0.22893932
-2.9316888 -1.567539 -1.8508016 -21.530895 -1.6451534 -1.8053204 15.174236 -2.042363
3.20121 -0.053725 0.53939277 10.894288 -1.1659867 1.2764977 -11.696514 2.0199823
1.3717991 3.409764 1.6953357 -4.0699005 4.5560384 2.1902988 -7.0335665 5.1624055
1.5352329 0.69710517 -0.17427342 11.781252 -1.0912287 1.5948076 -17.623148 0.055331953
0.11516835 -0.050076604 -2.6485605 -0.735654 -0.6019717 -0.27374253 5.676872 0.3180811
2.642416 1.5756298 1.6417109 -11.475233 3.9686873 -0.13595887 -5.541494 2.2183642
0.14890268 -0.7744852 0.20390981 4.771425 0.4026417 -0.78139085 -7.6524835 1.4708344
-0.74587864 0.31183118 -0.072605506 -4.3899026 0.26892844 0.8294092 -4.334818 -0.38754898
1.5251622 -0.039034884 2.3803968 2.4396873 -0.5994955 -1.2567948 -7.6356096 1.8735046
0.50392145 2.5488591 2.709141 -3.1703594 3.180086 0.18118635 -5.165747 2.456415
1.7308705 -1.0551777 0.4052576 -0.6953626 -0.001105642 2.1884737 -1.9830447 -0.97545224
0.201284 0.44972205 0.66499424 -0.030161655 -1.7541844 2.3095148 -3.7108388 -0.16910137
1.0825084 1.5717678 0.38824433 0.14943741 -1.3734568 2.0345814 -8.267259 0.29443297
1.5614123 0.6014416 0.32904994 7.299559 -1.6822705 0.5253007 -11.997142 -0.42016137
1.4333104 2.7851722 1.9450239 -1.3599247 4.634028 1.809866 -3.8691413 4.884327
3.1241019 0.5219282 0.50232327 3.8757434 0.81463504 1.6664332 -8.389597 0.036861077
1.15917 0.5287493 2.1285954 -2.2448444 -1.0635341 0.9361194 -0.4701873 2.6944308
00000000: ac44 ee3e df2b 373f fabc 393e 6d77 703f
00000010: 1775 693e bfcc 263e 4434 b2bf 8099 a13e
00000020: d21b fb3f 6c48 52bf c50b 16bf 7f01 0640
00000030: fd02 02c0 9043 b53f 3d13 27c0 faa6 68bf
00000040: 0b66 4ac0 5de9 79bf 5cbd febf ce6e 5dc1
00000050: fc73 01bf d658 fbbf dcdf 3a41 5ee2 71bf
00000060: 52e6 6ec0 2eaf 2340 43f7 1a3f 425d 39c0
00000070: 928e d93f efbd a7bf 73fd 9440 3a39 9140
00000080: ca41 333f dab0 6e40 c0a3 ba3f 9e54 9bc0
00000090: fa74 3540 d689 193f f9c4 6cc0 1ae2 1c40
000000a0: e8b0 8c40 dde6 0c40 2649 ff3f d4da dc40
000000b0: cc36 83bf ee6d f53f 7802 c5c0 f21e e4bd
000000c0: f2f6 20c0 2a23 e7bf f536 d8bf 62a4 90c1
000000d0: 8c47 42bf f8de f2bf cd72 7441 6ede bcbf
000000e0: ee32 35bf c98e 17be 721e 82bf 0b57 b640
000000f0: be3a 12bf b619 02c0 9ead 2cc0 2cf7 2a3f
00000100: caa5 21bf 42fb 4d3e e843 aebf f52a c9c0
00000110: 9181 2bbf 2e27 0540 63ff 13c0 bc29 10bf
00000120: 8829 7e40 4c98 103f d53c b33f b270 9640
00000130: cee9 b1be f615 1d40 4dd4 ecbf 4dd5 0f40
00000140: 4512 823f 6e69 273f 7d6c d0be 1f75 e2bd
00000150: 9c09 96bf 1f84 dc3f 9e2e 68bd cc31 8e3e
00000160: 503d 55bc e98f b63e 5e94 fe3e b7fe 4e40
00000170: c662 963e 18dc 2ebf c9ab 45c0 5c86 eb3f
00000180: dfd5 853f 45ef d43f 2c46 4540 eab2 323f
00000190: 0445 6740 3d24 393f 0448 78c0 8b27 8940
000001a0: 190d d7bf 5347 4f3e 3e98 84bf ecfa 8440
000001b0: ed8f d4bc 6c37 aabf 97de 2ebe 565d 1a3f
000001c0: de25 74bf 12aa 5b3e 2cda 6abf 55f3 13c1
000001d0: 344e e9bf ff07 a93f 009e 2f40 126f 6abe
000001e0: caa0 3bc0 1ea5 c8bf 11e7 ecbf 463f acc1
000001f0: 6394 d2bf bd14 e7bf acc9 7241 13b6 02c0
00000200: a0e0 4c40 bf0e 5cbd a515 0a3f 014f 2e41
00000210: 0d3f 95bf 4764 a33f ec24 3bc1 6447 0140
00000220: 1d97 af3f 9339 5a40 c300 d93f a03c 82c0
00000230: 11cb 9140 db2d 0c40 fa12 e1c0 6d32 a540
00000240: 8382 c43f 7c75 323f bb74 32be 0280 3c41
00000250: 62ad 8bbf a822 cc3f 35fc 8cc1 c2a3 623d
00000260: 62dd eb3d 201d 4dbd 0482 29c0 d253 3cbf
00000270: d11a 1abf fb27 8cbe efa8 b540 87db a23e
00000280: 581d 2940 3dae c93f 9523 d23f 8e9a 37c1
00000290: f9fe 7d40 cd38 0bbe eb53 b1c0 aef9 0d40
000002a0: f279 183e a944 46bf bccd 503e 83af 9840
000002b0: 0e27 ce3e 3b09 48bf 25e1 f4c0 4d44 bc3f
000002c0: e7f1 3ebf 56a8 9f3e 32b2 94bd 157a 8cc0
000002d0: fdb0 893e 2954 543f d4b6 8ac0 d26c c6be
000002e0: 8438 c33f 0be3 1fbd 6c58 1840 d623 1c40
000002f0: 8978 19bf a7de a0bf ea56 f4c0 00cf ef3f
00000300: ff00 013f 8220 2340 9162 2d40 2be7 4ac0
00000310: 8786 4b40 ea88 393e cd4d a5c0 e735 1d40
00000320: 2a8d dd3f 1010 87bf ed7d cf3e 4903 32bf
00000330: 30eb 90ba f40f 0c40 69d4 fdbf 3db7 79bf
00000340: 651d 4e3e f841 e63e 103d 2a3f 9315 f7bc
00000350: 1d89 e0bf 17cf 1340 627e 6dc0 e928 2dbe
00000360: a38f 8a3f b02f c93f f6c7 c63e 1f06 193e
00000370: 6fcd afbf 9536 0240 b146 04c1 ebbf 963e
00000380: 5cdc c73f 14f8 193f 3c79 a83e fd95 e940
00000390: a454 d7bf 1b7a 063f 4bf4 3fc1 641f d7be
000003a0: b776 b73f 4340 3240 8bf6 f83f 0312 aebf
000003b0: f549 9440 b0a9 e73f 03a0 77c0 684c 9c40
000003c0: 49f1 4740 169d 053f 4298 003f 2e0c 7840
000003d0: ec8b 503f af4d d53f ca3b 06c1 a4fb 163d
000003e0: af5f 943f 1d5c 073f e83a 0840 88ab 0fc0
000003f0: e321 88bf 85a5 6f3f 64bc f0be 8e71 2c40

b2 f4 [8]
-1.573244 -0.27354503 -0.90053797 -7.6433425 -0.9342456 0.52066 3.183317 -1.8062916
00000000: 0f60 c9bf 180e 8cbe a889 66bf 4396 f4c0
00000010: b82a 6fbf f949 053f 77bb 4b40 9034 e7bf

weight f4 [8]
0.2265736 -0.06469088 -0.002615333 0.018019432 0.20725338 -0.0415344 -0.012918815 -0.008365869
00000000: e902 683e a77c 84bd 0266 2bbb 7d9d 933c
00000010: 3b3a 543e fa1f 2abd 70a9 53bc ff10 09bc

bias f4 [8]
0.16284159 0.0049385843 0.000104720144 0.037000306 -0.030234888 -0.09929814 0.024745403 -0.0035700165
00000000: f2bf 263e d9d3 a13b 339d db38 a28d 173d
00000010: 28af f7bc d35c cbbd dfb6 ca3c f0f6 69bb

weight f4 [1, 8]
-0.100071214 0.0013331625 1.4823296e-05 0.0010996291 -0.0014481794 0.09033603 -0.0002380171 0.0039024018
00000000: 23f2 ccbd 83bd ae3a 92b1 7837 6e21 903a
00000010: d6d0 bdba 1902 b93d 3b94 79b9 70bf 7f3b
