saved_models/model-epoch-54.pth (torch, 249162 bytes, 52 tensors)

embeddings f4 [99, 32]
000000 76 fa 59 3e d4 a6 4d be d2 be f0 3d c7 7e 13 3d
       0.2128695 -0.20083171 0.11755146 0.036009576
000010 b0 a0 69 bd a2 82 cf bd f7 79 ae 3d 2d 0c 2f be
       -0.05703801 -0.10132338 0.08519357 -0.17094488
000020 98 6b f8 bd 81 07 bb 3d 5c 7f a3 3c c1 33 35 be
       -0.12129897 0.09132291 0.01995819 -0.17695524
000030 5f 3a 1f 3e 64 09 58 be d4 a9 60 bc e4 9e 17 be
       0.1554961 -0.21097332 -0.013712365 -0.14806706
000040 4d db 4b 3e 76 0b a2 bd 6b 53 29 3e 2f 9b 3c bd
       0.19907875 -0.07912342 0.16535728 -0.046046432
000050 9a 6b 09 3d 3f 6e 31 3e e4 94 ad bd 4f 4a ab bd
       0.033549882 0.17327212 -0.08475664 -0.083637826
000060 4a d8 54 be e1 eb 7b bd 45 85 28 be ab 7b 01 3e
       -0.20785633 -0.06150425 -0.16457088 0.12644832
000070 2b 1d 25 3e 96 92 36 3e 12 dc bf bd 2e 68 1f 3e
       0.16124408 0.17829356 -0.09368147 0.15567085
000080 41 c2 5a bc d9 de c5 3d 0e 16 da 3d 30 0c 4e bc
       -0.013351978 0.096616454 0.10648738 -0.012576148
000090 f8 18 a2 3d 38 c5 2c 3e a2 c5 e9 bd 51 05 4a be
       0.07914919 0.16872108 -0.114146486 -0.1972859
0000a0 e6 af a8 3d ff cf b2 bd 86 23 04 3c 8e cc 3b be
       0.08236675 -0.08731078 0.00806511 -0.1833975
0000b0 dd 3f a4 bc 6d b5 06 be ad a8 2c be 20 00 69 3d
       -0.020049984 -0.13155146 -0.1686122 0.056884885
0000c0 59 03 32 3e 07 f4 f4 bd 0a 2d cc bd b7 bd 0e 3e
       0.1738409 -0.11960607 -0.09969528 0.13939558
0000d0 14 57 15 be 63 70 cb bd 4d ed 34 3e 2c dd eb 3d
       -0.14583999 -0.099335454 0.17668648 0.115167946
0000e0 bc c2 fb 3c da 05 ca 3d 39 11 a3 bd 1c 33 53 3e
       0.030732505 0.09864397 -0.07962269 0.20624965
0000f0 76 d7 0e be 33 02 09 bd 8c 79 73 bd dd 37 46 3e
       -0.1394938 -0.033449363 -0.059442088 0.19357248
000100 9c 69 2b be 00 78 46 bd e7 2e 24 be 95 68 21 3e
       -0.16739506 -0.048454285 -0.16033517 0.15762551
000110 93 56 e8 bd 7d 05 ae bd 2b 90 12 be 8e a6 ba bc
       -0.11344638 -0.084971406 -0.14312808 -0.022784498
000120 39 9a 53 be f4 33 f2 bd bf 97 58 3d ad 46 57 be
       -0.206643 -0.118263155 0.05287909 -0.21023054
000130 ee 82 60 bd b5 3d ef 3d e3 8f 0e 3d 9e ef 6e 3d
       -0.054812364 0.116816916 0.03480519 0.058333986
000140 12 85 c1 bd df 58 d1 3d 5a f9 72 3c 5b e6 d9 bd
       -0.09449209 0.10222029 0.014829958 -0.1063964
000150 64 d1 49 3e 4d 25 60 bd b7 c4 3d 3d 35 93 2b 3d
       0.19708782 -0.054723073 0.04633018 0.041888434
000160 bd 3b b0 3c af 87 17 be f8 94 b3 bb 38 a6 20 bc
       0.02151286 -0.14797853 -0.005480405 -0.009805255
000170 90 35 e8 bd b6 a0 18 bd 2d b4 8f 3c 4f 6a 3a bc
       -0.11338341 -0.03726264 0.01754197 -0.011377885
000180 8b c8 58 be 00 b9 1c 3d e4 41 13 be 5b 87 4d 3e
       -0.21170251 0.038262367 -0.14380604 0.20071165
000190 a9 f9 19 3e 5d 5a 9d 3b 58 80 ed 3d 2a 78 84 3d
       0.15036644 0.004802032 0.11596745 0.06468232
0001a0 13 c2 50 3d d8 cc c3 bd 91 ef 2c 3b 9b 75 4b 3b
       0.050966334 -0.09560555 0.002638791 0.003104544
0001b0 69 12 2a 3e 29 dc 67 bd 66 fa cb 3c ff 5d cc bd
       0.16608585 -0.056606445 0.024899673 -0.09978866
0001c0 c5 f7 a3 bd ba 91 5a bd f2 5c c1 3d c7 e1 c8 3d
       -0.08006243 -0.053361632 0.09441556 0.098086886
0001d0 c1 df 4f be 97 99 81 bd 04 ac 15 bb 9e 23 dc 3d
       -0.20300199 -0.06328123 -0.0022838125 0.10748981
0001e0 d3 51 12 be 5f 5c db bd 4c ac 50 3e d3 ce 41 be
       -0.14289026 -0.10710978 0.20378226 -0.18926553
0001f0 06 48 26 3c 6d 62 89 bd 20 17 02 be 69 cd 3f be
       0.010149008 -0.06708226 -0.12704134 -0.18730702
000200 13 c6 4c be c0 93 18 3e 1b 66 0a 3d 0d 2f 44 3d
       -0.19997434 0.14900112 0.03378878 0.047896434
000210 6f 5b 42 3d aa a2 17 be 30 f4 1b be 3f 21 e1 3c
       0.04745048 -0.14808145 -0.15229869 0.027481673
000220 58 ea 57 bd 0c e1 1e 3e bf d4 ab 3c 04 6e 1d 3e
       -0.052713722 0.15515536 0.020975469 0.15373999
000230 d1 dd 46 3c e8 f4 3f be 68 23 14 3d 29 bd 19 be
       0.012137846 -0.18745768 0.03616658 -0.15013565
000240 8f 06 0e 3e a8 20 0f be 11 4f 32 be 51 7b 2e be
       0.1386969 -0.13977301 -0.17412974 -0.17039229
000250 3d 5f 12 be 34 1a 1c 3e 72 13 59 3b 68 3b 2e be
       -0.14294143 0.1524437 0.0033123163 -0.17014849
000260 ef 23 ac bd 0f 4d 71 3d f4 ee 06 3e c8 eb 2d 3d
       -0.08405291 0.05891138 0.13177091 0.042461187
000270 8b 86 08 3e e6 e0 9d bd e2 29 50 3e ad ec 8f 3d
       0.13332574 -0.077089116 0.20328477 0.07027564
000280 91 66 99 bd 9e f0 37 bd 81 d7 e3 3b 0b a8 16 be
       -0.07490266 -0.044907205 0.0069531803 -0.14712541
000290 57 0d 2b be 1e 73 2d 3e d5 fd bb bd e8 ee 17 3e
       -0.16704307 0.16938445 -0.09179274 0.14837229
0002a0 67 b9 38 3e 5f e9 6b bc 22 7b 27 3d bb a6 36 3e
       0.18039475 -0.014398902 0.040888913 0.1783704
0002b0 7c b7 02 3c a8 0b 2d 3e f2 3e 3d 3e 51 23 e8 3c
       0.007978316 0.16898978 0.18481043 0.028337153
0002c0 50 8f 51 3d 3c b9 e8 3d 28 62 2c 3e 4f b8 31 3e
       0.051162064 0.11363456 0.16834319 0.17355464
0002d0 4f 4b b4 3c 6e be f9 bd eb b6 30 3e 5a 62 da 3d
       0.022008566 -0.12194525 0.17257278 0.1066329
0002e0 4e e7 9c bd 70 78 4f be b1 da 03 be 27 a9 17 bd
       -0.07661305 -0.20260787 -0.12876393 -0.03702655
0002f0 61 b5 4c 3e b4 84 75 bd 42 c4 42 be 27 f6 20 3e
       0.19991066 -0.05994101 -0.19020179 0.157189
000300 fd 14 32 3e f8 4a 5c 3c ed b6 1e be b5 ab 96 bd
       0.17390819 0.013445608 -0.15499468 -0.07356969
000310 dd 37 0d be 0f b7 3f 3e 9f 8f 30 be b8 56 6f bd
       -0.13790841 0.18722175 -0.17242287 -0.05843231
000320 20 5d 50 be 70 61 05 3d b3 67 9e bc 62 9a 97 3d
       -0.20348024 0.032563627 -0.019336557 0.07402493
000330 eb bf 4e be e1 e8 28 3d 51 f5 4a be 28 4a 35 3e
       -0.20190398 0.041237716 -0.19820143 0.1770407
000340 50 ca 12 bc da 65 44 be 94 0d 52 bd 2b f9 4f 3e
       -0.008959368 -0.19179478 -0.05128248 0.20309894
000350 48 46 49 bd 10 6e 46 be 1b 3f 37 be 5b 47 25 be
       -0.04913929 -0.19377923 -0.17895167 -0.16140501
000360 1b 11 9c bd dc ae ff bd a4 85 31 be 8c 73 ac 3c
       -0.0762045 -0.12484524 -0.17336136 0.02105119
000370 48 b7 2d be 4f cb 3d 3e ab a5 c2 3d 27 c9 06 be
       -0.16964447 0.18534587 0.09504255 -0.13162671
000380 16 ed d4 3c e3 2e 0e bc 92 cd 22 be 68 3e 29 3e
       0.025991958 -0.008678171 -0.15898731 0.16527712
000390 5b b7 d5 bd 45 47 f0 3c 72 96 0a be 6a b3 31 be
       -0.10435363 0.029330859 -0.13533953 -0.17353597
0003a0 4f 2d ad bc fb c0 23 3e a8 88 fd bd 68 02 57 3e
       -0.021139769 0.15991585 -0.12379581 0.20997012
0003b0 4f a4 f4 bb b0 cb d7 3d 15 f0 f7 3d 01 2e ce 3d
       -0.007465876 0.10536897 0.12106339 0.10067368
0003c0 07 cf 02 3b bd 25 0e 3d 11 33 84 bd 73 bd 27 3e
       0.0019959824 0.03470396 -0.06455053 0.16380863
0003d0 bc b6 49 3e 6e eb 55 be 6a 7b a2 bd b1 41 2d be
       0.19698614 -0.2089059 -0.079336956 -0.1691959
0003e0 5b cc 34 3c 26 ea 48 be 84 58 fe bd 2d 8b 52 3e
       0.01103505 -0.1962057 -0.12419227 0.20560904
0003f0 0c 32 e1 bc 39 9b bf bc 7e 4a 14 3e ea 89 de 3c
       -0.027489685 -0.023389446 0.14481542 0.027165372

_pos_embeds f4 [64, 32]
000000 00 00 00 00 00 00 80 3f 00 00 00 00 00 00 80 3f
       0.0 1.0 0.0 1.0
000010 00 00 00 00 00 00 80 3f 00 00 00 00 00 00 80 3f
       0.0 1.0 0.0 1.0
000020 00 00 00 00 00 00 80 3f 00 00 00 00 00 00 80 3f
       0.0 1.0 0.0 1.0
000030 00 00 00 00 00 00 80 3f 00 00 00 00 00 00 80 3f
       0.0 1.0 0.0 1.0
000040 00 00 00 00 00 00 80 3f 00 00 00 00 00 00 80 3f
       0.0 1.0 0.0 1.0
000050 00 00 00 00 00 00 80 3f 00 00 00 00 00 00 80 3f
       0.0 1.0 0.0 1.0
000060 00 00 00 00 00 00 80 3f 00 00 00 00 00 00 80 3f
       0.0 1.0 0.0 1.0
000070 00 00 00 00 00 00 80 3f 00 00 00 00 00 00 80 3f
       0.0 1.0 0.0 1.0
000080 a4 6a 57 3f 40 51 0a 3f ba 7d 08 3f 0e 94 58 3f
       0.84147096 0.5403023 0.53316844 0.84600914
000090 3e 39 9f 3e 6a 4e 73 3f 3a 23 35 3e 83 f6 7b 3f
       0.3109836 0.95041525 0.17689219 0.9842302
0000a0 76 75 cc 3d 98 b8 7e 3f b0 36 66 3d 68 98 7f 3f
       0.099833414 0.9950042 0.056204498 0.9984193
0000b0 5c 81 01 3d 3c df 7f 3f 42 ab 91 3c a3 f5 7f 3f
       0.031617507 0.99950004 0.017781857 0.99984187
0000c0 57 d6 23 3c b9 fc 7f 3f 5c 44 b8 3b f7 fe 7f 3f
       0.009999833 0.99995 0.0056233834 0.9999842
0000d0 20 3e 4f 3b ac ff 7f 3f 20 15 e9 3a e5 ff 7f 3f
       0.0031622723 0.999995 0.0017782785 0.9999984
0000e0 6d 12 83 3a f8 ff 7f 3f 16 6a 13 3a fd ff 7f 3f
       0.0009999998 0.9999995 0.0005623413 0.9999998
0000f0 5f cb a5 39 ff ff 7f 3f 53 77 3a 39 00 00 80 3f
       0.00031622776 0.99999994 0.00017782794 1.0
000100 b7 c7 68 3f 33 11 d5 be 0a f2 66 3f b2 e8 dc 3e
       0.9092974 -0.41614684 0.9021307 0.43146282
000110 1b 54 17 3f ec 7b 4e 3f f6 47 b2 3e a5 fa 6f 3f
       0.5911271 0.8065784 0.34820527 0.9374183
000120 f9 6f 4b 3e a5 e5 7a 3f 88 d9 e5 3d f3 61 7e 3f
       0.19866933 0.9800666 0.112231314 0.9936821
000130 c8 70 81 3d f9 7c 7f 3f 5c a5 11 3d 8e d6 7f 3f
       0.063203394 0.9980007 0.03555809 0.9993676
000140 3e d4 a3 3c e5 f2 7f 3f 9d 43 38 3c db fb 7f 3f
       0.019998666 0.9998 0.011246589 0.99993676
000150 dd 3d cf 3b b0 fe 7f 3f 08 15 69 3b 96 ff 7f 3f
       0.0063245133 0.99998 0.0035565514 0.9999937
000160 69 12 03 3b de ff 7f 3f 14 6a 93 3a f5 ff 7f 3f
       0.0019999987 0.999998 0.0011246824 0.99999934
000170 5f cb 25 3a fd ff 7f 3f 53 77 ba 39 ff ff 7f 3f
       0.0006324555 0.9999998 0.00035565588 0.99999994
000180 c3 81 10 3e 26 70 7d bf d7 45 7e 3f a8 7f ed bd
       0.14112 -0.9899925 0.9932532 -0.11596614
000190 c2 09 50 3f 57 2f 15 3f 6d 2f 02 3f 29 6d 5c 3f
       0.8126489 0.5827536 0.50853616 0.86104065
0001a0 6d 4e 97 3e ef 90 74 3f d8 ee 2b 3e 9e 5d 7c 3f
       0.29552022 0.9553365 0.1679033 0.9858035
0001b0 c1 ff c1 3d 4f d9 7e 3f 4d 69 5a 3d c3 a2 7f 3f
       0.09472609 0.99550337 0.05332308 0.9985773
0001c0 20 b9 f5 3c 83 e2 7f 3f c7 31 8a 3c ad f6 7f 3f
       0.029995501 0.99955004 0.016869439 0.9998577
0001d0 11 6e 1b 3c 0d fd 7f 3f a8 cf ae 3b 11 ff 7f 3f
       0.009486691 0.999955 0.005334813 0.99998575
0001e0 93 9b 44 3b b5 ff 7f 3f 1b 1f dd 3a e8 ff 7f 3f
       0.0029999956 0.9999955 0.0016870232 0.99999857
0001f0 0d b1 78 3a f8 ff 7f 3f 7e d9 0b 3a fe ff 7f 3f
       0.0009486832 0.9999995 0.0005334838 0.9999999
000200 cf bd 41 bf 30 55 27 bf ed 49 47 3f 9d af 20 bf
       -0.7568025 -0.6536436 0.77847177 -0.62767965
000210 de 1d 74 3f b1 2e 9a 3e bc 1f 27 3f ed eb 41 3f
       0.95358074 0.30113748 0.652828 0.7575062
000220 d7 61 c7 3e a7 ca 6b 3f c6 65 64 3e 09 8d 79 3f
       0.38941833 0.921061 0.22304448 0.9748083
000230 88 2e 01 3e 69 f4 7d 3f c8 8d 91 3d 47 5a 7f 3f
       0.12615407 0.99201065 0.07107121 0.9974713
000240 db cb 23 3d 94 cb 7f 3f a2 40 b8 3c 6c ef 7f 3f
       0.039989334 0.9992001 0.022491757 0.99974704
000250 cd 3c 4f 3c c2 fa 7f 3f a7 14 e9 3b 58 fe 7f 3f
       0.012648773 0.99992 0.0071130577 0.9999747
000260 58 12 83 3b 7a ff 7f 3f 0e 6a 13 3b d6 ff 7f 3f
       0.0039999895 0.999992 0.0022493633 0.9999975
000270 5c cb a5 3a f3 ff 7f 3f 52 77 3a 3a fc ff 7f 3f
       0.0012649107 0.9999992 0.0007113117 0.99999976
000280 10 7c 75 bf 2c 3c 91 3e d6 da a5 3e 40 32 72 bf
       -0.9589243 0.2836622 0.3239352 -0.94607925
000290 7f fc 7f 3f d4 72 29 bc ab ca 46 3f f1 4c 21 3f
       0.99994653 -0.010342319 0.77652997 0.6300803
0002a0 44 77 f5 3e 40 a9 60 3f ee 11 8e 3e 7c f2 75 3f
       0.47942555 0.87758255 0.27748054 0.96073127
0002b0 1e 3c 21 3e 81 ce 7c 3f 21 db b5 3d 1e fd 7e 3f
       0.15745589 0.987526 0.08879686 0.99604976
0002c0 f5 b6 4c 3d 19 ae 7f 3f fe 4d e6 3c 19 e6 7f 3f
       0.04997917 0.99875027 0.028113361 0.99960476
0002d0 81 85 81 3c cf f7 7f 3f bb ac 11 3c 69 fd 7f 3f
       0.01581073 0.999875 0.00889128 0.9999605
0002e0 de d6 a3 3b 2e ff 7f 3f 8c 44 38 3b be ff 7f 3f
       0.0049999794 0.9999875 0.002811703 0.99999607
0002f0 31 3e cf 3a eb ff 7f 3f 26 15 69 3a f9 ff 7f 3f
       0.0015811381 0.99999875 0.0008891396 0.9999996
000300 8c 0f 8f be b8 cd 75 3f 74 e5 6b be 53 1d 79 bf
       -0.2794155 0.96017027 -0.23036748 -0.9731037
000310 4d 78 72 3f 6f 3f a4 be 89 30 60 3f 34 2f f7 3e
       0.94714814 -0.32079646 0.8757406 0.482782
000320 69 8c 10 3f 32 49 53 3f fd 7d a9 3e e2 90 71 3f
       0.5646425 0.8253356 0.33103934 0.943617
000330 6f 20 41 3e e3 67 7b 3f c1 19 da 3d 51 8b 7e 3f
       0.18860029 0.98205394 0.106494434 0.9943133
000340 d1 9c 75 3d 12 8a 7f 3f bf 2c 0a 3d b3 da 7f 3f
       0.059964005 0.99820054 0.03373408 0.99943084
000350 46 6c 9b 3c 34 f4 7f 3f 04 cf 2e 3c 45 fc 7f 3f
       0.018972527 0.99982 0.010669474 0.9999431
000360 59 9b c4 3b d2 fe 7f 3f 06 1f 5d 3b a1 ff 7f 3f
       0.005999964 0.999982 0.0033740415 0.99999434
000370 05 b1 f8 3a e2 ff 7f 3f 7d d9 8b 3a f6 ff 7f 3f
       0.0018973654 0.9999982 0.0010669675 0.9999994
000380 46 30 28 3f bd ff 40 3f 6e b6 36 bf 60 4f 33 bf
       0.6569866 0.75390226 -0.71372116 -0.7004299
000390 6f e8 4c 3f bb 74 19 bf 44 84 72 3f b9 f8 a3 3e
       0.80042166 -0.5994374 0.9473307 0.32025698
0003a0 73 eb 24 3f b3 cc 43 3f df 60 c4 3e c5 6b 6c 3f
       0.64421767 0.7648422 0.38355157 0.92351943
0003b0 50 d3 60 3e ea c0 79 3f ba 46 fe 3d e9 04 7e 3f
       0.2195561 0.9755999 0.12415834 0.9922624
0003c0 32 3e 8f 3d 81 5f 7f 3f 60 31 21 3d 3b cd 7f 3f
       0.06994285 0.997551 0.03935373 0.9992253
0003d0 a6 52 b5 3c f2 ef 7f 3f 2a f1 4b 3c ec fa 7f 3f
       0.022134136 0.999755 0.012447635 0.9999225
0003e0 c7 5f e5 3b 65 fe 7f 3f be fc 80 3b 7e ff 7f 3f
       0.006999943 0.9999755 0.003936379 0.99999225
0003f0 ec 11 11 3b d7 ff 7f 3f 66 28 a3 3a f3 ff 7f 3f
       0.0022135926 0.99999756 0.0012447953 0.9999992

W f4 [32, 32]
000000 82 50 1f 3e 2c ef 20 bf f3 5b 6e 3e 26 45 a1 bb
       0.15558055 -0.6286495 0.23277263 -0.004921573
000010 ad f0 66 be 64 10 26 be 84 78 cc 3e de aa 7c be
       -0.22552748 -0.1621719 0.39935696 -0.24674556
000020 52 c1 be be b8 52 b5 be d2 62 af 3e 37 bd 18 bd
       -0.37256867 -0.35414672 0.3425508 -0.037289824
000030 3f e9 df 3e 61 49 a4 3e 59 97 96 3e 5e 5c 03 3f
       0.4373264 0.32087234 0.29412344 0.51312816
000040 e5 35 03 3e 7d 62 00 3f af 30 fd 3e ff 08 ed 3e
       0.12813528 0.5015028 0.49451205 0.46295926
000050 60 88 38 3e 89 e7 3f 3f 00 9b e8 3e 4b 2a 99 3e
       0.18020773 0.7496267 0.45430756 0.2991508
000060 de b5 b3 3e 05 4f 34 3f a7 89 af 3e a4 a5 04 3f
       0.3509969 0.70433074 0.34284708 0.5181525
000070 05 7c 57 3e b9 2f e2 3e 7d 06 b7 3e f8 d2 3a 3f
       0.21043403 0.44177034 0.35747138 0.7297816
000080 e2 41 8c 3e f5 b9 de bd f7 5f f0 bb 1d 11 8b 3e
       0.27394015 -0.10875312 -0.0073356587 0.27161494
000090 1a 61 e6 be d3 52 3a be 5b eb d4 3e bf be 1f 3f
       -0.44995958 -0.18195657 0.41585812 0.6240043
0000a0 0e 06 20 3f f4 21 3b bf 02 87 e2 be cb 1f c1 3e
       0.6250924 -0.73098683 -0.44243628 0.3771957
0000b0 32 0a 99 be e2 ec e5 3c c5 3b 3b bf 25 56 3a bf
       -0.2989059 0.028067056 -0.73138076 -0.72787696
0000c0 8f e6 b9 be b9 b2 1e bf d0 f9 92 be bd 82 a9 be
       -0.36308715 -0.6199146 -0.28706217 -0.33107558
0000d0 92 19 34 bf d6 f1 40 bf 29 4a 1f bf 21 a2 1e bf
       -0.7035152 -0.7536901 -0.62222534 -0.6196614
0000e0 13 2b 10 bf 58 90 34 bf 19 2e cb be 0c 5d 2c bf
       -0.56315726 -0.7053275 -0.39683607 -0.6732948
0000f0 37 ef f5 be 28 02 28 bf 17 f3 54 bf 14 b8 3c bf
       -0.4803407 -0.6562829 -0.83183426 -0.7371838
000100 87 db 8e bc bf 5f 22 3f d0 8f fa be 53 bd b2 be
       -0.017438663 0.63427347 -0.48937845 -0.34910068
000110 e0 43 4f 3f c1 5a 35 3f 00 92 12 bf f4 4b 98 be
       0.80962944 0.70841604 -0.5725403 -0.29745448
000120 9b 12 16 3e 53 a8 e3 3d 57 dc a5 3d 85 1c 0c bf
       0.14655535 0.1111609 0.08098667 -0.5473102
000130 42 ad db 3e 19 77 bf be 60 e9 f2 3e 91 36 5f 3e
       0.42905623 -0.37395552 0.47443676 0.21798159
000140 45 e0 50 3e 3a 29 25 3e d9 32 08 3e 0c 21 ce 3e
       0.20398052 0.16129008 0.13300647 0.40259588
000150 c2 58 2d 3f ea f3 1b 3f ad 6b e4 3e df bb 80 3e
       0.6771356 0.6091906 0.446134 0.25143334
000160 cc 7e 00 3e 8e 05 bc 3e f3 55 85 3e 3a 4a 88 3e
       0.12548369 0.36722988 0.26042137 0.2661913
000170 4b dc e9 3d 58 81 33 3f 2c 6d 36 3e 6b 18 c5 3e
       0.11418971 0.7011924 0.17815083 0.38495192
000180 0b 6e 0b 3e 6a cd cc 3e 80 36 01 3f f1 5f 6a 3e
       0.13616197 0.40000468 0.50473785 0.22888161
000190 d0 39 fe 3e 4b d4 32 bc ce 88 bf 3e 32 02 95 be
       0.49653482 -0.010914872 0.3740906 -0.29103237
0001a0 73 b7 b1 3e 8d 6a 41 be f6 ab 0a bf 6d 81 a4 3e
       0.34710273 -0.18888302 -0.5416864 0.32129994
0001b0 b2 5e 31 be 96 c2 d6 3d b9 4a bb bd 67 fc 70 be
       -0.1732128 0.10486333 -0.091451116 -0.23533784
0001c0 7a e1 82 3d 08 52 b5 3d 75 0e d5 be 46 59 0f be
       0.063906625 0.08853537 -0.41612592 -0.13998899
0001d0 4d fc c9 3d 43 24 f2 be 93 8c dd be 4a 3e 0b be
       0.09862576 -0.4729329 -0.43271312 -0.1359798
0001e0 b5 8b 47 be f5 16 58 be a6 77 e4 be 09 59 79 be
       -0.19486888 -0.21102507 -0.44622535 -0.2435037
0001f0 dd a2 b7 3d c3 6e 7f be 91 c0 79 bc ab 08 33 be
       0.089666106 -0.24944596 -0.015243665 -0.17483775
000200 6c 90 8d be 17 32 92 3d c3 ec b6 be 9d b0 06 bd
       -0.27649248 0.0713846 -0.3572751 -0.032883275
000210 63 a4 22 be 5b 6a d9 3e d0 06 14 bf 67 85 62 be
       -0.15883021 0.42463955 -0.57822895 -0.22121201
000220 7f f3 9b bd 3d 05 02 3f de e1 31 bf 96 01 8c be
       -0.076148026 0.50789243 -0.6948527 -0.2734496
000230 56 2b ca 3e 1a c2 0a bf 5c 29 52 3e 70 cb 47 bb
       0.39486188 -0.54202425 0.2052359 -0.0030486248
000240 24 18 c4 3d 00 6b bd bd e6 1d ac 3e 6a 68 4e 3e
       0.09574917 -0.09248924 0.3361656 0.20157018
000250 96 80 c1 3e 29 c1 37 3d 29 3a 72 3e 77 ee 95 3e
       0.37793416 0.044861946 0.23654999 0.29283497
000260 71 da 0c 3d 4d c2 a7 3e 9c 4b ef bd a5 9f 23 3e
       0.03438801 0.32765427 -0.11684343 0.15978868
000270 cf 60 39 bb 31 f1 a0 bd b3 7f aa 3e a4 7c c9 3e
       -0.0028286462 -0.078585036 0.33300552 0.39352906
000280 85 ee dd bd be 50 6f be 14 3b d7 be 2e ce 3e 3a
       -0.108365096 -0.23370644 -0.4203726 0.0007278648
000290 42 7c ee be 0a c5 3e 3e d3 43 04 bf 4a c0 e1 3e
       -0.46579176 0.18629852 -0.5166599 0.44092017
0002a0 23 16 04 3e 98 7d 8e 3e c4 9e bc be 35 f0 c3 3e
       0.1289907 0.27830195 -0.3683988 0.382692
0002b0 c8 58 35 bf 8d 9b 0c bf 80 e5 d6 be c5 99 0b bf
       -0.70838594 -0.5492485 -0.4197197 -0.5453151
0002c0 07 ff 7c bf 09 9d 17 bf f0 71 57 bf c9 cb 9a be
       -0.9882664 -0.5922399 -0.8415823 -0.302336
0002d0 d0 dc 21 bf 98 7b 39 bf 01 a4 5b bf 18 4b 23 bf
       -0.6322756 -0.72454214 -0.85797125 -0.6378646
0002e0 db bb 68 bf ef 18 08 bf f1 5b 3b bf 67 11 be be
       -0.90911645 -0.53163046 -0.73187166 -0.37122652
0002f0 ca d4 80 bf 54 3d 11 bf 0c 28 52 bf c7 bf 1e bf
       -1.0064938 -0.56734204 -0.82092357 -0.6201138
000300 2e 3e d8 3e a6 1e 0b be 0c 8b 23 3d dd 91 25 3f
       0.4223494 -0.1358591 0.039927527 0.64675695
000310 bd cf 5e 3e ef 4f 5a 3e 4d 19 3d 3e fa e3 98 3e
       0.21758933 0.21319555 0.18466683 0.29861432
000320 04 f8 cd be 86 be 75 be 12 c0 23 3e 30 06 14 3e
       -0.40228283 -0.2399846 0.15991238 0.14455485
000330 72 27 38 3d e9 c8 29 3e 81 b0 a7 3d d9 11 de 3d
       0.044959493 0.16580547 0.08187962 0.10843248
000340 a4 4e 06 3e cf 4c b1 3d 68 02 88 be bb 2f 80 3b
       0.13115937 0.08657228 -0.26564336 0.00391194
000350 16 8d d2 be 8b 10 55 be d8 a1 3f be 6b 9e 02 3e
       -0.41123265 -0.20807092 -0.18714082 0.12755744
000360 1a b1 92 be 35 77 ed be d8 6b 61 be 9d 17 bb be
       -0.28650743 -0.4638001 -0.22013795 -0.36541453
000370 08 57 0b 3e 55 16 a4 3d 8d 4d 0c be e7 ea 4c be
       0.13607419 0.08012072 -0.13701458 -0.20011483
000380 03 9b 8d be 34 94 a8 be 51 25 4f 3d 38 40 92 be
       -0.27657327 -0.3292557 0.050572697 -0.2856462
000390 15 53 b9 be 39 e4 4b be 54 1b 54 be d6 9c fa be
       -0.361962 -0.19911279 -0.2071355 -0.4894778
0003a0 bf 4a a9 3e 0b 27 49 3e 0c 02 43 be 1c 36 f7 bd
       0.3306484 0.196438 -0.1904375 -0.120708674
0003b0 54 8a 3a be 18 cd be 3e 5a 20 c2 bd 34 7c a0 3e
       -0.1821683 0.3726585 -0.09478827 0.3134476
0003c0 fc d6 55 3e 76 f3 8c bc e8 3e 50 be a1 41 58 bd
       0.20882791 -0.017205935 -0.20336497 -0.052796964
0003d0 91 9f ad bc 75 e2 eb 3d 3a be 39 3e 84 83 58 be
       -0.021194251 0.115178026 0.18138972 -0.21143919
0003e0 a8 3f 2c 3e cd a0 ca 3d d8 f4 ff bd d5 32 00 3e
       0.16821158 0.098939516 -0.12497872 0.12519391
0003f0 85 72 e8 bc ac 6f bb 3e 80 b0 29 be 4e 59 14 3e
       -0.02837492 0.36608636 -0.16571236 0.14487192

b f4 [32]
000000 c5 16 fb 3e a8 dd 0d bf 85 12 dd 3e a7 7a 29 be
       0.4904081 -0.55416346 0.43178192 -0.16550694
000010 72 f6 e2 3d c8 1a 03 bf 00 0c 29 be 9f 4d c9 3d
       0.11082162 -0.5121274 -0.16508484 0.09829258
000020 7e f7 52 be 7f 31 d3 3d 75 0a 55 be 11 45 bc 3e
       -0.20602223 0.10312175 -0.2080477 0.36771443
000030 5c 97 be be db b5 6c be a5 ec 38 be f3 9e b9 be
       -0.37224853 -0.23116247 -0.18059023 -0.3625408
000040 f6 00 a6 be 5f a2 50 3e e5 dd 56 be a1 c4 04 3e
       -0.32422608 0.2037444 -0.20983084 0.12965633
000050 ab 43 b6 be f8 04 af be d6 b8 60 be 17 41 b4 be
       -0.35598502 -0.34183478 -0.2194551 -0.3520591
000060 83 d7 66 3e e6 81 f0 bc 61 d0 85 3e d6 43 ae 3e
       0.22543149 -0.029358815 0.26135543 0.3403613
000070 85 29 d7 be a1 e1 9f 3e 5e 93 3b be 9f 0e 45 3e
       -0.42023864 0.3122683 -0.18317935 0.19243859

W f4 [32, 32]
000000 1e 28 15 3d 73 b3 14 bf 3e 20 87 3d 2c 01 ed 3d
       0.03641521 -0.5808632 0.065979466 0.11572489
000010 52 b3 8a 3e 4a 5b 43 3f 8b cf c4 be 02 dc c0 be
       0.27089936 0.7631117 -0.38439593 -0.37667853
000020 ba cf ad be 5e 81 62 3e 92 50 97 3d cc 05 96 be
       -0.33947545 0.22119662 0.073884144 -0.29301298
000030 a5 74 81 3e ca 3a 08 bd db 53 e4 3e 0b 2d 88 3e
       0.25284305 -0.03325919 0.44595227 0.26596865
000040 24 a1 82 3d a6 cf 98 bc e9 92 ed 3e 00 fe c5 3e
       0.063783914 -0.018653702 0.46401146 0.3867035
000050 1f 07 65 3e 64 fc 18 3e 83 c9 91 3d c0 3b 87 3e
       0.22365998 0.1494003 0.071185134 0.26412773
000060 94 8f ef 3e e8 4b 64 3e 7c 42 a5 3d 51 90 6d 3e
       0.4678923 0.22294581 0.080693215 0.23199584
000070 73 69 9b 3e f2 cc da 3e 41 31 89 3e e1 4b 8e 3e
       0.3035389 0.42734486 0.2679539 0.27792266
000080 fe 73 7d 3d 33 35 10 3e ee 7f aa 3b 82 c8 ab bb
       0.061878197 0.14082794 0.0052032387 -0.0052424083
000090 b5 cc e6 ba 27 16 6e 3e 68 82 33 bf 31 88 7e 3d
       -0.0017608615 0.23250638 -0.7012086 0.0621416
0000a0 53 21 94 3e eb 57 13 3f ce 82 02 be 3b 1e dd bd
       0.28931674 0.5755603 -0.1274521 -0.10796782
0000b0 f3 20 c0 be f5 d9 15 bf 50 f9 bc be cc 60 1a bf
       -0.37525138 -0.585357 -0.3690896 -0.6030395
0000c0 85 dd 85 3d ed 42 f1 bd d1 b4 3b 3e 95 63 97 3d
       0.06536392 -0.11780343 0.18330695 0.07392041
0000d0 2c 7e 01 be c7 0d dd 3c a9 e2 2b bd 02 5f e9 be
       -0.12645787 0.026984109 -0.041964207 -0.45580298
0000e0 1f b9 78 be 81 54 68 be 8e e8 24 3e 0a 92 63 be
       -0.24289368 -0.22688486 0.16104338 -0.22223678
0000f0 fc b9 35 be 66 77 ea be 05 62 b9 3d 8f a9 bb be
       -0.17746729 -0.4579422 0.09051899 -0.366528
000100 b4 5e 37 be b6 e6 04 3f a9 7c d2 bd 35 e8 f9 3e
       -0.1790722 0.51914537 -0.10277683 0.48809972
000110 2d 4c 6a 3e 67 fb 14 3f f2 0b e9 3c 19 02 de bd
       0.22880621 0.5819611 0.028448079 -0.10840244
000120 93 1e 07 3f 68 95 05 bf 28 9d 05 3f db ac 9b 3d
       0.5278103 -0.521811 0.52192926 0.07601329
000130 c7 fe d4 3d 5a 3a 03 3f e7 d5 9e 3e 1c 05 00 3f
       0.104001574 0.5126091 0.3102257 0.50007796
000140 8b a4 ed 3e b6 08 06 3f 2c c5 c6 3e 5c b5 2e 3e
       0.464146 0.5235704 0.38822305 0.1706137
000150 98 a3 f3 3e cb 54 e2 3d 97 78 72 3e 8d 15 c4 3e
       0.4758575 0.11051329 0.23678814 0.38297692
000160 39 93 bb 3d ca 96 e9 3e 10 c4 9d 3e 5c 59 3c 3e
       0.0915894 0.45622855 0.30813646 0.18393463
000170 09 ce 0a 3e ec be 82 3e c9 58 fc 3e 64 68 18 3f
       0.13555159 0.25536287 0.49286488 0.5953429
000180 49 27 24 3e 06 15 63 be 11 19 5f bd 31 d8 ea 3d
       0.16030611 -0.22175989 -0.054467265 0.114670165
000190 b6 c9 11 3f 3a e0 05 bf 00 b1 1b 3f 35 10 a2 be
       0.5694841 -0.5229527 0.60816956 -0.3165299
0001a0 af 6c b3 be 47 32 b7 be 5c 8d 97 3e 58 02 81 3e
       -0.35043857 -0.35780546 0.29600036 0.251971
0001b0 9b 49 3f 3f 1c 28 dc 3e 5c a1 01 3e c2 2e ef 3e
       0.7472169 0.4299935 0.1265921 0.4671536
0001c0 ed b5 7c be 2c 1f 0c 3f 0f 47 03 3e c1 93 a8 3e
       -0.24678774 0.54735065 0.12820075 0.32925227
0001d0 42 60 4b 3d be 83 86 3e 37 f9 97 be e4 f3 3f 3f
       0.049652345 0.26272386 -0.29682323 0.7498152
0001e0 22 fa a5 be 4d 94 fe 3e 88 ea fc bd 03 45 71 3e
       -0.324174 0.4972252 -0.12349421 0.23561482
0001f0 4f 76 b1 be c2 f2 e8 3e 59 ac c1 3d 47 18 92 3e
       -0.34660575 0.4549771 0.09456701 0.28534147
000200 39 26 f4 be 1b 3a ce 3d 68 ca 2e 3f b8 b6 4a 3f
       -0.47685412 0.100696765 0.682776 0.79185057
000210 26 38 33 bf b1 f6 3a 3f c3 1c ca be bd 41 f4 3e
       -0.7000755 0.7303267 -0.39475068 0.47706404
000220 01 a0 4f 3f 2f f7 f2 be 20 de 33 bf 5a fd 18 3f
       0.8110352 -0.4745421 -0.7026081 0.59761584
000230 b6 7b 93 be 7a 65 9d be ab 27 01 bf e4 13 68 bf
       -0.2880532 -0.30741483 -0.50451154 -0.9065535
000240 72 3d b5 be 8d 82 08 bf eb 13 00 bf e8 66 e6 be
       -0.35398442 -0.53324205 -0.5003039 -0.45000386
000250 29 e8 13 bf 85 79 b5 be af 1a 18 bf b4 e6 16 bf
       -0.57776123 -0.35444275 -0.59415716 -0.58945775
000260 dc 54 53 bf db 1b bf be f1 87 32 bf 49 0a 15 bf
       -0.8255136 -0.3732594 -0.6973868 -0.5821882
000270 74 00 53 bf 25 25 0d bf 58 ff 03 bf fb 1b 98 be
       -0.82422566 -0.55134803 -0.515615 -0.29708847
000280 1f 92 f8 be 31 5c 4c 3c 96 a9 5a 3e a1 34 9a be
       -0.48548982 0.012473152 0.21353754 -0.30118278
000290 cc 17 d4 be a5 ea 17 3d 0e 17 05 be dd 4f ee 3b
       -0.41424406 0.03708901 -0.12997076 0.007272704
0002a0 67 e5 52 3d 75 aa c7 bc d8 be 7a bd dd 25 bb 3e
       0.051488306 -0.024373272 -0.06121716 0.36552325
0002b0 5c a6 48 bd 26 d1 94 be b8 72 71 3c 0a 35 4e be
       -0.048986778 -0.29065818 0.014736824 -0.2013742
0002c0 20 7f a7 3b 12 86 c5 be 90 af 31 3c ac 94 e3 bd
       0.00511159 -0.3857885 0.01084508 -0.11112341
0002d0 76 a5 f4 be 38 ab 2c 3d 46 c8 1c be ca 71 a5 bd
       -0.47782487 0.042155474 -0.15310773 -0.08078344
0002e0 69 2e 6a be a0 c3 f0 be 52 2a 25 be 52 e6 fc be
       -0.22869267 -0.4702425 -0.16129425 -0.4939447
0002f0 3d de 6d bd 54 08 d9 bd 31 9d f9 be 0c 10 56 be
       -0.05807327 -0.105972916 -0.4875274 -0.20904559
000300 89 62 a3 be 8d 4a 2d bf 93 c1 59 3d bb 31 5d 3f
       -0.31911114 -0.6769188 0.053163122 0.8640401
000310 44 65 99 bd 11 da 15 3e 30 ef 1a be af 8f ab be
       -0.07490018 0.14633967 -0.15130305 -0.3350806
000320 da 24 fc 3e d0 2a cf 3e 18 2a d8 be 2d 2c a4 bd
       0.49246866 0.4046235 -0.42219615 -0.08016238
000330 47 80 ee 3d 62 e3 9c be e7 cf 9a 3b 9a 04 e4 bd
       0.11645561 -0.3064223 0.004724491 -0.1113369
000340 32 a1 95 3e 41 78 cc 3d ba 06 5e be 70 65 23 3e
       0.29224545 0.09983874 -0.21682253 0.15956664
000350 f2 0f a8 3d ea e4 8c be 9d bf fe 3d 1b 64 0a be
       0.08206166 -0.27518398 0.12438891 -0.1351475
000360 ce 24 4c 3e 60 dd be 3c 89 c9 02 3e bc c1 a8 3d
       0.19935915 0.02329892 0.12772192 0.08240077
000370 0b d4 8f 3e 75 ee f7 3d 7b 2a 3b be 99 5a 97 bd
       0.28091463 0.12106029 -0.18277924 -0.07390327
000380 f7 66 08 3e ca 20 2c 3e 7b c5 8a 3d 3d 35 d4 3e
       0.13320528 0.16809383 0.06775948 0.41446868
000390 b8 fa b3 bd 05 5d 65 be 45 f1 f6 3d 16 ba 00 3f
       -0.08788055 -0.22398765 0.12057737 0.50283945
0003a0 94 49 18 bf c9 1c 1b be fb f7 d1 bd 63 f8 07 bf
       -0.5948727 -0.151477 -0.10252377 -0.53113383
0003b0 23 0d d9 bd 9a 14 ff be c0 70 46 3e 99 ed ba 3d
       -0.10598209 -0.49820405 0.19378948 0.091273494
0003c0 7c 1b 70 bc 01 06 9b be 4e 88 91 3e 1b f9 1e 3e
       -0.01465499 -0.30278018 0.28424305 0.15524714
0003d0 f2 b2 18 be 75 af 89 bc 4c fc b7 3e 3d 26 e8 3d
       -0.14912012 -0.016807297 0.35934675 0.113354184
0003e0 99 fe 90 bc 1c 47 76 bd a6 43 45 3d ad 39 0f be
       -0.017699527 -0.06012641 0.048160218 -0.13986845
0003f0 b0 12 b9 3e 6b 11 8a bd ec 3c 36 be 07 7e f1 3c
       0.3614707 -0.067416035 -0.17796677 0.02947904

b f4 [32]
000000 9e 2f 94 3e 40 e9 49 be a3 4e ac 3e 33 de e3 3e
       0.2894258 -0.19717884 0.33653745 0.44505462
000010 71 a3 19 bf 9a 40 64 be 96 6e 59 3c 3f 85 8e bd
       -0.60015017 -0.22290269 0.013270995 -0.069590084
000020 d1 a0 b8 3e c9 15 06 3e e5 e0 5d be 41 77 b3 be
       0.36060193 0.13094248 -0.21667822 -0.3505192
000030 97 f8 d6 3e 04 08 2f 3e a1 40 8c 3e 7b db 65 be
       0.41986534 0.17092901 0.27393058 -0.22447006
000040 01 dc c0 be 53 50 53 be 59 0a b1 be d4 f2 62 3e
       -0.3766785 -0.2063611 -0.34578207 0.22162944
000050 eb 16 34 3e f0 b0 a5 be d6 d9 b6 be 33 e0 d1 3e
       0.17586868 -0.32361555 -0.3571307 0.40991363
000060 b9 24 97 be d8 e5 78 3e 92 3d b6 3e aa 7a f6 3e
       -0.29520205 0.24306428 0.3559385 0.4814046
000070 55 7c 1d be 72 42 e1 bd fc f8 73 be 01 c4 aa 3e
       -0.1537946 -0.109990016 -0.23825449 0.33352664

W f4 [32, 32]
000000 30 29 26 3f b1 50 2a bf a9 bd 1d ba de 42 ce 3e
       0.649066 -0.66529375 -0.0006017336 0.4028539
000010 7e 96 84 bd 75 50 a0 be 92 ea 15 3f 18 96 e5 be
       -0.064740166 -0.31311384 0.5856105 -0.44841075
000020 ba 47 08 3f 30 79 cc be 22 fd 24 3f 75 ab dd 3d
       0.53234446 -0.3993621 0.6444875 0.108237185
000030 ae e3 ec bd ce 25 1f 3e 26 06 97 be d9 09 9e be
       -0.11566864 0.15541765 -0.29496878 -0.30866888
000040 fd 73 1a be 58 f1 ca be d5 45 6b be 2d 48 53 be
       -0.15083309 -0.39637256 -0.22975858 -0.20633002
000050 98 d9 2d bf e2 a1 59 bc d5 59 45 be 35 13 3e be
       -0.67910147 -0.013283225 -0.1927255 -0.18562014
000060 8a 08 09 bf 7b d9 e8 be 5f e9 62 be 2b 1a 9a be
       -0.53528655 -0.45478424 -0.22159337 -0.3009809
000070 81 65 00 be 6b d2 10 bf e7 29 6d be 41 35 7f be
       -0.1253872 -0.5657107 -0.23160516 -0.24922659
000080 de ac 72 be a9 d5 bc be 22 34 33 be 12 7b 58 3e
       -0.23698756 -0.3688176 -0.17500356 0.21140698
000090 93 de c6 be e3 21 a5 3c df db c3 be 25 33 f7 3d
       -0.38841686 0.02015776 -0.38253686 0.12070302
0000a0 f6 d9 9d 3e c1 c7 6a bd a5 97 a8 3e 13 58 cd 3e
       0.30830353 -0.057319406 0.32928196 0.40106258
0000b0 d6 ef 29 3c 4f 77 de 3d 9a f5 55 3d 36 35 c9 bd
       0.010372123 0.108626 0.052236177 -0.09824602
0000c0 3c a8 a2 bd ae 43 14 be 32 da 83 3e 15 ec e2 bd
       -0.079422444 -0.14478943 0.25752407 -0.11080185
0000d0 5e 9c 68 3d 7b 8e 5e 3e a6 06 86 be 9d fe c5 3e
       0.05678975 0.2173404 -0.26176947 0.38670817
0000e0 37 c2 70 3d a9 f4 f5 3d 34 14 7e 3a 76 9b 1c be
       0.058778968 0.12009556 0.00096923416 -0.15293679
0000f0 74 08 50 3e ce 4e 82 3e e4 a5 3f bd a8 03 6f 3d
       0.20315725 0.25450748 -0.046789065 0.058353096
000100 dc cd f8 bd f2 82 e6 3d 54 f4 04 bf 40 5e 11 be
       -0.121486396 0.112554446 -0.51935315 -0.1419611
000110 ca c8 ad bc 20 6d 1c 3f 1f 08 2d bf 79 08 2a bf
       -0.021213908 0.6110401 -0.67590517 -0.6641918
000120 5a c4 e5 3e 87 bc 80 bd 2e a9 4a 3f 53 62 18 bf
       0.44876367 -0.06285959 0.791644 -0.5952503
000130 fb 06 48 3f e9 54 23 3f 63 36 ff 3e 35 33 28 3f
       0.7813565 0.6380144 0.4984618 0.65703136
000140 95 7c 08 3f ce 32 c8 3e 8d 89 df 3e 97 9c e4 3e
       0.533151 0.3910126 0.4365963 0.4465072
000150 0c 2c c6 3e 79 67 4b 3f 80 f9 fa 3e 7f 7b 4b 3f
       0.3870548 0.7945476 0.49018478 0.79485315
000160 39 0e 13 3f e5 30 f5 3e 34 d9 79 3e a7 8f 43 3f
       0.5744358 0.47888866 0.24399263 0.7639107
000170 6f ab 02 3f da d8 90 3e 49 02 8f 3e 8c 34 39 3f
       0.51042837 0.28290445 0.2793143 0.72345805
000180 32 45 f1 be fa f6 82 3e ad 53 75 be 55 6d 6d be
       -0.47123104 0.25579053 -0.23957701 -0.23186238
000190 bf 1c ed 3e ad 48 dc 3e 20 43 ad be d5 32 d9 be
       0.46310994 0.43024197 -0.33840275 -0.42421594
0001a0 88 97 67 be 02 39 33 3e 78 97 6d 3e 8d 66 9b be
       -0.22616398 0.17502216 0.23202312 -0.30351678
0001b0 b9 9d be 3e 4d ba 86 bb 2a 69 97 3e 47 d4 25 3f
       0.37229708 -0.0041115643 0.2957242 0.64777035
0001c0 55 3d b9 3e ac 1b d5 3e 0d c8 5e 3e 75 4f e4 3e
       0.36179605 0.41622674 0.21756001 0.4459187
0001d0 69 6e c6 3e 4e 58 0d 3f 7e d2 e1 3e a6 ac 15 3f
       0.3875611 0.5521287 0.44105905 0.58466566
0001e0 9e da 1c 3f 63 79 9e 3e db f7 64 3e 18 a6 fa 3e
       0.61271083 0.30951986 0.22360174 0.48954844
0001f0 9d 4e 22 3f f5 5d b0 3e 15 80 5e 3e 1e 5d 12 3f
       0.63401204 0.34446684 0.21728547 0.57173336
000200 5a 2a bd 3e 1e 6b 2a be ad 0d 47 be dc fe 1c 3e
       0.36946374 -0.16642424 -0.1943881 0.15331596
000210 da 87 22 3f 1b bd 8e 3e e8 79 14 3e 65 a4 8b be
       0.63488543 0.2787865 0.14499629 -0.2727386
000220 fd 8f 11 3f 2b 11 99 be 37 2e 84 be 26 b9 30 3f
       0.56860334 -0.2989591 -0.2581651 0.69032514
000230 61 0a be be 69 d0 d1 3d ae cf c6 be 19 29 23 bf
       -0.37117293 0.10244829 -0.38830322 -0.63734585
000240 ad 4f 25 bf 2b d2 14 bf 13 ef 58 be 2b 93 36 bf
       -0.645747 -0.5813319 -0.2118495 -0.7131831
000250 cd 10 14 bf da 93 21 bf fc d2 33 be b1 fb eb be
       -0.57838136 -0.6311623 -0.17560953 -0.46090463
000260 e9 3e 3d be 6b 78 04 bf 51 f8 02 bf a2 dc 49 be
       -0.1848103 -0.51746243 -0.5116015 -0.19713071
000270 41 94 af be ad bb 22 bf 85 e1 3a bf 3b 3f 0d bf
       -0.34292796 -0.6356762 -0.73000365 -0.5517461
000280 b9 03 54 bc ac bb 1d 3d a7 ff c0 3e 6c 43 0b bf
       -0.012940341 0.038509056 0.37695047 -0.5439975
000290 74 5c 2b 3e 7d 30 9d 3e f8 d6 66 3e 06 40 8b be
       0.16734487 0.30701056 0.22542942 -0.27197284
0002a0 df 63 9e be 49 b4 a4 be 76 14 50 3c c8 8b dc 3d
       -0.3093557 -0.32168797 0.012700191 0.10768849
0002b0 b6 95 8d 3e 81 e7 e2 3e 12 a2 56 3e ba 50 d7 bc
       0.27653283 0.44317248 0.20960262 -0.02628361
0002c0 b6 50 9d 3e ca c3 7f 3e 93 16 91 3e 1a c7 f2 3e
       0.3072564 0.24977031 0.28337535 0.47417527
0002d0 58 37 c7 3e 28 25 0c 3e 64 92 ec 3e f9 4a b9 3e
       0.3890941 0.13686049 0.46205437 0.36190012
0002e0 1b d3 19 3d 14 56 b8 bd 6b 39 56 3e 84 7d 89 3e
       0.03755484 -0.09000793 0.2092034 0.26853573
0002f0 af 6f d7 3b b6 9f b1 3e 74 15 4c 3e a5 36 06 bc
       0.006574593 0.34692162 0.19930059 -0.008191739
000300 35 a1 21 be ca 97 45 3d 4e 48 29 3f 8f a8 bf 3e
       -0.15784152 0.04824046 0.66125953 0.37433288
000310 3d cf 20 3f 82 23 63 be d8 cf e1 3e 03 af fc 3e
       0.6281622 -0.22181514 0.44103885 0.49352273
000320 29 e6 23 bf 8d b9 6a 3e 96 8a b7 be 3e 9b 97 3e
       -0.6402307 0.22922345 -0.3584792 0.29610628
000330 4c e7 a2 be 90 93 2c bf d6 f0 62 be 7b 80 94 be
       -0.3181709 -0.6741266 -0.22162184 -0.29004273
000340 92 25 7a be 31 67 1f be f5 30 b4 bd 8b 63 0b be
       -0.24428394 -0.15566708 -0.087984 -0.13612191
000350 10 49 2a be 17 c1 66 be 92 fe 4f be d6 e2 a1 be
       -0.16629434 -0.22534595 -0.20311955 -0.31618375
000360 5f d1 54 be 15 6c 0c bd c1 42 8f bc 95 1a fb be
       -0.20782994 -0.034282763 -0.017487885 -0.49043718
000370 16 2e b4 bd 3c fb 32 be 6a 27 33 be f9 e2 93 be
       -0.08797853 -0.17478651 -0.17495504 -0.28884104
000380 59 c1 73 be c4 93 53 bb a6 b8 b8 bb 0e db bc be
       -0.23804225 -0.003228412 -0.005637246 -0.36885875
000390 78 8d 82 3e 9d f0 8e 3b 0d fd 9d be 54 17 d6 3e
       0.25498557 0.0043621794 -0.30857125 0.41814673
0003a0 a9 7e ea 3d 50 4d b5 3d 37 1c a8 be 60 7c 05 bf
       0.1144994 0.08852637 -0.32834026 -0.52142906
0003b0 b2 b5 08 3f a6 26 87 be 51 f2 16 3f 7b 7a ac 3e
       0.53402245 -0.26396674 0.58963495 0.33687195
0003c0 d0 42 a7 3e f0 84 dc 3e 92 57 21 3f 9f 4f af 3e
       0.3266816 0.43070173 0.63024247 0.34240434
0003d0 1a b9 8d 3e e3 ed a5 3e 4a 10 5b 3e e7 f4 12 3e
       0.27680284 0.32408056 0.21392933 0.14351235
0003e0 f5 46 f6 3d b3 36 10 3f aa 58 0d 3f dd b0 75 3e
       0.12025253 0.56333464 0.55213416 0.23993249
0003f0 92 66 e7 3e d4 b7 31 3e fc 45 bf 3e ea 56 13 3f
       0.45195442 0.17355281 0.3735808 0.57554495

b f4 [32]
000000 9a 7b 90 be 9b 50 ef 3d cf 0b f9 3e 73 38 c6 3e
       -0.282193 0.11685296 0.48641822 0.38714942
000010 c2 68 e3 be b9 c3 48 3e f0 a3 af be f9 e3 d0 3e
       -0.4441586 0.19605912 -0.34304762 0.4079893
000020 b1 dd a0 3e dd 07 61 be 72 2c 4e 3e ca b6 0a 3e
       0.31419137 -0.21975656 0.20134142 0.13546291
000030 c5 54 79 3e 12 64 aa 3e 63 17 6a 3e ea 55 a6 be
       0.24348743 0.33279473 0.22860484 -0.32487422
000040 95 f3 9e be 0c 85 ac 3e 40 2c a9 be dc e8 7a be
       -0.31045213 0.33695257 -0.33041573 -0.24502891
000050 d2 4c 15 be 2f c5 a9 be 46 82 37 3e 2b b0 aa 3e
       -0.14580086 -0.33158252 0.17920789 0.3333753
000060 00 3a c7 3e 1f 06 eb bc 86 9f 8a be 51 5f a5 be
       0.38911438 -0.028689442 -0.27074832 -0.32299283
000070 2b d1 71 ba c2 70 54 be dd 73 b1 3e 11 2d bc be
       -0.0009224589 -0.20746139 0.3465871 -0.36753133

W f4 [32, 32]
000000 85 5e 76 be 09 97 1c 3f 12 f6 1e 3d 50 31 13 3e
       -0.24059494 0.6116796 0.03880889 0.1437428
000010 12 21 e3 3e 48 4b e4 3e 3a b1 d3 3d e7 17 8c be
       0.44361168 0.44588685 0.10336538 -0.27361986
000020 02 f0 c7 bd 5e 2c f2 3e 0b ea 9c be 0c a0 ab be
       -0.09762575 0.47299474 -0.3064731 -0.33520544
000030 c6 99 2a 3f e8 f7 08 3f e7 1e e8 3d 1c f7 4c bd
       0.6664089 0.53503275 0.11334019 -0.05004035
000040 27 06 b6 bd 62 71 f3 3d 83 75 33 be 3f 7b c7 be
       -0.08887892 0.118868604 -0.17525296 -0.38961217
000050 ba 74 f0 bc dd 67 01 3f c1 17 1f 3e 17 db 07 3f
       -0.029352535 0.5054911 0.15536405 0.5306868
000060 88 4f d3 bd d4 9a 6a 3e 74 60 a4 be 4e 7f a8 be
       -0.10317904 0.22910625 -0.32104838 -0.32909626
000070 81 96 51 3e 68 8a 34 3f 55 4d 9d be 8a 00 37 3e
       0.20467569 0.7052369 -0.30723062 0.178713
000080 2a 53 29 bd 02 2c 2a bf 3d 51 ef 3e 82 72 6d 3d
       -0.041339077 -0.664734 0.46741667 0.05797053
000090 d8 27 d1 be 90 17 93 3e 2a 39 29 3e 5d c9 14 be
       -0.4085071 0.28728914 0.16525713 -0.14529939
0000a0 ac b8 f0 3e 3c be 22 bf ea 96 fb 3c 63 30 e5 3e
       0.47015893 -0.63571525 0.03071161 0.4476348
0000b0 85 62 a6 bd 5a 77 b5 3e c2 38 77 3d 7f 5c e1 be
       -0.0812426 0.3544262 0.060356863 -0.4401588
0000c0 90 50 96 3e e4 51 23 bf 6b 27 e8 3e a3 8d 18 3f
       0.2935834 -0.6379683 0.45342574 0.5959112
0000d0 d4 2d 38 be 25 7d 04 bd ea 93 ba 3e f3 da 74 be
       -0.17986232 -0.03234591 0.36440974 -0.23911647
0000e0 ef 30 87 3e 14 43 89 3c ae 00 65 3c ef 3b 1e 3e
       0.2640452 0.016755618 0.013977213 0.1545255
0000f0 db a0 a2 be c3 1f 9d bd 4e 94 bd 3e a3 f5 24 bf
       -0.31763348 -0.07672074 0.3702721 -0.6443731
000100 93 cb fd 3e d4 27 96 be 01 59 22 3f 09 67 b2 be
       0.49569377 -0.2932726 0.6341706 -0.34844235
000110 e5 86 c9 be 8f 01 0f bf 9b f6 af 3e 8f 9b c6 be
       -0.3936073 -0.55861753 0.34367833 -0.38790557
000120 a7 2b 12 bd 88 e1 97 be 19 8d 12 3f 37 b4 49 bd
       -0.03568616 -0.29664254 0.5724655 -0.049244132
000130 c7 cd e1 be 69 c7 04 bf b0 d0 9f bd 41 1e b9 be
       -0.44102308 -0.51866776 -0.07803476 -0.36155894
000140 ef a2 1f be 8e 61 05 bf 7f 01 bb 3e 80 60 6f be
       -0.15589498 -0.5210198 0.3652458 -0.23376656
000150 a5 11 d6 bd 12 36 82 be e0 a7 15 3e 27 30 28 3d
       -0.10452584 -0.25431877 0.1461482 0.041061547
000160 7d 49 5a be 1f c1 03 bf d8 91 25 3f eb 2d 01 be
       -0.21317096 -0.51466554 0.64675665 -0.12615173
000170 3c 77 98 be 88 c4 46 3e 0a 87 bc 3c e8 a3 07 bd
       -0.2977847 0.19410908 0.02301361 -0.033115298
000180 80 ac f2 3e 65 52 16 bf 85 53 f0 3e af 20 85 bd
       0.47397232 -0.58719474 0.4693872 -0.065003745
000190 0b 29 58 3e 22 68 0e 3f 94 f7 a1 be 49 8f fc 3e
       0.21109407 0.55627644 -0.316342 0.49328068
0001a0 60 ee f2 3d 49 93 9d be 6c ac 8a 3e 8a 59 6f 3e
       0.11861873 -0.30776432 0.27084672 0.23374
0001b0 33 c9 4c 3e 63 6b 03 3f 01 a6 19 bf 50 1f 64 3e
       0.19998626 0.51335734 -0.60018927 0.2227757
0001c0 1b fb 10 3e 26 35 22 3d 72 f7 8b 3e e9 8e c8 3e
       0.14158289 0.039601468 0.27337223 0.39171532
0001d0 8e 6d df 3e c9 c4 73 3e 09 ea 6d be 8d e4 bb 3e
       0.4363827 0.23805536 -0.23233809 0.36697808
0001e0 ae c8 9e 3e 76 d0 97 bd 98 21 fe bd a2 6d c5 3e
       0.3101248 -0.07412808 -0.12408751 0.38560206
0001f0 6f ea 01 3e 2f 65 30 bb 66 52 86 be 12 82 8b 3d
       0.12687086 -0.002691578 -0.2623474 0.06811918
000200 61 22 d4 be cc c9 fc 3e d7 21 c3 be b2 27 ba be
       -0.4143248 0.4937271 -0.38111755 -0.3635841
000210 60 3d a4 bd 50 1e 87 bc 7f a7 9c 3e 9e a5 18 bf
       -0.08019519 -0.016493946 0.3059654 -0.5962771
000220 da 13 cc bd 5a a6 be 3e 5e 26 6e bc 07 ca e4 3d
       -0.09964724 0.3723629 -0.014535515 0.11171346
000230 65 b5 fd bd 25 4b 9e be 64 eb f8 3e a2 08 54 be
       -0.12388114 -0.30916706 0.4861709 -0.20706418
000240 1c 4b d1 be 65 87 1c 3f ff 44 0c 3f d5 88 d8 be
       -0.40877616 0.61144096 0.5479278 -0.42291895
000250 7b 5b d2 be 3f 81 92 be 43 13 f5 3e b7 79 47 be
       -0.4108542 -0.28614232 0.47866258 -0.19480024
000260 58 e9 4b be 26 86 6e 3d f8 eb 04 3f a1 4d 82 be
       -0.19913232 0.058233403 0.5192256 -0.2544985
000270 3d 23 f0 be d3 12 31 3d 39 8a 74 3e 09 d4 a6 be
       -0.46901885 0.043230843 0.23880853 -0.32583645
000280 5c 35 ee 3e 4a 2a 28 3e d3 5f 72 3e 7c b3 62 be
       0.46525085 0.16422382 0.23669367 -0.2213878
000290 af d7 43 be 20 07 94 3d e5 c8 e7 3e 6b 1f b3 be
       -0.19125246 0.072279215 0.45270458 -0.34984908
0002a0 16 21 28 bf 2d 6c 52 3e ac 3b aa bd 95 b8 00 bf
       -0.65675485 0.20549078 -0.08312163 -0.5028165
0002b0 f1 bb f6 be 16 51 92 3e 79 5a a2 3e ce 90 a9 be
       -0.48190263 0.2857749 0.3170965 -0.3311829
0002c0 d5 8d 5f bf 25 39 a4 3c 0d 7b b7 3e 57 0b d3 be
       -0.87325794 0.02004678 0.35836068 -0.4121959
0002d0 2f 5e d4 be 93 c5 90 3d 7e 19 1d 3f ca 67 61 bd
       -0.41478106 0.07068934 0.61367023 -0.05503062
0002e0 55 c3 49 bf d5 ab f2 3e 77 23 dc be db 2c f9 be
       -0.7881368 0.47396722 -0.42995808 -0.48667035
0002f0 a5 a1 01 bf d5 02 04 3f 78 d4 15 3f 40 82 3d be
       -0.50637275 0.5156682 0.58527327 -0.18506718
000300 da ef 7b 3e ec b7 a8 bd 32 5d c2 3e d7 cf dc 3e
       0.24603215 -0.08238205 0.37961727 0.4312732
000310 1a 1b 16 3e f1 07 b2 be b7 b1 fe 3c 2c 8a b4 be
       0.14658776 -0.34771684 0.0310906 -0.35261667
000320 ae 43 7f 3e 36 6a ad 3d 1f 27 04 3e 88 72 8e bd
       0.24928162 0.08467524 0.12905549 -0.06955439
000330 af 87 5d be fb 1e 9c be 41 1a ca bd 45 73 d0 be
       -0.2163379 -0.30492386 -0.09868289 -0.40712944
000340 59 f5 3f 3f 7e 16 ad 3e 6d 8c ec 3e 96 d0 0e 3e
       0.74983746 0.33806223 0.46200886 0.13946757
000350 ce 7b b6 be 1c e0 01 3d 0b 7e 87 3e cf 5d ad be
       -0.3564133 0.031707868 0.2646335 -0.33860633
000360 b5 75 dc 3e c2 00 dc 3e 7b 0e 59 3f c9 47 77 be
       0.43058553 0.42969328 0.8478772 -0.24148478
000370 21 b6 48 be 8a 1f 32 3f e0 db 3f 3e 4c e3 b6 bd
       -0.19600727 0.69579375 0.1873622 -0.08930072
000380 7f ce 2e bf e6 88 d5 be e8 bf c5 be 0d ee cb 3d
       -0.6828384 -0.41706008 -0.38622975 0.09957514
000390 81 e3 22 3d 95 0e 2d be ad 57 b4 bb 0e 84 8a 3e
       0.039767746 -0.16900094 -0.005503616 0.27053875
0003a0 e6 f9 1f 3e a6 ed 0c bf 69 42 2c bf 3e dd 56 3c
       0.15622672 -0.5505012 -0.67288834 0.013114272
0003b0 58 00 1f 3f a9 eb 82 bd b7 26 a2 be e3 e5 1c 3f
       0.621099 -0.06392605 -0.31670162 0.6128828
0003c0 81 ca 90 3e 7e 4a 57 be 48 2b 60 be 7e b1 dd 3d
       0.28279498 -0.2102451 -0.2189151 0.108248696
0003d0 1a d3 0a 3f 7c 79 af be 94 30 ff bd b0 bd 10 3e
       0.54228365 -0.34272373 -0.124604374 0.1413486
0003e0 3e 3a 02 bf 4f 6c 12 bf 23 9f 7a be da b1 e7 3e
       -0.5087012 -0.57196516 -0.24474768 0.45252877
0003f0 f5 21 29 3e 4d e1 ce bd cf 49 32 be e6 e2 97 3e
       0.1651686 -0.101015665 -0.17410968 0.29665297

b f4 [32]
000000 e2 73 de bd 9e 56 a1 3e 11 e0 31 3e a5 b9 47 be
       -0.10861947 0.31511396 0.17370631 -0.19504412
000010 39 c3 bf 3e fe 67 aa be ae a4 a9 3e 93 81 75 be
       0.3745363 -0.33282465 0.33133453 -0.2397521
000020 13 67 b0 3e d5 a2 c6 bd 4e 62 ee 3d 6a 62 93 3c
       0.3445364 -0.096990265 0.11639844 0.017991263
000030 c4 22 a9 be a6 21 ae be bc 04 07 3f 5a e4 38 3e
       -0.33034337 -0.34010047 0.527416 0.18055859
000040 dc 7e 43 3e f8 c7 30 3e 67 92 b5 be 42 d7 b6 3e
       0.19091362 0.17263782 -0.3546326 0.35711104
000050 bf 00 f3 3d 12 25 9b 3e 17 ca cc 3e 31 ee c0 be
       0.11865377 0.3030172 0.39997932 -0.37681726
000060 32 d3 6c be e6 c7 dd be ef aa 80 3c 39 a7 c4 be
       -0.2312744 -0.43316573 0.015706507 -0.3840883
000070 66 3c c2 bd 88 99 af be f2 5b 5c 3e c2 e3 53 be
       -0.09484176 -0.34296823 0.2151945 -0.20692351
