saved_models/model-epoch-8.pth (torch, 249104 bytes, 52 tensors)

embeddings f4 [99, 32]
00000000: 76fa 593e d4a6 4dbe d2be f03d c77e 133d
00000010: b0a0 69bd a282 cfbd f779 ae3d 2d0c 2fbe
00000020: 986b f8bd 8107 bb3d 5c7f a33c c133 35be
00000030: 5f3a 1f3e 6409 58be d4a9 60bc e49e 17be
00000040: 4ddb 4b3e 760b a2bd 6b53 293e 2f9b 3cbd
00000050: 9a6b 093d 3f6e 313e e494 adbd 4f4a abbd
00000060: 4ad8 54be e1eb 7bbd 4585 28be ab7b 013e
00000070: 2b1d 253e 9692 363e 12dc bfbd 2e68 1f3e
00000080: 41c2 5abc d9de c53d 0e16 da3d 300c 4ebc
00000090: f818 a23d 38c5 2c3e a2c5 e9bd 5105 4abe
000000a0: e6af a83d ffcf b2bd 8623 043c 8ecc 3bbe
000000b0: dd3f a4bc 6db5 06be ada8 2cbe 2000 693d
000000c0: 5903 323e 07f4 f4bd 0a2d ccbd b7bd 0e3e
000000d0: 1457 15be 6370 cbbd 4ded 343e 2cdd eb3d
000000e0: bcc2 fb3c da05 ca3d 3911 a3bd 1c33 533e
000000f0: 76d7 0ebe 3302 09bd 8c79 73bd dd37 463e
00000100: 9c69 2bbe 0078 46bd e72e 24be 9568 213e
00000110: 9356 e8bd 7d05 aebd 2b90 12be 8ea6 babc
00000120: 399a 53be f433 f2bd bf97 583d ad46 57be
00000130: ee82 60bd b53d ef3d e38f 0e3d 9eef 6e3d
00000140: 1285 c1bd df58 d13d 5af9 723c 5be6 d9bd
00000150: 64d1 493e 4d25 60bd b7c4 3d3d 3593 2b3d
00000160: bd3b b03c af87 17be f894 b3bb 38a6 20bc
00000170: 9035 e8bd b6a0 18bd 2db4 8f3c 4f6a 3abc
00000180: 8bc8 58be 00b9 1c3d e441 13be 5b87 4d3e
00000190: a9f9 193e 5d5a 9d3b 5880 ed3d 2a78 843d
000001a0: 13c2 503d d8cc c3bd 91ef 2c3b 9b75 4b3b
000001b0: 6912 2a3e 29dc 67bd 66fa cb3c ff5d ccbd
000001c0: c5f7 a3bd ba91 5abd f25c c13d c7e1 c83d
000001d0: c1df 4fbe 9799 81bd 04ac 15bb 9e23 dc3d
000001e0: d351 12be 5f5c dbbd 4cac 503e d3ce 41be
000001f0: 0648 263c 6d62 89bd 2017 02be 69cd 3fbe
00000200: 13c6 4cbe c093 183e 1b66 0a3d 0d2f 443d
00000210: 6f5b 423d aaa2 17be 30f4 1bbe 3f21 e13c
00000220: 58ea 57bd 0ce1 1e3e bfd4 ab3c 046e 1d3e
00000230: d1dd 463c e8f4 3fbe 6823 143d 29bd 19be
00000240: 8f06 0e3e a820 0fbe 114f 32be 517b 2ebe
00000250: 3d5f 12be 341a 1c3e 7213 593b 683b 2ebe
00000260: ef23 acbd 0f4d 713d f4ee 063e c8eb 2d3d
00000270: 8b86 083e e6e0 9dbd e229 503e adec 8f3d
00000280: 9166 99bd 9ef0 37bd 81d7 e33b 0ba8 16be
00000290: 570d 2bbe 1e73 2d3e d5fd bbbd e8ee 173e
000002a0: 67b9 383e 5fe9 6bbc 227b 273d bba6 363e
000002b0: 7cb7 023c a80b 2d3e f23e 3d3e 5123 e83c
000002c0: 508f 513d 3cb9 e83d 2862 2c3e 4fb8 313e
000002d0: 4f4b b43c 6ebe f9bd ebb6 303e 5a62 da3d
000002e0: 4ee7 9cbd 7078 4fbe b1da 03be 27a9 17bd
000002f0: 61b5 4c3e b484 75bd 42c4 42be 27f6 203e
00000300: fd14 323e f84a 5c3c edb6 1ebe b5ab 96bd
00000310: dd37 0dbe 0fb7 3f3e 9f8f 30be b856 6fbd
00000320: 205d 50be 7061 053d b367 9ebc 629a 973d
00000330: ebbf 4ebe e1e8 283d 51f5 4abe 284a 353e
00000340: 50ca 12bc da65 44be 940d 52bd 2bf9 4f3e
00000350: 4846 49bd 106e 46be 1b3f 37be 5b47 25be
00000360: 1b11 9cbd dcae ffbd a485 31be 8c73 ac3c
00000370: 48b7 2dbe 4fcb 3d3e aba5 c23d 27c9 06be
00000380: 16ed d43c e32e 0ebc 92cd 22be 683e 293e
00000390: 5bb7 d5bd 4547 f03c 7296 0abe 6ab3 31be
000003a0: 4f2d adbc fbc0 233e a888 fdbd 6802 573e
000003b0: 4fa4 f4bb b0cb d73d 15f0 f73d 012e ce3d
000003c0: 07cf 023b bd25 0e3d 1133 84bd 73bd 273e
000003d0: bcb6 493e 6eeb 55be 6a7b a2bd b141 2dbe
000003e0: 5bcc 343c 26ea 48be 8458 febd 2d8b 523e
000003f0: 0c32 e1bc 399b bfbc 7e4a 143e ea89 de3c
0.2128695 -0.20083171 0.11755146 0.036009576 -0.05703801 -0.10132338 0.08519357 -0.17094488
-0.12129897 0.09132291 0.01995819 -0.17695524 0.1554961 -0.21097332 -0.013712365 -0.14806706
0.19907875 -0.07912342 0.16535728 -0.046046432 0.033549882 0.17327212 -0.08475664 -0.083637826
-0.20785633 -0.06150425 -0.16457088 0.12644832 0.16124408 0.17829356 -0.09368147 0.15567085
-0.013351978 0.096616454 0.10648738 -0.012576148 0.07914919 0.16872108 -0.114146486 -0.1972859
0.08236675 -0.08731078 0.00806511 -0.1833975 -0.020049984 -0.13155146 -0.1686122 0.056884885
0.1738409 -0.11960607 -0.09969528 0.13939558 -0.14583999 -0.099335454 0.17668648 0.115167946
0.030732505 0.09864397 -0.07962269 0.20624965 -0.1394938 -0.033449363 -0.059442088 0.19357248
-0.16739506 -0.048454285 -0.16033517 0.15762551 -0.11344638 -0.084971406 -0.14312808 -0.022784498
-0.206643 -0.118263155 0.05287909 -0.21023054 -0.054812364 0.116816916 0.03480519 0.058333986
-0.09449209 0.10222029 0.014829958 -0.1063964 0.19708782 -0.054723073 0.04633018 0.041888434
0.02151286 -0.14797853 -0.005480405 -0.009805255 -0.11338341 -0.03726264 0.01754197 -0.011377885
-0.21170251 0.038262367 -0.14380604 0.20071165 0.15036644 0.004802032 0.11596745 0.06468232
0.050966334 -0.09560555 0.002638791 0.003104544 0.16608585 -0.056606445 0.024899673 -0.09978866
-0.08006243 -0.053361632 0.09441556 0.098086886 -0.20300199 -0.06328123 -0.0022838125 0.10748981
-0.14289026 -0.10710978 0.20378226 -0.18926553 0.010149008 -0.06708226 -0.12704134 -0.18730702
-0.19997434 0.14900112 0.03378878 0.047896434 0.04745048 -0.14808145 -0.15229869 0.027481673
-0.052713722 0.15515536 0.020975469 0.15373999 0.012137846 -0.18745768 0.03616658 -0.15013565
0.1386969 -0.13977301 -0.17412974 -0.17039229 -0.14294143 0.1524437 0.0033123163 -0.17014849
-0.08405291 0.05891138 0.13177091 0.042461187 0.13332574 -0.077089116 0.20328477 0.07027564
-0.07490266 -0.044907205 0.0069531803 -0.14712541 -0.16704307 0.16938445 -0.09179274 0.14837229
0.18039475 -0.014398902 0.040888913 0.1783704 0.007978316 0.16898978 0.18481043 0.028337153
0.051162064 0.11363456 0.16834319 0.17355464 0.022008566 -0.12194525 0.17257278 0.1066329
-0.07661305 -0.20260787 -0.12876393 -0.03702655 0.19991066 -0.05994101 -0.19020179 0.157189
0.17390819 0.013445608 -0.15499468 -0.07356969 -0.13790841 0.18722175 -0.17242287 -0.05843231
-0.20348024 0.032563627 -0.019336557 0.07402493 -0.20190398 0.041237716 -0.19820143 0.1770407
-0.008959368 -0.19179478 -0.05128248 0.20309894 -0.04913929 -0.19377923 -0.17895167 -0.16140501
-0.0762045 -0.12484524 -0.17336136 0.02105119 -0.16964447 0.18534587 0.09504255 -0.13162671
0.025991958 -0.008678171 -0.15898731 0.16527712 -0.10435363 0.029330859 -0.13533953 -0.17353597
-0.021139769 0.15991585 -0.12379581 0.20997012 -0.007465876 0.10536897 0.12106339 0.10067368
0.0019959824 0.03470396 -0.06455053 0.16380863 0.19698614 -0.2089059 -0.079336956 -0.1691959
0.01103505 -0.1962057 -0.12419227 0.20560904 -0.027489685 -0.023389446 0.14481542 0.027165372

_pos_embeds f4 [64, 32]
00000000: 0000 0000 0000 803f 0000 0000 0000 803f
00000010: 0000 0000 0000 803f 0000 0000 0000 803f
00000020: 0000 0000 0000 803f 0000 0000 0000 803f
00000030: 0000 0000 0000 803f 0000 0000 0000 803f
00000040: 0000 0000 0000 803f 0000 0000 0000 803f
00000050: 0000 0000 0000 803f 0000 0000 0000 803f
00000060: 0000 0000 0000 803f 0000 0000 0000 803f
00000070: 0000 0000 0000 803f 0000 0000 0000 803f
00000080: a46a 573f 4051 0a3f ba7d 083f 0e94 583f
00000090: 3e39 9f3e 6a4e 733f 3a23 353e 83f6 7b3f
000000a0: 7675 cc3d 98b8 7e3f b036 663d 6898 7f3f
000000b0: 5c81 013d 3cdf 7f3f 42ab 913c a3f5 7f3f
000000c0: 57d6 233c b9fc 7f3f 5c44 b83b f7fe 7f3f
000000d0: 203e 4f3b acff 7f3f 2015 e93a e5ff 7f3f
000000e0: 6d12 833a f8ff 7f3f 166a 133a fdff 7f3f
000000f0: 5fcb a539 ffff 7f3f 5377 3a39 0000 803f
00000100: b7c7 683f 3311 d5be 0af2 663f b2e8 dc3e
00000110: 1b54 173f ec7b 4e3f f647 b23e a5fa 6f3f
00000120: f96f 4b3e a5e5 7a3f 88d9 e53d f361 7e3f
00000130: c870 813d f97c 7f3f 5ca5 113d 8ed6 7f3f
00000140: 3ed4 a33c e5f2 7f3f 9d43 383c dbfb 7f3f
00000150: dd3d cf3b b0fe 7f3f 0815 693b 96ff 7f3f
00000160: 6912 033b deff 7f3f 146a 933a f5ff 7f3f
00000170: 5fcb 253a fdff 7f3f 5377 ba39 ffff 7f3f
00000180: c381 103e 2670 7dbf d745 7e3f a87f edbd
00000190: c209 503f 572f 153f 6d2f 023f 296d 5c3f
000001a0: 6d4e 973e ef90 743f d8ee 2b3e 9e5d 7c3f
000001b0: c1ff c13d 4fd9 7e3f 4d69 5a3d c3a2 7f3f
000001c0: 20b9 f53c 83e2 7f3f c731 8a3c adf6 7f3f
000001d0: 116e 1b3c 0dfd 7f3f a8cf ae3b 11ff 7f3f
000001e0: 939b 443b b5ff 7f3f 1b1f dd3a e8ff 7f3f
000001f0: 0db1 783a f8ff 7f3f 7ed9 0b3a feff 7f3f
00000200: cfbd 41bf 3055 27bf ed49 473f 9daf 20bf
00000210: de1d 743f b12e 9a3e bc1f 273f edeb 413f
00000220: d761 c73e a7ca 6b3f c665 643e 098d 793f
00000230: 882e 013e 69f4 7d3f c88d 913d 475a 7f3f
00000240: dbcb 233d 94cb 7f3f a240 b83c 6cef 7f3f
00000250: cd3c 4f3c c2fa 7f3f a714 e93b 58fe 7f3f
00000260: 5812 833b 7aff 7f3f 0e6a 133b d6ff 7f3f
00000270: 5ccb a53a f3ff 7f3f 5277 3a3a fcff 7f3f
00000280: 107c 75bf 2c3c 913e d6da a53e 4032 72bf
00000290: 7ffc 7f3f d472 29bc abca 463f f14c 213f
000002a0: 4477 f53e 40a9 603f ee11 8e3e 7cf2 753f
000002b0: 1e3c 213e 81ce 7c3f 21db b53d 1efd 7e3f
000002c0: f5b6 4c3d 19ae 7f3f fe4d e63c 19e6 7f3f
000002d0: 8185 813c cff7 7f3f bbac 113c 69fd 7f3f
000002e0: ded6 a33b 2eff 7f3f 8c44 383b beff 7f3f
000002f0: 313e cf3a ebff 7f3f 2615 693a f9ff 7f3f
00000300: 8c0f 8fbe b8cd 753f 74e5 6bbe 531d 79bf
00000310: 4d78 723f 6f3f a4be 8930 603f 342f f73e
00000320: 698c 103f 3249 533f fd7d a93e e290 713f
00000330: 6f20 413e e367 7b3f c119 da3d 518b 7e3f
00000340: d19c 753d 128a 7f3f bf2c 0a3d b3da 7f3f
00000350: 466c 9b3c 34f4 7f3f 04cf 2e3c 45fc 7f3f
00000360: 599b c43b d2fe 7f3f 061f 5d3b a1ff 7f3f
00000370: 05b1 f83a e2ff 7f3f 7dd9 8b3a f6ff 7f3f
00000380: 4630 283f bdff 403f 6eb6 36bf 604f 33bf
00000390: 6fe8 4c3f bb74 19bf 4484 723f b9f8 a33e
000003a0: 73eb 243f b3cc 433f df60 c43e c56b 6c3f
000003b0: 50d3 603e eac0 793f ba46 fe3d e904 7e3f
000003c0: 323e 8f3d 815f 7f3f 6031 213d 3bcd 7f3f
000003d0: a652 b53c f2ef 7f3f 2af1 4b3c ecfa 7f3f
000003e0: c75f e53b 65fe 7f3f befc 803b 7eff 7f3f
000003f0: ec11 113b d7ff 7f3f 6628 a33a f3ff 7f3f
0.0 1.0 0.0 1.0 0.0 1.0 0.0 1.0
0.0 1.0 0.0 1.0 0.0 1.0 0.0 1.0
0.0 1.0 0.0 1.0 0.0 1.0 0.0 1.0
0.0 1.0 0.0 1.0 0.0 1.0 0.0 1.0
0.84147096 0.5403023 0.53316844 0.84600914 0.3109836 0.95041525 0.17689219 0.9842302
0.099833414 0.9950042 0.056204498 0.9984193 0.031617507 0.99950004 0.017781857 0.99984187
0.009999833 0.99995 0.0056233834 0.9999842 0.0031622723 0.999995 0.0017782785 0.9999984
0.0009999998 0.9999995 0.0005623413 0.9999998 0.00031622776 0.99999994 0.00017782794 1.0
0.9092974 -0.41614684 0.9021307 0.43146282 0.5911271 0.8065784 0.34820527 0.9374183
0.19866933 0.9800666 0.112231314 0.9936821 0.063203394 0.9980007 0.03555809 0.9993676
0.019998666 0.9998 0.011246589 0.99993676 0.0063245133 0.99998 0.0035565514 0.9999937
0.0019999987 0.999998 0.0011246824 0.99999934 0.0006324555 0.9999998 0.00035565588 0.99999994
0.14112 -0.9899925 0.9932532 -0.11596614 0.8126489 0.5827536 0.50853616 0.86104065
0.29552022 0.9553365 0.1679033 0.9858035 0.09472609 0.99550337 0.05332308 0.9985773
0.029995501 0.99955004 0.016869439 0.9998577 0.009486691 0.999955 0.005334813 0.99998575
0.0029999956 0.9999955 0.0016870232 0.99999857 0.0009486832 0.9999995 0.0005334838 0.9999999
-0.7568025 -0.6536436 0.77847177 -0.62767965 0.95358074 0.30113748 0.652828 0.7575062
0.38941833 0.921061 0.22304448 0.9748083 0.12615407 0.99201065 0.07107121 0.9974713
0.039989334 0.9992001 0.022491757 0.99974704 0.012648773 0.99992 0.0071130577 0.9999747
0.0039999895 0.999992 0.0022493633 0.9999975 0.0012649107 0.9999992 0.0007113117 0.99999976
-0.9589243 0.2836622 0.3239352 -0.94607925 0.99994653 -0.010342319 0.77652997 0.6300803
0.47942555 0.87758255 0.27748054 0.96073127 0.15745589 0.987526 0.08879686 0.99604976
0.04997917 0.99875027 0.028113361 0.99960476 0.01581073 0.999875 0.00889128 0.9999605
0.0049999794 0.9999875 0.002811703 0.99999607 0.0015811381 0.99999875 0.0008891396 0.9999996
-0.2794155 0.96017027 -0.23036748 -0.9731037 0.94714814 -0.32079646 0.8757406 0.482782
0.5646425 0.8253356 0.33103934 0.943617 0.18860029 0.98205394 0.106494434 0.9943133
0.059964005 0.99820054 0.03373408 0.99943084 0.018972527 0.99982 0.010669474 0.9999431
0.005999964 0.999982 0.0033740415 0.99999434 0.0018973654 0.9999982 0.0010669675 0.9999994
0.6569866 0.75390226 -0.71372116 -0.7004299 0.80042166 -0.5994374 0.9473307 0.32025698
0.64421767 0.7648422 0.38355157 0.92351943 0.2195561 0.9755999 0.12415834 0.9922624
0.06994285 0.997551 0.03935373 0.9992253 0.022134136 0.999755 0.012447635 0.9999225
0.006999943 0.9999755 0.003936379 0.99999225 0.0022135926 0.99999756 0.0012447953 0.9999992

W f4 [32, 32]
00000000: 8a09 263e eacd 20bf 689d 693e 0e6c 733d
00000010: 03cc 74be 4c8c 17be 2c99 d13e 7da4 80be
00000020: 4061 e1be b067 92be 7f83 a63e 23d0 e1bd
00000030: b813 f53e 3bf3 963e aadf b83e edf7 033f
00000040: 3024 4d3e 2d69 043f 8b63 113f c385 f73e
00000050: 6005 823e b68b 453f 0333 073f 9cb3 a43e
00000060: 6a7e d93e f81d 3a3f 8d47 d53e dc77 0a3f
00000070: 2b67 913e 41d6 ed3e 498a dc3e 90a6 403f
00000080: 340b 833e 145c 90bd ccb9 8ebe 55cb 8f3e
00000090: b59e 26bf 0828 34bd b59a f73e 4f87 133f
000000a0: 718d 043f 42ff 19bf 8f91 e4be 4c88 9b3e
000000b0: 4e51 6cbe 79ff 54bc e3d5 28bf 974d 29bf
000000c0: 35b6 94be c098 0cbf 6c5b 5bbe 6ae4 84be
000000d0: 876f 21bf f193 2ebf 3e9f 0cbf c13f 0cbf
000000e0: 1b01 fbbe 9d2c 22bf c1db a5be d9f8 19bf
000000f0: f1a1 d0be d69d 15bf 1751 42bf c653 2abf
00000100: d580 8cbc a2b4 203f 2d6e 00bf ac17 b1be
00000110: c22e 383f be00 313f 1f3c 11bf 4a27 a3be
00000120: b940 ca3c b611 143e f61c 033d 882d 18bf
00000130: 4095 e73e 1afb e0be 8523 ff3e dacc 643e
00000140: c455 693e d7fe 323e bfa5 203e a3c7 d53e
00000150: 2e75 333f b9e0 1f3f 21a4 f03e fba4 883e
00000160: caee 183e 75f3 c33e 438d 913e a539 903e
00000170: 6d5a 0d3e 5179 373f 3ed5 4e3e 7708 cd3e
00000180: e155 323e ab46 cf3e b1ac fd3e c21e 7a3e
00000190: 3b51 c43e 1eb9 623d 73a6 b33e 273b a9be
000001a0: 865e ab3e 3145 1abe d25e 1cbf e6ed 993e
000001b0: b167 28be 2c2c 4f3d a201 a2bd 8d8c 7cbe
000001c0: 26d3 9d3d f50a b53d 8933 cebe 3c5a 0dbe
000001d0: 5c8d e53d 28d9 f0be 92a5 d6be 347a 08be
000001e0: 99bc 39be 8844 55be 7090 ddbe 1c82 76be
000001f0: 6c3b d33d 6296 7cbe d7e5 e9ba df2f 30be
00000200: aca8 8abe 2ff9 9c3d 379f adbe d65f 06bd
00000210: e469 05be 8965 d73e 4f8a 1abf cfb7 47be
00000220: eda9 573c 9e33 e93e dbb0 1bbf ccf4 77be
00000230: 0bb6 c13e c992 fbbe e0e8 3e3e d240 92bb
00000240: 8db8 9c3d 0420 d1bd 0337 a23e b701 433e
00000250: 4195 b73e 3f73 083d e460 5e3e 37f4 8f3e
00000260: 22ce 753c e4c2 a13e 0c7f 0bbe a69d 173e
00000270: d5eb b5bc 26f7 b8bd ed94 a03e ff7a c33e
00000280: f9d4 8ebe 0221 cdbd 5070 e1be 9dc6 b73c
00000290: 6adf 19bf 9420 933e 330f 01bf 492d 653e
000002a0: 83ad 513d c92b d63e 9622 cfbe 627b 153e
000002b0: 6690 06bf e3dd 1fbf 8a89 d2bd 0204 f4be
000002c0: c924 1fbf a673 eebe fe1c ebbe 93c4 1fbe
000002d0: 41ee 7abe b762 12bf b755 f0be bc58 f7be
000002e0: b83c 05bf a19f c0be e802 b0be 88c8 5cbe
000002f0: dd9e 1ebf 06c5 d2be 2a5d dfbe 3ec7 edbe
00000300: 2ec7 da3e ee83 25be f5ae ed3c 9879 253f
00000310: 4573 683e 3884 463e 6cd7 443e 1894 b73e
00000320: f68f cabe ddb6 83be 3df2 2a3e fde8 423e
00000330: 09c4 2c3c 8414 533e 2d66 533d d342 ac3d
00000340: f1a7 d03d 10e4 7a3d bfd9 96be 0946 b0bc
00000350: 7c58 e1be e020 6fbe 4130 5dbe e018 d13d
00000360: 2c76 a1be 8180 fabe b6f1 7ebe f120 c8be
00000370: 48af db3d efe1 5f3d c3c1 29be 9cfd 66be
00000380: 4303 89be 179f 8fbe e37a d03d 449e 8dbe
00000390: c5d9 b8be 8cf3 21be 1985 6dbe 2d68 04bf
000003a0: f6e1 b63e 6722 2d3e ffb8 2cbe b144 00be
000003b0: 2149 26be 1501 c83e e768 9abd 55ed a93e
000003c0: f896 693e 5c68 a73a 6787 3cbe a884 0cbd
000003d0: 4dae ffba fbe0 083e 6971 4d3e a093 45be
000003e0: 94f1 3f3e ad80 f03d c794 d8bd c922 133e
000003f0: 2f18 16bc ade7 c43e 6209 16be 4249 273e
0.16214576 -0.628142 0.22813952 0.05942922 -0.2390595 -0.14799613 0.40937173 -0.25125495
-0.44019508 -0.28594732 0.325222 -0.11026027 0.47866607 0.29482445 0.36108142 0.5155018
0.20033336 0.51722986 0.56792516 0.4834424 0.25394726 0.77166307 0.5281221 0.3216828
0.4247926 0.7270198 0.4165615 0.5408914 0.28399023 0.46452525 0.43074253 0.75254154
0.25594485 -0.070488125 -0.27876127 0.28084818 -0.6508592 -0.04398349 0.4836022 0.5762834
0.5177832 -0.6015512 -0.44642302 0.30377424 -0.2307789 -0.013000363 -0.65951365 -0.6613402
-0.29045263 -0.5492058 -0.21421593 -0.25955516 -0.630608 -0.6819449 -0.54930484 -0.5478478
-0.4902428 -0.63349324 -0.3239422 -0.60145336 -0.4074855 -0.58443964 -0.75904983 -0.6653408
-0.017151276 0.62775624 -0.50168115 -0.34588373 0.71946347 0.6914176 -0.5673236 -0.31865913
0.024689065 0.14459881 0.03201004 -0.59444475 0.45231056 -0.43941575 0.49831787 0.2234377
0.22786623 0.17480026 0.15688227 0.41753873 0.70100677 0.62452275 0.4700022 0.2668837
0.14934841 0.3827168 0.28428087 0.2816898 0.13804026 0.7166949 0.20198533 0.4004552
0.17415573 0.40483603 0.49545816 0.24425796 0.38343224 0.055352323 0.35087928 -0.33052942
0.33470553 -0.15065457 -0.61082184 0.30064315 -0.16445805 0.050579235 -0.07910468 -0.24662991
0.07706289 0.088399805 -0.40273693 -0.13803953 0.11208603 -0.47040677 -0.41923195 -0.13327867
-0.1813835 -0.20826924 -0.4327426 -0.2407307 0.10314068 -0.24666741 -0.0017844987 -0.17205761
-0.2708181 0.076647155 -0.33910534 -0.03280624 -0.13028675 0.42069653 -0.6036729 -0.19503711
0.013163072 0.45547193 -0.60816735 -0.24214476 0.378342 -0.49135426 0.18643522 -0.0044632936
0.07652388 -0.102111846 0.31682596 0.19043623 0.3585606 0.033313032 0.21716648 0.2811601
0.015002759 0.31594002 -0.13622683 0.14806232 -0.02220718 -0.09031515 0.3136362 0.38179776
-0.2789686 -0.10016061 -0.44031 0.022433573 -0.6010653 0.28735793 -0.5041382 0.22380556
0.051190864 0.4183028 -0.40456074 0.14597848 -0.52564085 -0.6244795 -0.1028014 -0.47659308
-0.62165505 -0.46572608 -0.45920557 -0.15602331 -0.24504949 -0.57181877 -0.46940395 -0.48309886
-0.52045774 -0.37621787 -0.34377217 -0.21560872 -0.61961156 -0.41165942 -0.43625766 -0.46441072
0.42730087 -0.16163608 0.02901409 0.6463866 0.22700222 0.19386375 0.19222802 0.35855174
-0.39562958 -0.2572545 0.16693969 0.1903419 0.010544785 0.20613295 0.051611114 0.08411183
0.10188282 0.061252654 -0.29463002 -0.02151777 -0.4401282 -0.23352385 -0.21600439 0.10209823
-0.3153547 -0.48926166 -0.24896893 -0.39087632 0.107267916 0.054658826 -0.1657782 -0.22557682
-0.267603 -0.28051063 0.10179689 -0.2765981 -0.36103645 -0.15815562 -0.23195304 -0.5172146
0.3571927 0.16907655 -0.16867445 -0.12526204 -0.16238834 0.39063326 -0.0753954 0.33188882
0.22811496 0.001277219 -0.18411027 -0.0343062 -0.0019506902 0.13367073 0.20062794 -0.19294596
0.18744498 0.11743293 -0.10575252 0.14368738 -0.009161039 0.38458005 -0.14652017 0.1633654

b f4 [32]
00000000: 275f 033f 77f2 f6be 9e02 e53e a7a1 26be
00000010: 86ef ca3d 107c b6be b41e 43be 912d ef3d
00000020: f572 52be a147 d23d 8f7f 54be 3ae9 bb3e
00000030: 9438 bebe 4b1f 6cbe 3760 38be 5841 b9be
00000040: 918c aabe e41c 8c3e cbd2 50be f321 d5bc
00000050: 45c7 babe 4050 aebe 0326 4abe bffe babe
00000060: baf2 5f3e 7999 f2bd 9fc2 813e ee75 a13e
00000070: bcef c2be 95bc 0d3e 6b19 34be dcc2 3f3e
0.51317066 -0.4823186 0.4472856 -0.16272603 0.09908967 -0.35641527 -0.19054681 0.11678613
-0.20551665 0.102675684 -0.20751785 0.36701375 -0.3715254 -0.23058812 -0.18005453 -0.36182666
-0.3331037 0.27365792 -0.20392911 -0.026017165 -0.36480156 -0.340456 -0.19741063 -0.3652248
0.21869937 -0.11845679 0.25343797 0.31535286 -0.38073528 0.1384147 -0.17587821 0.18726677

W f4 [32, 32]
00000000: 1bd7 153d f0c7 14bf 3d8d 863d c829 ea3d
00000010: 3057 8a3e 062e 433f 58e2 c4be 65a6 c0be
00000020: 30d1 adbe 0118 623e 90ea 973d faf0 95be
00000030: fa5b 813e 3a59 07bd f838 e43e bc11 883e
00000040: 6833 823d d18e 9abc 4e77 ed3e e2e1 c53e
00000050: d5cf 643e 0ac4 183e ce5a 913d 861f 873e
00000060: eb73 ef3e 8c13 643e c5d3 a43d f457 6d3e
00000070: c84d 9b3e bfb0 da3e 9a15 893e ae2f 8e3e
00000080: 2370 7c3d c8d1 0f3e 8aef b93b 644a abbb
00000090: ac44 dcba ff79 6d3e 6041 33bf 5a9e 7c3d
000000a0: 2cf1 933e ab22 133f 6fdd 01be 7017 ddbd
000000b0: 0df3 bfbe 17ab 15bf e9dd bcbe 0e41 1abf
000000c0: a62e 863d c16b f0bd 8dd8 3b3e 212e 983d
000000d0: fd5b 01be ff27 e03c d65b 2bbd b02d e9be
000000e0: 9097 78be 16f2 67be 100a 253e aa2f 63be
000000f0: 8198 35be 3746 eabe 0ba5 b93d 6278 bbbe
00000100: 51a5 36be 7ee9 043f f46b d1bd 78f2 f93e
00000110: 0286 693e b3c1 143f 5f5d e83c 2bba dcbd
00000120: ae05 073f 0278 05bf f572 053f ebad 9d3d
00000130: 1066 d33d 2012 033f 8169 9e3e 31ab ff3e
00000140: 1a36 ed3e 69d7 053f 1a56 c63e c8ed 2d3e
00000150: 4d34 f33e 4ec4 e03d e399 713e 5fb1 c33e
00000160: cfd5 b93d 8632 e93e bd54 9d3e cf90 3b3e
00000170: 78ef 093e a75a 823e 9ee9 fb3e 3d36 183f
00000180: 1be5 233e 4ffc 61be cafc 61bd b9f1 e93d
00000190: b07f 113f e4be 05bf 708e 1b3f e1b8 a1be
000001a0: 2901 b3be 24e8 b6be ca34 973e 062f 813e
000001b0: f8ce 3e3f 64da db3e 6239 003e 3bac ee3e
000001c0: e478 7dbe 3bc4 0b3f a4a4 023e c5c0 a73e
000001d0: aafa 483d 4ca5 853e 8644 98be c182 3f3f
000001e0: ec44 a6be b5b0 fd3e ad14 febd 0c7d 6f3e
000001f0: 87c0 b1be b10e e83e f884 c03d 2934 913e
00000200: b301 f4be 0845 ca3d edb2 2e3f 67dd 493f
00000210: 150c 33bf 4bce 3a3f 9eeb c9be c6ad f33e
00000220: bf32 4f3f 3eff f1be ab77 33bf f163 183f
00000230: 1c3c 92be 9399 9dbe 3884 00bf 867a 67bf
00000240: 29f5 b3be 5ee2 07bf 19df febe f323 e5be
00000250: ce43 13bf e035 b4be 6476 17bf c344 16bf
00000260: adb0 52bf eed7 bdbe 01e4 31bf 5068 14bf
00000270: 035d 52bf 2b83 0cbf a85c 03bf 05d8 96be
00000280: 6b16 f8be ffab 523c f8c7 583e 37d3 99be
00000290: 2ed0 d3be 53d8 133d 516a 04be a652 d73b
000002a0: 0c40 503d eaa0 cdbc 8f03 78bd 23ed ba3e
000002b0: 5749 46bd 6a78 94be b218 7a3c 7c94 4dbe
000002c0: 1328 b83b ad38 c5be 2ae8 393c b662 e2bd
000002d0: f363 f4be c30c 2f3d 7b45 1cbe 6541 a4bd
000002e0: b6ab 69be 9877 f0be a9a7 24be 489a fcbe
000002f0: f6d3 6bbd 23d8 d7bd f65b f9be ef77 55be
00000300: 9b6a a3be c12f 2dbf e88c 5c3d f98f 5c3f
00000310: ae0f 99bd 77be 153e cc7d 1abe 5f67 abbe
00000320: 9ea6 fb3e 536b cf3e 05f4 d7be 81fc a5bd
00000330: 360f f03d 7b00 9dbe e11c b23b ee66 e2bd
00000340: 55fc 953e 390a ce3d d151 5dbe 1e2c 243e
00000350: ca78 a93d f081 8cbe fa13 003e 759e 09be
00000360: bcd8 4c3e 4e0a c53c 177d 033e f64c aa3d
00000370: 7e2d 903e a279 f93d bd78 3abe 6acf 95bd
00000380: 8d14 083e 2126 2c3e c864 873d 8d34 d43e
00000390: aa1a b5bd d2fe 65be 761b f63d f3c0 003f
000003a0: 3906 18bf 14d5 1bbe ce51 d2bd 4c68 07bf
000003b0: 3c29 debd ba94 febe 2d48 433e 66dc b83d
000003c0: ff73 92bc 1ecf 9bbe 21dd 8f3e 2540 1d3e
000003d0: ac0b 1cbe b5d4 97bc ee4f b63e a295 e43d
000003e0: 96ba abbc 016d 7dbd 50f0 373d 7b03 11be
000003f0: ae6a b73e 4aa5 8dbd 7484 39be 292e e33c
0.036582094 -0.5811758 0.06569908 0.114337504 0.27019644 0.762421 -0.38453937 -0.3762695
-0.3394866 0.2207947 0.07417786 -0.29285413 0.25265485 -0.033044077 0.44574714 0.2657603
0.06357461 -0.018866928 0.46380085 0.38648897 0.22344907 0.14918533 0.07097398 0.26391238
0.46768126 0.22273082 0.08048204 0.23178083 0.3033278 0.42712972 0.26774293 0.27770752
0.06163038 0.14044869 0.0056743072 -0.005227374 -0.0016805134 0.23191069 -0.7002163 0.061674453
0.28894937 0.57474774 -0.12682126 -0.10795486 -0.3749012 -0.5846419 -0.36888054 -0.60255516
0.06551866 -0.117393024 0.18344326 0.074306734 -0.12632747 0.027362822 -0.04183563 -0.4554267
-0.24276567 -0.22650942 0.1611712 -0.22186151 -0.17733957 -0.45756695 0.090646826 -0.36615282
-0.178365 0.5191878 -0.102256685 0.488178 0.22805026 0.5810806 0.028364835 -0.10777696
0.5274304 -0.5213624 0.52128536 0.07699188 0.10322201 0.5119953 0.30939868 0.49935296
0.4633034 0.52281815 0.38737565 0.16985238 0.4750084 0.10974942 0.2359386 0.3822126
0.09073984 0.4554636 0.30728713 0.18316959 0.13470256 0.25459787 0.49201673 0.5945776
0.16005366 -0.22068904 -0.05517272 0.11423058 0.5683546 -0.522444 0.6076422 -0.31586364
-0.34961823 -0.35723984 0.29532462 0.2523119 0.7453456 0.42940056 0.1252189 0.46615776
-0.24753147 0.545963 0.12758118 0.3276426 0.049067177 0.26102674 -0.2973978 0.7480889
-0.32474458 0.4954888 -0.12406287 0.23387545 -0.347172 0.4532371 0.09400362 0.28360108
-0.47657546 0.09876448 0.6824177 0.7885346 -0.6994031 0.7297103 -0.39437574 0.47593516
0.8093681 -0.47265047 -0.70104474 0.595275 -0.28561485 -0.3078123 -0.5020175 -0.9042133
-0.3514798 -0.53079784 -0.49779585 -0.4475399 -0.57525337 -0.35197353 -0.59165025 -0.5869867
-0.82300836 -0.37078804 -0.6948853 -0.5797167 -0.82173175 -0.54887646 -0.5131326 -0.29461685
-0.48454604 0.01285839 0.21170032 -0.30043957 -0.41369766 0.036094975 -0.12931181 0.0065711318
0.05084233 -0.025101144 -0.06055027 0.36509046 -0.048409786 -0.2899812 0.015264677 -0.20076174
0.0056200116 -0.38519803 0.011346856 -0.11053984 -0.47732505 0.04273678 -0.1526088 -0.080202855
-0.22819409 -0.46966243 -0.16079582 -0.49336457 -0.05757519 -0.10539272 -0.48702973 -0.20846532
-0.3191727 -0.6765099 0.053845316 0.86157185 -0.07473694 0.14623438 -0.1508705 -0.33477303
0.49150556 0.4051157 -0.4217836 -0.08104802 0.11721651 -0.3066443 0.0054355715 -0.110547885
0.29294077 0.100605436 -0.21613242 0.16032454 0.08274992 -0.27442884 0.1250762 -0.13439353
0.20004553 0.024052765 0.12840687 0.083154604 0.28159708 0.12181403 -0.1821012 -0.07314952
0.1328909 0.1681142 0.066110194 0.41446343 -0.088429764 -0.22460487 0.120169565 0.5029442
-0.59384495 -0.15218002 -0.10269509 -0.5289352 -0.108477086 -0.49722844 0.19070502 0.09026413
-0.017877577 -0.30431455 0.28098395 0.153565 -0.15238827 -0.018534044 0.35607857 0.11161353
-0.020962995 -0.061871532 0.044906914 -0.14161484 0.35823578 -0.06916292 -0.18116933 0.027731972

b f4 [32]
00000000: 6b13 943e e786 49be 5fea ab3e 17fa e23e
00000010: 7601 19bf 7ea8 63be dec7 653c 3619 92bd
00000020: 2d62 b03e 2d18 0f3e 18d0 5dbe 871e b3be
00000030: 099e d73e dcc0 2b3e 51c2 8a3e 8c59 2ebe
00000040: df0c c1be e643 54be 8969 aebe 8c73 633e
00000050: f434 333e 50a6 a4be 266b b7be 75d4 d23e
00000060: 51fe 9fbe b826 a03e bbdf 5e3e 534f c03e
00000070: fcb6 3ebd adde 3abe abe9 4dbe ee03 b73e
0.28921065 -0.19680367 0.33577248 0.44331428 -0.59767854 -0.22232243 0.014024703 -0.07133715
0.34449902 0.13974066 -0.21661413 -0.34984228 0.4211276 0.16772789 0.27101377 -0.17026347
-0.37705132 -0.20729026 -0.34064892 0.22212046 0.17500669 -0.32158136 -0.35823935 0.41177717
-0.31248716 0.3127954 0.21765034 0.3756052 -0.046561226 -0.18249007 -0.20108669 0.35745186

W f4 [32, 32]
00000000: 8dcd 1f3f 83df 06bf ffee bc3c d464 dd3e
00000010: e0a1 45bd 7b71 8cbe 4599 173f 40b3 fabe
00000020: 26d0 093f 754c ccbe ad27 563f 33cd db3d
00000030: 8c86 95bd e0cf 803e d6a1 86be e975 52be
00000040: 331f f8bd affb a6be 2591 4dbe 74c3 11be
00000050: 057a 26bf 7592 483d 46ed 27be dbbc fdbd
00000060: 1caf 01bf a054 c9be 8688 45be 2538 75be
00000070: 0e15 c6bd 6e14 01bf 89d8 4fbe c63e 40be
00000080: 580c c53d dbce 12bf 0214 63be 4c2a 323e
00000090: 2a79 c1be 454d 713c 3622 c9be 5638 6f3e
000000a0: 7c71 bd3e f50e 71bd c5b0 8f3e 23ed f03e
000000b0: ed36 88bd b72d 863d 30c8 e5bc 9de4 2fbe
000000c0: 6645 24be a8bb 63be 1992 343e a3ee 41be
000000d0: 4e30 c8bc 6bcb 0d3e 549b afbe a691 9d3e
000000e0: 7158 b7bc e264 283d b505 a4bd df7e 6dbe
000000f0: 066f fa3d 86b9 333e 5a65 02be 451b a9bc
00000100: 9be3 98bd f17e 4e3d b12f 0dbf 6fec 30be
00000110: fb0d 27bd 362a 1c3f 12d2 2ebf a22d 17bf
00000120: 40dd f33e e4bd b0bd 57ea 3a3f 2945 e8be
00000130: c5fb 383f 0c15 1c3f c076 e33e ef5a 1c3f
00000140: d5ec f53e 15ff af3e 16b5 c43e eb55 cc3e
00000150: e869 ab3e 0742 3f3f 8c3e e03e 6355 3f3f
00000160: 22b3 053f 6ae4 dc3e ce78 443e 5f69 373f
00000170: 78b0 ea3e 7218 713e ffd9 683e 2f0e 2d3f
00000180: f6ce dfbe 62d9 f63c dae0 a0be 036d 8fbe
00000190: b0fb e83e df75 ca3e b783 b2be ddda c3be
000001a0: f257 69be bdfe 4f3e 9abe 343e ef48 9abe
000001b0: b5ba b33e c0d6 20be a333 8e3e ecf4 1c3f
000001c0: 5874 b03e 1145 c63e b276 4d3e 8929 d63e
000001d0: cfcf bd3e 155f 063f 3437 d93e 73bb 0e3f
000001e0: a18d 183f fb9b 903e afc5 533e 44ca ec3e
000001f0: a102 1e3f 9b82 a23e a653 4d3e 886f 0b3f
00000200: 7b9c a93e 34b2 2bbe df46 29be a593 f63d
00000210: c469 2c3f d565 673e 845a 4c3e fb7a 89be
00000220: 2360 073f 1d81 7cbe 7496 93be 5a17 2b3f
00000230: b6a0 b7be a424 7d3d f83d bfbe 967d 21bf
00000240: 3e67 21bf 7e28 12bf 122a 49be 51b4 33bf
00000250: 001d 10bf f2a5 1ebf 8001 24be b316 e6be
00000260: 586e 2dbe 7f84 01bf fd09 febe 240b 3ebe
00000270: abb0 a7be 31c7 1fbf 7ff2 36bf af4a 0abf
00000280: 63c3 30bd f7a9 c43d d011 d63e 7797 01bf
00000290: 65a8 303e 7cfe 9b3e 511b 7c3e 2247 99be
000002a0: 94e3 a5be c407 a9be 478d e93c f8fd d13d
000002b0: 1e1b 943e 4805 ee3e 37d5 623e 577a 29bc
000002c0: 5649 a33e d18c 873e ea04 973e 4a4f fa3e
000002d0: 5a22 cd3e 6620 1b3e 347c f23e 45c5 c03e
000002e0: b61c 493d e870 9abd a00a 623e 7bf6 903e
000002f0: 0057 943c 9218 b93e b2e1 573e a7c7 d13b
00000300: 578e 3bbe 3805 0a3e 3d5b 283f 56a6 263f
00000310: 6c14 133f e645 5dbe 41a9 ea3e 6780 d83e
00000320: 8a95 26bf ad68 6b3e f399 b2be c377 963e
00000330: bde5 9ebe 3953 29bf 14ea 5bbe af75 8fbe
00000340: 1373 73be 940c 16be 0b02 a7bd bc40 02be
00000350: 55ba 23be 92af 5dbe d272 49be d05c 9dbe
00000360: e946 4ebe 5285 d0bc 8fef 35bc a695 f6be
00000370: 681e a7bd 9bf1 29be 32a2 2cbe 255e 8fbe
00000380: 9145 55be 57ad 8fbe 3bb9 01bd e89c cabe
00000390: bf4b 7a3e 1cd4 6ebc 9781 9ebe a654 f23e
000003a0: a1bd d53d 9bcd d13d 7c3e ebbe 52cb 04bf
000003b0: bf53 fb3e 7259 b7be e441 0f3f 7a3b 773e
000003c0: ab44 993e e44a bc3e a08a 1a3f 7e22 923e
000003d0: f63d 803e ea97 893e fd2d 403e 2397 b53d
000003e0: d190 c03d 9336 023f eba2 063f 21bd 3d3e
000003f0: 59fd d93e 6590 f33d 61e0 b13e 4d5b 053f
0.6242302 -0.526848 0.023063181 0.43240988 -0.04825008 -0.2743033 0.59218246 -0.48964882
0.53833234 -0.39902082 0.8365429 0.10732498 -0.073010534 0.25158596 -0.26295346 -0.20552792
-0.12115326 -0.32613894 -0.200749 -0.14234716 -0.6502994 0.048967797 -0.16399106 -0.12389537
-0.5065782 -0.39322376 -0.19290361 -0.23947199 -0.096719846 -0.504218 -0.20297445 -0.18773946
0.09621495 -0.57346886 -0.22175601 0.17398947 -0.37787753 0.014727895 -0.39283913 0.23361334
0.37000644 -0.058852155 0.28064552 0.4705592 -0.06651101 0.06551688 -0.028049558 -0.17177053
-0.16042098 -0.22239554 0.17633857 -0.18938689 -0.024437096 0.13847129 -0.34298193 0.30775183
-0.02238104 0.041111834 -0.08008901 -0.23192929 0.12228207 0.1755124 -0.12733975 -0.020642886
-0.07465287 0.05041403 -0.55150896 -0.17277692 -0.040784817 0.6100191 -0.6828929 -0.59054005
0.47629738 -0.08629969 0.73013824 -0.45365265 0.7225917 0.60969615 0.44426537 0.61076254
0.4803225 0.343743 0.38419408 0.399093 0.33479238 0.74710125 0.4379772 0.74739665
0.5222646 0.43143016 0.19186708 0.7164516 0.4583776 0.23544481 0.22739409 0.6759977
-0.43712586 0.030132953 -0.31421548 -0.28012857 0.45504522 0.39543054 -0.34866115 -0.38252917
-0.22787455 0.20312019 0.17650834 -0.3013377 0.35103384 -0.1570692 0.2777377 0.6131122
0.34463763 0.38724568 0.2006481 0.41828564 0.37072608 0.52488834 0.4242493 0.55754775
0.5959111 0.28244004 0.20680879 0.46248066 0.6172276 0.3174027 0.2005144 0.5446706
0.33127198 -0.16767198 -0.16530941 0.1203988 0.67348886 0.2259744 0.19956404 -0.2685164
0.5288107 -0.24658628 -0.28825724 0.66832507 -0.358648 0.06180252 -0.37351966 -0.63082254
-0.6304816 -0.57093036 -0.19644955 -0.70197016 -0.5629425 -0.6197196 -0.16016197 -0.44939193
-0.16936624 -0.505928 -0.49616995 -0.18558937 -0.32751974 -0.62413317 -0.7146377 -0.5402021
-0.043155085 0.09602731 0.41810465 -0.5062174 0.17251737 0.30467594 0.24619795 -0.29937083
-0.3240019 -0.33013737 0.02850975 0.10253519 0.2892694 0.46488404 0.22151648 -0.0103441095
0.31891888 0.26474622 0.29495937 0.48888618 0.4006527 0.15149078 0.47360384 0.37650505
0.049099647 -0.075410664 0.22074366 0.2831305 0.018107891 0.36151558 0.2108219 0.0064019742
-0.18316017 0.13478553 0.6576422 0.6509756 0.57453036 -0.21608695 0.45832255 0.42285463
-0.6507193 0.2298915 -0.3488308 0.29388246 -0.3103465 -0.6614261 -0.21476012 -0.28019473
-0.23774366 -0.14653236 -0.081546865 -0.12720007 -0.15989049 -0.21649006 -0.19672707 -0.30734873
-0.20144238 -0.025454197 -0.0111044785 -0.48161048 -0.081600964 -0.16596071 -0.16858748 -0.28001514
-0.20827319 -0.28061935 -0.03167079 -0.39572835 0.24442957 -0.014576938 -0.30958244 0.47330207
0.104365595 0.10244294 -0.4594611 -0.5187274 0.4908733 -0.3581043 0.55959916 0.24143782
0.29935202 0.36775887 0.60367775 0.2854194 0.25047272 0.26873714 0.18767543 0.08866718
0.094026215 0.50864524 0.52592343 0.18529178 0.425761 0.118927754 0.347415 0.5209244

b f4 [32]
00000000: 5501 62be 9a0f 1b3d 31bf e03e 535d b83e
00000010: 977f ddbe 52b5 573e 241f abbe 16ed b43e
00000020: 33a8 a03e d64f 60be ff68 4d3e 16d7 083e
00000030: 0c26 793e 0a21 aa3e 9652 6d3e d70f a6be
00000040: 281d a4be cbfd ae3e 4ff9 a5be b79a 61be
00000050: ade5 15be dd3c adbe 45c5 1c3e 8ca1 ae3e
00000060: a0fe c53e 7598 06bd 4dd6 86be 27f2 a2be
00000070: 2d84 2cbc ac42 54be ae73 af3e 797d babe
-0.2207082 0.037856676 0.43895867 0.360087 -0.43261406 0.21065262 -0.33422196 0.35337132
0.31378326 -0.21905455 0.20059584 0.13363299 0.2433092 0.33228332 0.23176035 -0.3243396
-0.32053494 0.34178004 -0.3241677 -0.22031675 -0.14638396 -0.33835497 0.15309627 0.34107625
0.38670826 -0.032860238 -0.26335374 -0.31825373 -0.01052956 -0.20728558 0.34267944 -0.36423853

W f4 [32, 32]
00000000: da5c 6abe 8442 1a3f 5118 2e3d 7b0d 56bd
00000010: 8f09 e63e 50e9 9b3e dcf3 ab3d 1240 abbe
00000020: 9868 c7bd edfe ee3e 45ef 9cbe e6dc c9be
00000030: ee7c 2b3f 2002 ce3e bfd9 c33d c909 01be
00000040: 7945 a0bd b9b9 dd3d 8232 30be 4966 d7be
00000050: e734 a8bc d019 d03e 7e60 0a3e fc97 ef3e
00000060: 991e 2dbe 9f6e 783e 1c3a aabe 19b0 b0be
00000070: 0657 523e 2876 393f a00e 9ebe 9369 0a3e
00000080: fbc2 58bd 8662 26bf 786d ed3e eb57 e13d
00000090: 6960 ddbe 2330 983e ffaf 1f3e 6884 18be
000000a0: 6cf2 eb3e 6f0c 1fbf b8d1 da3c 592f f13e
000000b0: 4e63 eebd cc07 b93e 9258 573d 7b89 e3be
000000c0: 29f2 8f3e f76f 1ebf 32d2 e43e 4e78 1d3f
000000d0: 93a3 68be 6ac6 acbc 3bb2 b73e a9ba 79be
000000e0: 5b7c 853e f19b da3c a4d7 3d3c 640a 2f3e
000000f0: 1868 b7be 1093 95bd 85da ba3e a7b6 24bf
00000100: 7b90 fe3e 8631 93be 9e24 233f 24c4 a3be
00000110: c529 cfbe 3416 08bf 73c7 ab3e 9306 bdbe
00000120: 4636 b9bc e413 98be c969 143f 5715 07bd
00000130: babe e5be 82e6 f7be edb2 b3bd 1efe b0be
00000140: ba89 23be d809 02bf c2d4 ba3e 71c0 59be
00000150: db1a e7bd d4f7 c7bd 16d0 0d3e a20d 4d3d
00000160: ca2d cbbd 9715 31bf 21a7 293f fee0 dfbd
00000170: 8151 9dbe c949 2a3e f742 193c 76e5 a5bc
00000180: 771c f83e 8cae 17bf 8463 f13e 5496 b6bd
00000190: b786 5f3e 1b0a 0b3f 412b 9fbe b1a4 fb3e
000001a0: bf86 033e 8b9a a1be 5d64 8b3e a2e0 4a3e
000001b0: da24 533e c96b f83e c6b6 18bf 9402 633e
000001c0: d648 2c3e 8a41 bf3c 6c20 953e fb17 bc3e
000001d0: 0b1f e33e cecf 3f3e 2416 6bbe 5596 bb3e
000001e0: e8f9 ac3e 5a9b acbd 4cd1 fdbd 05ee b93e
000001f0: 33ec 083e 6841 72bc 845e 84be 8f25 873d
00000200: bc60 c7be d980 f73e 524d bebe 1656 c6be
00000210: 7b3e b1bd 6e1a e6bc f9f5 933e 6298 19bf
00000220: 9b41 aabd a969 b73e c368 84bb 6fcc ba3d
00000230: 059a 01be 588b a4be abac f43e 3bc9 57be
00000240: d7c9 c6be c742 153f b468 273f 8573 e2be
00000250: d4d2 d2be 8e5e 9bbe 095a f03e 261b 4bbe
00000260: 3826 4ebe 79ed 4c3d 5e6b 063f a830 8cbe
00000270: e764 f1be 5291 053d d8b3 5f3e 6ae4 abbe
00000280: 0961 ff3e beab 203e d495 813e 75e4 83be
00000290: 9094 3abe 17f4 813d ab6e e83e 105c b5be
000002a0: cdfe 18bf 5d90 4b3e 58da 80bd eb62 04bf
000002b0: 580e f3be aae9 8d3e 0fd6 a33e 0e90 abbe
000002c0: 909d 42bf 63d9 433c f97e cc3e 82a3 d7be
000002d0: d7bb d0be e98a 7c3d b8b9 1d3f 1895 6dbd
000002e0: 5028 49bf fb9d f13e ff06 dbbe 67de fcbe
000002f0: 730e 00bf 670c 033f 58a1 183f a08f 43be
00000300: 1aee 263e 385a f4bc 44a5 983e 7b45 ae3e
00000310: e069 4e3e 56a5 bdbe 385a 403d 6c3c dfbe
00000320: 5360 f43d 5980 033e 6b57 eb3c 7a94 0bbe
00000330: abd8 24be dd42 afbe 91f0 b9bd 9a77 eebe
00000340: 9510 153f 64f6 c13e 594a b03e 8365 7e3d
00000350: 6519 95be 37b9 35bd 6f84 893e 602c c8be
00000360: 4576 613e 4b7c d63e 7433 4a3f 6570 b6be
00000370: dc43 02be 051a 8b3e 5ebd 393e 2dbc 23be
00000380: fee0 2fbf 9e4f bebe 3126 c4be e52e 733e
00000390: 209c 143d 0e7e 1dbe b256 b1bb 1250 903e
000003a0: 82e1 423e 4a12 0cbf 2b0d 2abf fa07 323e
000003b0: 03fa 1d3f bf1e 5ebd d358 a2be 4fc9 203f
000003c0: 80ed 9f3e da3a 57be 38fa 59be ac01 103e
000003d0: 94a1 093f b107 abbe 4543 ffbd e550 1f3e
000003e0: 060c a2be ae8b 13bf 9cf8 74be af33 f13e
000003f0: c6f6 233e 3226 c4bd c387 33be fd8f 9d3e
-0.22886983 0.60257745 0.04250366 -0.05225895 0.44929168 0.3045144 0.08396122 -0.3344732
-0.097367465 0.46678868 -0.30651298 -0.39426345 0.669875 0.40235996 0.09563016 -0.12601389
-0.07825751 0.108264394 -0.17206767 -0.42070225 -0.020533038 0.40644693 0.13513371 0.46795642
-0.16906203 0.24260949 -0.3324746 -0.34509352 0.2054101 0.7244592 -0.30870533 0.13516836
-0.052920323 -0.64994085 0.4637258 0.11003097 -0.43237618 0.29724225 0.15594481 -0.14894259
0.4608339 -0.6212835 0.02671133 0.47106436 -0.116400346 0.3613876 0.0525747 -0.44440827
0.2811444 -0.61889595 0.44691616 0.61511695 -0.22718649 -0.021090705 0.35878167 -0.24387611
0.26071438 0.026685687 0.011587057 0.17093807 -0.35821605 -0.073034406 0.36494842 -0.64341205
0.49719605 -0.2874872 0.6372775 -0.3198558 -0.40461555 -0.5315888 0.33550605 -0.36919078
-0.022608887 -0.29702675 0.57973915 -0.032979336 -0.44872075 -0.4841805 -0.08774362 -0.34568876
-0.15970507 -0.5079627 0.36490446 -0.21264817 -0.11284419 -0.09764066 0.1384891 0.05006183
-0.09920843 -0.6917357 0.66270643 -0.10931586 -0.30726245 0.1662971 0.009354345 -0.020251017
0.48459217 -0.5925071 0.47146237 -0.089153916 0.21828733 0.54312295 -0.31087688 0.49149087
0.1284437 -0.3156322 0.2722501 0.19812253 0.20619527 0.48519734 -0.5965389 0.22168952
0.1682466 0.023346681 0.29126298 0.36737046 0.4435962 0.18731615 -0.22957665 0.36638132
0.33784413 -0.084280685 -0.12393436 0.36314407 0.13371353 -0.014786102 -0.2585336 0.065989606
-0.3894099 0.4834049 -0.37168366 -0.38737553 -0.08654495 -0.028088775 0.288986 -0.5999814
-0.083132945 0.358228 -0.004040809 0.09121024 -0.1265641 -0.3213756 0.47787985 -0.21072857
-0.38825867 0.5830502 0.6539414 -0.4422876 -0.41176474 -0.30345577 0.4694369 -0.19834575
-0.20131767 0.05003116 0.5250758 -0.27380872 -0.47147295 0.03260929 0.21845949 -0.33572704
0.4987872 0.15690514 0.25309622 -0.25760236 -0.18220735 0.063453846 0.45396933 -0.354218
-0.59763795 0.19879289 -0.06291646 -0.51713437 -0.4747188 0.27717334 0.3199925 -0.33508343
-0.7602167 0.0119536845 0.39940622 -0.42116934 -0.4076831 0.061655913 0.6161151 -0.058003515
-0.78577137 0.47190842 -0.42778775 -0.4938843 -0.5002205 0.511908 0.5962119 -0.19097757
0.16301766 -0.029828176 0.29813588 0.34037384 0.20157576 -0.37040204 0.04696104 -0.43600786
0.11932435 0.1284193 0.028728208 -0.13630858 -0.16098277 -0.342307 -0.090790875 -0.46575624
0.5822843 0.37883294 0.34431723 0.062108528 -0.29120937 -0.044366088 0.2685885 -0.39096355
0.22017772 0.41891703 0.7898476 -0.35632625 -0.12721199 0.2716829 0.18138644 -0.15989752
-0.68702686 -0.37170118 -0.38310388 0.23748358 0.036281705 -0.15380117 -0.005411946 0.2818609
0.19031337 -0.54715407 -0.6642634 0.17385855 0.6170961 -0.05422854 -0.31708393 0.6280717
0.31235886 -0.21018544 -0.21286857 0.14063138 0.53762174 -0.33404306 -0.124640025 0.15558203
-0.31649798 -0.5763501 -0.23922962 0.47109744 0.16012105 -0.09577598 -0.17532258 0.30773917

b f4 [32]
00000000: 7081 eebd 6ea2 a23e c1fd 373e 9c9a 46be
00000010: 92f0 bf3e 61a6 acbe 3a52 ac3e 5952 72be
00000020: e6af ae3e b892 dfbd 5b37 f83d 2f28 733c
00000030: f761 a7be c76c adbe 8124 0d3f 4b58 3c3e
00000040: 8c56 463e f53b 333e 28ed b5be 9d44 bc3e
00000050: 5267 f13d 5f85 bd3e c81a ce3e 9847 babe
00000060: 303a 6abe 0062 dabe b37a 5a3c bf6a bdbe
00000070: 02cd c1bd d728 aebe 89c5 5b3e 97dd 4ebe
-0.11645782 0.3176455 0.17967893 -0.19394916 0.37488228 -0.33720687 0.33656484 -0.23664226
0.34118575 -0.10916656 0.12119933 0.0148411235 -0.3269193 -0.33872053 0.55133826 0.18393056
0.19368953 0.1750334 -0.35532498 0.36771098 0.11787285 0.37015817 0.40254807 -0.36382747
-0.2287376 -0.42652893 0.013334918 -0.36995503 -0.0946293 -0.34015533 0.21462072 -0.20201717

W1 f4 [32, 128]
00000000: 5493 973e df7f c83e 1ed9 5c3e 1073 02bf
00000010: 5e15 953e 0bc6 f4be 567e e5bd 12c3 c7be
00000020: 3acd 273e 3de6 91be 1798 e53b f2bb 9fbe
00000030: 668d b83d bea4 b33e 96c6 e63e 262c b43d
00000040: 0754 d13e 7ec5 babe 3b6e 30bd db1f 5e3e
00000050: d543 aa3e cad2 493e 8b2e cbbe 6a03 423e
00000060: 1b74 323e 8d19 553e 3409 86bd 98d3 f03e
00000070: 8767 37bd 2d8c c53e 0d34 1cbf a9cc 563e
00000080: 12e1 fb3d 4f3a f4be d970 453e 6322 a1be
00000090: d72e f83e dda4 5a3d 514f b2be 36d4 ab3e
000000a0: 1d73 05bf 384d 423e 078d 833e a02d f9be
000000b0: f172 ae3d da42 a83e c567 f7bd 6572 3cbe
000000c0: c1b9 5b3e ad81 a6be 114f b5bc a4c0 703e
000000d0: acd1 b53d 502f 43bd 2a2b 973c 32f5 d83c
000000e0: 8336 8e3e 26aa 963d 7369 903e 857b 81be
000000f0: fe26 f63e 5e41 733c ef27 763e 6c5d a2be
00000100: a54a a9be 9d67 d33e 2cd1 94be 93eb ee3e
00000110: 07b9 bbbe b309 96be 4f82 a53e 5a20 fa3e
00000120: 623d 8dbd 8fbd 893e c0ed 26be 9634 99be
00000130: 5bae 8ebe a4d3 8a3e 6b14 383d 585e 04bf
00000140: f1a8 a3be b814 003f 618c 8dbe 56cc 973e
00000150: 806e d2bc f6d1 48be 96c7 f13d 704d a2be
00000160: a051 eabe e8d6 9d3e ad8f 86be d2bd f23e
00000170: d816 b23e 0282 113e 565d 48be 4723 f5be
00000180: bc4d 5a3e 2e15 00bf ef02 13be 4982 3f3e
00000190: 30ea b33e 5140 f73e 2bfe aabe 4dd8 ea3e
000001a0: 5d31 a3bd 3802 45be cf0d fabe b054 08be
000001b0: 8f2c e7bd fe39 153f 99fb a5bd beb6 54be
000001c0: add8 123e e141 483b c044 c73e fa96 bfbe
000001d0: c6bc 053f a0db a03e e42b 8abe 3552 97be
000001e0: d934 1d3e 657f edbe afff 9e3e d420 cfbe
000001f0: 184f 5b3e 5e5f c6be cf14 ee3e cf8f babe
00000200: 14be edbe 1aa9 03bf b955 e2be 5a3b 583e
00000210: 62ea dfbe 5ec2 e43e 7f7e 0bbe e853 18bf
00000220: dcea f0be 994a a3bc c7d2 cebd cc26 293e
00000230: 8e85 7f3e fb5f 69bd add5 d83d 62fb 37be
00000240: e920 05be 76d3 49be c6cf 0dbf 95bb 953e
00000250: bf99 e83e 2c0b fabe 96dd f23e cbd9 c33c
00000260: 9f73 993e b897 1bbd 898a b13d 835e da3e
00000270: 58b7 9e3e 745f f8bd 3341 d23e 2c08 cebe
00000280: 00c9 29bd 820e 0abe ce59 20be 0d1c f2be
00000290: 3685 55be acd6 5b3d 8353 083e 2376 ca3e
000002a0: 08b3 b8be 10fb 503e dcb3 d3be 6575 9ebe
000002b0: 6c41 a33e 57c9 6d3e 4c3b a33e 5ae6 3f3d
000002c0: f2a1 01bf 44e5 b6be 4e35 8a3c 79ce 65be
000002d0: eaf5 953e bbb9 5c3e 425a c43e 0ed1 43be
000002e0: e324 6a3d b276 afbe fc4a 35be 7e84 a5be
000002f0: 45b3 dbbe a3ab f7be fcc7 3ebe 3f8a 8cbe
00000300: 9c36 d13e 9e6d 4ebe ca4c 99be eadf 8ebd
00000310: 253e 07bf d4ef ab3d 157f 8abd 3753 b6be
00000320: 7ff8 1bbe d120 bdbe e711 0cbf cfbf 7f3d
00000330: d38e 6a3e 7435 1fbd a299 4d3e f3be f73e
00000340: 5f04 abbb 978f 2c3e 1472 a1be 4c41 bcbe
00000350: 220e b7be 188a 9a3b 4906 8abe 640e 813e
00000360: 027b 223c 5fbd ca3e 2fcf 143e fa25 c1be
00000370: 3b08 e0be e855 c43d 816a 8f3c 1a99 a9be
00000380: 56cb 3d3f c538 d03e dc19 69be 517f e6be
00000390: 9686 b33e f212 bebe 63a4 093e a916 6ebe
000003a0: 0150 eb3d 5630 9fbe 2a2f b53d 8c5f a03c
000003b0: 455a bcbe 15b6 dd3d 2a1f df3d ed03 793e
000003c0: 8cbd afbe e74e b03e 98e4 613e 75b5 ad3e
000003d0: 4ec4 edbd fb09 87be 3426 babe f945 1fbe
000003e0: 9a71 b6be 305d 18be 3362 84be dd4b 693e
000003f0: b4f9 3fbe c56f 023f 9f39 cabe c06d 3e3e
0.2960459 0.39160058 0.21567199 -0.5095682 0.29117864 -0.47807345 -0.11205737 -0.39016014
0.16386881 -0.2849597 0.007006656 -0.31198078 0.090113446 0.35086626 0.45073384 0.08797483
0.4088442 -0.364788 -0.043073874 0.2169184 0.33254877 0.19709316 -0.39683947 0.18946615
0.17427103 0.20810528 -0.06544724 0.47036433 -0.044776466 0.38583508 -0.61016923 0.20976509
0.12298788 -0.47700736 0.19281329 -0.31471547 0.48473236 0.053379882 -0.3482614 0.33560342
-0.52128774 0.18974769 0.25693533 -0.48667622 0.08518017 0.32863504 -0.12080339 -0.18403013
0.21457578 -0.3252081 -0.022132428 0.23510987 0.08877882 -0.047652543 0.0184532 0.026484106
0.27775964 0.07356672 0.2820545 -0.2528955 0.48076624 0.014847128 0.24038671 -0.317119
-0.33064762 0.41289988 -0.29065835 0.46664104 -0.36664602 -0.29304275 0.3232598 0.48852807
-0.068964735 0.26902434 -0.16301632 -0.29922932 -0.27867398 0.27114594 0.044941347 -0.5170646
-0.3196483 0.50031614 -0.27646163 0.29648083 -0.025687456 -0.19611344 0.11805646 -0.31699705
-0.457654 0.30828023 -0.2628149 0.47410446 0.34783053 0.1420975 -0.19566855 -0.47878477
0.21318716 -0.5003232 -0.14356588 0.18702044 0.35139608 0.48291257 -0.3339704 0.4586815
-0.079684 -0.19239128 -0.4883866 -0.13313556 -0.11287796 0.58291614 -0.08104629 -0.20772836
0.14340468 0.0030556845 0.3891964 -0.37419873 0.5224117 0.3141756 -0.2698661 -0.29554906
0.15352191 -0.46386257 0.31054446 -0.40454733 0.2141689 -0.38744634 0.4650025 -0.36437842
-0.4643408 -0.51429904 -0.44206026 0.21116391 -0.43733507 0.4467954 -0.13622473 -0.5950303
-0.47054183 -0.019933032 -0.10098796 0.16518706 0.24953291 -0.0569763 0.105876304 -0.17966989
-0.13000835 -0.19709572 -0.5539516 0.29244676 0.454298 -0.48836648 0.47434682 0.023907563
0.29971024 -0.037986487 0.086690016 0.42650232 0.30999255 -0.12127581 0.41065368 -0.4024061
-0.041451454 -0.13482097 -0.15659258 -0.47287026 -0.20851597 0.053671524 0.13313107 0.39543256
-0.3607409 0.20408273 -0.4134816 -0.3094894 0.3188585 0.23221336 0.31881177 0.04685054
-0.50637734 -0.3572179 0.01687112 -0.22442044 0.2928918 0.21555226 0.3835011 -0.19122717
0.057164084 -0.34270245 -0.17704386 -0.32327646 -0.4291021 -0.48373136 -0.18630975 -0.27449223
0.40861976 -0.20159003 -0.29941398 -0.06976302 -0.528292 0.08395353 -0.0676252 -0.35610363
-0.15231512 -0.369391 -0.54714817 0.062438782 0.22906046 -0.038869336 0.20078138 0.4838787
-0.005219027 0.1685165 -0.31532347 -0.36768568 -0.3575297 0.004716169 -0.2695792 0.25206292
0.009917023 0.39597604 0.1453216 -0.37724286 -0.4375628 0.09586698 0.01750684 -0.3312462
0.7413839 0.40668312 -0.22763771 -0.4501901 0.35063618 -0.3712383 0.13441615 -0.23250832
0.11489869 -0.31091565 0.088468865 0.01957681 -0.3678762 0.10825745 0.10894616 0.24317904
-0.343243 0.34435198 0.22059858 0.33927503 -0.11609708 -0.26374802 -0.36357272 -0.15554036
-0.35633546 -0.14879298 -0.2585617 0.22782846 -0.18747598 0.50951797 -0.39497086 0.18596554

b1 f4 [128]
00000000: 9876 92be 7aa8 91be 8507 003c 78cc b13e
00000010: 3068 59be 4090 20be 090f 50be f158 a13e
00000020: 4aa9 b03e 44b0 c93e 7f66 27be ca54 1abe
00000030: b8e8 a73e 7619 61be b6ab 563e c7bd 57be
00000040: 8594 873d dc92 c5bd 0aac 3ebe 577f bbbd
00000050: 4ba6 a4be ea71 67be b834 aa3e e06e a03e
00000060: 4241 3dbe 93f2 a0be 1bdd a1bb bc34 5d3e
00000070: 062b 55be 57b4 39be 1983 aa3e 9bff 3ebe
00000080: de3c 5ebe d303 0d3e 7cdd 3ebe 4302 a4be
00000090: ae99 5bbe 2927 ac3e 47be d8be 0db6 f83d
000000a0: e95d 25be 44b4 283e f09a 8d3e 85ff aabe
000000b0: 2690 3a3e 1679 9d3e 1f9c 7a3e d46b b1bd
000000c0: 7b6e 143e 346f 21be b857 95bd aed1 38be
000000d0: d0d9 23bd abd1 a83e d41e 633e a615 aebe
000000e0: 7810 123e 1691 6abe 0386 ac3e c440 d0be
000000f0: 54ff b3be cc49 97be dc7c 41be b1bf 483e
00000100: 2d23 ab3e 75ed cfbe 7a0b b8be 25dc 743e
00000110: 2fdb e1bd fdb6 ac3e c95d dbbe c1be aebd
00000120: 7ee6 bfbe 93f0 05be 2ed6 7bbb 2756 8a3d
00000130: 643d be3e 2a50 37be d172 a43e d978 7c3e
00000140: d591 a7be aa8d 78be e337 aebe 3884 e5be
00000150: 14cc bcbe 014e d63e 6afb 6bbe 3e1d 8c3e
00000160: 8717 4cbe 6027 743e 7729 093e 7275 b43e
00000170: 1c80 acbe 56d4 a7be 8af0 b0bd 6429 bbbe
00000180: 583e ce3e 695c ae3e 3bff cebe 95ef c5be
00000190: 6d41 4ebe 0bf6 30be 6a46 c33e 4905 b83e
000001a0: 8b09 febd 7eeb c2be da56 af3e 6724 b4be
000001b0: 4bc4 84be 6813 a83e 018c 943e e1a1 a73e
000001c0: 156a ce3d 3273 ad3e 37dc 9f3e 1a8c a93e
000001d0: 8957 f4be 4124 d5be 929b d1be 10f7 26be
000001e0: 60c1 5abe c07d 21be caa3 f6bd fbd2 ae3e
000001f0: 389f a13e aec7 793e cf9f b3be 2841 b13e
-0.28606105 -0.2844885 0.007814293 0.3472631 -0.2123115 -0.15680027 -0.20318235 0.3151317
0.34504157 0.39392292 -0.16347693 -0.15071407 0.32794738 -0.21982369 0.2096394 -0.21068488
0.06620125 -0.09647152 -0.18620315 -0.091551475 -0.3215812 -0.22602049 0.33243346 0.3133459
-0.18481925 -0.3143507 -0.004939688 0.21602148 -0.20817193 -0.181352 0.33303145 -0.18652193
-0.21702906 0.1377099 -0.18639177 -0.32032976 -0.21445343 0.33623627 -0.4233267 0.121440984
-0.16149105 0.16475016 0.2765727 -0.3339807 0.18219051 0.30756444 0.24473618 -0.08663145
0.1449527 -0.15765077 -0.07292122 -0.18048736 -0.040002644 0.32972464 0.22179729 -0.3400089
0.14264095 -0.22906908 0.33695993 -0.40674412 -0.35155737 -0.2954849 -0.18895286 0.19604374
0.33425274 -0.40610853 -0.35946256 0.23912103 -0.11028134 0.3373336 -0.4284499 -0.08532477
-0.3748054 -0.13080053 -0.0038427222 0.067547135 0.37156212 -0.17901674 0.32118848 0.24655475
-0.3272845 -0.2427279 -0.34027013 -0.44827437 -0.3687445 0.41856387 -0.23045126 0.2736606
-0.1993085 0.23843145 0.13394724 0.35245854 -0.3369149 -0.32779187 -0.08639629 -0.36555016
0.4028194 0.34054878 -0.404291 -0.3865935 -0.20142145 -0.17281358 0.3813966 0.35941532
-0.12404164 -0.3807029 0.3424595 -0.35184023 -0.2593101 0.32827306 0.29013065 0.3274069
0.10078827 0.3387695 0.31222698 0.33114702 -0.47723034 -0.41629222 -0.40939003 -0.16305184
-0.21362829 -0.15770626 -0.12042959 0.3414534 0.31566787 0.24392578 -0.35082862 0.34620023
