saved_models/model-epoch-82.pth (torch, 249162 bytes, 52 tensors)

embeddings f4 [99, 32]
000000 b8 e9 8e 3d 44 28 10 be 7c 91 ff bd 23 72 b3 3d
       0.06978172 -0.1407786 -0.12478921 0.08762004
000010 17 c9 76 bd 6a ff 90 3d af 4f 6d 3d 6e 2e 10 be
       -0.060250368 0.07079966 0.05793732 -0.14080212
000020 ee 82 e4 bd 73 a2 16 bd 28 5f 1b bd 34 d3 1b be
       -0.11157785 -0.036776017 -0.037932545 -0.15217286
000030 37 7f 40 3e 12 0f 7f bd 1d ab 3f be 65 37 0a bc
       0.18798529 -0.06227023 -0.18717618 -0.008436059
000040 26 1a 56 bd 2f 03 b8 bd 6e 12 c0 bc 73 b8 1f 3d
       -0.05227103 -0.08984982 -0.023446288 0.038994264
000050 47 9b 1b 3e b0 fa 1e 3e 02 88 ec 3d 52 06 26 bc
       0.15195952 0.15525317 0.11549379 -0.010133343
000060 81 20 14 be 9b 73 39 3e 78 b1 37 3e 5e 57 c0 bd
       -0.14465524 0.18110506 0.17938793 -0.09391664
000070 89 ef 19 bd 4f c2 1a 3e 4c b8 0d be e2 59 42 3e
       -0.037581954 0.15113185 -0.13839835 0.189796
000080 c9 b1 a3 3d e7 3a e5 bd 48 f2 2a be 19 b3 a5 bd
       0.07992894 -0.11192875 -0.16693985 -0.08090801
000090 29 12 44 bd 0d d4 2b 3e f6 09 01 bd 41 1c 0e be
       -0.04786888 0.1678011 -0.03150364 -0.13877966
0000a0 ab 99 a8 bd 83 07 44 bd 58 7e c4 bc 8d 97 72 3c
       -0.08232435 -0.047858726 -0.023986027 0.01480664
0000b0 05 12 6f 3d 03 80 a8 bc c9 56 50 3e 70 bf ec 3d
       0.058366794 -0.020568853 0.20345606 0.11559951
0000c0 11 ca 39 3e da a5 0f 3e c3 77 21 3e cb 92 48 3e
       0.18143488 0.14028111 0.15768342 0.19587247
0000d0 7d 27 54 be 55 da 5a bd 09 a6 35 3e 76 e3 ca bd
       -0.20718189 -0.053430874 0.17739119 -0.09906666
0000e0 48 da 55 be b9 38 01 3d 2b fb 40 3e c8 6c a4 bd
       -0.20884049 0.031548236 0.18845813 -0.08028561
0000f0 9b cb 58 be 44 37 a3 3d 7c b0 ee bd de 4c 83 bc
       -0.2117142 0.079695255 -0.116547555 -0.016027864
000100 c3 be dd 3d 25 fa 92 bd fc b5 48 3d 8e cc 1f be
       0.108274005 -0.071766175 0.04900168 -0.15605375
000110 f1 56 1e 3e 1b 96 10 3e 56 61 15 3e 06 12 67 bd
       0.15462853 0.1411976 0.14587912 -0.056413673
000120 ff f6 57 be 2e 69 4d be 16 43 63 3d da e6 9a 3d
       -0.21090315 -0.20059654 0.0554839 0.07563563
000130 6a e8 06 3e 9f 82 28 3e 77 3a bb 3d 37 ac 31 3e
       0.13174596 0.16456078 0.09142011 0.17350851
000140 9e 2b 81 bd b5 75 52 3e 1a 48 8f 38 22 41 46 be
       -0.063071474 0.20552714 6.832201e-05 -0.19360784
000150 00 be 22 3e 58 15 00 bd 58 e4 4e be 25 5e ea 3d
       0.15892792 -0.031270355 -0.20204294 0.11443738
000160 ee dd 3e 3e 99 40 0f 3e 15 30 3f 3e 29 26 3e 3e
       0.18639347 0.13989486 0.18670686 0.18569244
000170 70 f6 11 bc 5a 3a 8d bd f5 fb 60 3d a7 19 1b bd
       -0.008908853 -0.06895895 0.054927785 -0.03786626
000180 f8 b4 2b 3c 58 0c 00 3e e7 02 79 bd 82 88 e1 3d
       0.010480158 0.12504709 -0.060793784 0.11012365
000190 c5 cc 5a 3e fd f0 3f be 6b 51 38 be 84 b9 48 bd
       0.21367176 -0.18744273 -0.17999808 -0.049005046
0001a0 5f 7e bc bd c3 bc 36 3e d5 48 38 be 43 30 34 3e
       -0.09203791 0.17845444 -0.17996533 0.17596535
0001b0 de 6a e5 3d 53 1a 52 be 30 19 32 3e 66 88 e9 bd
       0.11202024 -0.20517854 0.17392421 -0.11402969
0001c0 11 37 40 be 1c 8f 6f 3d 8b b7 ba bd d9 af 21 3e
       -0.18771006 0.05848609 -0.09117039 0.15789737
0001d0 2f 98 e1 3d 85 5a 0d be 94 a2 ff bb f4 b2 1e be
       0.11015355 -0.13804062 -0.0078013632 -0.15497953
0001e0 e1 8c 0d bc 61 9e 7d ba 72 96 a7 3d f9 44 89 bd
       -0.008639545 -0.00096747844 0.08182992 -0.067026086
0001f0 12 0e 9f bd 82 0f 30 3e 78 cc 46 be 51 9a 5a be
       -0.077663556 0.17193416 -0.19413936 -0.2134793
000200 8d f7 ed bd ad a0 28 3e a1 24 07 3e 23 c8 46 be
       -0.11619482 0.16467543 0.13197567 -0.19412284
000210 0c 39 81 bd 43 d8 52 3e e1 d1 57 be b4 4f fb bc
       -0.06309709 0.2059031 -0.21076156 -0.030677654
000220 1d bd 49 3e 1c da ea 3c 6d ab 50 3e b4 83 ec 3d
       0.19701047 0.028668456 0.20377894 0.11548558
000230 87 a2 3c be d3 7c 57 3e 78 5c 36 3e 9c 9d 11 be
       -0.18421374 0.2104371 0.17808712 -0.1422028
000240 3e 76 b8 3d bf 14 d4 bd fc 9c 2d be 9b 82 b2 bc
       0.09006928 -0.103555195 -0.16954416 -0.021790793
000250 10 5f 52 3b 26 de 11 be e0 d5 20 be 64 f5 40 bc
       0.0032100119 -0.14244899 -0.15706587 -0.011777256
000260 dc 69 6a 3c 6b 16 36 3e b9 7e 52 3e 88 7b 2d bc
       0.014307465 0.1778199 0.20556153 -0.010588534
000270 db 71 f6 bd dc 92 2d 3e 68 e6 c2 3d 1d d4 37 be
       -0.12033435 0.16950554 0.09516603 -0.17952009
000280 fa f3 d3 bc 29 b0 15 be dd f2 1d 3e 06 97 20 bd
       -0.025873173 -0.14617981 0.15424676 -0.039206527
000290 15 82 b5 bd bc fd c0 3c 32 0e 31 be 0b 25 ad 3d
       -0.08862702 0.02355849 -0.17290571 0.08454331
0002a0 09 6d 25 3e 38 d8 3e be 4d ff 7b bd ce fe be 3d
       0.16154875 -0.18637168 -0.06152277 0.09325944
0002b0 fb 32 90 3d 40 87 a5 3d 21 fc 03 3e 8a 33 2f bc
       0.07040974 0.080824375 0.12889148 -0.01069344
0002c0 89 97 b3 bd a1 20 46 bd 7e 5c 1c bd 5f 70 b3 3c
       -0.087691374 -0.04837096 -0.038174145 0.021904169
0002d0 11 bd b7 3d cf 37 2c be 0e f0 98 3c 53 72 53 be
       0.089716084 -0.16818164 0.018669154 -0.2064908
0002e0 55 bf ea 3d 72 f3 48 3e 6c 84 16 be e5 36 54 3e
       0.11462275 0.19624117 -0.14698952 0.20724066
0002f0 06 60 f9 3d 20 0b c0 bd 0c f5 34 be f3 3b f8 3d
       0.12176518 -0.09377122 -0.17671603 0.121208094
000300 b5 ac 38 3e b1 dc d0 bd d1 08 11 be a9 1a 50 bb
       0.18034633 -0.101983435 -0.1416352 -0.0031754172
000310 df 56 fd bd 3e 9d e3 bd 4a cc 1a 3e a6 3e 1f 3e
       -0.12370085 -0.11113976 0.15116993 0.15551242
000320 59 7d b5 bd f6 0c 38 3e 52 72 81 3d 7d 0f be bd
       -0.08861799 0.17973694 0.06320633 -0.09280298
000330 08 72 d4 bc e9 0f e5 bd 3d ff 32 be fc ff 80 bd
       -0.02593328 -0.11184675 -0.17480178 -0.06298825
000340 2e 2c 39 bd cd 00 40 be 3b 0a 9e bd b4 31 9d bc
       -0.04520815 -0.18750305 -0.07716795 -0.01918874
000350 fd 68 56 3e 94 ef 90 3d a9 c4 c5 3d 2b 9e 3b bd
       0.20938487 0.07076946 0.096566506 -0.045805138
000360 b4 af ba bd 8a cc 80 bc 22 1e 01 3d 53 95 25 3e
       -0.09115544 -0.015722532 0.031522878 0.16170244
000370 1a be 4d be c6 46 16 be 81 8c 31 be 74 20 4d 3e
       -0.20092049 -0.14675435 -0.17338754 0.20031911
000380 23 b2 3e 3e 91 e1 f8 3d 91 91 22 be a0 5a b1 bc
       0.18622641 0.121523984 -0.15875842 -0.021649659
000390 9c 5b 81 3d e9 23 23 3e 0b cb ba bb fc 84 30 3e
       0.06316301 0.15931667 -0.005700474 0.1723823
0003a0 a5 dc 3e 3d 96 40 a8 bd 94 17 bd bd af ea 2b 3e
       0.04659714 -0.08215444 -0.09233013 0.16788743
0003b0 3e be 3e be 59 d5 8f 3c 4a 74 3b 3e e3 df d1 bd
       -0.18627259 0.017557787 0.1830608 -0.10247781
0003c0 33 aa cd 3d 94 90 f5 bd a1 1d 34 3e 57 0d ef bd
       0.100422285 -0.11990467 0.17589428 -0.11672466
0003d0 57 fe 1b be ce fa 04 be 39 fa 18 be fe 9d fa 3d
       -0.15233742 -0.129863 -0.14939202 0.12237166
0003e0 0d e7 a3 bd d9 db 53 3d 59 a5 a3 3d 3e f4 99 3d
       -0.08003054 0.051723335 0.07990522 0.075172886
0003f0 30 3a 10 3e ee 67 39 be 07 23 c5 bc d8 c3 47 3e
       0.14084697 -0.18106052 -0.024064554 0.19508302

_pos_embeds f4 [64, 32]
000000 00 00 00 00 00 00 80 3f 00 00 00 00 00 00 80 3f
       0.0 1.0 0.0 1.0
000010 00 00 00 00 00 00 80 3f 00 00 00 00 00 00 80 3f
       0.0 1.0 0.0 1.0
000020 00 00 00 00 00 00 80 3f 00 00 00 00 00 00 80 3f
       0.0 1.0 0.0 1.0
000030 00 00 00 00 00 00 80 3f 00 00 00 00 00 00 80 3f
       0.0 1.0 0.0 1.0
000040 00 00 00 00 00 00 80 3f 00 00 00 00 00 00 80 3f
       0.0 1.0 0.0 1.0
000050 00 00 00 00 00 00 80 3f 00 00 00 00 00 00 80 3f
       0.0 1.0 0.0 1.0
000060 00 00 00 00 00 00 80 3f 00 00 00 00 00 00 80 3f
       0.0 1.0 0.0 1.0
000070 00 00 00 00 00 00 80 3f 00 00 00 00 00 00 80 3f
       0.0 1.0 0.0 1.0
000080 a4 6a 57 3f 40 51 0a 3f ba 7d 08 3f 0e 94 58 3f
       0.84147096 0.5403023 0.53316844 0.84600914
000090 3e 39 9f 3e 6a 4e 73 3f 3a 23 35 3e 83 f6 7b 3f
       0.3109836 0.95041525 0.17689219 0.9842302
0000a0 76 75 cc 3d 98 b8 7e 3f b0 36 66 3d 68 98 7f 3f
       0.099833414 0.9950042 0.056204498 0.9984193
0000b0 5c 81 01 3d 3c df 7f 3f 42 ab 91 3c a3 f5 7f 3f
       0.031617507 0.99950004 0.017781857 0.99984187
0000c0 57 d6 23 3c b9 fc 7f 3f 5c 44 b8 3b f7 fe 7f 3f
       0.009999833 0.99995 0.0056233834 0.9999842
0000d0 20 3e 4f 3b ac ff 7f 3f 20 15 e9 3a e5 ff 7f 3f
       0.0031622723 0.999995 0.0017782785 0.9999984
0000e0 6d 12 83 3a f8 ff 7f 3f 16 6a 13 3a fd ff 7f 3f
       0.0009999998 0.9999995 0.0005623413 0.9999998
0000f0 5f cb a5 39 ff ff 7f 3f 53 77 3a 39 00 00 80 3f
       0.00031622776 0.99999994 0.00017782794 1.0
000100 b7 c7 68 3f 33 11 d5 be 0a f2 66 3f b2 e8 dc 3e
       0.9092974 -0.41614684 0.9021307 0.43146282
000110 1b 54 17 3f ec 7b 4e 3f f6 47 b2 3e a5 fa 6f 3f
       0.5911271 0.8065784 0.34820527 0.9374183
000120 f9 6f 4b 3e a5 e5 7a 3f 88 d9 e5 3d f3 61 7e 3f
       0.19866933 0.9800666 0.112231314 0.9936821
000130 c8 70 81 3d f9 7c 7f 3f 5c a5 11 3d 8e d6 7f 3f
       0.063203394 0.9980007 0.03555809 0.9993676
000140 3e d4 a3 3c e5 f2 7f 3f 9d 43 38 3c db fb 7f 3f
       0.019998666 0.9998 0.011246589 0.99993676
000150 dd 3d cf 3b b0 fe 7f 3f 08 15 69 3b 96 ff 7f 3f
       0.0063245133 0.99998 0.0035565514 0.9999937
000160 69 12 03 3b de ff 7f 3f 14 6a 93 3a f5 ff 7f 3f
       0.0019999987 0.999998 0.0011246824 0.99999934
000170 5f cb 25 3a fd ff 7f 3f 53 77 ba 39 ff ff 7f 3f
       0.0006324555 0.9999998 0.00035565588 0.99999994
000180 c3 81 10 3e 26 70 7d bf d7 45 7e 3f a8 7f ed bd
       0.14112 -0.9899925 0.9932532 -0.11596614
000190 c2 09 50 3f 57 2f 15 3f 6d 2f 02 3f 29 6d 5c 3f
       0.8126489 0.5827536 0.50853616 0.86104065
0001a0 6d 4e 97 3e ef 90 74 3f d8 ee 2b 3e 9e 5d 7c 3f
       0.29552022 0.9553365 0.1679033 0.9858035
0001b0 c1 ff c1 3d 4f d9 7e 3f 4d 69 5a 3d c3 a2 7f 3f
       0.09472609 0.99550337 0.05332308 0.9985773
0001c0 20 b9 f5 3c 83 e2 7f 3f c7 31 8a 3c ad f6 7f 3f
       0.029995501 0.99955004 0.016869439 0.9998577
0001d0 11 6e 1b 3c 0d fd 7f 3f a8 cf ae 3b 11 ff 7f 3f
       0.009486691 0.999955 0.005334813 0.99998575
0001e0 93 9b 44 3b b5 ff 7f 3f 1b 1f dd 3a e8 ff 7f 3f
       0.0029999956 0.9999955 0.0016870232 0.99999857
0001f0 0d b1 78 3a f8 ff 7f 3f 7e d9 0b 3a fe ff 7f 3f
       0.0009486832 0.9999995 0.0005334838 0.9999999
000200 cf bd 41 bf 30 55 27 bf ed 49 47 3f 9d af 20 bf
       -0.7568025 -0.6536436 0.77847177 -0.62767965
000210 de 1d 74 3f b1 2e 9a 3e bc 1f 27 3f ed eb 41 3f
       0.95358074 0.30113748 0.652828 0.7575062
000220 d7 61 c7 3e a7 ca 6b 3f c6 65 64 3e 09 8d 79 3f
       0.38941833 0.921061 0.22304448 0.9748083
000230 88 2e 01 3e 69 f4 7d 3f c8 8d 91 3d 47 5a 7f 3f
       0.12615407 0.99201065 0.07107121 0.9974713
000240 db cb 23 3d 94 cb 7f 3f a2 40 b8 3c 6c ef 7f 3f
       0.039989334 0.9992001 0.022491757 0.99974704
000250 cd 3c 4f 3c c2 fa 7f 3f a7 14 e9 3b 58 fe 7f 3f
       0.012648773 0.99992 0.0071130577 0.9999747
000260 58 12 83 3b 7a ff 7f 3f 0e 6a 13 3b d6 ff 7f 3f
       0.0039999895 0.999992 0.0022493633 0.9999975
000270 5c cb a5 3a f3 ff 7f 3f 52 77 3a 3a fc ff 7f 3f
       0.0012649107 0.9999992 0.0007113117 0.99999976
000280 10 7c 75 bf 2c 3c 91 3e d6 da a5 3e 40 32 72 bf
       -0.9589243 0.2836622 0.3239352 -0.94607925
000290 7f fc 7f 3f d4 72 29 bc ab ca 46 3f f1 4c 21 3f
       0.99994653 -0.010342319 0.77652997 0.6300803
0002a0 44 77 f5 3e 40 a9 60 3f ee 11 8e 3e 7c f2 75 3f
       0.47942555 0.87758255 0.27748054 0.96073127
0002b0 1e 3c 21 3e 81 ce 7c 3f 21 db b5 3d 1e fd 7e 3f
       0.15745589 0.987526 0.08879686 0.99604976
0002c0 f5 b6 4c 3d 19 ae 7f 3f fe 4d e6 3c 19 e6 7f 3f
       0.04997917 0.99875027 0.028113361 0.99960476
0002d0 81 85 81 3c cf f7 7f 3f bb ac 11 3c 69 fd 7f 3f
       0.01581073 0.999875 0.00889128 0.9999605
0002e0 de d6 a3 3b 2e ff 7f 3f 8c 44 38 3b be ff 7f 3f
       0.0049999794 0.9999875 0.002811703 0.99999607
0002f0 31 3e cf 3a eb ff 7f 3f 26 15 69 3a f9 ff 7f 3f
       0.0015811381 0.99999875 0.0008891396 0.9999996
000300 8c 0f 8f be b8 cd 75 3f 74 e5 6b be 53 1d 79 bf
       -0.2794155 0.96017027 -0.23036748 -0.9731037
000310 4d 78 72 3f 6f 3f a4 be 89 30 60 3f 34 2f f7 3e
       0.94714814 -0.32079646 0.8757406 0.482782
000320 69 8c 10 3f 32 49 53 3f fd 7d a9 3e e2 90 71 3f
       0.5646425 0.8253356 0.33103934 0.943617
000330 6f 20 41 3e e3 67 7b 3f c1 19 da 3d 51 8b 7e 3f
       0.18860029 0.98205394 0.106494434 0.9943133
000340 d1 9c 75 3d 12 8a 7f 3f bf 2c 0a 3d b3 da 7f 3f
       0.059964005 0.99820054 0.03373408 0.99943084
000350 46 6c 9b 3c 34 f4 7f 3f 04 cf 2e 3c 45 fc 7f 3f
       0.018972527 0.99982 0.010669474 0.9999431
000360 59 9b c4 3b d2 fe 7f 3f 06 1f 5d 3b a1 ff 7f 3f
       0.005999964 0.999982 0.0033740415 0.99999434
000370 05 b1 f8 3a e2 ff 7f 3f 7d d9 8b 3a f6 ff 7f 3f
       0.0018973654 0.9999982 0.0010669675 0.9999994
000380 46 30 28 3f bd ff 40 3f 6e b6 36 bf 60 4f 33 bf
       0.6569866 0.75390226 -0.71372116 -0.7004299
000390 6f e8 4c 3f bb 74 19 bf 44 84 72 3f b9 f8 a3 3e
       0.80042166 -0.5994374 0.9473307 0.32025698
0003a0 73 eb 24 3f b3 cc 43 3f df 60 c4 3e c5 6b 6c 3f
       0.64421767 0.7648422 0.38355157 0.92351943
0003b0 50 d3 60 3e ea c0 79 3f ba 46 fe 3d e9 04 7e 3f
       0.2195561 0.9755999 0.12415834 0.9922624
0003c0 32 3e 8f 3d 81 5f 7f 3f 60 31 21 3d 3b cd 7f 3f
       0.06994285 0.997551 0.03935373 0.9992253
0003d0 a6 52 b5 3c f2 ef 7f 3f 2a f1 4b 3c ec fa 7f 3f
       0.022134136 0.999755 0.012447635 0.9999225
0003e0 c7 5f e5 3b 65 fe 7f 3f be fc 80 3b 7e ff 7f 3f
       0.006999943 0.9999755 0.003936379 0.99999225
0003f0 ec 11 11 3b d7 ff 7f 3f 66 28 a3 3a f3 ff 7f 3f
       0.0022135926 0.99999756 0.0012447953 0.9999992

W f4 [32, 32]
000000 ae 19 06 3e 74 eb 9d 3d 34 49 55 bc dd 3d a7 3d
       0.13095734 0.07710925 -0.013017941 0.08166096
000010 1d 50 82 be 34 d2 1f be a3 10 ba bd a8 03 2c 3e
       -0.25451747 -0.1560753 -0.090852045 0.1679827
000020 b8 2f 2e be d4 b3 ce bd a4 9c 8e 3b 43 79 3f be
       -0.17010391 -0.10092893 0.004352169 -0.18698601
000030 9d de 53 3e 25 c9 23 3d 1f 15 be 3d 8a 36 8d bd
       0.20690389 0.03998675 0.09281372 -0.06895168
000040 fe 50 65 bd 03 fb b3 3d a5 16 83 3e ef 47 36 3e
       -0.055985443 0.08788111 0.25603214 0.17800878
000050 b2 7c 65 be 70 76 81 3d 87 d9 b3 3d 37 00 67 3e
       -0.22410849 0.06321418 0.087817244 0.22558676
000060 ea 87 df 3d a6 f9 63 be 02 25 9b 3d b3 32 46 3e
       0.109145954 -0.22263202 0.07575418 0.19355278
000070 41 d8 39 3e 91 30 0c be 11 48 53 be 1d 24 10 3e
       0.181489 -0.13690402 -0.2063296 0.14076276
000080 e8 15 67 bb 95 a8 78 be 84 01 24 bd 9f 2b 30 3e
       -0.003526086 -0.24283059 -0.040040508 0.1720414
000090 f0 0a f2 bd 07 60 92 3d 7a 6e 09 bd 66 28 8d 3e
       -0.118184924 0.07147222 -0.033552624 0.27569884
0000a0 34 23 05 3e 40 03 2f 3d 6d d6 ac bd 0e bc 4a be
       0.1300171 0.04272771 -0.08439336 -0.197983
0000b0 a9 66 88 3e aa b7 72 be 16 50 83 3e 6d c0 3c 3d
       0.26640823 -0.23702875 0.25647038 0.04608195
0000c0 ed f2 0c be 36 b5 91 3e 6e c6 83 be b2 25 fa 3d
       -0.13764544 0.28458565 -0.25737327 0.12214221
0000d0 de a6 4a 3e fd 03 9f 3e 1f af 21 be 49 39 6f 3e
       0.19790217 0.3105773 -0.1578946 0.23361696
0000e0 fa 47 35 3e 2b 45 f2 3d 82 17 20 3e da 9b 4e bc
       0.17703238 0.11829599 0.15633968 -0.0126104
0000f0 6c 22 84 3e 7b 85 85 3e be 92 16 be 83 0b 93 3e
       0.25807512 0.260784 -0.14704415 0.2871972
000100 19 55 12 3d 7d 9d f4 3d e1 91 06 be f7 32 d7 3d
       0.035725687 0.11944101 -0.13141586 0.10507768
000110 cc 9f 48 3e 5d 32 50 3e ac 75 87 3e 32 76 3b be
       0.19592208 0.20331712 0.26456964 -0.18306807
000120 3b f0 5a 3e c8 2f c7 bd 65 6f 74 be 12 46 89 be
       0.21380703 -0.097259104 -0.23870619 -0.26811272
000130 2b a0 8b be 61 32 1c be 37 13 58 be d1 dc 0c 3e
       -0.27270636 -0.15253593 -0.2110108 0.1375611
000140 b0 9c 32 be 23 cb cb 3d ce 44 30 3e 03 29 75 be
       -0.17442584 0.09950855 0.17213747 -0.23941426
000150 ef 62 03 3e 54 5c 49 be 8c 47 c2 bd 53 de 13 be
       0.12830709 -0.19664127 -0.09486303 -0.14440279
000160 4a 95 c0 bd 12 9b 74 be e1 78 13 be 81 11 fc bb
       -0.09403475 -0.2388728 -0.1440158 -0.0076925163
000170 9e bc a6 bc c7 d0 78 bd 6b ad 98 be eb c2 04 3e
       -0.020353612 -0.06074598 -0.29819807 0.1296498
000180 a9 a7 04 3e a5 18 33 3e 2b 42 70 be 54 2e 3f be
       0.12954582 0.1748987 -0.23462741 -0.18670017
000190 30 5d 33 bd f5 16 d6 3d fb dd d4 3d 1d 25 6c 3d
       -0.043790042 0.104535975 0.10393902 0.05765258
0001a0 b5 e2 4a bd 4c 21 06 3e 7e 2c 8a bd d6 2f e2 bc
       -0.04953261 0.13098639 -0.067467675 -0.0276107
0001b0 1d 4f 85 3e 88 0c 92 3e 9a 8d 74 be cc fb d3 bc
       0.2603692 0.28525186 -0.23882142 -0.025876902
0001c0 58 28 68 3e c5 f7 4e be 80 0f 47 3e 2e 64 44 bd
       0.2267164 -0.20211704 0.19439507 -0.0479471
0001d0 a5 18 40 be ae c5 8b 3e 3f 6c 9b 3e 08 8c 00 3e
       -0.18759401 0.27299255 0.30356023 0.12553418
0001e0 b4 db 2e 3e 36 16 18 be 7a 06 39 3e d2 8b 01 3e
       0.17075998 -0.14852223 0.18068877 0.12650993
0001f0 2c 5f 3d bd e2 e5 b5 bb 5f ae c8 3d 84 09 9b be
       -0.04623334 -0.005551086 0.09798884 -0.30280697
000200 8c 0a 22 be 4e 7c 2c be ae 03 79 be ca 51 20 3d
       -0.15824336 -0.16844293 -0.2431781 0.0391405
000210 65 e2 3f 3d 6a 54 4c be 40 24 26 bd f9 ef 85 3d
       0.046846766 -0.19954076 -0.040561914 0.06539912
000220 80 e1 3c 3e d5 6f 6c 3e 62 bd 9d be c4 b0 1a be
       0.18445396 0.23089536 -0.3080855 -0.15106493
000230 b6 c7 6a be cc 7e f6 bd 42 8c 22 3e b2 c7 7d be
       -0.22927746 -0.12035903 0.15873817 -0.24783209
000240 f1 e4 50 3c 45 14 94 3d 64 b3 27 3e 68 3a 99 be
       0.012749896 0.072304286 0.16377026 -0.29927373
000250 0d 09 78 be 74 18 7f 3e 5d 99 f8 3d 77 1c 4c 3e
       -0.24222203 0.24911672 0.12138627 0.19932733
000260 ed 52 2a be 67 c0 e7 3d 44 af 7e be 57 c1 71 be
       -0.16633196 0.11315995 -0.24871546 -0.2360891
000270 78 c0 0c 3e 0e ea 08 3e 1f 32 76 be 28 0c 9b be
       0.13745296 0.13370535 -0.24042557 -0.30282712
000280 e2 46 89 3d 63 68 c5 3d b7 79 3d bd 30 e1 c6 bd
       0.06702973 0.09639051 -0.046258654 -0.0971092
000290 d7 b1 36 3d df 71 80 be 03 da 5b be a6 15 0d be
       0.044603195 -0.25086877 -0.21469884 -0.1377779
0002a0 03 85 3c be 6f 7f 8f be c1 bd 8e 3e f4 ea 72 3e
       -0.18410115 -0.28026912 0.27879146 0.2372244
0002b0 41 41 04 be d3 2c 31 3e d0 70 ac bd cd 62 0c 3e
       -0.12915517 0.17302255 -0.08419955 0.13709565
0002c0 75 05 83 3e 80 1f 03 3e 4c 32 88 be 12 0b 67 be
       0.255901 0.12804985 -0.26600873 -0.22562817
0002d0 43 b6 ed 3d 36 cc 30 3e e4 35 30 3e b3 f5 66 3e
       0.11607029 0.172654 0.17208058 0.22554664
0002e0 f8 e7 83 be e2 e1 12 3d c4 07 09 3e 24 1d 4d 3c
       -0.25762916 0.03585995 0.13381869 0.012519155
0002f0 95 3a 22 3e 51 b4 21 be eb 8a 6e bd 43 67 09 3e
       0.1584266 -0.15791442 -0.05823795 0.13418297
000300 1b 07 0d bd f3 b5 0f 3c a6 ad 31 be b7 59 27 3d
       -0.034430604 0.008771407 -0.17351398 0.040857043
000310 cf a3 4f be 4e 19 54 be b1 02 51 3c 27 21 7d be
       -0.20277332 -0.20712778 0.012756989 -0.24719678
000320 e1 10 90 3e 87 2f 39 be 38 26 97 be f4 77 66 3e
       0.28137878 -0.18084536 -0.29521346 0.22506696
000330 76 d9 32 3e de 96 36 3d 50 df 31 be fc fd 70 3e
       0.17465767 0.044577472 -0.17370343 0.23534387
000340 84 72 86 be 8e 15 09 3e 82 a8 45 be d8 fe 83 be
       -0.26259243 0.13387129 -0.19302562 -0.25780368
000350 74 ee 9d be 76 3a 18 bd d8 66 21 3e c4 7e 02 be
       -0.30845988 -0.037165128 0.15761888 -0.1274367
000360 a5 80 95 3d 94 ea 9c 3d d4 5a 7b be ed a3 89 be
       0.072999276 0.0766193 -0.24546367 -0.26882878
000370 61 bb 33 bd f3 2e 15 be 90 3a 5d 3d 74 e7 7a 3d
       -0.04387987 -0.14568691 0.054010928 0.061255887
000380 00 ff 6a ba e9 e4 8d be 4d 57 61 3e 96 7a 89 be
       -0.00089643896 -0.27713707 0.22005959 -0.26851338
000390 91 19 a8 3d 16 3b ba bd ff 9e 09 be 95 5a 22 be
       0.082080014 -0.09093301 -0.13439558 -0.15854867
0003a0 a6 1e be 3d 65 8a 7a 3e c0 8d 8a 3a 89 6f 05 3e
       0.092831895 0.24466856 0.0010570809 0.13030829
0003b0 2e f1 85 3e 75 64 68 be 67 2b 25 bd 7e d0 22 3e
       0.26160568 -0.22694571 -0.040324595 0.15899846
0003c0 cc 79 36 3e 2d 2e c8 bd 3f c4 0e be 96 c9 92 3e
       0.178199 -0.09774432 -0.1394205 0.28669423
0003d0 33 70 15 be 66 c7 4a be 6d cb 88 3e 48 60 46 3c
       -0.14593582 -0.19802627 0.26717702 0.012107916
0003e0 a9 d9 6f be c1 44 84 3e 8a 0b 5d be fb d8 01 be
       -0.23422875 0.25833705 -0.21586433 -0.12680428
0003f0 96 28 98 3d 76 ba 38 bd b8 2b 4f be 9d 9b cb 3d
       0.07429616 -0.045099698 -0.20231521 0.0994179

b f4 [32]
000000 65 ed c2 3b 71 db 39 3c 90 df 51 bc 53 5a cb 3b
       0.00594871 0.011343823 -0.012809649 0.006205836
000010 96 31 fd b9 97 18 01 bc cd 85 d9 bb ed 48 ae 3c
       -0.00048292865 -0.007879398 -0.0066382647 0.021275008
000020 58 32 fe 3b cf 5f 56 3c cd 80 50 3b 26 b9 61 3b
       0.0077574663 0.013084366 0.0031815052 0.0034442632
000030 c3 5d 92 bb 03 c1 52 3c 1c b3 c1 bb d0 d6 90 3c
       -0.0044667437 0.0128634 -0.005911244 0.017680556
000040 b8 76 ca 3c 44 0e a3 bb bb 0a 68 bb 86 71 53 bb
       0.024714813 -0.004976066 -0.0035406786 -0.003226371
000050 cc 00 78 bc 08 32 61 bb cf 50 97 bc f4 95 43 3c
       -0.015136909 -0.0034362096 -0.01847115 0.011937607
000060 38 59 71 3c d0 f4 0c 3c da 7e 4e bb 35 0a f1 bb
       0.014730744 0.00860329 -0.0031508715 -0.007355953
000070 98 ee 6b bc 2e 1e 72 3c 45 f4 df bb bf fb a0 3c
       -0.014400147 0.014777703 -0.006834539 0.019651292

W f4 [32, 32]
000000 40 52 71 be 62 09 94 bd e0 e2 5f be f8 bb 1b 3e
       -0.23566532 -0.07228352 -0.2186389 0.15208423
000010 83 57 03 be eb bd a2 3c 01 f3 15 bd f2 da 8a 3c
       -0.12826352 0.01986595 -0.0366087 0.016950104
000020 4d e7 25 be 23 f1 2f be 8b cd 81 bd b9 a6 95 3e
       -0.16201515 -0.1718183 -0.06338032 0.29228762
000030 5d 0d ae 3d 22 fb 66 3d 6f e3 c9 3c 0a a1 4e bd
       0.084986426 0.056391843 0.024644582 -0.050446548
000040 3d 5a d1 3d 17 cf 62 3e de 80 a6 bd 72 7b 92 be
       0.1022229 0.22149311 -0.08130048 -0.28609806
000050 c6 a0 8f be 61 55 0f 3e e3 c0 dd bc 78 86 f6 bd
       -0.28052348 0.13997413 -0.027069515 -0.12037367
000060 cf 33 00 be be 32 de bd b9 1b 1b be 9a 64 72 3e
       -0.12519763 -0.10849522 -0.15147294 0.23671189
000070 7d ef 6c be 56 18 5a 3d c4 e7 59 3e bb 17 57 be
       -0.23138233 0.053245865 0.21279818 -0.21005146
000080 4a 99 48 3e 15 a8 64 3e 46 eb 49 3e d0 d9 81 be
       0.19589725 0.22329743 0.19718656 -0.2536149
000090 e5 d1 3f 3e 45 6a 4d bd 25 a1 5c 3b 5a 45 db 3d
       0.18732412 -0.050150175 0.0033665386 0.10706587
0000a0 db b3 96 3e d1 96 a6 bd dc 92 0c 3e 95 94 9f 3e
       0.29434094 -0.08134235 0.13727897 0.31168047
0000b0 2b 12 5f 3e 78 2e d8 3d c5 1f 8b 3e bf 41 9b 3e
       0.21784274 0.10555738 0.27172676 0.30323598
0000c0 e6 d0 20 3e fa da a1 3d 0b fc 1f 3e 47 22 5e be
       0.15704688 0.079030946 0.1562349 -0.21692763
0000d0 9e a6 81 be b5 dd 78 3d 4e 67 f6 3d fd 9a 63 3e
       -0.2532243 0.06075831 0.120314226 0.22227092
0000e0 8f dd 34 be 71 cd 92 3d 52 c4 86 bc 78 5b 6c be
       -0.17662643 0.07168091 -0.016451035 -0.23081768
0000f0 d7 1a d5 3d 37 c6 86 bd ea 3d fe bd 5b 6d 1e be
       0.1040551 -0.06580775 -0.12414153 -0.15471403
000100 9e 29 44 3e dd 51 ee bd a9 96 78 3e 33 bd d4 3d
       0.191565 -0.11636708 0.24276222 0.103876494
000110 b7 00 11 3d b8 ec 14 3e a9 f3 0a 3e de 9a 1b be
       0.035401072 0.14543426 0.13569511 -0.15195796
000120 fe c3 83 be 56 3e 8d bd 9a d1 69 3e 4a 35 6a 3e
       -0.25735468 -0.06896655 0.22833863 0.2287189
000130 ae 39 b3 3d 18 fc 98 3e bf f7 80 be 7f 62 84 3e
       0.08751236 0.29879832 -0.25189015 0.25856397
000140 39 b8 47 3e cb 09 80 3e 6c a4 2b 3c 79 cd 2a 3e
       0.19503869 0.2500747 0.010476213 0.16679944
000150 32 b0 c1 3d 71 f1 79 be 70 f0 86 be 5e 87 8a 3e
       0.09457435 -0.24408509 -0.26355314 0.27056402
000160 1e b0 81 3e 96 74 0e be 32 8f 40 3e 21 66 47 be
       0.2532968 -0.13911662 0.18804625 -0.19472553
000170 f8 61 8e be 2b 9e 43 bd 9e d8 9d be ab c8 67 3d
       -0.2780912 -0.047758263 -0.30829328 0.056587856
000180 0d c3 ba bd e1 f9 ba bc f8 b7 73 bd e4 09 43 3e
       -0.09119234 -0.02282423 -0.05950162 0.19046742
000190 cb 64 5a 3d 7e 32 6a 3e 52 1b 2f bd 26 bf 4c be
       0.05331878 0.22870824 -0.042750664 -0.19994792
0001a0 72 9b 8f be 33 ea cc 3d d3 25 e3 bd af b5 90 3e
       -0.28048283 0.100056075 -0.11091199 0.28263614
0001b0 9e 5b 06 3e a8 86 5b be c0 e5 fc 3d f4 02 81 3c
       0.13120887 -0.21438086 0.12348509 0.015748478
0001c0 0a b7 6c be e9 99 9d bc ca c6 88 be 2f 01 b2 3d
       -0.23116699 -0.01923843 -0.26714164 0.08691632
0001d0 22 d2 81 3e 6b 84 40 be 7c 13 3f be cd 41 a2 3c
       0.2535563 -0.18800513 -0.18659776 0.019806767
0001e0 b1 fd 6b be 0c 78 2f 3e a2 83 ce bb 2b 76 51 be
       -0.23045994 0.17135638 -0.006302313 -0.20455234
0001f0 a4 bd 70 3e d1 ac 5c be d1 e2 33 be cf 45 87 be
       0.23509842 -0.21550299 -0.17566992 -0.26420447
000200 70 b8 4f 3e ee f9 f5 3c d4 0c e9 bd b9 9f 6d 3e
       0.20285201 0.030026402 -0.113794 0.2320546
000210 d1 e8 82 be b2 33 58 be 60 a4 3b 3c 80 44 05 3e
       -0.2556825 -0.2111347 0.011452764 0.13014412
000220 e2 31 1f 3e 90 9e 36 be 5f de 1f 3e df ff 59 3d
       0.15546373 -0.17833924 0.15612172 0.053222533
000230 40 91 90 3e 56 56 73 3e a9 11 26 bc e0 19 76 3d
       0.28235817 0.23763403 -0.010136046 0.06008327
000240 16 d4 8c 3c dd 75 9b 3d bc 4c 79 3e ee d4 74 be
       0.017190974 0.0759084 0.24345678 -0.23909351
000250 9c 2c 94 3e 1c d0 06 3e 94 a2 18 bd c9 f4 6b be
       0.28940284 0.13165325 -0.03726442 -0.23042597
000260 e5 43 33 be 0b b6 96 3d 18 6a 73 3e 2b f4 84 be
       -0.17506368 0.07358941 0.2377094 -0.25967535
000270 b7 97 72 be 85 be fa 3d 59 66 80 be aa 1b 68 3e
       -0.23690687 0.1224337 -0.25078085 0.22666803
000280 be 50 5a be 6b a6 e5 3d a8 56 90 3e 4e 06 a3 bd
       -0.21319863 0.11213382 0.28191113 -0.07960187
000290 39 00 96 bb 7f 6a d1 bd c9 a6 67 3e 76 8c 52 3e
       -0.0045776633 -0.10225391 0.22622217 0.20561394
0002a0 bc ad a3 3d 27 8a c1 bd 94 83 38 3e 6c cf d3 39
       0.079921216 -0.094501786 0.18018943 0.00040399597
0002b0 30 02 b0 3d 31 08 85 be 82 0d 4e be 2b 55 8c 3e
       0.08594167 -0.25982812 -0.2012234 0.27408728
0002c0 1d 6d b5 3d f8 1e 52 3e a3 02 55 bc 4a 9c 06 be
       0.08858702 0.20519626 -0.013001117 -0.13145557
0002d0 97 7f 34 3e cf 91 84 3e 5d ff 13 3e e7 85 e0 3d
       0.17626797 0.25892493 0.14452882 0.1096304
0002e0 b3 8f 8a 3e 0a ee 60 be 18 f3 07 bc 24 3a 66 be
       0.2706276 -0.21965805 -0.008297704 -0.22483116
0002f0 cf f7 85 3d 8d 01 37 3e 5b cf 7c bd 74 9d b9 3d
       0.06541406 0.17871685 -0.061721187 0.09063235
000300 02 bc 64 3e 36 ed 8f 3e ea 86 c6 bc c2 d3 1b 3e
       0.22337344 0.28110665 -0.024234254 0.15217498
000310 e8 10 50 3e 70 f0 2b 3e a7 b5 6d be 0d b3 aa 3b
       0.20318949 0.16790938 -0.23213826 0.005209333
000320 0a 9a 98 bc 21 ce 94 3e 7a 7b 97 3e d0 5e 6e 3e
       -0.018628139 0.29063514 0.29586393 0.23278356
000330 6d 3f a6 bd 3f e1 47 3e 61 5c c6 bd 3e 31 79 3e
       -0.08117566 0.19519518 -0.09685589 0.2433519
000340 ac 62 5e 3e 69 be 31 3e 1a dd 85 be 0e ac 22 be
       0.21717328 0.17357792 -0.2614525 -0.15885946
000350 b7 00 fc 39 76 6f 33 3e ce 03 91 3d d1 42 f3 bc
       0.00048065718 0.17522988 0.07080804 -0.029694946
000360 8b f3 86 bd e2 36 89 be 7c 54 15 3e bb af 88 3e
       -0.06589421 -0.26799685 0.1458301 0.26696572
000370 15 55 5c 3e a1 f5 81 be d6 05 2b be ee 5f 2d be
       0.21516831 -0.25382712 -0.16701445 -0.16931126
000380 c0 83 8c 3e 8d ae 51 be 51 d6 22 be e7 3c 20 3e
       0.27444267 -0.20476742 -0.15902068 0.15648232
000390 9c b1 6a 3e 5f 53 2b 3d 71 e2 fa bd 09 a5 91 3d
       0.22919315 0.041827556 -0.122502215 0.07111556
0003a0 b0 d5 20 3c 07 7e d0 bc 15 db 30 3e fa 9b 87 be
       0.009816572 -0.02545072 0.17271073 -0.26486188
0003b0 8f 21 99 bd 5f fc 35 be 2b b3 80 bd f4 a4 99 be
       -0.07477104 -0.17772053 -0.062841736 -0.30008662
0003c0 5b 48 91 3d b5 ae 9b 3e c5 1e 6b 3e 6c 88 b1 bd
       0.07093879 0.30406728 0.22960956 -0.086685985
0003d0 60 5c 19 3e f8 5b 5e be b2 09 6c 3d 66 ea c3 bd
       0.14976645 -0.21714771 0.057626434 -0.09566192
0003e0 b7 d1 c8 bb 6e 6f 99 be a7 1a 14 3e 8c 0f 82 3e
       -0.0061285156 -0.29967827 0.14463292 0.25402486
0003f0 a6 18 7c 3d 4e f1 00 3e b2 f3 94 be 62 e3 97 3e
       0.061546944 0.1259205 -0.29092175 0.29665667

b f4 [32]
000000 77 ef 1f bb db d0 9b bb 5f a6 d7 b9 41 74 c2 3b
       -0.0024404207 -0.004755122 -0.00041131952 0.0059342687
000010 91 9d 82 bc 6f cb 19 3c d2 61 17 3c 58 8b 1b 3c
       -0.015944274 0.009386881 0.009239631 0.009493671
000020 e3 06 5f 3a 1c 1d 6c 3b 4b 68 60 bc d9 87 1b 3a
       0.0008507801 0.0036028093 -0.01369674 0.00059330236
000030 35 19 21 bc 3e 06 16 bc 33 f5 32 bb b7 1b 25 3b
       -0.00983267 -0.009156762 -0.0027306795 0.0025193521
000040 b7 1f 80 bb bc 5a 93 3b b8 55 04 3b 00 17 42 bb
       -0.0039100307 0.0044969004 0.0020192694 -0.002961576
000050 f3 64 37 3b 81 11 23 bb 1c 7a b4 3b fe 0a 45 3b
       0.0027983754 -0.002488226 0.0055077206 0.0030066366
000060 2c f6 22 bc 78 ef 0d bb c8 14 45 3b d2 a3 25 bb
       -0.009946387 -0.0021657627 0.00300722 -0.0025274646
000070 7c e0 96 ba 9b 66 fa 3b 3d 62 15 3c 0d 64 90 bb
       -0.0011510993 0.007641626 0.00911766 -0.004406458

W f4 [32, 32]
000000 a4 74 bd 3d 74 81 38 3d ad 35 04 3e e7 1a 73 3d
       0.09250763 0.04504533 0.129111 0.059351828
000010 d9 2c 88 bd a8 a5 ad 3d 47 fd 97 3c 8f 5c 77 be
       -0.06649179 0.08478862 0.01855339 -0.24156402
000020 91 bf 34 3e dc cc a2 3e e1 ad 29 3e b6 f8 30 3c
       0.17651202 0.3179692 0.16570236 0.010801485
000030 b5 c1 0b be 60 78 57 be c2 74 9f 3d d7 58 82 be
       -0.13648112 -0.21042013 0.07785942 -0.25458404
000040 d8 f9 cf bd 33 00 80 be fe 7c 95 bd 8f c8 51 3e
       -0.10155076 -0.25000152 -0.07299231 0.20486663
000050 9d 4f 2c be 3e 31 ba bd 36 4e 65 3e 65 7f 1c 3e
       -0.16827245 -0.090914235 0.22393116 0.15282972
000060 14 70 58 3e d5 73 f8 3c 98 c6 3c 3e 80 49 a1 bd
       0.21136504 0.03032867 0.18435133 -0.07875347
000070 ac 56 5e be c7 60 98 be e1 3f 1a 3e 60 d5 86 bc
       -0.2171275 -0.29761335 0.1506343 -0.016459167
000080 02 e6 05 3e 12 05 1a 3c 0e 2b cb bd 11 0b 18 3e
       0.13076022 0.009400623 -0.099203214 0.14847971
000090 8a c6 94 3e 12 d6 42 3e f6 59 5f 3d ff b3 5f 3e
       0.29057723 0.19026974 0.054529153 0.21846007
0000a0 c9 9c 87 be 6a 4b db bd 8e a8 1d bd 62 16 7e be
       -0.26486805 -0.107077435 -0.038490824 -0.24813226
0000b0 b3 85 06 3e fd bc 25 be f4 a8 ae bb cb 67 53 3e
       0.1313694 -0.16185375 -0.0053301994 0.20645063
0000c0 14 84 8e 3e 56 84 e9 3d 56 2b 3f 3d f3 fe c9 3d
       0.27835143 0.11402194 0.046672188 0.09863081
0000d0 24 60 44 be 6f c8 84 3e aa ff 4e be d3 97 9c bc
       -0.191773 0.2593417 -0.20214716 -0.019115364
0000e0 0c b5 90 bd e4 ab 9a 3e 6d ab 31 3e f3 0f a5 3c
       -0.07065782 0.30209267 0.1735055 0.020149207
0000f0 63 b6 54 bd 52 57 77 3d 4a 3b 83 bd 38 8c 5c 3e
       -0.05193175 0.06038601 -0.06407793 0.21537864
000100 0b 37 94 3e f2 85 67 3d 67 b1 49 3e de 33 86 3e
       0.28948244 0.056524225 0.1969658 0.26211447
000110 0b 8f 3e 3e 4c d2 56 be e3 73 c6 3d 15 6a 42 be
       0.18609254 -0.2097866 0.096900724 -0.1898578
000120 c5 c6 06 be f8 09 35 be 05 df 3d 3e cb 4b 9b be
       -0.13161762 -0.17679584 0.18542106 -0.30331263
000130 e0 5a 2e 3e 55 12 00 3d e1 93 9d be fe 9b 98 bd
       0.17026854 0.031267483 -0.30776885 -0.07451628
000140 6d de 97 be 68 12 8d 3d 22 77 9c be 36 b4 ab 3d
       -0.29661885 0.06888276 -0.3055964 0.08383982
000150 34 0e e9 3d ce 0d df 3c 7b 3f cf 3d ab e6 b0 bd
       0.11379662 0.027228262 0.1011953 -0.086377464
000160 c6 bc 84 3e dd 99 ad 3d 15 66 32 3d 27 d7 8e 3e
       0.25925273 0.08476613 0.043554384 0.27898523
000170 ea 07 92 3c 8d e9 cd bd 35 0f 47 be df 70 25 3e
       0.01782604 -0.10054312 -0.19439395 0.16156338
000180 dd 28 7b 3e 7d 6a 92 be 9f 16 47 3e 96 51 d6 bd
       0.24527307 -0.2859687 0.19442223 -0.1046478
000190 9f 29 ee bd 00 98 89 be d1 9a da bd 02 cf 90 bd
       -0.11629032 -0.2687378 -0.1067406 -0.070707336
0001a0 fa bb 53 be c2 87 20 be d2 d1 2f be 0a f1 59 be
       -0.20677176 -0.15676787 -0.17169884 -0.21283355
0001b0 28 27 6c bc e3 a4 71 3b 4c 46 36 be c3 a2 4b be
       -0.014413632 0.0036871962 -0.17800254 -0.19886307
0001c0 3c 31 56 be 05 dc 02 bd b6 b4 ef bd ac 9e 95 be
       -0.20917219 -0.03194811 -0.1170439 -0.2922262
0001d0 9b 4d 2a 3e 31 d4 42 be 48 50 0b bd a2 34 89 be
       0.16631167 -0.19026257 -0.03401211 -0.26797968
0001e0 a6 75 19 3e 6e 02 2a bd aa 57 d2 3d 2b 96 0d 3e
       0.14986286 -0.041506223 0.10270627 0.13826816
0001f0 4e dc 9c be e5 0c 2e be 26 e7 ff 3d 18 63 8b be
       -0.3063683 -0.16997106 0.1249526 -0.2722404
000200 b4 50 29 3e 04 10 53 3c 98 1a 26 3e 26 50 3c 3e
       0.16534692 0.012882236 0.16221082 0.18389949
000210 37 fa ca 3d 8b d1 e9 bc ae eb ed bc ea ed 95 bd
       0.09911006 -0.0285423 -0.029043045 -0.07320769
000220 31 a7 1a be ad b9 be 3d db f2 8b be ca 2e b1 3d
       -0.15102841 0.093127586 -0.27333722 0.086515024
000230 e3 67 9a bd 42 06 0d bc 42 87 c4 bc 72 62 4c be
       -0.07539346 -0.008607449 -0.023990277 -0.19959429
000240 be 31 43 3e 2b ae 6b bd e5 b7 08 3d d3 81 89 be
       0.19061944 -0.057539146 0.0333785 -0.2685686
000250 45 db 23 3d 96 4d 92 3e cd 23 9f 3e 1a 3f c0 3d
       0.040004034 0.28574818 0.31082 0.09387036
000260 00 4b d3 bd b0 70 85 3d 9c 02 b3 3d ef 88 69 be
       -0.103170395 0.06515634 0.08740732 -0.22806142
000270 31 74 b0 3d 95 ad 48 be 18 a8 54 be 08 79 9b 3e
       0.08615912 -0.19597466 -0.20767248 0.30365777
000280 b5 64 de bd 6b e1 c4 bd f5 86 c8 3d b8 1a 28 3e
       -0.10859052 -0.096133076 0.09791366 0.16416442
000290 da bf 29 3e 50 08 34 be 02 e5 40 be 87 a4 45 3e
       0.16577092 -0.17581296 -0.1883736 0.19301043
0002a0 71 b1 4f 3e 78 f3 8f bd f4 27 8c 3d 99 2d 91 3e
       0.20282532 -0.0702886 0.06843558 0.283551
0002b0 7c 94 46 3e 85 aa 3e be 41 18 2d be a7 d2 8d 3e
       0.1939258 -0.18619736 -0.16903783 0.27699777
0002c0 55 ec de bd 18 f6 8d 3e 0b ce 6d 3e 18 9a 78 3e
       -0.108849205 0.27726817 0.2322313 0.24277532
0002d0 c1 99 40 3e 9b 47 83 be 75 e7 99 3e 67 ba ce bd
       0.18808652 -0.25640568 0.300594 -0.10094147
0002e0 39 3e 9c 3c a5 f1 98 3e e6 86 29 bd 12 02 0c be
       0.019072639 0.2987186 -0.041388415 -0.13672665
0002f0 1e d0 ff 3d 0c 0d 55 be eb 4a d9 bd 90 e1 f6 bd
       0.12490867 -0.20805758 -0.106099926 -0.120547414
000300 9a e8 56 be e6 e3 71 3e 65 ae 8a 3d dc e6 8e 3d
       -0.20987168 0.23622093 0.06771544 0.06977627
000310 b5 51 91 3e ab 82 76 be 27 51 19 be f4 d4 a6 3c
       0.2838265 -0.24073283 -0.14972363 0.020365216
000320 ca 73 8f 3e 7f 5c 9a 3e 1d 94 91 3d 72 3f 14 3e
       0.28018028 0.30148694 0.071083285 0.14477327
000330 b6 5c 6f be 80 7c 94 3e 25 7f 93 be ea 6b 4f bc
       -0.2337521 0.29001236 -0.2880794 -0.012660006
000340 a7 dd 4a 3d 00 01 7c bd 05 18 6e 3e a8 25 5d be
       0.04952779 -0.06152439 0.2325135 -0.21596396
000350 58 55 21 3c e9 e9 37 be 31 c3 86 3e 52 dc 63 3e
       0.009847008 -0.17960323 0.26320794 0.22252014
000360 f2 0f c2 bb 04 a5 83 3e 6e 84 e3 bd bb 3b 8f 3e
       -0.005922311 0.25711834 -0.11109243 0.27975258
000370 64 94 2d be c9 3c 2c 3e 90 09 8d be 07 45 81 bd
       -0.16951138 0.16820063 -0.27546358 -0.06311994
000380 22 6b a1 bd 31 01 07 3e 7a 26 18 3c ae ab ce bd
       -0.07881762 0.13184048 0.009286517 -0.10091339
000390 96 df 8e 3e 1c 6f 60 be 95 d1 60 3e f8 70 63 3e
       0.27904958 -0.21917385 0.21954949 0.22211063
0003a0 95 dc 3a 3d 1c 5c dc 3d 9d bb 09 3d 24 44 de bd
       0.04562052 0.10759756 0.033626188 -0.108528405
0003b0 5d 7f 38 bd cc dd 9c 3e e3 02 96 3e 81 e0 d7 bc
       -0.045043338 0.30637968 0.29299077 -0.026352169
0003c0 4f ff 21 3d c5 e0 30 be 57 a0 fb bd eb c9 c0 bd
       0.039550122 -0.17273243 -0.12286442 -0.09413513
0003d0 95 a6 57 be 3c 41 9c bc 8d d4 5d be eb 2d 36 3d
       -0.2105964 -0.019074075 -0.21663113 0.044477385
0003e0 d8 db a4 bc 7e 9a 79 3e dc 25 0e 3e 24 15 4d be
       -0.02012436 0.2437534 0.1388163 -0.20027596
0003f0 1c d8 a0 bd a0 3f 6f be 96 00 6b be e3 5a 7a 3d
       -0.078537196 -0.23364115 -0.22949442 0.061121833

b f4 [32]
000000 12 20 04 3c 8d 6e 5d 3b bf 4e e4 bb 7a 71 5e bb
       0.008064287 0.0033787817 -0.006967395 -0.003394215
000010 d7 0d 52 3b 86 e1 9f 3b cf 44 8c 3b 3d 0a 1b 3c
       0.0032051706 0.0048791794 0.0042806636 0.00946289
000020 62 56 4e 3b cf 7a 42 bc 41 d4 1a ba bf 61 7f 3c
       0.0031484594 -0.0118701 -0.0005906262 0.015587269
000030 f0 36 05 bb 61 10 ae 3b be a8 cf bb 86 5c 04 bc
       -0.0020326935 0.005312011 -0.0063372543 -0.0080787
000040 97 5a 60 3b 45 09 24 39 e2 1e 54 3b 1b 7f c1 bb
       0.0034233683 0.00015643712 0.003236704 -0.0059050447
000050 5c f7 f8 bc 56 ad 04 bc 81 1e 01 3c 5d e2 9b bb
       -0.030391388 -0.008097967 0.007880808 -0.004757209
000060 c9 cf 1a 3c 40 9b 05 3a bd 13 6f 3c ee d8 a1 ba
       0.009448954 0.00050966814 0.014592108 -0.0012347975
000070 d2 ff 99 3b 22 4c 85 bb 23 03 21 3c 1a 9b e9 b9
       0.0046996856 -0.0040679136 0.009827408 -0.00044556783

W f4 [32, 32]
000000 0e c7 0d be 26 85 6a be 8c 94 56 be 19 98 17 be
       -0.13845465 -0.22902355 -0.20955104 -0.14804114
000010 a6 51 22 bd 30 36 36 bb 97 7f c8 bd 73 5b 84 3e
       -0.039628647 -0.0027803294 -0.09789961 0.2585102
000020 24 d6 26 be d3 c2 83 bd 83 6a 8f be da bf 93 bc
       -0.16292626 -0.06433644 -0.2801095 -0.018035818
000030 f6 32 8d 3e 19 3b 47 3e aa af 25 be 24 f8 ff 3d
       0.27577943 0.19456138 -0.16180292 0.12498501
000040 56 7c 7e 3d 50 9c 8f 3e fc 14 9e be 54 1d 73 be
       0.062130295 0.28048944 -0.30875385 -0.23741657
000050 c3 c2 93 3e 56 ef 3e be 3d fd 4c bd 18 f5 8f 3e
       0.2885953 -0.18645987 -0.050046194 0.2811668
000060 c0 1f 3d 3e 54 6a 37 be 84 f9 57 be 63 2c 8f 3d
       0.18469143 -0.17911655 -0.21091276 0.06990888
000070 72 4d 33 be 37 71 35 be 0d 85 b4 bd 80 3c bf bd
       -0.17510012 -0.1771897 -0.0881444 -0.09337711
000080 33 24 23 be cc 60 1f be 53 9d 4f 3d 0f 40 87 be
       -0.15931778 -0.15564269 0.050687145 -0.2641606
000090 db b1 1e be ab 75 6d be 48 bb 21 3e 40 6f 94 bd
       -0.15497534 -0.23189418 0.15794098 -0.07247782
0000a0 c1 7c 66 bd ff ff 22 3c 6a 29 04 be 20 d4 8c bd
       -0.05627132 0.00994873 -0.12906423 -0.06876397
0000b0 8f 0d 7c 3e 0a a9 c3 bd 95 ba 33 bd 71 b1 8a be
       0.24614547 -0.09553726 -0.04387911 -0.27088502
0000c0 20 a9 65 3e b9 32 07 be 90 e7 03 be 5e 5f 9a be
       0.22427797 -0.13202943 -0.12881303 -0.30150884
0000d0 b2 77 06 3e 24 f7 17 3e 2f 42 87 be 52 d3 d4 bd
       0.13131598 0.1484037 -0.26417682 -0.10391869
0000e0 57 6c 9e 3e a0 8e 81 3e 18 82 33 be 59 78 10 3e
       0.30942032 0.25304127 -0.17530096 0.14108409
0000f0 e0 b1 99 be 18 90 d1 bd a3 cd fb bd fd 40 90 be
       -0.3001852 -0.10232562 -0.122950815 -0.28174582
000100 f9 ca b4 bd 6d 61 ce 3d b6 07 e2 bd 99 30 73 3e
       -0.088277765 0.10077176 -0.11036627 0.23749007
000110 a3 93 3f be f0 d6 9a bc aa 71 1a 3e 74 7d 6b 3d
       -0.18708663 -0.018901318 0.15082422 0.05749269
000120 b5 6a 38 3e d5 3c 85 be 40 2f 9e be aa 9a c5 bd
       0.18009456 -0.26022974 -0.30895424 -0.096486405
000130 59 a5 14 3d 88 fe 36 3e 94 3f bb bd 85 6b 66 3e
       0.0362905 0.17870533 -0.09142986 0.22501953
000140 be 11 83 be b9 69 9e ba a8 b6 38 3d 7e 07 03 be
       -0.25599474 -0.0012085951 0.04509607 -0.12795827
000150 f8 8b 5e 3e c5 78 8d 3e 81 3c 73 bd 3c 24 6c 3e
       0.21733081 0.27631202 -0.059383873 0.23060697
000160 d8 e8 bc 3d a5 57 3c 3d 79 a8 91 3e 37 d5 5b bd
       0.09224099 0.04598202 0.28448847 -0.053670134
000170 b0 93 4f be 45 28 cd bd c1 d9 44 bc 2f 59 18 be
       -0.20271182 -0.100174464 -0.012014807 -0.14877771
000180 74 9d ed bd 83 c8 90 be ff 10 b6 bd f6 0c 8c 3e
       -0.116022974 -0.28277978 -0.088899605 0.27353638
000190 88 a4 a1 3e 07 d0 79 be b6 60 13 3d 76 1e 5f be
       0.3157084 -0.24395762 0.035980903 -0.21788964
0001a0 dc b5 10 be 7e 6f 3e 3a 8d 58 9f bd eb f0 be bd
       -0.14131874 0.00072645384 -0.077805616 -0.09323295
0001b0 4f f9 d6 bd 90 ea 83 be 08 30 8c be 2b 5b 84 3e
       -0.104967706 -0.25764894 -0.27380395 0.25850806
0001c0 2a d0 83 3c e5 da 61 3e c3 25 1e 3e 65 d7 64 be
       0.016090471 0.22056158 0.15444092 -0.22347791
0001d0 48 fb 8a be c9 b2 01 3b 42 07 13 3e 3c 73 8c 3c
       -0.27144837 0.0019790402 0.14358237 0.017144792
0001e0 58 41 39 be 20 d1 d7 3d 6f c4 6b be c5 d9 b4 bb
       -0.18091333 0.10537934 -0.23024152 -0.005519124
0001f0 5f 27 98 3d 88 09 c8 bd ed fe fd 3d 49 c2 df bc
       0.074293844 -0.09767443 0.12402139 -0.027314322
000200 72 f3 43 3e 15 1d 91 3e ef 90 22 3e 63 8b c1 3d
       0.19135836 0.283425 0.158756 0.09450414
000210 8c fe c6 3c c6 67 ec 3c 82 cb 1b 3e a2 69 c9 bc
       0.0242913 0.028858077 0.15214351 -0.024586502
000220 43 b5 a9 bd 7a 73 3b 3d 0c a0 07 3e 00 fe 3d 3e
       -0.08286526 0.045764424 0.13244647 0.18553925
000230 70 66 8f be e1 45 88 bb 99 ad 3b 3e 40 75 a0 be
       -0.2800784 -0.004158721 0.18327941 -0.31339455
000240 a3 5e aa bd f1 69 78 be 70 72 80 be 00 1d 16 be
       -0.08318832 -0.24259163 -0.2508731 -0.146595
000250 1c c6 9a be 4c d5 9b bd 3d b4 0a be a8 cb 82 3e
       -0.3022927 -0.076090425 -0.13545318 0.25546002
000260 21 e7 3d 3e cd 55 85 3e 86 1d 57 be 96 cd 59 be
       0.185452 0.26042023 -0.21007356 -0.21269831
000270 2b 85 a1 3d 83 06 62 3e 63 f4 65 be d4 e2 97 3d
       0.07886728 0.22072797 -0.22456507 0.07416311
000280 ce 2a 61 be 38 5f cb 3d 94 c9 2b 3e d8 d9 ce bd
       -0.21988985 0.09930271 0.16776115 -0.10100144
000290 59 6c 8a 3e 06 c8 62 be 90 87 fa bc af 5f 2f 3e
       0.27035788 -0.22146615 -0.03058222 0.17126344
0002a0 57 19 0e be 91 ec 5c be b5 dd c5 bd 6b e1 9d be
       -0.13876854 -0.21574618 -0.09661428 -0.30836043
0002b0 8d 74 94 3e a8 f7 1a be 5b 76 a6 3d db 92 92 be
       0.2899517 -0.15133536 0.08128043 -0.28627667
0002c0 3a f2 f9 bd 23 3b 62 be 71 64 a6 bd 68 15 66 3e
       -0.12204404 -0.22092871 -0.081246264 0.22469103
0002d0 ae 40 6b be a6 53 65 3e 9e fa 5c bc 6b 0f 7a be
       -0.22973892 0.2239519 -0.013487486 -0.24419944
0002e0 f8 50 f1 3d b4 0f 2c be 19 a2 cc bc 7f b9 0f 3e
       0.11783022 -0.16802865 -0.024979638 0.14035605
0002f0 62 5c 7d 3e 65 be b0 3d 14 d5 8c be c7 f3 35 be
       0.24742272 0.08630065 -0.27506316 -0.17768775
000300 48 60 7a 3d 30 13 fc bc df 5d 8b 3e fc db 66 be
       0.061126977 -0.030770868 0.27220055 -0.22544855
000310 ee 51 35 be 30 71 10 bd 12 90 ae 3c 74 2f 49 bd
       -0.17707035 -0.035264194 0.021308932 -0.04911752
000320 f3 e9 4a bd 52 ce 28 3e b1 43 f5 3d 4a 95 26 bd
       -0.049539518 0.16484955 0.11975802 -0.040669717
000330 5d 5b 8a 3c c6 d5 99 3e 6e a6 18 3d 2b 46 80 3c
       0.016889269 0.3004591 0.037268095 0.015658459
000340 f0 a4 8c 3e a4 ca 49 3e 74 c5 35 3e 72 e5 35 be
       0.27469587 0.19706208 0.17751104 -0.17763308
000350 d4 6a 72 3e e7 54 98 3e e0 c5 91 3e 10 8a 63 be
       0.23673564 0.29752275 0.2847128 -0.22220635
000360 33 46 5c 3d 81 a7 90 3e 70 6b 35 be 0b 22 83 be
       0.053777885 0.28252795 -0.17716765 -0.2561191
000370 36 3d 93 3e 4f f4 51 be 93 b1 82 be 17 82 5f bc
       0.28757638 -0.20503353 -0.25526103 -0.013641856
000380 ae ae 40 3e 4d e4 01 be 2d 4d 66 3e 7a 7c 0e bc
       0.18816635 -0.12684746 0.22490378 -0.00869667
000390 2d 4f 9f 3e 23 5b 14 bc de fd 99 3e 36 e4 9a bd
       0.31115094 -0.009054932 0.30076498 -0.07563059
0003a0 0f 89 c3 bd 1b 85 8a 3e 20 4c 42 3e f9 0b 83 3d
       -0.09547626 0.27054676 0.18974352 0.06398768
0003b0 c2 cf 1e be de a0 7f be 45 93 11 be 83 24 c8 bd
       -0.15508941 -0.2496371 -0.14216335 -0.09772589
0003c0 cf 0b 7b bd 3e d0 5a ba 63 3f 90 3d e7 0d 86 3d
       -0.06129056 -0.00083470705 0.0704334 0.065456204
0003d0 46 11 8d be 37 e9 96 3e e0 e5 83 be f8 6e 42 3e
       -0.2755224 0.29474804 -0.25761318 0.18987644
0003e0 16 af ca 3d 7d b3 6a 3e fa 57 df bd 7c e6 08 be
       0.09896676 0.22920032 -0.10905452 -0.13369173
0003f0 a0 c5 26 be 5a 15 41 be 02 b9 61 3d 71 be 47 3e
       -0.16286325 -0.18855801 0.055108078 0.19506241

b f4 [32]
000000 34 62 8b bb be 9e 22 b9 4f 86 10 ba c9 c8 43 bc
       -0.00425365 -0.0001550866 -0.00055131776 -0.011949726
000010 71 c5 1b 3c 43 06 bd b9 81 67 4c 3c 6a 49 a2 bb
       0.009507523 -0.00036053555 0.012475849 -0.0049525993
000020 49 93 64 3b ff 55 ee 3b e9 38 04 bc 1f a4 2b bc
       0.0034877828 0.007273435 -0.008070209 -0.010476141
000030 86 a7 56 3c a7 25 06 3c be c1 00 3a 67 11 b1 bc
       0.013101464 0.008187688 0.00049116823 -0.021614743
000040 d5 88 22 bc 7d 74 58 bc 11 24 e4 38 7f 17 08 bc
       -0.009920319 -0.013211367 0.00010878605 -0.008306383
000050 f6 a5 5c 3c a8 77 d4 ba fa e6 8d bb 6b dd 85 3c
       0.013467303 -0.0016209977 -0.004330513 0.016340932
000060 fd 81 a5 bc 28 b3 33 bb 2a e4 e7 3b 30 eb 65 bc
       -0.020203585 -0.0027420018 0.00707676 -0.014033124
000070 bf 65 5f 3b 6d 28 92 3b 39 fb 85 39 62 c9 b1 3b
       0.0034087745 0.0044603855 0.00025554912 0.005425618
