saved_models/model-epoch-86.pth (torch, 249162 bytes, 52 tensors)

embeddings f4 [99, 32]
000000 b8 e9 8e 3d 44 28 10 be 7c 91 ff bd 23 72 b3 3d
       0.06978172 -0.1407786 -0.12478921 0.08762004
000010 17 c9 76 bd 6a ff 90 3d af 4f 6d 3d 6e 2e 10 be
       -0.060250368 0.07079966 0.05793732 -0.14080212
000020 ee 82 e4 bd 73 a2 16 bd 28 5f 1b bd 34 d3 1b be
       -0.11157785 -0.036776017 -0.037932545 -0.15217286
000030 37 7f 40 3e 12 0f 7f bd 1d ab 3f be 65 37 0a bc
       0.18798529 -0.06227023 -0.18717618 -0.008436059
000040 26 1a 56 bd 2f 03 b8 bd 6e 12 c0 bc 73 b8 1f 3d
       -0.05227103 -0.08984982 -0.023446288 0.038994264
000050 47 9b 1b 3e b0 fa 1e 3e 02 88 ec 3d 52 06 26 bc
       0.15195952 0.15525317 0.11549379 -0.010133343
000060 81 20 14 be 9b 73 39 3e 78 b1 37 3e 5e 57 c0 bd
       -0.14465524 0.18110506 0.17938793 -0.09391664
000070 89 ef 19 bd 4f c2 1a 3e 4c b8 0d be e2 59 42 3e
       -0.037581954 0.15113185 -0.13839835 0.189796
000080 c9 b1 a3 3d e7 3a e5 bd 48 f2 2a be 19 b3 a5 bd
       0.07992894 -0.11192875 -0.16693985 -0.08090801
000090 29 12 44 bd 0d d4 2b 3e f6 09 01 bd 41 1c 0e be
       -0.04786888 0.1678011 -0.03150364 -0.13877966
0000a0 ab 99 a8 bd 83 07 44 bd 58 7e c4 bc 8d 97 72 3c
       -0.08232435 -0.047858726 -0.023986027 0.01480664
0000b0 05 12 6f 3d 03 80 a8 bc c9 56 50 3e 70 bf ec 3d
       0.058366794 -0.020568853 0.20345606 0.11559951
0000c0 11 ca 39 3e da a5 0f 3e c3 77 21 3e cb 92 48 3e
       0.18143488 0.14028111 0.15768342 0.19587247
0000d0 7d 27 54 be 55 da 5a bd 09 a6 35 3e 76 e3 ca bd
       -0.20718189 -0.053430874 0.17739119 -0.09906666
0000e0 48 da 55 be b9 38 01 3d 2b fb 40 3e c8 6c a4 bd
       -0.20884049 0.031548236 0.18845813 -0.08028561
0000f0 9b cb 58 be 44 37 a3 3d 7c b0 ee bd de 4c 83 bc
       -0.2117142 0.079695255 -0.116547555 -0.016027864
000100 c3 be dd 3d 25 fa 92 bd fc b5 48 3d 8e cc 1f be
       0.108274005 -0.071766175 0.04900168 -0.15605375
000110 f1 56 1e 3e 1b 96 10 3e 56 61 15 3e 06 12 67 bd
       0.15462853 0.1411976 0.14587912 -0.056413673
000120 ff f6 57 be 2e 69 4d be 16 43 63 3d da e6 9a 3d
       -0.21090315 -0.20059654 0.0554839 0.07563563
000130 6a e8 06 3e 9f 82 28 3e 77 3a bb 3d 37 ac 31 3e
       0.13174596 0.16456078 0.09142011 0.17350851
000140 9e 2b 81 bd b5 75 52 3e 1a 48 8f 38 22 41 46 be
       -0.063071474 0.20552714 6.832201e-05 -0.19360784
000150 00 be 22 3e 58 15 00 bd 58 e4 4e be 25 5e ea 3d
       0.15892792 -0.031270355 -0.20204294 0.11443738
000160 ee dd 3e 3e 99 40 0f 3e 15 30 3f 3e 29 26 3e 3e
       0.18639347 0.13989486 0.18670686 0.18569244
000170 70 f6 11 bc 5a 3a 8d bd f5 fb 60 3d a7 19 1b bd
       -0.008908853 -0.06895895 0.054927785 -0.03786626
000180 f8 b4 2b 3c 58 0c 00 3e e7 02 79 bd 82 88 e1 3d
       0.010480158 0.12504709 -0.060793784 0.11012365
000190 c5 cc 5a 3e fd f0 3f be 6b 51 38 be 84 b9 48 bd
       0.21367176 -0.18744273 -0.17999808 -0.049005046
0001a0 5f 7e bc bd c3 bc 36 3e d5 48 38 be 43 30 34 3e
       -0.09203791 0.17845444 -0.17996533 0.17596535
0001b0 de 6a e5 3d 53 1a 52 be 30 19 32 3e 66 88 e9 bd
       0.11202024 -0.20517854 0.17392421 -0.11402969
0001c0 11 37 40 be 1c 8f 6f 3d 8b b7 ba bd d9 af 21 3e
       -0.18771006 0.05848609 -0.09117039 0.15789737
0001d0 2f 98 e1 3d 85 5a 0d be 94 a2 ff bb f4 b2 1e be
       0.11015355 -0.13804062 -0.0078013632 -0.15497953
0001e0 e1 8c 0d bc 61 9e 7d ba 72 96 a7 3d f9 44 89 bd
       -0.008639545 -0.00096747844 0.08182992 -0.067026086
0001f0 12 0e 9f bd 82 0f 30 3e 78 cc 46 be 51 9a 5a be
       -0.077663556 0.17193416 -0.19413936 -0.2134793
000200 8d f7 ed bd ad a0 28 3e a1 24 07 3e 23 c8 46 be
       -0.11619482 0.16467543 0.13197567 -0.19412284
000210 0c 39 81 bd 43 d8 52 3e e1 d1 57 be b4 4f fb bc
       -0.06309709 0.2059031 -0.21076156 -0.030677654
000220 1d bd 49 3e 1c da ea 3c 6d ab 50 3e b4 83 ec 3d
       0.19701047 0.028668456 0.20377894 0.11548558
000230 87 a2 3c be d3 7c 57 3e 78 5c 36 3e 9c 9d 11 be
       -0.18421374 0.2104371 0.17808712 -0.1422028
000240 3e 76 b8 3d bf 14 d4 bd fc 9c 2d be 9b 82 b2 bc
       0.09006928 -0.103555195 -0.16954416 -0.021790793
000250 10 5f 52 3b 26 de 11 be e0 d5 20 be 64 f5 40 bc
       0.0032100119 -0.14244899 -0.15706587 -0.011777256
000260 dc 69 6a 3c 6b 16 36 3e b9 7e 52 3e 88 7b 2d bc
       0.014307465 0.1778199 0.20556153 -0.010588534
000270 db 71 f6 bd dc 92 2d 3e 68 e6 c2 3d 1d d4 37 be
       -0.12033435 0.16950554 0.09516603 -0.17952009
000280 fa f3 d3 bc 29 b0 15 be dd f2 1d 3e 06 97 20 bd
       -0.025873173 -0.14617981 0.15424676 -0.039206527
000290 15 82 b5 bd bc fd c0 3c 32 0e 31 be 0b 25 ad 3d
       -0.08862702 0.02355849 -0.17290571 0.08454331
0002a0 09 6d 25 3e 38 d8 3e be 4d ff 7b bd ce fe be 3d
       0.16154875 -0.18637168 -0.06152277 0.09325944
0002b0 fb 32 90 3d 40 87 a5 3d 21 fc 03 3e 8a 33 2f bc
       0.07040974 0.080824375 0.12889148 -0.01069344
0002c0 89 97 b3 bd a1 20 46 bd 7e 5c 1c bd 5f 70 b3 3c
       -0.087691374 -0.04837096 -0.038174145 0.021904169
0002d0 11 bd b7 3d cf 37 2c be 0e f0 98 3c 53 72 53 be
       0.089716084 -0.16818164 0.018669154 -0.2064908
0002e0 55 bf ea 3d 72 f3 48 3e 6c 84 16 be e5 36 54 3e
       0.11462275 0.19624117 -0.14698952 0.20724066
0002f0 06 60 f9 3d 20 0b c0 bd 0c f5 34 be f3 3b f8 3d
       0.12176518 -0.09377122 -0.17671603 0.121208094
000300 b5 ac 38 3e b1 dc d0 bd d1 08 11 be a9 1a 50 bb
       0.18034633 -0.101983435 -0.1416352 -0.0031754172
000310 df 56 fd bd 3e 9d e3 bd 4a cc 1a 3e a6 3e 1f 3e
       -0.12370085 -0.11113976 0.15116993 0.15551242
000320 59 7d b5 bd f6 0c 38 3e 52 72 81 3d 7d 0f be bd
       -0.08861799 0.17973694 0.06320633 -0.09280298
000330 08 72 d4 bc e9 0f e5 bd 3d ff 32 be fc ff 80 bd
       -0.02593328 -0.11184675 -0.17480178 -0.06298825
000340 2e 2c 39 bd cd 00 40 be 3b 0a 9e bd b4 31 9d bc
       -0.04520815 -0.18750305 -0.07716795 -0.01918874
000350 fd 68 56 3e 94 ef 90 3d a9 c4 c5 3d 2b 9e 3b bd
       0.20938487 0.07076946 0.096566506 -0.045805138
000360 b4 af ba bd 8a cc 80 bc 22 1e 01 3d 53 95 25 3e
       -0.09115544 -0.015722532 0.031522878 0.16170244
000370 1a be 4d be c6 46 16 be 81 8c 31 be 74 20 4d 3e
       -0.20092049 -0.14675435 -0.17338754 0.20031911
000380 23 b2 3e 3e 91 e1 f8 3d 91 91 22 be a0 5a b1 bc
       0.18622641 0.121523984 -0.15875842 -0.021649659
000390 9c 5b 81 3d e9 23 23 3e 0b cb ba bb fc 84 30 3e
       0.06316301 0.15931667 -0.005700474 0.1723823
0003a0 a5 dc 3e 3d 96 40 a8 bd 94 17 bd bd af ea 2b 3e
       0.04659714 -0.08215444 -0.09233013 0.16788743
0003b0 3e be 3e be 59 d5 8f 3c 4a 74 3b 3e e3 df d1 bd
       -0.18627259 0.017557787 0.1830608 -0.10247781
0003c0 33 aa cd 3d 94 90 f5 bd a1 1d 34 3e 57 0d ef bd
       0.100422285 -0.11990467 0.17589428 -0.11672466
0003d0 57 fe 1b be ce fa 04 be 39 fa 18 be fe 9d fa 3d
       -0.15233742 -0.129863 -0.14939202 0.12237166
0003e0 0d e7 a3 bd d9 db 53 3d 59 a5 a3 3d 3e f4 99 3d
       -0.08003054 0.051723335 0.07990522 0.075172886
0003f0 30 3a 10 3e ee 67 39 be 07 23 c5 bc d8 c3 47 3e
       0.14084697 -0.18106052 -0.024064554 0.19508302

_pos_embeds f4 [64, 32]
000000 00 00 00 00 00 00 80 3f 00 00 00 00 00 00 80 3f
       0.0 1.0 0.0 1.0
000010 00 00 00 00 00 00 80 3f 00 00 00 00 00 00 80 3f
       0.0 1.0 0.0 1.0
000020 00 00 00 00 00 00 80 3f 00 00 00 00 00 00 80 3f
       0.0 1.0 0.0 1.0
000030 00 00 00 00 00 00 80 3f 00 00 00 00 00 00 80 3f
       0.0 1.0 0.0 1.0
000040 00 00 00 00 00 00 80 3f 00 00 00 00 00 00 80 3f
       0.0 1.0 0.0 1.0
000050 00 00 00 00 00 00 80 3f 00 00 00 00 00 00 80 3f
       0.0 1.0 0.0 1.0
000060 00 00 00 00 00 00 80 3f 00 00 00 00 00 00 80 3f
       0.0 1.0 0.0 1.0
000070 00 00 00 00 00 00 80 3f 00 00 00 00 00 00 80 3f
       0.0 1.0 0.0 1.0
000080 a4 6a 57 3f 40 51 0a 3f ba 7d 08 3f 0e 94 58 3f
       0.84147096 0.5403023 0.53316844 0.84600914
000090 3e 39 9f 3e 6a 4e 73 3f 3a 23 35 3e 83 f6 7b 3f
       0.3109836 0.95041525 0.17689219 0.9842302
0000a0 76 75 cc 3d 98 b8 7e 3f b0 36 66 3d 68 98 7f 3f
       0.099833414 0.9950042 0.056204498 0.9984193
0000b0 5c 81 01 3d 3c df 7f 3f 42 ab 91 3c a3 f5 7f 3f
       0.031617507 0.99950004 0.017781857 0.99984187
0000c0 57 d6 23 3c b9 fc 7f 3f 5c 44 b8 3b f7 fe 7f 3f
       0.009999833 0.99995 0.0056233834 0.9999842
0000d0 20 3e 4f 3b ac ff 7f 3f 20 15 e9 3a e5 ff 7f 3f
       0.0031622723 0.999995 0.0017782785 0.9999984
0000e0 6d 12 83 3a f8 ff 7f 3f 16 6a 13 3a fd ff 7f 3f
       0.0009999998 0.9999995 0.0005623413 0.9999998
0000f0 5f cb a5 39 ff ff 7f 3f 53 77 3a 39 00 00 80 3f
       0.00031622776 0.99999994 0.00017782794 1.0
000100 b7 c7 68 3f 33 11 d5 be 0a f2 66 3f b2 e8 dc 3e
       0.9092974 -0.41614684 0.9021307 0.43146282
000110 1b 54 17 3f ec 7b 4e 3f f6 47 b2 3e a5 fa 6f 3f
       0.5911271 0.8065784 0.34820527 0.9374183
000120 f9 6f 4b 3e a5 e5 7a 3f 88 d9 e5 3d f3 61 7e 3f
       0.19866933 0.9800666 0.112231314 0.9936821
000130 c8 70 81 3d f9 7c 7f 3f 5c a5 11 3d 8e d6 7f 3f
       0.063203394 0.9980007 0.03555809 0.9993676
000140 3e d4 a3 3c e5 f2 7f 3f 9d 43 38 3c db fb 7f 3f
       0.019998666 0.9998 0.011246589 0.99993676
000150 dd 3d cf 3b b0 fe 7f 3f 08 15 69 3b 96 ff 7f 3f
       0.0063245133 0.99998 0.0035565514 0.9999937
000160 69 12 03 3b de ff 7f 3f 14 6a 93 3a f5 ff 7f 3f
       0.0019999987 0.999998 0.0011246824 0.99999934
000170 5f cb 25 3a fd ff 7f 3f 53 77 ba 39 ff ff 7f 3f
       0.0006324555 0.9999998 0.00035565588 0.99999994
000180 c3 81 10 3e 26 70 7d bf d7 45 7e 3f a8 7f ed bd
       0.14112 -0.9899925 0.9932532 -0.11596614
000190 c2 09 50 3f 57 2f 15 3f 6d 2f 02 3f 29 6d 5c 3f
       0.8126489 0.5827536 0.50853616 0.86104065
0001a0 6d 4e 97 3e ef 90 74 3f d8 ee 2b 3e 9e 5d 7c 3f
       0.29552022 0.9553365 0.1679033 0.9858035
0001b0 c1 ff c1 3d 4f d9 7e 3f 4d 69 5a 3d c3 a2 7f 3f
       0.09472609 0.99550337 0.05332308 0.9985773
0001c0 20 b9 f5 3c 83 e2 7f 3f c7 31 8a 3c ad f6 7f 3f
       0.029995501 0.99955004 0.016869439 0.9998577
0001d0 11 6e 1b 3c 0d fd 7f 3f a8 cf ae 3b 11 ff 7f 3f
       0.009486691 0.999955 0.005334813 0.99998575
0001e0 93 9b 44 3b b5 ff 7f 3f 1b 1f dd 3a e8 ff 7f 3f
       0.0029999956 0.9999955 0.0016870232 0.99999857
0001f0 0d b1 78 3a f8 ff 7f 3f 7e d9 0b 3a fe ff 7f 3f
       0.0009486832 0.9999995 0.0005334838 0.9999999
000200 cf bd 41 bf 30 55 27 bf ed 49 47 3f 9d af 20 bf
       -0.7568025 -0.6536436 0.77847177 -0.62767965
000210 de 1d 74 3f b1 2e 9a 3e bc 1f 27 3f ed eb 41 3f
       0.95358074 0.30113748 0.652828 0.7575062
000220 d7 61 c7 3e a7 ca 6b 3f c6 65 64 3e 09 8d 79 3f
       0.38941833 0.921061 0.22304448 0.9748083
000230 88 2e 01 3e 69 f4 7d 3f c8 8d 91 3d 47 5a 7f 3f
       0.12615407 0.99201065 0.07107121 0.9974713
000240 db cb 23 3d 94 cb 7f 3f a2 40 b8 3c 6c ef 7f 3f
       0.039989334 0.9992001 0.022491757 0.99974704
000250 cd 3c 4f 3c c2 fa 7f 3f a7 14 e9 3b 58 fe 7f 3f
       0.012648773 0.99992 0.0071130577 0.9999747
000260 58 12 83 3b 7a ff 7f 3f 0e 6a 13 3b d6 ff 7f 3f
       0.0039999895 0.999992 0.0022493633 0.9999975
000270 5c cb a5 3a f3 ff 7f 3f 52 77 3a 3a fc ff 7f 3f
       0.0012649107 0.9999992 0.0007113117 0.99999976
000280 10 7c 75 bf 2c 3c 91 3e d6 da a5 3e 40 32 72 bf
       -0.9589243 0.2836622 0.3239352 -0.94607925
000290 7f fc 7f 3f d4 72 29 bc ab ca 46 3f f1 4c 21 3f
       0.99994653 -0.010342319 0.77652997 0.6300803
0002a0 44 77 f5 3e 40 a9 60 3f ee 11 8e 3e 7c f2 75 3f
       0.47942555 0.87758255 0.27748054 0.96073127
0002b0 1e 3c 21 3e 81 ce 7c 3f 21 db b5 3d 1e fd 7e 3f
       0.15745589 0.987526 0.08879686 0.99604976
0002c0 f5 b6 4c 3d 19 ae 7f 3f fe 4d e6 3c 19 e6 7f 3f
       0.04997917 0.99875027 0.028113361 0.99960476
0002d0 81 85 81 3c cf f7 7f 3f bb ac 11 3c 69 fd 7f 3f
       0.01581073 0.999875 0.00889128 0.9999605
0002e0 de d6 a3 3b 2e ff 7f 3f 8c 44 38 3b be ff 7f 3f
       0.0049999794 0.9999875 0.002811703 0.99999607
0002f0 31 3e cf 3a eb ff 7f 3f 26 15 69 3a f9 ff 7f 3f
       0.0015811381 0.99999875 0.0008891396 0.9999996
000300 8c 0f 8f be b8 cd 75 3f 74 e5 6b be 53 1d 79 bf
       -0.2794155 0.96017027 -0.23036748 -0.9731037
000310 4d 78 72 3f 6f 3f a4 be 89 30 60 3f 34 2f f7 3e
       0.94714814 -0.32079646 0.8757406 0.482782
000320 69 8c 10 3f 32 49 53 3f fd 7d a9 3e e2 90 71 3f
       0.5646425 0.8253356 0.33103934 0.943617
000330 6f 20 41 3e e3 67 7b 3f c1 19 da 3d 51 8b 7e 3f
       0.18860029 0.98205394 0.106494434 0.9943133
000340 d1 9c 75 3d 12 8a 7f 3f bf 2c 0a 3d b3 da 7f 3f
       0.059964005 0.99820054 0.03373408 0.99943084
000350 46 6c 9b 3c 34 f4 7f 3f 04 cf 2e 3c 45 fc 7f 3f
       0.018972527 0.99982 0.010669474 0.9999431
000360 59 9b c4 3b d2 fe 7f 3f 06 1f 5d 3b a1 ff 7f 3f
       0.005999964 0.999982 0.0033740415 0.99999434
000370 05 b1 f8 3a e2 ff 7f 3f 7d d9 8b 3a f6 ff 7f 3f
       0.0018973654 0.9999982 0.0010669675 0.9999994
000380 46 30 28 3f bd ff 40 3f 6e b6 36 bf 60 4f 33 bf
       0.6569866 0.75390226 -0.71372116 -0.7004299
000390 6f e8 4c 3f bb 74 19 bf 44 84 72 3f b9 f8 a3 3e
       0.80042166 -0.5994374 0.9473307 0.32025698
0003a0 73 eb 24 3f b3 cc 43 3f df 60 c4 3e c5 6b 6c 3f
       0.64421767 0.7648422 0.38355157 0.92351943
0003b0 50 d3 60 3e ea c0 79 3f ba 46 fe 3d e9 04 7e 3f
       0.2195561 0.9755999 0.12415834 0.9922624
0003c0 32 3e 8f 3d 81 5f 7f 3f 60 31 21 3d 3b cd 7f 3f
       0.06994285 0.997551 0.03935373 0.9992253
0003d0 a6 52 b5 3c f2 ef 7f 3f 2a f1 4b 3c ec fa 7f 3f
       0.022134136 0.999755 0.012447635 0.9999225
0003e0 c7 5f e5 3b 65 fe 7f 3f be fc 80 3b 7e ff 7f 3f
       0.006999943 0.9999755 0.003936379 0.99999225
0003f0 ec 11 11 3b d7 ff 7f 3f 66 28 a3 3a f3 ff 7f 3f
       0.0022135926 0.99999756 0.0012447953 0.9999992

W f4 [32, 32]
000000 ae 6b 06 3e 21 5f a0 3d b8 7d 63 bc ad e5 a9 3d
       0.13127014 0.078306444 -0.013884954 0.0829576
000010 fc b8 82 be af 7d 20 be c3 2d ba bd 9d b6 2b 3e
       -0.25531757 -0.15672944 -0.090907596 0.1676888
000020 c7 e0 2e be 5d 70 cf bd 79 ea 9a 3b 7d ef 3f be
       -0.17077933 -0.101288535 0.0047276584 -0.18743701
000030 73 2b 54 3e e5 32 23 3d 40 84 be 3d 6d 18 8d bd
       0.207197 0.03984346 0.093025684 -0.068894245
000040 d0 89 64 bd 89 24 b4 3d ad 2e 83 3e 81 5d 36 3e
       -0.05579549 0.08796031 0.25621548 0.17809106
000050 31 4d 65 be f0 a1 81 3d 3a 38 b4 3d 03 16 67 3e
       -0.22392727 0.06329715 0.08799787 0.2256699
000060 80 e6 df 3d d6 e3 63 be 8e 83 9b 3d 87 48 46 3e
       0.10932636 -0.22254881 0.075934514 0.19363604
000070 82 07 3a 3e bf 1a 0c be d3 18 53 be f1 39 10 3e
       0.18166927 -0.13682078 -0.20614938 0.14084603
000080 27 05 85 bb d4 a3 79 be fe 0d 23 bd 5d eb 2e 3e
       -0.004059452 -0.24378902 -0.039808266 0.17081971
000090 58 d5 f1 bd 39 9a 93 3d 2c 97 0b bd b0 b7 8d 3e
       -0.1180827 0.0720715 -0.034079716 0.27679205
0000a0 5b 3f 06 3e 25 b3 2b 3d 83 17 ac bd 2a e1 49 be
       0.13110106 0.041918892 -0.08402922 -0.197148
0000b0 14 4a 88 3e c7 18 72 be 9f 2b 83 3e e3 08 3d 3d
       0.26619017 -0.23642264 0.25619218 0.046151053
0000c0 ff 3e 0d be f9 b0 91 3e e2 ec 83 be 2f 07 fa 3d
       -0.13793562 0.28455332 -0.25766665 0.122084014
0000d0 b3 59 4a 3e 5c fb 9e 3e 61 fc 21 be 69 27 6f 3e
       0.1976078 0.31051147 -0.15818931 0.23354878
0000e0 b3 fa 34 3e 07 21 f2 3d 3a ca 1f 3e ef bd 4f bc
       0.17673759 0.11822706 0.15604487 -0.012679561
0000f0 c9 fb 83 3e 67 7c 85 3e fe df 16 be 6f 02 93 3e
       0.25778034 0.26071474 -0.14733884 0.28712794
000100 f5 0d 12 3d 84 3d f3 3d 3c a0 06 be 53 3b d7 3d
       0.03565784 0.118769675 -0.13147062 0.10509362
000110 4b 49 49 3e c1 0e 50 3e ea b6 87 3e 07 1c 3c be
       0.19656865 0.20318128 0.2650674 -0.18370067
000120 64 36 5a 3e 44 3d c6 bd a5 05 75 be e2 75 89 be
       0.21309811 -0.09679654 -0.23927934 -0.2684775
000130 38 b0 8b be 46 d3 1c be 44 16 58 be 3f 59 0c 3e
       -0.27282882 -0.1531497 -0.21102244 0.1370592
000140 a5 99 32 be 15 15 cb 3d 8c 49 30 3e 8c 78 75 be
       -0.17441423 0.099161305 0.17215556 -0.23971766
000150 34 68 03 3e 6d a8 49 be b6 3c c2 bd 5c 29 14 be
       0.12832719 -0.19693156 -0.09484236 -0.14468902
000160 59 8a c0 bd c4 e5 74 be 66 73 13 be 3e b2 02 bc
       -0.09401388 -0.23915774 -0.1439949 -0.007977067
000170 b4 90 a6 bc 06 fb 79 bd ad aa 98 be 5d 78 04 3e
       -0.020332672 -0.06103041 -0.29817715 0.1293654
000180 8c 54 04 3e d4 7a 32 3e 6f d2 6e be 04 32 3f be
       0.12922877 0.17429668 -0.23322462 -0.18671423
000190 fa 2d 33 bd 20 12 d4 3d 15 50 d5 3d 43 2e 6c 3d
       -0.04374502 0.103550196 0.10415665 0.057661306
0001a0 28 32 4b bd 44 38 06 3e 2b c8 8a bd f2 5c df bc
       -0.04960838 0.13107401 -0.0677646 -0.027266
0001b0 e5 01 85 3e 80 0a 92 3e a7 23 75 be e9 73 d8 bc
       0.25978008 0.28523636 -0.23939382 -0.026422458
0001c0 e7 93 67 3e 39 90 4f be 92 7b 46 3e 13 c9 46 bd
       0.22615014 -0.2026986 0.19383076 -0.048531603
0001d0 67 ac 40 be 04 79 8b 3e 5f 22 9b 3e 57 e5 ff 3d
       -0.18815766 0.27240765 0.3029966 0.12494915
0001e0 ff 47 2e 3e 95 af 18 be cd 72 38 3e 72 f2 00 3e
       0.17019652 -0.14910729 0.18012543 0.12592486
0001f0 d5 ad 3f bd c5 11 c9 bb 21 87 c7 3d 34 56 9b be
       -0.04679664 -0.0061361515 0.09742571 -0.30339205
000200 ca e1 21 be 67 97 2d be 3c 88 79 be fd 42 22 3d
       -0.15808788 -0.16952287 -0.24368376 0.039614666
000210 25 50 43 3d 86 69 4b be e8 3d 26 bd c3 7d 85 3d
       0.047683854 -0.19864473 -0.040586382 0.06518128
000220 b3 96 3c 3e 12 ac 6c 3e e8 98 9d be 8c 54 1b be
       0.18416862 0.23112515 -0.3078072 -0.15168971
000230 87 fd 69 be db 5c f6 bd 2b 66 23 3e 77 f6 7c be
       -0.2285062 -0.120294295 0.15956943 -0.24703394
000240 47 b5 5e 3c a6 d3 95 3d 3a 91 28 3e 32 c9 98 be
       0.013593025 0.07315759 0.1646165 -0.29841
000250 f7 2a 77 be a3 fb 7f 3e ae 55 fa 3d da ff 4c 3e
       -0.24137484 0.24998336 0.12223373 0.20019475
000260 bf 74 29 be 54 87 e9 3d 1e d1 7d be db dd 70 be
       -0.16548441 0.11402765 -0.24786803 -0.23522131
000270 94 9e 0d 3e 8d cd 09 3e 14 54 75 be 68 9a 9a be
       0.13830024 0.13457318 -0.23957855 -0.30195928
000280 17 42 88 3d 68 59 c6 3d 2c d4 3b bd 4b 9d c5 bd
       0.06653231 0.09685022 -0.04585664 -0.09649142
000290 12 e0 36 3d bc 13 80 be df 92 5b be 09 5a 0d be
       0.044647284 -0.25015056 -0.21442746 -0.13803877
0002a0 43 f7 3c be 34 8b 8f be 8d fd 8e 3e e1 5f 72 3e
       -0.18453698 -0.2803589 0.2792782 0.23669387
0002b0 5d 6b 03 be 84 5a 31 3e c8 e0 aa bd 67 1e 0d 3e
       -0.12833925 0.17319685 -0.08343655 0.13781129
0002c0 f5 66 83 3e de eb 03 3e 9c d1 87 be 90 3c 66 be
       0.25664487 0.12882945 -0.26527107 -0.2248404
0002d0 00 38 ef 3d 27 9b 31 3e 97 f6 30 3e c5 c4 67 3e
       0.11680603 0.17344342 0.17281567 0.22633655
0002e0 a6 87 83 be 46 1e 16 3d 60 c8 09 3e e5 0e 5a 3c
       -0.2568943 0.036649965 0.13455343 0.013309215
0002f0 25 fb 22 3e 37 e5 20 be e7 88 6b bd 60 36 0a 3e
       0.15916117 -0.15712439 -0.057503607 0.13497305
000300 8e da 0b bd 86 f3 24 3c 25 40 32 be 31 a6 28 3d
       -0.034143977 0.010067826 -0.17407282 0.041174117
000310 fa 2c 50 be 05 76 53 be 2d a1 4d 3c 05 6d 7d be
       -0.20329657 -0.2065049 0.012550634 -0.24748619
000320 af 53 90 3e 7e d4 38 be e5 3a 97 be 76 c1 66 3e
       0.28188846 -0.1804981 -0.2953712 0.22534737
000330 c9 cd 32 3e 70 46 37 3d 52 dd 31 be 2e 29 71 3e
       0.17461313 0.04474491 -0.17369583 0.23550865
000340 d2 6f 86 be 9c 3a 09 3e 1e a2 45 be 24 ed 83 be
       -0.26257187 0.13401264 -0.19300124 -0.2576686
000350 1a eb 9d be bd ae 17 bd a6 6d 21 3e fb 5b 02 be
       -0.3084343 -0.037031878 0.15764484 -0.127304
000360 51 8e 95 3d 0e 30 9d 3d fe 53 7b be 8f 92 89 be
       0.07302535 0.07675181 -0.24543759 -0.26869628
000370 01 a0 33 bd 3c 0c 15 be f0 55 5d 3d 53 72 7b 3d
       -0.043853763 -0.14555448 0.054037035 0.061388325
000380 f0 25 be b9 51 98 8d be fb 24 61 3e 02 b7 88 be
       -0.0003626789 -0.2765527 0.21986763 -0.26702124
000390 cb 21 a6 3d 15 43 bc bd 0d 1b 09 be 88 a0 22 be
       0.08111914 -0.091924824 -0.13389225 -0.1588155
0003a0 7e 1f bc 3d ab 43 7a 3e 11 b9 f2 3a 68 ba 04 3e
       0.09185694 0.24439876 0.0018518289 0.12961733
0003b0 ac ac 86 3e c2 16 68 be 5b ae 20 bd 97 32 24 3e
       0.26303613 -0.22664931 -0.03922878 0.16034923
0003c0 59 82 37 3e 79 13 c5 bd 5f c2 0d be b9 8e 93 3e
       0.17920817 -0.09622855 -0.13843678 0.28819826
0003d0 5e 70 14 be 5b 3f 49 be 02 4b 89 3e b6 d3 5e 3c
       -0.1449599 -0.19653074 0.2681504 0.0136002805
0003e0 bd da 6e be 3c 08 85 3e b6 0c 5c be 21 52 00 be
       -0.2332563 0.25982845 -0.21489224 -0.1253133
0003f0 12 26 9a 3d 20 9f 32 bd 1b 2d 4e be 45 a9 ce 3d
       0.075267926 -0.043608785 -0.20134394 0.10090879

b f4 [32]
000000 b4 a7 c5 3b e6 b8 38 3c 46 88 56 bc 6d 2e b8 3b
       0.0060319547 0.011274552 -0.013094014 0.0056207688
000010 5b cc c9 39 87 4d e8 bb d8 2e d5 bb 79 7f ba 3c
       0.00038489964 -0.00708932 -0.0065058284 0.022765862
000020 dd 3f 03 3c 7b 93 5c 3c ec a0 1c 3b 5b 88 18 3b
       0.008010832 0.013462896 0.0023899628 0.0023274634
000030 8e 06 86 bb 1b 44 55 3c a2 bf b9 bb d9 ac 95 3c
       -0.004090137 0.013016726 -0.0056685964 0.018270897
000040 af b7 c9 3c ab bc 94 bb d0 01 90 bb 99 00 83 bb
       0.02462372 -0.0045390925 -0.0043947473 -0.003997874
000050 36 e7 5f bc 66 80 3b bb 1f 63 97 bc 2d 5d 48 3c
       -0.013665965 -0.0028610467 -0.018479882 0.012229246
000060 97 ef 72 3c 1e 26 0e 3c 24 23 80 bb 15 fe 0a bc
       0.0148276305 0.00867608 -0.003910439 -0.008483429
000070 2b ce 62 bc 43 7f 78 3c 04 03 d6 bb 1c ac aa 3c
       -0.0138431 0.01516706 -0.006531121 0.020834021

W f4 [32, 32]
000000 bf 27 71 be e9 66 93 bd 27 ad 5f be 98 bc 1b 3e
       -0.23550318 -0.07197363 -0.21843396 0.15208662
000010 7b 28 03 be 6a f4 a3 3c 14 af 13 bd 05 ef 88 3c
       -0.12808411 0.020014007 -0.03605564 0.016715536
000020 e3 1c 27 be d6 cf 2f be fe 18 81 bd d2 4d 95 3e
       -0.16319613 -0.17169127 -0.06303595 0.29160935
000030 0a 79 af 3d 63 c8 66 3d 8f 00 cf 3c 3f c5 4b bd
       0.08568008 0.056343447 0.025268821 -0.049748655
000040 7b 97 d2 3d ee 7f 63 3e a7 46 a5 bd 6b 24 92 be
       0.10282799 0.2221677 -0.080701165 -0.2854341
000050 75 52 8f be 8d 02 10 3e 19 dd d8 bc ad 2c f5 bd
       -0.27992597 0.14063473 -0.026472615 -0.11971412
000060 ca 2e ff bd 1e d9 dc bd 5c 7f 1a be 64 11 73 3e
       -0.12460096 -0.10783599 -0.15087646 0.23737103
000070 33 53 6c be 74 cb 5c 3d f8 83 5a 3e f8 6a 56 be
       -0.23078613 0.053904966 0.21339405 -0.20939243
000080 a9 a6 48 3e 35 31 64 3e d6 51 4a 3e cf 18 82 be
       0.19594826 0.22284396 0.1975778 -0.25409552
000090 00 7b 40 3e 14 4d 4d bd 68 e7 87 3b f8 66 db 3d
       0.18796921 -0.050122336 0.004147459 0.10712999
0000a0 46 5b 96 3e 01 ce a7 bd 5e 87 0d 3e 6e 55 9f 3e
       0.2936651 -0.08193589 0.1382117 0.31119865
0000b0 f2 bf 5f 3e 7b e2 d9 3d 45 6d 8b 3e 2d a4 9b 3e
       0.21850565 0.10638901 0.27231804 0.30398694
0000c0 ae 66 21 3e 98 47 a3 3d 3a 90 20 3e 05 70 5d be
       0.15761825 0.0797264 0.15680018 -0.21624763
0000d0 c8 5c 81 be ce a1 7b 3d 5a 8e f7 3d a0 4b 64 3e
       -0.252661 0.061433606 0.12087698 0.22294474
0000e0 1a 4a 34 be 7f 2e 94 3d ec 28 82 bc fd aa 6b be
       -0.17606393 0.07235431 -0.015888654 -0.23014446
0000f0 9d 41 d6 3d 46 65 85 bd 47 17 fd bd e5 bc 1d be
       0.104617335 -0.06513457 -0.123579554 -0.15404089
000100 3a ad 43 3e ff 97 ee bd 6a fc 78 3e ca 7f d3 3d
       0.1910905 -0.11650085 0.24315038 0.10327108
000110 49 3f 15 3d 5d b7 14 3e 7f 16 0c 3e 51 3d 1b be
       0.036437307 0.14523073 0.13680457 -0.15160109
000120 32 36 84 be f2 00 8e bd 04 91 6a 3e 9d a6 69 3e
       -0.25822598 -0.06933774 0.22906882 0.22817464
000130 8d 45 b4 3d 65 0b 99 3e ca ba 80 be 19 a3 84 3e
       0.08802328 0.29891506 -0.2514251 0.25905684
000140 ef 2e 48 3e 89 47 80 3e 7c 00 33 3c 69 47 2b 3e
       0.19549154 0.25054577 0.010925408 0.1672646
000150 17 9b c2 3d f9 77 79 be c1 b5 86 be 06 c4 8a 3e
       0.09502237 -0.24362172 -0.26310542 0.2710268
000160 c4 ea 81 3e 4e fb 0d be 71 04 41 3e df ec 46 be
       0.25374424 -0.13865396 0.1884935 -0.19426297
000170 61 27 8e be 2b b9 41 bd 14 9e 9d be a9 ad 69 3d
       -0.2776442 -0.04729573 -0.30784667 0.05705038
000180 66 5b ba bd 84 fb b7 bc 04 b6 75 bd d0 4f 43 3e
       -0.09099464 -0.0224588 -0.059988037 0.19073415
000190 5b 6e 58 3d 5b 54 6a 3e 48 46 31 bd 45 21 4c be
       0.05283962 0.22883742 -0.043279916 -0.19934566
0001a0 34 9d 8f be 6e 75 cd 3d 2b e0 e4 bd bf bf 90 3e
       -0.28049624 0.100321636 -0.11175569 0.2827129
0001b0 82 a9 05 3e fa 66 5c be 90 b7 fb 3d 61 e7 72 3c
       0.13052943 -0.21523657 0.12290871 0.014825673
0001c0 7c 46 6d be 97 8b a4 bc 58 0d 89 be d9 51 b0 3d
       -0.23171419 -0.020086093 -0.26767993 0.08609361
0001d0 ef 8b 81 3e 07 5a 41 be a6 9f 3f be 28 9a 9b 3c
       0.25302073 -0.18881999 -0.18713245 0.018994406
0001e0 c3 89 6c be 4c a3 2e 3e ba 04 e0 bb da 4a 52 be
       -0.23099427 0.1705448 -0.006836501 -0.20536366
0001f0 a9 31 70 3e 79 81 5d be ba 6e 34 be 22 b0 87 be
       0.23456444 -0.21631421 -0.17620364 -0.26501566
000200 df b6 4f 3e d9 b4 f3 3c 39 e5 e9 bd 21 97 6d 3e
       0.20284604 0.02974932 -0.11420674 0.23202182
000210 bd cc 82 be 15 95 57 be 40 26 3d 3c 81 df 05 3e
       -0.25546828 -0.21052964 0.011544764 0.13073541
000220 3d 7f 1e 3e c8 6b 36 be 49 3a 1f 3e 51 ad 58 3d
       0.15478225 -0.17814553 0.15549578 0.052899662
000230 4b 55 90 3e 25 7f 72 3e d7 79 2c bc fd 00 73 3d
       0.28190073 0.23681314 -0.010527096 0.059327114
000240 dc c7 89 3c 0a 0a 9a 3d b7 ec 78 3e 80 85 75 be
       0.016818933 0.07521446 0.2430905 -0.23976707
000250 d9 fc 93 3e 38 21 06 3e 0c 20 1a bd 25 a3 6c be
       0.28903845 0.1309861 -0.03762822 -0.2310911
000260 33 a3 33 be a7 59 95 3d d7 0a 73 3e 3e 4b 85 be
       -0.17542724 0.072924905 0.23734604 -0.26033968
000270 e3 f6 72 be 49 62 f9 3d df 95 80 be 8d 6d 67 3e
       -0.23726992 0.121769495 -0.25114343 0.22600384
000280 c5 04 5a be 5d 20 e6 3d 1c 49 90 3e ba 4f a2 bd
       -0.21290882 0.112366416 0.28180778 -0.07925363
000290 1c c2 a6 bb f3 c3 d2 bd a9 ff 66 3e dc f9 51 3e
       -0.0050890576 -0.102912806 0.22558464 0.2050547
0002a0 25 1f a7 3d 68 a0 c1 bd 61 ad 38 3e 9a 07 9f 3a
       0.08160237 -0.09454423 0.18034889 0.0012133003
0002b0 6b 84 af 3d 5f bf 84 be 0d 57 4e be 4a 63 8c 3e
       0.085701786 -0.25927255 -0.20150395 0.27419502
0002c0 0f d6 b4 3d 74 1f 52 3e 5d c3 59 bc f9 a2 06 be
       0.08829891 0.20519811 -0.013291207 -0.13148107
0002d0 65 33 34 3e 64 8d 84 3e 21 b3 13 3e f8 72 e0 3d
       0.1759773 0.25889122 0.14423801 0.109594285
0002e0 96 69 8a 3e bb f7 60 be 7d b6 0c bc e4 43 66 be
       0.2703368 -0.21969502 -0.0085884305 -0.22486836
0002f0 77 5f 85 3d ca f7 36 3e af ff 7d bd e5 89 b9 3d
       0.06512349 0.17867962 -0.062011417 0.090595044
000300 dc 85 63 3e 20 d1 8f 3e 0e 16 c8 bc 8b 6c 1b 3e
       0.22219032 0.28089237 -0.024424579 0.15178125
000310 11 74 50 3e de 61 2b 3e 1f 06 6d be 6f 96 a2 3b
       0.20356776 0.16736552 -0.23146866 0.0049617807
000320 34 cc 94 bc b2 79 94 3e 53 fd 97 3e 81 d2 6e 3e
       -0.018163778 0.28999096 0.2968546 0.23322488
000330 d4 7e a5 bd 62 0c 49 3e 5c e7 c5 bd 55 f0 79 3e
       -0.08080831 0.1963363 -0.09663269 0.24408086
000340 56 93 5e 3e c5 58 32 3e 3d c6 85 be 11 1c 22 be
       0.21735892 0.17416675 -0.26127806 -0.15831019
000350 ed cf 2a 3a 46 fc 33 3e d7 5c 91 3d 26 e4 ee bc
       0.00065159687 0.17576703 0.07097786 -0.029161524
000360 b5 9a 86 bd 1e f1 88 be d9 80 15 3e 6f f5 88 3e
       -0.06572477 -0.26746458 0.14599933 0.2674975
000370 65 81 5c 3e ee af 81 be 96 d9 2a be 8a d4 2c be
       0.21533735 -0.25329536 -0.16684565 -0.16877952
000380 2a 38 8c 3e 39 df 50 be 9b 87 22 be eb 5f 20 3e
       0.273866 -0.20397653 -0.15872042 0.1566159
000390 cf 9b 6a 3e de 20 2a 3d 12 e3 f9 bd 2e 36 90 3d
       0.22910999 0.04153525 -0.12201513 0.07041584
0003a0 bc 52 10 3c 96 7b d0 bc e5 cb 31 3e dd cc 87 be
       0.008808788 -0.025449555 0.17362936 -0.26523486
0003b0 68 22 98 bd f0 82 35 be 88 c6 7f bd ff 53 99 be
       -0.074284375 -0.1772573 -0.062445194 -0.29946896
0003c0 0f 0d 92 3d 50 f2 9b 3e 79 7f 6b 3e 26 86 b0 bd
       0.07131397 0.30458307 0.22997846 -0.08619337
0003d0 95 bc 19 3e 99 dc 5d be dd 89 6d 3d ba ec c2 bd
       0.15013345 -0.21666183 0.057992805 -0.09517808
0003e0 94 d2 bc bb 1a 30 99 be 95 7a 14 3e db 4e 82 3e
       -0.0057624076 -0.2991951 0.14499886 0.25450787
0003f0 2a 98 7d 3d e7 6f 01 3e cd c3 94 be af 22 98 3e
       0.061912693 0.12640344 -0.29055634 0.2971396

b f4 [32]
000000 0c 7c e9 ba fe c1 85 bb 23 c6 56 38 45 df a7 3b
       -0.0017813458 -0.0040819636 5.1206105e-05 0.0051230513
000010 79 0e 88 bc 0d 2f 19 3c e7 17 20 3c b7 74 23 3c
       -0.016608464 0.009349597 0.009771324 0.009976557
000020 bb 78 24 3a a2 5e 7f 3b e4 a0 65 bc e5 86 35 3a
       0.0006274094 0.0038966318 -0.01401541 0.0006924703
000030 26 55 2b bc 79 57 15 bc 2d a1 5c bb 65 d9 41 3b
       -0.010457313 -0.009115093 -0.0033665404 0.002957904
000040 4c f0 75 bb 9f 9a 85 3b f1 52 9f 3a 30 7e 2d bb
       -0.0037527261 0.00407727 0.0012155456 -0.0026472919
000050 31 1c 20 3b cf 81 10 bb d4 6e bd 3b 4c b5 54 3b
       0.0024430866 -0.0022050028 0.005781034 0.0032456694
000060 f6 df 33 bc 6e d1 1a bb 75 4f 0c 3b 28 41 1c bb
       -0.010978689 -0.0023623365 0.0021409665 -0.0023842547
000070 7a 39 99 ba 2b 73 02 3c e7 8b 16 3c 9d 40 90 bb
       -0.0011690103 0.0079620285 0.009188629 -0.0044022338

W f4 [32, 32]
000000 83 f9 bd 3d 78 06 38 3d 24 ec 04 3e 39 6f 71 3d
       0.09276106 0.044928044 0.12980705 0.05894396
000010 e6 51 87 bd d5 13 ad 3d 18 33 a5 3c 37 c6 77 be
       -0.06607418 0.08451048 0.020165965 -0.24196707
000020 ce ef 33 3e 4a ed a2 3e 89 8d 29 3e 01 ea 2b 3c
       0.17571947 0.31821662 0.16557898 0.010492803
000030 27 b9 0b be 4b d1 57 be ef 8a 9f 3d 26 64 82 be
       -0.13644849 -0.21075933 0.07790171 -0.25467032
000040 15 e3 cf bd fa 06 80 be 1f 66 95 bd 34 bd 51 3e
       -0.10150734 -0.25005323 -0.07294869 0.20482332
000050 2c 44 2c be a7 46 ba bd a7 59 65 3e e2 74 1c 3e
       -0.1682288 -0.09095507 0.22397481 0.15278962
000060 84 7b 58 3e 40 20 f8 3c 0a d2 3c 3e 5a 5e a1 bd
       0.21140867 0.030288815 0.18439499 -0.07879324
000070 39 4b 5e be ff 65 98 be 52 4b 1a 3e bb 28 87 bc
       -0.21708383 -0.29765317 0.15067795 -0.016498914
000080 1a 8b 05 3e 14 c2 15 3c 21 b0 c9 bd ff 02 17 3e
       0.13041344 0.00914051 -0.09848047 0.14747237
000090 d8 96 94 3e c6 2e 44 3e bd 17 5e 3d 00 1b 5f 3e
       0.29021335 0.19158468 0.054221857 0.21787643
0000a0 4b 52 87 be 1e 76 da bd fd 5e 1d bd 56 df 7d be
       -0.26429972 -0.1066706 -0.038420666 -0.24792227
0000b0 18 a5 06 3e 35 44 25 be cd 2f aa bb 20 c4 53 3e
       0.13148916 -0.161393 -0.0051936866 0.20680285
0000c0 9e 96 8e 3e 12 26 ea 3d 2d c1 3f 3d da 9a ca 3d
       0.27849287 0.114330426 0.046815086 0.09892817
0000d0 92 3a 44 be fd ee 84 3e 0c da 4e be 34 31 9a bc
       -0.19162968 0.25963584 -0.20200366 -0.01882229
0000e0 cd 69 90 bd 41 d2 9a 3e 0b d1 31 3e af 75 a7 3c
       -0.0705143 0.30238536 0.173649 0.020441858
0000f0 fb 1f 54 bd 29 8a 78 3d 22 f0 82 bd ee d8 5c 3e
       -0.05178831 0.060678635 -0.06393458 0.21567127
000100 94 c5 93 3e e2 fa 67 3d 4c 04 4a 3e b0 56 86 3e
       0.28861678 0.056635745 0.19728202 0.26238012
000110 66 0a 3e 3e 09 82 55 be 6d e5 c2 3d 8e a4 42 be
       0.18558654 -0.20850386 0.09516416 -0.19008085
000120 3a 7d 05 be 08 4d 34 be 91 a2 3d 3e 75 09 9b be
       -0.13036051 -0.1760751 0.18519045 -0.30280653
000130 5f 3b 2e 3e e4 5f 00 3d bf 9a 9d be 63 88 98 bd
       0.17014836 0.03134145 -0.30782124 -0.07447889
000140 7a e2 97 be 7e 27 8d 3d 49 7a 9c be 4e ca ab 3d
       -0.29664975 0.06892298 -0.30562046 0.08388196
000150 b0 02 e9 3d 92 67 df 3c 4c 34 cf 3d 1d d0 b0 bd
       0.11377466 0.027271066 0.10117397 -0.086334445
000160 00 ba 84 3e 77 b0 ad 3d 09 50 32 3d ce dc 8e 3e
       0.25923157 0.084809236 0.04353336 0.27902836
000170 e3 db 91 3c f0 d2 cd bd b2 14 47 be 31 7c 25 3e
       0.017805045 -0.10049999 -0.19441488 0.16160657
000180 16 21 7c 3e 19 31 92 be ba 57 47 3e bc e6 d3 bd
       0.24621996 -0.28553084 0.19467059 -0.103467435
000190 55 c6 ee bd bb 45 89 be 77 da d9 bd 4e e4 93 bd
       -0.116589226 -0.26811013 -0.10637372 -0.0722128
0001a0 70 c7 55 be be 57 1f be ed 2e 30 be f4 9e 5b be
       -0.2087686 -0.15560815 -0.17205401 -0.21447355
0001b0 42 ae 62 bc b5 17 3a 3b d4 81 35 be 6d 7d 4b be
       -0.013835492 0.0028395478 -0.17725307 -0.19872065
0001c0 00 61 55 be cb 8a 01 bd 38 0d ee bd 37 6e 95 be
       -0.20837784 -0.031626504 -0.11623615 -0.2918565
0001d0 6f 22 2b 3e 78 6f 42 be a5 fb 07 bd b1 01 89 be
       0.16712354 -0.18987834 -0.03319897 -0.26759103
0001e0 e8 4a 1a 3e 5d 69 28 bd 2b 02 d4 3d 8d fc 0d 3e
       0.15067637 -0.041116107 0.10351976 0.13865872
0001f0 b3 71 9c be 7b a6 2d be b2 c8 00 3e de 2f 8b be
       -0.30555496 -0.16958039 0.12576559 -0.27184957
000200 14 40 29 3e 65 4a 4f 3c 9e f9 25 3e d8 c7 3c 3e
       0.1652835 0.012652014 0.16208503 0.1843561
000210 36 6e cb 3d 51 31 f1 bc d1 f6 ec bc 28 12 94 bd
       0.099331304 -0.029442461 -0.028926285 -0.072300255
000220 82 de 1a be 93 bb bc 3d 3e ba 8b be 28 81 b1 3d
       -0.15123942 0.092154644 -0.2729053 0.08667213
000230 33 54 9a bd 91 1c 08 bc 15 3c c5 bc 6f 49 4c be
       -0.07535591 -0.008307592 -0.0240765 -0.19949888
000240 0d 12 43 3e 4e 8f 6b bd 25 2e 08 3d 91 80 89 be
       0.19049855 -0.057509713 0.03324713 -0.268559
000250 1d 4e 23 3d 08 4e 92 3e 04 12 9f 3e ea 3f c0 3d
       0.039869417 0.28575158 0.31068432 0.09387191
000260 4a 92 d3 bd 2e 71 85 3d 4a bb b2 3d bd 88 69 be
       -0.10330637 0.06515728 0.08727129 -0.22806068
000270 e0 2c b0 3d 69 ad 48 be bd cb 54 be 20 79 9b 3e
       0.08602309 -0.195974 -0.20780845 0.3036585
000280 3e fa df bd 78 3c c5 bd 63 f8 c8 3d 8d 8e 28 3e
       -0.10936402 -0.09630674 0.09813001 0.16460629
000290 dc d7 29 3e 62 ac 33 be 3d 7c 40 be a3 5b 46 3e
       0.1658625 -0.17546228 -0.18797393 0.19370894
0002a0 1c 3c 4f 3e 65 7c 90 bd c7 40 8d 3d d6 00 91 3e
       0.20237774 -0.070549764 0.06897121 0.2832095
0002b0 35 0f 47 3e b3 30 3e be 54 a8 2c be 02 1a 8e 3e
       0.19439395 -0.18573265 -0.16861087 0.27754217
0002c0 87 12 de bd 80 38 8e 3e 06 3a 6e 3e 26 1c 79 3e
       -0.108433776 0.2777748 0.23264322 0.24327144
0002d0 70 05 41 3e ff 06 83 be 3f 1d 9a 3e 7e b8 cd bd
       0.1884973 -0.25591275 0.30100438 -0.10044955
0002e0 b5 9a 9f 3c 16 32 99 3e c4 d8 27 bd 39 81 0b be
       0.01948295 0.29921025 -0.04097821 -0.13623513
0002f0 91 53 00 3e 37 8c 54 be 05 74 d8 bd e2 df f5 bd
       0.12531878 -0.20756613 -0.10569004 -0.12005593
000300 e3 a6 56 be 27 eb 71 3e 8f 97 8a 3d fe 1c 8e 3d
       -0.209621 0.2362486 0.06767189 0.069391236
000310 dc 5b 91 3e b4 79 76 be 81 e6 18 be b0 1a a3 3c
       0.28390396 -0.24069864 -0.1493168 0.019910187
000320 80 9f 8f 3e e6 65 9a 3e 6a ac 91 3d ae 8b 14 3e
       0.28051376 0.30155867 0.071129635 0.14506409
000330 37 75 6f be 2a a1 94 3e cb 8e 93 be 65 06 4f bc
       -0.23384558 0.29029208 -0.2881988 -0.012635802
000340 49 59 4a 3d 9f 13 7c bd 63 f6 6d 3e 27 2d 5d be
       0.049401555 -0.06154215 0.2323852 -0.21599256
000350 b5 38 1f 3c 3c f2 37 be 46 b2 86 3e b7 d3 63 3e
       0.00971811 -0.17963499 0.26307887 0.22248732
000360 49 4b c6 bb ad a0 83 3e 25 c8 e3 bd 5f 37 8f 3e
       -0.006051455 0.25708523 -0.11122159 0.27971932
000370 3c b6 2d be 13 34 2c 3e 7b 1a 8d be 78 56 81 bd
       -0.16964048 0.1681674 -0.27559265 -0.06315321
000380 73 38 a0 bd 2d eb 07 3e 1c da 15 3c 0f 8f cd bd
       -0.07823267 0.13273306 0.00914624 -0.10037052
000390 97 9c 8e 3e 96 71 60 be b6 18 60 3e 32 c9 63 3e
       0.27853844 -0.2191833 0.21884426 0.22244719
0003a0 42 a7 3b 3d 87 cf db 3d ec 2f 0a 3d 7c e5 dd bd
       0.045813806 0.10732942 0.033737108 -0.10834786
0003b0 00 c6 38 bd 2e ec 9c 3e 59 f3 95 3e 98 1a d8 bc
       -0.045110703 0.3064894 0.29287222 -0.026379868
0003c0 ea 73 21 3d f5 f0 30 be 53 e8 fb bd 67 ef c0 bd
       0.039417185 -0.17279418 -0.12300172 -0.094206624
0003d0 ef ca 57 be 69 dd 9c bc 03 f9 5d be dc de 35 3d
       -0.21073507 -0.019148545 -0.21677022 0.04440199
0003e0 c3 ff a5 bc a5 86 79 3e 5f 01 0e 3e 02 29 4d be
       -0.020263558 0.24367769 0.1386771 -0.20035174
0003f0 11 21 a1 bd 7f 53 6f be 0d 25 6b be 60 0b 7a 3d
       -0.07867635 -0.23371695 -0.22963353 0.061046004

b f4 [32]
000000 60 79 03 3c a5 9b 70 3b e8 e4 e2 bb 6c d5 44 bb
       0.0080245435 0.0036713865 -0.0069242604 -0.0030034436
000010 cb 18 52 3b 51 fc af 3b d0 2d 8b 3b 2a cc 19 3c
       0.0032058235 0.0053706546 0.0042474046 0.009387055
000020 d5 25 51 3b 49 f0 42 bc d6 93 18 ba aa b6 81 3c
       0.0031913419 -0.011898109 -0.0005820369 0.015834171
000030 b3 2c 05 bb 97 1c a2 3b df 7e be bb 22 12 08 bc
       -0.0020320832 0.004947256 -0.005813464 -0.008305104
000040 ce 07 49 3b 5e d2 90 38 6c ed 51 3b e2 8b d4 bb
       0.0030674818 6.905639e-05 0.0032032384 -0.006486402
000050 11 e1 fc bc 78 a2 0a bc 67 2c f6 3b 17 9f 8b bb
       -0.030869039 -0.008461587 0.0075126174 -0.0042609083
000060 d0 e6 20 3c b5 57 3f 39 ff 84 6e 3c 50 67 dc ba
       0.009820655 0.00018247853 0.014558076 -0.0016815457
000070 4c 69 a1 3b 3d 31 84 bb 26 b3 1e 3c a5 2a 09 ba
       0.0049258824 -0.00403419 0.009686267 -0.000523249

W f4 [32, 32]
000000 e0 0a 0d be b2 67 6a be ba 15 58 be bf 44 18 be
       -0.1377368 -0.22891119 -0.21102038 -0.14869975
000010 74 54 26 bd 3f 4e 27 bb 9a cb cb bd d7 48 85 3e
       -0.040607885 -0.0025528816 -0.09950943 0.26032135
000020 a4 0e 26 be 55 57 83 bd a7 12 90 be 39 7f 9a bc
       -0.16216522 -0.06413142 -0.2813923 -0.018859493
000030 67 d6 8c 3e fe 73 47 3e a9 f4 26 be fc ae 01 3e
       0.27507326 0.19477841 -0.16304268 0.12664407
000040 2e 2a 81 3d 50 c9 8f 3e ef 92 9e be 05 6c 74 be
       0.06306873 0.28083277 -0.30971476 -0.23869331
000050 05 6c 93 3e 72 ee 3e be 22 eb 51 bd 35 8e 90 3e
       0.2879335 -0.18645647 -0.05124963 0.28233495
000060 b8 fa 3d 3e a9 10 37 be 21 5f 58 be ce 25 8d 3d
       0.18552673 -0.17877449 -0.21130039 0.06891976
000070 a5 62 33 be c4 4d 35 be ce 01 b6 bd 13 f9 bd bd
       -0.17518099 -0.17705446 -0.08887063 -0.09276023
000080 d3 02 24 be 68 01 20 be af 80 52 3d 9d 28 87 be
       -0.16016702 -0.15625536 0.051392253 -0.26398173
000090 31 95 1d be 9c a0 6d be 89 9d 22 3e 82 69 94 bd
       -0.15388943 -0.23205799 0.15880407 -0.072466865
0000a0 a4 9e 68 bd ab 99 20 3c 78 80 03 be 39 9d 8b bd
       -0.056791916 0.009802262 -0.12841976 -0.06817097
0000b0 3a 0c 7d 3e 8c 75 c3 bd 59 9f 30 bd 6c 3b 8b be
       0.24711695 -0.09543905 -0.043120716 -0.27193773
0000c0 e9 d0 65 3e 88 7c 07 be 99 88 03 be 96 8f 9a be
       0.22442974 -0.13231099 -0.12845077 -0.30187672
0000d0 09 0f 07 3e d4 67 18 3e 65 f8 86 be da fc d5 bd
       0.13189329 0.14883357 -0.26361385 -0.10448618
0000e0 97 a3 9e 3e 69 5f 81 3e 63 54 33 be 70 df 0f 3e
       0.30984184 0.25268105 -0.1751266 0.14050078
0000f0 c2 d7 99 be 41 5f cf bd b8 f2 fa bd d7 73 90 be
       -0.30047423 -0.1012559 -0.12253326 -0.2821338
000100 64 cc b4 bd 9a 52 ce 3d c8 cb e2 bd 0c 21 73 3e
       -0.08828047 0.10074349 -0.110740244 0.23743075
000110 0e 2d 40 be b0 68 9a bc 71 cd 1a 3e 88 40 6b 3d
       -0.18767187 -0.018848747 0.15117432 0.05743459
000120 86 b2 38 3e 70 30 85 be 13 92 9e be 96 29 c6 bd
       0.18036851 -0.26013517 -0.3097082 -0.09675901
000130 ba 9f 10 3d 2a 98 37 3e 3d 3d bb bd 0a b1 66 3e
       0.035308577 0.1792914 -0.0914254 0.22528473
000140 c9 07 83 be ab 7d 86 ba 33 72 36 3d d7 d6 02 be
       -0.25591877 -0.0010260841 0.044542503 -0.12777267
000150 49 d1 5d 3e 41 cc 8d 3e c9 1f 73 bd 5f 29 6c 3e
       0.21661867 0.27694896 -0.059356485 0.23062657
000160 ac c3 bc 3d b6 f7 3c 3d 65 8c 91 3e 22 40 59 bd
       0.09217009 0.046134673 0.28427425 -0.053039677
000170 59 c3 4f be c2 9a cd bd 02 cf 42 bc 08 b2 18 be
       -0.20289363 -0.10039283 -0.011890175 -0.14911664
000180 eb d7 ef bd 5a 21 91 be 33 a8 b4 bd 75 77 8c 3e
       -0.11711105 -0.28345758 -0.08821144 0.27434888
000190 06 3e a2 3e 7a 05 7a be cc f3 14 3d 77 38 5f be
       0.31687945 -0.24416152 0.036365315 -0.21798883
0001a0 37 3b 10 be 66 3e ba 3a 39 d8 a0 bd 44 43 be bd
       -0.14085089 0.001420927 -0.07853741 -0.09290174
0001b0 e5 a4 d7 bd b6 62 83 be cc 29 8c be 77 8d 84 3e
       -0.10529498 -0.25661248 -0.27375638 0.2588918
0001c0 5b 5e 89 3c 48 9f 62 3e 38 3c 1d 3e 6d f8 64 be
       0.016768625 0.22131073 0.15355003 -0.22360392
0001d0 75 2a 8b be db b3 6a 3b e5 e4 12 3e ae c8 90 3c
       -0.2718083 0.0035812769 0.14345129 0.017673817
0001e0 06 b8 38 be 63 c4 d8 3d aa 40 6c be 74 f4 be bb
       -0.1803895 0.10584333 -0.23071542 -0.005827481
0001f0 30 2d 98 3d 2e 13 c6 bd b2 09 fe 3d 94 78 df bc
       0.07430494 -0.09671627 0.12404193 -0.027279176
000200 e1 22 44 3e d7 01 91 3e 1f 68 22 3e a5 7c bf 3d
       0.1915393 0.28321716 0.15860032 0.09349946
000210 6a 3d c6 3c c7 b9 ed 3c 43 d0 1b 3e b8 8f c6 bc
       0.024199206 0.02901925 0.15216164 -0.024238452
000220 8b 4b a9 bd 8c 25 3b 3d f2 7e 07 3e e8 9b 3d 3e
       -0.08266362 0.045690104 0.1323202 0.18516505
000230 35 97 8f be 79 7e 73 bb 74 74 3b 3e 99 74 a0 be
       -0.2804505 -0.003715424 0.18306142 -0.31338957
000240 48 37 aa bd f1 8c 78 be 11 b1 80 be 25 49 16 be
       -0.08311325 -0.24272515 -0.2513509 -0.1467634
000250 03 11 9b be 19 58 9b bd 00 12 0b be bc 01 83 3e
       -0.30286416 -0.07585163 -0.13581085 0.2558726
000260 c5 cb 3d 3e 87 52 85 3e 1e f1 57 be da 68 59 be
       0.18534763 0.26039526 -0.21088073 -0.21231404
000270 c7 9d a0 3d 96 d2 61 3e 3f 60 66 be 00 6e 99 3d
       0.07842594 0.22052988 -0.22497652 0.07491684
000280 6f 26 61 be 1b 4e cc 3d f2 ed 2b 3e 94 e0 cd bd
       -0.21987318 0.09975835 0.16789988 -0.100526005
000290 13 7e 8a 3e 13 90 62 be c7 6d fa bc e2 1c 2f 3e
       0.27049312 -0.22125272 -0.030569924 0.17100862
0002a0 e7 ee 0d be e6 61 5c be 65 94 c5 bd 95 b9 9d be
       -0.13860665 -0.2152172 -0.09647445 -0.3080565
0002b0 8e 7c 94 3e ea 00 1b be f9 61 a6 3d 52 b0 92 be
       0.29001278 -0.15137067 0.081241556 -0.28650147
0002c0 f6 ad f9 bd 92 a7 61 be de 1e a6 bd 65 76 66 3e
       -0.121913835 -0.22036579 -0.08111356 0.22506101
0002d0 f1 2f 6b be ee ed 64 3e 3e 4a 5d bc c3 57 7a be
       -0.22967507 0.22356388 -0.01350647 -0.24447541
0002e0 48 71 f1 3d 93 c0 2b be 19 13 cb bc 78 0b 10 3e
       0.11789185 -0.1677268 -0.02478938 0.14066875
0002f0 47 59 7d 3e 34 5f af 3d 28 da 8c be 5c 59 36 be
       0.24741088 0.085630804 -0.2751019 -0.17807525
000300 94 a1 7a 3d c2 a0 fa bc 3d 4f 8b 3e 28 b0 66 be
       0.06118925 -0.030594233 0.27208892 -0.22528136
000310 a3 c1 35 be 47 3b 12 bd 20 35 a7 3c 69 a9 46 bd
       -0.17749648 -0.035701063 0.020411074 -0.048501406
000320 93 59 4a bd 08 20 29 3e 7e 2d f5 3d 53 45 26 bd
       -0.04940183 0.16516125 0.119715676 -0.040593456
000330 0d 0a 89 3c 88 a6 99 3e 64 82 15 3d e6 a8 82 3c
       0.016728425 0.30009866 0.036501303 0.015949678
000340 2c e7 8c 3e 5d 14 4a 3e cd 9a 35 3e 43 a8 36 be
       0.2752012 0.1973433 0.17734833 -0.17837624
000350 e2 3b 72 3e a9 55 98 3e 05 6e 91 3e 19 22 63 be
       0.23655656 0.29752854 0.2840425 -0.22180976
000360 54 85 5f 3d 49 e2 90 3e f6 21 36 be c8 dc 83 be
       0.05457051 0.28297642 -0.17786393 -0.2575438
000370 4a de 92 3e e9 e5 50 be 8e 28 83 be 32 c0 4f bc
       0.28685218 -0.20400204 -0.25616878 -0.0126801
000380 41 77 3f 3e dc ba 02 be 80 f4 66 3e 55 59 fd bb
       0.18697836 -0.12766594 0.22554207 -0.0077315965
000390 62 28 a0 3e 7e 40 1d bc bc 6b 9a 3e fb 36 9c bd
       0.3128081 -0.009597896 0.3016032 -0.07627674
0003a0 10 ba c3 bd 1a 4b 8a 3e 5b e4 41 3e 8f 2e 84 3d
       -0.09556973 0.27010423 0.18934767 0.06454193
0003b0 50 6b 1e be ed 48 7f be 3e bd 10 be 27 6e c8 bd
       -0.15470624 -0.24930163 -0.1413469 -0.09786635
0003c0 6d a3 7a bd 0e 2a ad ba ec be 8f 3d 7d 6b 86 3d
       -0.06119101 -0.0013211386 0.07018837 0.065634705
0003d0 96 eb 8c be 13 26 97 3e cb 6b 83 be 50 10 42 3e
       -0.27523488 0.29521236 -0.25668177 0.18951535
0003e0 af 76 ca 3d 2b de 69 3e 48 fc de bd 03 fb 08 be
       0.09885918 0.22838657 -0.108879626 -0.13377003
0003f0 9e 34 26 be a8 90 40 be c8 b2 66 3d b5 0b 47 3e
       -0.1623101 -0.18805182 0.056322843 0.1943806

b f4 [32]
000000 92 f5 7a bb 13 6a c1 b8 32 28 78 ba 04 a1 3f bc
       -0.0038293344 -9.222715e-05 -0.0009466439 -0.011696104
000010 a0 ba 23 3c d0 df 92 b9 e1 8c 5d 3c b5 ca a7 bb
       0.009993225 -0.00028014043 0.013522358 -0.0051206
000020 3c 74 75 3b b3 3e fe 3b 62 34 04 bc d0 83 38 bc
       0.0037453314 0.007758939 -0.00806913 -0.011261895
000030 38 26 59 3c 10 8d 10 3c 69 9a 78 39 b1 25 b6 bc
       0.013253741 0.008822694 0.00023708645 -0.02223477
000040 9e db 22 bc cd 95 68 bc 3f 36 34 39 aa 97 14 bc
       -0.009940056 -0.014195872 0.00017186346 -0.009069363
000050 d6 60 5f 3c d6 d4 cc ba 53 09 a8 bb 2f 97 87 3c
       0.013633927 -0.0015627395 -0.0051280647 0.016551582
000060 e4 99 a1 bc 45 fd 27 bb 58 85 06 3c 68 09 6d bc
       -0.019726701 -0.0025633138 0.008210503 -0.014467575
000070 fc b4 6b 3b ea 16 a6 3b b2 3e a8 39 b6 33 c0 3b
       0.003596603 0.0050686495 0.0003209017 0.0058655394
