saved_models/model-epoch-10.pth (torch, 249162 bytes, 52 tensors)

embeddings f4 [99, 32]
000000 76 fa 59 3e d4 a6 4d be d2 be f0 3d c7 7e 13 3d
       0.2128695 -0.20083171 0.11755146 0.036009576
000010 b0 a0 69 bd a2 82 cf bd f7 79 ae 3d 2d 0c 2f be
       -0.05703801 -0.10132338 0.08519357 -0.17094488
000020 98 6b f8 bd 81 07 bb 3d 5c 7f a3 3c c1 33 35 be
       -0.12129897 0.09132291 0.01995819 -0.17695524
000030 5f 3a 1f 3e 64 09 58 be d4 a9 60 bc e4 9e 17 be
       0.1554961 -0.21097332 -0.013712365 -0.14806706
000040 4d db 4b 3e 76 0b a2 bd 6b 53 29 3e 2f 9b 3c bd
       0.19907875 -0.07912342 0.16535728 -0.046046432
000050 9a 6b 09 3d 3f 6e 31 3e e4 94 ad bd 4f 4a ab bd
       0.033549882 0.17327212 -0.08475664 -0.083637826
000060 4a d8 54 be e1 eb 7b bd 45 85 28 be ab 7b 01 3e
       -0.20785633 -0.06150425 -0.16457088 0.12644832
000070 2b 1d 25 3e 96 92 36 3e 12 dc bf bd 2e 68 1f 3e
       0.16124408 0.17829356 -0.09368147 0.15567085
000080 41 c2 5a bc d9 de c5 3d 0e 16 da 3d 30 0c 4e bc
       -0.013351978 0.096616454 0.10648738 -0.012576148
000090 f8 18 a2 3d 38 c5 2c 3e a2 c5 e9 bd 51 05 4a be
       0.07914919 0.16872108 -0.114146486 -0.1972859
0000a0 e6 af a8 3d ff cf b2 bd 86 23 04 3c 8e cc 3b be
       0.08236675 -0.08731078 0.00806511 -0.1833975
0000b0 dd 3f a4 bc 6d b5 06 be ad a8 2c be 20 00 69 3d
       -0.020049984 -0.13155146 -0.1686122 0.056884885
0000c0 59 03 32 3e 07 f4 f4 bd 0a 2d cc bd b7 bd 0e 3e
       0.1738409 -0.11960607 -0.09969528 0.13939558
0000d0 14 57 15 be 63 70 cb bd 4d ed 34 3e 2c dd eb 3d
       -0.14583999 -0.099335454 0.17668648 0.115167946
0000e0 bc c2 fb 3c da 05 ca 3d 39 11 a3 bd 1c 33 53 3e
       0.030732505 0.09864397 -0.07962269 0.20624965
0000f0 76 d7 0e be 33 02 09 bd 8c 79 73 bd dd 37 46 3e
       -0.1394938 -0.033449363 -0.059442088 0.19357248
000100 9c 69 2b be 00 78 46 bd e7 2e 24 be 95 68 21 3e
       -0.16739506 -0.048454285 -0.16033517 0.15762551
000110 93 56 e8 bd 7d 05 ae bd 2b 90 12 be 8e a6 ba bc
       -0.11344638 -0.084971406 -0.14312808 -0.022784498
000120 39 9a 53 be f4 33 f2 bd bf 97 58 3d ad 46 57 be
       -0.206643 -0.118263155 0.05287909 -0.21023054
000130 ee 82 60 bd b5 3d ef 3d e3 8f 0e 3d 9e ef 6e 3d
       -0.054812364 0.116816916 0.03480519 0.058333986
000140 12 85 c1 bd df 58 d1 3d 5a f9 72 3c 5b e6 d9 bd
       -0.09449209 0.10222029 0.014829958 -0.1063964
000150 64 d1 49 3e 4d 25 60 bd b7 c4 3d 3d 35 93 2b 3d
       0.19708782 -0.054723073 0.04633018 0.041888434
000160 bd 3b b0 3c af 87 17 be f8 94 b3 bb 38 a6 20 bc
       0.02151286 -0.14797853 -0.005480405 -0.009805255
000170 90 35 e8 bd b6 a0 18 bd 2d b4 8f 3c 4f 6a 3a bc
       -0.11338341 -0.03726264 0.01754197 -0.011377885
000180 8b c8 58 be 00 b9 1c 3d e4 41 13 be 5b 87 4d 3e
       -0.21170251 0.038262367 -0.14380604 0.20071165
000190 a9 f9 19 3e 5d 5a 9d 3b 58 80 ed 3d 2a 78 84 3d
       0.15036644 0.004802032 0.11596745 0.06468232
0001a0 13 c2 50 3d d8 cc c3 bd 91 ef 2c 3b 9b 75 4b 3b
       0.050966334 -0.09560555 0.002638791 0.003104544
0001b0 69 12 2a 3e 29 dc 67 bd 66 fa cb 3c ff 5d cc bd
       0.16608585 -0.056606445 0.024899673 -0.09978866
0001c0 c5 f7 a3 bd ba 91 5a bd f2 5c c1 3d c7 e1 c8 3d
       -0.08006243 -0.053361632 0.09441556 0.098086886
0001d0 c1 df 4f be 97 99 81 bd 04 ac 15 bb 9e 23 dc 3d
       -0.20300199 -0.06328123 -0.0022838125 0.10748981
0001e0 d3 51 12 be 5f 5c db bd 4c ac 50 3e d3 ce 41 be
       -0.14289026 -0.10710978 0.20378226 -0.18926553
0001f0 06 48 26 3c 6d 62 89 bd 20 17 02 be 69 cd 3f be
       0.010149008 -0.06708226 -0.12704134 -0.18730702
000200 13 c6 4c be c0 93 18 3e 1b 66 0a 3d 0d 2f 44 3d
       -0.19997434 0.14900112 0.03378878 0.047896434
000210 6f 5b 42 3d aa a2 17 be 30 f4 1b be 3f 21 e1 3c
       0.04745048 -0.14808145 -0.15229869 0.027481673
000220 58 ea 57 bd 0c e1 1e 3e bf d4 ab 3c 04 6e 1d 3e
       -0.052713722 0.15515536 0.020975469 0.15373999
000230 d1 dd 46 3c e8 f4 3f be 68 23 14 3d 29 bd 19 be
       0.012137846 -0.18745768 0.03616658 -0.15013565
000240 8f 06 0e 3e a8 20 0f be 11 4f 32 be 51 7b 2e be
       0.1386969 -0.13977301 -0.17412974 -0.17039229
000250 3d 5f 12 be 34 1a 1c 3e 72 13 59 3b 68 3b 2e be
       -0.14294143 0.1524437 0.0033123163 -0.17014849
000260 ef 23 ac bd 0f 4d 71 3d f4 ee 06 3e c8 eb 2d 3d
       -0.08405291 0.05891138 0.13177091 0.042461187
000270 8b 86 08 3e e6 e0 9d bd e2 29 50 3e ad ec 8f 3d
       0.13332574 -0.077089116 0.20328477 0.07027564
000280 91 66 99 bd 9e f0 37 bd 81 d7 e3 3b 0b a8 16 be
       -0.07490266 -0.044907205 0.0069531803 -0.14712541
000290 57 0d 2b be 1e 73 2d 3e d5 fd bb bd e8 ee 17 3e
       -0.16704307 0.16938445 -0.09179274 0.14837229
0002a0 67 b9 38 3e 5f e9 6b bc 22 7b 27 3d bb a6 36 3e
       0.18039475 -0.014398902 0.040888913 0.1783704
0002b0 7c b7 02 3c a8 0b 2d 3e f2 3e 3d 3e 51 23 e8 3c
       0.007978316 0.16898978 0.18481043 0.028337153
0002c0 50 8f 51 3d 3c b9 e8 3d 28 62 2c 3e 4f b8 31 3e
       0.051162064 0.11363456 0.16834319 0.17355464
0002d0 4f 4b b4 3c 6e be f9 bd eb b6 30 3e 5a 62 da 3d
       0.022008566 -0.12194525 0.17257278 0.1066329
0002e0 4e e7 9c bd 70 78 4f be b1 da 03 be 27 a9 17 bd
       -0.07661305 -0.20260787 -0.12876393 -0.03702655
0002f0 61 b5 4c 3e b4 84 75 bd 42 c4 42 be 27 f6 20 3e
       0.19991066 -0.05994101 -0.19020179 0.157189
000300 fd 14 32 3e f8 4a 5c 3c ed b6 1e be b5 ab 96 bd
       0.17390819 0.013445608 -0.15499468 -0.07356969
000310 dd 37 0d be 0f b7 3f 3e 9f 8f 30 be b8 56 6f bd
       -0.13790841 0.18722175 -0.17242287 -0.05843231
000320 20 5d 50 be 70 61 05 3d b3 67 9e bc 62 9a 97 3d
       -0.20348024 0.032563627 -0.019336557 0.07402493
000330 eb bf 4e be e1 e8 28 3d 51 f5 4a be 28 4a 35 3e
       -0.20190398 0.041237716 -0.19820143 0.1770407
000340 50 ca 12 bc da 65 44 be 94 0d 52 bd 2b f9 4f 3e
       -0.008959368 -0.19179478 -0.05128248 0.20309894
000350 48 46 49 bd 10 6e 46 be 1b 3f 37 be 5b 47 25 be
       -0.04913929 -0.19377923 -0.17895167 -0.16140501
000360 1b 11 9c bd dc ae ff bd a4 85 31 be 8c 73 ac 3c
       -0.0762045 -0.12484524 -0.17336136 0.02105119
000370 48 b7 2d be 4f cb 3d 3e ab a5 c2 3d 27 c9 06 be
       -0.16964447 0.18534587 0.09504255 -0.13162671
000380 16 ed d4 3c e3 2e 0e bc 92 cd 22 be 68 3e 29 3e
       0.025991958 -0.008678171 -0.15898731 0.16527712
000390 5b b7 d5 bd 45 47 f0 3c 72 96 0a be 6a b3 31 be
       -0.10435363 0.029330859 -0.13533953 -0.17353597
0003a0 4f 2d ad bc fb c0 23 3e a8 88 fd bd 68 02 57 3e
       -0.021139769 0.15991585 -0.12379581 0.20997012
0003b0 4f a4 f4 bb b0 cb d7 3d 15 f0 f7 3d 01 2e ce 3d
       -0.007465876 0.10536897 0.12106339 0.10067368
0003c0 07 cf 02 3b bd 25 0e 3d 11 33 84 bd 73 bd 27 3e
       0.0019959824 0.03470396 -0.06455053 0.16380863
0003d0 bc b6 49 3e 6e eb 55 be 6a 7b a2 bd b1 41 2d be
       0.19698614 -0.2089059 -0.079336956 -0.1691959
0003e0 5b cc 34 3c 26 ea 48 be 84 58 fe bd 2d 8b 52 3e
       0.01103505 -0.1962057 -0.12419227 0.20560904
0003f0 0c 32 e1 bc 39 9b bf bc 7e 4a 14 3e ea 89 de 3c
       -0.027489685 -0.023389446 0.14481542 0.027165372

_pos_embeds f4 [64, 32]
000000 00 00 00 00 00 00 80 3f 00 00 00 00 00 00 80 3f
       0.0 1.0 0.0 1.0
000010 00 00 00 00 00 00 80 3f 00 00 00 00 00 00 80 3f
       0.0 1.0 0.0 1.0
000020 00 00 00 00 00 00 80 3f 00 00 00 00 00 00 80 3f
       0.0 1.0 0.0 1.0
000030 00 00 00 00 00 00 80 3f 00 00 00 00 00 00 80 3f
       0.0 1.0 0.0 1.0
000040 00 00 00 00 00 00 80 3f 00 00 00 00 00 00 80 3f
       0.0 1.0 0.0 1.0
000050 00 00 00 00 00 00 80 3f 00 00 00 00 00 00 80 3f
       0.0 1.0 0.0 1.0
000060 00 00 00 00 00 00 80 3f 00 00 00 00 00 00 80 3f
       0.0 1.0 0.0 1.0
000070 00 00 00 00 00 00 80 3f 00 00 00 00 00 00 80 3f
       0.0 1.0 0.0 1.0
000080 a4 6a 57 3f 40 51 0a 3f ba 7d 08 3f 0e 94 58 3f
       0.84147096 0.5403023 0.53316844 0.84600914
000090 3e 39 9f 3e 6a 4e 73 3f 3a 23 35 3e 83 f6 7b 3f
       0.3109836 0.95041525 0.17689219 0.9842302
0000a0 76 75 cc 3d 98 b8 7e 3f b0 36 66 3d 68 98 7f 3f
       0.099833414 0.9950042 0.056204498 0.9984193
0000b0 5c 81 01 3d 3c df 7f 3f 42 ab 91 3c a3 f5 7f 3f
       0.031617507 0.99950004 0.017781857 0.99984187
0000c0 57 d6 23 3c b9 fc 7f 3f 5c 44 b8 3b f7 fe 7f 3f
       0.009999833 0.99995 0.0056233834 0.9999842
0000d0 20 3e 4f 3b ac ff 7f 3f 20 15 e9 3a e5 ff 7f 3f
       0.0031622723 0.999995 0.0017782785 0.9999984
0000e0 6d 12 83 3a f8 ff 7f 3f 16 6a 13 3a fd ff 7f 3f
       0.0009999998 0.9999995 0.0005623413 0.9999998
0000f0 5f cb a5 39 ff ff 7f 3f 53 77 3a 39 00 00 80 3f
       0.00031622776 0.99999994 0.00017782794 1.0
000100 b7 c7 68 3f 33 11 d5 be 0a f2 66 3f b2 e8 dc 3e
       0.9092974 -0.41614684 0.9021307 0.43146282
000110 1b 54 17 3f ec 7b 4e 3f f6 47 b2 3e a5 fa 6f 3f
       0.5911271 0.8065784 0.34820527 0.9374183
000120 f9 6f 4b 3e a5 e5 7a 3f 88 d9 e5 3d f3 61 7e 3f
       0.19866933 0.9800666 0.112231314 0.9936821
000130 c8 70 81 3d f9 7c 7f 3f 5c a5 11 3d 8e d6 7f 3f
       0.063203394 0.9980007 0.03555809 0.9993676
000140 3e d4 a3 3c e5 f2 7f 3f 9d 43 38 3c db fb 7f 3f
       0.019998666 0.9998 0.011246589 0.99993676
000150 dd 3d cf 3b b0 fe 7f 3f 08 15 69 3b 96 ff 7f 3f
       0.0063245133 0.99998 0.0035565514 0.9999937
000160 69 12 03 3b de ff 7f 3f 14 6a 93 3a f5 ff 7f 3f
       0.0019999987 0.999998 0.0011246824 0.99999934
000170 5f cb 25 3a fd ff 7f 3f 53 77 ba 39 ff ff 7f 3f
       0.0006324555 0.9999998 0.00035565588 0.99999994
000180 c3 81 10 3e 26 70 7d bf d7 45 7e 3f a8 7f ed bd
       0.14112 -0.9899925 0.9932532 -0.11596614
000190 c2 09 50 3f 57 2f 15 3f 6d 2f 02 3f 29 6d 5c 3f
       0.8126489 0.5827536 0.50853616 0.86104065
0001a0 6d 4e 97 3e ef 90 74 3f d8 ee 2b 3e 9e 5d 7c 3f
       0.29552022 0.9553365 0.1679033 0.9858035
0001b0 c1 ff c1 3d 4f d9 7e 3f 4d 69 5a 3d c3 a2 7f 3f
       0.09472609 0.99550337 0.05332308 0.9985773
0001c0 20 b9 f5 3c 83 e2 7f 3f c7 31 8a 3c ad f6 7f 3f
       0.029995501 0.99955004 0.016869439 0.9998577
0001d0 11 6e 1b 3c 0d fd 7f 3f a8 cf ae 3b 11 ff 7f 3f
       0.009486691 0.999955 0.005334813 0.99998575
0001e0 93 9b 44 3b b5 ff 7f 3f 1b 1f dd 3a e8 ff 7f 3f
       0.0029999956 0.9999955 0.0016870232 0.99999857
0001f0 0d b1 78 3a f8 ff 7f 3f 7e d9 0b 3a fe ff 7f 3f
       0.0009486832 0.9999995 0.0005334838 0.9999999
000200 cf bd 41 bf 30 55 27 bf ed 49 47 3f 9d af 20 bf
       -0.7568025 -0.6536436 0.77847177 -0.62767965
000210 de 1d 74 3f b1 2e 9a 3e bc 1f 27 3f ed eb 41 3f
       0.95358074 0.30113748 0.652828 0.7575062
000220 d7 61 c7 3e a7 ca 6b 3f c6 65 64 3e 09 8d 79 3f
       0.38941833 0.921061 0.22304448 0.9748083
000230 88 2e 01 3e 69 f4 7d 3f c8 8d 91 3d 47 5a 7f 3f
       0.12615407 0.99201065 0.07107121 0.9974713
000240 db cb 23 3d 94 cb 7f 3f a2 40 b8 3c 6c ef 7f 3f
       0.039989334 0.9992001 0.022491757 0.99974704
000250 cd 3c 4f 3c c2 fa 7f 3f a7 14 e9 3b 58 fe 7f 3f
       0.012648773 0.99992 0.0071130577 0.9999747
000260 58 12 83 3b 7a ff 7f 3f 0e 6a 13 3b d6 ff 7f 3f
       0.0039999895 0.999992 0.0022493633 0.9999975
000270 5c cb a5 3a f3 ff 7f 3f 52 77 3a 3a fc ff 7f 3f
       0.0012649107 0.9999992 0.0007113117 0.99999976
000280 10 7c 75 bf 2c 3c 91 3e d6 da a5 3e 40 32 72 bf
       -0.9589243 0.2836622 0.3239352 -0.94607925
000290 7f fc 7f 3f d4 72 29 bc ab ca 46 3f f1 4c 21 3f
       0.99994653 -0.010342319 0.77652997 0.6300803
0002a0 44 77 f5 3e 40 a9 60 3f ee 11 8e 3e 7c f2 75 3f
       0.47942555 0.87758255 0.27748054 0.96073127
0002b0 1e 3c 21 3e 81 ce 7c 3f 21 db b5 3d 1e fd 7e 3f
       0.15745589 0.987526 0.08879686 0.99604976
0002c0 f5 b6 4c 3d 19 ae 7f 3f fe 4d e6 3c 19 e6 7f 3f
       0.04997917 0.99875027 0.028113361 0.99960476
0002d0 81 85 81 3c cf f7 7f 3f bb ac 11 3c 69 fd 7f 3f
       0.01581073 0.999875 0.00889128 0.9999605
0002e0 de d6 a3 3b 2e ff 7f 3f 8c 44 38 3b be ff 7f 3f
       0.0049999794 0.9999875 0.002811703 0.99999607
0002f0 31 3e cf 3a eb ff 7f 3f 26 15 69 3a f9 ff 7f 3f
       0.0015811381 0.99999875 0.0008891396 0.9999996
000300 8c 0f 8f be b8 cd 75 3f 74 e5 6b be 53 1d 79 bf
       -0.2794155 0.96017027 -0.23036748 -0.9731037
000310 4d 78 72 3f 6f 3f a4 be 89 30 60 3f 34 2f f7 3e
       0.94714814 -0.32079646 0.8757406 0.482782
000320 69 8c 10 3f 32 49 53 3f fd 7d a9 3e e2 90 71 3f
       0.5646425 0.8253356 0.33103934 0.943617
000330 6f 20 41 3e e3 67 7b 3f c1 19 da 3d 51 8b 7e 3f
       0.18860029 0.98205394 0.106494434 0.9943133
000340 d1 9c 75 3d 12 8a 7f 3f bf 2c 0a 3d b3 da 7f 3f
       0.059964005 0.99820054 0.03373408 0.99943084
000350 46 6c 9b 3c 34 f4 7f 3f 04 cf 2e 3c 45 fc 7f 3f
       0.018972527 0.99982 0.010669474 0.9999431
000360 59 9b c4 3b d2 fe 7f 3f 06 1f 5d 3b a1 ff 7f 3f
       0.005999964 0.999982 0.0033740415 0.99999434
000370 05 b1 f8 3a e2 ff 7f 3f 7d d9 8b 3a f6 ff 7f 3f
       0.0018973654 0.9999982 0.0010669675 0.9999994
000380 46 30 28 3f bd ff 40 3f 6e b6 36 bf 60 4f 33 bf
       0.6569866 0.75390226 -0.71372116 -0.7004299
000390 6f e8 4c 3f bb 74 19 bf 44 84 72 3f b9 f8 a3 3e
       0.80042166 -0.5994374 0.9473307 0.32025698
0003a0 73 eb 24 3f b3 cc 43 3f df 60 c4 3e c5 6b 6c 3f
       0.64421767 0.7648422 0.38355157 0.92351943
0003b0 50 d3 60 3e ea c0 79 3f ba 46 fe 3d e9 04 7e 3f
       0.2195561 0.9755999 0.12415834 0.9922624
0003c0 32 3e 8f 3d 81 5f 7f 3f 60 31 21 3d 3b cd 7f 3f
       0.06994285 0.997551 0.03935373 0.9992253
0003d0 a6 52 b5 3c f2 ef 7f 3f 2a f1 4b 3c ec fa 7f 3f
       0.022134136 0.999755 0.012447635 0.9999225
0003e0 c7 5f e5 3b 65 fe 7f 3f be fc 80 3b 7e ff 7f 3f
       0.006999943 0.9999755 0.003936379 0.99999225
0003f0 ec 11 11 3b d7 ff 7f 3f 66 28 a3 3a f3 ff 7f 3f
       0.0022135926 0.99999756 0.0012447953 0.9999992

W f4 [32, 32]
000000 dc e6 26 3e 6b ef 20 bf 37 84 6a 3e f3 b3 71 3d
       0.16299003 -0.6286532 0.22901998 0.059009504
000010 29 5f 75 be bf e0 17 be 71 fb d0 3e ad 07 81 be
       -0.23962082 -0.14831828 0.40816835 -0.2520117
000020 c9 e7 e1 be a9 e4 91 be c9 9a a6 3e 34 e0 e4 bd
       -0.4412215 -0.28494766 0.32539967 -0.11175576
000030 ee e9 f5 3e 8a e9 96 3e 03 00 ba 3e 44 25 04 3f
       0.48030037 0.2947505 0.36328134 0.5161936
000040 26 78 4f 3e 74 ad 04 3f 19 f9 11 3f 78 1e f8 3e
       0.20260677 0.5182717 0.5702072 0.48460746
000050 a3 30 83 3e af da 45 3f a2 c8 07 3f 3e 53 a5 3e
       0.25623044 0.7728681 0.53040516 0.3229007
000060 90 a9 da 3e 0c 6e 3a 3f 85 72 d6 3e 05 c8 0a 3f
       0.4270749 0.7282417 0.41884246 0.54211456
000070 cd 91 92 3e a4 76 ee 3e 59 b4 dd 3e c4 f6 40 3f
       0.28626862 0.4657489 0.43301657 0.75376534
000080 42 49 83 3e 81 f1 90 bd eb b9 8c be a8 ec 8f 3e
       0.2564183 -0.07077313 -0.27485594 0.28110242
000090 07 27 27 bf 34 22 2e bd 4d 92 f6 3e a0 83 13 3f
       -0.65293926 -0.042513087 0.48158494 0.5762272
0000a0 7e ae 04 3f e3 d3 19 bf 25 11 e5 be 67 83 9b 3e
       0.51828754 -0.6008894 -0.44739643 0.3037369
0000b0 1d 88 6c be 83 49 6b bc c3 dd 28 bf a3 6a 29 bf
       -0.23098798 -0.014360788 -0.6596338 -0.6617834
0000c0 0f c3 94 be 81 ad 0c bf 63 73 5b be 0f 0a 85 be
       -0.29055068 -0.54952246 -0.21430735 -0.25984237
0000d0 61 75 21 bf 32 a6 2e bf 10 a5 0c bf d6 51 0c bf
       -0.6306973 -0.68222344 -0.54939365 -0.5481237
0000e0 b5 0c fb be a3 3e 22 bf 57 e7 a5 be dc 0a 1a bf
       -0.49033132 -0.63376826 -0.3240306 -0.6017282
0000f0 87 ad d0 be d7 af 15 bf e0 56 42 bf c7 65 2a bf
       -0.4075739 -0.58471435 -0.7591381 -0.6656155
000100 3b a8 88 bc e0 c8 20 3f cc 6e 00 bf 02 71 b1 be
       -0.016681781 0.6280651 -0.5016906 -0.3465653
000110 da 1f 38 3f fd 7e 31 3f 54 6d 11 bf 9e 66 a3 be
       0.719236 0.69334394 -0.56807446 -0.31914228
000120 5d ba ca 3c 8e c4 14 3e 42 39 ff 3c 98 63 18 bf
       0.024747068 0.14528105 0.031155232 -0.5952697
000130 0f ec e7 3e 1b 8b e1 be 1d 7d ff 3e 90 4b 65 3e
       0.45297286 -0.44051442 0.4990014 0.22392106
000140 f3 09 6a 3e 44 95 33 3e 33 5a 21 3e 03 15 d6 3e
       0.22855358 0.17537409 0.15757065 0.41812906
000150 51 a2 33 3f b6 07 20 3f 69 fe f0 3e 21 f3 88 3e
       0.7016955 0.62511766 0.470691 0.26747993
000160 55 a3 19 3e a9 41 c4 3e 87 e7 91 3e e0 87 90 3e
       0.15003712 0.38331345 0.28496954 0.28228664
000170 ec 0e 0e 3e 6d a0 37 3f b0 89 4f 3e b4 56 cd 3e
       0.1387288 0.71729165 0.20267367 0.40105212
000180 7a d5 32 3e 50 91 cf 3e aa 21 fe 3e d3 95 7b 3e
       0.17464247 0.40540552 0.4963506 0.24568872
000190 fb 98 c3 3e 58 d4 62 3d b3 10 b4 3e 2a 8c ab be
       0.38202652 0.055378288 0.3516899 -0.33505374
0001a0 77 05 ab 3e b7 ba 19 be 4a 66 1c bf 14 e3 99 3e
       0.33402607 -0.15012632 -0.6109358 0.3005606
0001b0 56 5d 28 be 1b 5b 4f 3d fd f4 a1 bd ae 76 7c be
       -0.16441855 0.050623994 -0.07908056 -0.24654648
0001c0 3c dd 9d 3d de 27 b5 3d 38 31 ce be 4b 4d 0d be
       0.07708213 0.08845495 -0.40271926 -0.13799016
0001d0 62 96 e5 3d e9 d2 f0 be 57 a3 d6 be d5 6d 08 be
       0.11210324 -0.47035912 -0.41921493 -0.13323148
0001e0 25 b8 39 be 35 38 55 be 36 8e dd be ca 75 76 be
       -0.18136652 -0.20822223 -0.4327256 -0.2406837
0001f0 51 44 d3 3d 11 8a 7c be b7 ac e7 ba 8e 23 30 be
       0.10315765 -0.24662043 -0.0017675374 -0.17201063
000200 d6 f8 8a be d9 ac 9d 3d df f5 ad be 25 cf 08 bd
       -0.27142972 0.07698984 -0.33976647 -0.033400673
000210 18 13 05 be 3b 89 d7 3e 1e a5 1a bf 06 93 47 be
       -0.12995565 0.42096886 -0.604082 -0.19489679
000220 aa 38 54 3c 7f 62 e9 3e 33 eb 1b bf 8f 3e 78 be
       0.012952963 0.4558296 -0.6090576 -0.24242614
000230 af cd c1 3e 57 da fb be 12 21 3f 3e cf 89 91 bb
       0.37852237 -0.49190018 0.18664959 -0.004441477
000240 f1 2c 9d 3d 2a e4 d0 bd 65 54 a2 3e 37 24 43 3e
       0.076745875 -0.10199769 0.31705013 0.19056784
000250 bc b2 b7 3e 4f 02 09 3d e5 9b 5e 3e 4a 06 90 3e
       0.3587855 0.033449467 0.21739157 0.28129798
000260 67 7e 79 3c 05 d5 a1 3e 07 44 0b be f5 c1 17 3e
       0.015227891 0.31607834 -0.13600169 0.14820082
000270 ba 13 b4 bc 84 ae b8 bd 6d b2 a0 3e 29 8d c3 3e
       -0.021982063 -0.09017661 0.31386128 0.38193634
000280 17 04 8d be c2 0d cf bd c8 80 e1 be 83 2e b3 3c
       -0.27542183 -0.10110046 -0.44043565 0.021872764
000290 0e 2d 1a bf 4a b9 93 3e ae 64 01 bf 28 cd 63 3e
       -0.60225 0.28852302 -0.5054425 0.2224623
0002a0 47 b1 52 3d 80 f9 d6 3e ad bb cf be f2 0e 14 3e
       0.051438596 0.41987228 -0.40572873 0.14458826
0002b0 0f 89 06 bf ae 40 20 bf c8 24 d0 bd 73 5d f4 be
       -0.52552885 -0.62598693 -0.101632655 -0.47727546
0002c0 ab b6 1e bf bf 9f ee be c9 28 ea be 3e fc 1f be
       -0.6199748 -0.46606252 -0.45734242 -0.15623567
0002d0 3e f6 78 be f2 6d 12 bf 4b 57 ef be 7b 6d f7 be
       -0.24312684 -0.57199013 -0.46746287 -0.48325714
0002e0 32 bd 04 bf d3 b3 c0 be e7 03 af be 94 f0 5c be
       -0.5185119 -0.37637195 -0.34182665 -0.21576148
0002f0 94 1f 1e bf fe d8 d2 be 81 5f de be 31 db ed be
       -0.61766934 -0.41181177 -0.4343224 -0.46456292
000300 77 fa da 3e 14 eb 25 be aa f1 ea 3c bc 9f 25 3f
       0.42769215 -0.16202956 0.028679688 0.6469686
000310 68 15 69 3e 18 24 46 3e 81 7f 45 3e 32 03 b8 3e
       0.22762072 0.19349706 0.1928692 0.35939938
000320 6f ce ca be 35 1e 84 be 5c c0 2b 3e 26 89 43 3e
       -0.3961062 -0.25804296 0.16772598 0.19095287
000330 5b 4f 22 3c be 51 54 3e 28 84 50 3d 79 29 ab 3d
       0.009906615 0.20734307 0.050907284 0.0835752
000340 0d 32 cf 3d 96 5b 78 3d 87 37 97 be 50 77 b5 bc
       0.10116968 0.06063422 -0.29534552 -0.02215162
000350 5a b6 e1 be 28 c8 6f be 08 ec 5d be a4 c9 cf 3d
       -0.44084436 -0.23416197 -0.2167207 0.10145882
000360 0e d4 a1 be 5f d4 fa be 71 ad 7f be d1 74 c8 be
       -0.31607097 -0.4899015 -0.24968506 -0.39151624
000370 fb 37 da 3d df 42 5d 3d 43 7d 2a be 61 a5 67 be
       0.10655209 0.05401885 -0.16649346 -0.22621681
000380 04 15 89 be 4f cf 8f be 35 f9 d0 3d 06 9f 8d be
       -0.26773846 -0.2808785 0.102037825 -0.27660388
000390 88 35 b9 be b4 0f 22 be 72 06 6e be 57 9a 04 bf
       -0.36173654 -0.15826303 -0.23244646 -0.51798004
0003a0 26 04 b7 3e 53 c7 2d 3e 50 7e 2c be 95 10 01 be
       0.35745353 0.16970567 -0.1684506 -0.12603982
0003b0 b4 e7 25 be 6a 1c c8 3e e8 97 99 bd fa 16 aa 3e
       -0.16201669 0.39084178 -0.07499677 0.33220655
0003c0 49 01 6a 3e 6c df d3 3a 8c 1c 3c be a7 1a 0b bd
       0.22852053 0.0016164607 -0.18370265 -0.033960965
0003d0 b8 2b ca ba f4 3b 09 3e 78 dc 4d 3e 80 38 45 be
       -0.0015424406 0.13401777 0.20103633 -0.19259834
0003e0 a8 5c 40 3e 03 37 f1 3d a5 be d7 bd f9 7d 13 3e
       0.18785346 0.11778071 -0.105344094 0.14403524
0003f0 9c 67 0f bc 45 15 c5 3e 66 9e 15 be 74 a4 27 3e
       -0.00875273 0.3849279 -0.14611205 0.16371328

b f4 [32]
000000 5c af 03 3f 7a 16 f7 be db 50 e5 3e 56 95 26 be
       0.5143945 -0.48259336 0.4478825 -0.16267905
000010 2e 38 cb 3d 01 90 b6 be 79 c6 43 be f5 e3 ef 3d
       0.09922825 -0.3565674 -0.1911868 0.11713401
000020 6d df 52 be fc b9 d2 3d 10 f3 54 be aa 2d bc 3e
       -0.20593043 0.1028938 -0.20795846 0.3675359
000030 8e 7e be be 1d 96 6c be ff c8 38 be a2 86 b9 be
       -0.3720593 -0.23104139 -0.18045424 -0.3623553
000040 5c b6 aa be d0 c6 8c 3e fa fe 50 be ec ba c3 bc
       -0.33342254 0.27495432 -0.20409766 -0.023892842
000050 0e 33 bb be 1c 7f ae be 75 b2 4a be 9f 41 bb be
       -0.3656239 -0.34081352 -0.19794638 -0.36573502
000060 c4 6a 60 3e 1a 26 f1 bd b8 41 82 3e dd 7e a1 3e
       0.21915728 -0.117748454 0.25440764 0.31542102
000070 8c 65 c3 be bd 36 0f 3e d2 9a 34 be 47 11 40 3e
       -0.38163412 0.13985725 -0.17637184 0.18756591

W f4 [32, 32]
000000 9f ef 14 3d 1a e0 14 bf f0 91 87 3d 0c 07 eb 3d
       0.036361333 -0.5815445 0.06619632 0.114759535
000010 e1 9d 8a 3e 25 6e 43 3f 08 13 c5 be 64 d6 c0 be
       0.27073577 0.7633994 -0.38491082 -0.37663567
000020 f2 db ad be 63 9a 62 3e 28 f7 96 3d fa 13 96 be
       -0.33956867 0.22129206 0.0737136 -0.29312116
000030 9b 7e 81 3e cb c3 09 bd c5 5e e4 3e fd 32 88 3e
       0.25291905 -0.03363399 0.44603553 0.266014
000040 af cd 82 3d 7c 50 98 bc 1b 9e ed 3e 62 06 c6 3e
       0.06386887 -0.018593065 0.46409687 0.38676745
000050 90 1d 65 3e 60 0d 19 3e 5a f6 91 3d 40 44 87 3e
       0.22374558 0.14946508 0.07127066 0.26419258
000060 ce 9a ef 3e 05 5d 64 3e 4a 6f a5 3d 70 a1 6d 3e
       0.46797794 0.22301109 0.08077867 0.23206115
000070 a5 74 9b 3e 7e d5 da 3e 71 3c 89 3e 6d 54 8e 3e
       0.3036243 0.42741007 0.26803926 0.27798787
000080 96 51 7d 3d b1 27 10 3e c2 93 ab 3b ca 2a a9 bb
       0.061845385 0.14077641 0.00523612 -0.0051625716
000090 77 51 e6 ba f9 e6 6d 3e cf 6c 33 bf fd 18 7e 3d
       -0.0017571886 0.2323264 -0.70087904 0.06203555
0000a0 7f 18 94 3e 31 46 13 3f b4 56 02 be 75 e5 dc bd
       0.2892494 0.5752898 -0.12728387 -0.10785953
0000b0 1b 1d c0 be 4c cc 15 bf 3f fe bc be fd 5a 1a bf
       -0.37522206 -0.5851486 -0.36912724 -0.6029509
0000c0 95 bc 85 3d 88 27 f1 bd 20 a2 3b 3e cd 78 97 3d
       0.0653011 -0.11775118 0.18323565 0.07396088
0000d0 90 91 01 be 02 5b dd 3c 00 31 2c bd 57 5a e9 be
       -0.12653184 0.027020935 -0.042038918 -0.45576736
0000e0 bd cc 78 be 48 4b 68 be fc d4 24 3e d3 88 63 be
       -0.24296851 -0.22684968 0.16096872 -0.22220163
0000f0 7a cd 35 be ca 72 ea be 7f 3b b9 3d f4 a4 bb be
       -0.17754164 -0.45790702 0.09044551 -0.36649287
000100 67 25 37 be f3 15 05 3f 56 aa d2 bd 3d 14 fa 3e
       -0.17885362 0.51986617 -0.10286395 0.48843566
000110 64 18 6a 3e d2 e2 14 3f 32 1c ea 3c 25 a1 dd bd
       0.22860867 0.581586 0.028577898 -0.108217515
000120 35 24 07 3f 61 9d 05 bf 17 94 05 3f 7f 06 9d 3d
       0.5278962 -0.52193266 0.5217909 0.07667255
000130 e0 6a d4 3d 4a 33 03 3f c8 aa 9e 3e 25 ed ff 3e
       0.10371947 0.51250136 0.3098967 0.49985614
000140 6f 77 ed 3e 5b f8 05 3f 72 97 c6 3e 91 71 2e 3e
       0.46380183 0.52332085 0.3878742 0.1703551
000150 a7 75 f3 3e df cb e1 3d 96 1c 72 3e 42 f3 c3 3e
       0.475507 0.110252135 0.23643717 0.38271528
000160 2d db ba 3d 69 74 e9 3e 12 96 9d 3e 99 14 3c 3e
       0.09123836 0.45596626 0.30778557 0.18367232
000170 14 72 0a 3e 8a 9c 82 3e e0 2a fc 3e 2d 57 18 3f
       0.1352008 0.25510055 0.4925146 0.5950802
000180 45 20 24 3e df 0d 62 be a3 83 62 bd b2 c4 ea 3d
       0.16027935 -0.22075604 -0.05530132 0.11463298
000190 34 b2 11 3f 2c df 05 bf e5 ab 1b 3f 6b f0 a1 be
       0.5691254 -0.5229366 0.60809165 -0.31628737
0001a0 62 4b b3 be 42 29 b7 be 11 7a 97 3e 8d 3d 81 3e
       -0.3501845 -0.35773665 0.29585317 0.25242272
0001b0 98 0e 3f 3f b2 1a dc 3e ec 93 00 3e c4 00 ef 3e
       0.74631643 0.42989117 0.12556428 0.46680272
0001c0 12 68 7d be f7 f7 0b 3f 5e a7 02 3e 90 32 a8 3e
       -0.24746731 0.5467524 0.12759158 0.32851076
0001d0 08 f6 48 3d 0d 1b 86 3e b0 45 98 be 4c be 3f 3f
       0.04906276 0.26192513 -0.29740667 0.74899745
0001e0 46 46 a6 be 37 28 fe 3e 4e 1a fe bd 57 6c 70 3e
       -0.3247549 0.49640056 -0.12407361 0.23478828
0001f0 f5 c1 b1 be 60 86 e8 3e 44 7f c0 3d dc ab 91 3e
       -0.3471829 0.4541502 0.09399274 0.2845143
000200 69 2a f4 be 02 a4 ca 3d fd e2 2e 3f 10 44 4a 3f
       -0.47688606 0.09894563 0.68315107 0.79010105
000210 22 2a 33 bf be 10 3b 3f d2 26 ca be ef 13 f4 3e
       -0.69986165 0.7307242 -0.39482743 0.47671458
000220 3a 7f 4f 3f 36 62 f2 be 57 d3 33 bf e8 be 18 3f
       0.8105351 -0.47340554 -0.70244354 0.596663
000230 c6 fd 92 be 67 b1 9d be 61 e3 00 bf ad db 67 bf
       -0.2870924 -0.3079941 -0.5034695 -0.90569574
000240 47 b2 b4 be ea 43 08 bf cd 9b ff be c8 e6 e5 be
       -0.35292265 -0.5322863 -0.49923554 -0.44902635
000250 12 a2 13 bf 99 f8 b4 be 9b d4 17 bf 1a a6 16 bf
       -0.57669175 -0.35345915 -0.59308785 -0.588472
000260 d0 0e 53 bf 9b 9a be be 0a 42 32 bf a5 c9 14 bf
       -0.8244448 -0.3722733 -0.6963202 -0.58120185
000270 d6 ba 52 bf 80 e4 0c bf 23 ba 03 bf b0 9a 97 be
       -0.8231634 -0.55036163 -0.514559 -0.29610205
000280 4d 67 f8 be 9c 1d 57 3c f5 b7 59 3e 53 12 9a be
       -0.48516312 0.013129618 0.2126158 -0.30092105
000290 d0 06 d4 be 40 c5 15 3d d5 e2 04 be b4 a3 e9 3b
       -0.41411448 0.036565065 -0.12977155 0.0071301106
0002a0 35 59 52 3d bb f3 c9 bc 3f 02 7a bd 74 30 bb 3e
       0.051354606 -0.024652353 -0.0610373 0.36560404
0002b0 65 5c 48 bd 99 b6 94 be 98 c5 71 3c b9 16 4e be
       -0.04891624 -0.2904556 0.014756583 -0.20125856
0002c0 18 85 a7 3b 45 7a c5 be c3 97 31 3c 94 69 e3 bd
       0.0051123016 -0.38569847 0.0108394055 -0.11104122
0002d0 72 a6 f4 be bd fe 2c 3d 74 ca 1c be 74 48 a5 bd
       -0.47783238 0.042235125 -0.15311605 -0.0807046
0002e0 a4 30 6a be 5c b9 f0 be 89 2c 25 be 0c dc fc be
       -0.22870117 -0.47016418 -0.1613027 -0.49386632
0002f0 0d e7 6d bd 36 df d8 bd 43 9e f9 be 79 fb 55 be
       -0.058081675 -0.10589449 -0.48753557 -0.2089671
000300 c4 8c a3 be 7e 52 2d bf 31 f8 5d 3d b1 e6 5c 3f
       -0.31943333 -0.67704 0.054191772 0.8628951
000310 a0 11 99 bd 52 6b 16 3e 47 f1 1a be 71 a1 ab be
       -0.07474065 0.14689377 -0.15131103 -0.33521608
000320 ab f8 fb 3e 08 ab cf 3e 0b 3e d8 be e9 8a a5 bd
       0.49213156 0.40560174 -0.42234835 -0.08083136
000330 2a c3 ef 3d 13 26 9d be 34 01 b0 3b 4f d4 e2 bd
       0.117071465 -0.3069311 0.005371237 -0.11075651
000340 a8 f6 95 3e 3b c4 cd 3d 81 5b 5d be c2 0d 24 3e
       0.29289746 0.100471936 -0.21616937 0.16020873
000350 75 66 a9 3d 72 90 8c be f9 0a 00 3e 0d bb 09 be
       0.08271495 -0.27453953 0.12504186 -0.1345026
000360 c9 cf 4c 3e 9a 26 c4 3c 2c 74 03 3e 1d 14 aa 3d
       0.20001139 0.023944188 0.12837285 0.083046176
000370 09 29 90 3e d1 40 f9 3d 9c 81 3a be 3b 08 96 bd
       0.28156307 0.12170566 -0.18213505 -0.073257886
000380 7a 5f 08 3e 81 9c 2c 3e 39 9d 87 3d 5b 4e d4 3e
       0.13317671 0.16856577 0.06621785 0.4146603
000390 a5 53 b4 bd ca 3a 66 be 1a fe f6 3d 30 c8 00 3f
       -0.088050164 -0.22483364 0.12060185 0.5030546
0003a0 9f 34 18 bf dd fa 1b be 2a b3 d1 bd 02 b0 07 bf
       -0.59455293 -0.15232415 -0.10239251 -0.5300294
0003b0 02 05 dc bd 6f c8 fe be e3 76 44 3e d0 8d b9 3d
       -0.10743143 -0.49762294 0.19185977 0.09060252
0003c0 67 e5 88 bc 32 8c 9b be 2a 76 90 3e 19 d2 1d 3e
       -0.01671095 -0.30380398 0.28215152 0.15412177
0003d0 ac d9 1a be 42 28 93 bc d5 e8 b6 3e ff c2 e5 3d
       -0.15122098 -0.017963532 0.35724512 0.11218833
0003e0 fa 2e a2 bc e2 10 7b bd 9d b3 3c 3d 59 6c 10 be
       -0.01979779 -0.061295398 0.04606973 -0.14103831
0003f0 8a 02 b8 3e f0 76 8c bd ac 56 38 be a7 e7 e7 3c
       0.35939437 -0.06858623 -0.18001813 0.028308703

b f4 [32]
000000 2a 38 94 3e 0c e0 49 be 42 2c ac 3e cd 71 e3 3e
       0.289491 -0.19714373 0.33627516 0.4442276
000010 cb 62 19 bf 08 2c 64 be 6c 01 64 3c d4 ea 90 bd
       -0.5991637 -0.22282422 0.013916355 -0.0707604
000020 e7 d4 b0 3e ec 2f 0f 3e 77 39 5e be 3e 5e b3 be
       0.34537432 0.13983124 -0.21701609 -0.3503284
000030 56 f1 d7 3e 2a 3b 2c 3e 27 fa 8a 3e d7 e9 2f be
       0.42176312 0.16819444 0.27143976 -0.17179047
000040 87 52 c1 be 7a b9 54 be 6b a7 ae be 42 e8 63 3e
       -0.37758276 -0.20773879 -0.34112105 0.22256568
000050 9a 96 33 3e b5 e3 a4 be 44 af b7 be 3f 22 d3 3e
       0.17537919 -0.32204977 -0.35875905 0.41237065
000060 45 7b a0 be c6 00 a1 3e b8 69 5c 3e 52 a2 bf 3e
       -0.31344047 0.31445903 0.21524704 0.37428528
000070 53 2f 35 bd fc ac 3c be 40 2c 4d be 66 89 b7 3e
       -0.044234585 -0.18425363 -0.20036411 0.35847014

W f4 [32, 32]
000000 8d 0c 20 3f 47 5a 06 bf 0a aa b9 3c 99 79 dd 3e
       0.6251915 -0.524815 0.022664089 0.43256834
000010 5a d6 4a bd aa 9d 8b be ff b3 17 3f 62 3b fb be
       -0.049520828 -0.27268726 0.5925903 -0.49068743
000020 d5 fb 09 3f 7d 97 cd be a7 3a 58 3f ab 46 dc 3d
       0.5389989 -0.4015464 0.84464496 0.10755666
000030 ed d9 93 bd 8b 4b 82 3e 4f 69 86 be ec 3b 50 be
       -0.072193004 0.2544826 -0.2625222 -0.20335358
000040 d0 68 f7 bd 6e 51 a6 be 30 3c 4d be 1b 9a 10 be
       -0.12080538 -0.32484 -0.20042491 -0.14121287
000050 41 65 26 bf 15 08 4d 3d d4 9a 27 be 4e 89 fb bd
       -0.6499825 0.050056536 -0.16367656 -0.12282048
000060 8c 9a 01 bf 4f c8 c8 be 5c 36 45 be dd 1f 74 be
       -0.50626445 -0.39215323 -0.19259018 -0.2384028
000070 d2 70 c5 bd 62 ce 00 bf 7c 86 4f be a4 26 3f be
       -0.096406594 -0.50314915 -0.20266145 -0.18667084
000080 2c 24 b4 3d df d6 13 bf 29 86 64 be dd fa 32 3e
       0.08795962 -0.5774974 -0.22316803 0.17478509
000090 6b 1e c1 be 42 61 4c 3c 5c 57 c9 be 2d 3d 70 3e
       -0.3771852 0.01247436 -0.39324462 0.23460837
0000a0 61 38 be 3e db 35 6b bd 9b c7 8e 3e a9 e2 f1 3e
       0.3715239 -0.057424407 0.27886662 0.4724324
0000b0 c8 4f 8c bd 35 bf 83 3d 22 ce f5 bc 34 b6 31 be
       -0.068511546 0.06432954 -0.030005518 -0.17354661
0000c0 15 41 26 be dd 9b 65 be 24 98 32 3e ae d1 43 be
       -0.16235764 -0.22422738 0.1744085 -0.19122955
0000d0 1a fb d7 bc 9e e7 0b 3e dd 97 b0 be a5 9f 9c 3e
       -0.026364852 0.13662574 -0.34490862 0.3059055
0000e0 d9 1e c7 bc 85 d4 20 3d 8e f6 a7 bd fc 62 6f be
       -0.024306701 0.039265174 -0.082013234 -0.23377603
0000f0 7e 7f f6 3d 69 d5 31 3e f5 5b 04 be 41 3c b8 bc
       0.12036036 0.17366566 -0.12925704 -0.022489669
000100 28 3a 9a bd 04 f0 4b 3d e8 8a 0d bf 80 3d 31 be
       -0.07530624 0.049789444 -0.5529008 -0.17308617
000110 0d 8a 25 bd 59 45 1c 3f ee 04 2f bf fd 58 17 bf
       -0.04041486 0.61043316 -0.683669 -0.5912016
000120 97 57 f4 3e 24 bb ad bd c0 b9 3a 3f d5 7d e7 be
       0.47723076 -0.0848296 0.7293968 -0.4521319
000130 a2 f4 38 3f 97 1a 1c 3f e3 77 e3 3e 14 5f 1c 3f
       0.7224828 0.6097807 0.44427404 0.6108258
000140 05 f2 f5 3e 74 09 b0 3e 7b bb c4 3e 06 61 cc 3e
       0.4803621 0.34382212 0.38424286 0.39917773
000150 ae 70 ab 3e b5 47 3f 3f 6f 45 e0 3e 1b 5b 3f 3f
       0.33484405 0.7471879 0.43802974 0.7474839
000160 99 b6 05 3f de ef dc 3e af 86 44 3e 19 6f 37 3f
       0.52231747 0.43151754 0.19192003 0.71653897
000170 66 b7 ea 3e 5d 2f 71 3e d8 e7 68 3e e9 13 2d 3f
       0.45843047 0.23553224 0.22744691 0.67608505
000180 b5 64 e0 be 08 a2 da 3c 5b 8d a0 be e2 56 8f be
       -0.43826833 0.02668859 -0.31357846 -0.27995974
000190 94 79 e9 3e 14 c4 c9 3e 44 bf b2 be 59 e7 c3 be
       0.4560057 0.39407408 -0.3491155 -0.38262442
0001a0 5e 05 6a be 14 8e 52 3e 76 d0 33 3e be 81 9a be
       -0.2285361 0.20562011 0.1755999 -0.3017711
0001b0 d5 c4 b3 3e 2b 84 23 be 9c 49 8e 3e 66 ec 1c 3f
       0.35111108 -0.15968387 0.27790534 0.61298215
0001c0 4a 8d b0 3e 0e 43 c6 3e 52 aa 4d 3e 1f 2b d6 3e
       0.34482795 0.38723034 0.20084503 0.41829774
0001d0 e4 e9 bd 3e 65 60 06 3f 5d 51 d9 3e ee bc 0e 3f
       0.37092507 0.52490836 0.42444888 0.55757034
0001e0 b8 9a 18 3f 09 9f 90 3e 13 fa 53 3e 5a cd ec 3e
       0.5961108 0.28246334 0.20700864 0.4625042
0001f0 ba 0f 1e 3f b4 85 a2 3e 03 88 4d 3e 14 71 0b 3f
       0.61742747 0.31742632 0.20071416 0.5446942
000200 9f b0 a9 3e 85 33 2c be 44 15 29 be fc 1b f7 3d
       0.33142564 -0.16816528 -0.16512018 0.120658845
000210 e2 a1 2c 3f 3a 71 66 3e c1 9d 4d 3e f5 58 89 be
       0.67434514 0.2250413 0.2007971 -0.2682568
000220 ce 5f 07 3f 78 59 7c be c5 57 94 be 89 2d 2b 3f
       0.5288056 -0.24643505 -0.28973213 0.66866356
000230 d9 01 b8 be 48 22 78 3d 28 95 bf be 3c c5 21 bf
       -0.3593891 0.06057957 -0.37418485 -0.6319158
000240 a8 91 21 bf 35 65 12 bf 55 d2 49 be 9d ee 33 bf
       -0.6311288 -0.5718568 -0.19709142 -0.7028597
000250 f4 46 10 bf 8c df 1e bf 2b a9 24 be 78 89 e6 be
       -0.56358266 -0.62059855 -0.16080157 -0.45026755
000260 eb 15 2e be d0 bd 01 bf bc 5d fe be 57 f0 3e be
       -0.17000549 -0.50680256 -0.4968089 -0.1864637
000270 58 04 a8 be 7a 00 20 bf 45 1c 37 bf f8 83 0a bf
       -0.32815814 -0.6250073 -0.7152751 -0.5410762
000280 83 a9 31 bd 72 ab c6 3d c2 83 d6 3e 8f c7 01 bf
       -0.04337455 0.09700669 0.41897398 -0.5069513
000290 ba e0 30 3e fa f9 9c 3e 50 1a 7d 3e 88 64 99 be
       0.17273226 0.30659467 0.24717069 -0.29959512
0002a0 18 6c a6 be 91 b7 a9 be e4 57 f0 3c 9b 63 d0 3d
       -0.32504344 -0.33147863 0.029338785 0.10175248
0002b0 ca 7c 94 3e 8d 69 ee 3e d6 92 63 3e d7 77 1d bc
       0.29001456 0.46564904 0.22223982 -0.009611092
0002c0 48 a7 a3 3e cf eb 87 3e 95 62 97 3e f6 ad fa 3e
       0.31963563 0.26547095 0.295674 0.48960847
0002d0 f0 7f cd 3e 86 dd 1b 3e c1 d9 f2 3e ce 23 c1 3e
       0.4013667 0.15221223 0.47431758 0.3772263
0002e0 00 09 4c 3d d2 f6 98 bd a8 c5 62 3e 00 55 91 3e
       0.04981327 -0.07468952 0.22145712 0.28385162
0002f0 b4 2e 9a 3c 17 77 b9 3e 8c 9c 58 3e cc 68 e9 3b
       0.018821098 0.3622367 0.21153468 0.0071230885
000300 aa 22 3a be db 6b 0c 3e 4d a3 28 3f 74 5c 26 3f
       -0.18177286 0.13713019 0.6587418 0.6498482
000310 1e e3 12 3f 85 d3 5c be 8c c5 ea 3e df 50 d8 3e
       0.57377803 -0.21565063 0.4585384 0.422492
000320 25 b0 26 bf b8 bf 6a 3e db 67 b2 be ef 33 96 3e
       -0.65112525 0.22924697 -0.3484486 0.29336497
000330 cd bb 9e be bd 40 29 bf 10 9d 5b be a6 50 8f be
       -0.31002656 -0.6611441 -0.21446633 -0.27991217
000340 41 28 73 be c6 c3 15 be cc 6d a6 bd 65 f8 01 be
       -0.23745824 -0.14625463 -0.08126411 -0.12692411
000350 70 70 23 be 62 67 5d be ff 28 49 be bf 38 9d be
       -0.1596086 -0.21621469 -0.19644545 -0.30707356
000360 1f fd 4d be 57 44 ce bc 92 53 31 bc 97 71 f6 be
       -0.2011609 -0.025179071 -0.010823147 -0.48133537
000370 05 8b a6 bd 7e a9 29 be 93 58 2c be 16 3a 8f be
       -0.081319846 -0.16568562 -0.16830663 -0.27974004
000380 fc 6e 56 be 76 61 92 be 5b 99 00 bd e0 b6 ca be
       -0.20940775 -0.28589982 -0.03139625 -0.39592648
000390 74 cd 7b 3e 74 0a 7b bc 76 b7 9e be 50 d8 f2 3e
       0.24590093 -0.015322316 -0.30999345 0.47430658
0003a0 99 59 d5 3d 5a 02 d5 3d 6a 8d ed be 4b d7 04 bf
       0.1041748 0.10400839 -0.46396953 -0.5189101
0003b0 8e f6 fa 3e 49 ab b8 be a5 2c 0f 3f 77 6b 75 3e
       0.4901623 -0.3606818 0.559275 0.23966776
0003c0 86 24 99 3e 11 c7 bb 3e 03 7c 1a 3f f7 b0 91 3e
       0.29910678 0.36675313 0.60345477 0.28455326
0003d0 a1 21 80 3e 6d 2b 89 3e df f5 3f 3e 49 eb b3 3d
       0.25025657 0.26790944 0.18746136 0.087851115
0003e0 f6 20 c0 3d 56 01 02 3f f3 94 06 3f 75 e8 3c 3e
       0.09381287 0.5078329 0.5257103 0.1844805
0003f0 6f e1 d9 3e 3d e7 f1 3d 7a c4 b1 3e 2b 26 05 3f
       0.42554805 0.11811683 0.34720212 0.52011365

b f4 [32]
000000 36 e9 60 be 1b 7f 13 3d a9 ca e0 3e 6e 60 b8 3e
       -0.21963963 0.03600989 0.43904617 0.3601107
000010 2b f2 dd be 5d 72 58 3e 15 fb aa be d1 82 b4 3e
       -0.43348822 0.21137376 -0.33394685 0.35256055
000020 3d e1 a0 3e c9 c1 60 be 85 d7 4d 3e 40 11 09 3e
       0.31421843 -0.21948923 0.20101745 0.13385487
000030 66 ae 79 3e 02 5f aa 3e e0 d7 6d 3e b7 4b a6 be
       0.24382934 0.3327561 0.23226881 -0.3247964
000040 c1 7c a4 be e1 4c af 3e d1 2a a6 be 15 7a 61 be
       -0.3212643 0.3423834 -0.3245454 -0.22019227
000050 f9 40 16 be 7b 8d ad be 23 07 1a 3e 7e fb ae 3e
       -0.14673223 -0.33897004 0.15041785 0.34176248
000060 98 49 c6 3e 71 4d 06 bd 3f 10 87 be f8 31 a3 be
       0.38728023 -0.032788698 -0.26379582 -0.3187406
000070 cf fe 28 bc 5e b1 54 be 3a b7 af 3e 07 c8 ba be
       -0.010314657 -0.20770785 0.34319478 -0.36480734

W f4 [32, 32]
000000 b8 f2 6a be dc 64 1a 3f 4d e1 2b 3d 1e 52 55 bd
       -0.22944152 0.6031015 0.04196291 -0.052080266
000010 1f 45 e6 3e 10 01 9c 3e 3e 06 ab 3d d8 60 ab be
       0.4497461 0.3046956 0.083508 -0.33472323
000020 d1 ac c8 bd e3 49 ef 3e b6 35 9d be ca 15 ca be
       -0.09798587 0.4673606 -0.3070504 -0.3946975
000030 e4 8c 2b 3f 80 44 ce 3e 41 73 c3 3d 1b a1 01 be
       0.6701186 0.40286636 0.09543467 -0.12659113
000040 ea 33 a1 bd 90 d1 de 3d e7 b0 30 be a8 af d7 be
       -0.0787123 0.108798146 -0.17254983 -0.42126203
000050 39 c6 a9 bc 14 4a d0 3e 14 fe 09 3e fb 65 ef 3e
       -0.020724403 0.40681517 0.1347583 0.46757492
000060 ec a4 2d be ac 0a 79 3e 05 7f aa be 5b fd b0 be
       -0.16957444 0.24320477 -0.33300033 -0.34568295
000070 0a 33 52 3e b8 86 39 3f ab 50 9e be ce 7e 0a 3e
       0.20527282 0.7247119 -0.3092092 0.13524935
000080 e8 ec 57 bd 3c 73 26 bf 1d a4 ed 3e 92 64 e3 3d
       -0.052716166 -0.65019584 0.4641427 0.11103167
000090 13 af dd be 19 7a 98 3e b8 21 20 3e 0c 2c 19 be
       -0.43297634 0.29780653 0.15637863 -0.14958209
0000a0 23 1e ec 3e 7c 1f 1f bf e8 41 de 3c 34 97 f1 3e
       0.46116742 -0.62157416 0.027131036 0.4718567
0000b0 b5 8f ef bd ad 53 b9 3e 95 72 59 3d 9d c9 e3 be
       -0.11697332 0.36196652 0.05308779 -0.44489756
0000c0 05 20 90 3e 9c 85 1e bf 4d 0b e5 3e bf a6 1d 3f
       0.2814943 -0.6192262 0.44735184 0.6158256
0000d0 90 40 69 be 7f 39 a8 bc 70 f5 b7 3e 17 3c 7a be
       -0.22778535 -0.020535229 0.3592944 -0.24436985
0000e0 5c b2 85 3e 63 aa d7 3c 3b 4f 45 3c 9f c9 2f 3e
       0.2611264 0.026326364 0.012042816 0.17166756
0000f0 d4 a0 b7 be a2 5d 94 bd 10 20 bb 3e 56 d3 24 bf
       -0.3586489 -0.072444215 0.365479 -0.64384973
000100 07 a0 fe 3e 39 51 93 be 2e 43 23 3f 5a c4 a3 be
       0.49731466 -0.28772905 0.63774383 -0.31985742
000110 e3 87 cf be a8 3a 08 bf e1 01 ac 3e 88 7f bd be
       -0.4053336 -0.532145 0.33595183 -0.3701136
000120 6a e1 b9 bc c2 46 98 be ec 87 14 3f 6e 04 06 bd
       -0.022690494 -0.29741484 0.580199 -0.03271907
000130 96 10 e6 be b7 49 f8 be 11 bb b2 bd 68 65 b1 be
       -0.4493453 -0.4849374 -0.08727086 -0.3464768
000140 e9 75 24 be ae 1b 02 bf d6 11 bb 3e ea 6e 59 be
       -0.16060604 -0.50823486 0.36537045 -0.21233717
000150 b4 5f e8 bd 4a 4b ca bd d8 45 0e 3e b5 fd 49 3d
       -0.11346379 -0.098776415 0.13893831 0.04931422
000160 77 f9 cc bd 8a 29 31 bf f3 cb 29 3f 2e e2 df bd
       -0.10008519 -0.6920401 0.66326827 -0.10931812
000170 fe 96 9d be b3 87 2a 3e 10 3c 20 3c 3c a7 ab bc
       -0.3077926 0.16653328 0.009779945 -0.020953767
000180 b6 60 f8 3e 86 cf 17 bf 7a 9c f1 3e e8 96 b5 bd
       0.48511285 -0.5930103 0.47189695 -0.08866674
000190 8d f1 5f 3e 7f 29 0b 3f 34 79 9f be 26 e6 fb 3e
       0.21869488 0.54360193 -0.31147158 0.49199027
0001a0 c3 f8 03 3e 46 d6 a1 be d6 9d 8b 3e 68 58 4b 3e
       0.12887864 -0.3160879 0.27268857 0.19857943
0001b0 ab 82 53 3e 82 ab f8 3e e3 db 18 bf 5f 7b 63 3e
       0.20655315 0.4856835 -0.5971052 0.22215031
0001c0 f2 94 2c 3e b4 75 bc 3c f3 20 95 3e 75 5a bc 3e
       0.16853693 0.023005344 0.291267 0.36787763
0001d0 c2 4f e3 3e 7d af 3f 3e 3f a5 6b be 03 d2 bb 3e
       0.44396788 0.18719287 -0.23012255 0.36683664
0001e0 a2 c4 ac 3e f7 a0 ac bd 4a 27 ff bd 87 45 ba 3e
       0.3374377 -0.08429139 -0.12458666 0.3638117
0001f0 73 37 09 3e aa 8b 75 bc 37 aa 84 be 26 1c 88 3d
       0.13400058 -0.014986912 -0.25911114 0.06645994
000200 89 62 c7 be 95 b2 f7 3e 60 74 be be 6b 84 c6 be
       -0.38942364 0.48378435 -0.37198162 -0.38772902
000210 a8 88 b2 bd dd 28 ea bc c0 11 94 3e 62 b5 19 bf
       -0.08717471 -0.028583938 0.28919792 -0.60042393
000220 de 77 aa bd 4e 95 b7 3e 26 cb 8b bb 45 fd b9 3d
       -0.08323644 0.35856098 -0.0042661605 0.090815105
000230 94 2c 02 be 33 cc a4 be 6d da f4 3e ef 3d 58 be
       -0.12712318 -0.32187042 0.47822896 -0.21117376
000240 4d d8 c6 be 79 59 15 3f 2b d1 27 3f cc a5 e2 be
       -0.388369 0.5833965 0.6555354 -0.44267118
000250 2b 1f d3 be 45 9a 9b be 19 8a f0 3e a0 8b 4b be
       -0.41234717 -0.30391136 0.4698036 -0.19877481
000260 c3 3f 4e be e1 3c 4f 3d 81 98 06 3f 97 52 8c be
       -0.2014151 0.050595168 0.5257645 -0.2740676
000270 90 c1 f1 be af e5 03 3d 34 f4 5f 3e b7 12 ac be
       -0.4721799 0.032201465 0.218705 -0.33608028
000280 04 6d ff 3e 0a 35 21 3e 6e af 81 3e d4 43 84 be
       0.4988786 0.15742889 0.25329155 -0.25833
000290 73 b1 3a be 0a 20 83 3d b9 de e8 3e 0f 9a b5 be
       -0.18231754 0.06402595 0.45482424 -0.354691
0002a0 a6 35 19 bf 10 11 4c 3e 3c b0 80 bd 4d 8c 04 bf
       -0.59847486 0.19928384 -0.06283614 -0.5177658
0002b0 57 17 f3 be f1 33 8e 3e f6 61 a4 3e 7f cb ab be
       -0.47478744 0.27774003 0.32105988 -0.33553693
0002c0 ea a8 42 bf 2b 14 4b 3c 5d 7e cc 3e 30 f0 d7 be
       -0.7603899 0.012394945 0.39940158 -0.42175436
0002d0 c3 bf d0 be 7a a6 7e 3d fd f8 1d 3f 97 6c 6f bd
       -0.40771303 0.062170483 0.6170805 -0.05845317
0002e0 ed 59 49 bf 84 d9 f1 3e d7 95 db be b9 2d fd be
       -0.7865284 0.47236264 -0.42887756 -0.49448946
0002f0 21 13 00 bf 31 2d 03 3f e3 07 19 3f c9 10 44 be
       -0.5002919 0.5124083 0.5977766 -0.19147028
000300 02 73 2a 3e 08 4b 1a bd a0 e3 99 3e 36 1a af 3e
       0.16645434 -0.03766921 0.30056477 0.34199685
000310 65 1b 4e 3e b9 d7 bd be a1 41 3a 3d 81 fb dd be
       0.20127638 -0.37078646 0.045472745 -0.43355945
000320 c4 19 00 3e 41 dd f9 3d e9 a6 03 3d 8a 22 0a be
       0.12509829 0.12200404 0.0321416 -0.13489738
000330 b1 5b 25 be d2 25 af be b8 9b ba bd b4 92 ed be
       -0.16148259 -0.34208542 -0.09111732 -0.46400988
000340 0e 3c 16 3f 0d c2 c0 3e 21 f4 b1 3e 1b 6b 83 3d
       0.58685386 0.3764805 0.34756568 0.06416913
000350 67 7d 95 be b0 ea 1c bd be 61 89 3e 65 56 c7 be
       -0.29197237 -0.038309753 0.26832384 -0.389331
000360 53 7f 6b 3e 4e 1a d6 3e 74 14 4b 3f 91 5f b5 be
       0.22997789 0.41816944 0.79328084 -0.35424474
000370 8d a2 03 be ec 28 92 3e cc 20 39 3e bd 42 21 be
       -0.12854977 0.28546846 0.18078917 -0.15748115
000380 90 e0 2f bf 98 28 bf be e9 62 c4 be 94 c9 71 3e
       -0.6870203 -0.37335658 -0.38356712 0.23612052
000390 96 c3 16 3d 06 33 1e be 6f eb c1 bb dd 7e 90 3e
       0.03680762 -0.15449151 -0.0059179584 0.2822179
0003a0 74 a8 43 3e 3f 4b 0c bf 5a 2b 2a bf 52 4a 30 3e
       0.19107229 -0.54802316 -0.664724 0.17215851
0003b0 84 1a 1e 3f ee c8 60 bd ee 9d a2 be 9d dc 20 3f
       0.6175921 -0.05487912 -0.31761116 0.6283663
0003c0 c1 70 a0 3e 31 0a 58 be 6a 68 5a be fc 17 10 3e
       0.31336024 -0.21097638 -0.21328893 0.1407165
0003d0 38 c3 09 3f 5b 58 ab be a7 2a 00 be 1b b2 1f 3e
       0.53813505 -0.33465847 -0.1251627 0.15595286
0003e0 03 1b a1 be 4e ae 13 bf 4e 83 75 be bc 5d f1 3e
       -0.3146592 -0.5768784 -0.2397587 0.47141826
0003f0 8c 72 24 3e 36 45 c5 bd 09 09 34 be fb c4 9d 3e
       0.16059321 -0.096323416 -0.17581572 0.30814347

b f4 [32]
000000 1f 07 ef bd 82 e7 a2 3e 54 6f 38 3e 47 0c 47 be
       -0.1167128 0.3181725 0.18011218 -0.19438277
000010 73 3b c0 3e 19 f1 ac be 7c 67 ac 3e 2d cd 72 be
       0.37545356 -0.33777693 0.33672702 -0.23711081
000020 37 e8 ae 3e ae 44 e0 bd a3 80 f8 3d 51 c4 74 3c
       0.3416154 -0.109505996 0.121339105 0.014939384
000030 a2 a5 a7 be 53 b4 ad be 34 61 0d 3f a4 d5 3c 3e
       -0.32743555 -0.3392664 0.55226445 0.18440872
000040 10 ab 46 3e 13 85 33 3e 12 36 b6 be 58 94 bc 3e
       0.19401193 0.17531233 -0.35588127 0.36831927
000050 51 ff f1 3d f0 0b be 3e 4e 68 ce 3e 0e a6 ba be
       0.11816276 0.37118483 0.40313953 -0.36454815
000060 5a a1 6a be de a5 da be b4 01 5b 3c 9c 8b bd be
       -0.22913113 -0.42704672 0.013367105 -0.37020576
000070 11 49 c2 bd fc 6f ae be e7 37 5c 3e 79 48 4f be
       -0.094865926 -0.34069812 0.215057 -0.2024249
