model.pth (torch, 245248 bytes, 52 tensors)

embeddings f4 [99, 32]
0	0x3ed03d9b	0.40672
1	0xbe494136	-0.19653782
2	0xbdbfdd8e	-0.0936843
3	0x3c888496	0.016664784
4	0x3d2fecae	0.042950325
5	0x3ea4e9d2	0.3220964
6	0xbce578e7	-0.028011752
7	0x3e155a56	0.14585242
8	0x3e8e0ab1	0.27742532
9	0x3e99ffa4	0.3007785
10	0xbeb9e55c	-0.363078
11	0xbdfcc8e3	-0.123430036
12	0x3d6a0332	0.057131954
13	0xbe0b249f	-0.13588189
14	0x3e346f56	0.17620596
15	0x3e01995b	0.12656157
16	0x3e51d7c3	0.20492463
17	0x3eca620f	0.39527938
18	0x3e20cf93	0.15704183
19	0x3dcb8b89	0.099387236
20	0x3e2c2cf4	0.16814023
21	0xbecc82e6	-0.39943618
22	0xbe10fe2a	-0.14159456
23	0x3e57e7eb	0.21084563
24	0xbe2d865b	-0.16945784
25	0x3eb3c3fe	0.35110468
26	0x3d685165	0.05671825
27	0x3de7d216	0.113193676
28	0xbd97b085	-0.07406715
29	0xbe106c6e	-0.14103863
30	0xbe865e51	-0.26243833
31	0xbddac96b	-0.10682949
32	0x3e301fb8	0.171996
33	0xbddbbc85	-0.107293166
34	0xbdd4045c	-0.10352394
35	0x3e62f49e	0.22163627
36	0xbec4ff75	-0.38476148
37	0xbe93efdc	-0.28893936
38	0x3dbb747f	0.09153079
39	0xbe49c805	-0.19705208
40	0x3f1060c3	0.56397647
41	0xbdcb802c	-0.09936556
42	0x3e4b2de7	0.19841729
43	0x3e9bb20b	0.30409274
44	0x3d9f94fd	0.07792089
45	0x3e55c715	0.20876725
46	0xbecfa6f7	-0.40557072
47	0x3f112682	0.56699383
48	0xbdf1ebe9	-0.118125744
49	0x3e87b0fe	0.26502222
50	0xbb9da4a2	-0.0048108855
51	0xbd9031f4	-0.07040778
52	0x3db56698	0.08857459
53	0xbeb37349	-0.35048893
54	0xbe725165	-0.23663862
55	0x3ebc1465	0.3673431
56	0x3e870c34	0.26376498
57	0xbeb9651f	-0.36209962
58	0x3e4df21a	0.20111886
59	0xbe41ba23	-0.18918662
60	0xbe93afb4	-0.28844988
61	0x3e5e5862	0.21713403
62	0xbf1e175a	-0.6175438
63	0x3e614e3a	0.22002497
64	0xbdc5dc1f	-0.096611254
65	0xbdd3ee5b	-0.10348197
66	0xbef289c7	-0.4737074
67	0x3e7c9d5c	0.24669403
68	0x3e86a3f2	0.26296955
69	0xbadb4544	-0.0016729017
70	0x3e193636	0.14962086
71	0xbe076843	-0.13223366
72	0xbec7758e	-0.38956875
73	0xbe80222e	-0.25026077
74	0xbe29acf3	-0.16569881
75	0x3b843a20	0.0040352494
76	0xbe919c75	-0.2843968
77	0x3e7519e6	0.2393566
78	0x3dfcff52	0.12353386
79	0x3dbe22b6	0.09283964
80	0x3d150d81	0.03638983
81	0xbdefe79f	-0.117141
82	0xbf19e759	-0.60118634
83	0x3d2f419f	0.04278719
84	0x3de36e86	0.11105065
85	0xbdc7fe45	-0.09765295
86	0x3de4cbf4	0.111717135
87	0xbde6163b	-0.11234709
88	0xbe139ac5	-0.14414509
89	0xbe21d6e9	-0.15804638
90	0x3e5a2266	0.21302184
91	0x3eda8caf	0.42685458
92	0x3eee46bf	0.4653835
93	0xbee0a389	-0.43874767
94	0x3ddf9cb0	0.10918558
95	0x3e6dd384	0.23225218
96	0x3e8a7002	0.2703858
97	0xbc8389f6	-0.016056996
98	0xbe4a19dc	-0.19736427
99	0xbec5e9b0	-0.38654852
100	0xbe96a65c	-0.29423797
101	0x3e3364be	0.17518899
102	0xbe476227	-0.19471036
103	0xbedc6c82	-0.43051535
104	0xbe2f4a48	-0.1711818
105	0xbe1ca92f	-0.15298913
106	0x3dd9255e	0.1060283
107	0xbcaae742	-0.020862225
108	0x3e9db756	0.30803937
109	0x3e137a81	0.144022
110	0xbe1a397f	-0.15060996
111	0xbd970f7e	-0.07376002
112	0x3f05a38c	0.5220268
113	0x3e27cad7	0.16385971
114	0x3e258d1b	0.16167109
115	0x3d33844c	0.04382734
116	0x3e8a280f	0.26983687
117	0x3ea1b232	0.31581265
118	0xbe8ae8e7	-0.27130815
119	0xbe3c6071	-0.18396164
120	0x3df32de8	0.1187399
121	0xbe09237f	-0.13392447
122	0x3d82673d	0.063673474
123	0x3dd545ff	0.10413741
124	0xbddbb89e	-0.10728572
125	0xbe351710	-0.17684579
126	0x3e3d1343	0.18464379
127	0x3eb8e1e3	0.36109838
128	0xbe68032c	-0.2265746
129	0x3e6c15e1	0.23055221
130	0xbdbcbaaf	-0.092152946
131	0x3da354f3	0.07975187
132	0x3e5e04bf	0.21681498
133	0xbe5de7e9	-0.21670498
134	0x3e0c7a68	0.1371857
135	0xbdc3b797	-0.09556501
136	0x3d60cbda	0.054881908
137	0x3e5160e6	0.2044712
138	0xbdb48045	-0.08813528
139	0xbc38b1c5	-0.011272852
140	0x3da6b8fa	0.0814075
141	0xbd3276c3	-0.04357029
142	0x3e3c48e0	0.18387175
143	0x3ecd75b6	0.4012887
144	0xbf32dc9d	-0.6986788
145	0x3d9cad57	0.076502495
146	0x3d409ffd	0.047027577
147	0x3d8cc8f6	0.06874268
148	0x3dcb154d	0.09916172
149	0x3e4abe64	0.19799191
150	0xbd8a9048	-0.06765801
151	0xbdc1cc64	-0.094628125
152	0x3cc91e6c	0.02455064
153	0xbebe9953	-0.37226352
154	0x3c533781	0.012891651
155	0x3e57639b	0.2103409
156	0xbe681397	-0.22663723
157	0x3b900b13	0.0043958514
158	0x3dcb6d16	0.09932916
159	0x3e9c6340	0.30544472
160	0xbda3258d	-0.079661466
161	0xbe7ddf41	-0.24792196
162	0x3d45fd89	0.048337493
163	0x3eba8aae	0.3643393
164	0x3e3c99d1	0.18418051
165	0x3da8fbfb	0.082511865
166	0x3dab062c	0.083507866
167	0x3e2eff4c	0.17089576
168	0x3e92001f	0.28515717
169	0xbc0f1811	-0.008733765
170	0x3ca5954a	0.020212788
171	0xbd380c8f	-0.04493385
172	0xbe931a0f	-0.2873082
173	0xbd00eeb1	-0.031477634
174	0x3e733406	0.23750314
175	0xbdc1ef23	-0.0946944
176	0x3ea5bb4d	0.32369462
177	0xbe13d4b9	-0.14436616
178	0xbe8a51f6	-0.27015656
179	0x3d52cb18	0.051463217
180	0xbe7438e3	-0.23849826
181	0x3e1e938c	0.15485972
182	0x3c2686a9	0.010163941
183	0x3e43a270	0.19104934
184	0xbe6a10f4	-0.2285803
185	0xbdc6b02d	-0.097015716
186	0xbd642210	-0.055696547
187	0x3d8d10c1	0.06887961
188	0xbf33a5d6	-0.7017492
189	0xbe823412	-0.25430351
190	0x3dfd44ef	0.12366664
191	0xbd2f0ae2	-0.042734988
192	0xbeddab9f	-0.43295
193	0xbdfe516a	-0.12417872
194	0xbda759a4	-0.081713945
195	0xbed918b6	-0.42401665
196	0x3e09a887	0.13443194
197	0x3e8838c7	0.26605818
198	0x3e18f383	0.14936642
199	0xbd192ac3	-0.037394296
200	0xbe9b1665	-0.30290523
201	0xbd5b05c0	-0.05347228
202	0xbda5ed6f	-0.081019275
203	0x3f20ac2a	0.627627
204	0xbe8c03a6	-0.27346534
205	0xbe6c7c6f	-0.23094343
206	0x3eb7493a	0.35798055
207	0x3e697246	0.22797498
208	0x3de0de4c	0.109799
209	0xbed33f47	-0.41259214
210	0x3e9a879c	0.30181587
211	0x3e7a9f33	0.24474792
212	0xbdfadc8f	-0.122490995
213	0xbe5fc46c	-0.21852273
214	0xbedea750	-0.43487024
215	0xbb690125	-0.003555366
216	0xbe5355a9	-0.20638146
217	0xbec51b32	-0.3849731
218	0xbe6808a0	-0.2265954
219	0xbe695812	-0.22787502
220	0x3ed056a4	0.40691102
221	0x3e0da567	0.13832627
222	0xbddd8d0c	-0.10817918
223	0xbe514c17	-0.20439182
224	0x3e870bcc	0.26376188
225	0x3e1be760	0.15224981
226	0x3da4cc49	0.08046777
227	0x3e1f4b62	0.155561
228	0x3f072421	0.52789503
229	0xbd05b18c	-0.032640025
230	0xbdc333fe	-0.09531401
231	0xbdd607a2	-0.104506746
232	0x3d0a0f13	0.033705782
233	0x3e94c1c6	0.29054087
234	0x3f1374ea	0.5760027
235	0x3c3e43f5	0.011612882
236	0x3dfdff07	0.12402158
237	0x3e21623b	0.15760128
238	0x3eb031b8	0.34412932
239	0x3f338da4	0.70138
240	0x3da29351	0.079382546
241	0x3d0ed58f	0.034871634
242	0x3da1620b	0.07880028
243	0xbc3ae221	-0.011406452
244	0xbec9427b	-0.39308533
245	0x3ba66495	0.0050779083
246	0xbdcaee08	-0.09908682
247	0xbe38fc8b	-0.18065087
248	0xbecf50c4	-0.40491307
249	0x3e939b6c	0.28829515
250	0xb95073bf	-0.00019879545
251	0x3de57cf3	0.11205473
252	0xbe6250f6	-0.22101197
253	0x3d5cb93f	0.053887602
254	0xbe0c3af2	-0.13694361
255	0xbda26cf4	-0.079309374

_pos_embeds f4 [64, 32]
0	0x00000000	0.0
1	0x3f800000	1.0
2	0x00000000	0.0
3	0x3f800000	1.0
4	0x00000000	0.0
5	0x3f800000	1.0
6	0x00000000	0.0
7	0x3f800000	1.0
8	0x00000000	0.0
9	0x3f800000	1.0
10	0x00000000	0.0
11	0x3f800000	1.0
12	0x00000000	0.0
13	0x3f800000	1.0
14	0x00000000	0.0
15	0x3f800000	1.0
16	0x00000000	0.0
17	0x3f800000	1.0
18	0x00000000	0.0
19	0x3f800000	1.0
20	0x00000000	0.0
21	0x3f800000	1.0
22	0x00000000	0.0
23	0x3f800000	1.0
24	0x00000000	0.0
25	0x3f800000	1.0
26	0x00000000	0.0
27	0x3f800000	1.0
28	0x00000000	0.0
29	0x3f800000	1.0
30	0x00000000	0.0
31	0x3f800000	1.0
32	0x3f576aa4	0.84147096
33	0x3f0a5140	0.5403023
34	0x3f087dba	0.53316844
35	0x3f58940e	0.84600914
36	0x3e9f393e	0.3109836
37	0x3f734e6a	0.95041525
38	0x3e35233a	0.17689219
39	0x3f7bf683	0.9842302
40	0x3dcc7576	0.099833414
41	0x3f7eb898	0.9950042
42	0x3d6636b0	0.056204498
43	0x3f7f9868	0.9984193
44	0x3d01815c	0.031617507
45	0x3f7fdf3c	0.99950004
46	0x3c91ab42	0.017781857
47	0x3f7ff5a3	0.99984187
48	0x3c23d657	0.009999833
49	0x3f7ffcb9	0.99995
50	0x3bb8445c	0.0056233834
51	0x3f7ffef7	0.9999842
52	0x3b4f3e20	0.0031622723
53	0x3f7fffac	0.999995
54	0x3ae91520	0.0017782785
55	0x3f7fffe5	0.9999984
56	0x3a83126d	0.0009999998
57	0x3f7ffff8	0.9999995
58	0x3a136a16	0.0005623413
59	0x3f7ffffd	0.9999998
60	0x39a5cb5f	0.00031622776
61	0x3f7fffff	0.99999994
62	0x393a7753	0.00017782794
63	0x3f800000	1.0
64	0x3f68c7b7	0.9092974
65	0xbed51133	-0.41614684
66	0x3f66f20a	0.9021307
67	0x3edce8b2	0.43146282
68	0x3f17541b	0.5911271
69	0x3f4e7bec	0.8065784
70	0x3eb247f6	0.34820527
71	0x3f6ffaa5	0.9374183
72	0x3e4b6ff9	0.19866933
73	0x3f7ae5a5	0.9800666
74	0x3de5d988	0.112231314
75	0x3f7e61f3	0.9936821
76	0x3d8170c8	0.063203394
77	0x3f7f7cf9	0.9980007
78	0x3d11a55c	0.03555809
79	0x3f7fd68e	0.9993676
80	0x3ca3d43e	0.019998666
81	0x3f7ff2e5	0.9998
82	0x3c38439d	0.011246589
83	0x3f7ffbdb	0.99993676
84	0x3bcf3ddd	0.0063245133
85	0x3f7ffeb0	0.99998
86	0x3b691508	0.0035565514
87	0x3f7fff96	0.9999937
88	0x3b031269	0.0019999987
89	0x3f7fffde	0.999998
90	0x3a936a14	0.0011246824
91	0x3f7ffff5	0.99999934
92	0x3a25cb5f	0.0006324555
93	0x3f7ffffd	0.9999998
94	0x39ba7753	0.00035565588
95	0x3f7fffff	0.99999994
96	0x3e1081c3	0.14112
97	0xbf7d7026	-0.9899925
98	0x3f7e45d7	0.9932532
99	0xbded7fa8	-0.11596614
100	0x3f5009c2	0.8126489
101	0x3f152f57	0.5827536
102	0x3f022f6d	0.50853616
103	0x3f5c6d29	0.86104065
104	0x3e974e6d	0.29552022
105	0x3f7490ef	0.9553365
106	0x3e2beed8	0.1679033
107	0x3f7c5d9e	0.9858035
108	0x3dc1ffc1	0.09472609
109	0x3f7ed94f	0.99550337
110	0x3d5a694d	0.05332308
111	0x3f7fa2c3	0.9985773
112	0x3cf5b920	0.029995501
113	0x3f7fe283	0.99955004
114	0x3c8a31c7	0.016869439
115	0x3f7ff6ad	0.9998577
116	0x3c1b6e11	0.009486691
117	0x3f7ffd0d	0.999955
118	0x3baecfa8	0.005334813
119	0x3f7fff11	0.99998575
120	0x3b449b93	0.0029999956
121	0x3f7fffb5	0.9999955
122	0x3add1f1b	0.0016870232
123	0x3f7fffe8	0.99999857
124	0x3a78b10d	0.0009486832
125	0x3f7ffff8	0.9999995
126	0x3a0bd97e	0.0005334838
127	0x3f7ffffe	0.9999999
128	0xbf41bdcf	-0.7568025
129	0xbf275530	-0.6536436
130	0x3f4749ed	0.77847177
131	0xbf20af9d	-0.62767965
132	0x3f741dde	0.95358074
133	0x3e9a2eb1	0.30113748
134	0x3f271fbc	0.652828
135	0x3f41ebed	0.7575062
136	0x3ec761d7	0.38941833
137	0x3f6bcaa7	0.921061
138	0x3e6465c6	0.22304448
139	0x3f798d09	0.9748083
140	0x3e012e88	0.12615407
141	0x3f7df469	0.99201065
142	0x3d918dc8	0.07107121
143	0x3f7f5a47	0.9974713
144	0x3d23cbdb	0.039989334
145	0x3f7fcb94	0.9992001
146	0x3cb840a2	0.022491757
147	0x3f7fef6c	0.99974704
148	0x3c4f3ccd	0.012648773
149	0x3f7ffac2	0.99992
150	0x3be914a7	0.0071130577
151	0x3f7ffe58	0.9999747
152	0x3b831258	0.0039999895
153	0x3f7fff7a	0.999992
154	0x3b136a0e	0.0022493633
155	0x3f7fffd6	0.9999975
156	0x3aa5cb5c	0.0012649107
157	0x3f7ffff3	0.9999992
158	0x3a3a7752	0.0007113117
159	0x3f7ffffc	0.99999976
160	0xbf757c10	-0.9589243
161	0x3e913c2c	0.2836622
162	0x3ea5dad6	0.3239352
163	0xbf723240	-0.94607925
164	0x3f7ffc7f	0.99994653
165	0xbc2972d4	-0.010342319
166	0x3f46caab	0.77652997
167	0x3f214cf1	0.6300803
168	0x3ef57744	0.47942555
169	0x3f60a940	0.87758255
170	0x3e8e11ee	0.27748054
171	0x3f75f27c	0.96073127
172	0x3e213c1e	0.15745589
173	0x3f7cce81	0.987526
174	0x3db5db21	0.08879686
175	0x3f7efd1e	0.99604976
176	0x3d4cb6f5	0.04997917
177	0x3f7fae19	0.99875027
178	0x3ce64dfe	0.028113361
179	0x3f7fe619	0.99960476
180	0x3c818581	0.01581073
181	0x3f7ff7cf	0.999875
182	0x3c11acbb	0.00889128
183	0x3f7ffd69	0.9999605
184	0x3ba3d6de	0.0049999794
185	0x3f7fff2e	0.9999875
186	0x3b38448c	0.002811703
187	0x3f7fffbe	0.99999607
188	0x3acf3e31	0.0015811381
189	0x3f7fffeb	0.99999875
190	0x3a691526	0.0008891396
191	0x3f7ffff9	0.9999996
192	0xbe8f0f8c	-0.2794155
193	0x3f75cdb8	0.96017027
194	0xbe6be574	-0.23036748
195	0xbf791d53	-0.9731037
196	0x3f72784d	0.94714814
197	0xbea43f6f	-0.32079646
198	0x3f603089	0.8757406
199	0x3ef72f34	0.482782
200	0x3f108c69	0.5646425
201	0x3f534932	0.8253356
202	0x3ea97dfd	0.33103934
203	0x3f7190e2	0.943617
204	0x3e41206f	0.18860029
205	0x3f7b67e3	0.98205394
206	0x3dda19c1	0.106494434
207	0x3f7e8b51	0.9943133
208	0x3d759cd1	0.059964005
209	0x3f7f8a12	0.99820054
210	0x3d0a2cbf	0.03373408
211	0x3f7fdab3	0.99943084
212	0x3c9b6c46	0.018972527
213	0x3f7ff434	0.99982
214	0x3c2ecf04	0.010669474
215	0x3f7ffc45	0.9999431
216	0x3bc49b59	0.005999964
217	0x3f7ffed2	0.999982
218	0x3b5d1f06	0.0033740415
219	0x3f7fffa1	0.99999434
220	0x3af8b105	0.0018973654
221	0x3f7fffe2	0.9999982
222	0x3a8bd97d	0.0010669675
223	0x3f7ffff6	0.9999994
224	0x3f283046	0.6569866
225	0x3f40ffbd	0.75390226
226	0xbf36b66e	-0.71372116
227	0xbf334f60	-0.7004299
228	0x3f4ce86f	0.80042166
229	0xbf1974bb	-0.5994374
230	0x3f728444	0.9473307
231	0x3ea3f8b9	0.32025698
232	0x3f24eb73	0.64421767
233	0x3f43ccb3	0.7648422
234	0x3ec460df	0.38355157
235	0x3f6c6bc5	0.92351943
236	0x3e60d350	0.2195561
237	0x3f79c0ea	0.9755999
238	0x3dfe46ba	0.12415834
239	0x3f7e04e9	0.9922624
240	0x3d8f3e32	0.06994285
241	0x3f7f5f81	0.997551
242	0x3d213160	0.03935373
243	0x3f7fcd3b	0.9992253
244	0x3cb552a6	0.022134136
245	0x3f7feff2	0.999755
246	0x3c4bf12a	0.012447635
247	0x3f7ffaec	0.9999225
248	0x3be55fc7	0.006999943
249	0x3f7ffe65	0.9999755
250	0x3b80fcbe	0.003936379
251	0x3f7fff7e	0.99999225
252	0x3b1111ec	0.0022135926
253	0x3f7fffd7	0.99999756
254	0x3aa32866	0.0012447953
255	0x3f7ffff3	0.9999992

W f4 [32, 32]
0	0x3db083c0	0.08618879
1	0x3e949fae	0.29028076
2	0xbe94656b	-0.28983626
3	0xbe964ac1	-0.29353908
4	0x3eb1b479	0.34708002
5	0xbe5e812c	-0.21728963
6	0x3c7e690a	0.015527973
7	0x3f4cf3d2	0.8005954
8	0x3df1ba77	0.118031435
9	0xbe63168e	-0.22176573
10	0x3e24922c	0.16071385
11	0xbc161a49	-0.00916154
12	0x3e2edea8	0.17077124
13	0x3eb1ed60	0.34751415
14	0xbcaf49fd	-0.021397585
15	0x3dcda28b	0.10040768
16	0xbd945f96	-0.07244794
17	0x3dab8518	0.08374995
18	0xbd7347bf	-0.059394594
19	0xbe1b24d7	-0.15150772
20	0x3cce2808	0.025165573
21	0xbe42c0e2	-0.19018891
22	0x3efffe2d	0.49998608
23	0xbed136e7	-0.408622
24	0xbd0a3b7c	-0.033748135
25	0xbf03e662	-0.5152341
26	0x3e3a87d2	0.18215874
27	0x3e85e4a7	0.2615101
28	0x3e963a63	0.2934142
29	0x3c907445	0.017633567
30	0xbd620d6e	-0.05518859
31	0xbe9f4282	-0.3110543
32	0xbe28f79c	-0.16500705
33	0xbdc649d0	-0.09682047
34	0xbe9d6958	-0.30744433
35	0xbd0bfad8	-0.03417477
36	0xbe2368c4	-0.15957934
37	0x3e927ea5	0.28612247
38	0xbd98478f	-0.07435524
39	0x3e976488	0.29568887
40	0xbc7b8a9d	-0.015352872
41	0xbeee780e	-0.4657597
42	0x3d1ec8f9	0.03876588
43	0x3dac0585	0.0839949
44	0xbdfe3c87	-0.124138884
45	0xbea1451e	-0.31498045
46	0x3e857600	0.2606659
47	0x3ed5a7a2	0.41729456
48	0xbdba5137	-0.09097522
49	0x3eb9122c	0.36146677
50	0xbe14788c	-0.1449911
51	0xbf18418f	-0.59475034
52	0x3e35b0a6	0.17743167
53	0xbe550cc8	-0.20805657
54	0xbbf41d67	-0.007449794
55	0x3f07ad7a	0.5299908
56	0x3e20e0b0	0.15710711
57	0xbc7145ea	-0.0147261415
58	0xbebf8fc9	-0.37414387
59	0x3eb34932	0.3501678
60	0x3e1df465	0.1542526
61	0xbe109106	-0.14117822
62	0x3e800499	0.25003508
63	0xbefc38b9	-0.49262026
64	0x3e3648bc	0.17801183
65	0x3d605cac	0.05477588
66	0x3eaa43ea	0.3325494
67	0x3e29aab3	0.16569023
68	0xbdebc142	-0.115114704
69	0x3e3b3454	0.1828168
70	0xbe014e45	-0.12627514
71	0xbe599e67	-0.21251832
72	0x3df08fbb	0.117461644
73	0xbe9569bf	-0.2918224
74	0xbe714eb7	-0.23565184
75	0x3e1ac2ad	0.15113325
76	0xbe76f9f3	-0.24118786
77	0x3de4f0d0	0.11178744
78	0x3e2aa4c5	0.16664417
79	0xbd47eba9	-0.048808727
80	0xbc84eb3d	-0.016225452
81	0xbf06fa9c	-0.5272615
82	0x3da7e0e6	0.08197193
83	0xbe1d1bc9	-0.1534263
84	0x3ea8014c	0.3281349
85	0xbc0c7502	-0.008572819
86	0xbe64d523	-0.2234693
87	0xbdb7ef69	-0.08981211
88	0x3ba5f7f2	0.005064958
89	0x3e81b731	0.25335076
90	0x3e5dc4ff	0.2165718
91	0x3adbe54a	0.0016776707
92	0x3eb0dff0	0.3454585
93	0xbea0823f	-0.3134937
94	0x3de8f09a	0.11374016
95	0x3e18e81b	0.14932291
96	0xbe6f19f8	-0.2334975
97	0xbd8cbe1f	-0.068722
98	0xbe16c7f8	-0.1472472
99	0x3dc1cabd	0.094624974
100	0xbe2aba70	-0.16672683
101	0xbd916cf1	-0.07100857
102	0x3da35ba0	0.079764605
103	0xbe9abacc	-0.3022064
104	0xbe8865bb	-0.26640114
105	0xbe18bdaa	-0.14916101
106	0xbec6ab78	-0.38802695
107	0x3ef1f1f5	0.4725491
108	0xbe1c9fee	-0.15295383
109	0xbe6da8a3	-0.23208861
110	0x3ddcc08a	0.107789114
111	0x3e804bb3	0.25057754
112	0xbe081e20	-0.13292742
113	0xbe80eb63	-0.25179586
114	0x3e055eb4	0.13024408
115	0x3f26c55b	0.6514489
116	0xbec42b1c	-0.3831414
117	0xbe952b59	-0.29134634
118	0xbe03fbdb	-0.12889044
119	0x3d2f24fe	0.042759888
120	0x3e7ac2e6	0.2448841
121	0x3edbb470	0.429111
122	0xbed275c1	-0.41105464
123	0x3c7e165b	0.01550826
124	0xbee04edc	-0.43810165
125	0xbd419943	-0.047265302
126	0xbec12ac9	-0.37727955
127	0x3d862027	0.06549101
128	0xbee89ba9	-0.4543126
129	0x3e212524	0.15736824
130	0xbc284fdb	-0.010272945
131	0x3dd052ba	0.10172029
132	0x3e86b092	0.26306587
133	0x3d89864a	0.06715067
134	0x3edccb38	0.43123794
135	0xbefcc97d	-0.49372473
136	0xbded7050	-0.115936875
137	0xbe9c848a	-0.3056987
138	0x3d0b9aae	0.03408306
139	0xbc6b413e	-0.014358817
140	0x3d3211e8	0.043474108
141	0x3e23e76d	0.1600625
142	0x3dc46c66	0.09590988
143	0x3e8d05b9	0.2754343
144	0x3e8c78e9	0.27435997
145	0xbe2dd8d3	-0.16977243
146	0x3d979119	0.07400722
147	0x3c1d4926	0.0095999595
148	0x3e987b5a	0.2978161
149	0x3e90104f	0.28137442
150	0xbd4674c5	-0.048451204
151	0xbde74012	-0.11291517
152	0xbd0e9e7f	-0.034819122
153	0x3f1f0106	0.62110937
154	0xbea19fd1	-0.31567243
155	0x3e3bcbca	0.18339458
156	0x3db84c3a	0.08998914
157	0xbd9f3ba5	-0.07775048
158	0xbae4e313	-0.0017462693
159	0x3c25474d	0.0100878
160	0xbe80541b	-0.25064167
161	0x3f0bb471	0.54572207
162	0xbc7a734e	-0.01528628
163	0xbc9343a2	-0.017976586
164	0xbea388e8	-0.3194039
165	0x3d2fe320	0.042941213
166	0x3eb860e0	0.3601141
167	0x3f2fd9cf	0.68691725
168	0x3d820c6c	0.063500255
169	0xbf536b7b	-0.8258588
170	0x3dcce09e	0.1000378
171	0xbe80f026	-0.2518322
172	0x3c1c4cdb	0.009539808
173	0x3ebd529e	0.36977094
174	0x3e830494	0.2558943
175	0xbd8ef7ee	-0.069808826
176	0x3e85a9ea	0.26106197
177	0x3ba23d9b	0.0049511916
178	0xbef18959	-0.471751
179	0xbdd818e8	-0.105516255
180	0xbdb9f6c7	-0.09080272
181	0xbe8161b6	-0.2526986
182	0xbdc0f78a	-0.09422214
183	0x3e101372	0.14069918
184	0x3e0e089d	0.13870473
185	0xbe005f37	-0.12536322
186	0xbe17ef8b	-0.14837472
187	0x3cabf893	0.020992553
188	0xbf4cc7f8	-0.7999263
189	0x3d4e7410	0.050403655
190	0xbe7fab7b	-0.24967758
191	0xbedf235a	-0.4358166
192	0xbda75e96	-0.08172338
193	0xbeef755d	-0.4676923
194	0xbf11bf0b	-0.56932133
195	0xbef947f5	-0.4868771
196	0x3e0c5d53	0.13707475
197	0x3e357cf7	0.17723452
198	0x3e23ddd2	0.16002586
199	0xbd8a83d2	-0.06763424
200	0x3e039112	0.12848309
201	0xbe4e4610	-0.20143914
202	0x3d08ece4	0.03342904
203	0x3dc38d7c	0.095484704
204	0xbc279c1d	-0.010230091
205	0xbf09fdb5	-0.5390275
206	0xbd1502df	-0.03637969
207	0xbef285dc	-0.47367752
208	0x3e4337e9	0.19064297
209	0xbec9117e	-0.39271158
210	0x3e737e8f	0.23778747
211	0x3d97614b	0.07391604
212	0x3df76e0d	0.120815374
213	0x3ccbc20d	0.024872804
214	0xbe783181	-0.24237634
215	0x3e2a2cfa	0.1661872
216	0xbe98c426	-0.2983715
217	0xbe5956e1	-0.21224548
218	0x3e42e2c0	0.19031811
219	0xbed33577	-0.41251728
220	0xbe3cfa10	-0.18454766
221	0x3d6647dc	0.056220874
222	0xbe4bccbe	-0.19902322
223	0xbd0a50a6	-0.03376832
224	0xbeb773f9	-0.35830668
225	0x3e47df9b	0.19518892
226	0x3eb455e8	0.3522179
227	0xbdcbcc50	-0.09951079
228	0x3eb61deb	0.355697
229	0xbe3cd35a	-0.18439999
230	0x3eb6b2bc	0.35683239
231	0xb9a66600	-0.00031737983
232	0xbcc1c4ec	-0.02365347
233	0xbc07886a	-0.00827227
234	0x3def6da7	0.116908364
235	0xbe345189	-0.17609228
236	0x3ed7ebe4	0.42172158
237	0xbda19087	-0.078888945
238	0x3da452fd	0.08023641
239	0x3cb3aed1	0.021933945
240	0xbf36dcea	-0.7143084
241	0x3dbe40f9	0.09289736
242	0xbebdda45	-0.3708059
243	0x3ec9c2a0	0.394063
244	0xbe95dfda	-0.29272348
245	0xbeb6f332	-0.35732418
246	0x3d1f803b	0.03894065
247	0xbd635bec	-0.055507585
248	0xbd9ae0f3	-0.07562437
249	0xbe2813cc	-0.16413802
250	0x3eaa3c0c	0.33248937
251	0xbe255850	-0.1614697
252	0xbd856125	-0.065126695
253	0xbe724da7	-0.23662435
254	0xbde43499	-0.11142845
255	0xbc3e6ffb	-0.011623378

b f4 [32]
0	0xbb976566	-0.004620242
1	0x3c629dad	0.013831538
2	0x3b5e8ece	0.003395963
3	0xbc93497b	-0.017979374
4	0x3cc9186c	0.024547778
5	0xbbce4f5b	-0.006296081
6	0x3c8aa221	0.016923012
7	0xbc537ea0	-0.012908608
8	0xbcce5e99	-0.025191592
9	0x3ca6ba93	0.020352637
10	0xbcceb5c0	-0.02523315
11	0xbc26ee24	-0.010188613
12	0x3d12b4b5	0.035816867
13	0x3bf85316	0.007578264
14	0x3d12e24b	0.03586034
15	0xbd340a3b	-0.04395507
16	0x3d042ea6	0.03227105
17	0x3d236949	0.03989533
18	0xbbcd479b	-0.0062646396
19	0x3c5d7ce5	0.013518547
20	0x3d16cfb9	0.036819194
21	0x3c419d8a	0.011817345
22	0xbb09213c	-0.002092435
23	0x3bf3de64	0.0074422825
24	0xbca81a95	-0.020520488
25	0xbad6d0f4	-0.0016389177
26	0xbbdf3609	-0.0068118614
27	0xbaf3a5b8	-0.0018588817
28	0x3c98280c	0.018573783
29	0x3c4d7d15	0.012542029
30	0x3d0b31db	0.033983093
31	0xbc4d8a7c	-0.012545224

W f4 [32, 32]
0	0x3e822793	0.25420818
1	0x3e05294b	0.13004033
2	0xbacf5248	-0.0015817368
3	0x3d9ee57b	0.07758614
4	0xbe5f590b	-0.21811311
5	0x3ee37173	0.44422492
6	0x3e1ce74e	0.1532261
7	0x3dacad1c	0.084314555
8	0x3e8f374b	0.27971873
9	0x3de9057e	0.11378001
10	0x3e2118bc	0.15732092
11	0xbe5e2b09	-0.21696104
12	0x3e8e74dd	0.27823535
13	0xbcbf10da	-0.023323465
14	0x3ec0b941	0.37641338
15	0xbe82d028	-0.25549436
16	0x3ec6228d	0.38698235
17	0xbe4668a9	-0.19375862
18	0x3e46d70a	0.19417968
19	0x3e60667a	0.21914092
20	0x3e242741	0.16030599
21	0xbe856dcc	-0.2606033
22	0xbd0e6fd0	-0.0347746
23	0x3e21bbf1	0.1579435
24	0x3be0c58c	0.006859487
25	0x3e0fcf11	0.14043833
26	0xbdd17790	-0.10227883
27	0xbc90245c	-0.017595463
28	0xbba8b34c	-0.005148327
29	0x3e998f20	0.29992008
30	0x3e9a0b22	0.3008662
31	0xbe94abf1	-0.2903743
32	0x3da55a3d	0.08073852
33	0xbe7f091b	-0.24905817
34	0x3e984933	0.29743347
35	0xbe03d2dc	-0.12873405
36	0x3e75e4b0	0.24013019
37	0x3e81a022	0.25317484
38	0xbe106f7c	-0.14105028
39	0xbe20927a	-0.15680876
40	0xbecb430f	-0.396996
41	0xbdc134e9	-0.0943392
42	0x3e01dff8	0.12683094
43	0xbdc23fbe	-0.09484814
44	0x3d9ddb67	0.07707863
45	0x3e8a7b11	0.27047017
46	0x3e820c08	0.25399804
47	0xbe2651b8	-0.1624211
48	0xbe800faf	-0.25011966
49	0x3dec5847	0.11540275
50	0xbc916720	-0.01774937
51	0xbe53ebfe	-0.20695493
52	0x3e034b3f	0.12821673
53	0xbec95615	-0.39323488
54	0xbe1d2a02	-0.15348056
55	0xbee7947c	-0.45230472
56	0xbe5a2111	-0.21301676
57	0x3ebc78f9	0.36811045
58	0x3dd454d5	0.10367743
59	0x3ebeb0f6	0.37244385
60	0x3f209ac9	0.62736183
61	0xbed86253	-0.42262515
62	0x3c315014	0.010822315
63	0x3e4f6f96	0.2025741
64	0x3e090256	0.13379797
65	0xbee2852d	-0.4424223
66	0xbee42fa4	-0.44567597
67	0xbea03271	-0.31288484
68	0xbea478a5	-0.32123294
69	0xbd5037f3	-0.050834607
70	0xbe84c7e1	-0.25933746
71	0x3e8a65be	0.27030748
72	0x3d58c4c6	0.052922033
73	0x3c37bd18	0.011214517
74	0xbd1bf723	-0.038077485
75	0xbefc236f	-0.49245784
76	0x3eb675b4	0.35636675
77	0xbe327c40	-0.1743021
78	0xbe3324e4	-0.17494541
79	0x3dc4b67d	0.096051194
80	0x3eaaa28f	0.33327147
81	0xbeb4158c	-0.3517269
82	0x3d2d619d	0.04232942
83	0x3e98c38b	0.29836687
84	0x3e8809a1	0.26569846
85	0x3e421b94	0.18955833
86	0x3e85058b	0.2598079
87	0xbeb926d6	-0.36162442
88	0xbe88b707	-0.2670214
89	0xbdcd477a	-0.10023399
90	0xbb9616e4	-0.0045803655
91	0x3cfd535d	0.03092354
92	0x3e13446d	0.14381571
93	0x3b3597d6	0.002770891
94	0xbeb12bf7	-0.34603855
95	0xbe40d8e6	-0.1883274
96	0x3c21d571	0.009877549
97	0xbe569e21	-0.20958759
98	0x3ed6b150	0.41932154
99	0xbce0f12c	-0.02745875
100	0x3e0a3c9e	0.13499686
101	0xbd1093e0	-0.035297275
102	0xbe0d1fc8	-0.13781655
103	0x3d51b6b2	0.051199622
104	0x3e75f53d	0.24019332
105	0x3df5c279	0.11999983
106	0xbb8b73c3	-0.004255743
107	0x3ea1ee8f	0.31627318
108	0xbf022fe2	-0.50854313
109	0xbe86f698	-0.2636001
110	0xbe8bfa31	-0.27339318
111	0x3eb3b2a7	0.35097238
112	0xbf14b8bb	-0.58094376
113	0xbe04da20	-0.12973833
114	0xbe04c054	-0.12963992
115	0x3e7dc53c	0.2478227
116	0xbad1205b	-0.0015955077
117	0xbeaef6b1	-0.34172586
118	0x3e0bcaa5	0.13651522
119	0xbf271974	-0.65273213
120	0x3d99a37f	0.075018875
121	0x3ebe0f9a	0.37121278
122	0x3c914114	0.017731227
123	0xbd65b292	-0.0560785
124	0xbeb58407	-0.3545229
125	0xbea52b77	-0.32259724
126	0x3eb8bb3a	0.36080343
127	0xbecdd0af	-0.40198275
128	0x3dae35be	0.08506344
129	0x3dbf3341	0.09335948
130	0xbe35f832	-0.1777046
131	0xbe259ec3	-0.16173844
132	0x3d181611	0.03713042
133	0xbe0e5922	-0.13901189
134	0xbd766ee7	-0.06016436
135	0xbe8d2165	-0.2756454
136	0xbf04a19d	-0.518091
137	0x3e4f9804	0.20272833
138	0xbd0fad9c	-0.035077676
139	0x3b5a7f09	0.003333988
140	0x3e4eaaac	0.20182294
141	0x3e5d9f7d	0.21642871
142	0x3f01de08	0.5072942
143	0xbe12dfcf	-0.14343189
144	0x3f556023	0.8334982
145	0x3e7e78e4	0.24850804
146	0xbd0abaef	-0.03386968
147	0xbeb05230	-0.34437704
148	0x3e8225e8	0.25419545
149	0x3ef2e436	0.47439736
150	0xbe09f87c	-0.13473696
151	0xbcd17358	-0.025567695
152	0x3cdf0479	0.027223812
153	0x3d6578ad	0.05602329
154	0x3e8e5816	0.2780158
155	0xbd90d795	-0.07072369
156	0x3e434501	0.19069292
157	0x3d68171c	0.056662664
158	0xbd95c626	-0.073131844
159	0x3e84428c	0.2583202
160	0x3cb0adc1	0.021567227
161	0xbc85a1b4	-0.016312458
162	0x3e086aec	0.13322037
163	0x3c21814f	0.00985749
164	0xbea7ad35	-0.32749334
165	0x3d90d94b	0.07072695
166	0xbe86530a	-0.2623523
167	0xbf105379	-0.5637737
168	0x3dfd059b	0.12354585
169	0xbb784869	-0.0037884957
170	0xbc6551c0	-0.0139965415
171	0xbd5e2416	-0.054233633
172	0x3e9a7143	0.30164537
173	0x3f283d35	0.65718395
174	0x3d17d8e2	0.03707207
175	0xbea1ffec	-0.31640565
176	0xbded788d	-0.11595259
177	0xbe8f6335	-0.28005376
178	0xbee122f6	-0.43971986
179	0xbd3e419a	-0.04644928
180	0x3d2afa22	0.04174245
181	0xbe67ab1a	-0.22623864
182	0xbda6e8a2	-0.0814984
183	0x3f2fff51	0.68748957
184	0x3d0edbf7	0.034877744
185	0x3e4fc58b	0.202902
186	0x3ee989eb	0.45613036
187	0xbe944f5c	-0.28966796
188	0x3e009afc	0.12559122
189	0x3cc890d2	0.024483118
190	0xbebbeeca	-0.3670562
191	0xbe49e594	-0.19716483
192	0x3e856233	0.26051483
193	0x3e770179	0.24121656
194	0xbd0c188a	-0.03420309
195	0x3d75557e	0.059895985
196	0xbd8176ec	-0.06321511
197	0x3e92035b	0.28518185
198	0xbdc88890	-0.09791672
199	0xbe0fa2aa	-0.14026895
200	0xbe21510d	-0.15753575
201	0x3e81fbc5	0.25387397
202	0x3ddcba9f	0.10777783
203	0x3e35d8eb	0.17758529
204	0x3e44a3cf	0.19203113
205	0xbe725f1c	-0.23669094
206	0x3effee0f	0.49986312
207	0xbe8b0f9e	-0.27160352
208	0x3e9a3c93	0.3012434
209	0xbe254bcf	-0.161422
210	0x3e400ae7	0.18754159
211	0x3e14cbd3	0.14530878
212	0xbef2411a	-0.47315294
213	0x3d8e1073	0.06936731
214	0x3e9bd3c9	0.30435017
215	0x3c7f70bc	0.015590843
216	0x3ed3ec63	0.41391286
217	0x3da32e78	0.079678476
218	0xbe37e05f	-0.17956685
219	0x3ef3ce06	0.4761812
220	0xbdde1750	-0.1084429
221	0x3d648776	0.055793248
222	0x3e0c1c22	0.13682607
223	0xbc5d4550	-0.013505295
224	0x3e0226a0	0.12710047
225	0x3e5ab9e1	0.2135997
226	0xbea0cb86	-0.31405276
227	0xbe0d6465	-0.13807829
228	0xbeab9827	-0.3351452
229	0x3e86b592	0.26310402
230	0x3e5e6e74	0.21721822
231	0xbe9bc987	-0.3042719
232	0x3cd0b8a7	0.025478674
233	0x3dcc63b0	0.099799514
234	0xbe6f8607	-0.23390971
235	0xbe79fa85	-0.24411972
236	0x3d7f9e60	0.062406898
237	0x3da57be7	0.08080273
238	0x3ebfe6ad	0.3748068
239	0xbe1f8166	-0.15576705
240	0x3d8fe0e1	0.07025314
241	0x3de44462	0.111458555
242	0xbe8cbb1c	-0.27486503
243	0x3d4ba772	0.049720235
244	0x3d7f9393	0.062396597
245	0x3ddb26be	0.10700749
246	0x3eb07259	0.3446224
247	0x3eb27801	0.3485718
248	0xbe2270b6	-0.15863308
249	0x3e39f21c	0.18158764
250	0x3e1a2a2c	0.1505515
251	0x3de2d081	0.11074925
252	0x3de297f4	0.11064139
253	0x3de9dece	0.1141945
254	0x3ea7fa85	0.3280832
255	0x3ea40dd2	0.32041794

b f4 [32]
0	0x3c974b4f	0.018468527
1	0x3d100da5	0.035169262
2	0x3d0f46c0	0.03497958
3	0xbd02a1c9	-0.03189257
4	0x3d392c5d	0.045208324
5	0x3b715982	0.0036827032
6	0x3d0e5aad	0.034754444
7	0x3d5dbc50	0.054134667
8	0xbc5b3f0e	-0.013381733
9	0x3c11bbb8	0.008894853
10	0x3bd5201a	0.006504071
11	0x3c2929bf	0.010324894
12	0xbb88aa6e	-0.0041707074
13	0xbcd20bc2	-0.025640372
14	0xbc01884a	-0.007906029
15	0xbc20b66b	-0.009809117
16	0xbb12438a	-0.0022318088
17	0xbcb79e26	-0.022414278
18	0x3c5b11f2	0.013370978
19	0xbcc5275e	-0.024066623
20	0x3c49983f	0.012304365
21	0x3d0c26f7	0.034216847
22	0x3ccea4d9	0.02522509
23	0x3c56c314	0.013108034
24	0xbd23e578	-0.04001376
25	0x3c940afe	0.018071648
26	0x3b3fa9fd	0.0029245608
27	0xbb9b4e02	-0.004739524
28	0x3ccba6e4	0.024859853
29	0xbc9462a6	-0.018113445
30	0x3b72417e	0.0036965306
31	0x3ba608b6	0.0050669564

W f4 [32, 32]
0	0xbd1bfdc9	-0.038083825
1	0xbe69fc05	-0.22850044
2	0xba290ef6	-0.0006449068
3	0x3da8cf31	0.082426436
4	0x3e28ff6b	0.16503684
5	0xbf29d6f2	-0.66343606
6	0x3c9d57b2	0.019206855
7	0xbd7af2f5	-0.061266858
8	0xbcdcca23	-0.026951855
9	0xbe9eac7d	-0.30990973
10	0xbf118dd0	-0.56857014
11	0xbe08c3b5	-0.13355906
12	0xbd915638	-0.07096523
13	0x3d0d1f6c	0.034453794
14	0xbe08d689	-0.13363089
15	0x3cc763ef	0.024339644
16	0x3e40b31c	0.18818325
17	0xbd2262de	-0.03964507
18	0xbe9f0aa8	-0.31062818
19	0x3dbe55cd	0.09293709
20	0xbe320d2f	-0.17387842
21	0x3d2742b1	0.040835086
22	0x3de91ff8	0.11383051
23	0x3ed776c4	0.42082798
24	0x3e965456	0.29361218
25	0x3dd7134a	0.10501726
26	0xbec45fb7	-0.38354275
27	0x3d626c57	0.055279102
28	0xbe557757	-0.20846306
29	0x3d245d27	0.0401279
30	0xbe9b0514	-0.30277312
31	0xbe21960a	-0.15779892
32	0xbdf0fc0d	-0.11766825
33	0x3e480fcd	0.19537278
34	0x3d46f575	0.04857393
35	0x3e8c318a	0.27381545
36	0x3dede9f8	0.116168916
37	0xbee071d6	-0.4383685
38	0x3cb67c89	0.02227618
39	0xbce2327d	-0.027611965
40	0xbddec908	-0.108781874
41	0x3ed6961e	0.41911405
42	0xbdafbfa0	-0.085814714
43	0xbe079483	-0.13240246
44	0x3d992daf	0.074794166
45	0x3f29c06e	0.6630925
46	0xbe114f27	-0.1419035
47	0xbf030326	-0.5117668
48	0xbee21f23	-0.4416438
49	0x3ee6a9d6	0.4505145
50	0x3d639861	0.05556524
51	0xbe8f817c	-0.28028476
52	0xbceb8c60	-0.02875346
53	0x3e98ba18	0.29829478
54	0xbdf52bc8	-0.11971241
55	0x3ebdfff5	0.37109342
56	0xbe2e3283	-0.17011456
57	0xbdd755cd	-0.10514412
58	0xbe8e70d3	-0.27820453
59	0x3e470044	0.19433695
60	0x3e0eb5b0	0.13936496
61	0xbbb861f6	-0.005626912
62	0x3e0a675f	0.13515995
63	0xbcb89f27	-0.022536827
64	0xbd8b35c2	-0.06797363
65	0xbdc74e33	-0.09731712
66	0x3d74b234	0.05974026
67	0xbe2e38e3	-0.17013888
68	0xbdbefe7b	-0.09325882
69	0xbcf8014d	-0.030274058
70	0x3db16494	0.08661762
71	0xbe362f19	-0.17791404
72	0x3e647fdc	0.223144
73	0xbf040a1c	-0.51577926
74	0xbc2ad666	-0.010427093
75	0x3e34545c	0.17610306
76	0xb911e403	-0.00013913219
77	0xbe0e1924	-0.13876778
78	0x3d4c7e07	0.049924877
79	0xbe299472	-0.16560534
80	0x3e6732ec	0.22578019
81	0xbe143883	-0.14474683
82	0xbeb77c36	-0.35836953
83	0xbeabf282	-0.33583456
84	0xbe982beb	-0.29721007
85	0xbdfe7bd0	-0.12425959
86	0xbd1612db	-0.036639076
87	0x3eba0aa2	0.36336237
88	0x3d01d647	0.03169849
89	0x3d8b7a48	0.06810433
90	0xbe9efdd5	-0.31053033
91	0x3d1b24f8	0.037877053
92	0x3d7ca4d6	0.061680637
93	0x3eaba0b0	0.33521032
94	0xbebae8e8	-0.36505818
95	0x3e3385df	0.17531537
96	0xbe79d4f0	-0.24397635
97	0x3ec836ca	0.391043
98	0x3aaafcf7	0.001304536
99	0x3e9800b7	0.29688045
100	0xbc65bc9c	-0.014022019
101	0xbe5e774e	-0.21725199
102	0x3f022b93	0.5084774
103	0x3e06b484	0.13154799
104	0x3d83bd11	0.06432546
105	0xbd3e9a83	-0.046534073
106	0xbe8769f1	-0.26448014
107	0x3e9b95fe	0.30387872
108	0x3b7b3d74	0.003833619
109	0xbe09e99a	-0.13468018
110	0xbde73e6f	-0.11291205
111	0x3e629d65	0.22130354
112	0xbd6bb925	-0.057549614
113	0xbdd2579c	-0.102706164
114	0x3d423227	0.04741111
115	0x3ec07f8d	0.37597314
116	0xbda16714	-0.07880989
117	0x3e8a86bd	0.27055922
118	0xbe0d547d	-0.13801761
119	0xbe05ce9e	-0.130671
120	0x3c76e532	0.015069293
121	0x3dabff93	0.08398356
122	0x3e68d397	0.22736965
123	0x3dff6bae	0.1247171
124	0xbe94714d	-0.28992692
125	0xbe881a5d	-0.26582614
126	0x3db913ab	0.090369545
127	0xbe471dfb	-0.1944503
128	0xbda9e95f	-0.08296465
129	0x3eeb3f8e	0.45946926
130	0x3ed0ce0d	0.40782204
131	0x3deecaaf	0.116597526
132	0x3e5103d5	0.20411618
133	0x3d3d192f	0.046166595
134	0x3e66b42f	0.22529672
135	0xbe39ada5	-0.18132646
136	0xbd903e51	-0.07043136
137	0xbcade8c1	-0.02122915
138	0xbd9a6a2c	-0.07539782
139	0xbe889eb3	-0.26683578
140	0xbe623636	-0.22090992
141	0x3e30ea7c	0.17276949
142	0x3eca066b	0.39458022
143	0x3e739377	0.23786722
144	0x3df358d2	0.118821755
145	0xbe0eb34c	-0.13935584
146	0xbd995946	-0.07487731
147	0xbe0c65c5	-0.13710697
148	0x3df11bb0	0.11772859
149	0xba46903f	-0.0007574595
150	0x3e1eedcb	0.15520398
151	0xbe4342ab	-0.190684
152	0x3e99967f	0.29997632
153	0x3ec0913a	0.376108
154	0xbf1320e5	-0.5747207
155	0xbee35053	-0.4439722
156	0xbe34ef7f	-0.17669486
157	0xbdb7b4b6	-0.08970015
158	0x3e173bf2	0.14768961
159	0xbeeed848	-0.46649384
160	0x3e51c7f1	0.20486428
161	0x3e4c7a62	0.1996856
162	0xbc8106c5	-0.015750298
163	0xbea0c37e	-0.3139915
164	0x3e42b0fe	0.1901283
165	0xbd95cbc8	-0.07314259
166	0x3ee4e93f	0.44709203
167	0x3e94d791	0.29070714
168	0x3ea0ae11	0.31382802
169	0x3c5396c4	0.012914363
170	0xbd68c0e3	-0.056824576
171	0xbd6c4ad4	-0.05768855
172	0x3daf1c7d	0.085503556
173	0x3df28bd1	0.11843074
174	0x3cd6fd7e	0.026243921
175	0x3e89627c	0.2683295
176	0x3ed7a9b8	0.42121673
177	0xbd13ceaf	-0.03608578
178	0x3d928eea	0.07156165
179	0xbeab7858	-0.33490252
180	0xbd1ddd92	-0.038541384
181	0xbe4e23ca	-0.2013084
182	0xbe81382b	-0.25238165
183	0xbeb7f878	-0.35931754
184	0x3dc78dc8	0.097438395
185	0xbeae345f	-0.3402433
186	0xbe11c99f	-0.14237069
187	0xbd27c0b3	-0.040955257
188	0x3d33c03d	0.043884505
189	0xbe895f8d	-0.26830712
190	0x3e9b4a8c	0.30330312
191	0x3d70a12c	0.058747455
192	0x3ed07dc1	0.40720943
193	0xbdcfc229	-0.10144455
194	0x3dca731a	0.09885235
195	0xbe4638a1	-0.1935754
196	0x3db508cf	0.08839571
197	0xbe3414ac	-0.1758601
198	0xbc69e83e	-0.014276562
199	0xbe85e1b0	-0.26148748
200	0xbc6db0e6	-0.014507508
201	0xbc75dc8d	-0.015006197
202	0xbdea9516	-0.11454217
203	0x3f166abf	0.5875663
204	0x3eb1cb00	0.3472519
205	0x3e4bb365	0.19892652
206	0xbe95de59	-0.292712
207	0xbea5450c	-0.3227924
208	0x3e377a75	0.17917807
209	0xbd0329a4	-0.032022133
210	0xbeecc4da	-0.46243936
211	0x3e6fddd0	0.23424459
212	0x3ef92081	0.4865761
213	0x3e061404	0.13093573
214	0xbe020975	-0.1269892
215	0x3e23530d	0.1594965
216	0xbec0a067	-0.37622377
217	0xbe24f683	-0.16109662
218	0x3c30b383	0.010784986
219	0x3dec9535	0.115518965
220	0x3ee013e6	0.4376518
221	0xbe1b075d	-0.15139528
222	0x3ea55e89	0.32298687
223	0x3d29f176	0.04149004
224	0xbec53569	-0.3851731
225	0x3d9292c4	0.071568996
226	0x3e88931d	0.2667474
227	0x3e608b31	0.21928097
228	0x3d8f6833	0.07002296
229	0x3d4a2b0a	0.04935745
230	0x3dfae608	0.12250906
231	0x3eb9ea26	0.36311454
232	0x3e48941a	0.19587746
233	0x3dcca517	0.09992426
234	0x3dc4ca7c	0.09608933
235	0xbe6b23ef	-0.22962926
236	0x3dc77cdb	0.09740611
237	0x3e214a7d	0.15751071
238	0x3d776c4e	0.06040602
239	0x3e61ff41	0.22070028
240	0x3e06b688	0.13155568
241	0x3dfd0c95	0.123559155
242	0x3b34ba97	0.0027577037
243	0xbec2eeed	-0.3807291
244	0xbdf430a6	-0.119233415
245	0x3df9c6ae	0.12196098
246	0xbe0bf370	-0.13667083
247	0xbece7eb2	-0.40331036
248	0x3df9fecc	0.12206802
249	0xbe34b3c0	-0.17646694
250	0xbeab0ab3	-0.334066
251	0x3e92a43e	0.28640932
252	0x3dc2122f	0.094761245
253	0xbdbfb44c	-0.09360561
254	0x3c58d8f7	0.013235322
255	0xbe66a38b	-0.22523324

b f4 [32]
0	0x3bfc506c	0.0077000167
1	0xbbbae8c0	-0.0057040155
2	0xbd5ae613	-0.053442072
3	0xbcc139d5	-0.023587147
4	0xbc8564f8	-0.016283497
5	0xbca6d05b	-0.020363024
6	0x3d2fe3a6	0.04294171
7	0xbbefc727	-0.007317442
8	0xbc7cf66b	-0.01543961
9	0x3c28a526	0.010293281
10	0x3d2c3232	0.042040057
11	0x3cd85f21	0.026412548
12	0xbd346979	-0.0440459
13	0x3cf32580	0.029680967
14	0xbd603a7b	-0.05474327
15	0xbd02ab0a	-0.031901397
16	0x3caf8306	0.021424782
17	0xbb1287b6	-0.0022358722
18	0x3c18af2a	0.009319106
19	0xbd01f937	-0.03173181
20	0x3d6a82af	0.057253536
21	0x3a81d3f8	0.000990509
22	0x3d2fd803	0.042930614
23	0x3cdf3775	0.027248124
24	0xbcd142a0	-0.025544465
25	0x3b7e0966	0.0038762926
26	0x3d2fedd5	0.042951424
27	0x3c3f0aba	0.011660272
28	0xbc8d0af6	-0.01721714
29	0x3c2f2b77	0.010691515
30	0xbd03ac7b	-0.032146912
31	0x3c36854c	0.011140179

W f4 [32, 32]
0	0x3df90a99	0.121602245
1	0x3e253ced	0.16136523
2	0x3d54f3bf	0.051990267
3	0xbd5a2c5f	-0.05326497
4	0xbce2aecb	-0.027671238
5	0x3e5613f2	0.20906046
6	0xbe7ef05d	-0.24896379
7	0xbe1d3049	-0.1535045
8	0x3de3b8a3	0.11119201
9	0x3d663601	0.056203846
10	0xbd3aec9c	-0.045635805
11	0xbe950682	-0.29106528
12	0x3dd6402d	0.10461459
13	0x3caee441	0.021349074
14	0xbc5bae02	-0.013408186
15	0x3de39999	0.11113281
16	0xbd47a68a	-0.04874281
17	0xbe493097	-0.19647442
18	0xbec3d158	-0.38245654
19	0x3e4d9e4f	0.20079921
20	0xbe2b9cb1	-0.16758992
21	0x3e51eb96	0.20500025
22	0xbed1b2f9	-0.40956858
23	0x3f0742e8	0.52836466
24	0x3e20dc8c	0.15709132
25	0x3e83cf71	0.25744203
26	0x3d0ae0ab	0.033905666
27	0xbe747244	-0.23871714
28	0x3eb3d33a	0.3512209
29	0x3e673afb	0.22581093
30	0x3d143b35	0.036189277
31	0xbde3e912	-0.11128439
32	0xbe5188c2	-0.20462325
33	0x3d252951	0.040322606
34	0x3e3d021e	0.18457839
35	0x3ed17dbf	0.4091625
36	0x3e81d0f1	0.25354722
37	0x3f0919d4	0.53555036
38	0x3eadbd4f	0.33933493
39	0xbd13d504	-0.03609182
40	0x3eae7791	0.34075597
41	0x3f117266	0.56815183
42	0x3e8c2629	0.27372864
43	0x3dc2777f	0.09495448
44	0x3deb4d84	0.11489394
45	0xbee77d91	-0.45212987
46	0xbda0d0b8	-0.0785231
47	0x3e9b9674	0.30388224
48	0x3e1693ab	0.14704768
49	0xbe3e3205	-0.18573768
50	0x3e066777	0.13125406
51	0xbebd5b45	-0.36983696
52	0x3ed069c7	0.40705702
53	0xbe4e44be	-0.2014341
54	0x3e8e2928	0.27765775
55	0xbe0aad52	-0.13542679
56	0x3ebad558	0.36490893
57	0xbd5ad598	-0.053426355
58	0x3d635515	0.055501062
59	0xbe882abc	-0.26595104
60	0x3e753a7b	0.2394809
61	0x3ebe8497	0.37210533
62	0x3e315593	0.173178
63	0xbe891b8e	-0.26778835
64	0xbcaa3ca3	-0.020780867
65	0xbf0b78d2	-0.5448123
66	0xbd267a77	-0.040644135
67	0x3e98ed79	0.29868677
68	0xbeb78db9	-0.35850313
69	0xbeede7a2	-0.46465784
70	0xbee656ca	-0.4498809
71	0xbdeb7d89	-0.11498553
72	0x3da98d3a	0.0827889
73	0xbcf3f202	-0.029778484
74	0x3d365874	0.04451795
75	0x3f2915ef	0.66049093
76	0x3ecb0ebe	0.39659685
77	0xbea7cc0e	-0.3277287
78	0xbe54d9b3	-0.2078617
79	0xbdb12ab5	-0.08650724
80	0xbe2bc318	-0.16773641
81	0x3e89413d	0.26807585
82	0xbd31744a	-0.043323793
83	0xbe7fc67b	-0.24978058
84	0xbebad8f6	-0.36493653
85	0xbf20569b	-0.6263215
86	0xbe25762e	-0.16158363
87	0xbd90a46f	-0.07062613
88	0xbf33d654	-0.70248914
89	0xbef8263b	-0.48466668
90	0x3f3b69eb	0.73208493
91	0xbd6533e0	-0.055957675
92	0xbdb90b2d	-0.09035335
93	0x3e83ba2f	0.25727984
94	0xbe2c0789	-0.1679975
95	0x3d4dcc39	0.05024359
96	0x3ee5a279	0.4485052
97	0xbe642773	-0.22280674
98	0x3e3de8a8	0.18545783
99	0xbe12d3f1	-0.14338662
100	0x3ebf7d2a	0.3740018
101	0xbddc55f1	-0.107585795
102	0x3eb24e2a	0.3482526
103	0xbd8ee32d	-0.06976924
104	0xbe8d23d8	-0.2756641
105	0x3e5a0ee1	0.21294738
106	0x3e440362	0.19141915
107	0xbd1eaad4	-0.038737133
108	0x3e86fae0	0.26363277
109	0x3e00ff80	0.12597466
110	0xbd908583	-0.07056715
111	0x3e1a8e1c	0.15093273
112	0xbf0f2d4b	-0.55928487
113	0x3e1de2dc	0.15418571
114	0x3e25fcba	0.16209689
115	0x3d73f191	0.059556548
116	0x3e4091d7	0.18805633
117	0xbe66035a	-0.22462216
118	0xbdcb0ff0	-0.09915149
119	0x3e9d8214	0.30763304
120	0xbdefe58f	-0.11713707
121	0xbe8bdb85	-0.27315918
122	0x3d8d8e96	0.06911962
123	0x3ebe77b4	0.372007
124	0x3dfb5e7e	0.12273882
125	0xbd83c380	-0.06433773
126	0xbeac2e19	-0.3362892
127	0xbf290812	-0.6602794
128	0x3e8eccd9	0.2789066
129	0xbe056564	-0.13026959
130	0xbe82770d	-0.25481454
131	0x3cf240de	0.029571947
132	0xbd5ae399	-0.05343971
133	0x3d11b3f3	0.035572004
134	0x3ef64e23	0.4810649
135	0xbe621dfc	-0.2208175
136	0x3d98ddf8	0.07464212
137	0x3ea0e40d	0.3142399
138	0xbeab494e	-0.33454365
139	0x3d0b07c1	0.03394294
140	0x3eccacee	0.39975685
141	0x3da4de11	0.08050168
142	0xbee4ce9a	-0.44688874
143	0xbd80ce04	-0.06289294
144	0x3db7a13c	0.089663
145	0x3dca8cb4	0.09890118
146	0xbe8bf0f7	-0.2733228
147	0x3e436de6	0.19084892
148	0xbd17630b	-0.03695969
149	0x3d28f48a	0.041248836
150	0xbea64336	-0.32473153
151	0x3f5b4eb5	0.8566697
152	0xbe02b769	-0.12765278
153	0x3e232df7	0.15935503
154	0xbe71ad14	-0.2360118
155	0x3e64effd	0.22357173
156	0x3ea905a0	0.33012104
157	0x3c1d73fc	0.009610172
158	0xbe8e78ef	-0.2782664
159	0x3e244039	0.16040124
160	0x3da2a43e	0.07941483
161	0x3ea680db	0.32520184
162	0x3dc416cd	0.095746614
163	0xbeb7bd92	-0.35886818
164	0xbeaaf019	-0.33386305
165	0x3cce490a	0.025181312
166	0x3ede78b2	0.43451458
167	0x3e82b0a4	0.2552539
168	0x3e5d5d0e	0.21617529
169	0xbdfd1a51	-0.12358535
170	0x3dcc9420	0.0998919
171	0x3ebd0c8f	0.36923644
172	0x3c20dab3	0.009817767
173	0x3dcd64ca	0.100289896
174	0xbe7b65c2	-0.24550536
175	0x3e5fb705	0.2184716
176	0xbe22bb68	-0.15891802
177	0xbdaa2dbf	-0.083095066
178	0xbe0fdc74	-0.1404894
179	0xbe937989	-0.2880366
180	0xbcfd7b66	-0.03094263
181	0x3ec00ce6	0.3750984
182	0x3e273144	0.16327387
183	0x3df2e884	0.11860755
184	0xbd01e49f	-0.03171217
185	0xbea0e27f	-0.31422803
186	0x3d93099a	0.07179566
187	0x3e37f1c9	0.17963327
188	0x3ca7c526	0.02047975
189	0xbcd78b2a	-0.026311476
190	0xbe792bd8	-0.24333131
191	0xbe56ae8b	-0.2096502
192	0xbcd8c682	-0.026461843
193	0x3e043104	0.12909323
194	0x3e865761	0.2623854
195	0x3ea43c03	0.32077035
196	0xbe4ac46b	-0.1980149
197	0xbd9274e4	-0.07151201
198	0xbeb148a5	-0.34625736
199	0xbd1b2609	-0.03787807
200	0x3e948b9e	0.2901277
201	0xbe000c1b	-0.12504618
202	0x3e344e78	0.17608058
203	0xbe4ba3dc	-0.19886726
204	0x3e65d9d0	0.2244637
205	0x3e9ed8b6	0.31024712
206	0xbd59d31d	-0.05317985
207	0xbe8d6ecf	-0.27623603
208	0xbe192ac6	-0.14957723
209	0x3d43f299	0.04783878
210	0xbdf02ccb	-0.117272936
211	0x3e11ff6c	0.14257592
212	0x3c93a120	0.018021166
213	0x3dbe9bd8	0.093070686
214	0xbe57a1c6	-0.21057805
215	0x3f1f4773	0.622184
216	0xbec02372	-0.37527043
217	0x3e0518b2	0.12997702
218	0x3e365f2e	0.17809746
219	0x3e6ae02b	0.22937076
220	0xbe5c59a3	-0.21518569
221	0xbeadf962	-0.33979326
222	0xbe89c302	-0.26906592
223	0x3d17bfbc	0.037048087
224	0xbe62309c	-0.22088856
225	0xbcf50c19	-0.029912995
226	0xbacc58eb	-0.0015590464
227	0x3e4319b9	0.19052781
228	0x3f01a89d	0.5064791
229	0xbea0cc9b	-0.31406102
230	0xbd63243b	-0.055454474
231	0x3e3d0e17	0.18462406
232	0xbeceddc2	-0.40403563
233	0xbe6ddab3	-0.23227958
234	0xbe94d073	-0.29065284
235	0x3f163d2e	0.586871
236	0x3e9921ad	0.29908505
237	0x3e129846	0.143159
238	0x3edfedf2	0.43736225
239	0x3df3c404	0.119026214
240	0x3c54abfa	0.0129804555
241	0x3dd889c0	0.10573149
242	0x3e15998c	0.14609355
243	0x3dc36b01	0.09541894
244	0x3e05ea79	0.13077725
245	0x3ee9bb9d	0.4565095
246	0xbd2eb036	-0.042648517
247	0xbdecda11	-0.1156503
248	0xbd68d52a	-0.056843914
249	0xbe07d193	-0.1326354
250	0x3eaa0a3e	0.3321094
251	0xbe9fe4f6	-0.3122937
252	0x3c2f24a6	0.01068989
253	0xbf21d2c5	-0.63212234
254	0x3c2fb7fb	0.010725017
255	0xbd004c9f	-0.03132307

b f4 [32]
0	0x3d22baf9	0.039729092
1	0x3c1c9957	0.009558043
2	0x39b1c38f	0.00033905773
3	0x3cc10122	0.02356011
4	0x3c893b15	0.016751805
5	0x3c90801a	0.017639209
6	0x3c020781	0.007936359
7	0xbcc41315	-0.02393488
8	0x3ad814b4	0.0016485662
9	0x3d0c4c9b	0.034252744
10	0x3d063b61	0.032771472
11	0xbc8c59f1	-0.017132731
12	0x3c3fa066	0.011695957
13	0x3c991d31	0.018690677
14	0xbcf13a7e	-0.029446837
15	0x3ca7f9a6	0.020504784
16	0xbc6b24d7	-0.014352045
17	0x3c704600	0.014665127
18	0x3d798580	0.06091833
19	0x3caab627	0.02083881
20	0x3ca0246b	0.019548615
21	0xbc9c1738	-0.01905404
22	0xbd356fd3	-0.044296097
23	0xbc497fb4	-0.012298513
24	0x3d22a9e3	0.039712798
25	0x3c7cc267	0.0154272085
26	0x3c3eabb0	0.011637613
27	0xbc5c72c7	-0.013455099
28	0x3a270228	0.0006370866
29	0xbc0a6602	-0.008447172
30	0xbcab8bb7	-0.020940645
31	0x3bf3e6a5	0.0074432665

W1 f4 [32, 128]
0	0x3dd77cca	0.105218485
1	0x3dda3ea7	0.10656481
2	0x3d868564	0.06568411
3	0x3de9a7da	0.11408968
4	0xbe290737	-0.16506658
5	0x3d92b21d	0.07162879
6	0xbe1ad957	-0.15121971
7	0x3d0884ee	0.033329897
8	0x3b13e8f9	0.0022569282
9	0xbe7ba56d	-0.24574824
10	0x3e033d4a	0.12816349
11	0xbd59b6bb	-0.05315278
12	0xbc953dda	-0.01821797
13	0xbce34939	-0.027744876
14	0x3c918a14	0.017766036
15	0xbe8626b0	-0.2620139
16	0xbd503874	-0.050835088
17	0x3c5fabdf	0.013651817
18	0x3d82b389	0.063819
19	0xbc1de24c	-0.009636473
20	0xbe800e0c	-0.25010717
21	0x3d700401	0.05859757
22	0xbde33cdf	-0.110955946
23	0x3e5e9c90	0.21739411
24	0xbe0af63a	-0.1357049
25	0x3c7cac6f	0.015421971
26	0xbe6e2f47	-0.23260222
27	0x3d705ab8	0.058680266
28	0xbe302023	-0.17199759
29	0x3d7cc73a	0.061713435
30	0x3e08326e	0.13300487
31	0x3dc7ef03	0.09762385
32	0x3e599de9	0.21251644
33	0xbd47bb86	-0.04876282
34	0x3d4c9636	0.04994794
35	0x3d616772	0.055030294
36	0xbd402b6d	-0.046916414
37	0x3e2afc42	0.16697791
38	0xbd80da00	-0.0629158
39	0xbe3c204b	-0.18371694
40	0x3b17d4e2	0.002316766
41	0x3e27608b	0.16345422
42	0xbca53bed	-0.020170176
43	0x3d1a1e1f	0.037626382
44	0x3d831f06	0.064024016
45	0xbc9491df	-0.018135963
46	0x3e8b2819	0.2717903
47	0x3dace7ea	0.084426716
48	0x3e635015	0.22198518
49	0xbcfb158f	-0.030649928
50	0xbd9ba59d	-0.075999476
51	0xbe8d1ee6	-0.27562636
52	0xbe0f49b9	-0.13992967
53	0x3e335624	0.17513329
54	0xbd0838fe	-0.033257477
55	0xbd42779d	-0.047477353
56	0x3e041fc7	0.12902747
57	0xbe16c5f3	-0.14723949
58	0x3d299757	0.041404095
59	0x3d43512d	0.047684837
60	0xbd88d416	-0.06681077
61	0x3e0bafab	0.13641231
62	0x3c77f8e9	0.015135028
63	0x3e4b576b	0.19857566
64	0xbda2ef33	-0.0795578
65	0xbd13df45	-0.0361016
66	0x3d9322ef	0.071843974
67	0x3c98ac0a	0.018636722
68	0x3e88c83e	0.26715273
69	0x3b2735b3	0.0025514185
70	0x3ccf7320	0.02532345
71	0xbe0ddc86	-0.13853654
72	0x3d8fb6c6	0.07017283
73	0x3e88efcb	0.26745448
74	0xbcd3c0bc	-0.025848739
75	0xbe6f31fd	-0.23358913
76	0xbc96f332	-0.018426511
77	0x3d80860b	0.06275567
78	0xbd7d080a	-0.061775245
79	0x3d990195	0.07471005
80	0x3e1a89c9	0.15091623
81	0x3e4c7619	0.19966926
82	0x3cddfffe	0.027099606
83	0xbdf982c9	-0.121831484
84	0xbdd1dbdb	-0.10247012
85	0x3b2559c4	0.0025230506
86	0x3e0c31da	0.13690892
87	0x3d0522a8	0.032503754
88	0x3d89e377	0.067328386
89	0x3d2671eb	0.040635984
90	0x3e07edfa	0.13274375
91	0xbd6448f7	-0.055733647
92	0xbdc0e8c5	-0.09419397
93	0xbd52d904	-0.051476493
94	0x3d83e5a8	0.06440288
95	0xbb910674	-0.004425818
96	0x3e5a66dd	0.21328302
97	0xbbea61d5	-0.007152776
98	0x3da5ae00	0.080898285
99	0x3dcae39e	0.09906696
100	0xbca9f386	-0.020746004
101	0x3d0b3d85	0.033994216
102	0xbe57abbe	-0.21061608
103	0x3e32fd14	0.17479354
104	0xba91f8b2	-0.0011136739
105	0x3d0422e3	0.032259833
106	0xbe13146c	-0.14363259
107	0x3e5b38ce	0.21408388
108	0x3d82641c	0.063667506
109	0xbd62222d	-0.055208374
110	0x3d9f2f9d	0.077727534
111	0x3e02382a	0.12716737
112	0xbdd849ad	-0.105609275
113	0xbe4af64a	-0.19820514
114	0x3d219579	0.03944919
115	0xbe29b99f	-0.16574715
116	0xbe9bf110	-0.30457354
117	0xbd4b49c1	-0.049630884
118	0xbca5b291	-0.020226749
119	0xbe12d75b	-0.14339964
120	0xbdc5e4f2	-0.096628085
121	0x3da07c26	0.078361794
122	0xbdd920c5	-0.106019534
123	0x3df9a1ba	0.1218905
124	0x3d76501c	0.060134992
125	0x3dcbcb6d	0.0995091
126	0x3d4d74ab	0.05016009
127	0x3dfeb195	0.12436215
128	0x3e4443ec	0.19166535
129	0xbe5447ee	-0.20730564
130	0x3d8a1af1	0.0674342
131	0x3cf3b6b8	0.029750213
132	0xbde64279	-0.112431474
133	0x3d22a793	0.039710592
134	0x3d877874	0.066147715
135	0xbda32f20	-0.07967973
136	0xbe03ddf1	-0.12877633
137	0x3e53153b	0.20613568
138	0xbdff5d86	-0.1246901
139	0xbdb49139	-0.088167615
140	0x3e594824	0.21218926
141	0x3d1b6542	0.037938364
142	0x3e132f44	0.14373499
143	0x3ddd64ca	0.108102396
144	0xbbdef747	-0.00680438
145	0x3d15862a	0.036504902
146	0xbd197c0f	-0.037471827
147	0xbd8ab602	-0.067729965
148	0xbdd438eb	-0.10362419
149	0x3e8e15be	0.27750963
150	0x3e012a32	0.12613752
151	0xbd1e9e42	-0.038725145
152	0xbced52dc	-0.028970174
153	0x3d2aa5b5	0.041661937
154	0xbc5df0b4	-0.013546158
155	0xbe14eb2e	-0.14542839
156	0x3e860618	0.26176524
157	0x3d8199d5	0.06328169
158	0xbecb29d0	-0.39680338
159	0xbd7a065f	-0.061041232
160	0x3dddf283	0.10837271
161	0x3d623cf0	0.055233896
162	0xbda49f9e	-0.08038257
163	0xbe0885a9	-0.13332237
164	0xbdd760bf	-0.105165
165	0xbd341117	-0.04396161
166	0x3d474554	0.0486501
167	0xbea7253e	-0.326456
168	0xbc27a3d6	-0.010231933
169	0x3d43a3a4	0.04776348
170	0x3cfe90eb	0.031074962
171	0x3ba642a4	0.005073862
172	0xbe1c9d60	-0.15294409
173	0xbe34b3f3	-0.1764677
174	0x3dca7a95	0.09886662
175	0xbcb5ba2f	-0.022183506
176	0x3d74667f	0.05966806
177	0x3deb94fd	0.11503027
178	0xbd92de62	-0.071713224
179	0x3db972af	0.09055077
180	0x3dd8accf	0.105798356
181	0xbdf18506	-0.1179295
182	0x3dcd4ef6	0.10024826
183	0xbb600ee6	-0.0034188568
184	0x3ea004fd	0.31253806
185	0xbd2e9a8e	-0.042627864
186	0xbcc50b32	-0.02405319
187	0xbb95c983	-0.004571141
188	0xbda9d732	-0.082929984
189	0x3d92f7ff	0.07176208
190	0xbe2257f9	-0.15853871
191	0xbe311635	-0.17293628
192	0xbc8e2337	-0.017350776
193	0xbe28d601	-0.16487886
194	0x3d71f72a	0.059073605
195	0x3d1a193a	0.037621714
196	0x3ccaab55	0.0247399
197	0x3d825a57	0.06364887
198	0x3d193bd8	0.037410587
199	0x3b2422f2	0.0025045243
200	0x3ddb3545	0.1070352
201	0x3ec75bfb	0.38937363
202	0xbde4626b	-0.11151584
203	0xbe216eb4	-0.15764886
204	0x3db04479	0.0860681
205	0x3e0485a4	0.12941605
206	0x3e1d261b	0.15346567
207	0xbec683f2	-0.3877254
208	0xbe160251	-0.14649321
209	0x3d71cc90	0.059032977
210	0x3d7ebb43	0.062190305
211	0x3da8a8dc	0.08235332
212	0xbb2d09dd	-0.0026403584
213	0xbddb910b	-0.10721024
214	0x3d414c71	0.04719204
215	0xbe739b5d	-0.23789735
216	0x3de895a8	0.1135667
217	0xbe1a3555	-0.15059407
218	0xbd72f74f	-0.059317883
219	0x3d1ed348	0.038775712
220	0xbe091643	-0.13387398
221	0x3e25719e	0.16156623
222	0x3e83f3d9	0.25771978
223	0xbe187019	-0.14886512
224	0x3dbaa839	0.09114117
225	0x3e3c3f4d	0.18383522
226	0x3e072a4d	0.1319973
227	0x3dfeccc4	0.124414
228	0xbddcbecd	-0.1077858
229	0x3e09f757	0.13473259
230	0xbe25d591	-0.1619475
231	0x3cf9ac33	0.030477619
232	0xbc9e4822	-0.019321505
233	0xbe09360f	-0.13399528
234	0xbca9e3fe	-0.020738598
235	0x3d8ee1cd	0.06976662
236	0x3e4f8aa4	0.20267731
237	0xbc8e71a9	-0.017388182
238	0x3d2bb724	0.041922703
239	0x3e6e2eb4	0.23260003
240	0xbdec89bd	-0.11549709
241	0x3da74a7c	0.08168504
242	0x3cf421f7	0.029801352
243	0x3d3cd4ff	0.046101566
244	0xbd87a4e3	-0.066232465
245	0x3e60fd13	0.2197154
246	0x3df408fd	0.11915777
247	0x3da7cdc3	0.08193543
248	0x3e80d44d	0.25161973
249	0x3b4cfb57	0.003127774
250	0xbde54a03	-0.11195757
251	0x3e012969	0.12613453
252	0x3dd0be2b	0.10192522
253	0x3dc57875	0.09642116
254	0xbd446551	-0.047948185
255	0xbdb0ab34	-0.086264044
